histories_pre/LSTM_EEGNet_BcicIv2a_pt/70.07%_slf=050_bs=064_lr=0.0360_ld=0.999932_nl=1_hs=064_do=0.53/best_valid_acc.pt (torch, 99333 bytes, 6 tensors)

weight_ih_l0 f4 [256, 22]
00000000: 4e90 753f 2f65 65c0 53ed ac3e 73a2 0f3f
00000010: 57c0 253e 82b8 1bc0 06c7 b5bf d705 90c0
00000020: 636c d8bf dc72 6ebf d8c9 3ebf f6cb 1540
00000030: 17a6 17c0 cc46 0cc1 8936 4fbf bebe 03c0
00000040: d586 f5bf 65e5 75c0 a3ec a7be 2326 223e
00000050: 252a e2bf cb41 b5bf ebef 7cbe 2d4c 7cbf
00000060: 2d4a 42bf b85d 88bf ea4a 79bf ce27 bbbf
00000070: 9df2 18be 839b 08be 50f5 cc3e 2398 50be
00000080: 50f1 dc3d 5a1a 95bf 8549 0ebf f907 f3be
00000090: 90ba 733f 4c1b 75be aefa 92bf 82ec 8abe
000000a0: 42c4 0d3e 7fca 45bf 1501 233f c424 05be
000000b0: f5db 77bf 6a6a 013f 5b14 9dbf 1ac3 a1c0
000000c0: cf70 78c0 a7c2 a6bf 8d57 c6be 45ce 8abe
000000d0: d7b7 a7bf 953c f0c0 a300 19c1 43de 79c0
000000e0: 03d4 8bbe 1d4a 02c0 49b3 20c0 90cb cec0
000000f0: ed61 f6bf ab58 64c0 4544 edbf 19aa 9e3e
00000100: ecd5 e4be 3b65 05be bc28 c23d 5dfd c9be
00000110: f4f2 233f 81ff 88bd 2387 43c0 078d 04c0
00000120: 416d bcbe f383 b8bf 01bd 10be 4ea0 443f
00000130: 20a2 62c0 91b8 983f cc33 5f3f 1c13 e3be
00000140: bcca 10c0 b863 96bf 63fa 0ac0 9324 7e3e
00000150: b852 53c0 a932 8bc0 1ff9 08c0 fb8e 2cc0
00000160: a27b 61c0 8d96 a93e e0f2 77bd 4bd5 f33f
00000170: 22e7 d03f 3327 7040 e8b5 4bbe 2a03 21bf
00000180: 95c1 2dbf 6a97 303e 83e3 2840 adec 7cc0
00000190: b76b 21c0 2164 8240 8b90 c13f ccf7 42c0
000001a0: c313 053f 3228 5dbf 15a3 25bf 80a0 85bf
000001b0: a347 7540 7800 a1bf f9a3 e33f a551 d0bf
000001c0: b756 39bc 60bb c3bf b694 1c3f 4290 ab3f
000001d0: ed01 13c0 5217 3640 12bd 03c0 4943 35c0
000001e0: af10 ec3f 2831 403f 0cf0 68c0 6e9a d63f
000001f0: 7427 223f 1617 4640 ac48 aa3f a9a8 80bf
00000200: 2c68 a2bf daba 673f a3b3 293e 9e19 1b3f
00000210: 5fae 7dbf 6ac4 883f c964 0240 0010 223f
00000220: b52c 95c0 1242 dfc0 f96a 333f 8658 8f3f
00000230: cfb2 7a40 7a5b 9d3f b2a9 77c0 63f9 383f
00000240: c9b0 2d40 75c1 32be ba50 463f b54d b3bf
00000250: c61f dc3f 432f 7940 d6ba ea3e 77c7 3340
00000260: 28de 203f 4049 eebf cd43 b2bf ec59 48be
00000270: 12e0 71c0 b4fe 1ac0 4c5b 99c0 1097 88c0
00000280: a89b 45c0 f280 91c0 b6b6 1bc0 30fb 683f
00000290: 7a0f be3e 2139 4cbf 5fde 94c0 dca8 26bf
000002a0: 96f3 75bf 6eac 493f 87f4 1dbe 5faa f23e
000002b0: b41c 85bf 5cef dbbf 7c02 22c0 6656 36c0
000002c0: c046 68be bd5e 4e3f 1854 863f ac84 e5bf
000002d0: d87e 20c0 889e c9c0 12b4 21c0 491d 8fbf
000002e0: 76a0 26be bc2e 0fc0 a9e5 a4be 1012 41c0
000002f0: 145e b3c0 dd53 af3e 5461 02bf 1177 683f
00000300: 0127 ed3f 03e0 64bf 2132 3e3e 40a6 01be
00000310: 433d ccbf 51aa 1bbf 8c08 29bf 03ee 66bf
00000320: a4fa 12bf 1519 973f 9e93 31bf 61ee 08c0
00000330: 18c1 48c0 8f8e 08c0 0173 4ec0 a6bb 0340
00000340: 1d7e 8f3f 533e 56bf a714 20c0 e3d2 ba3e
00000350: d97d 0dbf 953f 2240 4ca5 d03f 9b18 ea3f
00000360: be1d 10bf ba3a c2bf b75b a03c 2185 3ec0
00000370: caab f9bd f0f2 cfbe 44da 073e ca37 27bf
00000380: d47f f9be 25f1 e4bd b7ad 883f d70e a03f
00000390: 28a3 4b3f 1b1e 3c3f 2d96 323f 4ba6 093f
000003a0: 8fee a93f c202 b53f d6d7 aa3f 959c 9d3f
000003b0: 5480 7e3f 01ee ed3f 9220 e83f 239c a23f
000003c0: eaa9 0440 e018 c93f b4e4 92bf d3a7 8ebf
000003d0: 1ee6 9ebf 897a 4c3f d6a0 2a3f 1fcd 03bf
000003e0: 118f 3140 baa5 183f 4289 14c0 32fe acbf
000003f0: 2c51 42c0 1907 c23f 7d5e 883e 0360 ca3c
0.95923316 -3.5843008 0.33774814 0.5610725 0.16186653 -2.4331365 -1.4201362 -4.500713
-1.6908077 -0.9314401 -0.7452674 2.3405738 -2.3695123 -8.767284 -0.8094259 -2.058517
-1.9181772 -3.8421261 -0.32797727 0.1583486 -1.7669111 -1.4160703 -0.24700896 -0.98553735
-0.75894433 -1.0653601 -0.97379935 -1.4621522 -0.149363 -0.13340573 0.4003091 -0.20370536
0.10788214 -1.1648667 -0.5558093 -0.4746702 0.95206547 -0.23936194 -1.1482751 -0.27133566
0.13844398 -0.7726211 0.63673526 -0.13002306 -0.9682 0.50553 -1.2271837 -5.055066
-3.8818853 -1.3028153 -0.3873867 -0.27110496 -1.3102978 -7.5073953 -9.562655 -3.9041908
-0.2731019 -2.0357735 -2.5109427 -6.462349 -1.9248635 -3.5679119 -1.8536459 0.3098915
-0.4469446 -0.13026898 0.09480426 -0.39451113 0.6404259 -0.066893585 -3.055123 -2.0711076
-0.36802104 -1.4415268 -0.141346 0.76807106 -3.5411453 1.1931325 0.8718841 -0.44350517
-2.262374 -1.1749182 -2.1715324 0.2481864 -3.3019238 -4.349934 -2.1402051 -2.6962268
-3.523171 0.33122674 -0.060534358 1.9049467 1.6320536 3.7523925 -0.1989361 -0.6289545
-0.6787351 0.1724526 2.6388862 -3.9519455 -2.5221994 4.074723 1.5122236 -3.0463743
0.5198328 -0.8638946 -0.6470197 -1.0439606 3.8324974 -1.2578268 1.7784415 -1.6274916
-0.011312178 -1.5291557 0.61164415 1.3403399 -2.2969925 2.8451734 -2.058415 -2.8322318
1.8442591 0.75075006 -3.6396513 1.6765878 0.6334145 3.095159 1.3303428 -1.0051471
-1.2688041 0.9051949 0.16572432 0.60585964 -0.99094194 1.0684941 2.0374014 0.63305664
-4.6617074 -6.976815 0.700851 1.119889 3.9171636 1.2293541 -3.8697324 0.72255534
2.713915 -0.1745661 0.7746693 -1.4008089 1.7197196 3.8935096 0.4584567 2.8090494
0.62838984 -1.8616104 -1.3926941 -0.19565552 -3.7793012 -2.4217958 -4.7923946 -4.2684402
-3.0876255 -4.5469904 -2.4330268 0.9100828 0.37121183 -0.7977467 -4.652145 -0.6510141
-0.9607481 0.7877873 -0.15425311 0.47395608 -1.0399384 -1.7182422 -2.5314016 -2.8490233
-0.22683239 0.8061331 1.0494413 -1.7931113 -2.507742 -6.300602 -2.5266156 -1.1180812
-0.16272148 -2.2372274 -0.32206467 -3.0167274 -5.605234 0.3424367 -0.5092976 0.9080668
1.8527528 -0.89404315 0.1857381 -0.12661076 -1.5956196 -0.6080676 -0.66028666 -0.9020693
-0.574137 1.180453 -0.6936587 -2.1395495 -3.1367855 -2.133701 -3.2257693 2.0583282
1.1210362 -0.8368885 -2.5012605 0.3648902 -0.55270153 2.5351307 1.6300445 1.8288759
-0.5629538 -1.5174172 0.019574983 -2.9768755 -0.12190969 -0.40615034 0.13266855 -0.653195
-0.48730338 -0.11178807 1.0678014 1.2504529 0.7954583 0.7348344 0.697604 0.5376937
1.3275927 1.4141467 1.3347118 1.231341 0.99414563 1.8588258 1.813494 1.2703899
2.0728707 1.5710716 -1.1476045 -1.1144966 -1.2413976 0.79874474 0.66651666 -0.51484865
2.774357 0.5962788 -2.3208776 -1.3515074 -3.0362043 1.5158416 0.2663459 0.024703985

weight_hh_l0 f4 [256, 64]
00000000: a085 b2bf 8d59 09c0 5f9c 99bf 9774 2240
00000010: e900 9ac0 fa02 bdbd 0da4 0240 e7fc 24c0
00000020: 418c 4840 3d98 04bf aaf1 663f 6c6f d8be
00000030: d9c2 c43e 2711 4840 bcb6 adbf b6a5 953e
00000040: b8fa 91bf d347 a5be 0c9c 44c0 69b9 c840
00000050: e557 0240 336e 7840 37a5 5cc0 7d9f 3840
00000060: a5d8 a0bf 1e20 413e 41c0 3fbf d981 33c0
00000070: 036b 733f 91dd 3740 ecec 073f c8e0 b7bf
00000080: fdcd c3bf 0008 6cc0 1cb4 333f d3d9 74c0
00000090: f1bd 08c1 522e 8e3f 08fb 9740 8ced 7540
000000a0: 69f5 babf 7c09 b6bf 2bad 93bf 83f4 b83d
000000b0: 8513 8ebf 7ea6 ba3f efe4 98c0 a956 51c0
000000c0: 5e92 a6be 79f3 d03f a3b4 47c0 8cd5 57c0
000000d0: 8e8e 1540 2082 08c0 7451 6340 3bbf aec0
000000e0: 9f86 ab3f 8e2c 80c0 3ef7 eac0 2dcf 4bc0
000000f0: 17a5 b1be 9419 723f 8e8d f63e 0816 a5c0
00000100: 5d4d 03bf da9c 113f dc03 773d 22b2 003e
00000110: 8d2c 013f e158 643f 41e6 fabe c2e0 35c0
00000120: 8248 d13e cb2a c6bf f016 14bf 4434 f13c
00000130: 93a4 f8be 34fa d43f 4566 76bf 5302 c7bd
00000140: 4089 32be 46c0 46be 6f23 163e ddd4 8f3f
00000150: 4090 12bf 0bd3 93bc 0b51 18bf f9c1 883f
00000160: 5ba9 50bf 6a2c 4dbf 9b3e 673f 2261 cd3e
00000170: 520c b7bf de8b f8be 753a 48c0 1493 7e3f
00000180: d114 813f a806 0cbf f4d7 743e fe68 3c3f
00000190: b0cf 4dbd dba3 cb3d 8f2c 29bf 150a e9bf
000001a0: 8a02 cabc 0a65 853e 0deb 883f bbc5 503f
000001b0: ee06 9b3f f40b 00bf 93d2 65be f476 a13e
000001c0: 6721 4b3f c2c3 163f b4b0 b33f 1862 16bf
000001d0: 572b b1bf f339 82bf f19f 98bd d8f6 b83e
000001e0: d121 adbf 9279 993f 9f1a debe 7ff0 c03e
000001f0: dda8 cf3f 3f6e 81bf 0063 d33f fa6d 003c
00000200: 7390 c440 fc28 bbbf cb0c 12bf 31ab 8fbf
00000210: 985a 7bc0 dbbb 46c0 9dec 82bf 6003 1840
00000220: 59be 05be 724b 78be 1097 2140 8b04 babe
00000230: 8d5c 433f e9e2 c43f 7608 9a40 954b 4f3f
00000240: e796 92c0 737e 563f 94bf 07bf 7600 03c0
00000250: 6793 2840 5e4e 8cbf 5356 1040 0c93 713f
00000260: 667c 093f c491 06bf 0b94 883e a02f 1940
00000270: 5d79 34be 2a76 28c0 1235 1540 6f63 3a3e
00000280: 6ff6 36c0 ce78 3440 664a f63f bdc7 0a40
00000290: 0383 0bc0 b765 88c0 1a46 53be 7e4b a13f
000002a0: 5c03 0fc0 0825 3dc0 5f79 6340 4fec 31bf
000002b0: fef1 65bf e02c 9a3e c210 2bc0 373e 9a3f
000002c0: 46af ecbf e632 463f dd33 143f 5786 653f
000002d0: 6dfd 823e 9799 6540 689a 243f cad6 3d3f
000002e0: 9a78 ad3d 8f90 03be 3411 6ebf 7aae a240
000002f0: 299d 15c0 64da bec0 8c5e c33e 72ec 5bbf
00000300: 280f 5140 34f5 cabe 141d e53f 5b0c 00c0
00000310: 07d8 8ec0 f2db 12c0 d7e3 29bf ee4c b2bf
00000320: a7c5 003f a1cf 1040 2023 1740 9d02 af3e
00000330: 98d1 8a3e 865b 493f 034a 81bf e83c 66bf
00000340: a530 64bf 2b28 5a3f 91cc 4bbf b704 a93e
00000350: db68 1640 3995 783f 24be 13c0 a0fe ad40
00000360: 8205 65c0 0900 28bf 355e b53e 9dfc aa3f
00000370: 8624 77bf 7ddf debf 9952 3bc0 f1ef 753c
00000380: 6512 8840 b828 ed3f 9467 0340 1e33 a5c0
00000390: c200 09c0 6cf1 53c0 8330 7b40 c0e6 d63f
000003a0: b377 983f 52ef b03c e53a 25c0 b31d 1b40
000003b0: b774 93c0 2524 bcbf c1cf e5bf 2897 c4bf
000003c0: 01dc 7140 e85b e9bf 2321 27bc d5d5 3d40
000003d0: 345a 0bc0 a95c 9cc0 d1b9 e1bf 2003 03bf
000003e0: ebb1 b23f 909c 25c0 0191 153f c468 c33f
000003f0: 58e7 d83e 0aa8 89bf 58c0 b73f 528e 25c0
-1.3947029 -2.1460907 -1.2000846 2.538366 -4.812611 -0.09229083 2.0412629 -2.577936
3.1335604 -0.517948 0.902125 -0.42272508 0.38429907 3.126047 -1.3571391 0.2922799
-1.1404638 -0.3228136 -3.0720243 6.272633 2.0366147 3.881726 -3.447584 2.8847344
-1.2566115 0.18859908 -0.7490273 -2.8048003 0.9508516 2.8728983 0.5309589 -1.4365473
-1.5297238 -3.6879883 0.701967 -3.825795 -8.546372 1.1107886 4.7493935 3.8426237
-1.4606143 -1.4221644 -1.1537222 0.09031012 -1.1099707 1.4582059 -4.777946 -3.2709143
-0.32533544 1.6324302 -3.1204002 -3.3724089 2.3368258 -2.1329422 3.5518465 -5.4608436
1.3400458 -4.005439 -7.342681 -3.18452 -0.34696266 0.9457028 0.48154873 -5.1589394
-0.5128992 0.5687996 0.060306415 0.12567952 0.50458604 0.8919812 -0.49003795 -2.8418431
0.40875632 -1.5481809 -0.578475 0.029443868 -0.4856306 1.6638856 -0.962498 -0.0971724
-0.17435169 -0.19409284 0.14661954 1.1236836 -0.5725136 -0.018044969 -0.5949866 1.0684196
-0.81508416 -0.80145895 0.90329903 0.4011317 -1.4300635 -0.4854421 -3.128568 0.99443173
1.0084478 -0.54697657 0.23910505 0.73597705 -0.050246894 0.09943362 -0.66083616 -1.8206202
-0.024659414 0.2605365 1.0696732 0.8155171 1.211149 -0.5001824 -0.22443609 0.31536067
0.7934784 0.5889245 1.40383 -0.5874343 -1.3841351 -1.0173935 -0.074523814 0.36125827
-1.3525945 1.1990225 -0.43379685 0.37683484 1.6223408 -1.011177 1.6514587 0.00783872
6.142633 -1.4621882 -0.5705077 -1.1224118 -3.9274044 -3.1052158 -1.0228459 2.375206
-0.13060893 -0.2424753 2.5248451 -0.3633159 0.76313096 1.5381747 4.813533 0.80974704
-4.5809207 0.83786696 -0.530267 -2.0469031 2.6339967 -1.0961416 2.2552688 0.94365
0.5370544 -0.5256617 0.26675448 2.3935318 -0.17624421 -2.6322122 2.3313642 0.18201993
-2.858791 2.8198733 1.9241455 2.168441 -2.1798713 -4.2624164 -0.2063221 1.2601163
-2.23458 -2.9553852 3.554283 -0.69501203 -0.89822376 0.30112362 -2.6728978 1.2050236
-1.8490989 0.77421415 0.5789164 0.8965811 0.25583974 3.5874994 0.64298105 0.7415587
0.084702685 -0.12848113 -0.92995 5.0837984 -2.3377173 -5.964159 0.3815807 -0.8590766
3.26655 -0.396402 1.7899499 -2.000754 -4.4638705 -2.2946744 -0.6636328 -1.3929727
0.50301594 2.2626727 2.3615189 0.3418168 0.27113032 0.7865528 -1.0100712 -0.89936686
-0.89136726 0.8521754 -0.7960902 0.3301141 2.3501499 0.97102696 -2.3084803 5.437332
-3.5784612 -0.65625054 0.35423437 1.3358341 -0.96540105 -1.7411953 -2.9269164 0.01501082
4.2522454 1.8528051 2.053197 -5.16249 -2.1406713 -3.3116102 3.924836 1.6789169
1.1911529 0.021598492 -2.5817196 2.4236877 -4.6079974 -1.469853 -1.7954026 -1.5358629
3.779053 -1.8231173 -0.0102007715 2.9661763 -2.1773806 -4.886311 -1.7634832 -0.51176643
1.3960546 -2.5876808 0.58424383 1.5266347 0.42364 -1.0754406 1.4355574 -2.5868115

bias_ih_l0 f4 [256]
00000000: 1293 0ebf 0301 a3bf b397 53bf 4927 fb3c
00000010: 8744 2fbf 74f4 30be db37 83bf 0c5b e63e
00000020: 18e6 61bf 9cc3 5a3f 86f7 533f b2e6 1cbf
00000030: 6776 f3bf 1e5e b5bf a595 8a3d e6dc f8bd
00000040: 8024 49bf 1ddb adbf ad51 7bbf d86e 92be
00000050: 841f 53be d20e efbf 10eb 44bf 0b4c 91be
00000060: de2b 0fc0 2e60 cfbf 1878 87bf ddf7 16bf
00000070: da7b 4c3e bcc3 01c0 5aa0 12bd 435b 703e
00000080: bd60 553f 7b00 81bf 000f 82bf 077f 24bf
00000090: 3b5c 01c0 a663 d4be 1883 a2bf d633 5f3e
000000a0: 61c1 f6bf b8b8 cfbf f7f2 68bf 26ea b9bf
000000b0: 9bce b9be 03e4 8cbf 4d20 09bf a9d7 89bf
000000c0: af26 8cbf f07f d1be 2b60 2b3f 2d28 8bbf
000000d0: a840 453f 04b3 92bf 20cf 97bf 1414 afbf
000000e0: 6fbb 71bd 3039 5f3f 3fe7 b9bf b2cb b93d
000000f0: 1af8 8bbe 3b12 9c3e 8ca7 2e3f 2974 93bf
00000100: b51f a23f 129b 0cbf 8668 bc3f 4e6a 6b3f
00000110: 3972 10be 6d78 c9bf fbd7 9f3d 9009 2a3e
00000120: 4422 29bf 04b3 f4bf 8194 2340 7d4b 8bbe
00000130: f73b 90bf c387 b4bf 0167 123f 3143 23c0
00000140: ead5 22c0 4474 9d3d 2c42 89bf 5ef2 683f
00000150: 8127 82bf 7190 e43e 3f16 4dbf 7c14 5f3f
00000160: f456 1fbf 7e4b c6bf cf0b 13bf 1d02 bdbf
00000170: b52c 293f f774 d03f 0070 dfbf dd4e a13e
00000180: 8e74 2e3f d22a 7f3f 3640 9fbf aeb5 26bf
00000190: f711 6abf 1a3f 10be 9c2f 0f3f a28a aabe
000001a0: d857 b3be 956f 29bf 4025 cfbe 09b5 ee3f
000001b0: 3989 75be 235a 90bf 0789 a9bf 2a1e ff3e
000001c0: 3c2d 4c3f a21d c83d ce45 6d3f 2517 1a3f
000001d0: 139d 3c3f 7f5c 0840 3a16 65be 50bd c6be
000001e0: e220 c2bf c0a0 febf 8875 01c0 2577 b7bf
000001f0: 9c7d 513e 04dc a5bf 5ea5 8cbf 78ca e43e
00000200: 1330 2cbf 8ae9 97be 91f1 e4be 734d 11be
00000210: ea51 083f 5403 ccbe 96b4 82bf 74f0 28bf
00000220: 0d92 7ebe 248a 8ebf 5ddf b1bf 1ac1 5bbf
00000230: 9607 a53e 4d62 89bc 94a7 56bf 31e0 90bf
00000240: c301 fabe 9a83 403e 8279 8a3f b43d 913e
00000250: 64b2 4fbf 80a2 9bbe 97e5 d13e ac49 9e3e
00000260: 3c19 9d3e 24b6 a3be a207 2b3e 7cac 8abc
00000270: bd5f 83bf b8b4 08be 65a5 a73e 7403 82be
00000280: ae6f 7f3f d815 88bf 7afd 903f fc46 fdbe
00000290: bb3f 283f ceca 35bf d5cf 59bf 831d 5fbf
000002a0: 8536 2b3e fb5d 3d3e 6dfb 1a3f d24f d73e
000002b0: a323 753e 47e9 473d 0853 b73e 5225 903f
000002c0: c319 aabf 5f7a 29bf 6bd2 ad3f 44fd a53e
000002d0: cd62 7cbf fe2a 703d 09b1 dabe 3488 48be
000002e0: 2b31 abbf 9e51 643f d7ce 2b3d 6f20 113f
000002f0: d1f4 6a3f d5ff 293f 4978 963f 5d1a 073f
00000300: 1049 883e 9ed5 2fbf 22e3 03bf 99ca 47bf
00000310: 750b a5bf 2a28 b4bf 5c78 afbf 2d42 743e
00000320: b927 9fbf 9ff6 e13e 0080 193e 8db2 04bf
00000330: 5703 e2bf ce4f acbf 2016 183f 050f 50be
00000340: bc6e 81bf de14 5fbf 8be1 64bf daa3 013f
00000350: 0d82 0ebb 886b 1abe 3307 a7bf d467 a5bd
00000360: 4d15 27bf 4ab7 acbf 8a03 d1bf 8f29 1bbd
00000370: 45d5 bbbf 34cf 97bf 182c 0a3f 40a6 44bd
00000380: 7b86 0a3f aba5 9a3e 4573 88bf 0963 f4bf
00000390: 620a 88bf 598c 773d 6ad2 1abf 20db 1ebf
000003a0: d0b0 abbf 2b5a edbf 1ece debe 2abc dabf
000003b0: 23b9 4ebe 00f2 55bf ef2c e2be 4b46 dfbd
000003c0: cfdd d3bd 0ae6 c8be 6b30 d3be cc38 d4bf
000003d0: d21e 163f 94d8 19bf 94a9 babf 6676 8fbf
000003e0: 4011 80bd 56c3 d8be c5cd efbe 52b9 8fbf
000003f0: 3dda 763e 210d 2dbf d4f7 af3f 7dce 0cbf
-0.5569316 -1.2734684 -0.8265335 0.030658381 -0.6846394 -0.17280751 -1.0251421 0.44991338
-0.8824172 0.85454726 0.82799566 -0.61289513 -1.9020509 -1.4169347 0.06766824 -0.12151508
-0.7857132 -1.3582493 -0.981715 -0.28600192 -0.20617491 -1.8676398 -0.76921177 -0.2837833
-2.2370524 -1.6201227 -1.0583525 -0.5897196 0.1996912 -2.0275717 -0.035797454 0.23472314
0.83350736 -1.0078272 -1.0160828 -0.6425633 -2.0212543 -0.41482276 -1.2696257 0.21797118
-1.9277765 -1.6228247 -0.90995735 -1.4524581 -0.3629044 -1.1007084 -0.5356491 -1.0768939
-1.0949305 -0.4091792 0.66943616 -1.0871636 0.7705178 -1.1460881 -1.1860085 -1.3678002
-0.05901664 0.87196636 -1.4523696 0.09072055 -0.27337724 0.3048266 0.68224406 -1.1519824
1.2665926 -0.5492412 1.4719398 0.91959083 -0.14106072 -1.5739876 0.07804867 0.1660521
-0.6606791 -1.9117131 2.555939 -0.2720603 -1.12683 -1.4103931 0.5718842 -2.550976
-2.5443063 0.076881915 -1.0723319 0.9099482 -1.0168306 0.4464145 -0.8011207 0.8714063
-0.62242055 -1.5491788 -0.57439893 -1.476627 0.6608384 1.6285695 -1.7456055 0.3150548
0.681466 0.99674714 -1.2441471 -0.6512097 -0.9143366 -0.14086571 0.5593202 -0.33308893
-0.35027957 -0.66185886 -0.40458107 1.8648998 -0.23978128 -1.1277508 -1.3244942 0.498277
0.7975652 0.09771277 0.9268464 0.60191566 0.73677176 2.1306455 -0.2237176 -0.3881631
-1.5166285 -1.9892807 -2.0227985 -1.4333235 0.20458072 -1.2957768 -1.0987966 0.4468572
-0.67260855 -0.29670364 -0.4471555 -0.14189701 0.5324999 -0.3984629 -1.021136 -0.659919
-0.24860401 -1.1135907 -1.389629 -0.85841525 0.3223235 -0.016770506 -0.83849454 -1.1318418
-0.4882947 0.18800202 1.0818331 0.28367388 -0.8113158 -0.30397415 0.40995476 0.30915582
0.30683315 -0.319749 0.1670213 -0.01692795 -1.0263592 -0.13350189 0.32743374 -0.2539326
0.99779785 -1.0631666 1.1327355 -0.4946822 0.65722245 -0.7101258 -0.8508275 -0.87154406
0.16720016 0.18492882 0.60539895 0.42053086 0.23939376 0.048806455 0.35805535 1.1261389
-1.3289112 -0.6620235 1.357984 0.3241979 -0.9858826 0.05863475 -0.42713192 -0.19583207
-1.337438 0.8918704 0.041945305 0.56690115 0.9177981 0.66405994 1.1755458 0.527746
0.26618242 -0.6868533 -0.5151845 -0.78043514 -1.2894121 -1.4074757 -1.3708606 0.23853369
-1.2433997 0.4413347 0.14990234 -0.51834947 -1.7657269 -1.3461854 0.5940876 -0.2031823
-1.0111918 -0.87141216 -0.8940665 0.5064064 -0.0021744997 -0.15080082 -1.3049072 -0.08076444
-0.6526688 -1.3493435 -1.6329205 -0.03788143 -1.467446 -1.1860108 0.5397353 -0.04801011
0.5411145 0.3020452 -1.0660177 -1.9092723 -1.0628169 0.06043658 -0.60477316 -0.6205311
-1.3413334 -1.8543142 -0.4351663 -1.7088673 -0.20187812 -0.8357239 -0.44174907 -0.10902079
-0.10345041 -0.39238006 -0.41247877 -1.6579833 0.5864078 -0.60096097 -1.4583001 -1.1208007
-0.0625329 -0.4233653 -0.46836677 -1.122843 0.24106689 -0.6759816 1.3747506 -0.55002576

bias_hh_l0 f4 [256]
00000000: 8cff 2abf 8aa6 a0bf 9299 3ebf 6d2f ab3c
00000010: 2551 30bf 3cca 57be b3f7 6dbf 4fed e33e
00000020: 90ba 4abf e4af 4d3f b8bc 713f 85f4 0ebf
00000030: 3ad8 e2bf 2034 a8bf 1e55 0b3e 59ab 3ebd
00000040: b303 67bf 049a c3bf 87bb 85bf 4789 aebe
00000050: 38c2 abbe d9d2 03c0 ea4c 60bf 71b0 9cbe
00000060: 079c 06c0 f094 dbbf 94c4 9dbf 0218 38bf
00000070: 5271 933e c0eb 06c0 2595 27bd 141a 093d
00000080: 822a 7c3f 78c4 84bf aa40 91bf 85b3 0abf
00000090: 5e33 03c0 dcca 0fbf 4b8b 98bf 507e 513e
000000a0: c401 00c0 a3b1 c2bf a044 6fbf fe3c bdbf
000000b0: c1b7 82be a576 8dbf 2579 bcbe 35dd 81bf
000000c0: 603a 9dbf 4ef8 a0be 6f58 063f a218 63bf
000000d0: 822f 4a3f 611c 92bf 1de8 b3bf 2a19 b5bf
000000e0: 74ff 213d ad2f 653f 3cd3 bebf 5277 703e
000000f0: b3df a9be 9b85 c43e 3486 473f d51e 92bf
00000100: eb57 913f 9478 e8be 16ff b63f 05ee 443f
00000110: 85d8 a53c 3a37 babf 4b7b 8a3d d858 22bc
00000120: 61c4 30bf 850e 01c0 ffdb 2440 ed38 37be
00000130: 4d57 a4bf 3c0c a3bf 2c34 133f d8a7 19c0
00000140: 5098 1ac0 59fe 933d e5e9 73bf 50db 8e3f
00000150: 31cd 82bf 9f25 ff3e ffa1 5fbf 888e 5e3f
00000160: 1fd5 e5be 24f6 cebf 44c9 45bf ca0a c0bf
00000170: b3f8 0f3f a8b4 ca3f c43c cbbf 5490 a53e
00000180: 9f0e 093f 8db0 613f 1366 96bf 35b0 13bf
00000190: 6e7b 81bf eae1 5a3d 53cf 0a3f 98a4 b2be
000001a0: 6802 59be 2438 34bf 8ea6 c2be 596b e83f
000001b0: a54f 8ebe 3786 98bf cabd a2bf 6438 d93e
000001c0: 4f5b 663f f6da 2bbb 3d07 743f 5e38 3d3f
000001d0: ec60 293f 66d0 0440 7f6f b9be 6df7 9fbe
000001e0: 0ee8 b2bf 261a f5bf 80ea 02c0 bc1c a7bf
000001f0: 09f2 393d 348b a9bf 0048 92bf 4f0a 0b3f
00000200: 88a1 28bf 848d 8abe 27b0 e1be a225 48bd
00000210: 6a1e d53e 7763 93be bc42 81bf 99e4 12bf
00000220: 5a3b 0abe 4663 8bbf b0b5 acbf b6c3 82bf
00000230: 2fc3 cb3e 8f27 c2bd 8603 49bf 20ca 97bf
00000240: 015f 02bf 4f95 a23e 9290 653f 31a5 9f3e
00000250: 435d 4dbf 5979 99be 4247 063f 9d9b c73e
00000260: 9d94 a73e e16c 44be 0615 733e 0719 943c
00000270: 9f76 51bf 476b 9fbe f7af 813e 6d18 88be
00000280: cd5c 6b3f 3669 8bbf 3b93 793f 71cf a7be
00000290: 8e09 3e3f a50a 31bf 6072 53bf f1c7 7fbf
000002a0: adef 843d d92b 853e 1a65 f03e d9f0 a53e
000002b0: d6f0 b03e e683 eb3d 44c8 ed3e 2f24 8f3f
000002c0: e822 a4bf e64d 0ebf edcd a73f 78c6 803e
000002d0: 1052 86bf 5502 8ebd 0372 51be 5ce3 0abe
000002e0: 0906 b1bf 8b4a 803f b218 c43c 75e5 ef3e
000002f0: 8193 643f b9fe 433f 95b6 993f f5fb 0e3f
00000300: 628b 643e c021 36bf 5074 0ebf 1801 71bf
00000310: 575a 99bf 1b19 a4bf cd83 acbf 9fd8 4f3d
00000320: 0961 9ebf 3a66 e23e a9c2 0a3e 08f4 f8be
00000330: 6dee edbf 2e45 c8bf e06e 053f ee7f 8cbe
00000340: 4cd3 6abf 33d2 4dbf e82e 44bf db7f c03e
00000350: 661a 77bd 0f88 00be 01b5 a6bf 1474 73bd
00000360: 36cd f2be f733 b7bf 8fe0 d1bf 8ca6 96bd
00000370: e60d aebf 9e93 84bf 0ece c03e 0099 14bd
00000380: e1d6 b83e ef40 e63e ff0d 84bf c623 f5bf
00000390: a762 5dbf 8268 363e 8fe8 0fbf 26d3 18bf
000003a0: 0036 c0bf 459a eebf a0b6 18bf dcdb dcbf
000003b0: 8fca b7be f810 43bf df01 0dbf d3b9 cdbd
000003c0: 46ce 06be 23db d4be ec28 ffbe 9bab ccbf
000003d0: 4384 013f 53ed 4abf 8ebd a8bf a0b2 81bf
000003e0: 7fd1 2dbd 2340 f9be 90ae fcbe c32f 91bf
000003f0: a021 0e3e c751 48bf b7d2 a23f f37d 06bf
-0.66796184 -1.2550824 -0.7445308 0.020896638 -0.68873817 -0.2107324 -0.92956084 0.4451699
-0.7919092 0.8034651 0.94428587 -0.5584186 -1.7722237 -1.3140907 0.13606688 -0.04655013
-0.9024002 -1.5281377 -1.0447854 -0.3408911 -0.33546615 -2.0597441 -0.8761736 -0.30603364
-2.1032732 -1.7154827 -1.2325616 -0.71911633 0.28797394 -2.108139 -0.04091372 0.033472136
0.9850236 -1.0372458 -1.1347859 -0.54180175 -2.0500102 -0.56168914 -1.1917509 0.2045834
-2.0001078 -1.521046 -0.9346409 -1.4784238 -0.25530818 -1.1051832 -0.36811176 -1.0145632
-1.228344 -0.3143944 0.5247869 -0.8870946 0.7897874 -1.141491 -1.405521 -1.4148304
0.03955026 0.8952587 -1.4908214 0.23483017 -0.3317848 0.38383183 0.7793915 -1.1415659
1.1354955 -0.45404494 1.4296596 0.7692569 0.020244846 -1.4548104 0.067617975 -0.009908877
-0.6904965 -2.0165112 2.5759275 -0.17892809 -1.2839142 -1.2738109 0.5750148 -2.4008694
-2.4155464 0.07226247 -0.9527877 1.1160679 -1.021887 0.4983339 -0.8735656 0.86936235
-0.4488916 -1.6168866 -0.7726023 -1.5003293 0.5623886 1.5836382 -1.5877919 0.32336676
0.53537935 0.8816002 -1.17499 -0.57690746 -1.0115793 0.053438105 0.542226 -0.348912
-0.21192324 -0.70398164 -0.38017696 1.815776 -0.2779514 -1.1915959 -1.2714169 0.42425835
0.89983076 -0.002622304 0.95323545 0.73914135 0.66163516 2.0752196 -0.36217877 -0.31243458
-1.3977067 -1.9148605 -2.0455627 -1.3055644 0.04539684 -1.3245606 -1.1428223 0.54312605
-0.6587148 -0.27061093 -0.44079706 -0.048864014 0.41624767 -0.28786823 -1.0098491 -0.5738006
-0.13499203 -1.0889671 -1.3492947 -1.0215976 0.3979735 -0.094802015 -0.78521 -1.1858559
-0.50926214 0.31754538 0.8967372 0.3118072 -0.8022043 -0.29975393 0.5245248 0.3898591
0.3273057 -0.19182159 0.23738489 0.01807834 -0.81821626 -0.31136534 0.25329563 -0.26581135
0.9193848 -1.0891483 0.9749028 -0.32775453 0.7423333 -0.6915687 -0.825964 -0.9991446
0.06491027 0.26010016 0.46952134 0.32410315 0.34558743 0.11499767 0.46441853 1.1182917
-1.2823153 -0.55587614 1.3109719 0.2515142 -1.0493793 -0.069340385 -0.20453648 -0.13563293
-1.3829967 1.0022749 0.023937557 0.4685475 0.89287573 0.7656055 1.2008845 0.55853206
0.22318795 -0.7114525 -0.5564623 -0.94142294 -1.1980695 -1.2820162 -1.3477722 0.050743695
-1.2373363 0.44218618 0.1355082 -0.4862368 -1.8588387 -1.5646112 0.52122307 -0.27441353
-0.91728663 -0.80398864 -0.76634073 0.37597546 -0.06032791 -0.12551902 -1.3023988 -0.059436873
-0.4742219 -1.4312733 -1.6396655 -0.07355985 -1.3597991 -1.0357549 0.37657207 -0.036278725
0.3610144 0.44971415 -1.0316771 -1.9151542 -0.86478657 0.17813304 -0.5621423 -0.59697187
-1.501648 -1.8640829 -0.59653664 -1.7254596 -0.35896727 -0.7619777 -0.5508098 -0.10045209
-0.13164625 -0.41573438 -0.49835908 -1.598987 0.5059244 -0.7926838 -1.3182847 -1.0132637
-0.04243612 -0.48681745 -0.4935193 -1.1342701 0.13880014 -0.7824978 1.2720555 -0.52535933

weight f4 [22, 64]
00000000: 63cb 653f 6866 a0be 4a6a 51bf cbfb 5c3d
00000010: 51be cabf 00f5 8dbf 5c8c 3e40 0309 11bd
00000020: fd3f bcbe e335 fc3e 1b07 213f 56ae 743e
00000030: 421d 86be cadb 3dbf 6043 093e c854 97be
00000040: 9751 933d 76eb a0be 7e9d 30bf 05c8 19bd
00000050: 933c 42be 2d51 323d b93b acbe e935 a2be
00000060: b725 3e3f 18f8 0fbe 3513 d4bf bbef 9ebd
00000070: 9787 22bf 6512 fabd 6602 133d a949 9abe
00000080: bf98 2c3d a3a3 84bf 1ddb 89bf aeef 9f3f
00000090: 34bf f53e 9d26 da3e 989e 52be 7475 49bf
000000a0: 714d 7d3f 7b48 1b40 1670 07be 5531 033f
000000b0: 69a3 bd3e 7d6b 6ebe c92e 323f bc42 44bd
000000c0: 6c1e bfbe 0ce3 2cbf 5086 be3e 7943 083f
000000d0: fb13 be3e 231f 613d 2bf8 21be 3ab6 bc3e
000000e0: da28 533e 8505 043e f0be 103e c13b b0be
000000f0: 17ca 85be 5ebb 393d 65fa 323e c186 ba3e
00000100: 933b 00bd a6ab 893e d350 8d3f e1c6 a7be
00000110: ab0b f33d ae7a 35bf 1d92 cabe 7527 583e
00000120: 2c86 2cbf 3649 f7be c917 e63d 8544 4ebe
00000130: 06ba a6be e2f6 84bf a180 10bf dee7 683f
00000140: 0b4a 453e a6a5 a9bd 82f8 91be 4459 083f
00000150: 9686 edbe 5722 6ebe e7a0 743f 6507 2a3f
00000160: a2aa bfbc a892 0c3e 5fda 11bf a6c8 cd3e
00000170: 928e 33bf ae83 fdbe 4645 5ebe 20a7 443f
00000180: 627a 07be 255b 3d40 0fbd 30bf 4630 453f
00000190: 2ad1 863f 0530 47bf 6b07 093e 7797 6abf
000001a0: cb8a 453f 89fb b43f 1216 493d e9e5 bb3f
000001b0: f7ba a1be 7618 a03f 5c6a e7be 6cf2 48bf
000001c0: 17a0 8d3d 644f 8cbf 3273 463e 8330 333f
000001d0: 5513 93bf 64ff de3e 9d41 823d b291 f2be
000001e0: 9a7a 8d3f 1d84 c2be 5ad4 3f3f 0fba b5be
000001f0: 40e0 87bf b9fe ec3e e1bd 9fbe 1aee 203f
00000200: b3dc 4d3c 0cdf 973d 77cf 48bc 87c2 a43e
00000210: 2b30 b5bd 56ef 65bf 8c00 9abd 7e73 15be
00000220: 813e c3be 507e 25bd 15b1 f63e 6fd2 c4be
00000230: 1d4d 1cbe cfdd 32bf 0fa7 7abe 54d2 82bf
00000240: cbee e8be e39a cd3e 83dd 71bf 089e e2bd
00000250: cf7f 00be 24d8 cb3e 9dd5 b0be d3e1 97bc
00000260: 27cd 153f 71e3 533f ab21 cbbe 5258 453f
00000270: 5605 e2be 0e05 94be a4ef 163c 8e51 c8bc
00000280: cef4 623e 0ec1 503f d845 94bf c95a 9b3e
00000290: 9a41 1e3e 5e61 c1bc 44b3 b43d fb44 1bbf
000002a0: 14c6 303e 001e d83f fded 783d 3006 37bd
000002b0: 684a 983e 514f 863e 4d75 263f d157 afbd
000002c0: b6a9 f4be cf76 0fbe 0930 293f 676b a13d
000002d0: f4ca 793d 8b27 fc3d 01fd 753d ab09 b4bd
000002e0: 1e72 e93e 9dfb 483e 3286 cc3e 97df fabe
000002f0: 9701 b0be 6254 433f df41 35be 7f07 223f
00000300: 05b0 41bf 6206 61bf 0da1 52be 160a 4c3e
00000310: 59ff e53e 9b9e eabf 53c4 463e 6fd1 2e3e
00000320: 6381 943e ac25 1b3e c268 043f 47fe 2dbc
00000330: 1503 afbe 6de6 0cbf a52a b53d d344 2dbe
00000340: 31dd ad3e a801 abbe 6b48 6e3f b6e4 903e
00000350: 6690 ed3d b46d 6e3e 27e6 a73e 9f0c 92bd
00000360: 58b7 97bc 0fab b63e dcc3 a3bf 8377 c93e
00000370: dab6 7ebf 68ce afbd 670f a83e 6548 883e
00000380: 7427 3dbe 8486 c1be 948b a0bf 4627 833e
00000390: db9f 413f 6c10 02be 1c40 653e 90bb babf
000003a0: 141f 83be 6714 e23f 0695 b6be 9f0c 88bf
000003b0: 556a 49be ed88 adbc 9ec8 163f f9e7 febe
000003c0: ae74 55bd cb75 d0bc 76ad 7cbc 7881 f03e
000003d0: ad2f a73e 565a 9f3e a967 a23f ddb0 64bd
000003e0: 7779 ba3e 76ad 79be b647 d13c 9714 dabd
000003f0: 5530 873c 8c69 bd3e 26c2 953e f9c8 7d3f
0.8976347 -0.3132813 -0.8180281 0.053951066 -1.583933 -1.1090393 2.9773169 -0.035408985
-0.3676757 0.49259862 0.6290147 0.23894629 -0.26194197 -0.74163496 0.13404608 -0.2955687
0.071932964 -0.31429642 -0.68990314 -0.03754427 -0.1896842 0.043534447 -0.33639315 -0.31681755
0.742763 -0.14059484 -1.6568362 -0.07760569 -0.63488144 -0.1221054 0.03589096 -0.30134323
0.042137858 -1.0362438 -1.0769993 1.249502 0.4799744 0.42607585 -0.20568311 -0.78694844
0.9894629 2.4262989 -0.13226351 0.5124715 0.37038735 -0.23283191 0.6960264 -0.047915205
-0.37327898 -0.67533946 0.37211847 0.53227955 0.3712462 0.054961335 -0.15817325 0.36857778
0.20621052 0.1289273 0.14135337 -0.3442059 -0.26130745 0.045344703 0.1747833 0.36430934
-0.031306814 0.2688877 1.104029 -0.3276892 0.1186746 -0.7089032 -0.395646 0.21108802
-0.6739223 -0.48298043 0.112350054 -0.20143326 -0.325638 -1.0387843 -0.5644627 0.909788
0.19266526 -0.08283548 -0.2850991 0.5326121 -0.46391743 -0.23255287 0.9555802 0.66417533
-0.023396794 0.1372782 -0.5697383 0.40192145 -0.7013942 -0.49514526 -0.21706113 0.7681751
-0.13230279 2.958688 -0.6903848 0.77026784 1.0532582 -0.77807647 0.13381736 -0.91637367
0.77164906 1.4139262 0.049093314 1.4679538 -0.31587955 1.2507465 -0.45198333 -0.78494906
0.069153 -1.0961728 0.19379881 0.699959 -1.1490275 0.43554223 0.06360171 -0.47376782
1.105304 -0.3799142 0.749334 -0.35493514 -1.0615311 0.46288088 -0.31199554 0.62863314
0.012564826 0.0741559 -0.012256495 0.32179663 -0.08847078 -0.8981832 -0.075196356 -0.14594838
-0.38133624 -0.040403664 0.48181978 -0.38441798 -0.15263791 -0.69869703 -0.2447779 -1.0220437
-0.45494685 0.40157232 -0.94478625 -0.11065298 -0.12548755 0.3981334 -0.34537974 -0.018540299
0.5851616 0.82768923 -0.39674124 0.7708789 -0.44144696 -0.28910106 0.009212408 -0.02445295
0.22163698 0.8154458 -1.1583815 0.303427 0.15454713 -0.023605999 0.08823255 -0.6065213
0.17263061 1.6884155 0.06077384 -0.044683635 0.29744267 0.2623239 0.65022737 -0.085616715
-0.4778573 -0.14010166 0.6608892 0.078818135 0.060984567 0.1231223 0.060055736 -0.087909065
0.45594877 0.19627233 0.39946133 -0.4899871 -0.34376213 0.7630063 -0.17700909 0.6329269
-0.7565921 -0.87900364 -0.20569248 0.19925722 0.44921377 -1.8329653 0.19410829 0.1707208
0.29004964 0.1515109 0.5172235 -0.0106197065 -0.3418204 -0.550391 0.088460244 -0.16920786
0.33957818 -0.333997 0.9307925 0.28299493 0.115998074 0.23284036 0.3279278 -0.071313135
-0.018520042 0.35677382 -1.2794147 0.39348993 -0.9949776 -0.08584291 0.3282425 0.26617733
-0.18472081 -0.3779794 -1.2542596 0.256159 0.75634545 -0.12701577 0.22387737 -1.458849
-0.25609648 1.7662476 -0.3566057 -1.0628852 -0.19669469 -0.021183455 0.5889987 -0.49786356
-0.052113228 -0.025446793 -0.015422216 0.46973777 0.3265356 0.31123608 1.2687885 -0.055832732
0.36420795 -0.24382576 0.02554689 -0.106484585 0.016502539 0.36994588 0.29249686 0.99134785

bias f4 [22]
00000000: 3abf 433e 0a92 a93e 7e03 383e 79ff f03d
00000010: c9e8 ee3d 643c f93c f451 6c3e 9211 7f3e
00000020: 5b80 603e 01bb 353e 6ea1 263e 7431 843e
00000030: 9649 143e e3bc 3a3e a4b5 2c3e c6dd 953e
00000040: b9d2 8e3e b72b a43e 5a0a ce3e 1a9a 983e
00000050: 0494 423e 5d68 ee3e
0.19115916 0.3311923 0.17970082 0.117674775 0.11665494 0.030424304 0.23078138 0.24909046
0.21923964 0.17747118 0.16272518 0.2581898 0.14481196 0.18236117 0.16866165 0.29270762
0.27895144 0.32064602 0.40242273 0.2980507 0.19001776 0.46563998
