histories_cls/LSTM_BcicIv2a_pt/38.57%_bs=064_lr=0.0110_ld=0.999879_nl=3_hc=032_do=0.61/best_valid_acc.pt (torch, 101253 bytes, 14 tensors)

weight_ih_l0 f4 [128, 22]
0.13583641 0.79215413 0.6102839 0.27939618 0.048619088 0.5509154 0.70099497 0.31104437
-0.10647499 0.23607741 -0.12354699 0.25505388 0.48135835 0.385562 -0.31622416 -0.09825287
-0.41690043 -0.6750741 -0.23230962 -0.35430354 -0.29556674 -0.1723615 0.9741151 1.4502808
1.03027 0.69775057 0.9739005 1.2937146 1.3742464 0.9800272 0.32794535 0.98225564
0.8855175 1.0196733 1.1676221 1.4907925 0.4441774 0.33696994 0.29760936 -0.32460806
-0.17815964 -0.20309156 -0.23875928 -0.063364476 -0.08287642 0.1394819 -0.22747944 -0.20321546
-0.32053858 -0.016872844 0.1217836 -0.2279604 -0.058892682 -0.228807 -0.06067399 -0.049787674
0.83393794 -0.43012026 -0.30507046 -0.053170674 0.08349217 -0.03421393 -0.41779605 -0.1428808
-0.01347769 -0.14674473 -0.44981995 -0.050926358 -0.31123427 -0.43592343 -0.47398728 -0.021170111
-0.0810801 -0.06315038 -0.43226314 -0.32452986 -0.49476385 -0.44094226 0.042318784 -0.48500028
-0.41149685 -0.06386588 -0.09021331 -0.41967627 -0.16957179 -0.28333265 -0.21583043 -0.019007875
-0.2751341 -0.03496374 0.06444503 -0.35237375 0.11544896 0.29848665 -0.48098704 -0.45259717
-0.4239949 -0.44619596 -0.8006739 -0.7732185 -0.07796354 -0.8649268 -0.69838226 -0.59477
-0.7440104 -0.64078426 -0.5062671 -0.95918995 -0.8442477 -0.18200186 0.010053448 0.1337268
0.3307341 0.06764006 0.08361646 0.11152048 0.33034962 -0.020996574 0.16755839 0.46312505
0.19876388 0.009613307 0.25048503 0.23639518 -0.07107306 0.18505527 0.08098399 -0.45472252
-0.28773084 -0.4002731 -0.42267513 -0.046628494 -0.20926702 -0.066428855 -0.09977202 -0.18962991
-0.35543793 -0.18057324 -0.32981497 -0.24437818 -0.39747068 -0.25511882 -0.041204866 -0.22158878
-0.21674345 -0.37035343 -0.2520948 -0.20657499 -0.111752965 -0.4251653 -0.37884718 -0.3078687
-0.33277398 -0.21211869 0.08922448 0.48779002 0.3106129 -0.05242072 0.09496569 0.3160406
0.43476063 -0.06873875 -0.51270986 -0.2507863 -0.62546295 -0.41026586 0.19459417 -0.20824108
-0.37319368 -0.3505022 -0.6112863 -0.8159716 -0.4092678 -0.52556336 -0.43609738 -0.096276075
0.3549305 0.3250398 0.26953676 0.35014457 0.21076116 0.022460427 0.2343914 0.5180012
0.25155774 0.5362004 0.33243307 0.49935934 -0.30865195 0.4404258 0.5364623 0.46554118
0.48760659 0.50486076 0.7600477 0.3670208 0.4947837 0.4250044 -0.08612108 -0.037807498
-0.042457376 -0.097091235 -0.38666275 -0.045457225 -0.31115207 -0.35563076 -0.17208166 -0.19097339
-0.037223123 -0.22841312 -0.26983523 -0.3254626 -0.25500757 0.123614736 -0.2679648 -0.21497406
-0.3319545 -0.30739713 -0.30871204 -0.34300908 0.10784492 0.2626245 0.54859585 0.12599143
0.1700972 0.3797265 0.6151953 0.013832492 0.08293448 0.32676083 0.092480324 0.25712448
0.3122561 0.29682487 -0.17322865 -0.04675093 -0.021931138 -0.45647925 -0.31413275 -0.46866953
-0.451416 -0.1469328 -0.17716391 -0.36874726 -0.18371886 -0.13953687 -0.35025972 -0.15832914
-0.11545919 -0.19178489 -0.3558555 -0.37789035 -0.059535578 -0.15209587 0.076458104 -0.3690475
00000000: b318 0b3e 9dca 4a3f 913b 1c3f 040d 8f3e
00000010: cf24 473d cb08 0d3f 6874 333f 3541 9f3e
00000020: 8f0f dabd 47be 713e 3406 fdbd 6c96 823e
00000030: 9a74 f63e 6268 c53e 22e8 a1be cd38 c9bd
00000040: f973 d5be a8d1 2cbf 93e2 6dbe 4667 b5be
00000050: 8654 97be 887f 30be 9b5f 793f cda2 b93f
00000060: e3df 833f c89f 323f 8b51 793f 7198 a53f
00000070: 4ee7 af3f 10e3 7a3f 74e8 a73e 1b75 7b3f
00000080: 46b1 623f a884 823f a474 953f 4ad2 be3f
00000090: 386b e33e 5387 ac3e 4160 983e 0733 a6be
000000a0: 7b6f 36be 3cf7 4fbe 507d 74be 3cc5 81bd
000000b0: 1dbb a9bd 58d4 0e3e 5ff0 68be b717 50be
000000c0: a21d a4be eb38 8abc ae69 f93d 736e 69be
000000d0: 7439 71bd 624c 6abe 4a85 78bd 29ee 4bbd
000000e0: f57c 553f b938 dcbe 3232 9cbe 7ec9 59bd
000000f0: f1fd aa3d e823 0cbd 5de9 d5be 584f 12be
00000100: 87d1 5cbc 4044 16be cd4e e6be 2898 50bd
00000110: 195a 9fbe 5b31 dfbe 76ae f2be f16c adbc
00000120: 530d a6bd fd54 81bd 9851 ddbe c728 a6be
00000130: b051 fdbe 2fc3 e1be 7656 2d3d f551 f8be
00000140: b7af d2be 1dcc 82bd c2c1 b8bd cfdf d6be
00000150: 3aa4 2dbe fa10 91be a702 5dbe 67b6 9bbc
00000160: 60de 8cbe 2336 0fbd c2fb 833d 556a b4be
00000170: 8170 ec3d 3ed3 983e ef43 f6be d1ba e7be
00000180: dc15 d9be cc73 e4be f7f8 4cbf a6f1 45bf
00000190: 59ab 9fbd d86b 5dbf 2ec9 32bf d942 18bf
000001a0: 7777 3ebf 700a 24bf b89a 01bf 798d 75bf
000001b0: 9e20 58bf b25e 3abe 38b7 243c aeef 083e
000001c0: fb55 a93e df86 8a3d 1b3f ab3d d964 e43d
000001d0: 9623 a93e 0201 acbc 6d94 2b3e ba1e ed3e
000001e0: c288 4b3e 2281 1d3c 933f 803e 9411 723e
000001f0: c18e 91bd 217f 3d3e efda a53d 64d1 e8be
00000200: 7551 93be 99f0 ccbe e068 d8be 85fd 3ebd
00000210: 184a 56be da0b 88bd 4655 ccbd 582e 42be
00000220: f6fb b5be 31e8 38be 82dd a8be 463e 7abe
00000230: 4781 cbbe ef9e 82be 6fc6 28bd 2be8 62be
00000240: fff1 5dbe f79e bdbe 9212 81be 6588 53be
00000250: bdde e4bd 44af d9be 42f8 c1be f7a0 9dbe
00000260: 5a61 aabe a435 59be 53bb b63d 9dbf f93e
00000270: a708 9f3e 1cb7 56bd 5f7d c23d 13d0 a13e
00000280: f298 de3e e7c6 8cbd f440 03bf 1067 80be
00000290: 571e 20bf 5e0e d2be b243 473e 263d 55be
000002a0: 3e13 bfbe 0675 b3be 427d 1cbf 84e3 50bf
000002b0: 8d8b d1be 528b 06bf 2848 dfbe 642c c5bd
000002c0: 73b9 b53e 9e6b a63e b900 8a3e 2646 b33e
000002d0: c6d1 573e eefe b73c 4d04 703e ba9b 043f
000002e0: 2dcc 803e 6e44 093f ab34 aa3e 07ac ff3e
000002f0: a107 9ebe 7e7f e13e 9855 093f 6a5b ee3e
00000300: 92a7 f93e 8e3e 013f 7c92 423f 26ea bb3e
00000310: 4a54 fd3e 2d9a d93e 4060 b0bd 09dc 1abd
00000320: c9e7 2dbd c5d7 c6bd a9f8 c5be 5b31 3abd
00000330: 534f 9fbe 3c15 b6be 2d36 30be 878e 43be
00000340: 4677 18bd 21e5 69be d827 8abe 09a3 a6be
00000350: 5a90 82be b929 fd3d af32 89be 2922 5cbe
00000360: f1f5 a9be 2863 9dbe 810f 9ebe e39e afbe
00000370: ccdd dc3d b876 863e c770 0c3f e603 013e
00000380: f62d 2e3e 836b c23e 707d 1d3f ada1 623c
00000390: 8dd9 a93d 324d a73e 5366 bd3d d2a5 833e
000003a0: 08e0 9f3e 6ef9 973e da62 31be e77d 3fbd
000003b0: eea8 b3bc a6b7 e9be 02d6 a0be 74f5 efbe
000003c0: ff1f e7be 8d75 16be 756a 35be 71cc bcbe
000003d0: cc20 3cbe c1e2 0ebe 3e55 b3be 0921 22be
000003e0: de75 ecbd 4263 44be b132 b6be d87a c1be
000003f0: 94db 73bd 05bf 1bbe 1196 9c3d cbf3 bcbe

weight_hh_l0 f4 [128, 32]
-0.420553 -0.69445366 0.194448 -0.01656966 -0.45288324 0.8478178 -0.3280587 -0.752146
-0.37314108 0.3698647 0.73478174 0.29753935 -0.2526483 0.10322751 -0.46211505 -0.007241683
0.13587962 -0.2808743 -0.0029614398 0.4214471 -0.3975549 0.6002675 -0.20560041 -0.05833335
0.2542086 -0.14061207 0.49510247 0.5742304 -0.5917748 0.22291793 -0.7402415 -0.7046055
-0.5047241 -0.23827177 -0.080686375 -0.198432 -0.17848921 0.61148036 -0.5700871 -0.576541
-0.14966428 0.48076564 0.28858 0.7028013 -0.44754112 0.22167917 -0.48302945 -0.23109312
0.46773878 -0.15752089 -0.2780138 0.38573948 -0.6561578 0.6586493 -0.546474 0.03434151
0.5588983 -0.29291627 0.6841435 0.009427662 -0.43221125 0.27180722 -0.3742652 -0.83289224
-0.3141345 -0.48551407 -0.0026518595 0.28966203 0.48872513 0.0064361687 0.72693247 -0.1692888
0.7208391 -0.5318598 0.25332814 -0.67300224 -0.23095833 -0.37503177 1.2121423 0.5042641
-0.8777389 0.6259215 0.15459603 -0.41128114 0.17303462 -0.056006234 -0.019942071 -0.2244507
0.31698504 0.44672635 -1.4384297 0.94437206 -0.17258106 -0.11577474 -0.38065687 1.1681845
-0.47590607 -0.17844039 -0.4298444 -0.3302424 -0.20490992 0.5146343 0.34376305 -0.23815845
0.11951163 0.4893228 0.23377402 0.14089495 0.22422554 0.20552441 0.20006172 -0.36014667
-0.2874799 0.083208196 -0.29518995 0.3254488 -0.08244369 -0.09413832 0.21770738 -0.2758805
0.24831437 0.2384631 -0.03931435 -0.57256556 -0.15145873 0.45415935 -0.52170676 -0.0859138
-1.0350099 -0.71253085 -0.44107062 -0.4021905 -0.76904184 0.9903281 0.3477532 -1.1626403
0.35852122 -0.18422319 0.7360716 -0.06909497 0.1942985 -0.2689914 0.28627026 -0.41934624
-0.31982914 0.41993272 -0.642745 0.02500949 0.07365331 -0.33212668 0.14082485 -0.26745006
-0.13181587 -0.4829573 -0.21109188 0.2779627 -0.7447974 0.464304 -0.8964673 -0.18678042
-0.26700008 -0.379648 0.07285081 -0.1618928 -0.4203683 0.61592656 -0.45970765 -0.102796845
-0.7072905 0.3612484 0.5329142 0.13260339 -0.15865482 0.5533473 -0.40261284 -0.08765382
0.23819566 -0.36610892 -0.29494968 0.24978334 -0.3377443 0.46867606 -0.28759247 0.09018692
-0.25893205 -0.021090705 0.12852077 0.05186365 -0.37702277 0.6296682 -0.409417 -0.19419141
0.10769111 -0.286037 0.41680333 0.30245644 0.1380294 0.28110617 -0.33200887 0.015202876
-0.043918658 0.83427256 0.22979756 0.6631018 -0.24828924 0.0013320307 -0.7325142 -0.33331642
0.5056193 0.027019711 0.19907731 -0.05844122 -0.29761887 0.6753748 -0.8758937 0.39127862
-0.48148513 -0.23439498 0.091131344 -0.684037 0.06298742 -0.37625775 -0.07217321 -0.67961377
-0.05790209 0.08181433 -0.018192276 -0.6254755 0.03331448 0.2987978 -0.5285069 -0.32756916
-0.59976226 0.39150333 0.16030608 0.7736164 -0.35960105 0.5582271 -0.6006654 -0.13818528
0.24248199 -0.60179037 -0.80409425 0.74778676 -0.5325904 1.008037 -0.2899152 -0.4803875
-0.39925814 -0.4846786 0.196812 0.8640026 -0.37038067 0.09100804 0.06293605 -0.43859124
00000000: b952 d7be b7c7 31bf 601d 473e 18bd 87bc
00000010: 50e0 e7be 960a 593f 4ff7 a7be a48c 40bf
00000020: 590c bfbe e85e bd3e a81a 3c3f 1457 983e
00000030: 1e5b 81be f268 d33d 589a ecbe a44b edbb
00000040: 0724 0b3e c2ce 8fbe b714 42bb eac7 d73e
00000050: 518c cbbe 22ab 193f ea88 52be f3ee 6ebd
00000060: a127 823e 9cfc 0fbe 127e fd3e c300 133f
00000070: 8e7e 17bf 9944 643e 7880 3dbf 0761 34bf
00000080: 9935 01bf 84fd 73be e63e a5bd c231 4bbe
00000090: e0c5 36be fa89 1c3f 3af1 11bf 3198 13bf
000000a0: 9841 19be ea26 f63e c2c0 933e c9ea 333f
000000b0: 1c24 e5be ddff 623e a34f f7be ada3 6cbe
000000c0: 757b ef3e 284d 21be d357 8ebe a57f c53e
000000d0: f5f9 27bf 3e9d 283f b8e5 0bbf afa9 0c3d
000000e0: f613 0f3f 1ff9 95be 0724 2f3f 7b76 1a3c
000000f0: cb4a ddbe 512a 8b3e b09f bfbe 6d38 55bf
00000100: 3dd6 a0be 4d95 f8be d2ca 2dbb 954e 943e
00000110: 2e3a fa3e 7fe6 d23b 3f18 3a3f 0b5a 2dbe
00000120: e988 383f f727 08bf 3ab4 813e e049 2cbf
00000130: 5780 6cbe 2a04 c0be 7b27 9b3f 7417 013f
00000140: 7fb3 60bf 643c 203f 6c4e 1e3e 7193 d2be
00000150: fd2f 313e cb66 65bd 8e5d a3bc 68d6 65be
00000160: dd4b a23e 51b9 e43e 771e b8bf 5ec2 713f
00000170: 17b9 30be 4f1b edbd 75e5 c2be 1287 953f
00000180: f6a9 f3be 14b9 36be 9114 dcbe 8815 a9be
00000190: e8d3 51be 13bf 033f b601 b03e cfdf 73be
000001a0: 83c2 f43d 8588 fa3e 7562 6f3e c446 103e
000001b0: 619b 653e fe74 523e fbdc 4c3e 2565 b8be
000001c0: 9130 93be 0f69 aa3d 2323 97be 3aa1 a63e
000001d0: 3dd8 a8bd 97cb c0bd afee 5e3e 3540 8dbe
000001e0: 1f46 7e3e ac2f 743e 1508 21bd a893 12bf
000001f0: ff17 1bbe 9387 e83e 938e 05bf 93f3 afbd
00000200: 347b 84bf 6c68 36bf 02d4 e1be eaeb cdbe
00000210: eddf 44bf 2486 7d3f b50c b23e 66d1 94bf
00000220: 1890 b73e 01a5 3cbe 306f 3c3f aa81 8dbd
00000230: 30f6 463e 3eb9 89be 0492 923e 8db4 d6be
00000240: a5c0 a3be 6c01 d73e f08a 24bf b4e0 cc3c
00000250: 8cd7 963d 820c aabe 6434 103e 37ef 88be
00000260: bdfa 06be 2e46 f7be 7828 58be 2151 8e3e
00000270: 0bab 3ebf 41b9 ed3e e27e 65bf 5e43 3fbe
00000280: 3cb4 88be 3961 c2be ce32 953d 3ac7 25be
00000290: 843a d7be 5dad 1d3f cd5e ebbe 2787 d2bd
000002a0: fd10 35bf 8df5 b83e 116d 083f 2fc9 073e
000002b0: 6976 22be 2ba8 0d3f 4523 cebe d983 b3bd
000002c0: 90e9 733e a172 bbbe a503 97be 34c7 7f3e
000002d0: d2ec acbe 4ff6 ef3e 523f 93be ebb3 b83d
000002e0: be92 84be 6ac6 acbc f39a 033e fb6e 543d
000002f0: 2109 c1be ef31 213f 1b9f d1be 1dda 46be
00000300: 288d dc3d 7173 92be 3f67 d53e 92db 9a3e
00000310: 9457 0d3e 26ed 8f3e 11fd a9be 7c15 793c
00000320: 0de4 33bd e392 553f 0d50 6b3e 0ac1 293f
00000330: 893f 7ebe 8997 ae3a 0d86 3bbf 73a8 aabe
00000340: 4470 013f 7158 dd3c ecda 4b3e 1060 6fbd
00000350: 8061 98be 5de5 2c3f 923a 60bf ac55 c83e
00000360: 3885 f6be 3d05 70be 12a3 ba3d 0d1d 2fbf
00000370: 8cff 803d dba4 c0be 8ccf 93bd 2bfb 2dbf
00000380: be2a 6dbd 458e a73d f807 95bc 2a1f 20bf
00000390: c474 083d 06fc 983e 3a4c 07bf 25b7 a7be
000003a0: 058a 19bf 2073 c83e 4727 243e b90b 463f
000003b0: a11d b8be f9e7 0e3f 35c5 19bf 7180 0dbe
000003c0: 334d 783e ef0e 1abf 1fd9 4dbf f46e 3f3f
000003d0: d857 08bf 5b07 813f c46f 94be 5af5 f5be
000003e0: 906b ccbe cb27 f8be 1689 493e 462f 5d3f
000003f0: 89a2 bdbe 6c62 ba3d 9ee4 803d 088f e0be

bias_ih_l0 f4 [128]
0.8029188 1.2216854 -0.06599283 -0.0990581 -0.11331459 0.34230274 0.2919411 0.7011378
0.059366614 -0.1611154 0.6442103 0.0023854983 0.8868339 0.3593547 0.88734347 0.33612102
0.26016876 0.73967826 -0.26553646 0.06609271 -0.063904405 0.019449139 -0.11322124 -0.37731364
0.75792277 0.5699341 0.30597687 -0.2299753 -0.3184028 0.1500892 0.9895756 0.2022178
-0.117352255 0.1473555 0.08566083 -0.05904065 0.2152033 0.33645624 0.43081748 -0.12496899
0.096478395 0.2859335 0.34373695 0.2819848 0.1517283 0.06403621 0.41667855 -0.033587974
0.2963095 0.07760495 0.069910966 -0.04201348 0.24625006 0.033000506 0.21930481 -0.036305744
0.40468276 0.25400582 0.2968023 0.1592506 -0.20024627 0.0022778562 0.007296602 0.2947212
-0.42672545 -0.39907885 -0.10899767 -0.35267705 -0.780265 0.65991503 -0.2855376 -0.54677874
0.06360769 0.17507096 0.4017735 0.06408876 0.15798102 -0.3299344 -0.19708122 -0.24622807
0.430287 0.23183727 -0.4184029 -0.16735588 -0.27907887 0.24443376 -0.27127224 -0.3954602
0.25566846 -0.04330734 0.43743235 -0.24360697 0.13515294 0.4086428 -0.5230586 -0.06145931
-0.111388184 -0.12873656 0.11883565 0.29267764 -0.07113459 -0.23774241 0.09811581 -0.37274444
0.099298604 0.29104197 0.08658878 0.118499495 -0.042417064 -9.285895e-06 0.32109997 0.2665444
-0.012018779 0.015656115 -0.05109268 -0.063711084 0.6901009 0.17706402 0.07439172 0.103625715
-0.06308408 0.031465106 0.20820892 -0.058527276 -0.3669964 0.1907964 0.042219993 0.43692008
00000000: 168c 4d3f 3060 9c3f 4027 87bd f9de cabd
00000010: 7b11 e8bd 4e42 af3e 4e79 953e c47d 333f
00000020: 682a 733d 6ffb 24be f7ea 243f 0556 1c3b
00000030: 8c07 633f 57fd b73e f128 633f 0e18 ac3e
00000040: d734 853e 8e5b 3d3f 65f4 87be 9d5b 873d
00000050: 50e0 82bd cd53 9f3c 8ae0 e7bd 412f c1be
00000060: 3a07 423f 34e7 113f 00a9 9c3e a57e 6bbe
00000070: b105 a3be fcb0 193e d454 7d3f 2f12 4f3e
00000080: 6156 f0bd 5ce4 163e f26e af3d 9cd4 71bd
00000090: 415e 5c3e fe43 ac3e 1c94 dc3e beef ffbd
000000a0: 7796 c53d e065 923e 4afe af3e 5060 903e
000000b0: aa5e 1b3e 6b25 833d e456 d53e 8b93 09bd
000000c0: e1b5 973e 58ef 9e3d 7b2d 8f3d 5416 2cbd
000000d0: fa28 7c3e 8a2b 073d 7191 603e 55b5 14bd
000000e0: 9432 cf3e 0d0d 823e 79f6 973e 9712 233e
000000f0: 5c0d 4dbe 1648 153b 5518 ef3b b2e5 963e
00000100: c27b dabe 1054 ccbe 2c3a dfbd 1692 b4be
00000110: 72bf 47bf 31f0 283f fc31 92be b1f9 0bbf
00000120: c044 823d cd45 333e 42b5 cd3e f840 833d
00000130: c7c5 213e 29ed a8be a9cf 49be 3623 7cbe
00000140: 944e dc3e c066 6d3e e838 d6be 575f 2bbe
00000150: 6de3 8ebe d84c 7a3e 32e4 8abe c279 cabe
00000160: fae6 823e 0a63 31bd 22f7 df3e 1b74 79be
00000170: 8865 0a3e a139 d13e 2be7 05bf c2bc 7bbd
00000180: 7d1f e4bd 84d3 03be 1b60 f33d d8d9 953e
00000190: 03af 91bd bf72 73be f1f0 c83d 5cd8 bebe
000001a0: 115d cb3d 7403 953e 7555 b13d ddaf f23d
000001b0: 84bd 2dbd 9eca 1bb7 3767 a43e 8278 883e
000001c0: 6aea 44bc 4141 803c 8f46 51bd f57a 82bd
000001d0: 74aa 303f 4550 353e b05a 983d b839 d43d
000001e0: 3a32 81bd 8ee1 003d b834 553e 4cba 6fbd
000001f0: f4e6 bbbe 2260 433e dfee 2c3d fdb3 df3e

bias_hh_l0 f4 [128]
1.0325115 1.0369523 -0.15167446 -0.20175825 -0.11557997 0.53089035 0.14700533 0.7080087
0.12743708 -0.2760311 0.56958157 -0.038397912 0.9216562 0.63066095 0.65662766 0.33041292
0.340894 0.7343671 -0.13643992 -0.24911898 0.08601715 -0.07132031 -0.17823352 -0.16813365
0.7751259 0.74895364 0.44128218 -0.070451096 -0.33278403 0.35256743 1.1174649 -0.089083016
0.15134999 0.20058598 -0.032354485 -0.025558341 0.34983876 0.567018 0.38256976 -0.03358455
0.07895535 0.22961463 0.13902399 0.41393983 0.08579091 0.2351594 0.16366945 -0.2132534
0.20806971 -0.014376587 -0.059472147 0.111011766 0.18049338 0.31907895 0.18184839 -0.048158687
0.08945739 0.10788182 0.10075527 0.3124367 -0.12708041 0.27657047 0.17808142 0.22596876
-0.5525183 -0.29721045 0.14731312 -0.52343553 -0.92805934 0.6867631 -0.27003953 -0.3637929
0.37381682 0.0078036864 0.48932576 0.25993198 0.083440796 -0.21748425 -0.2711481 -0.2623545
0.46525344 0.21345812 -0.46549347 0.026970977 -0.25229087 0.46399722 -0.3309103 -0.3110265
0.4985401 -0.20388314 0.4523964 -0.17927435 0.040154234 0.42294118 -0.353506 -0.26575506
-0.3010504 0.059929088 0.121019974 0.08212124 -0.070526354 -0.19335769 -0.100484096 -0.3222837
0.14506312 0.2516866 -0.060073588 0.11739139 0.15818618 -0.1680246 0.19418141 0.33637413
0.025318602 0.20772985 0.02983403 -0.2720066 0.52634424 0.17518899 0.021775058 0.19449298
-0.17990704 0.23269962 0.4634115 -0.13686337 -0.4047243 0.21378857 0.10320592 0.18506137
00000000: 5629 843f daba 843f 8d50 1bbe b799 4ebe
00000010: 31b5 ecbd 6ee8 073f 9188 163e 0f40 353f
00000020: de7e 023e f353 8dbe 19d0 113f 2147 1dbd
00000030: a9f1 6b3f ff72 213f c018 283f e22b a93e
00000040: a989 ae3e 7bff 3b3f e8b6 0bbe 0c19 7fbe
00000050: c229 b03d 6210 92bd d982 36be 3a2b 2cbe
00000060: a76e 463f 6dbb 3f3f bdef e13e aa48 90bd
00000070: ab62 aabe b883 b43e 1709 8f3f 2871 b6bd
00000080: 7efb 1a3e 6966 4d3e 2386 04bd ba5f d1bc
00000090: 111e b33e 1728 113f 2fe0 c33e f48f 09bd
000000a0: 58b3 a13d 1920 6b3e 4e5c 0e3e ecef d33e
000000b0: 25b3 af3d a0cd 703e f798 273e 195f 5abe
000000c0: 3a10 553e c78b 6bbc 1199 73bd 235a e33d
000000d0: 42d3 383e 515e a33e 7736 3a3e 0b42 45bd
000000e0: 7035 b73d 25f1 dc3d c758 ce3d b4f7 9f3e
000000f0: 5e21 02be a59a 8d3e fa5a 363e 5b64 673e
00000100: d771 0dbf f82b 98be 40d9 163e dfff 05bf
00000110: 4c95 6dbf b5cf 2f3f 9f42 8abe 1043 babe
00000120: eb64 bf3e 11b6 ff3b e888 fa3e ce15 853e
00000130: 02e3 aa3d 31b4 5ebe ecd3 8abe 5453 86be
00000140: b335 ee3e c494 5a3e 2955 eebe 3df2 dc3c
00000150: 452c 81be 0b91 ed3e 136d a9be de3e 9fbe
00000160: a640 ff3e bec6 50be 80a0 e73e b293 37be
00000170: c478 243d bf8b d83e bdfe b4be 0c11 88be
00000180: 4723 9abe 3478 753d 52d9 f73d 2e2f a83d
00000190: 1f70 90bd 8fff 45be 9bca cdbd 5e02 a5be
000001a0: 6d8b 143e 11dd 803e b90f 76bd e66a f03d
000001b0: 8ffb 213e a40e 2cbe 7ed7 463e 3b39 ac3e
000001c0: f568 cf3c 22b7 543e 7f66 f43c 7344 8bbe
000001d0: 7fbe 063f be64 333e 9b61 b23c 2b29 473e
000001e0: 8d39 38be cf48 6e3e 4644 ed3e e925 0cbe
000001f0: 0638 cfbe 64eb 5a3e a05d d33d ba80 3d3e

weight_ih_l1 f4 [128, 32]
0.21150064 0.30250734 -0.46959272 0.45755625 0.6492241 -0.870896 0.06820576 0.7459545
-0.12358405 -0.085554115 -0.44482544 -0.15993303 0.034477755 0.030150017 0.41271123 -0.07508041
-0.26765886 -0.020292062 0.57075065 0.04686273 0.27328956 -0.28967187 0.31717765 0.03189589
-0.0497046 0.27720842 -0.28759086 0.3733414 -0.18945998 -0.14464599 0.26547396 0.05071467
-0.049283408 -0.45336157 -0.42048407 -0.27615747 0.055360205 -0.06456186 -0.9022858 -0.16655272
-0.60425764 0.50658417 0.032224018 0.35201442 -0.80036753 0.725787 -0.78470623 -0.52333754
0.711069 -0.77424794 -0.27139643 0.59940183 -0.46782213 0.21789496 -0.09213423 -0.23636837
0.26941797 -0.90849096 0.89650804 0.004561503 -0.5942202 0.6251724 -0.11177053 -0.1668405
0.57023376 0.63042736 0.20167704 0.3636309 0.7191583 -1.9632453 0.020941982 1.2249072
-0.7194422 0.10455298 -0.97630966 0.11416617 -0.037904724 0.55627805 0.15809299 0.0574307
-0.1242092 -0.32505223 0.3692726 0.08158196 -0.12651704 -0.06830121 0.10620347 -0.05660695
0.07242013 0.15229012 -0.14520997 0.21762915 -0.32510275 -0.37256572 0.56640446 0.1669822
-0.21865828 0.04244785 -0.07678551 0.543634 0.4503658 -0.2947159 -0.054253425 0.33215332
-0.86226 0.12719618 -0.20858866 0.23093905 -0.41167456 0.45515385 -0.25091562 -0.3556582
0.3041299 -0.48719028 0.5043252 0.06935692 -0.20746246 -0.12596299 0.027328033 0.19380584
0.30675298 -0.16317472 0.1912142 0.8217125 -0.17554545 0.40226325 -0.07324373 -0.32396638
0.750083 0.8670576 0.42992592 0.2526893 1.4339952 -0.92144185 0.006646558 0.9454951
-0.49539846 0.18087718 -0.772499 0.068407945 0.30514452 0.66327995 0.010722607 0.1812426
-0.21799707 -0.39369085 -0.050924066 0.18847679 -0.048854284 0.06694482 0.10724361 -0.2072023
-0.061112784 0.19198899 -0.018335812 0.12062825 -0.12597628 -0.2632212 0.71266466 0.05405983
-0.1896092 -0.24199937 -0.27885085 0.57785654 0.1917712 0.16411339 0.16445263 -0.30936846
0.50271493 0.055832513 0.106433265 -0.24489373 -0.002671535 -0.63219583 0.21450041 -0.25863704
-0.2670156 0.31603935 0.2958028 -0.87818754 0.33589733 -0.35261443 0.5126994 0.43778044
0.45656276 0.745369 -0.4055164 -0.25590777 0.24813673 0.20783894 -0.088490985 0.5526717
0.12721539 0.41231132 -0.20546387 -0.2938444 -0.022316659 0.30583254 -0.52209544 -0.046521377
-0.4083489 0.40606266 0.14032441 0.27933943 -0.16705568 0.34375244 -0.4770276 -0.48113257
0.39085975 -0.85307896 -0.20826583 0.6340749 -0.3623907 0.44292673 0.18768924 -0.17462781
-0.20674971 -0.2338954 0.58642244 0.035798922 -0.19673142 -0.059888873 0.051032305 -0.45570907
-0.5366597 -0.556588 -0.23398617 0.14076401 -0.17670839 0.33269837 0.034229588 -0.71241856
0.29738837 0.22298178 0.6960619 -0.2662013 -0.094956025 -0.3074432 -0.023005653 -0.51395106
-0.1419374 0.21467409 0.24311906 -0.50574833 0.40438208 -0.3455542 0.06361449 0.31980598
0.08626558 0.4264268 0.25252384 -0.24598068 0.34429038 0.324151 -0.7108219 0.29857782
00000000: a093 583e 3ee2 9a3e 756e f0be d044 ea3e
00000010: 8d33 263f 0af3 5ebf 76af 8b3d e0f6 3e3f
00000020: a219 fdbd ff36 afbd 29c0 e3be 7cc5 23be
00000030: 8c38 0d3d 2bfd f63c e34e d33e c2c3 99bd
00000040: 950a 89be 8a3b a6bc b71c 123f 22f3 3f3d
00000050: 9cec 8b3e df4f 94be 1c65 a23e 44a5 023d
00000060: 0d97 4bbd 43ee 8d3e 1c3f 93be 9b26 bf3e
00000070: cc01 42be 141e 14be 34ec 873e 30ba 4f3d
00000080: 66dd 49bd 021f e8be b049 d7be 8364 8dbe
00000090: 62c1 623d 0239 84bd 34fc 66bf cc8c 2abe
000000a0: a1b0 1abf 80af 013f 55fd 033d 3c3b b43e
000000b0: e3e4 4cbf 2dcd 393f 82e2 48bf 73f9 05bf
000000c0: 9e08 363f 1d35 46bf 79f4 8abe 6672 193f
000000d0: 6286 efbe db1f 5f3e dfb0 bcbd 8d0a 72be
000000e0: 27f1 893e dd92 68bf 8d81 653f a978 953b
000000f0: d11e 18bf 4c0b 203f f3e7 e4bd 3cd8 2abe
00000100: d7fa 113f b063 213f 6d84 4e3e d42d ba3e
00000110: c21a 383f 9f4b fbbf 858e ab3c c2c9 9c3f
00000120: 5d2d 38bf df1f d63d 6eef 79bf f4cf e93d
00000130: fc41 1bbd 3d68 0e3f 21e3 213e 743c 6b3d
00000140: 6561 febd 3f6d a6be 4c11 bd3e 7114 a73d
00000150: af8d 01be 81e1 8bbd 3481 d93d b0dc 67bd
00000160: 0151 943d f1f1 1b3e ecb1 14be 2dda 5e3e
00000170: de73 a6be efc0 bebe e2ff 103f 62fd 2a3e
00000180: f5e7 5fbe ccdd 2d3d b941 9dbd 992b 0b3f
00000190: 5996 e63e 01e5 96be d738 5ebd 0010 aa3e
000001a0: 12bd 5cbf b73f 023e 4498 55be 497b 6c3e
000001b0: 02c7 d2be ed09 e93e 0378 80be d518 b6be
000001c0: eab6 9b3e 0171 f9be 751b 013f 000b 8e3d
000001d0: 0a71 54be 71fc 00be 0adf df3c 0a75 463e
000001e0: ba0e 9d3e 4617 27be a8cd 433e c05b 523f
000001f0: 30c2 33be 73f5 cd3e cf00 96bd ecde a5be
00000200: 7105 403f 7df7 5d3f 401f dc3e 7e60 813e
00000210: 288d b73f 9de3 6bbf 5fcb d93b f80b 723f
00000220: dea4 fdbe de37 393e 7fc2 45bf 7719 8c3d
00000230: e73b 9c3e b7cc 293f e0ad 2f3c a997 393e
00000240: a03a 5fbe d991 c9be c195 50bd 0f00 413e
00000250: 6e1b 48bd 5e1a 893d 8aa2 db3d d72c 54be
00000260: 6651 7abd c398 443e fc34 96bc f20b f73d
00000270: edff 00be eec4 86be 3171 363f d76d 5d3d
00000280: ea28 42be afce 77be 8ac5 8ebe 68ee 133f
00000290: ab5f 443e 570d 283e 4566 283e 8b65 9ebe
000002a0: edb1 003f a2b0 643d aff9 d93d 6cc5 7abe
000002b0: eb14 2fbb 96d7 21bf ffa5 5b3e 136c 84be
000002c0: 45b6 88be e9cf a13e 7773 973e e6d0 60bf
000002d0: bcfa ab3e e189 b4be 4540 033f c224 e03e
000002e0: 98c2 e93e 81d0 3e3f d89f cfbe 5806 83be
000002f0: 8e17 7e3e bbd3 543e c33a b5bd e47b 0d3f
00000300: c044 023e 781a d33e 1f65 52be c672 96be
00000310: 6dd1 b6bc 1596 9c3e 0ca8 05bf 338d 3ebd
00000320: 1b13 d1be 72e7 cf3e 34b1 0f3e 9405 8f3e
00000330: a510 2bbe 5200 b03e f63c f4be 0257 f6be
00000340: c51e c83e 6263 5abf a343 55be bc52 223f
00000350: 468b b9be 4bc7 e23e 9c31 403e a2d1 32be
00000360: 32b6 53be 4782 6fbe c81f 163f e4a1 123d
00000370: f673 49be 094e 75bd 4007 513d b352 e9be
00000380: 8862 09bf 8d7c 0ebf 129a 6fbe 7124 103e
00000390: 0bf3 34be 7157 aa3e 5334 0c3d 1061 36bf
000003a0: 4a43 983e 5655 643e 1d31 323f 894b 88be
000003b0: 4e78 c2bd 3269 9dbe 5a76 bcbc 4c92 03bf
000003c0: 0a58 11be 86d3 5b3e 34f4 783e b978 01bf
000003d0: 2b0b cf3e 7bec b0be 5048 823d 9cbd a33e
000003e0: 02ac b03d 9d54 da3e ce4a 813e 5ce2 7bbe
000003f0: d446 b03e 1ff7 a53e 6df8 35bf 31df 983e

weight_hh_l1 f4 [128, 32]
0.1550911 0.57497364 -0.33530566 0.4935389 -0.05395559 0.04070026 0.30193305 -0.32626647
-0.17481758 -0.24079719 -0.04115525 0.5512309 -0.31994027 0.81402916 0.08267862 0.5742796
-0.15430841 -0.30986938 -0.4658238 -0.3963463 -0.30753076 0.35669854 -0.26026383 0.09968315
0.38377312 0.18728794 -0.11480892 0.3617295 0.59369254 -0.13249446 -0.29817078 0.42444664
0.251852 0.11415011 -0.22976023 0.22547002 -0.009328751 0.072541535 -0.2098984 0.3847212
0.069122225 -0.016203228 0.3198034 -0.27787066 -0.3468992 0.48615047 0.22359192 -0.3217183
0.0063051586 -0.021866124 0.18320109 -0.013710074 0.0306474 -0.21552531 -0.0760646 0.3703222
-0.16286361 -0.076640934 0.33793497 -0.4042518 0.28237653 -0.09359869 0.48089924 -0.17475064
0.67581403 0.115188375 -0.22730505 0.18124868 0.055174116 -0.15140502 0.3874747 0.061060917
-0.113025025 -0.20849131 -0.08587668 -0.09689314 0.01946536 0.44451118 0.2030091 0.11686864
-0.11109676 0.11199642 -0.3408544 -0.108816326 0.02594422 0.505637 -0.010810329 0.40245667
0.47202444 -0.11924914 -0.20212518 -0.04054975 0.3726974 -0.030586245 0.25466707 0.40698114
-1.3793349 0.22415298 1.4126538 0.32325512 -0.058686092 -0.3017604 -0.28662562 -0.0073373215
-0.5494077 0.08262253 -0.028710812 -0.8027402 -0.18165058 0.2963442 0.19585884 0.0015738519
-0.017779883 -0.44057167 0.18066366 0.090567976 -0.5679314 0.067165256 -0.14103565 0.23038346
-0.1584445 0.2148772 -0.42168316 0.25922015 0.3479836 -0.39527065 0.4540331 -0.20328212
0.61681867 0.22508544 -0.5589353 -0.16853228 0.033388387 -0.18411995 -0.018661225 0.45227554
0.6294972 0.329564 0.7231387 0.2537439 0.13253574 0.10095284 0.034973696 -0.026814904
-0.20912266 -0.35345894 -0.3173207 0.11949011 -0.19935222 -0.26083195 -0.17768535 -0.1574573
-0.0006385331 -0.045982204 -0.3952951 -0.5929178 0.9977134 0.26229447 -0.24628557 0.21084215
-0.23523623 0.19937806 0.1784981 0.050654296 -0.10414475 0.6523579 0.044900298 0.58920306
-0.055650324 -0.34502068 -0.2370198 -0.82658875 -0.119618565 0.28839192 -0.061740495 -0.031931993
0.2825366 -0.083259486 -0.34291974 -0.29271072 0.19233306 0.2484941 0.30041647 0.05464966
0.3701628 -0.2888167 -0.1315714 -0.23083983 -0.22069937 -0.26779172 0.43752953 0.1771068
0.2671931 0.3329528 -0.35702026 0.08275047 0.33797938 -0.34378186 0.0056875222 0.2829452
-0.105467714 0.113308005 0.12095239 -0.048614234 -0.48953944 0.4852091 0.7630191 0.4391974
0.19764537 0.2041262 -0.24000952 -0.2520941 -0.07310686 0.28638518 -0.6101506 0.35295576
0.11828497 0.0620434 0.45264915 -0.2275335 0.17057696 0.10002278 0.09613572 -0.13750695
-0.39386344 -0.47545677 0.27519372 -0.6087776 -0.27788934 0.44542938 -0.80733746 0.17608657
-0.1345071 0.19054125 -0.51925325 -0.107754886 -0.4098466 -0.06940796 0.17734429 -0.35513443
0.6310617 0.7822949 0.28325957 0.15126279 0.43348303 -0.54161614 -0.33930874 -0.052929375
-0.7346702 -0.20597173 0.33466974 -0.279401 0.29329056 0.6538589 -0.07253371 -0.04721434
00000000: 34d0 1e3e 7931 133f 2fad abbe 21b1 fc3e
00000010: 8900 5dbd 51b5 263d f896 9a3e 660c a7be
00000020: 6103 33be 8a93 76be 6892 28bd 781d 0d3f
00000030: 36cf a3be 3764 503f 6953 a93d fd03 133f
00000040: 0603 1ebe 33a7 9ebe 7580 eebe e7ed cabe
00000050: ac74 9dbe 31a1 b63e 4d41 85be ae26 cc3d
00000060: e97d c43e 69c8 3f3e f020 ebbd 9c34 b93e
00000070: 3cfc 173f a1ac 07be d7a9 98be 1251 d93e
00000080: bff2 803e 88c7 e93d 4446 6bbe 9de1 663e
00000090: 9ed7 18bc a890 943d 9bef 56be 2dfa c43e
000000a0: f48f 8d3d a2bc 84bc 45bd a33e 1045 8ebe
000000b0: c69c b1be b7e8 f83e 48f5 643e 43b8 a4be
000000c0: 819b ce3b 9620 b3bc 1199 3b3e 38a0 60bc
000000d0: 4210 fb3c abb2 5cbe c2c7 9bbd df9a bd3e
000000e0: b8c5 26be ecf5 9cbd d005 ad3e 18fa cebe
000000f0: a893 903e acb0 bfbd 6d38 f63e d5f1 32be
00000100: 2602 2d3f e2e7 eb3d a8c2 68be 4199 393e
00000110: 41fe 613d eb09 1bbe 1563 c63e 031b 7a3d
00000120: aa79 e7bd bf7e 55be 1de0 afbd e96f c6bd
00000130: d275 9f3c f896 e33e 9ee1 4f3e d358 ef3d
00000140: b386 e3bd 615e e53d 7884 aebe 18db debd
00000150: f988 d43c 6d71 013f ce1d 31bc cd0e ce3e
00000160: 30ad f13e e538 f4bd e7f9 4ebe 7f17 26bd
00000170: 32d2 be3e 0190 fabc b963 823e d55f d03e
00000180: 0c8e b0bf 5c88 653e d7d1 b43f b281 a53e
00000190: d460 70bd 5780 9abe 98c0 92be ea6d f0bb
000001a0: fca5 0cbf 0036 a93d f032 ebbc 6280 4dbf
000001b0: 9c02 3abe 6dba 973e 388f 483e b549 ce3a
000001c0: 1ea7 91bc 9c92 e1be e5ff 383e b47b b93d
000001d0: f463 11bf f08d 893d a66b 10be a4e9 6b3e
000001e0: 463f 22be c508 5c3e dbe6 d7be 81b8 843e
000001f0: e82a b23e ea60 cabe 0777 e83e 3029 50be
00000200: d4e7 1d3f cc7c 663e 6216 0fbf ba93 2cbe
00000210: 43c2 083d f189 3cbe 6ddf 98bc a990 e73e
00000220: ba26 213f 9dbc a83e 9e1f 393f b8ea 813e
00000230: 73b7 073e 5dc0 ce3d 9440 0f3d eeaa dbbc
00000240: 4024 56be 92f8 b4be dc77 a2be 3bb7 f43d
00000250: fd22 4cbe c48b 85be 26f3 35be 7d3c 21be
00000260: 3b63 27ba d657 3cbd 1f64 cabe 76c9 17bf
00000270: 256a 7f3f 764b 863e 4932 7cbe 01e7 573e
00000280: c4e1 70be c329 4c3e 35c8 363e e17a 4f3d
00000290: d849 d5bd ed00 273f 60e9 373d 03d6 163f
000002a0: 98f1 63bd 8da6 b0be 52b5 72be 529b 53bf
000002b0: 94fa f4bd 1ba8 933e 9ae3 7cbd 1fcb 02bd
000002c0: a3a8 903e f383 aabd 2d93 afbe 2ede 95be
000002d0: f5f2 443e 3d75 7e3e 30d0 993e 52d8 5f3d
000002e0: fb85 bd3e c8df 93be a7ba 06be 4761 6cbe
000002f0: 04ff 61be ff1b 89be df03 e03e 7c5b 353e
00000300: 89cd 883e ca78 aa3e 5ccb b6be 1479 a93d
00000310: a20b ad3e 2d04 b0be 655e ba3b 31de 903e
00000320: 75ff d7bd 070e e83d e3b5 f73d b81f 47bd
00000330: eaa4 fabe 546d f83e 3855 433f 7bde e03e
00000340: 8c63 4a3e 7506 513e 0ec5 75be 7a12 81be
00000350: 0db9 95bd 14a1 923e d432 1cbf 9eb6 b43e
00000360: 643f f23d 3821 7e3d a1c1 e73e 8bfe 68be
00000370: baab 2e3e bed8 cc3d cee2 c43d 9fce 0cbe
00000380: 78a8 c9be 126f f3be 31e6 8c3e d9d8 1bbf
00000390: 8347 8ebe 520f e43e abad 4ebf 0a50 343e
000003a0: 3bbc 09be 3f1d 433e c8ed 04bf 98ae dcbd
000003b0: 6ad7 d1be c325 8ebd be99 353e 2ed4 b5be
000003c0: 428d 213f 7b44 483f 6607 913e a2e4 1a3e
000003d0: 7df1 dd3e 5ba7 0abf e0b9 adbe 79cc 58bd
000003e0: 5913 3cbf 41ea 52be d559 ab3e a60d 8fbe
000003f0: 2e2a 963e 4c63 273f 8e8c 94bd d363 41bd

bias_ih_l1 f4 [128]
-0.31435254 0.6225723 -0.16308153 0.28176373 -0.20678604 -0.18433766 0.47404495 -0.16955112
-0.2991686 -0.1849028 -0.49231753 -0.50426435 -0.41425565 0.13627213 0.013013093 -0.00019679042
-0.2469073 -0.07393771 0.18535757 0.0009392476 0.093224175 -0.20590617 -0.37452742 -0.27547497
-0.29126766 -0.21313591 -0.07681722 -0.29818928 -0.23945919 -0.09494236 0.2632724 -0.10012515
0.1356962 -0.045409366 0.088659205 -0.17635868 -0.14197017 0.14132126 0.17507564 0.860894
-0.20314443 -0.18587758 -0.12811492 -0.07298697 -0.07102658 0.10155398 0.1594179 0.38950625
-0.21464439 -0.19599359 0.20340174 -0.0906754 0.15955214 -0.014454161 -0.105378084 0.07890115
0.3517422 -0.11555842 -0.17839478 -0.32112825 -0.42252252 0.0911754 0.34968808 -0.04864623
0.23918356 0.13928337 -0.58000356 0.08675859 0.19180457 0.08660085 0.08799248 -0.00292938
0.047989886 -0.17081171 0.47115812 -0.18167469 -0.2853769 0.19988538 -0.14884418 0.10749445
-0.021971995 0.031591214 -0.30591792 -0.16366732 -0.023730347 0.28258693 0.23606856 0.10508693
-0.030144682 0.093017265 0.053849395 -0.021647511 -0.016054133 -0.011523264 0.118944615 0.3209082
0.15752485 -0.26672935 -0.052184176 0.259724 -0.016675651 0.15160969 0.066561244 0.0067817997
-0.21574494 -0.38126385 -0.2737931 -0.117747866 0.07357231 -0.3194763 -0.17436291 0.24256623
-0.283947 0.022587514 0.10612031 0.01628431 0.23488486 -0.19248344 -0.44514915 -0.33554357
0.42764318 -0.14336188 -0.17610008 -0.114086196 0.27257577 0.34914833 0.29015288 -0.1873573
00000000: d1f2 a0be e660 1f3f d8fe 26be 5643 903e
00000010: b8bf 53be 03c3 3cbe 05b6 f23e cf9e 2dbe
00000020: a02c 99be 2957 3dbe 0b11 fcbe 7817 01bf
00000030: 5119 d4be ec8a 0b3e de34 553c 8759 4eb9
00000040: 44d5 7cbe a76c 97bd 60ce 3d3e d737 763a
00000050: 51ec be3d 11d9 52be 0fc2 bfbe 0e0b 8dbe
00000060: 0921 95be 4d40 5abe 5952 9dbd 44ac 98be
00000070: ca34 75be 2471 c2bd a4cb 863e 6a0e cdbd
00000080: f2f3 0a3e 2cff 39bd f592 b53d 5f97 34be
00000090: a160 11be 85b6 103e 0747 333e 8d63 5c3f
000000a0: 1805 50be b156 3ebe 8f30 03be 317a 95bd
000000b0: 6276 91bd 88fb cf3d 723e 233e 5d6d c73e
000000c0: bdcb 5bbe 8bb2 48be 8c48 503e 06b4 b9bd
000000d0: a361 233e 25d1 6cbc 77d0 d7bd ed96 a13d
000000e0: 8e17 b43e e5a9 ecbd 1fad 36be ec6a a4be
000000f0: df54 d8be 2bba ba3d 510a b33e 4541 47bd
00000100: 89ec 743e 4da0 0e3e 1d7b 14bf 7dae b13d
00000110: 6b68 443e c95b b13d 6735 b43d d7fa 3fbb
00000120: 0b91 443d 44e9 2ebe a33b f13e ee08 3abe
00000130: ec1c 92be c1ae 4c3e 9c6a 18be 0d26 dc3d
00000140: 9dfe b3bc ca65 013d 46a1 9cbe 6898 27be
00000150: 2566 c2bc 3caf 903e f5bb 713e d137 d73d
00000160: fbf1 f6bc d67f be3d 2f91 5c3d 1f56 b1bc
00000170: f583 83bc 13cc 3cbc 3c99 f33d 144e a43e
00000180: 324e 213e c090 88be 13bf 55bd 8bfa 843e
00000190: 609b 88bc 923f 1b3e 4351 883d dc39 de3b
000001a0: 3eec 5cbe 0435 c3be 9c2e 8cbe cb25 f1bd
000001b0: 14ad 963d 6692 a3be 318c 32be 4863 783e
000001c0: 8061 91be 7309 b93c 9b55 d93d ac66 853c
000001d0: a885 703e 611a 45be 97ea e3be 5ecc abbe
000001e0: 0cf4 da3e 75cd 12be 9453 34be 06a6 e9bd
000001f0: 0d8f 8b3e 92c3 b23e eb8e 943e 98da 3fbe

bias_hh_l1 f4 [128]
-0.14461075 0.5106358 -0.06914479 0.0807949 -0.21278377 -0.1863741 0.35686225 -0.31730488
-0.48544386 -0.19589493 -0.35363698 -0.3955084 -0.21985836 0.014683649 -0.07369825 0.0082180165
-0.27884537 -0.1189255 0.030957848 -0.01835983 -0.20113848 0.030071968 -0.32983822 -0.084367596
-0.20122637 -0.080124244 0.057744842 -0.3058431 -0.2126959 -0.0019580242 0.23117876 -0.025251286
0.055593576 0.17668822 0.2605255 -0.096733496 -0.37604728 0.23226596 0.41278332 0.54485875
-0.0005259339 0.14482723 -0.1016046 0.10087538 -0.11493841 0.29651272 0.16378327 0.3974886
-0.06804543 -0.25914997 0.0018053402 0.14989685 0.24601206 -0.21752892 -0.19663547 0.15593816
0.34793717 -0.053205937 0.06029534 -0.11492271 -0.1571746 0.18952192 0.23085175 -0.12812483
0.18181585 0.051195737 -0.27883404 0.21503706 0.19302483 0.045348912 -0.0021796916 0.05530776
-0.022801803 -0.27711916 0.5578648 0.08696651 -0.04088402 0.09747644 0.13541318 0.18760715
-0.1252685 -0.12785025 -0.41610646 -0.27152312 -0.066795014 0.22338791 0.23577324 0.24563737
0.16867867 -0.081163816 0.084038414 -0.025961917 0.041837893 -0.25414348 0.10733797 0.044637337
0.10661035 -0.45413673 0.11759174 0.17187838 -0.06128216 -0.0101524955 -0.005834429 -0.13067381
-0.1630642 -0.15830779 -0.11323166 -0.02348484 -0.04188997 -0.07682597 -0.06798592 0.36122453
-0.2939101 -0.16555333 0.06926812 -0.0118884845 -0.04810309 -0.19350764 -0.12336191 -0.1243569
0.2787134 -0.10406611 -0.10090188 -0.114452936 0.18742618 0.3392334 0.32833818 -0.08921709
00000000: d714 14be 07b9 023f c99b 8dbd cc77 a53d
00000010: fde3 59be dad8 3ebe a6b6 b63e c975 a2be
00000020: 198c f8be ae98 48be e80f b5be 1480 cabe
00000030: 8d22 61be b093 703c 1cef 96bd dca4 063c
00000040: d2c4 8ebe 368f f3bd 509b fd3c 5b67 96bc
00000050: 3ff7 4dbe 7d59 f63c 8ee0 a8be ebc8 acbd
00000060: 490e 4ebe 2e18 a4bd db85 6c3d 7897 9cbe
00000070: f4cc 59be 3252 00bb 20ba 6c3e c9db cebc
00000080: 17b6 633d c2ed 343e 9963 853e 361c c6bd
00000090: 4589 c0be 21d7 6d3e 5658 d33e dd7b 0b3f
000000a0: d4de 09ba 974d 143e 1316 d0bd c097 ce3d
000000b0: d464 ebbd 84d0 973e cdb6 273e a083 cb3e
000000c0: 675b 8bbd 4eaf 84be 2aa1 ec3a 8f7e 193e
000000d0: 96ea 7b3e e7bf 5ebe cf5a 49be 41ae 1f3e
000000e0: d224 b23e 78ee 59bd 3ff8 763d 995c ebbd
000000f0: 61f2 20be 0912 423e 6764 6c3e 2833 03be
00000100: ef2d 3a3e 9fb2 513d 56c3 8ebe ad32 5c3e
00000110: 4da8 453e c8bf 393d 28d9 0ebb 648a 623d
00000120: d9ca babc 90e2 8dbe 3ad0 0e3f 7f1b b23d
00000130: 0176 27bd baa1 c73d c1a9 0a3e 171c 403e
00000140: 6346 00be 2deb 02be e80b d5be 1405 8bbe
00000150: d3cb 88bd cdbf 643e 8a6e 713e 5d88 7b3e
00000160: 1aba 2c3e 3739 a6bd 551c ac3d 16ae d4bc
00000170: 365e 2b3d 181f 82be 02d4 db3d a4d5 363d
00000180: 8756 da3d 9c84 e8be f0d3 f03d e300 303e
00000190: 0103 7bbd a756 26bc bd2e bfbb 5bcf 05be
000001a0: 4dfa 26be 701b 22be 00e6 e7bd 4763 c0bc
000001b0: d194 2bbd ef56 9dbd 343c 8bbd 6cf2 b83e
000001c0: 627b 96be d086 29be 72dc 8d3d ebc7 42bc
000001d0: bf07 45bd de26 46be 2ba5 fcbd d5ae febd
000001e0: 86b3 8e3e 9d20 d5bd a5a5 cebd 4d66 eabd
000001f0: a6ec 3f3e 00b0 ad3e f11b a83e 73b7 b6bd

weight_ih_l2 f4 [128, 32]
-1.1763232 0.45375594 0.39133984 0.59891 -0.41726786 0.061322466 0.6516124 -0.38723746
-0.8252665 -0.18213606 -0.5460186 -0.96140236 0.520272 -0.13266352 -0.030462809 0.17502032
-0.27783442 0.39026758 -0.04883058 0.29833135 0.6567206 -0.07805893 0.24562997 -0.1247855
0.53231215 0.02066765 -0.14198485 -0.20558439 -0.3483422 -0.19507419 1.1083583 0.19703491
-0.8391966 0.25255463 0.5505134 0.049533036 -0.20527084 0.44689918 0.2544453 -0.26223424
-0.7274166 -0.00810176 -0.57550806 -0.9055821 -0.69762886 0.3332441 0.046357535 0.03730968
-0.011997075 -0.060475 0.050455265 -0.7013798 0.13954546 -0.21887062 -0.24144137 0.003956423
0.04968222 0.33714658 0.17133616 -0.07787633 -0.18111296 -0.3317809 0.8587429 0.20609061
-0.7554543 0.8412102 0.4522134 0.5777572 -0.30659777 0.033994313 0.85903186 0.3080473
-0.19346757 -0.10052615 -0.36921445 0.21056254 0.7880292 0.27556622 0.019418191 -0.051746294
0.14865634 -0.3444978 -0.2711976 0.42734918 -0.38772452 0.22894503 0.031081608 -0.1440995
0.77648664 -0.1362796 0.065527365 0.14374658 -0.019071436 0.0331763 0.3288107 -0.035718754
-1.1118296 0.19615598 0.41041705 0.47887594 -0.009050037 0.12476117 0.09770379 -0.66690147
-0.03665776 0.18439275 -0.47061536 -0.652357 -0.7020237 -0.05840159 -0.079036355 0.1297987
0.14609842 0.051385548 -0.26461312 -0.5210052 -0.17209207 -0.23080589 -0.48646128 -0.052422117
0.15873434 -0.063133515 0.2712041 0.06043743 -0.23399332 -0.085995086 0.6576216 0.19055285
-0.8099518 -0.21207103 0.77524185 0.48614827 -0.28629404 -0.034915864 0.4422909 0.8039408
-0.5864945 0.22897553 -0.7077832 -0.29254174 0.930676 0.08962194 -0.1329925 0.2243544
-0.3327766 0.5637378 -0.6899581 0.48548168 -0.07490863 0.14913617 -0.062690325 -0.2903764
0.26962826 0.035786375 0.25159726 -0.26500392 -0.38686183 0.3405866 0.6271296 -0.30218112
-0.8592108 0.18059969 0.8426929 0.5406986 -0.02657784 0.07339491 0.46400642 0.31432435
-0.48209 0.10839898 -0.32114223 0.06575378 0.7914742 -0.31361398 0.036770966 -0.1355672
-0.014607832 0.02087514 -0.28894427 0.5086638 -0.25210744 0.01908273 0.35778433 0.005083864
0.3746087 0.13071173 -0.14325356 -0.22207858 -0.39452872 0.1719496 0.09531439 -0.35017014
-0.90548825 -0.28377783 0.8562771 0.15528029 -0.024155518 -0.067867994 0.43625003 0.72597384
-0.018676495 0.008995348 -0.05546016 0.13267407 0.9763231 0.21292819 -0.38188636 -0.11102307
-0.06192949 0.1918709 -0.09313184 0.4131 -0.068263225 0.10221569 0.48056126 -0.15811405
0.54227537 -0.24129896 -0.3696212 0.031117598 -0.12818271 0.2506307 0.037537284 -0.16528964
-0.5933684 0.019646177 0.56515753 0.25389928 -0.39992476 0.32820952 0.18840922 0.4913569
-0.3499064 -0.24062121 -0.40323693 -0.121904396 0.7129363 -0.28407094 0.05281183 -0.31416664
0.22040382 0.42385596 -0.5182259 0.71502715 0.17536747 -0.057207283 -0.0052072867 -0.1136644
0.72017586 -0.2202307 0.083573855 -0.12125197 -0.24409427 -0.058575537 0.48406923 -0.060617644
00000000: c291 96bf b352 e83e b25d c83e 2a52 193f
00000010: 22a4 d5be 442d 7b3d 12d0 263f fd43 c6be
00000020: aa44 53bf e081 3abe e0c7 0bbf 771e 76bf
00000030: 8c30 053f f2d8 07be 248d f9bc 8738 333e
00000040: 5040 8ebe 27d1 c73e 9302 48bd e3be 983e
00000050: d71e 283f 5cdd 9fbd 6c86 7b3e 8a8f ffbd
00000060: 9c45 083f 344f a93c 7a64 11be b784 52be
00000070: e959 b2be 87c1 47be afde 8d3f 85c3 493e
00000080: 97d5 56bf d74e 813e 72ee 0c3f 27e3 4a3d
00000090: 8532 52be f8cf e43e a846 823e 9143 86be
000000a0: f937 3abf 3fbd 04bc 7f54 13bf 3ad4 67bf
000000b0: ce97 32bf f89e aa3e 66e1 3d3d 09d2 183d
000000c0: 618f 44bc a2b4 77bd 2eaa 4e3d a08d 33bf
000000d0: 01e5 0e3e 9f1f 60be 683c 77be e2a4 813b
000000e0: 957f 4b3d 7a9e ac3e bf72 2f3e a07d 9fbd
000000f0: ad75 39be 30df a9be 93d6 5b3f 6b09 533e
00000100: 7465 41bf 8d59 573f 8488 e73e e5e7 133f
00000110: 62fa 9cbe 9f3d 0b3d 83e9 5b3f 60b8 9d3e
00000120: 5d1c 46be a7e0 cdbd ad09 bdbe b59d 573e
00000130: 48bc 493f 0417 8d3e e612 9f3c ecf3 53bd
00000140: 5e39 183e 0462 b0be 69da 8abe 83cd da3e
00000150: d483 c6be 9170 6a3e db9e fe3c d28e 13be
00000160: d4c7 463f e18c 0bbe 3633 863d 4e32 133e
00000170: b33b 9cbc dfe3 073d e059 a83e d44d 12bd
00000180: 6f50 8ebf 1ddd 483e 2f22 d23e 3a2f f53e
00000190: 9b46 14bc c982 ff3d ed18 c83d 0eba 2abf
000001a0: 7326 16bd 74d1 3c3e 7ff4 f0be de00 27bf
000001b0: d3b7 33bf 8136 6fbd d0dd a1bd f3e9 043e
000001c0: d39a 153e a779 523d 5f7b 87be 9960 05bf
000001d0: e738 30be 6158 6cbe 7411 f9be 93b8 56bd
000001e0: 418b 223e 254c 81bd 44db 8a3e 3d8d 773d
000001f0: f29b 6fbe 311e b0bd e459 283f 4920 433e
00000200: 0059 4fbf 2629 59be 4076 463f 6de8 f83e
00000210: 2295 92be f003 0fbd f473 e23e 10cf 4d3f
00000220: 8124 16bf 9078 6a3e 4831 35bf 08c8 95be
00000230: c840 6e3f b58b b73d 302f 08be 29bd 653e
00000240: b261 aabe 1f51 103f 18a1 30bf 0e91 f83e
00000250: b269 99bd 27b7 183e c963 80bd 37ac 94be
00000260: b70c 8a3e bc94 123d 5bd1 803e 98ae 87be
00000270: c112 c6be 5e61 ae3e 918b 203f 7cb7 9abe
00000280: 3df5 5bbf 20ef 383e b9ba 573f 396b 0a3f
00000290: c5b9 d9bc 1250 963d 4092 ed3e 1fef a03e
000002a0: 80d4 f6be 4900 de3d c16c a4be eba9 863d
000002b0: 0e9e 4a3f 0392 a0be 279d 163d 21d2 0abe
000002c0: b055 6fbc 5702 ab3c 81f0 93be ca37 023f
000002d0: 3a14 81be 6353 9c3c 822f b73e 8b96 a63b
000002e0: b6cc bf3e 4cd9 053e 10b1 12be 9168 63be
000002f0: abff c9be 8e13 303e 3134 c33d 8049 b3be
00000300: 14ce 67bf 544b 91be fa34 5b3f cc01 1f3e
00000310: cbe1 c5bc 60fe 8abd 2a5c df3e 6cd9 393f
00000320: 73ff 98bc 3961 133c 312a 63bd b6db 073e
00000330: 50f0 793f d909 5a3e 9c86 c3be 1060 e3bd
00000340: c7a9 7dbd ce79 443e e8bb bebd d881 d33e
00000350: 97cd 8bbd 7656 d13d 200c f63e a6e8 21be
00000360: 8fd2 0a3f 1317 77be fd3e bdbe 55ea fe3c
00000370: 5442 03be ab52 803e b2c0 193d b041 29be
00000380: fee6 17bf 05f1 a03c 2aae 103f 16ff 813e
00000390: f0c2 ccbe 140b a83e 59ee 403e 2293 fb3e
000003a0: ef26 b3be 6865 76be 1275 cebe 03a9 f9bd
000003b0: fe82 363f bf71 91be 3851 583d 73da a0be
000003c0: 8ab1 613e a603 d93e 74aa 04bf 050c 373f
000003d0: 8893 333e 2f52 6abd e3a1 aabb e2c8 e8bd
000003e0: 725d 383f 2884 61be c528 ab3d f452 f8bd
000003f0: d9f3 79be e7ec 6fbd ecd7 f73e 354a 78bd

weight_hh_l2 f4 [128, 32]
-0.11460025 -0.746563 -0.013546155 -0.5238402 -0.15309864 0.15269147 -0.35464486 -0.15166493
0.022536002 -0.06798379 0.06832541 0.3541579 0.23336494 0.24095947 -0.42368352 0.13496932
-0.016902935 0.16938439 0.21032679 -0.33026433 -0.024408322 -0.037100755 0.14285046 0.40393484
-0.022235133 -0.10170234 0.20525178 -0.01221805 0.1308078 -0.39384678 -0.41457766 0.31638393
-0.16600382 -0.36892533 0.68512475 -0.01447688 -0.36459604 -0.256862 -0.7928576 0.33115944
0.20853044 0.021360256 0.29540852 0.14185153 -0.20837946 0.6778243 -0.17576346 0.007539147
0.075864404 -0.14556283 0.3607319 -0.47182217 -0.17990124 -0.2698804 -0.21673688 -0.107516095
0.07963007 -0.004431055 0.7907016 0.061814938 0.5808384 -0.092736766 -0.35600972 0.50602794
0.07157703 0.2190913 0.26277575 0.41993392 0.29467255 0.37585142 0.29320183 -0.3419451
0.18269296 0.30068097 0.03902096 -0.2349395 -0.0627138 -0.22141872 0.16284329 0.051011477
-0.04122099 -1.0343897 -0.31116 0.66430485 0.14407267 -0.01106122 0.5655988 -0.43089333
-0.26531368 -0.021412482 -0.3785443 0.16951591 -0.35912922 0.13853316 0.16206296 0.028286789
0.81981504 -0.12584047 0.8898463 -0.46639735 -0.2603828 -0.7144034 -0.63460296 0.49694636
-0.5631609 -0.42000335 0.6922981 0.02514403 -0.2212389 0.7132815 -0.9099769 -0.70636684
0.5354643 0.3972356 -0.25638708 -0.47466946 -0.6361654 -0.6585996 -0.42078912 0.32602665
0.75245196 -0.043408904 0.79996574 -0.4114333 0.46485013 0.18329935 -0.9556653 0.8753227
-0.03205085 0.29682362 0.6648433 -0.1795174 -0.20455271 -0.23037533 -0.35207063 -0.05565087
0.031290688 0.27352417 0.26307938 -0.0319112 0.3935001 0.022650898 -0.21551204 -0.27695742
-0.0012975214 -0.37201673 0.11649312 -0.13148046 0.03284779 -0.17380416 0.1823419 0.08203054
-0.028140165 0.20524202 0.0745466 -0.20312926 0.20096073 0.025153967 0.13231076 0.109990194
0.39781806 0.16626126 0.03716604 -0.09514337 0.11355438 -0.6688329 -0.22914395 -0.17143522
-0.15502675 -0.17805305 0.08449606 0.086288214 -0.0493421 0.20327987 -0.4891848 0.11343781
0.12285869 -0.25997338 0.25318965 0.56005114 -0.14884585 0.2339469 0.41841963 0.087234356
0.07215571 0.014863399 -0.04398112 -0.3421876 -0.30498195 -0.060094245 0.33683172 0.04753402
0.032086816 0.21380448 -0.28460354 -0.0033630484 0.32194775 0.1339836 -0.80982417 -0.5750684
0.2686003 -0.1088393 0.059284773 -0.035957247 0.07682372 0.031706825 0.14223045 0.31406713
-0.087241806 -0.7692386 -0.10640258 0.32806802 -0.09911449 -0.19492956 0.5573235 -0.0457734
0.11605342 0.7174532 -0.2700356 -0.27517647 -0.14723311 0.08006689 0.35047212 0.2865354
0.038474362 0.5777749 0.19609295 0.2487779 -0.19191943 0.08746101 0.10497501 0.1329822
0.11483987 -0.0647052 -0.044388466 -0.10242333 -0.09308584 -0.11707246 -0.4687382 -0.059360925
0.025530212 -0.5686539 -0.114770085 0.09792534 -0.11137085 0.3254563 0.43277255 -0.103791356
-0.04004726 0.4776369 -0.029997956 -0.42809328 -0.16930734 -0.646714 0.38220218 0.3006167
00000000: 89b3 eabd c11e 3fbf b1f0 5dbc 641a 06bf
00000010: e4c5 1cbe 275b 1c3e 0394 b5be 0d4e 1bbe
00000020: 6c9d b83c 163b 8bbd 31ee 8b3d 2f54 b53e
00000030: 38f7 6e3e 14be 763e 0ced d8be 6635 0a3e
00000040: 0678 8abc 1a73 2d3e e85f 573e 6818 a9be
00000050: f6f3 c7bc f6f6 17bd 6447 123e 8cd0 ce3e
00000060: 7426 b6bc 5149 d0bd 862d 523e 372e 48bc
00000070: 7bf2 053e 49a6 c9be 8643 d4be 13fd a13e
00000080: e8fc 29be c8e3 bcbe 5664 2f3f 7030 6dbc
00000090: 55ac babe 6b83 83be b7f8 4abf bb8d a93e
000000a0: 0189 553e b4fb ae3c c93f 973e 8741 113e
000000b0: 6d61 55be e585 2d3f 56fb 33be f30a f73b
000000c0: cc5e 9b3d 6c0e 15be dab1 b83e ad92 f1be
000000d0: 0838 38be c42d 8abe 46f0 5dbe 6631 dcbd
000000e0: 1715 a33d 6232 91bb 6c6b 4a3f a931 7d3d
000000f0: d3b1 143f c6ec bdbd e846 b6be 0c8b 013f
00000100: fa96 923d 7859 603e 8b8a 863e 9401 d73e
00000110: 52df 963e 996f c03e 8d1e 963e 6e13 afbe
00000120: dd13 3b3e dbf2 993e 71d4 1f3d fb93 70be
00000130: 1870 80bd 97bb 62be 64c0 263e 69f1 503d
00000140: 57d7 28bd e266 84bf 5d50 9fbe e20f 2a3f
00000150: c987 133e 1f3a 35bc 15cb 103f 0d9e dcbe
00000160: 32d7 87be 3b69 afbc 8fd0 c1be 9495 2d3e
00000170: c9df b7be a3db 0d3e d5f3 253e b2b9 e73c
00000180: 66df 513f 53dc 00be f8cc 633f a2cb eebe
00000190: e550 85be 24e3 36bf 5775 22bf c16f fe3e
000001a0: 502b 10bf ae0a d7be 733a 313f dafa cd3c
000001b0: 738c 62be 9e99 363f 3ff4 68bf 75d4 34bf
000001c0: 3014 093f 7762 cb3e 2b45 83be e007 f3be
000001d0: bcdb 22bf fc99 28bf ac71 d7be f7ec a63e
000001e0: b1a0 403f 89cd 31bd 8eca 4c3f 63a7 d2be
000001f0: d600 ee3e d3b2 3b3e 7ba6 74bf 2615 603f
00000200: c147 03bd 44f9 973e 2c33 2a3f 69d3 37be
00000210: 4476 51be 83e7 6bbe 9a42 b4be 2bf2 63bd
00000220: aa2a 003d 5c0b 8c3e 57b2 863e 52b5 02bd
00000230: d878 c93e 608e b93c 30af 5cbe 5dcd 8dbe
00000240: 9811 aaba fa78 bebe f293 ee3d d0a2 06be
00000250: 678b 063d b8f9 31be d6b7 3a3e a1ff a73d
00000260: 3486 e6bc f72a 523e e3ab 983d 1e01 50be
00000270: a6c8 4d3e b10f ce3c 797c 073e 8a42 e13d
00000280: cfae cb3e 6440 2a3e 6b3b 183d 87da c2bd
00000290: 338f e83d a238 2bbf b6a4 6abe b78c 2fbe
000002a0: 55bf 1ebe 8a53 36be 450c ad3d e0b7 b03d
000002b0: f11a 4abd 9928 503e 6e76 fabe 1552 e83d
000002c0: 569d fb3d 3b1b 85be 13a2 813e 835f 0f3f
000002d0: 0c6b 18be c78f 6f3e 193b d63e eda7 b23d
000002e0: 5fc6 933d 9d85 733c 8c25 34bd 3733 afbe
000002f0: 9826 9cbe 6225 76bd 3575 ac3e 08b3 423d
00000300: 776d 033d 90ef 5a3e 8eb7 91be 9766 5cbb
00000310: 56d6 a43e ff32 093e a350 4fbf af37 13bf
00000320: fb85 893e 24e7 debd 97d4 723d e847 13bd
00000330: c155 9d3d 04df 013d dca4 113e 68cd a03e
00000340: d5ab b2bd d2ec 44bf 99e9 d9bd 88f8 a73e
00000350: 8afc cabd 9d9b 47be c1ac 0e3f e47c 3bbd
00000360: 6aad ed3d 03ab 373f 1b42 8abe eee3 8cbe
00000370: 47c4 16be 1cfa a33d 1571 b33e c5b4 923e
00000380: 4b97 1d3d 0ee9 133f 97cc 483e a2bf 7e3e
00000390: 8786 44be c21e b33d 23fd d63d 7c2c 083e
000003a0: 2a31 eb3d 2984 84bd aed0 35bd 53c3 d1bd
000003b0: caa3 bebd b0c3 efbd 74fe efbe 7124 73bd
000003c0: bc24 d13c 4d93 11bf 940c ebbd 158d c83d
000003d0: 6616 e4bd 35a2 a63e 5d94 dd3e 9090 d4bd
000003e0: 9808 24bd d38c f43e 46be f5bc 0b2f dbbe
000003f0: e75e 2dbe 0c8f 25bf 01b0 c33e 6fea 993e
