histories_cls/LSTM_BcicIv2a_pt/38.57%_bs=064_lr=0.0110_ld=0.999879_nl=3_hc=032_do=0.61/best_valid_loss.pt (torch, 101260 bytes, 14 tensors)

weight_ih_l0 f4 [128, 22]
00000000: 4028 0f3e 4fde 503f a963 1b3f 876c 983e
00000010: efb7 0eba c343 073f edae 1b3f eb32 263e
00000020: 8eec e8bd 8076 b63d 9326 8bbe f161 623e
00000030: 6105 e93e 582a 133e 40fb dcbe 997d 70be
00000040: 03c9 09bf 93d3 28bf 2250 a6be 2167 ecbe
00000050: affa bebe ae6c 91be d5b8 723f 2466 ba3f
00000060: 7aa8 843f 3334 423f 9375 703f 2cb6 a63f
00000070: bcb1 9f3f e4b5 363f ba29 ca3e 3315 3c3f
00000080: fa0d 243f 21c3 853f 57b4 933f 4ef3 813f
00000090: 6c75 8f3e dd9d 253e 17ab 3a3e ad3b cdbd
000000a0: 055e 63be 8a5a 8abe 78c0 4ebe ed93 b5bd
000000b0: e248 b1bd 7eab 1d3e cb9f 71be 95e8 58be
000000c0: 817b c3be dc51 45bd 5ab8 1e3e 6d0f 59be
000000d0: 42e6 93bd 1d64 89be 2917 bfbd 56f3 78bc
000000e0: ff15 4e3f 0020 dabe 6b24 a6be a87e 6dbd
000000f0: 1ac4 603d 9874 e03b e23c d5be 6863 e8bd
00000100: a266 a23c 72d7 24be 3815 e2be 22f0 0ebe
00000110: d6d4 cdbe f57c 0ebf 45ee 20bf 9354 6fbe
00000120: 0509 fdbd 19ee 28be 5050 03bf 6940 c4be
00000130: 7633 0fbf fbd3 11bf 8d33 1ebe 5114 12bf
00000140: e478 f4be 2b1b 2cbe 8973 64be b6f1 11bf
00000150: 04a1 a9be 1308 dfbe b723 c8be 1cd4 97be
00000160: ef1c 62be 9f49 3cbd b698 57bd 0cc4 febe
00000170: 387c 95bd 0d24 073e a413 b4be 2ca2 efbe
00000180: e3f9 03bf 79c5 1fbf b8ba 5cbf 959f 5dbf
00000190: cf8c 55be 046e 4dbf 9979 2abf a1f4 31bf
000001a0: b4f2 53bf 49ad 3bbf b4af 0ebf c6c1 7cbf
000001b0: 8e25 71bf 05dc afbe 9987 973c ef72 323e
000001c0: 8638 a23e 94c6 723d 6f1d 6f3c c67a de3d
000001d0: 8a60 883e 1bf5 33be 4173 e23d 5020 843e
000001e0: 991d 9c3b 9b40 cdbb 9d6f 743e 4e71 053d
000001f0: 7510 3fbe 72bb 013d 2baa 2fbd dbec d9be
00000200: bfdc aabe 1b29 e7be 78e2 e3be a28b b1bd
00000210: 3511 6fbe d8ba 7bbd 9547 f0bd 4ddc 5abe
00000220: 8334 b8be 3f83 4bbe 433c 98be 9647 61be
00000230: b574 dcbe 001c 96be 3f0f 98bd 6090 83be
00000240: b461 75be a05c aabe ef85 88be e084 73be
00000250: 7ddc 12be 4fc1 edbe e497 c3be 96a9 a8be
00000260: 784d a8be 8e19 47be e9e2 f73d 5552 123f
00000270: 0998 b33e d420 cbbb e8a2 b53d 2565 b23e
00000280: 4ec7 ca3e e3fa 0abe 6ab2 dabe e701 98be
00000290: 8bf5 29bf 4e81 c0be 822e 583e 7ef1 a2be
000002a0: 297c b6be 94ad b8be 8d00 1fbf 79a1 3ebf
000002b0: 4835 d7be 28c8 09bf efed d9be b2c6 1cbe
000002c0: b1b1 bb3e 2fbc 943e 609d 853e 63e0 b43e
000002d0: 0f65 603e 292d 9f3d 660e 553e 00d3 f33e
000002e0: 2888 683e 59df 063f 8e44 8c3e f810 fd3e
000002f0: 1034 84be b750 e43e 69bd 133f bfc1 f83e
00000300: 2c7f f53e d594 053f c3c7 453f 9974 c73e
00000310: 57bc 043f 7e12 ec3e 7bc1 96bd 8e00 abbc
00000320: d67a 69bd 568a 0abe 870d aebe 5c6f 1b3d
00000330: 3362 84be 6bab a1be 6344 3dbe ddd3 98be
00000340: 1f11 afbd 070d 63be 5ae6 29be 75de b9be
00000350: 356e 98be a763 be3c b770 b2be 7d1d 53be
00000360: 565d b7be b79d c8be 3d39 c0be 53f9 bcbe
00000370: 1e77 ef3d d32f 903e 780c 053f 3601 063e
00000380: 4a62 f63d 5fd2 c03e 3cc4 0c3f f923 edbd
00000390: 8cb5 5b3d 5627 393e ed52 53bd 2530 6f3e
000003a0: 8ca8 993e 8617 fd3d 8015 8cbe 360c 31be
000003b0: 24c8 09be 39bc e7be cfc9 c4be 2530 0abf
000003c0: db48 03bf 7997 60be 34ff 02be 9c61 96be
000003d0: cfed f5bd 070d e0bd d73c 88be 6137 8dbd
000003e0: 8999 11be cdbb 40be 5e03 babe 8b6d c5be
000003f0: b95f 1abd 3781 ebbd 96a6 023e 454c c2be
0.13980198 0.81589216 0.60698944 0.297703 -0.00054442784 0.5283777 0.6081379 0.16230361
-0.11373244 0.08909321 -0.27177867 0.22107674 0.45511916 0.14371622 -0.4316044 -0.23485412
-0.53822345 -0.65947837 -0.3248301 -0.4617243 -0.3730063 -0.2840323 0.9481328 1.4562421
1.0363915 0.758609 0.93929404 1.3024344 1.2476115 0.71371293 0.3948496 0.7346985
0.64083827 1.0450174 1.153941 1.0152376 0.28019273 0.16173501 0.18229328 -0.10021148
-0.22203834 -0.270222 -0.20190609 -0.08866105 -0.086564794 0.1539745 -0.23596112 -0.21182473
-0.38180164 -0.04817377 0.15500012 -0.2119729 -0.072216526 -0.26834193 -0.09330589 -0.015194735
0.80502313 -0.4260254 -0.3244966 -0.057982117 0.054874517 0.0068498366 -0.41648012 -0.11347085
0.01982433 -0.16097811 -0.44156814 -0.13958791 -0.40201443 -0.5565942 -0.6286357 -0.23372106
-0.12355236 -0.16497077 -0.5129442 -0.3833039 -0.559379 -0.5696408 -0.15449353 -0.5706225
-0.47748482 -0.16807239 -0.22309698 -0.57009447 -0.33130658 -0.43560848 -0.39089748 -0.29654014
-0.2208135 -0.045968648 -0.05263587 -0.49758947 -0.072990835 0.13197346 -0.35171235 -0.46803415
-0.5155317 -0.62410694 -0.8622241 -0.8657163 -0.20854495 -0.80245996 -0.66591793 -0.695139
-0.8279221 -0.7331129 -0.5573685 -0.98733175 -0.9419793 -0.3434755 0.018497275 0.17426656
0.3168375 0.05927141 0.01459442 0.10863261 0.26636153 -0.17573969 0.11057139 0.25805902
0.0047642705 -0.006263805 0.23870702 0.03257876 -0.18658622 0.031672902 -0.042886894 -0.4256352
-0.3337154 -0.45148548 -0.4450872 -0.08669211 -0.23346408 -0.061457485 -0.11732403 -0.213731
-0.35977563 -0.19874285 -0.29733476 -0.21999964 -0.4305779 -0.29318237 -0.07424783 -0.25696087
-0.23963052 -0.33273792 -0.26664683 -0.23781157 -0.14341922 -0.46436545 -0.3820182 -0.32941884
-0.32871604 -0.19443342 0.121038266 0.5715688 0.3507693 -0.006198982 0.088689625 0.34842792
0.39605182 -0.13572268 -0.42714244 -0.2968895 -0.66390294 -0.37598652 0.21111491 -0.3182487
-0.35641602 -0.3606993 -0.62110215 -0.7446514 -0.42032838 -0.5382104 -0.4256434 -0.15310171
0.36659005 0.29049823 0.2609663 0.35327443 0.21913551 0.077722855 0.20806274 0.47621918
0.2270819 0.5268455 0.27396053 0.4942701 -0.2582097 0.4459283 0.5771089 0.48585317
0.47948587 0.52180225 0.7725794 0.38956144 0.51849884 0.46107858 -0.07361122 -0.020874288
-0.05700191 -0.13529333 -0.33994696 0.037947997 -0.2585617 -0.31576094 -0.18483119 -0.2984914
-0.085481875 -0.22172938 -0.16591778 -0.36302534 -0.2977158 0.023240877 -0.3485162 -0.20616718
-0.35813397 -0.39182827 -0.3754367 -0.3690897 0.11692642 0.28161487 0.5197215 0.130864
0.12030466 0.376605 0.5498693 -0.11579127 0.053639933 0.18081412 -0.051592756 0.2335821
0.30011404 0.12358002 -0.27360153 -0.17289814 -0.13455254 -0.4526079 -0.38435218 -0.5397971
-0.51283044 -0.21932782 -0.12792665 -0.29371345 -0.12008249 -0.10939985 -0.26608917 -0.06895328
-0.14218725 -0.1882164 -0.36330694 -0.38560137 -0.037688944 -0.11499255 0.1275886 -0.37948814

weight_hh_l0 f4 [128, 32]
00000000: 7ecd a7be 9c59 15bf ff76 943e 1549 673d
00000010: 003b c1be 2981 443f 159a 9bbe 9487 2bbf
00000020: 9708 89be 3074 bc3e 495a 223f ed54 653e
00000030: be3f 28be 369e 5e3d 6568 c4be 594a 9d3d
00000040: e8d2 fd3d fef9 91be ec56 29bb 4509 df3e
00000050: 54bf a0be 97ac 173f 5fad 59be 9280 163d
00000060: d9be 443e 1258 b5bd 0684 ca3e b796 0b3f
00000070: 20fe f5be 7a1a f73d d153 22bf ba65 20bf
00000080: 4508 eabe a064 2abe 58e4 bc3d 77ee e0bd
00000090: 02ef 1dbe 8663 1a3f bf6d f2be 0cbc 09bf
000000a0: f267 853c 8d6f a03e 0f8b 7f3e 152e 1b3f
000000b0: 30e0 90be 01d6 5a3e 5e7b c2be 8831 bcbd
000000c0: 0a65 b83e 6543 19bd b995 40be f487 923e
000000d0: 86e3 16bf d71d 133f 27eb e7be f2cf 043e
000000e0: 6564 f13e 59bc 2fbe 04f6 0a3f 8b41 61be
000000f0: 606f 7fbe 22ff 033e 8711 a4be f1cd 39bf
00000100: 8548 95be c94f c8be 175f 16bd 5ad4 8f3e
00000110: e25e cf3e 1d31 6dbd efe9 243f 7d18 d5bd
00000120: 86cf 233f 848d 3abf dc72 6e3e 6655 21bf
00000130: 730c 4fbe c5de 8abe 6ee4 963f d2d6 e33e
00000140: 4e00 50bf 1cb1 0c3f a0a7 503d 3157 dcbe
00000150: aebe 993e 841b cdbe f7aa a4bc 9e99 8dbe
00000160: f20c 993e e3fc d13e e727 b2bf c210 803f
00000170: 30a8 d4bd 1131 77bd 0aa8 a9be 594a 8e3f
00000180: b918 d9be d54e a0bd f70c b6be 8e55 87be
00000190: 51ff 06be 1130 f23e b46e c33e f2dd 7dbe
000001a0: 3aa1 223e d9fb 663e 92a3 453e 06d6 d23d
000001b0: c768 773e 560a 153e 0070 803e f4a8 96be
000001c0: a26c a9be faf0 0c3e 7211 5dbe 85b0 453e
000001d0: 7e12 a4bd ceed dbbc 88bf 033e 5f97 6cbe
000001e0: 0d47 453e f553 8b3e 09d0 cabd d842 34bf
000001f0: 90a5 273b 47c3 043f 692e dbbe 595c 24bc
00000200: 48f3 80bf ecf2 20bf 3ef7 c0be 2db4 c5be
00000210: 0456 43bf 3234 713f 78df c33e d03f 94bf
00000220: 4d9e be3e dfe2 87be d598 313f e353 a6bd
00000230: 3d70 463e 5595 9bbe 681b 9f3e 7c2c dcbe
00000240: bd9b b1be 579e ee3e 0777 1abf bcae 9abd
00000250: 184e b33d 3073 86be 7b0a 493d 8a6e 71be
00000260: b5c3 33be 3dfc e6be e979 72be 1c88 2c3e
00000270: 0df3 22bf 441c e03e b692 4fbf f4a5 20be
00000280: ff3d 75be 6d30 b3be 32a8 083e 2f8a efbd
00000290: 4b4c d1be 9ea8 173f 430a d7be fbef 9dbd
000002a0: e7b4 1ebf 7032 8f3e 0792 023f 3e13 a23d
000002b0: 1ac6 a9bd f61b 073f d230 b7be 0f62 ecbc
000002c0: 4af6 453e efe8 8ebe ee69 80be 7ce7 453e
000002d0: 2a42 a0be a354 ce3e 49f9 7fbe 76cb 1b3e
000002e0: a58c 8fbe 80dd f33c 3651 943d a837 5ebd
000002f0: b248 98be 35ed 123f 9a7b c3be 2a4c 28be
00000300: 8aa4 a23d c405 aebe fc65 d83e 29af ae3e
00000310: b280 5a3e e74c a83e 6386 d3be 29ce 19bc
00000320: f641 e83c b79f 373f 1f69 863e e3e0 283f
00000330: 9e78 36be 7e97 50bd 8c9c 47bf 1fc3 85be
00000340: 1d57 063f cb2a fb3c 515b 433d 1de7 ec3c
00000350: b700 8ebe 856c 153f dd47 51bf b1e6 a53e
00000360: bd2c e4be 51ab 9abe 340e 633d 7eb2 2fbf
00000370: efcf a43d 5f9c cabe 6982 bdbd d9e3 37bf
00000380: 82be 71be 1f42 9fbd 752b 673d 2b49 d0be
00000390: f63b 09be 9653 e73e 301e a8be 7a8e cebe
000003a0: 6e9f 05bf 1142 0c3f d4be a13e baa1 363f
000003b0: a621 a4be b6b4 e93e ec13 30bf 2972 4d3d
000003c0: d16c 973e a7e7 dabe 27c9 14bf f39c 1e3f
000003d0: 693d 2ebf d381 573f 7dad 97be affb 65be
000003e0: 74c1 88be 3fa1 adbe 2463 883e ede3 2c3f
000003f0: 0784 ddbe fa4e 3a3e 5920 cbbd 2afc 0cbf
-0.32773966 -0.5833986 0.28997037 0.05646618 -0.37740326 0.7675958 -0.30390993 -0.6700375
-0.26764366 0.36807394 0.63419014 0.22395678 -0.16430566 0.0543501 -0.38360897 0.07680196
0.12393743 -0.2851104 -0.0025839163 0.4356176 -0.31395972 0.59247726 -0.21257542 0.036743708
0.19213428 -0.08854689 0.3955385 0.5452685 -0.48045444 0.12065597 -0.63409144 -0.6265522
-0.45709434 -0.16639948 0.092232406 -0.109829836 -0.15423205 0.6030811 -0.47349355 -0.5380256
0.016284917 0.31335106 0.2495539 0.6061719 -0.2829604 0.21370699 -0.37984747 -0.09189135
0.36014587 -0.037417788 -0.18807115 0.2861935 -0.58940923 0.57467407 -0.45296595 0.1296995
0.47146907 -0.17161693 0.5428164 -0.21997659 -0.2494483 0.12890294 -0.32044622 -0.72579867
-0.2915689 -0.3912337 -0.03671178 0.280917 0.40502077 -0.057908166 0.64419454 -0.104050614
0.6398853 -0.72872186 0.23286003 -0.6302093 -0.20219593 -0.27123085 1.1788461 0.44499832
-0.81250465 0.5495775 0.05094111 -0.43035272 0.3002829 -0.40060055 -0.020101054 -0.27656263
0.2989269 0.4101325 -1.3918427 1.0005114 -0.10383642 -0.060349528 -0.33136016 1.1116439
-0.42401674 -0.07827536 -0.35556766 -0.2643246 -0.13183333 0.47302297 0.38170397 -0.24791697
0.15881816 0.2255701 0.19300678 0.10294728 0.24161063 0.14554724 0.2508545 -0.29425776
-0.33090693 0.137638 -0.21588686 0.19305618 -0.080113396 -0.026846793 0.12866032 -0.23104618
0.19265385 0.27212492 -0.09902961 -0.70414495 0.002558086 0.5186047 -0.42808846 -0.010031783
-1.0074244 -0.6287067 -0.3768863 -0.38614026 -0.76303124 0.9422027 0.3825643 -1.1581974
0.3723015 -0.26540276 0.6937383 -0.08121469 0.19378753 -0.3038737 0.31075597 -0.4300269
-0.3468913 0.4660518 -0.6033787 -0.07552859 0.087551296 -0.26259756 0.04908226 -0.23577324
-0.17555125 -0.45114318 -0.23679318 0.16848797 -0.63652116 0.43771565 -0.8108324 -0.15688306
-0.23949431 -0.34997883 0.13345411 -0.11696278 -0.4087852 0.59241664 -0.42000017 -0.07711788
-0.61994785 0.27968168 0.5100407 0.079138264 -0.08289738 0.5277704 -0.35779434 -0.028855352
0.19332233 -0.2791209 -0.25080818 0.19326586 -0.3130048 0.40298948 -0.24997438 0.15214333
-0.2803699 0.029768705 0.07242052 -0.054252297 -0.29742962 0.573932 -0.38180238 -0.16435304
0.079415396 -0.33988774 0.42265308 0.34118012 0.21338156 0.32871172 -0.41313466 -0.009387531
0.028351765 0.7172808 0.26252076 0.6596815 -0.1781945 -0.050925724 -0.77973247 -0.26125428
0.52476674 0.030660054 0.047694508 0.028918797 -0.2773492 0.5836871 -0.8175028 0.32402566
-0.44565383 -0.3020883 0.055433467 -0.6863173 0.08047473 -0.39572427 -0.092533894 -0.7183204
-0.23607829 -0.077762835 0.05643793 -0.40680823 -0.1340178 0.45180959 -0.3283553 -0.40343076
-0.52196395 0.5478831 0.31590903 0.71340525 -0.32056922 0.45645684 -0.687804 0.0501577
0.29575208 -0.42754862 -0.58119434 0.61958236 -0.68062454 0.8418247 -0.2962455 -0.22459291
-0.26710093 -0.33912084 0.26638138 0.6753529 -0.4326479 0.1819419 -0.09918279 -0.5507227

bias_ih_l0 f4 [128]
00000000: f779 253f 11ca 813f c07f cdbd 5de8 34be
00000010: a92e 19be 5126 6f3e 6bc1 9b3e 78ef 123f
00000020: 1d96 f43d f2da 0abe ace7 093f dcb6 183d
00000030: 9582 663f 598d d33e 9949 763f f94b a33e
00000040: 0375 973e 07ee 283f caf9 49be a3ea 783d
00000050: 80e5 b1bd e60a f73c 7f2a 03be 2f54 b7be
00000060: 38ce 263f 04cd 203f 42ee bb3e d799 83bd
00000070: c212 9fbe 50c9 043e 3a45 543f 3a77 683e
00000080: 2df1 1fbe 73cf 873d 57ad 053d 7f79 89bd
00000090: 8f1a 523e 7218 843e f038 c33e 4e67 07be
000000a0: 9d06 003e 69fb 5f3e 840b 8c3e 83ed 8e3e
000000b0: 98d6 0d3e 2b5d a03d bf1d d03e 0f35 17bd
000000c0: 458c 843e 53ea 923d 54bb a03d dbaa 37bd
000000d0: 4399 6d3e 09da 113c 8f12 733e ca0f 8fbc
000000e0: 6a78 bf3e a16d 843e 6be5 ab3e 2072 7c3e
000000f0: 3c52 59be 385f 4bbb 8a18 99bd 2200 cb3e
00000100: 1490 bcbe ffa9 fdbe cf22 db3c b44c a6be
00000110: 0600 4bbf 4bfe 323f 340e a6be 32b9 06bf
00000120: c0fb 3f3d 5aae 323e c2f9 ea3e 9778 a33d
00000130: da33 923c 0860 aabe 5ac1 0ebf de6e 8dbe
00000140: 8ad7 de3e f926 643e 209a eebe b773 43be
00000150: 1ab3 d6be 0911 673e 26f5 88be ad89 ccbe
00000160: eff6 513e 9456 c1bd 5900 d83e 6f70 72be
00000170: f309 0b3e 38be de3e 71a4 12bf 64c9 33bd
00000180: 8071 16be f31a 3abe 6cb8 593e f14b 653e
00000190: 8f5f febd 5f56 7ebe 5eeb b33d bb4b c1be
000001a0: 30ba cb3d dbe0 6a3e 31b9 863d f6ed 3e3e
000001b0: 4e56 13be b519 cabb 08c3 a33e 301a 853e
000001c0: 97da 31bc cd55 043d e8f4 693c 4ae9 febc
000001d0: a522 303f cb69 473e 0200 343d fa9c 023e
000001e0: febd fcbd cf6a 053d 10e7 6f3e b32a bebd
000001f0: 8ed7 9ebe 4b9a 5a3e 3f56 21bc ca63 f23e
0.6463923 1.0139791 -0.10034132 -0.17666765 -0.14959206 0.2335446 0.30421004 0.5739665
0.11942694 -0.13560084 0.5386913 0.037283763 0.90043 0.41318777 0.9620605 0.318939
0.2958146 0.659882 -0.19724193 0.060770642 -0.08686352 0.030156564 -0.1280918 -0.35806414
0.65158415 0.6281283 0.36705214 -0.06425827 -0.31069 0.1296742 0.8291813 0.22701731
-0.15619345 0.06631365 0.032636013 -0.06712627 0.20517944 0.257999 0.38129377 -0.13223001
0.12502523 0.21873249 0.27352536 0.27915582 0.13851392 0.078302704 0.40647694 -0.036915835
0.25888267 0.071736 0.0784823 -0.044840675 0.23202996 0.008902081 0.23737548 -0.017463583
0.37396556 0.2586489 0.3357347 0.2465291 -0.21222776 -0.0031032097 -0.074753836 0.3964854
-0.36828673 -0.4954376 0.026749996 -0.32480395 -0.7929691 0.6991927 -0.3243271 -0.52626336
0.046870947 0.17449322 0.45893675 0.07981985 0.01784699 -0.3327639 -0.5576378 -0.27623647
0.43523818 0.22280492 -0.46601963 -0.1908711 -0.4193352 0.22565092 -0.26749533 -0.39948788
0.20504354 -0.094403416 0.42187765 -0.23675703 0.13578014 0.435045 -0.5728217 -0.043893233
-0.14691734 -0.18174343 0.21261758 0.2239225 -0.1242057 -0.24837635 0.08785127 -0.3775309
0.09947622 0.22937338 0.06578291 0.18645462 -0.14388391 -0.0061676153 0.31984735 0.25996542
-0.010855339 0.03230839 0.014279582 -0.0311171 0.68802863 0.1947395 0.04394532 0.12755194
-0.12340926 0.032572564 0.23427987 -0.09285488 -0.3102383 0.2134792 -0.009847223 0.47341758

bias_hh_l0 f4 [128]
00000000: b940 603f 5c49 543f 007d 3ebe 3809 8fbe
00000010: 8380 1bbe 9621 d83e b418 233e c3b1 143f
00000020: 48ff 3f3e c543 80be 8f99 ed3e 785a 65bb
00000030: b26c 6f3f dd3a 2f3f 6839 3b3f cd5f a03e
00000040: d9c9 c03e f491 273f bb8f 8bbd 0b46 82be
00000050: 8924 813d 5145 78bd 31bd 45be 4b75 18be
00000060: a535 2b3f 3da1 4e3f 7e9a 003f 9c1a c33d
00000070: bc6f a6be 1e10 aa3e a402 753f 23a7 83bd
00000080: c66a e63d 70d3 f43d 91db aebd 35ce 09bd
00000090: 42fc ad3e 3024 fa3e 0385 aa3e 694d 27bd
000000a0: 282a dc3d 744f 263e 1fed 8c3d 1f7d d23e
000000b0: 5ea3 943d 9269 7f3e cf26 1d3e 51c7 5dbe
000000c0: 5fbd 2e3e 27da a5bc 457d 50bd ec8f dd3d
000000d0: 8f43 2a3e 9a07 973e 95b7 4c3e 3829 f0bc
000000e0: 0b9b 703d ec73 e63d 6a0a 0f3e 58a7 cc3e
000000f0: 5066 0ebe 56d9 8a3e cbab c43d 91cc a73e
00000100: 1ff8 fcbe e781 c9be 76ed 903e 8fba fdbe
00000110: 89d5 70bf cfdd 393f d71e 9ebe ebc1 afbe
00000120: 36d3 b63e 72c0 ec3b d1e6 0b3f b523 8d3e
00000130: 8637 68bd 309a 61be 66b7 21bf 8bb0 95be
00000140: acbe f03e fd54 513e 2f5b 03bf 2470 623b
00000150: f4fb c8be 25f3 e33e 077e a7be c94e a1be
00000160: 2555 e53e be8c 82be b7a9 df3e ed8f 30be
00000170: fd0a 273d 5610 e63e 4279 cebe 3a25 7ebe
00000180: 4154 acbe 3ed4 e23b 0bf5 5b3e f9fe 5a3c
00000190: ab20 fdbd 2fe3 50be 30d0 e2bd bd75 a7be
000001a0: c7b9 143e 2b94 423e 1aa4 a5bd 6ecb 3d3e
000001b0: 6552 683d f35c 32be 4e8f 453e e9da a83e
000001c0: d1f0 d83c 57c4 653e 83fb c23d cb28 75be
000001d0: ac36 063f 447e 453e 1513 0ebc 45a9 5f3e
000001e0: 84ff 75be 526b 6f3e 709d fa3e 914c 2fbe
000001f0: a028 b2be 8d25 723e c976 513d 28e0 623e
0.8759876 0.8292444 -0.18602371 -0.2793672 -0.15185742 0.42213124 0.15927392 0.5808374
0.18749726 -0.25051704 0.46406218 -0.003499655 0.9352523 0.68449193 0.7313447 0.3132309
0.37653998 0.6545708 -0.06814524 -0.25444064 0.06305797 -0.06061298 -0.19310452 -0.14888494
0.6687873 0.8071478 0.50235736 0.0952656 -0.32507122 0.3321542 0.95707154 -0.06428363
0.11250834 0.11954391 -0.08537973 -0.03364392 0.3398152 0.48855734 0.33304605 -0.04084531
0.10750228 0.16241246 0.06881165 0.41111085 0.07257722 0.24942616 0.15346836 -0.21658064
0.17064427 -0.020245625 -0.050900716 0.108184665 0.16627334 0.29497987 0.19991906 -0.02931653
0.05874161 0.11252579 0.13968816 0.39971423 -0.13906217 0.2711894 0.096030794 0.3277326
-0.4940805 -0.3935692 0.28306168 -0.49556395 -0.9407583 0.7260408 -0.30882904 -0.34327635
0.35708016 0.0072250897 0.5464907 0.27566305 -0.056693576 -0.22031474 -0.6317047 -0.29236254
0.4702047 0.20442577 -0.5131101 0.0034551704 -0.39254725 0.44521442 -0.3271334 -0.3150542
0.44791523 -0.25498003 0.4368417 -0.17242403 0.040781964 0.44934338 -0.40326887 -0.24818888
-0.3365803 0.006922274 0.21480195 0.013366454 -0.123597465 -0.20399164 -0.11074865 -0.32707015
0.14523993 0.19001834 -0.080879405 0.18534634 0.056719203 -0.1741827 0.19292948 0.32979515
0.026482018 0.22438179 0.09520628 -0.23941343 0.5242717 0.19286448 -0.008671542 0.21841915
-0.24023253 0.23380783 0.4894824 -0.17119052 -0.3479662 0.23647137 0.051138673 0.22155821

weight_ih_l1 f4 [128, 32]
00000000: 4946 b43e 8709 bc3e 844b 5abe 0245 f13e
00000010: 0f09 263f e3d9 83bf 0868 a13d 9d11 6d3f
00000020: 2bc0 dcbd 2aa2 bcbd 07b8 1ebf 2dde 2abe
00000030: b121 503e 6843 db3b cc1e db3e 97f9 f53d
00000040: 415c 8abe 0d2f c33c 2965 113f f244 133d
00000050: c700 903e 5a91 9dbe 67f4 a23e 07bd 293d
00000060: 4562 1dbe dbf2 973e 3a1d a1be 3633 673e
00000070: 6b42 31be f391 8ebe 7fb1 bf3e 9361 703d
00000080: ab1f 21be 1430 f0be 5e2e 17be afe6 e0bd
00000090: 25f3 cabc 2879 883d 71f5 40bf 153e 9cbe
000000a0: 5bb9 e8be 4305 d53e 8a8d 0c3e 271b 723e
000000b0: 2ba1 edbe 8f10 1b3f 73ba 39bf fe96 a6be
000000c0: 2dbb e63e ae19 0dbf 5316 e0bd 71f0 063f
000000d0: e307 e4be f9d4 953e 8a28 18bd 5862 cabd
000000e0: 352b a93e 247e 23bf d175 463f e617 56be
000000f0: 7730 b7be 50aa ea3e f5d4 2dbe b1b1 07be
00000100: ee44 223f 0dd5 363f 604f 9a3e 3759 c43e
00000110: 01b1 453f bf18 06c0 6a81 a93d 7d5d a43f
00000120: 30d0 32bf 88fd b73d 91c4 88bf 4a69 aa3d
00000130: 9127 653d 3be8 013f fb9f 613e fbb4 1b3e
00000140: 44c1 39be 4558 80be ec60 c73e 7478 393d
00000150: 1ed7 88bd c464 bebd 6fe0 c53d 0131 0ebd
00000160: a9a9 50bd dfd0 363e b33d 54be 9707 a03d
00000170: d10c 92be c001 e9be eb52 243f 1340 663e
00000180: fdbb 40bd 6d1a 3c3e f2c6 22bc 90d0 153f
00000190: e2be 043f 9f2e f8be 29ac ffbd a81e 023f
000001a0: 3371 4ebf d4bd e53d fd7f c7be 46e5 733e
000001b0: 0368 85be 5735 f63e f0f1 83be 1859 72be
000001c0: 2b4d ab3e 9d74 03bf b428 dd3e 3a4b 183e
000001d0: b423 88be 2f20 60bd fa20 133d 3273 013e
000001e0: 9db6 513e 4f43 46be b0d4 073e 7b64 343f
000001f0: a554 80be c096 ae3e 8cc1 be3d ad01 bcbe
00000200: ec62 413f d628 5e3f 6fc7 053f a720 9f3e
00000210: 601e c03f 48cf 4fbf b2ba 823d e50d 603f
00000220: 3a64 e0be e729 723e c45f 38bf 3973 1e3d
00000230: 2c82 963e e1e0 283f f6bd 713d 2379 583e
00000240: 95e6 7fbe 0004 b5be 22f5 8a3c 3834 473e
00000250: 4aa6 f6bc 0fd2 33bc 5e6c 8c3d 4386 0cbe
00000260: 888c 55be ac21 6c3e 0d6a 87bd a0e2 ac3d
00000270: 20e7 00be 1111 6fbe a418 253f 4ac6 e13d
00000280: 3ccf 08be 89a3 52be 54d1 66be cb5e 1a3f
00000290: b681 8e3e de4b d23d 752e 9c3e 4091 5abe
000002a0: 1117 fe3e 4b77 ae3d 4fc5 3b3d 6411 6dbe
000002b0: 8159 c53c eb82 28bf ee30 453e b8ea 64bd
000002c0: e879 a9be a372 e33e d39d ad3e 9f98 30bf
000002d0: baee 903e 5895 9bbe 6f7a c13e a2a6 fc3e
000002e0: b915 c13e 33e0 3e3f ca9b e7be eb3a bebe
000002f0: d533 943e e9d0 203e 33ec 33bd 3bf4 1e3f
00000300: 611c 55bd fc8e 883e 1150 08bc 8803 d8bd
00000310: 9557 03be 2d6d ed3e fd58 c9be 3d51 a3bd
00000320: e0bd dabd 62f2 bc3e 9851 a03e fc58 033e
00000330: 58d5 6a3d caa8 063e 1177 e1be b76f 8abe
00000340: e2b6 463e d171 22bf 47da 3dbc f173 bf3e
00000350: 5028 c2be 681d cd3e ed84 583e 3b2f 8ebd
00000360: 3068 c5bd ec12 bebc decc f33e 378b 2abe
00000370: 755b 23be 6d87 10be 3254 e9bd b37f f9be
00000380: 663d b6be 1b11 d1be cc6c a2be ec47 5e3e
00000390: 2d2b 3ebd a417 1f3e 1d79 043d e2d1 fdbe
000003a0: bb97 823e a65d 7d3e b550 033f c689 7ebe
000003b0: a62d 08be 4e95 7fbe 4164 82bd 87d5 f9be
000003c0: ee16 f6bd 34de fa3d 803f 973e 935f b6be
000003d0: 0141 bc3e 491a 37be bfa2 dfbc a175 b83e
000003e0: 4e20 24bd da72 a43e 7e31 9a3e 3146 06be
000003f0: b86c cb3e a279 bc3e 3ad0 04bf 2f22 b63e
0.35209873 0.3672602 -0.2131787 0.4712296 0.6485757 -1.0300869 0.078811705 0.92605
-0.10778841 -0.09210618 -0.61999553 -0.16686316 0.20325352 0.006691385 0.42796934 0.12010496
-0.2702351 0.023826146 0.56794983 0.035954423 0.28125593 -0.30774957 0.3182709 0.041440036
-0.15369518 0.29677472 -0.3146761 0.22578129 -0.17310493 -0.27845725 0.37440106 0.058686804
-0.15734737 -0.4691168 -0.14763781 -0.109814994 -0.024774143 0.06663734 -0.75374514 -0.30516115
-0.45453915 0.41605577 0.13725868 0.2364317 -0.46412024 0.6057214 -0.72550124 -0.32537073
0.4506468 -0.5511731 -0.10941758 0.52710634 -0.44537267 0.29264048 -0.037148036 -0.09882039
0.33040777 -0.6386435 0.77523524 -0.20907554 -0.35779163 0.45833063 -0.16975768 -0.13251378
0.6338643 0.7141884 0.30138683 0.38349316 0.7722321 -2.0952604 0.08276637 1.284103
-0.6984892 0.08983904 -1.0684987 0.083208635 0.055945937 0.5074498 0.22033684 0.15205757
-0.18140131 -0.25067344 0.38941133 0.04528089 -0.06681655 -0.09296563 0.09661948 -0.034714703
-0.05094305 0.17853115 -0.20726661 0.07813948 -0.28525403 -0.45509148 0.6418902 0.2248538
-0.04705428 0.18369456 -0.009935128 0.58521366 0.51853764 -0.4847307 -0.12484009 0.5082803
-0.8064148 0.112178475 -0.38964835 0.2381793 -0.26055917 0.4808757 -0.2577052 -0.23666799
0.33457312 -0.5134981 0.43195117 0.14872447 -0.2658974 -0.054718193 0.03592012 0.126416
0.20479818 -0.19361614 0.13264728 0.7046582 -0.2506458 0.34099388 0.0931426 -0.3672003
0.7554157 0.8678106 0.52257437 0.310796 1.500927 -0.8117566 0.063832656 0.875212
-0.43826467 0.23648797 -0.72021127 0.038684104 0.29396188 0.6596814 0.05901905 0.2113996
-0.24990304 -0.35354614 0.016962592 0.19453514 -0.03010859 -0.010975375 0.06856607 -0.13723092
-0.2085439 0.2305972 -0.066120245 0.08441663 -0.12588167 -0.23346354 0.64490724 0.11024149
-0.13360304 -0.20570196 -0.2254079 0.6030089 0.27833337 0.10268377 0.30504194 -0.21344471
0.49626973 0.08518847 0.045842465 -0.23151165 0.02409053 -0.65824765 0.19256946 -0.055887908
-0.3310082 0.44423398 0.33909473 -0.6898288 0.28307134 -0.30387378 0.37788722 0.4934588
0.37711886 0.7456085 -0.45236045 -0.37154326 0.28945795 0.15704693 -0.04392643 0.62091416
-0.052029017 0.26671588 -0.008319871 -0.105475485 -0.12826379 0.46372357 -0.39325705 -0.07974479
-0.10680747 0.36903673 0.3131225 0.12826914 0.057332367 0.13150325 -0.44036153 -0.27038357
0.19405702 -0.6345492 -0.011587686 0.37393144 -0.3792138 0.40061498 0.21144457 -0.06942602
-0.09639013 -0.023202382 0.4761724 -0.16654669 -0.15952857 -0.14114161 -0.11393012 -0.4873024
-0.35593718 -0.40833363 -0.3172363 0.21707124 -0.046427894 0.15536362 0.032342065 -0.4957419
0.25506386 0.24742755 0.51295024 -0.24857244 -0.13298663 -0.24959299 -0.06366778 -0.4879572
-0.12016092 0.12249413 0.29540634 -0.35619792 0.36768344 -0.1788112 -0.027299283 0.36027244
-0.04006987 0.32118875 0.30115885 -0.13112713 0.39731383 0.36811548 -0.5188023 0.35572955

weight_hh_l1 f4 [128, 32]
00000000: abe8 fe3d e768 153f 7d12 a6be e7c1 f13e
00000010: e141 debd d0d1 94bd 9664 933e 4ce4 bfbe
00000020: b4d8 4ebe 425f 3bbe a5ff 80bd f750 0b3f
00000030: 75a5 28be f961 4d3f 8d62 9c3d df1a 0b3f
00000040: 9acd c7bd 9229 a2be 2943 e6be 448d 91be
00000050: ad9d b2be 3ec4 9f3e 7c0c b6be 2892 723d
00000060: 4794 bf3e f7b8 743e 2570 e0bd 9f41 d53e
00000070: aaa1 183f e293 58bd 4aac 9ebe 1764 b63e
00000080: 4bce 463e 95be 6b3e 29cb 44be 2c93 823e
00000090: 0dc0 88bc ae58 8c3d 0c6b 05be 3897 d73e
000000a0: 250e c83d 9971 26bd 6a5d a83e 9887 44be
000000b0: 6ae9 9ebe f26b f03e 018d 073e 3808 a8be
000000c0: 3ef7 393e debb f43c f706 0f3e 97a9 da3c
000000d0: 55bd 8c3d 7828 6ebe 16cf 8ebd 9da8 b13e
000000e0: 19b1 e4bd fe99 16be cb8a eb3e 13f3 c6be
000000f0: b83c 893e fd14 6a3d 7220 f73e 541f 37be
00000100: e4aa 263f 0ce3 523e efdb 2bbe c4e1 3f3e
00000110: 7df5 9e3c 0348 b4bd d6e7 b83e a40b ef3d
00000120: 2382 0fbe 924e 0ebd 7f13 24be ec69 58bd
00000130: 32a9 993d 0c6f db3e ec09 bd3d ce0e 1d3d
00000140: 81db 493e 9418 af3d 9ff4 88be 3cae d0bb
00000150: 4862 85bc 9f14 5c3e 9b69 a0be e246 893e
00000160: 4fcf d73e df41 e3bd 431c 7dbe 249b 793d
00000170: f24c df3e 0e8a 2f3d eaba 293e 3a44 873e
00000180: 6882 a8bf 2524 0b3e 2543 a93f 1a8c 5e3e
00000190: 36b2 7fbd c66c 93be f85e 90be 2862 183e
000001a0: a241 fcbe a71f 9a3d 13f8 d0bc cbee 48bf
000001b0: 46d1 29be 6db9 c23e ab51 8c3d c961 83bc
000001c0: 6d8e 5ebb 0742 00bf ecb1 163e 8a92 1b3e
000001d0: 8fce d9be dd2a ca3d 8be7 92bd 7cfe 773e
000001e0: c4b2 fbbd 5c7f 903e 1497 d2be 0a78 b93d
000001f0: ba04 a63e 5e9a bcbe 57bd 133f 2242 7dbe
00000200: d72b 173f de13 a03e fff8 05bf f3e2 5fbe
00000210: ae8b 92bd 337a 7fbe 50a4 1ebd d04e 3b3e
00000220: 8253 f43e f947 c53e 12d2 0e3f 4340 693e
00000230: 0ee1 b03d 8697 5b3d 455e 5f3e 7df4 ddbd
00000240: 04af 7abd bad5 adbe 87d3 7abe 0fd4 d63c
00000250: 02ec 5dbe f1ed aebe 203d 21be 3a71 46be
00000260: 1cab 333d 90a1 01be c187 3abe 7e37 f1be
00000270: f102 413f 2b80 123e 9118 6ebe 01da 2e3e
00000280: 79ee b0be 30f7 913c 919c 9a3e f05e 91bd
00000290: 0d45 dfbd 0949 f13e 0745 653d fd21 c63e
000002a0: 0e75 b3bd c2af 38be 1b86 c5be afa2 21bf
000002b0: cd02 833d 32ac 133e 7d6d 3fbd 301a 60be
000002c0: 16df fd3d 8123 05be bc86 40be 04d6 04be
000002d0: d4f2 5b3e ed12 dd3d 2a62 ed3e b118 f4bd
000002e0: 4258 af3e 0b15 aebe 7115 3cbe 3f9c 92be
000002f0: 23ba a7be d9fc 89be 6832 a33e 4446 aebb
00000300: 56a3 143e 6974 f33d d4ad a7be faed 933d
00000310: 0140 9f3e 8654 2dbe a4dd 583e 22b8 ca3e
00000320: 3077 38bd d368 fbbc 7193 6d3d 2eec a7bb
00000330: b29a cabe 40c6 ca3e cd1b f03e d686 cb3e
00000340: 16d4 963e 42d9 a03e 7838 cebe 2ad8 0fbe
00000350: b800 c43c 2425 513e 08de 0ebf cdae cc3e
00000360: 8898 3a3e 9070 69bd d133 113f f2aa 8dbe
00000370: 066d 053e d548 5b3e 29e9 f03d 2c8e 18be
00000380: d9a5 b6be 4a91 06bf 1686 623e abec 0bbf
00000390: d639 9bbe 10e2 9c3e 8d55 3bbf db29 813d
000003a0: 5c18 f1bd 79ed 393e 2eb8 f3be 7d8a 77be
000003b0: b12e d3be 912d 18bd 6e4d 413e 6630 afbe
000003c0: 08df 113f 3d3e 403f b024 7f3e 4681 0e3e
000003d0: c23e ca3e 6375 febe 64ac 9cbe c80e 02bd
000003e0: dd7b 2fbf 0ae0 50be 7791 3c3e dc23 9fbe
000003f0: 0411 aa3e 4adb f83e 24cb 063e 6ee6 1dbd
0.12446722 0.58363193 -0.3243598 0.47218248 -0.10852409 -0.07266581 0.28787678 -0.37478864
-0.20199853 -0.18298057 -0.0629876 0.5442042 -0.16469367 0.8022762 0.076359846 0.5433788
-0.09756012 -0.3167234 -0.44973114 -0.2842809 -0.34885922 0.31204408 -0.355564 0.059221417
0.37417814 0.23898683 -0.1095889 0.41651627 0.5962168 -0.052875407 -0.3099082 0.35623237
0.19414632 0.2302192 -0.19218124 0.25502908 -0.01669314 0.06852852 -0.13029116 0.42107558
0.09768323 -0.04063568 0.3288377 -0.1919235 -0.31037456 0.46957356 0.13237382 -0.3281877
0.18160722 0.029874738 0.139675 0.026692195 0.0687205 -0.23257625 -0.06973092 0.34698954
-0.11166591 -0.14707181 0.46004328 -0.38857326 0.26804137 0.057148922 0.4826694 -0.17883044
0.6510451 0.20594424 -0.16783117 0.18738467 0.019404167 -0.08802798 0.36114377 0.11672142
-0.14014487 -0.0347429 -0.16023062 -0.05283539 0.075029746 0.4285816 0.09230408 0.038344197
0.1971264 0.0854961 -0.2674913 -0.0063684266 -0.016282216 0.21492241 -0.3133057 0.26811892
0.4215035 -0.11096548 -0.24717812 0.06093897 0.43613392 0.04285627 0.16575208 0.2641924
-1.3164797 0.13588007 1.3223616 0.21733132 -0.062425815 -0.28793925 -0.28197455 0.14881194
-0.49268824 0.075255685 -0.025508916 -0.7848937 -0.16583738 0.38032094 0.068515144 -0.016037839
-0.0033959404 -0.5010075 0.1471631 0.15192619 -0.42540404 0.09871457 -0.071730696 0.24218172
-0.12289956 0.28222167 -0.41130888 0.09056099 0.3242548 -0.36836523 0.57710785 -0.24732259
0.5905127 0.31265157 -0.5233306 -0.21863918 -0.07155548 -0.24948959 -0.03873092 0.18291783
0.4771996 0.38531473 0.5578929 0.2277842 0.08636676 0.0536113 0.21813305 -0.10837648
-0.061202064 -0.33952123 -0.24494754 0.026224164 -0.21672061 -0.3416591 -0.15745974 -0.1937913
0.043864354 -0.12659287 -0.18215849 -0.4711265 0.75395113 0.14306705 -0.23251559 0.1707535
-0.3455694 0.017818063 0.30197576 -0.07098186 -0.10901842 0.47126034 0.055974033 0.38697806
-0.08762561 -0.18035796 -0.38578877 -0.6313886 0.063970186 0.14421156 -0.046735276 -0.2188499
0.12396066 -0.13001825 -0.18801397 -0.12972265 0.2147935 0.107946254 0.46363956 -0.11918772
0.34247023 -0.3400043 -0.18367554 -0.2863483 -0.327592 -0.2695072 0.31874394 -0.005318435
0.14515433 0.11887438 -0.32749808 0.07223125 0.3110352 -0.16926774 0.21178299 0.39593607
-0.04503554 -0.030689633 0.05800194 -0.0051245904 -0.39571148 0.39604378 0.4689621 0.3975131
0.29458684 0.31415755 -0.40277457 -0.14047304 0.023926124 0.20424324 -0.5580754 0.39977112
0.18222249 -0.056992114 0.5671969 -0.27669483 0.1302987 0.21414502 0.11763222 -0.14897984
-0.35673407 -0.52565444 0.22121462 -0.54658 -0.30317563 0.30641222 -0.73177415 0.063068114
-0.11772224 0.18156995 -0.47601455 -0.24173923 -0.4124656 -0.03715283 0.18877193 -0.34216613
0.56980944 0.7509497 0.24916339 0.13916501 0.39501005 -0.49698934 -0.30600274 -0.031752378
-0.68548375 -0.20397964 0.18414865 -0.31082046 0.33216107 0.48604804 0.1316343 -0.038549833

bias_ih_l1 f4 [128]
00000000: c9db babe fb7a d43e ce81 79be 8cd6 683e
00000010: 6301 84be f805 84be 4a4c a33e d4f9 bebd
00000020: 2723 6abe bb58 d4bd 60bb ddbe 3dfc 0ebf
00000030: fd6a c8be 03be f03d bf27 97bd 9506 82bc
00000040: 0d01 96be 5e81 bebd 124d ea3d bcfb 8c3c
00000050: daf9 f03d 0538 59be 9655 c1be 0b9e 15be
00000060: 3bf8 94be 8634 80be 1a9f 2ebe 042b bebe
00000070: 67c1 6ebe 28b2 33be 8bf4 553e 4c0a 02be
00000080: 7451 053e a5be bbbd 813d f63d 0747 32be
00000090: fd2c 1dbe cc91 293d fc55 cc3d 2ffa 553f
000000a0: 1dcd 70be a469 3ebe fa9a 15be ed9c 11be
000000b0: 10f7 cdbd 1d80 b73d ce98 a33d d10f cd3e
000000c0: b734 d0be a5fa 51be 4e7d 603e 5644 cebd
000000d0: 9819 f73d 6fbf 06ba f1a8 1fbe e099 433d
000000e0: a7ac a93e 31fe 29be 9f1b 64be 5cfa d2be
000000f0: 3c46 dbbe 4e3d 1f3d 6f3f ad3e 64ab 3fbd
00000100: 3715 563e 1874 d23d 41af 03bf e3e7 c13d
00000110: 6e04 823e 6053 053e 34cd d83c d0aa 653d
00000120: a449 6d3d dc40 99be eb28 c23e d674 79be
00000130: d166 f2be ad6d 563e cc85 21be 968c 873d
00000140: 7caa 323d 8feb 913d bff3 90be e6e1 26be
00000150: d837 97bc d5bf 583e d673 a83c 51fa 693e
00000160: 2480 b1bd de67 7d3d fdbe c23d 3382 a2bd
00000170: a581 06b8 0298 25bc 5b2b f03d 5108 c63e
00000180: 4a64 283e c9ad 75be 17bf 28bd 4a2b 9d3e
00000190: 689a c9bc b7dd e83c 531f 803d 4ecd babc
000001a0: f7e2 70be ecb6 bcbe 1f2b 9fbe 6d34 71be
000001b0: cf56 7a3d 4a95 88be c0e9 9cbe 0c87 4e3e
000001c0: 6ea0 c6be 7e14 283b 00d0 ef3d a96c 5d3c
000001d0: 8be3 0a3e 3b50 16be 3c0a fbbe 9580 a5be
000001e0: 7562 0e3f 6d19 38be d569 79be 6359 44be
000001f0: 6cad 923e 27d6 693e 4d3e 803e 76a7 41be
-0.36495808 0.41500077 -0.24365923 0.22738093 -0.25782308 -0.25785804 0.3189414 -0.09324995
-0.22864972 -0.103684865 -0.43307018 -0.55853635 -0.39144126 0.11754992 -0.07380628 -0.01587228
-0.29297677 -0.093020186 0.11440481 0.01720988 0.117664054 -0.21212776 -0.3776061 -0.1461107
-0.29095635 -0.25040072 -0.1705288 -0.37142193 -0.23315965 -0.1754843 0.20894067 -0.1269924
0.13019353 -0.09167222 0.1202345 -0.17409907 -0.15349193 0.04139881 0.09977338 0.83584875
-0.23515745 -0.18594986 -0.146099 -0.14220019 -0.10056889 0.089599825 0.079881296 0.4005113
-0.40665218 -0.2050577 0.219228 -0.10071628 0.120654285 -0.000514022 -0.1559179 0.04775417
0.33139536 -0.16600873 -0.22276162 -0.41206634 -0.42827022 0.038876824 0.33837458 -0.04679431
0.2090653 0.102760494 -0.5143929 0.09468057 0.25394005 0.13020086 0.026465036 0.056071103
0.057931557 -0.29932296 0.37921843 -0.24360976 -0.47344068 0.20940275 -0.15773696 0.066186115
0.043619618 0.07125007 -0.28310964 -0.16297111 -0.018459246 0.21166928 0.020563047 0.22849394
-0.08667019 0.061866634 0.095090844 -0.0793499 -3.206883e-05 -0.010107042 0.117270194 0.3867822
0.16444507 -0.23992075 -0.041197862 0.3069709 -0.02460976 0.028426034 0.062559746 -0.022802975
-0.2352408 -0.36858308 -0.31087586 -0.23555155 0.061117943 -0.266764 -0.30647087 0.20168704
-0.38794273 0.002564698 0.11709595 0.013514676 0.13563363 -0.14679043 -0.49031246 -0.32324663
0.55618984 -0.17978449 -0.24356778 -0.19174723 0.28647935 0.22835599 0.25047532 -0.18911538

bias_hh_l1 f4 [128]
00000000: a7e6 47be 182b 9b3e dc50 19be e25d d83c
00000010: 8213 87be e310 85be e899 4e3e b6c9 76be
00000020: 1071 d4be bedb eabd 40ba 96be 5649 e6be
00000030: c0c5 49be f457 84bb bc5e 24be cf5d f4bb
00000040: 2a5b a6be f651 0dbe fad1 23bd 2aeb 08bb
00000050: 8bf0 34be 3f62 c33c 1574 aabe 8b4e 383d
00000060: 7fbc 4dbe d669 f0bd 2052 13bd 3816 c2be
00000070: 9959 53be bcf5 a8bd 5617 353e 5c7a 55bd
00000080: 4a2c 4d3d 588e 053e 368e 953e 757b c1bd
00000090: 886f c6be 0f85 073e 4bca ac3e 7f12 053f
000000a0: 6347 05bd a43a 143e fbea f4bd 3db0 013d
000000b0: b8f2 13be b3b1 913e 8289 ac3d 1426 d13e
000000c0: c625 85be 9d53 89be d470 903c 7536 0f3e
000000d0: bf15 543e b179 50be 951b 7dbe 1f92 ff3d
000000e0: ebb9 a73e d649 d4bd 897d 823c 4acd 52be
000000f0: 17d5 26be 5984 0c3e 83ce 603e 9e4d 01be
00000100: a656 1b3e 0d66 703c 1757 5abe 2e4f 643e
00000110: 5ea4 823e ce2a b63d f378 82bd 631a ea3d
00000120: f3b2 52bc c4ae cfbe 838d ee3e 2310 cd3c
00000130: 9471 6abe 781f db3d 928e 013e 62cf 153e
00000140: c06f 74bd 8c9d b4bd 615e c9be eda9 8abe
00000150: 8c00 7cbd 3321 1c3e 8d08 a63c 59f3 bc3e
00000160: 83b0 e53d 0d05 e6bd 5c49 003e 3358 abbd
00000170: 89fe 6c3d 6165 81be 1566 d83d d252 e23d
00000180: cf82 e83d c3ca dabe 04aa 033e 6862 603e
00000190: 4fc1 8dbd 3c89 08be 2b28 21bc a21a 24be
000001a0: 06f1 3abe 0b1f 15be 01ec 19be ddad 10be
000001b0: 3d98 5ebd 3587 c5bc 6fe5 4cbe 4e04 a43e
000001c0: 50ba cbbe c107 3ebe d456 a43d 7628 70bc
000001d0: 25e4 16be b85c 17be c891 2cbe 887f e5bd
000001e0: 6184 d03e 16dc 0fbe 2569 2cbe 86b9 44be
000001f0: 4329 4e3e 00af 5f3e 56cb 933e 0d51 babd
-0.1952158 0.30306315 -0.14972252 0.026411954 -0.2638207 -0.25989446 0.20175898 -0.24100384
-0.4149251 -0.11467694 -0.29438972 -0.44977826 -0.19704342 -0.004038805 -0.16051763 -0.007457472
-0.32491428 -0.13800797 -0.03999517 -0.0020892122 -0.17669885 0.023850558 -0.3329169 0.04499678
-0.20091437 -0.117389366 -0.035966992 -0.37907577 -0.20639648 -0.08249995 0.17684683 -0.052118644
0.050091065 0.13042581 0.2921006 -0.09447376 -0.38756967 0.13234352 0.33748087 0.5198135
-0.032538783 0.14475495 -0.119588815 0.031662215 -0.14448059 0.28455886 0.08424665 0.40849364
-0.2600538 -0.26821604 0.017631926 0.13985617 0.2071142 -0.20358922 -0.24717553 0.12479042
0.32759032 -0.103656456 0.015929 -0.20586124 -0.16292225 0.13722362 0.21953778 -0.12627265
0.15169773 0.014672768 -0.21322285 0.2229583 0.25516027 0.08894883 -0.063707255 0.11430814
-0.012860048 -0.40563023 0.4659234 0.025032109 -0.22894889 0.106993616 0.12652043 0.14629892
-0.059676886 -0.08819112 -0.39329818 -0.27082768 -0.06152396 0.1524704 0.02026775 0.3690441
0.112153076 -0.11231432 0.12527984 -0.08366432 0.05785993 -0.25272658 0.105663456 0.11050953
0.11353075 -0.4273282 0.12857825 0.21912539 -0.06921636 -0.13333601 -0.009836237 -0.16025785
-0.18256006 -0.14562623 -0.15031435 -0.14128824 -0.054344404 -0.024112323 -0.20009397 0.32034534
-0.39790583 -0.18557645 0.08024374 -0.014658084 -0.14735468 -0.14781463 -0.16852486 -0.11205965
0.40725997 -0.140488 -0.16836984 -0.19211397 0.20132928 0.21844101 0.2886607 -0.090974905

weight_ih_l2 f4 [128, 32]
00000000: a27c a0bf f0b7 e43e a39e f73e ec02 f23e
00000010: 8ea4 f2be 6cc1 253b 9519 1f3f acaa adbe
00000020: 8d09 66bf 5454 88bd def9 19bf a836 f2be
00000030: 1314 e83e 576e 2abe ced7 a73d 7d8f 183d
00000040: a2de 1dbe 9975 853e f6c0 2b3d 64cd 9b3e
00000050: 384a 093f bc9c 10be 16e9 9d3d b9d2 68be
00000060: 45ba ea3e d664 623d c7ad 4fbe a52c 38be
00000070: 36f5 9dbe c503 11be 9f58 8f3f 6ac1 263d
00000080: 6ed2 59bf 10d0 aa3e 39d5 103f 35b9 103d
00000090: 785b 50be acd3 d33e 9d05 5e3e 3431 9cbe
000000a0: 3d13 3cbf 8c59 5c3c 7fdc 15bf 7116 3dbf
000000b0: e656 2abf 41c8 a53e f3bd ad3d 6951 ce3c
000000c0: c1b1 c73c b0ca 20be a5e7 933d 1396 2cbf
000000d0: 2175 fd3d a4b3 7fbe 12cd 76be 1989 ebbb
000000e0: 9ef5 42b9 1fae cc3e b24c 093d 33a7 aabd
000000f0: 4dff 44be 146b 1dbe 8e77 1f3f b969 4c3e
00000100: 3eec 4ebf 5f00 363f ef72 ff3e 35be 083f
00000110: 7255 b5be be9e 9d3d 43b3 423f 939d 903e
00000120: a91b 64be 7e7c 9cbd 9a7b c8be 069e 0b3e
00000130: 0db1 2f3f ae38 673e 253d 513d a81a a5bd
00000140: f2f9 033e 44d6 91be c5f0 61be 3d92 dd3e
00000150: c296 8abe d6af 1d3e b655 e4bd 65b2 33be
00000160: f3c4 313f 2a4c 00bd 51ea e5bd 8f99 243e
00000170: 47cb 04bd 531d 743e d33f 6f3e 7e5e 88bd
00000180: 9291 91bf 5ff8 4a3e c12c df3e f774 e73e
00000190: 8676 cbbc 47cb 143d 11f9 993d d34b 2ebf
000001a0: 928b 75bd 21cf 603e 43c1 fdbe 5e14 0abf
000001b0: 5543 29bf 1b63 aabd c44e 47bd aa0b ce3d
000001c0: e195 1e3e e314 cdbc d19b 6cbe 6907 fbbe
000001d0: ec39 8bbe 5a92 77be 475f c5be 8169 a5bd
000001e0: 39fd e73d 97e3 733d 2ef1 003e d6ec e4bb
000001f0: 27e5 80be ddde 8dbc ce9a 123f 9eeb 2e3e
00000200: ad27 4fbf ae68 92be 3e07 473f f714 ea3e
00000210: 6b6f 93be 2f2d acbd a046 d33e 9261 3d3f
00000220: 752b 16bf 525a 733e 2e0f 34bf 2c21 8abe
00000230: a4fc 513f b6c1 ef3d 5df3 cfbd 3bdf 803e
00000240: 5fc2 85be 8e47 a83e 3737 31bf 5ce0 053f
00000250: c369 82bd f3fb 143e afa0 1bbe 9fb8 86be
00000260: 6f87 603e 4892 243e 1aa8 973c 8656 98be
00000270: ec1b a9be 6c18 f53e 8c00 223f df0b 96be
00000280: 17a7 54bf 0f99 963d 228c 503f eb2d 103f
00000290: 9fe4 c03b 6ea4 863d cd18 f03e 99b1 ab3e
000002a0: d6fd e4be 0261 d33d 8329 92be c48a 883d
000002b0: 4894 433f 28e8 93be 1d67 d13d 000d e4bd
000002c0: 0bcd 37bd 6aac be3b c397 a1be 2258 f63e
000002d0: 9814 a9be de0e 333d 31e2 883e f7ff cc3c
000002e0: 5ed6 a13e f69c 1d3e 4115 58be a7dd 81be
000002f0: 85b9 b2be cd87 8a3e 4c2a 0f3d fe55 a6be
00000300: e6a8 63bf e501 cbbe a388 573f 0b1d 243e
00000310: 605c a2bc 31ed 39bd 7a1d eb3e 655f 323f
00000320: 12aa 25bb 72f3 073d 8a4f 1ebd 013f 3c3e
00000330: 3b1c 803f ac55 593e d041 b9be 2a00 dbbd
00000340: 4148 a63c 600b 0d3e 559a d3bd cb53 083f
00000350: 8309 a8bd 60f8 f23d 9f9d 063f e18d 3bbe
00000360: 404f 043f abe9 8dbe fdc6 b2be 5163 b5bd
00000370: 3ae7 d4bd 91a0 983e 1a29 383c d80e 3bbe
00000380: 2f1d 18bf 3644 f0bd 6caa 113f d565 6d3e
00000390: 174d d3be 5c5a 613e 4d88 383e 6c9f ff3e
000003a0: ebf4 b7be e564 51be 407f d2be c65e 81be
000003b0: 750e 363f f000 96be 78c6 ce3d bef8 9cbe
000003c0: 7e32 173e 0fc7 763e 6d07 03bf 93c7 483f
000003d0: 6470 2e3e cd2d 76bd a96a 09bc 0079 09be
000003e0: c31f 2c3f a0e0 6fbd 3ba8 ecbc c4b7 7bbe
000003f0: 14d1 70be fbd2 80bd c2e6 f33e dfbb b0bd
-1.2538035 0.44671583 0.48363218 0.47267854 -0.4739117 0.002529229 0.6214841 -0.33919275
-0.89858323 -0.06656709 -0.6014689 -0.47307324 0.45327815 -0.16643654 0.08195458 0.037246216
-0.15416959 0.26066282 0.04193207 0.30430138 0.53628874 -0.1412229 0.07710473 -0.22736634
0.45845237 0.055271946 -0.20281135 -0.1798578 -0.30851144 -0.14161594 1.119892 0.040711798
-0.85086715 0.33361864 0.5657535 0.035332877 -0.20347393 0.4137243 0.21681829 -0.3050629
-0.73466855 0.013449084 -0.58539575 -0.7386237 -0.66538846 0.32379344 0.084834956 0.025185304
0.024376752 -0.15702319 0.07221917 -0.67416495 0.12375856 -0.24970871 -0.24101666 -0.007187974
-0.00018592781 0.39976594 0.033520408 -0.08332672 -0.19238015 -0.15372878 0.622918 0.19962205
-0.80829227 0.71094316 0.49892375 0.5341523 -0.35416752 0.07696293 0.7605478 0.2824522
-0.22276177 -0.076409325 -0.391568 0.136345 0.68629533 0.22580215 0.051083703 -0.08061725
0.12888315 -0.28483784 -0.22064503 0.43275633 -0.27068144 0.15399107 -0.111491606 -0.17548521
0.69441146 -0.031322636 -0.11226333 0.16074203 -0.032420423 0.23839311 0.23364191 -0.06658648
-1.137255 0.19821309 0.43588832 0.45206425 -0.02483679 0.036326673 0.07518209 -0.6808445
-0.059947558 0.21954013 -0.4956151 -0.5393733 -0.66118366 -0.08319684 -0.0486591 0.100608185
0.15486862 -0.025034374 -0.23106314 -0.4902909 -0.27192628 -0.24176922 -0.38549253 -0.08076764
0.11327595 0.05954322 0.12592003 -0.006986241 -0.2517483 -0.017318184 0.57267463 0.17082068
-0.80919915 -0.2859549 0.77745426 0.4571912 -0.28795943 -0.084070556 0.4126482 0.73977005
-0.5866006 0.23764923 -0.7033566 -0.26978433 0.82026124 0.11706869 -0.1015384 0.2517031
-0.26124856 0.32867092 -0.69224876 0.5229547 -0.06367829 0.14549236 -0.15198015 -0.2631273
0.21926664 0.16071427 0.018512774 -0.29753512 -0.33029115 0.47870195 0.63282084 -0.29305932
-0.8306746 0.07353412 0.81463826 0.56320065 0.0058866288 0.06574331 0.46893921 0.33533934
-0.4472491 0.10321237 -0.28547296 0.066670924 0.76398134 -0.2888806 0.102247454 -0.11135292
-0.04487328 0.005818893 -0.31561098 0.48114115 -0.33023524 0.04371535 0.2673507 0.025024397
0.31608862 0.15391907 -0.21101858 -0.2536442 -0.34907165 0.27056733 0.034952447 -0.32487482
-0.88929594 -0.39649883 0.84192866 0.16026704 -0.019819438 -0.04539222 0.45920926 0.6967681
-0.0025278372 0.033191152 -0.038650073 0.18383409 1.0008615 0.21224087 -0.36183023 -0.10693391
0.020298125 0.1377387 -0.10332171 0.5325286 -0.08204939 0.1186378 0.5258426 -0.18315841
0.51683426 -0.27717337 -0.3491744 -0.08856834 -0.103956655 0.29810002 0.011240268 -0.18267381
-0.5941953 -0.1173176 0.5690067 0.23183377 -0.41269752 0.22007126 0.18020745 0.49926317
-0.35929045 -0.20448644 -0.4111271 -0.2526762 0.7111581 -0.2929759 0.10096449 -0.30658525
0.14765355 0.24099372 -0.51183206 0.78429526 0.17035061 -0.060102273 -0.008387246 -0.13425064
0.67235965 -0.05856383 -0.028888812 -0.2458182 -0.23517257 -0.06290241 0.47636992 -0.086295836

weight_hh_l2 f4 [128, 32]
00000000: 4846 e8bd 752b f4be 624c 83bd 99bc f9be
00000010: c498 4dbe 6ccf 8f3e 5e5d 8dbe edf5 28be
00000020: b97c 77bd a602 9a3c bb69 1b3d 46db 9b3e
00000030: 7eaf 853e ff51 943e 4b96 4ebe 3217 213e
00000040: cc60 cf3c 85cd b2bd c69d d73d de5f 32be
00000050: be28 413d 6051 b8bc fc66 743e c2a1 a93e
00000060: ea03 cfbd e0a5 59be 135c 1f3d abd5 2f3d
00000070: 1581 7d3d 54c0 83be 599b e2be 4f10 5d3e
00000080: df14 8ebe ba9d adbe 39d2 183f 719e 323d
00000090: 6868 babe 45da 8ebe dea8 52bf 8240 ab3e
000000a0: 1450 fa3d dc5b 5c3d 474d 6a3e 7e0c 243e
000000b0: 0950 bebe 265e 103f a803 f3bb 82d8 103e
000000c0: ac42 43bd 18da 70be 9d0d af3e d45b a2be
000000d0: 5354 94be 0740 49be aebb 87be 30af 1fbe
000000e0: d190 053e a605 5d3d b4e9 3e3f e297 163e
000000f0: 20bd 003f 52ff 53bd 4bef 7ebe 4934 ea3e
00000100: 9c6f 8dbd d440 b83d 1f06 913e d791 b03e
00000110: 794b 533e 6944 943e 05c0 6e3e 2383 76be
00000120: de7c 053e c63b 083e 44c4 283e 18b9 09be
00000130: dbcf c6bd 8be2 06be 8832 903e 4cb0 103e
00000140: b1f6 d63c 917c 40bf 1e5c 89be 974c 293f
00000150: 1022 aabb d2d8 5ebd d93a e83e ee84 76be
00000160: 6cad 1abe fed3 07be fb58 99be 8a59 4f3e
00000170: ede3 83be b5f0 e23d a237 2a3e fd4c c23d
00000180: 3e9a 283f 5308 c1bd c125 443f 3df8 e9be
00000190: 6e43 6fbe c54f 52bf 1260 30bf 05b5 e93e
000001a0: 4619 10bf 05eb cdbe 8c54 093f cbda 903d
000001b0: 2648 85be 0828 173f 5c73 3cbf 5e29 0cbf
000001c0: 6565 a23e b8cd a13e 62dd 6abe 24c4 b1be
000001d0: d8bb 41bf 64bd f5be 1f86 f8be 77d4 a73e
000001e0: c0a5 463f 03cf 31bd 1a0b 483f 0284 b4be
000001f0: 2d53 ce3e 0faa e33d 105d 53bf dc17 583f
00000200: e495 8ebe 1538 9f3e 4046 253f c14f 27be
00000210: 8062 7abe ea47 5fbe ea5d b1be e054 4dbd
00000220: 8f8f 953d 3417 8f3e 8f84 463e 64e4 2ebd
00000230: 9d5d 9a3e c118 16bc 1f56 803c cf9f e3bd
00000240: 86ad d9bd af56 9bbe 324a 3a3e 3122 4b3c
00000250: f379 8c3d 32d9 b13b 7611 5d3e 70f2 883d
00000260: deb9 81bd de9b 82bd b2e3 0a3d eb36 23bd
00000270: 7ae8 103e ecf3 ae3d bf7d 013e c0aa 6d3d
00000280: 5e8e a93e 2006 343e cfef 5f3b 2e65 1fbe
00000290: 5713 a53d 3ece 24bf 513f 56be 3326 16be
000002a0: c782 19bd 8905 12be 55f5 a73d b65b e03d
000002b0: 198b 6bbd 652f 553e 2172 fabe 6d8f 5b3e
000002c0: 8315 a53d da9d e5bd 8108 9c3e cf56 073f
000002d0: b432 1dbe 1e26 f23d ca11 c63e 8e24 2e3e
000002e0: 84ab 9a3d 66ef 80bd deba 5fbd 7c4f 41be
000002f0: 727c 9bbe 2aaa 01bc 1625 8c3e 7348 383d
00000300: 0967 77bd 8dcf 863e 5ffe b7be f6b6 5c3d
00000310: 54f1 893e 78f6 5b3e 548b 3ebf a3cf 12bf
00000320: 0859 aa3e ddba 4b3c d177 83bd b15c 93bd
00000330: 9ac2 04bd d190 3dbd 4376 0f3e 7634 bf3e
00000340: 0bfd b8be bc4e 25bf 7947 0cbd f15e e53e
00000350: fbd6 eabc fbf8 37be 146f 163f 35e2 05be
00000360: 091b 823c c188 263f ae4b adbe 9431 f4bd
00000370: 5ffa 88be 0061 9c3d 560d 5f3e bbb8 8d3e
00000380: 1069 973d 2974 373f 95a4 283e 36d6 513e
00000390: ccd9 2dbe dd58 b63d d38b dc3d 548d 023e
000003a0: 7365 b93d 8ccd 8bbb b77d 92bd 3798 d1bd
000003b0: 0dcb 12be 8e6a 2abe e0ce b2be 4b3b b83d
000003c0: 6b46 9bbd 1b75 08bf eab3 a4bd 117f f13d
000003d0: bc39 e0bd a66c ab3e fad7 e03e cde1 4bbd
000003e0: db7f 2fbd 4e48 c93e f6d8 a0bc 7593 cbbe
000003f0: 25ae 4cbe 2044 11bf 5407 b63e 488d a43e
-0.1134153 -0.47689405 -0.06411053 -0.487767 -0.20077807 0.28087938 -0.27610296 -0.16500063
-0.06042168 0.018800091 0.03794263 0.3044073 0.26110452 0.28968808 -0.2017452 0.15731505
0.025314711 -0.08730606 0.1052814 -0.17419383 0.047157995 -0.02249974 0.2386741 0.33131224
-0.101081684 -0.21254683 0.03890617 0.04292838 0.06189068 -0.25732672 -0.44259146 0.21588252
-0.27750298 -0.33909398 0.59695774 0.043608133 -0.3640778 -0.279009 -0.8228892 0.33447653
0.12222305 0.05379854 0.22881041 0.1602039 -0.37170437 0.5639366 -0.0074162073 0.14145091
-0.047671005 -0.23520696 0.34190074 -0.31710684 -0.28970584 -0.1965333 -0.26510376 -0.15594172
0.13043524 0.053960465 0.7457535 0.14706376 0.5028858 -0.051757164 -0.2489597 0.45743015
-0.069060534 0.0899674 0.28324983 0.34486267 0.2063426 0.28958443 0.23315437 -0.24073462
0.13035914 0.13304052 0.1648112 -0.13449514 -0.09707614 -0.13172357 0.28163552 0.14129752
0.026240679 -0.75190073 -0.26828092 0.6613249 -0.005192049 -0.054405995 0.45357397 -0.24074146
-0.15105218 -0.13264462 -0.299507 0.20249 -0.2575983 0.110810675 0.16622785 0.094873406
0.65860355 -0.09425416 0.7662011 -0.45697203 -0.23365566 -0.8215297 -0.6889659 0.4564592
-0.56288564 -0.40218368 0.53644633 0.070729814 -0.26031607 0.5904546 -0.73613524 -0.5475062
0.31717983 0.31602263 -0.22936013 -0.34719956 -0.7567725 -0.47996056 -0.48539826 0.32779285
0.77596664 -0.043410312 0.7814194 -0.35256964 0.40297833 0.111164205 -0.8256388 0.84411407
-0.27848732 0.31097475 0.6456032 -0.16339017 -0.24451637 -0.21804777 -0.34641963 -0.05012977
0.07302772 0.2794739 0.19386505 -0.04269828 0.30149546 -0.009161175 0.015666066 -0.111144654
-0.106288 -0.30339572 0.18192366 0.012398289 0.068591975 0.005427503 0.21588692 0.06686866
-0.063342795 -0.063773856 0.033908553 -0.039847296 0.14151183 0.08542618 0.12645625 0.058024168
0.3311643 0.17580462 0.0034170037 -0.1556594 0.080603294 -0.643772 -0.20922591 -0.1466301
-0.037478235 -0.14259924 0.0820109 0.109549925 -0.0575057 0.20818861 -0.48915198 0.21441431
0.08060744 -0.112117484 0.30475238 0.52866834 -0.15351373 0.118236765 0.38685447 0.17006132
0.07552245 -0.06295662 -0.05462157 -0.18877977 -0.30368382 -0.007914105 0.27372044 0.044990968
-0.060400996 0.26330224 -0.35936257 0.053885423 0.2694193 0.21480739 -0.7443135 -0.5734808
0.3327105 0.012434688 -0.064193375 -0.07195414 -0.03241215 -0.046280686 0.14009957 0.37344712
-0.36130556 -0.64573264 -0.03424785 0.44798997 -0.028666964 -0.17966072 0.5876324 -0.13074572
0.015882032 0.6505242 -0.33846802 -0.11923519 -0.26753518 0.07635689 0.21782431 0.2768
0.07393086 0.7166162 0.16469033 0.20491871 -0.16977614 0.08903668 0.10768857 0.12749225
0.09052553 -0.0042664465 -0.071528845 -0.10234111 -0.1433527 -0.1664221 -0.34923458 0.08995684
-0.075817905 -0.5330369 -0.080421284 0.11791814 -0.10948512 0.3348133 0.43914777 -0.049775887
-0.04284654 0.39312977 -0.019634705 -0.39760938 -0.19988306 -0.56744576 0.35552466 0.3213904
