histories_pre_cls/04.30-11.36.36_64.75%_pt_Transformer_EEGNet_BcicIv2a_bs=032_lr=0.0800_ld=0.999870_k1=32_k2=16_do=0.50/best_valid_acc.pt (torch, 19778 bytes, 17 tensors)

weight f4 [8, 1, 1, 32]
00000000: f0d7 47c0 f9be 9dc0 8342 5ac0 4e49 1740
00000010: 4b47 d040 cb7f bb40 fc3f f63f 7eec d9bf
00000020: bd57 0cc0 49b0 37be ce4a bc3f e4b6 9f3e
00000030: b31f 9dc0 f089 d3c0 cf3d 9ac0 fa9e 2140
00000040: 262a 2741 03c7 cd40 d86a 3a40 f361 33bf
00000050: 05da 32c0 7d80 80c0 dcf2 69c0 52e5 24c0
00000060: be93 473f 50ef 4040 29b5 6b40 c75e 2c40
00000070: bf91 a9be b18d 4fc0 33a1 05c0 9fba e03f
00000080: fad7 92c0 4467 75c0 51d8 34c0 275d 98bf
00000090: 028e 7d3e a69b a93f dabf a73f f544 143f
000000a0: 5b67 0ebd d88f 093f 68b7 e73f d621 c33f
000000b0: 9757 0b3f b482 803f afbf 0440 55e7 6d40
000000c0: 5d4b 0e41 2683 d440 36cd bb40 55b3 1740
000000d0: 0c5b 123f e32e cc3f 5fde 3a40 1be2 4440
000000e0: daf7 9e40 242d 8940 7299 5640 ef9b 0c3f
000000f0: cafe 46bf e8f9 e9bf 699a d4bf b19f 7bbf
00000100: 9b38 09c1 39c2 cac0 49d3 4fc0 3da9 0b3f
00000110: 208f 6540 17eb a540 25ae 9440 2f04 de3f
00000120: 26fd 26bf de13 dbbf c914 b5bf 917a c8bf
00000130: 4110 c5bf 1df8 b3bf 32cf 9fbf ecbf 3b3f
00000140: e6f9 d440 f3bc 4b40 d955 e93f 80e0 de3f
00000150: 1d7f 583f 01ed ab3e dcb3 9e3e 365b 313d
00000160: b7cb f9bc fe9b 48bf 950b 10bf 6b80 8dbf
00000170: 6f47 08bf dfc4 043f 4e07 973f 226c 083f
00000180: 44d7 7740 a63f 5740 2cea 3040 eaf2 2040
00000190: 1f49 1d40 8e5d c93f 2a95 493f cc71 6e3e
000001a0: 95c2 e3be 4489 c9bf 0dca 5fc0 154c afc0
000001b0: 4124 e6c0 35cf e7c0 a8cb cec0 5b55 9ac0
000001c0: 049a 4ec0 6b2f 2ac0 33c6 03c0 97aa 22bf
000001d0: ddfe e0be c9a5 edbe 915c 18be edd3 fe3e
000001e0: c925 bd3f c05f 1b40 eb44 2840 8b73 3a40
000001f0: ca42 3340 cc7c 5f40 b9c1 8040 c105 8d40
00000200: bb16 dc3f f4a3 6c3f ec4f f53f b207 0840
00000210: 69f9 bd3f e33a 913f bec0 8a3f 6402 e73f
00000220: c29c c33f 9c70 3c3f 4f3b 523f c6f4 a13f
00000230: ef9a 0b40 109a ca3f 57f9 153f 5138 453b
00000240: f9ae 0140 d3cc 1040 b272 0e40 6a32 d53f
00000250: 2ae5 4a3f 1010 56bf 4adb cfbf 6bb6 debf
00000260: 0441 7bbf 5a6b 803f 8b80 ee3f 64cc af3e
00000270: f032 35c0 6d6d 95c0 dc34 a9c0 2ce3 bac0
00000280: 0991 833f 9082 c43f 76b1 a73f b830 8e3f
00000290: f310 9e3d 4970 3dbf 5de4 02c0 4e69 fdbf
000002a0: ef7b 65c0 97b8 83c0 f486 80c0 0d2e f8bf
000002b0: f13b 32bf a64a 803e e0af fdbe 28b1 23bf
000002c0: 491d 11c0 8b0e 2fbe 069d 15bf a941 25bf
000002d0: 1d2f 5dc0 c829 5fc0 e5a3 2dc0 cda7 46c0
000002e0: d0e2 81c0 db63 69c0 5c55 43c0 c902 3ac0
000002f0: a185 6fc0 f30d 7cc0 fde4 4ac0 16d6 1ac0
00000300: c0de 7cc0 6bcc f0bf 0253 97bf e0b7 25bf
00000310: 9103 373d ce0c ce3f 6b73 2240 87de 0340
00000320: 040c b43f 0f39 d33f f9e2 c43f 1198 633f
00000330: 3a31 243e 2540 bd3e 2756 883f 1cf6 ff3f
00000340: fb65 e240 3164 8240 2713 0440 20e2 543f
00000350: 9c22 623f efc0 0c40 c96f ac3f 1d0a 45bf
00000360: 5818 e2bf 9f5a b8bf 0dd3 743e f16b 993f
00000370: 5227 cc3f d1d1 1240 f5bb 5340 bc24 fa3f
00000380: 80bc 8240 22ae 5140 6b5b 943f c88d 2c3e
00000390: 04be ee3e 603d 443f 95bb 843f 3018 4a3f
000003a0: 2995 283f cc11 21bd 9bd5 1ebf 08ae 29bf
000003b0: a3b7 cbbf b006 5bc0 f6e7 a5c0 e4d0 efc0
000003c0: 9aef 2ac1 95a6 f6c0 c050 ddc0 509a 9ec0
000003d0: 5d65 b4bf 80d2 383f c550 b93f 1164 0540
000003e0: 182f d73f b2f2 c13f e55b 263f 6ab7 993e
000003f0: 4b59 593e 22b1 b33e 945e c6bf 69b0 51c0
-3.1225548 -4.929562 -3.4103096 2.3638492 6.5087028 5.8593497 1.9238276 -1.7025297
-2.1928551 -0.17938341 1.4710329 0.31194222 -4.9101195 -6.610588 -4.820045 2.5253282
10.44779 6.4305434 2.9127712 -0.70071334 -2.7945569 -4.0156846 -3.655448 -2.5764966
0.7795981 3.0146065 3.6829321 2.6932847 -0.33119008 -3.2430232 -2.0879638 1.7556952
-4.5888643 -3.8344278 -2.825703 -1.1903428 0.24761203 1.3250625 1.3105423 0.5791772
-0.034766536 0.53735113 1.8102846 1.5244701 0.54430526 1.0039887 2.0741994 3.7172444
8.893399 6.6410093 5.8688 2.3703206 0.57170177 1.5951809 2.9198225 3.0763004
4.9677553 4.2867603 3.3531156 0.54925436 -0.7773253 -1.827939 -1.6609622 -0.98290545
-8.57632 -6.336209 -3.2472708 0.5455511 3.5868607 5.1849475 4.646258 1.7345027
-0.65230024 -1.7115438 -1.4146968 -1.5662404 -1.5395585 -1.4060093 -1.2485106 0.73339725
6.655505 3.1834075 1.8229324 1.7412262 0.8456896 0.33579257 0.30996597 0.043299876
-0.030492647 -0.78363025 -0.5626767 -1.1054815 -0.53234 0.518629 1.1799104 0.5329
3.8725138 3.3632598 2.7642927 2.5148263 2.457588 1.5731676 0.7874323 0.23285598
-0.44484392 -1.5745015 -3.4967072 -5.4780374 -7.1919255 -7.244044 -6.4623604 -4.8229194
-3.2281504 -2.6591442 -2.0589721 -0.6354155 -0.43944445 -0.46415547 -0.14879061 0.49771062
1.4777156 2.427719 2.6292064 2.9133022 2.8009515 3.491992 4.023648 4.4069524
1.7194437 0.9243767 1.9165015 2.1254697 1.4841739 1.1346096 1.084007 1.8047605
1.5282214 0.7360933 0.8212175 1.2652824 2.1813314 1.5828266 0.5858359 0.0030093382
2.0263045 2.2625015 2.2257504 1.665601 0.79255927 -0.8361826 -1.6238797 -1.739942
-0.9814608 1.0032761 1.8632978 0.34335625 -2.831234 -4.6696076 -5.2877026 -5.840231
1.0278636 1.5352345 1.3101032 1.1108618 0.077180766 -0.7399946 -2.0451882 -1.9797761
-3.5856893 -4.116283 -4.016474 -1.9389054 -0.69622713 0.25056952 -0.49548244 -0.63942194
-2.2674124 -0.17095391 -0.58442724 -0.64553314 -3.4560006 -3.4869251 -2.7131283 -3.1039917
-4.058937 -3.6467197 -3.052085 -2.90642 -3.742531 -3.9383514 -3.1702263 -2.4193168
-3.9510956 -1.8812383 -1.1822207 -0.64733696 0.044681136 1.6097658 2.5382946 2.060457
1.4066167 1.6501788 1.5381767 0.8890391 0.16034403 0.36963 1.0651292 1.9996982
7.074949 4.0747304 2.063669 0.8315754 0.8833406 2.1992757 1.3471614 -0.76968557
-1.7663679 -1.4402655 0.23908634 1.1986066 1.59495 2.2940562 3.308347 1.954246
4.0855103 3.2762532 1.1590399 0.1685096 0.46629345 0.7665615 1.0369745 0.7894316
0.658526 -0.039323613 -0.62044686 -0.66281176 -1.5915416 -3.4222832 -5.1845655 -7.4942493
-10.683496 -7.7078347 -6.916107 -4.956337 -1.4093434 0.721962 1.4477774 2.0842326
1.6811247 1.515219 0.6498397 0.30022746 0.21225469 0.3509608 -1.5497613 -3.2763922

weight f4 [8]
00000000: 863b ad40 1b7a 2041 9a8b 1341 c3d5 d440
00000010: bc2b b040 5ece cd40 e308 1541 9ad4 1241
5.413516 10.029811 9.221582 6.651094 5.5053387 6.4314413 9.31467 9.176905

bias f4 [8]
00000000: e326 233e e247 b0bc 5f9b e7be 0941 15bf
00000010: eec4 0ebd 080c 07bf a95f 7f3d d22e abbe
0.15932803 -0.021518651 -0.45235726 -0.5830236 -0.034855776 -0.52752733 0.062347088 -0.3343416

running_mean f4 [8]
00000000: 1677 483f dce8 a841 dfd9 d33f 9328 33c0
00000010: 1869 9740 4df6 e3c1 1cc9 8141 508d 8ac1
0.7830671 21.1137 1.6550864 -2.7993515 4.731579 -28.495264 16.223198 -17.319

running_var f4 [8]
00000000: 791e ca41 1a4f 4f42 1e3b a641 e6c7 3d42
00000010: c64f b541 dd19 7d42 0574 c841 3a26 5742
25.26488 51.827248 20.778866 47.445213 22.663952 63.275257 25.05665 53.78733

weight f4 [16, 1, 22, 1]
00000000: cb52 07be fd92 69be 2c19 a3bd 35f1 1dbe
00000010: 358c 1e3d 016d d73d d830 5abe 100f a43e
00000020: 9a94 25bd 4ce4 c8be 5d5b 083e 054d f63c
00000030: 7889 c9bd 032f 163f 77c3 993e cbfe 73be
00000040: 376e b3bd dc14 9c3d bd64 073d ae3c f63b
00000050: 003e 0d3e 3a5e 34be 75f2 2fbe af86 b13d
00000060: 398d 203c b605 97be 49c5 87be dd4b 9ebe
00000070: a08f 703d b975 4e3e 8ab0 ef3d 23f9 a6be
00000080: 1e86 163a 4dfc a83e 8512 f43d 6ab7 22be
00000090: 14c2 13be 259b 253e 5fed 3e3e 192f 063f
000000a0: 3ec6 c4bd ab88 1f3d ebe0 3e3d f712 2bbe
000000b0: 4b66 4fbd 1ecf 51be 16de d1bc 8479 0f3d
000000c0: 1278 453e ad66 6d3e cfee fcbd f72a 5dbd
000000d0: d53d 17bd b2bc e63d 064c 193e 9148 71bd
000000e0: f577 a7be ff40 8a3e 21c3 413e 6b42 8a3d
000000f0: f0ba 6dbd 50b9 71be 75da 063e 6247 4c3a
00000100: 5696 57be be3a 2ebf 88ed 06be 6cf1 af3e
00000110: ae5b 95bd 1e54 37be bc50 473d 0a7f 61ba
00000120: b05d 6f3c 99d8 a63e 5729 34bd d122 70be
00000130: 0210 803d d18b de3e 9fa8 6b3e c258 0e3d
00000140: 5af3 91be 69db abbe 414b 11bd 74cc 2d3e
00000150: 3b4a 4ebd 5ad5 26be d705 0abe 066d c13e
00000160: a62d 19be 29d2 0fbe ee7b cfbd a095 083c
00000170: 3c53 943e 79b6 b23e cce9 efbd 847f 81bc
00000180: 329e aabe f470 d7bc 65cf d13d e3de 833d
00000190: 3df7 0bbe 1941 a63e 2c52 08bd f662 8dbe
000001a0: a9ed 2bbe a700 7dbe 7717 c13e 5dcf 2abc
000001b0: 8ca5 09be b52d c63e f6af 713d c670 c83c
000001c0: a23a 56bd d209 813d d1e5 f73d ba47 743e
000001d0: 850a 53bd ab71 103e 304f 2fbe 134a 99be
000001e0: 3cc7 8b3d 5885 b83d 0771 0b3e 465b 9d3e
000001f0: b613 b53c 15b9 39bf 4349 20be 79d8 ce3d
00000200: f002 993d 79b8 64be a448 3e3b 3752 373e
00000210: 3e2e cd3d 76e5 40be c1f7 fbbc 7b65 c93d
00000220: d544 7e3e 7036 ab3e a04e 88bd 7476 ac3c
00000230: a1e1 42be 34a9 f8bc a5aa 0a3e 5f3b 37bc
00000240: c710 a2be 9804 633e 38e1 acbc 04f0 bbbe
00000250: 04d5 ccbe 3349 3abe b8d6 b53e c28d 7c3e
00000260: cd67 1dbe 395d 153e f1bd 1cbe 4ea2 953e
00000270: 78f8 a53d 000c 96bd 181f 233d 3262 16be
00000280: c9fb 183e 6c2f 8f3e 3948 3f3e 15d5 05be
00000290: b8a6 8fbd b087 133e 970f 17be 9cd1 4f3e
000002a0: 7386 3b3e e3ac 2dbd bc6b f23c fad5 a73d
000002b0: 2ed3 8dbe b73b eebe 1273 2cbe 1f37 febe
000002c0: 551e 3b3e e4c8 d4bd bc99 6f3e 3fd7 9a3e
000002d0: f48d 553e b6ad 8b3e bbf2 6e3d 4ddb b5bd
000002e0: f45d a13b a436 a5bd 256b 323d 6784 d9bd
000002f0: 3208 e9bc e6ed 42bd bed3 293d 2896 c33e
00000300: c0e6 0a3c 4a53 83be 37d1 af3e f1e8 bd3e
00000310: 0294 c53e aab5 453e 6229 6ebd 3aa7 573e
00000320: fc47 91bc 86ab 51be 65eb 81bd e24a 9abd
00000330: dacd 3b3e a19d c23e 43fa b8bd 0853 a9be
00000340: 2a6b e9bd f26f cf3d 91ee 113e afb8 593e
00000350: 89a1 67be 490a 89be ea42 abbd cea2 773c
00000360: d28e d03d 6d76 83bd 95bd 8e3d f5eb 1a3f
00000370: 843a 3ebe c01f d9be 49ac 1abf d31e 2bbe
00000380: c410 fc3c cf91 383e 538e 45be 5460 ffbd
00000390: 2d7d 01be b2e4 f5bc b743 1b3e 5acc 863e
000003a0: a7e0 f73d fa57 36bd 77a4 57bd 6188 703d
000003b0: e39a 0a3e 7ffa 913d 945f b2bd f151 e0bd
000003c0: 5c0f 04be 2113 9ebe f6a5 193c a8cf 82be
000003d0: 5ea7 97bd bb71 053e e1fc 8b3e 51f0 b73e
000003e0: 44ae 9abd aa82 47be 2ace 73be cf46 333e
000003f0: cfd2 133e bcf4 03bc fb99 49be ecc4 8b3d
-0.13215177 -0.22809978 -0.079637855 -0.15424044 0.03870793 0.10518838 -0.21307695 0.32042742
-0.04042492 -0.39236677 0.13316102 0.030066023 -0.09840673 0.58665484 0.3003194 -0.23827665
-0.08761256 0.07621166 0.033055056 0.007514558 0.13793182 -0.1761407 -0.17182334 0.08668267
0.009799295 -0.29496545 -0.26517704 -0.30917254 0.05873072 0.20162095 0.11703594 -0.3261195
0.0005742031 0.3300499 0.11917595 -0.1589028 -0.14429504 0.16172464 0.18645237 0.52415615
-0.09608124 0.038948696 0.046601217 -0.16706453 -0.050634664 -0.20489165 -0.025618594 0.035027996
0.19284084 0.23183699 -0.123502366 -0.053996053 -0.036924202 0.112664595 0.14970407 -0.058907095
-0.32708707 0.27002713 0.18922092 0.067509495 -0.058039606 -0.23605847 0.13169272 0.0007792619
-0.21053442 -0.68058383 -0.13176548 0.34363878 -0.07292877 -0.17903182 0.04866098 -0.0008601999
0.014609739 0.32587126 -0.043984737 -0.23450781 0.06253053 0.43466046 0.23013543 0.034752615
-0.28505975 -0.33565834 -0.03547216 0.16972524 -0.05036376 -0.16292325 -0.1347879 0.3777849
-0.1495882 -0.14045013 -0.101310596 0.008336455 0.28969753 0.3490484 -0.11714515 -0.015807875
-0.33323818 -0.026298977 0.102446355 0.06438997 -0.13668533 0.3247154 -0.03328149 -0.27614564
-0.16789879 -0.2470728 0.37713215 -0.010425416 -0.13442057 0.38706747 0.0590057 0.024467837
-0.05230201 0.06300701 0.12104381 0.23855487 -0.051523704 0.14105861 -0.17120051 -0.29939327
0.0682511 0.09009808 0.13617335 0.307337 0.022104125 -0.7254804 -0.15652947 0.10099883
0.074712634 -0.22335996 0.0029034996 0.17902456 0.100185856 -0.18837532 -0.030757787 0.09833809
0.24830945 0.3343997 -0.066556215 0.021052577 -0.19031383 -0.03035412 0.13541658 -0.011183589
-0.31653425 0.22169721 -0.021103486 -0.36706555 -0.40006268 -0.18191986 0.3551538 0.24663451
-0.15371628 0.14586343 -0.15306832 0.2922539 0.08104032 -0.073265076 0.039824575 -0.14685896
0.14939798 0.27965868 0.18679895 -0.13069566 -0.07014221 0.1440723 -0.14752041 0.20294803
0.18313007 -0.042401206 0.029592387 0.0819511 -0.2770018 -0.46529934 -0.16840771 -0.4965143
0.1827329 -0.10389879 0.23398489 0.30242345 0.20854932 0.27280968 0.058336955 -0.08879719
0.00492453 -0.080670625 0.043559212 -0.10620957 -0.02844629 -0.04759016 0.0414617 0.38200498
0.008477867 -0.25649482 0.34339306 0.37091783 0.38589483 0.1930758 -0.058144934 0.21059886
-0.01773452 -0.20475587 -0.06343726 -0.07533814 0.18340245 0.38010886 -0.09032109 -0.3307116
-0.11397393 0.10128774 0.14251162 0.21261857 -0.22620215 -0.2676566 -0.08362372 0.015114499
0.10183491 -0.06419072 0.06969754 0.6051629 -0.1857701 -0.42407036 -0.60419136 -0.16710977
0.030769713 0.18024372 -0.19292574 -0.12469545 -0.12645407 -0.030016277 0.1516255 0.26327783
0.12103396 -0.044517495 -0.05264708 0.05872381 0.13535647 0.071278565 -0.08709636 -0.10953129
-0.12896484 -0.3087397 0.009377947 -0.25549054 -0.0740497 0.13031666 0.2734137 0.35925534
-0.0755277 -0.19483438 -0.23809114 0.1750748 0.14435886 -0.008053955 -0.19687645 0.06824669

weight f4 [16]
00000000: cc46 a440 7e42 cd40 d326 a43f a8ae c43f
00000010: a032 4340 adc5 4240 65ff 8c40 c59d ee40
00000020: 5e38 6f40 6979 5440 dbd5 f63f 53c8 0240
00000030: fa24 a140 67f8 9d3f 8683 fc3f 64ca 0640
5.133642 6.4143667 1.2824348 1.5365801 3.049965 3.0433152 4.406176 7.456759
3.7378154 3.3199103 1.9284014 2.0434768 5.0357637 1.2341431 1.9727638 2.106103

bias f4 [16]
00000000: b459 38c0 65c4 6bc0 59f3 f53d c4df ffbe
00000010: 23cd 4dbf eac9 75bf 3238 10c0 dba4 9cbf
00000020: f49b c2bf baa0 87bf eebe bcbe 43d7 473f
00000030: 5da3 37c0 9840 943e 5ce7 bbbe c4b9 88bf
-2.880475 -3.683862 0.120093055 -0.49975407 -0.8039114 -0.9601122 -2.25343 -1.223781
-1.5203843 -1.0595925 -0.36864418 0.7806284 -2.869346 0.2895553 -0.3669995 -1.0681691

running_mean f4 [16]
00000000: 9d8e 023d 21d0 2b3c aab3 b23e 2e3b 2fbd
00000010: 2364 fa3c ddaa f33d 8fc9 73bd 527d c13e
00000020: 9f47 a1bd ef73 1a3d 62aa 013e 2898 2cbe
00000030: d621 c23f 979f 993e 48b1 7d3f 6920 b5be
0.031874288 0.0104866335 0.34902698 -0.042781048 0.030565327 0.11897824 -0.059518393 0.37790924
-0.07874989 0.03770822 0.12662652 -0.16854918 1.5166576 0.3000457 0.99098635 -0.3537629

running_var f4 [16]
00000000: 4079 7241 2956 9241 95fa 6642 ec71 e941
00000010: 336f dc41 3763 d141 0f10 e540 082d fe41
00000020: 0919 1743 b23b 3641 0063 d042 3ed6 3e41
00000030: a0d6 9f43 a62e 1a42 96c8 a241 09ae 1142
15.154602 18.29207 57.74471 29.180626 27.554296 26.173445 7.1582103 31.771988
151.0978 11.389574 104.19336 11.927305 319.67676 38.545555 20.347942 36.419956

weight f4 [16, 1, 1, 32]
00000000: 6d55 d240 e5dd a740 8f3b ef3f 7f60 713f
00000010: 35c1 123f f068 bbbf 3e70 a73e 8836 cb3d
00000020: 80bd 473f be76 83bf 09f6 2540 3b94 b440
00000030: 49e6 9540 81a5 f540 2327 bc40 b068 c840
00000040: d424 2740 bd1e 7f40 4f96 e640 0a4c 7140
00000050: b858 a140 e38a 7d40 9f5e 0a40 42ef 573f
00000060: 39aa 9a3f 2be6 1dc0 2032 c5be 6987 21be
00000070: bb96 35c0 2b86 3340 b76d 0340 b2c2 4c3f
00000080: bbb6 92c0 7200 a4c0 0cfa b5c0 080c 14c1
00000090: 995d a1c0 25af a4c0 adb8 a3c0 3abe 17bf
000000a0: ba01 88c0 8dcb 9ec0 edda 1fc0 0536 2fc0
000000b0: 9d2e 3dbf eb43 8abf d965 b7c0 0a2d 6c3f
000000c0: f7ba 29bf e07f edbf b843 3b40 280b 44c0
000000d0: 4553 353f f3fd 313f 87c3 99bf 5f5d d03f
000000e0: 7c70 5cc0 a9e2 4c3f 7d7a 3040 f0fe 7ec0
000000f0: e2ed 113f 54f1 83bf dafd c9bf 0304 44c0
00000100: 08cc 063e 25a0 ac3e ea92 123f 86ce 4a3f
00000110: ef27 8a3f ddcd 9fbe 55b5 d5bf 7cf9 9abc
00000120: e753 5c40 100c b840 480b c540 0e47 ab40
00000130: 562e 2940 dce3 2a40 a353 a43f 7e89 3040
00000140: 288f 2540 09fa c83f 6764 7e3e 47ea 0fc0
00000150: f123 5cc0 4175 58c0 c9d9 3fc0 8dff 9ebd
00000160: 1db8 a13f 7153 483f 0379 1a40 6c54 2dbf
00000170: 7a14 6ebf 3fd9 21c0 f337 4ac0 dc71 acc0
00000180: 42dc d8be f5f2 0cc0 0911 9fc0 f0fc d7c0
00000190: cf56 d3c0 3681 87c0 8a3e 32c0 33c2 f1bf
000001a0: 9772 93c0 4236 b3c0 ac0d 45c0 8054 04bf
000001b0: e76e eb3f cb7b 0d3f 5c2a d13e dd39 20c0
000001c0: bc4a 64c0 6d27 16c0 460d 9bbe 0f36 343f
000001d0: 1843 0740 4215 4440 a19a 3040 a05a 9e3f
000001e0: 1c54 d93e cf86 dcbd b21b 0dc0 dae9 c13e
000001f0: bef4 bd3f 0112 0f40 6fff 6640 8c87 8340
00000200: 920a c4c0 a323 50c0 1615 40bf 9f68 b63f
00000210: 403c 0e40 030d 203e e803 cebf 6772 93bf
00000220: 55b1 0d3b bd53 1ac0 648d 89c0 08de c6c0
00000230: 139c e2c0 abaa 24c0 27b9 cfbf 1d9b 6dbf
00000240: e2ba 913f d21c 2840 f3f9 93bd 8d94 2340
00000250: e27c 8740 36a0 1abf 6d81 b73f e6e4 4740
00000260: b60b 9e3e 4565 9bbf b741 45bd 6d9c 353f
00000270: 46c0 58be f3ab 2e3f bc9b 9dbe 0b5b 8d3f
00000280: 9710 4440 fc14 8640 e4b7 8640 5ba5 b340
00000290: 95d3 0841 eb68 b940 3776 7440 3ceb 4140
000002a0: eb1e 4f40 4938 2040 0b65 4040 7cf2 f73d
000002b0: 83e4 f5bf ecc6 d2bd b65f 6d3e d470 f73f
000002c0: d681 a940 310b 2740 0151 1ebf 6e65 86bc
000002d0: 7591 87bf 6eb0 14c0 90bb 35c0 df34 da3d
000002e0: 4268 893f dc44 a53e b4c0 df3d 63d9 8d3d
000002f0: 0adc ddbf 1048 b5c0 f865 c0c0 b80e adc0
00000300: 6620 02c1 1273 4cc0 37c0 1a40 b802 a740
00000310: e792 b040 3930 0840 1d18 863e a9f4 37bf
00000320: b208 4a3f 1d48 0e3e 2d82 47c0 a2ff 2cc0
00000330: 8020 1ec0 f406 71c0 cf4d a7c0 2a41 2dc0
00000340: 0c2a c1bf 3e63 a2bf 742e da3f 17c6 863f
00000350: 0f8b 07c0 3c56 4ac0 c330 96bf e9fc 90bf
00000360: 90bf 98bf 6c3d e1bf a318 edbf 9f8b 0ebf
00000370: 89e3 313f 6a77 dfbf b378 dfbf 9b3a 7bbf
00000380: bb37 8040 80cb acc0 99b8 b0c0 e2de 0240
00000390: 10c6 8640 e5c7 9d40 a48e 9e40 7767 cb3e
000003a0: 7f08 78c0 ceb2 b8c0 543a b3c0 5aaf c93f
000003b0: 1e2b 8640 4352 b540 f44f 7b40 f99a 4fbe
000003c0: bf12 96c0 f9b2 e6c0 a09c e1bf 464a 2a40
000003d0: 5666 b740 ff7c 6a40 49c4 a73f 7b2c 37c0
000003e0: 076f bcbf ffba ffbf 9d12 bebe 9ffd 5b3f
000003f0: 1582 943e edb6 b140 3f1e 0b40 2cf0 a1c0
6.572928 5.2458367 1.8690051 0.94287866 0.5732606 -1.4641399 0.32702821 0.099225104
0.7802353 -1.0270612 2.5931418 5.6430945 4.684361 7.676453 5.8797774 6.262779
2.6116228 3.986251 7.205848 3.770266 5.04208 3.961602 2.1620252 0.84349453
1.2083198 -2.4671733 -0.38514805 -0.15774311 -2.8373249 2.805064 2.0535715 0.7998458
-4.584806 -5.1250544 -5.6867733 -9.252937 -5.0426755 -5.14638 -5.1162934 -0.5927464
-4.250211 -4.9623475 -2.4977372 -2.737672 -0.7389925 -1.0801977 -5.7311826 0.92256224
-0.6630091 -1.8554649 2.9260082 -3.063181 0.70830184 0.6952812 -1.2012795 1.6278495
-3.4443655 0.80033356 2.757476 -3.9843102 0.57003605 -1.0308022 -1.5780594 -3.0627449
0.13163769 0.3371593 0.57255423 0.7922138 1.0793437 -0.3121175 -1.6695963 -0.018917792
3.442621 5.7514725 6.157627 5.3524237 2.6434531 2.6701574 1.2838024 2.7583919
2.5868626 1.5701305 0.24842988 -2.2486742 -3.4396937 -3.3821566 -2.9976676 -0.07763586
1.2634312 0.7825232 2.413636 -0.6770694 -0.92999995 -2.5288846 -3.1596649 -5.388899
-0.42355543 -2.202329 -4.9708295 -6.749626 -6.6043468 -4.234523 -2.785067 -1.888739
-4.607738 -5.6003733 -3.0789595 -0.51691437 1.839322 0.5526702 0.4085263 -2.5035317
-3.5670614 -2.3461564 -0.30283564 0.70394987 2.11347 3.0637975 2.7594378 1.2371407
0.42446983 -0.107679 -2.2048154 0.37873727 1.4840314 2.2354739 3.6093404 4.1102962
-6.1262903 -3.252175 -0.75032175 1.4250678 2.2224274 0.15629964 -1.6094942 -1.1519288
0.002162059 -2.411361 -4.2985096 -6.2146034 -7.081552 -2.5729167 -1.6228379 -0.9281481
1.1385157 2.626759 -0.072254084 2.5559418 4.2339945 -0.6040071 1.4336373 3.1233459
0.3086831 -1.214028 -0.048158374 0.7094181 -0.21167096 0.68231124 -0.30782878 1.1043409
3.0635126 4.1900616 4.2099476 5.613935 8.551656 5.7940574 3.8197153 3.0299826
3.236262 2.5034354 3.0061672 0.12106797 -1.9210361 -0.102918476 0.23181042 1.9331307
5.297099 2.610058 -0.6184235 -0.016405787 -1.0591265 -2.3232684 -2.839573 0.106546156
1.0734942 0.32279098 0.10925427 0.06926229 -1.7332776 -5.6650467 -6.0124474 -5.4080467
-8.13291 -3.1945233 2.4179819 5.219082 5.5179324 2.1279433 0.26190272 -0.71857697
0.7891952 0.13894697 -3.1173203 -2.7031026 -2.4707336 -3.7660494 -5.228248 -2.7071023
-1.5090957 -1.2686536 1.7045426 1.0529202 -2.1178625 -3.1615133 -1.1733631 -1.1327182
-1.193346 -1.759687 -1.8523144 -0.55681795 0.69487816 -1.7458317 -1.745871 -0.981363
4.006803 -5.3998413 -5.522534 2.0448537 4.2116776 4.930651 4.954912 0.39727375
-3.8755186 -5.7718267 -5.60087 1.5756638 4.1927633 5.6662917 3.926755 -0.20273961
-4.6897883 -7.2093472 -1.7625923 2.6607833 5.731242 3.6638792 1.3106776 -2.8620899
-1.4721383 -1.9978942 -0.37123576 0.8593387 0.29005495 5.55358 2.173721 -5.060568

weight f4 [16, 16, 1, 1]
00000000: 8bd1 5fbe b0f0 8e3f 3f8f 8040 c401 3140
00000010: 28bd b8bf 092c 63c0 e958 99c0 e6f5 5340
00000020: 1dc3 8e3f 22ba 0840 25d4 bb3f 1c8f b8c0
00000030: dbcc 57c0 888c 4f40 036b 2940 182f 3240
00000040: c138 fc3e 46aa 793f ad56 983f 3c4f cc40
00000050: f32e 0fc0 c0aa 5740 d73a c140 a8e2 14c0
00000060: 1588 5fc0 05db 0040 4a3f 5e40 37da acbf
00000070: efe4 dec0 6fce 1e3f 6a3c 1040 f7e1 8c40
00000080: 9df3 1fbf 4d9f 11bf 7267 2940 528e a83f
00000090: 8b2b 18bf e36c 7140 c955 49bf 68e4 79c0
000000a0: 0273 713f add6 20bf eef1 f9c0 ad2a 99c0
000000b0: f4d4 913f e8be 4340 b067 afbf 91be b7c0
000000c0: 296c df3f 716f 2f3f 3302 8640 ba94 9440
000000d0: 85a5 14c0 758f 323f f22b f03f 6261 90c0
000000e0: 9403 d63f 8223 c93f 2748 a23f 271b 0cc0
000000f0: 7e51 f4bf 17df bc40 cda5 9440 abaa 7440
00000100: 2f53 a3bf d4d2 12bf ae45 8a40 b11b a040
00000110: e379 babf d56a 4bc0 a72d 0040 697e 3040
00000120: e346 4740 bfe1 a140 0a81 c63f 6878 28c0
00000130: 7583 93c0 9660 dc3f 419f 1840 1364 3640
00000140: 52d8 be40 fa50 1041 5e55 1fc0 94b1 223e
00000150: 190f 653e 63bf 7c3f a5ad 25c0 d738 f93f
00000160: a369 13c0 32a4 b3be 9230 85bf 0201 803f
00000170: d8be 043e 8e63 d5bf 33dd ba3e 87df 4ec0
00000180: 04f7 873f 248b c0bf 557b dd3f 3ea4 2a40
00000190: 7f5f 94be d4d8 7ec0 c780 5640 574f 5dc0
000001a0: beda 8840 475c 9d3f d5b4 d2bf a321 a840
000001b0: 5ecd f73f 1dcb 4cc0 0da7 7640 04a8 2ec0
000001c0: ccb8 b9bf 1e8b d740 695f 583f 5fe3 f73f
000001d0: 781c 28c0 e801 3b40 f81f 51c0 c97b ad40
000001e0: 58df ecbf 93d9 47bf 2c9e b9bf e726 c7be
000001f0: 6ec9 8fbf 7341 1e40 a4ac c63f 25bd 3bbd
00000200: eb23 863e 35e0 293f cf19 a03f fb24 963f
00000210: 22a5 a240 554f 9cc0 96d8 8fc0 6713 5940
00000220: 6d1f eebf 996d 6040 ba12 23bf 98b5 1040
00000230: 3361 6dc0 98f0 9140 4cda aebf 8597 0a3f
00000240: 4163 8d40 ceca 93c0 7c70 d1bf a6f5 bbbd
00000250: a4b7 b640 ec6e 89bf f90a c63e 3972 9d40
00000260: bb06 ec3f ece4 2b40 6b40 953f fbb6 ac40
00000270: c37e e9be 76b4 07bf 3e50 33c0 c057 4ec0
00000280: 9664 dfc0 1e43 c3bf 6604 13c0 1583 623d
00000290: 9ecd d4bf 97f6 ad40 2d43 11bf 66fc 0dc0
000002a0: df57 a5bf 0f44 88bf 9609 ba3c 0130 e43e
000002b0: d33a ab3c 2790 eb3e bd39 183f 3fb7 f9be
000002c0: c2f0 c33d 97cc 5a40 a648 2fc0 12e0 b1bf
000002d0: 23ac 99c0 ac80 2740 d7f6 3540 8fdb 80c0
000002e0: 776a 37c0 745f 7fc0 96f6 363f 7169 4ec0
000002f0: 7d1e a1bd 6103 adc0 dcdc 5940 cb54 683f
00000300: 3409 d5bf aa57 99bf 5ca3 3b40 9988 33c0
00000310: 7085 17c0 4ead 0fc0 c50c b7bf ba7b 81c0
00000320: c9bc 81be d8f4 5840 9905 be3f b812 75bd
00000330: 71da 8fbf b6a5 66c0 38ab b1c0 e6c2 5b40
00000340: 00f0 8bbe e220 05bf 8922 8640 da7f 9fbe
00000350: 6ca8 b53f 3a96 85c0 5cee 6340 435b 8440
00000360: e6a9 4d40 4504 18c0 3416 65bf a29d d73f
00000370: 786a cc3f 6569 eebe 651a 823e 38f6 fabf
00000380: a68b d93f 9df4 4b40 736c f2be bfec 2040
00000390: 8d15 2940 dd5d dcbf d4bf 74c0 8bde b6c0
000003a0: 181b 2fc0 c08d 0240 cb39 e340 868a 5cbf
000003b0: 5168 a8c0 ec98 f63f 6ba0 923f 4f9a 973f
000003c0: 8183 48c0 43ef 11bf 400c cd3f 4e38 1540
000003d0: 1aa8 9fc0 82d9 7f3f 68e6 76c0 deb0 2840
000003e0: 6f36 33c0 9e09 9ebf 514c 7340 15b2 3c3e
000003f0: ed90 da3d b128 89c0 125f 0741 9cb5 b9be
-0.21857278 1.1167202 4.017486 2.7657328 -1.4432726 -3.5495627 -4.7921033 3.3118834
1.1153294 2.1363606 1.4674116 -5.7674694 -3.3718784 3.2429523 2.6471565 2.7841244
0.4926205 0.9752544 1.1901451 6.384672 -2.2372406 3.3697968 6.0384326 -2.326334
-3.4926808 2.013368 3.4726129 -1.3504094 -6.965446 0.6203374 2.2536874 4.4025836
-0.624811 -0.568837 2.6469388 1.3168433 -0.5944144 3.772271 -0.7864652 -3.9045658
0.94316113 -0.6282757 -7.8107824 -4.7864594 1.1393113 3.058527 -1.3703518 -5.7420125
1.7454883 0.6852942 4.1877685 4.643155 -2.3226025 0.6975015 1.8763411 -4.5118876
1.6719842 1.5713961 1.2678269 -2.1891572 -1.908737 5.9022326 4.6452394 3.8229167
-1.2759761 -0.5735295 4.321006 5.0033803 -1.4568447 -3.1783955 2.0027864 2.7577155
3.1137016 5.058807 1.550813 -2.632349 -4.609797 1.7216976 2.38472 2.849858
5.9639063 9.01977 -2.4895854 0.15888053 0.2236904 0.9872953 -2.5887234 1.9470471
-2.3033226 -0.3508621 -1.0405447 1.0000308 0.12963426 -1.6671007 0.36496887 -3.232393
1.0622258 -1.5042462 1.7303263 2.6662745 -0.28979108 -3.9819841 3.35161 -3.4579675
4.276702 1.2293786 -1.6461436 5.254106 1.9359548 -3.199897 3.853946 -2.7290049
-1.450952 6.735732 0.84520584 1.9366263 -2.6267376 2.9219913 -3.2675762 5.4213605
-1.8505659 -0.78066367 -1.4501395 -0.38896868 -1.1233346 2.4727447 1.5521436 -0.04583468
0.26199278 0.6635774 1.2507876 1.1730036 5.082658 -4.884684 -4.4951887 3.3918092
-1.860334 3.5066893 -0.6370045 2.2610836 -3.7090576 4.5606194 -1.3660369 0.5413745
4.418366 -4.6185064 -1.6362453 -0.09177713 5.709917 -1.0736976 0.38680246 4.920193
1.8439554 2.6858473 1.1660284 5.3973365 -0.45604524 -0.53009737 -2.8017726 -3.2241058
-6.9810286 -1.5254858 -2.2971435 0.05530079 -1.6625249 5.4363513 -0.5674313 -2.2185302
-1.2917441 -1.064577 0.022709649 0.44567874 0.020902073 0.46008417 0.594631 -0.48772618
0.09567405 3.4187372 -2.738809 -1.3896506 -4.802263 2.6172285 2.843191 -4.0268016
-2.865873 -3.990201 0.7147001 -3.2251856 -0.07867143 -5.4066625 3.4041052 0.90754384
-1.6643434 -1.1979878 2.9318457 -2.8052123 -2.3675194 -2.2449527 -1.4300772 -4.0463533
-0.25339344 3.389944 1.4845458 -0.059832305 -1.1238538 -3.6038642 -5.5521507 3.4337707
-0.27331543 -0.520033 4.1917157 -0.3115223 1.4192023 -4.174588 3.5614233 4.1361403
3.2134948 -2.3752606 -0.89487004 1.6844981 1.5969992 -0.46564785 0.25410762 -1.960639
1.6995742 3.186805 -0.47348365 2.5144498 2.6419404 -1.7216145 -3.8242083 -5.714666
-2.7360287 2.0399017 7.100805 -0.8614887 -5.262734 1.9265418 1.1455206 1.1843966
-3.1330264 -0.5700571 1.6019363 2.3315616 -4.98927 0.99941266 -3.857813 2.635795
-2.8001974 -1.2346685 3.801533 0.18427308 0.10672174 -4.286217 8.460711 -0.3627137

weight f4 [16]
00000000: 828d 883e 7bb9 ab3e ac30 a73e ffa6 12bf
00000010: 7230 833e d71d 353f 6fb6 713e 2b93 a8be
00000020: d12a b33e 9d5f 973e 6e35 6d3f fc18 cc3e
00000030: 81d3 a3be e2c3 bf3e 7673 de3e dd3d ee3e
0.26670462 0.33539948 0.3265432 -0.57286066 0.25622898 0.70748657 0.23604749 -0.3292478
0.34993604 0.29565135 0.9265965 0.39862812 -0.31997302 0.37454134 0.43447465 0.46531573

bias f4 [16]
00000000: 163f e5bc 4a87 2dbd 7d29 75bc 916e e1bd
00000010: 0bfb 043b 72e5 19be 5482 223b e7da 0e3d
00000020: c2d7 f0bc 2093 393d cc4f 5abe 4e82 a1bd
00000030: 8f77 f1bb 0072 1abd c976 2fbd eb0b 73bd
-0.027984183 -0.04236535 -0.014963505 -0.11007417 0.0020291235 -0.15028933 0.002479692 0.03487673
-0.029399756 0.045306325 -0.21319503 -0.07886182 -0.007368989 -0.037706375 -0.04283789 -0.059337538

running_mean f4 [16]
00000000: 4214 9142 9c7c 0fc2 1eb2 6242 d899 e441
00000010: 11eb b5c0 6448 bfc2 5275 83c2 c83e 52c2
00000020: 6701 82c2 f02c 8b42 652b 10c2 f918 b3c1
00000030: b5d3 58c2 3d4a 8740 3cf9 c5c2 8a85 b442
72.539566 -35.87169 56.673943 28.575119 -5.6849446 -95.64139 -65.72914 -52.56131
-65.00274 69.58777 -36.042377 -22.387194 -54.206745 4.2278123 -98.986786 90.26082

running_var f4 [16]
00000000: 83bb a548 15d6 8148 c4c7 9f48 842b d848
00000010: 7ffb 9048 4424 cf48 19d5 9d48 07fd 3549
00000020: f24b a648 c9c7 2049 4eba 6948 391c d248
00000030: 7fe0 9c48 548f a548 37ff 2649 4da9 6c48
339420.1 265904.66 327230.12 442716.12 296923.97 424226.12 323240.78 745424.44
340575.56 658556.56 239337.22 430305.78 321283.97 339066.62 684019.44 242341.2

weight f4 [4, 128]
00000000: 6f75 9ebe 56d1 d33d 0ab2 b03e 3984 733f
00000010: 845b 253f e06a 513e 59bd 723e 4cb4 10bf
00000020: 4192 b6bf b590 5f3f 5b68 353f c5f2 053e
00000030: 4960 6dbd dcd8 36be 5011 9abe d50a 253d
00000040: 0524 7ebe 5b18 983e 79c6 7cbe 4558 633d
00000050: 959e 023e 587e 0fbd 9ce3 823f e36d ee3d
00000060: 1f5e f43e 4ff5 e1be 6582 cfbe b84b 8cbe
00000070: 9542 3e3e e142 973e 31b5 93bb 93de 933e
00000080: 8bcb 6bbf 3c4d 1a3f c68c 9e3e 0e5e 953e
00000090: d628 debd 9e17 2dbf dd1d bbbe 78a7 a0be
000000a0: ecb5 123f 4822 b73e 0aa4 bf3e a529 3c3e
000000b0: 6bad 413e 3dda f53e 5aef a33e 0ffd 103f
000000c0: f767 683e e61d 8a3f 7b7a a93e 5d48 74bf
000000d0: 8dfe 36bf 24b0 5ebf cd4f 0bbf b4b8 50bf
000000e0: d539 493f 59fb 28bf 76d4 adbf 4628 34bf
000000f0: 0353 f4bc 06eb 343e 0e6c b4be 2633 79bf
00000100: 39a1 c03f e972 57bf dab2 a93d 4e0e 323e
00000110: bb28 ccbe 24dc 2c3c 8fd8 5c3e 178b 89bd
00000120: 86f9 c63f 974c 85bf d1f6 86bf adf9 08bf
00000130: e1fb 0dbe 0b99 65be 733d a1be da49 d23d
00000140: 713f 00bf be2f 8fbe 6682 30bd 5fc5 01be
00000150: f0ea c9bd 0bb3 36be f714 03bd 9bd7 653e
00000160: 7e6c cbbf a59c 863f 72fa 563f 2ce3 1a3e
00000170: a071 eb3e 55f5 703e b722 e1bd 3342 18bd
00000180: 178a debd 5399 0f3f 3b9b e03d 3528 b53e
00000190: 6717 043f ef3f 89be 07ca 03bf 5d54 e93e
000001a0: c5a6 37bf ad57 6c3e 8629 49bb 543c ab3c
000001b0: 099b 49be cb98 0abf 8ad2 6cbf 7b14 01be
000001c0: f2c0 383e b425 efbd 8703 443e be70 913e
000001d0: bf2e 04be 2752 373f c54c 7c3e 8380 5d3e
000001e0: c109 093d 8f43 443f d44c be3e 69b4 b73e
000001f0: a2ec 143e cb56 09bc 2faa 803c 9010 a2be
00000200: 1b2d 1f3f 5aec 173e 6dda c23e 9e14 a33e
00000210: 4de4 63bf 85b8 123e 5635 e53d 35b6 f0ba
00000220: e8d8 56bf 6d15 18be d4e1 d73e 721e 4c3f
00000230: 0566 773e 15a7 eabe 0420 20bb 34fd 1fbe
00000240: 4fc1 153f 1296 7d3e 8a99 a93e a794 1ebf
00000250: fa7c a7be 35ba febe 1fad ec3d 6fcc 953f
00000260: 637e cd3d 1c26 9c3e ef61 f43d f785 44bd
00000270: 4853 cdbd 4dfc a63d 1af3 563e 7c89 aebd
00000280: 3ec2 393f 996c 8f3e 4d1d 193f 15a5 ca3e
00000290: 0e84 e9be 055e ceba b83b 893e 28d0 5dbc
000002a0: 7f60 6bbf aac4 0ebf bf8a 01bf 241d 86be
000002b0: 0451 24be 1f22 1ebe 1864 a1bd d82c 61bd
000002c0: 9de0 ca3d be16 6cbf 01a6 55bf 1421 62be
000002d0: 866d 173e 4a22 b23e 54ac c63d 88fa cb3e
000002e0: e41c e5be 28ad ac3e 3730 9b3e d5c7 2a3e
000002f0: 1fc9 3b3d 7d59 9c3d 3acc 0abe 9efe 4f3e
00000300: 1536 d43d 09ea de3e b311 c63d 57f9 463e
00000310: 73f1 d9be e3f6 fdbc dae3 f73d e5a6 59be
00000320: 4514 19bf e05a 3abe 5f8e 69bd 47ae 493e
00000330: 49a6 273e e65a d43d 5a0e c93d 9b46 8d3d
00000340: 7b5d 873e 996e 033f 2f41 4a3e 50f2 433e
00000350: dfc4 d43e 21e3 d73d 9c1c 833e 36b7 663e
00000360: f451 78be 27f6 babe e60f 0abd 3e24 363d
00000370: 2b44 24bd f3da 05be 61cf cc3d b957 52bd
00000380: 9237 39be 949c c9bf 5b8d 143e e449 c6be
00000390: d3c0 fb3d 2d03 a13e 74b9 3e3f 6ed6 8c3f
000003a0: f0ab ac3f 90b9 85bf 149e e6bc dc16 1dbf
000003b0: cb03 8bbe 58f3 9b3e 3c53 273f 28b5 2fbf
000003c0: bc3a 5ebf 132a 58be 4af0 193f 2e77 393f
000003d0: 9703 8bbe 236d 8fbe 604f d6be dbe7 c5bd
000003e0: ba05 7d3e 1ada 8fbe 35d9 56be add3 e43c
000003f0: 0a35 d23e 5814 113f 588c 7c3e 8155 1e3f
-0.3094897 0.10342662 0.34510833 0.9512363 0.64592767 0.20450926 0.23705043 -0.5652511
-1.4263383 0.8733018 0.7086236 0.1308089 -0.057953153 -0.17856163 -0.30091333 0.040293533
-0.24818428 0.29706082 -0.24685086 0.055504102 0.12755807 -0.0350326 1.0225711 0.11642053
0.4772806 -0.44132468 -0.4052917 -0.2740152 0.18580087 0.29543212 -0.0045076837 0.28880748
-0.92107457 0.602741 0.30966777 0.2917332 -0.108476326 -0.6761416 -0.3654622 -0.3137777
0.5730884 0.35768342 0.3742984 0.18375261 0.1891381 0.48018065 0.32018548 0.56636137
0.2269591 1.0790374 0.33101258 -0.9542292 -0.71482164 -0.8698752 -0.5441864 -0.81531835
0.7860387 -0.66008526 -1.3580463 -0.7037395 -0.02982474 0.1766778 -0.3523869 -0.9734367
1.5049201 -0.84159714 0.08286066 0.1738827 -0.39874825 0.0105505325 0.21566986 -0.067159824
1.5544899 -1.0413998 -1.0544072 -0.53505975 -0.13865615 -0.22421663 -0.31492195 0.10267992
-0.50096804 -0.27966112 -0.043093108 -0.12672947 -0.09859264 -0.17841737 -0.032002416 0.22445528
-1.5892484 1.0516554 0.839759 0.15125722 0.45985126 0.23531087 -0.109929495 -0.037172507
-0.10866182 0.5609333 0.10967108 0.35382238 0.5159821 -0.2680659 -0.51480144 0.45572177
-0.71738845 0.2308032 -0.0030694916 0.02090279 -0.19688047 -0.54139394 -0.9250876 -0.12605469
0.18042353 -0.11677113 0.1914197 0.28406328 -0.12908457 0.7160973 0.2463866 0.21631055
0.033456568 0.76665586 0.3716799 0.3587983 0.14543393 -0.008382509 0.01570615 -0.3165326
0.621782 0.14836255 0.3805727 0.31851667 -0.89020234 0.14328201 0.11191814 -0.0018364849
-0.8392472 -0.14851923 0.4216448 0.79733956 0.24160011 -0.45830598 -0.0024433145 -0.15623933
0.5849809 0.24764279 0.33124954 -0.61945575 -0.32712537 -0.4975144 0.11556458 1.1703013
0.10033872 0.30497825 0.11932742 -0.04797932 -0.1002565 0.08153591 0.20991173 -0.08522317
0.72562015 0.2801254 0.59810334 0.39579073 -0.45608562 -0.0015744573 0.26803374 -0.013538398
-0.91944116 -0.55768836 -0.50602335 -0.26194108 -0.1604653 -0.15442704 -0.078804195 -0.054974407
0.09906123 -0.922222 -0.83456427 -0.22082931 0.14787874 0.34791785 0.09700838 0.39839578
-0.44748604 0.33725858 0.30310223 0.16677792 0.0458461 0.07634256 -0.13554469 0.20311972
0.10361878 0.4353793 0.096713446 0.19431053 -0.42567024 -0.031001514 0.12104006 -0.21255071
-0.59796554 -0.18198729 -0.05702054 0.19695388 0.16372027 0.103689 0.098171905 0.068982325
0.26438507 0.51340634 0.19751428 0.19135404 0.4155645 0.10541368 0.25607765 0.22530827
-0.24250013 -0.36515924 -0.03370657 0.044468157 -0.040104073 -0.13071804 0.10000492 -0.05135319
-0.18087605 -1.5750909 0.14507048 -0.3872825 0.12292638 0.31447735 0.7450173 1.1002939
1.3489971 -1.0447254 -0.02815155 -0.61363006 -0.2715133 0.30459094 0.6536138 -0.686358
-0.8680837 -0.211098 0.60132277 0.7244748 -0.27151176 -0.28012952 -0.41857433 -0.096633635
0.24709216 -0.28096086 -0.20981295 0.027932966 0.4105609 0.5667167 0.24662912 0.6184922
