histories_pre/Transformer_ATCNet_BcicIv2a_pt/78.44%_slf=050_bs=008_lr=0.0064_ld=0.999931_nl=2_nh=8_fd=512_do=0.45412249593533854/best_valid_loss.pt (torch, 266119 bytes, 29 tensors)

positional_encoding f4 [1, 257, 24]
00000000: 371a c5bf 356d 79bd a0a0 6dbf 3d2c d8be
00000010: 8cdf 0fbe a9a1 043e e22d 853c 1337 61bf
00000020: c9fc b73f 967e a9bf f233 c0be d2f6 743f
00000030: 2b12 71be b038 b33f 2fbe d53c b458 5e3c
00000040: 5733 b3be 63bd a2bf 0888 683e 4339 923e
00000050: 5edc a4be fe6a 56bf 16da d2be 058a ec3e
00000060: 06fd bf3e 0c0d 583e d515 15bf d648 403f
00000070: 6059 a9be 61dd 0e3f 765a 8a3f 4d3a e8be
00000080: 77b3 14be b226 693f 234d d1bd 6802 cebe
00000090: d299 31bf 0b0b 00bd a100 c73c 7fa0 653b
000000a0: 96bb 14bf 7d2f 253f 680e 53bf c320 893f
000000b0: a479 643e 91b5 1340 64ce 96bf f8be b3be
000000c0: 4bea 9dbf a62c eebe 32b6 73be 7672 973f
000000d0: 6b3b 07bd 18c9 8abe f84c ed3f 8e2f 12bf
000000e0: d9f4 2e3f 3691 303f 36ae 903f 0327 c63f
000000f0: 5e41 ba3d ff6a 19bf f2cc 1b3d f733 f23e
00000100: e236 8fbe f1b6 083f 395a 553f 2335 bb3f
00000110: de13 32be 4f46 333f ed2b 80be 5289 003f
00000120: 0ab9 85bd bc53 0d3e 6462 c63d 0dd1 6d3f
00000130: 18d4 2cbf a9aa 623f c07e 263f 8fbc b6bd
00000140: c773 4abf 5c7c 1b3f 776d 3bbf 5369 63be
00000150: 80bc 34be d449 5cbf 9933 613f 66a2 093e
00000160: 4e89 6bbf 00af 6e3e 71b5 67bf 68d3 933e
00000170: 5111 65bf 399d 52bf 1ec5 cd3c 4a46 703f
00000180: 9b0b 1e3f 0aab 50bf 8990 12bf a5be 12bf
00000190: ced9 95bf f855 8dbf 8541 a1be e78e dc3e
000001a0: c90a 0dbe c722 c5bc b5f4 d63e 03b5 8e3e
000001b0: 094f 03bf cffb 1cbf b811 31bf a567 8cbe
000001c0: a3c1 03bf 8b4f 3fbf 8d90 3b3f 28c9 e43e
000001d0: 4eec fa3e bd3d 8f3d 4e81 a1be a9f9 6fbe
000001e0: 9cf7 3abe b018 94be ef86 9f3f 813a ef3d
000001f0: 1fde 65bf 7bf1 223f 474a 433f f15e 7f3f
00000200: aa88 babe 84c2 9b3e a4a9 943e cf0a 56bd
00000210: 633b a9be cc47 223f 9b51 8b3f 6a73 2bbf
00000220: f611 b4be 6a47 0c3e 1070 23bf 91c6 7d3e
00000230: b8e5 0bbf f8ae a8bf e37d 10bf 3ad8 4a3f
00000240: e3da e0be 2722 b73e b3bd 85be 0f9e 533f
00000250: ef48 46be e115 d43e 39a3 8ebd 41eb 203e
00000260: a32c ae3f 5e2d 2cbf 383b c6bf c98d 4d3d
00000270: ffb6 4ebf ba89 bebe a372 9cbe b5fb ca3e
00000280: 1aef 8a3f 6651 77bf d56a 123e 8d35 eb3e
00000290: c23a ec3e edb6 dbbe 9443 143f f378 ba3e
000002a0: 7e8b 12bf bcc0 403f 1c93 eebc bf65 0dbd
000002b0: 84d4 75bf 7e74 a7bf 801d 0cbf 30dd 58bf
000002c0: db16 d33e 088b c7be 25d2 adbf 5842 bbbc
000002d0: e6f0 9e3e afb1 b8bd b999 883e 22fe c43e
000002e0: 02b3 1bbf bb71 32be 14a4 823f 259a 103f
000002f0: 5280 7fbd 64a2 f0be c0c9 72bf 3f60 1ebf
00000300: e669 0abe ac38 6a3e 2c94 323e c293 0440
00000310: b10a 3abf ecdc 0b3f 873f b3bd 9199 053f
00000320: 535d a53e e854 29bf 8dcc 6e3f ef30 b0be
00000330: 41d8 aa3e cc01 77bf 9340 22bb d1ae 30bf
00000340: 48de b33e 04cc 00bf 4700 783f fd1a ab3f
00000350: e6bc 3fbf 43f5 e0be aee0 d8be 6fcf 02bd
00000360: 1e6c f73e d099 523f 5a4c 0abf bf35 303e
00000370: 62ee 673c 1dd3 e3bd 1656 e7be a6cd 1abf
00000380: b022 e5be 77db d73f 6750 c43d 1cf1 d8be
00000390: 4fd4 e9bc 0c4d e33e bca1 d3bf cc0e 17bf
000003a0: 3ada f7bd 3c00 45bf ed76 69bc 77c0 2e3f
000003b0: 183a cebe cb83 0b3f 926a 513f a92e a8be
000003c0: f899 82bf 2d34 4abf da19 9bbd 1389 d9be
000003d0: 46fb 7d3e 371e 27bf e531 efbc e3b3 45bd
000003e0: d3d6 ec3e c3e5 b73f 7ee7 833f d3e6 aabe
000003f0: e478 d2bf 29fa bc3e adaa 763f 37d7 a43d
-1.5398625 -0.060895164 -0.9282322 -0.4222125 -0.1405012 0.12952293 0.01625723 -0.8797466
1.4374019 -1.3241756 -0.3753963 0.9568912 -0.23542087 1.4001675 0.026091663 0.013570953
-0.35000107 -1.2714046 0.22708142 0.28559312 -0.32199377 -0.8375701 -0.4118201 0.4619905
0.3749773 0.21098727 -0.5823644 0.7511114 -0.33076 0.5580655 1.0808856 -0.4535698
-0.14521585 0.9107467 -0.10219791 -0.4023621 -0.69375336 -0.03126053 0.024292292 0.003503829
-0.58098733 0.64525586 -0.8244386 1.0713123 0.22312027 2.307957 -1.1781735 -0.35106635
-1.2337126 -0.4651844 -0.23799971 1.1831806 -0.03301565 -0.27106547 1.8539114 -0.5710381
0.6834236 0.68971574 1.1303165 1.5480655 0.09094499 -0.5992889 0.038037248 0.4730527
-0.2797156 0.53404146 0.83340794 1.4625591 -0.17390391 0.7002916 -0.25033513 0.50209534
-0.06529434 0.13801473 0.09686735 0.9289711 -0.6751113 0.88541657 0.65037155 -0.089226834
-0.7908291 0.6073663 -0.73213905 -0.22208147 -0.17650032 -0.8605015 0.87969357 0.13440856
-0.92006385 0.23308945 -0.9051123 0.28872228 -0.8947955 -0.8227115 0.025118407 0.9385725
0.6173646 -0.81510985 -0.57251793 -0.5732215 -1.1707094 -1.104186 -0.314953 0.43077776
-0.13773645 -0.024064435 0.41983572 0.27872476 -0.51292473 -0.6132173 -0.6916766 -0.27422825
-0.5146734 -0.7473075 0.7326744 0.4468472 0.4900841 0.069941975 -0.31543964 -0.23435082
-0.18258518 -0.28925085 1.2463053 0.116810806 -0.89792055 0.6364972 0.76285213 0.99754244
-0.3643239 0.3042184 0.29035676 -0.0522564 -0.3305312 0.63390803 1.0884279 -0.6697298
-0.35169953 0.13699117 -0.6384287 0.24782778 -0.546474 -1.3178396 -0.5644209 0.79236186
-0.43916997 0.35768244 -0.26121292 0.82663053 -0.1936376 0.41422942 -0.06964726 0.15714742
1.3607372 -0.67256725 -1.5486822 0.050184045 -0.8074798 -0.37214452 -0.3055621 0.39645162
1.0854218 -0.9660858 0.14298566 0.45939294 0.4613858 -0.42913 0.57915616 0.36420402
-0.572441 0.7529409 -0.029122882 -0.03452086 -0.960274 -1.3082426 -0.54732513 -0.84712505
0.41228375 -0.3897326 -1.3579756 -0.022858784 0.31043166 -0.090182655 0.2667978 0.38475138
-0.6082002 -0.17426197 1.0206323 0.56485206 -0.062378235 -0.46998894 -0.94839096 -0.6186561
-0.1351696 0.22873181 0.17439336 2.0715184 -0.72672564 0.54633975 -0.08752351 0.5218745
0.32297763 -0.6614518 0.9328087 -0.34412333 0.33368114 -0.96487117 -0.0024757728 -0.6901675
0.35130525 -0.50311303 0.96875423 1.3367611 -0.7489761 -0.4393712 -0.42358917 -0.031936105
0.48324674 0.8226595 -0.54022753 0.17208003 0.014155956 -0.11124251 -0.45182866 -0.60470045
-0.44753027 1.686385 0.09585648 -0.42371452 -0.02854362 0.4439472 -1.6533732 -0.59006953
-0.1210217 -0.7695348 -0.0142495455 0.6826243 -0.40278697 0.54497975 0.8180324 -0.328481
-1.0203238 -0.78985864 -0.0757329 -0.42487392 0.24802884 -0.6528048 -0.029198596 -0.048267256
0.46257648 1.4366993 1.0305021 -0.3337923 -1.6443143 0.36909607 0.9635418 0.080488615

weight f4 [24, 22]
00000000: 447c 413e f52c 743f c931 923e 2586 a9bd
00000010: b23c ecbe 2c21 75bf e40e ddbf 714b c4bd
00000020: dc02 e93e 7b50 2b3f 4abd ea3e 9afa 9d3f
00000030: 1bec 00c0 2be6 efbf a827 19bf 5d17 633f
00000040: ba42 933f 25ec 1e3f 86f1 20bf a7d5 3d3f
00000050: 0123 853d 5d97 273f 8978 903e 5856 c7bf
00000060: 84f5 1abf 0124 cebd efbe 003e e760 ae3f
00000070: ffca 35bf 1d6e aebf 0795 37bf 3ce1 aa3e
00000080: 8335 d13e 1258 793b b8ef a43e c1a2 eb3e
00000090: 050f 863f 3ab6 9d3f e3eb d13d f03a 2cbe
000000a0: 1f67 223f 74b5 033e 875a 60bf 96f0 05c0
000000b0: cd6e 8e3f 4c00 d53e 6cc4 073f 5914 333f
000000c0: be4b 46bf 1193 47bf eb34 4ebe 7f9a a4bf
000000d0: 4d63 f53c d424 d43f ab03 0abf 0972 fdbf
000000e0: 47dd d3be ea69 01c0 b528 683e ac91 d03f
000000f0: acce 7bbe 5bb8 42bf d30c 0c3f 95c2 803f
00000100: 9c29 643f 2128 383f b69c 1a3f d102 c23e
00000110: 6f6f ad3e b6f7 e03e b1b1 aebd 8851 82bf
00000120: 5746 1ec0 9167 7d3f ecfc 233f 10ec 903c
00000130: 4788 ab3e 67c6 fe3e 1b64 21c0 f0d6 b03e
00000140: 78a9 8fbd 9e48 c1bd 2488 473f 4c5c 943f
00000150: 6330 0fbf 03ed 053d 6da3 bc3e 5b17 11bf
00000160: 6d44 25be 1e3f 84be f9e8 f5be bfe3 01bc
00000170: fd2c dbbd 03bf 1dbe f999 26be 0018 ed3e
00000180: 6864 103e c35e 3f3e dd22 0d3f a647 103f
00000190: 3dee e0be b971 ad3d c6c3 f73e c529 043e
000001a0: 7c32 bf3e c1a9 b23d 339b d33b 2667 37be
000001b0: 475e a5be 3ed5 12bf f1d9 6ebe 1f0b 6f3f
000001c0: 5222 593e 8cd9 a0be 36d8 20bf 1740 e2be
000001d0: 7890 f03f 6361 d7be 3a91 ac3d 11d1 ab3f
000001e0: b16b 7b3e 3569 923e 9228 af3e e3ea 8cbf
000001f0: 5d5e 1bbe 3719 ad3f e0b7 1a3f 0e31 183f
00000200: 48fa 97be 1b94 5bbe 8cc2 b3bd d59a a1bf
00000210: e39e c6bf 09f4 a2bf 64d6 adbf 24f7 debf
00000220: 0a0e 1bbf 8277 a5bd 9f7f 5dbf 721c 2e3f
00000230: 49ab d3be d5b5 6abf 1a34 c23e b703 f63f
00000240: fbf2 343f 3c46 5d3f ead2 f93d 1d01 5cbe
00000250: db36 9e3f fb29 be3f 8eb3 e03e 2255 9238
00000260: 2736 b83e 8738 87be e89d af3e 7ec8 f1bf
00000270: a95b 8ebf 96ad 53bc 0dc1 a63f 2f91 0b40
00000280: 6f70 4d3e d8dd 81be 5884 5dbf 8722 49bf
00000290: 4c04 033f 46ca 7f3e 20a1 883e 2ef0 0540
000002a0: c08c 513f 4def 02bf d737 2abf 9d3b 74bf
000002b0: 6916 943f 7c44 533e 79a6 98bf 974f 2cbf
000002c0: 2b8e 62be e1ac 41bf b5ca a2be 0ab3 5c3d
000002d0: ca92 503e 191c 3e3f 2a98 4b3f 5717 92be
000002e0: 576d 6dbe 9f9a 1fbe 3720 af3e da64 7e3d
000002f0: 1ac1 c93d c261 3a3f e5b2 ef3e 0036 1b3e
00000300: 057a 46bd 6e3b a7be 3c04 263e 8a30 7cbe
00000310: 9a45 0dbf 318d 3ebe 2692 04bf c62e 79bc
00000320: b1c0 3bbe 53bc 32be 529f 4bbe 47a7 9dbd
00000330: e95d 0ebc aaf8 803e f56b 563e f58d 973e
00000340: 14c7 a03e 6f28 e93e 7d10 b0be 376a 523c
00000350: 943e 4b3e 9f2b 083f 2030 d73e 8661 ef3e
00000360: 5857 aabe a03c 01bf 6281 81be 2b13 cebe
00000370: 3148 533a d9bb b73e df5c e93e b674 ec3d
00000380: 0d1a 4d3d c1e4 2dbf 2da2 bdbe 11d7 80bd
00000390: a79d 023f b16d 643e 8239 e4bd ffa8 fcbd
000003a0: e522 d2be 3bb2 bbbe f1a7 0dbe 009a dabd
000003b0: 8731 263d 1876 853e cc35 8dbe 5da1 b33c
000003c0: 9691 c73d f0c4 173e dfdf 223f 327b 34bf
000003d0: 54eb 7b3e 4305 a73f 9ef1 623f 0d23 503f
000003e0: e284 2dbf 90da b1bf 8e3f ccbd ec25 1940
000003f0: 0fa7 393f 835d bcbf 8f74 b0bf c9e4 00bf
0.1889506 0.953811 0.28553608 -0.08277539 -0.46140057 -0.9575374 -1.7270169 -0.09584702
0.45509994 0.6691968 0.4584754 1.2342103 -2.0144107 -1.8742117 -0.59826136 0.88707525
1.1504738 0.6207908 -0.62868536 0.7415413 0.06500817 0.6546534 0.2821696 -1.5573225
-0.6053088 -0.10065461 0.12572835 1.3623322 -0.7101287 -1.3627354 -0.7171177 0.33374965
0.4086114 0.0038046879 0.3221414 0.4602261 1.0473334 1.2321236 0.1025007 -0.16819358
0.634386 0.12862188 -0.87638134 -2.0928092 1.1127564 0.4160179 0.5303409 0.69952923
-0.77459323 -0.7795878 -0.20137374 -1.2859648 0.029954577 1.6573739 -0.53911847 -1.9800426
-0.4137976 -2.0220895 0.22671779 1.6294456 -0.24590558 -0.76062554 0.5470707 1.0059382
0.8912599 0.7193623 0.6039537 0.37892774 0.3387408 0.43938988 -0.08529986 -1.0181131
-2.4730432 0.98986155 0.64057803 0.017690688 0.3350241 0.49760744 -2.521735 0.34538984
-0.070147455 -0.09437679 0.7794211 1.1590667 -0.5593321 0.032696735 0.36843434 -0.5667626
-0.16139384 -0.25829405 -0.48029307 -0.007927834 -0.1070194 -0.15404896 -0.16269673 0.46307373
0.14100802 0.18688492 0.5513132 0.56359327 -0.4393176 0.084689565 0.4839155 0.12906559
0.37343204 0.08723784 0.00645771 -0.17910442 -0.3229849 -0.5735663 -0.23325326 0.93376344
0.21204498 -0.31415975 -0.6282991 -0.44189522 1.8794088 -0.42066488 0.08426137 1.3423177
0.245528 0.28595892 0.3421064 -1.1009182 -0.15172715 1.352332 0.6043682 0.5944985
-0.29683137 -0.21443217 -0.08777341 -1.2625376 -1.5517238 -1.2730724 -1.3581052 -1.7419171
-0.60568297 -0.08079435 -0.8652286 0.68012154 -0.41341618 -0.91683704 0.37930375 1.9219884
0.7068326 0.86435294 0.12198432 -0.214848 1.236049 1.4856561 0.4388699 6.97768e-05
0.35978815 -0.26410314 0.3430016 -1.888931 -1.1121722 -0.012919804 1.3027664 2.1807363
0.20062421 -0.25364566 -0.86530066 -0.7856831 0.5117843 0.24979505 0.2668543 2.0927844
0.8185539 -0.51146394 -0.66491455 -0.9540346 1.1569339 0.20631593 -1.1925803 -0.67308944
-0.22124545 -0.7565442 -0.31795278 0.053881682 0.20368496 0.74261624 0.7952906 -0.28533432
-0.23186241 -0.15586327 0.34204265 0.0621079 0.09851284 0.72805417 0.46816173 0.15157318
-0.04845621 -0.3266253 0.16212553 -0.24627891 -0.5518433 -0.18608548 -0.51785505 -0.015208906
-0.18335225 -0.17454652 -0.19884995 -0.07697921 -0.008689382 0.25189716 0.2093962 0.29600492
0.31401885 0.4553866 -0.3438758 0.012842706 0.1984809 0.5319156 0.42028904 0.46754092
-0.33269763 -0.5048313 -0.25294024 -0.40249 0.00080597686 0.35885504 0.45578668 0.11545698
0.050073672 -0.67927176 -0.37037793 -0.06291021 0.5102181 0.22307469 -0.11143781 -0.12336921
-0.41042247 -0.36659417 -0.13833596 -0.106739044 0.040574577 0.2606666 -0.27580106 0.02192753
0.09744565 0.1482122 0.6362285 -0.7050048 0.2460149 1.3048481 0.8864993 0.81303483
-0.6778089 -1.3894825 -0.099730596 2.3929396 0.72520536 -1.4716038 -1.3785571 -0.503491

bias f4 [24]
00000000: a5bf 913e 6337 493f 141f 6b3b 75fc 513e
00000010: c951 21c0 1029 abbf 05e1 593e c866 66be
00000020: 7a59 c13f 9798 b03f 5be4 d93d 6d98 debe
00000030: b322 b2bf f6d8 d8bc 91ea fd3e 23c3 cfbe
00000040: 00f6 1bbf 2def adbf f1fe 70bf 5b14 1440
00000050: fcc0 23bd 3654 0ebf 82f2 edbd 7910 933f
0.28466526 0.7860014 0.0035876678 0.20506461 -2.5206168 -1.3371906 0.21277244 -0.22500145
1.5105431 1.3796567 0.106392585 -0.43475667 -1.3916839 -0.026470643 0.49593022 -0.40578565
-0.6092224 -1.3588616 -0.9413901 2.3137424 -0.039978966 -0.55597246 -0.1161852 1.1489402

in_proj_weight f4 [72, 24]
00000000: af27 36be 1182 133e cd80 da3d 839c 0abe
00000010: 72ee e9be d31f a3be 9f8d 98be 14f6 573e
00000020: 626d b73e c8ea 8bbd 89bd fcbc ffb1 223d
00000030: ff36 403e 7873 943e 4feb b0bd 1e37 89bd
00000040: 94df d73e 2045 283e cff8 06be 2817 74be
00000050: e38d babd 23fd c93e 5da6 3b3e 666d fa3d
00000060: 67c2 623e 27df ad3c 733d 843d 47ad d83e
00000070: f0d9 b0bd 56f6 8ebd 0d24 0e3e 570c c63d
00000080: c061 4f3d 9c0a adbd 6baa 743e 3e66 4d3e
00000090: ff27 c6bc 802a 5f3e a624 8c3d 4908 13bb
000000a0: 3161 13be 8c71 84be 1528 113e f4ed 9ebe
000000b0: a551 8abd 3e13 f9bd 3679 843e fda6 b2bd
000000c0: 3a37 b6bd 1877 3dbe 8e1e 4d3e 36f8 97be
000000d0: 4056 27be da80 45be cf83 72be ec15 1b3e
000000e0: 536f c93d 337b 18bd b40e ac3e 3086 0d3e
000000f0: 2ca9 de3d 04ca 1d3d 3a1b 893c 8826 073e
00000100: b56f 093f 873d f73d 32e8 9dbe 736f 893e
00000110: bd6c 74be 16ad f53e bb69 c7be 70be 673e
00000120: a7dd 94bd 4a90 f63d 5e28 86bd 04e1 b63e
00000130: f60a 2fbe 977c 85be b286 d03e f280 203f
00000140: 42f6 523e 3e0b c13e 2be9 60bd a19e 89be
00000150: 70f8 5b3d d5e1 323e 2a3a 083e 6dbd 963e
00000160: ef0c 35bd 524d 60be b4b9 0c3e 2eaa d03e
00000170: 06cc fd3e ddd4 77be 2492 513d 2d22 293e
00000180: 2f3f 92be e75c 623d 5b60 39bf 0860 a5be
00000190: a721 4bbe 09de d5bd a942 053e 3cff f23e
000001a0: d274 883e fa40 613e 1ea2 09be 5218 c7be
000001b0: 651f 9e3e 3239 bdbd dd38 753a c916 bebd
000001c0: 663d 4abe 59ee b73d c208 39be af2f 443f
000001d0: 119d 73bd 3b65 c4be 246c 903e 1794 c1be
000001e0: e79b 4f3c 4430 4cbe d681 6abc c383 b53e
000001f0: 2183 ffbd 082e 603e 8354 fbbe 0aac 7f3c
00000200: 4a92 d83d abd7 d63c 9508 fdbc 76f7 633e
00000210: 59bf ab3e 7193 1ebe 0401 e13d c2a5 fbbc
00000220: ec5b 2ebe d885 a13e 31ff abbe c1a3 fcbe
00000230: 64b2 263f cb09 90be e4a7 23be 902a 26bf
00000240: 7195 5a3c 1a92 d43b 7958 f93d a302 9f3e
00000250: 3e01 69bd e2b4 38be 5a57 b93e 8c7d 00bd
00000260: 1bd5 8c3c 797c d93d b7eb f8bd 1ac7 9bbe
00000270: d784 d73c c08c dbbe 1834 d2bb 0060 99be
00000280: f072 49bf f279 4bbe 4735 c8bd 8527 f73e
00000290: 662e dabc d334 18be 720f aa3e 57ae 2d3e
000002a0: 373f fabe 51bc 883d 765a 1fbe 4824 a7be
000002b0: 1699 953e b937 31be 4a03 eb3e 2790 f93e
000002c0: 351e 77bd ff7c 98be 5d06 0cbe 001a 03bf
000002d0: 02e4 a93d 98a3 36be 3245 5ebc 15bf 8d3e
000002e0: 7a4e 2ebe 322a 8dbe 591b abbc e689 24bd
000002f0: 7aa0 dcbd f24a ae3d 1ba3 36bd 7ba4 b9be
00000300: 569a 39be 8781 003f b4cf 01bf 8b56 f6be
00000310: 208a 823e 740e 8b3e 77c9 b03e d7b1 5b3e
00000320: 74f4 34bd c971 383e fac4 153e 49a1 40be
00000330: d207 78bd e0e3 d63d 528c 8ebc cd71 2cbe
00000340: 3a02 fdbd c1d1 87bd 52ec c33e d80d a1bd
00000350: 517e f1be 1a0a 44be a9aa d0bd 2eca a7be
00000360: 5542 b73c b4d2 7dbe b807 b23e f4ca f7bd
00000370: 31ef 1f3e 016f 2ebd 3591 c8bd f873 8bbe
00000380: 54ed 3abe 38bd 93be e18e 51be c870 c93c
00000390: 501a 85be a9d6 92be 0ca8 6abd 2a7a d0be
000003a0: 4eda ba3d 485d 44be 6d3b 3cbe 7bf4 0f3f
000003b0: 775a cd3e 4844 eabd a53d 64be 3688 b73e
000003c0: cebc ebbe 962d b1be c3b9 69bd db8e 86bb
000003d0: 89af dd3d a427 c23b 5549 19bf 818a 82be
000003e0: f0a5 bdbc 5c99 91be 6ffd 38bd dce5 a43e
000003f0: 1aa7 41bd dc9d d2be 1634 fcbd 6d61 6b3d
-0.17788576 0.14405085 0.10669098 -0.13536267 -0.45689732 -0.31860217 -0.29795548 0.21089965
0.3582564 -0.0683189 -0.030852096 0.03972053 0.1877098 0.28994346 -0.086386316 -0.06699966
0.42162764 0.16432619 -0.1318085 -0.23836958 -0.09109094 0.3945094 0.18325181 0.12227897
0.22144471 0.021224571 0.06457033 0.423197 -0.08635318 -0.069805786 0.1388094 0.096703224
0.05063033 -0.08449289 0.23893134 0.20058534 -0.024188993 0.21793556 0.06842928 -0.0022435358
-0.14392544 -0.2586788 0.14175446 -0.3104092 -0.06753854 -0.12161873 0.25873727 -0.08723257
-0.088972524 -0.18502462 0.20031187 -0.29681557 -0.16341496 -0.19287434 -0.23683093 0.15145081
0.098356865 -0.037226867 0.33604968 0.1382072 0.10872111 0.038522735 0.016736615 0.13198292
0.53686076 0.12072282 -0.30841213 0.26842842 -0.23869605 0.47983617 -0.38947853 0.2263124
-0.07268839 0.1203924 -0.06550668 0.35718548 -0.17094025 -0.26071617 0.40727764 0.62696755
0.20601752 0.3770389 -0.054909866 -0.26878837 0.053703725 0.1746896 0.13303438 0.29441395
-0.044201788 -0.21904495 0.13742715 0.40754837 0.4956972 -0.24202295 0.05116476 0.16516943
-0.2856383 0.05526438 -0.7241265 -0.3229983 -0.19837056 -0.104427405 0.1301371 0.47460353
0.26651627 0.21997443 -0.13440749 -0.38885742 0.30883327 -0.09239425 0.00093544816 -0.0928169
-0.19749984 0.08981008 -0.18069747 0.7663526 -0.059475962 -0.38358483 0.28207505 -0.37808296
0.012671447 -0.19940287 -0.014313182 0.3545209 -0.12476183 0.2189256 -0.49087915 0.015604982
0.105747774 0.026225885 -0.030887881 0.22262368 0.33544424 -0.15485932 0.10986522 -0.030718688
-0.17027253 0.31547427 -0.33593133 -0.49343684 0.6511595 -0.2813247 -0.15982014 -0.64908695
0.013341294 0.006487143 0.12175078 0.310567 -0.05688595 -0.18037751 0.36199456 -0.03136973
0.01719146 0.106194444 -0.12154334 -0.3042534 0.02630846 -0.4288082 -0.0064149015 -0.29956055
-0.78691006 -0.19870737 -0.09775787 0.48272339 -0.026633453 -0.14863901 0.3321491 0.16961037
-0.48876354 0.066765435 -0.15561852 -0.32644868 0.29218358 -0.17306413 0.45900947 0.48742792
-0.060331542 -0.29782864 -0.13674302 -0.5121155 0.08295442 -0.17835844 -0.013566302 0.27684847
-0.17022124 -0.27571255 -0.020887064 -0.040170573 -0.10772796 0.085103884 -0.044589143 -0.362583
-0.1812528 0.50197643 -0.50707555 -0.48112902 0.25496006 0.27159464 0.34528705 0.2145456
-0.04417844 0.18012156 0.14625922 -0.18811525 -0.060554333 0.104926825 -0.017400894 -0.16840287
-0.1235394 -0.06631804 0.38266236 -0.078639686 -0.47166684 -0.19144478 -0.10188801 -0.32771438
0.022370497 -0.24787408 0.34771514 -0.12099257 0.15618588 -0.04258633 -0.09793321 -0.27236915
-0.18254596 -0.288553 -0.2046466 0.024589911 -0.25996637 -0.28679398 -0.05728917 -0.40718204
0.091236696 -0.19176209 -0.18382044 0.5623242 0.40108082 -0.11438805 -0.2228914 0.35846108
-0.46042484 -0.34605092 -0.05706192 -0.004106385 0.10824496 0.0059251357 -0.5987752 -0.25496295
-0.023150414 -0.28437316 -0.045163568 0.3220662 -0.0472785 -0.41136062 -0.12314622 0.05746596

in_proj_bias f4 [72]
00000000: d61a 7abf 8b46 94bf 5fe2 87be 9601 f0bc
00000010: 2886 64bf 829d 4bbf 75df b7be 2d95 cb3e
00000020: e77b a13d 30ac 9e3e 8133 463f 1502 d9be
00000030: 0fc0 18bf 33b1 a6bd 8656 0f3f d581 a63e
00000040: 74f9 8c3e b87e 043f b097 983f 9b96 a6bf
00000050: 26cd 023f a1e8 5dbf 3b36 ec3e a9b7 86be
00000060: 045c b13c 03bf 763d 3d79 0abc aba9 693c
00000070: b01b f93d 7de1 d93d d47e c3ba 4216 253c
00000080: 1f81 253b 8641 0e3c 4fd7 b9b9 74e2 2a3d
00000090: b636 edbc 1137 80ba 2e67 923a 0e2d 9e3d
000000a0: c3fe 263c 863a 363d 4b0a d6bb 9ee9 8f3d
000000b0: dfa8 423b ebef 6f3c f9df 05bd 3976 9c3b
000000c0: 71de 293e ce95 0abe 7d9d 9cbd bdff 953e
000000d0: 4925 35be f358 503e 6d8b dfbd 4fef ad3c
000000e0: 495b ff3d 2839 303e 1a7c 5f3d 6e29 8e3d
000000f0: e7ba a63e 306c 393d 6e9b 873d 4977 083d
00000100: f820 cfbd 0faa 973d f69b 12be 0fbb df3d
00000110: 21b8 853e 8777 0ebe e90e 983c d289 303e
-0.976972 -1.1584028 -0.26539895 -0.029297631 -0.89267206 -0.7953721 -0.35912672 0.3976225
0.078849606 0.30990744 0.7742234 -0.423844 -0.5966806 -0.08139267 0.559914 0.3252093
0.27534068 0.5175586 1.1921291 -1.3014711 0.5109428 -0.8668309 0.46135125 -0.26311997
0.021650322 0.060240757 -0.008451757 0.014261643 0.12163484 0.106387116 -0.0014915117 0.010076107
0.0025253964 0.008682614 -0.00035446367 0.04171987 -0.028956752 -0.0009782036 0.0011169666 0.07723437
0.010192576 0.044489406 -0.0065319887 0.07026981 0.0029702706 0.014644603 -0.0326843 0.0047748354
0.16588761 -0.13533708 -0.07647226 0.29296675 -0.17690004 0.20346431 -0.10915265 0.021232275
0.12468583 0.17209303 0.05456171 0.06941496 0.3256447 0.04526919 0.06621443 0.033316884
-0.1011371 0.07405483 -0.14317307 0.109243505 0.26117042 -0.13912784 0.018561797 0.17240074

weight f4 [24, 24]
00000000: f6a2 c0bd e968 06be 9bb7 df3c 76ac 40be
00000010: aabf 353e 5866 253d b613 203d 5256 f2bd
00000020: e5ca 953d a0dc 1fbe 2849 49bd 5db3 703d
00000030: 4848 173e eac2 fb3c 7218 3f3d d887 f8bc
00000040: 0a94 563d 712e 0fbd b639 693d 9b9a fa3d
00000050: 2b24 b13d f309 fdbc c156 0f3d cf0c bdbd
00000060: b430 b63c ac58 7ebc b8b4 8bbd 7cf4 17bc
00000070: ab24 153d 5451 94bc e174 2dbd 0306 953d
00000080: b285 823d d92a e83b 4b7d 9e3c da75 95bd
00000090: 1eef 1d3b 69cc 09bd 4fd4 7dbd b853 303c
000000a0: f2a2 de3c 3b18 893d a379 0a3d d76f b83c
000000b0: 4b0e c0bd ceee 4abd 6cfe 1fbc 48cb 6a3d
000000c0: c862 70bd 5514 f83b 31ee edbc 9aed d43d
000000d0: 4538 0e3e 8acf 6bbd aa27 a53d 5b84 a83d
000000e0: 92c3 e7bd 3af5 f6bd dd2a 8b3d 194c 313a
000000f0: 5953 e8bd cf72 123d 01f2 36be 9f31 c4bd
00000100: 860c d4bd 15bb 983d ef22 7cbd b525 b8ba
00000110: 9c13 aebd ddcb 1e3d e4a1 223c 7425 0e3e
00000120: c185 8e3d 09fb 46bd 14d6 123d 6de3 50bd
00000130: ad3c 10bc 328a 8abd 6029 2c3d 7f83 33bd
00000140: 17e3 b83d aa14 eebc 6333 d6bd 5f86 693c
00000150: c224 87bd e5ad 88bd 8d3c a93d d09a 2a3d
00000160: 216f 113d 3b45 563c f59c 103d 15ba 953c
00000170: 0f54 813d 020f d0bc c7a9 65bc 3b55 dcbd
00000180: ffce d5bb 3dd8 5c3c f98d c53c e230 7dbd
00000190: 5008 863a 00b0 8d3c aeb1 02bd e520 18bb
000001a0: 0c18 fe3c 916a 21bc e222 0abc 7690 883c
000001b0: 566e 2d3d 6e9e 1bbd 71ee a53c 274b 5f3c
000001c0: b89f 223d a29e 0a3b 55ab c83c d6ed 363d
000001d0: 5b98 aebc 52bd 87bc 2d18 b63a 1935 45bc
000001e0: 6bf3 1abd 003b 40bb 4e85 71bd 33d0 f2bc
000001f0: 44a7 443d 931b 5e3d a541 94bb 8cba ba3b
00000200: 1497 0abd c030 d4bc d96c 523d 3b35 143c
00000210: 5ba5 96bc 4ffd 533d a194 45bd 71bc babb
00000220: c9e6 d5bc c48c 763a 7582 a8bb ea62 223c
00000230: 4f81 bcbc 8ba1 af3c 041b d93c f05c 4a3d
00000240: 4b3b f03c 3ef3 a2bd 4605 0e3d 762b aebd
00000250: 246f a2bd 447c 633c 60f3 3f3c cf38 2cbd
00000260: 1537 4b3d 3c51 213d 1726 103c cedb 04bd
00000270: 08cb 9a3d 6082 5bbc b880 7b3d f0ef 9d3d
00000280: cf54 953d 921f 62bd fc93 d83c eba0 a23d
00000290: 8d74 f83c b494 97bc 964b e3bd 5706 babd
000002a0: d0ca 393d d6f0 a93b 7616 143c a469 8fbd
000002b0: 2361 0ebd b3c6 bebc c09a acbd f7ab e93d
000002c0: d7ac 2d3e d72f ed3d 2422 48bd 252d a9bd
000002d0: 8f46 323d b97b cebd d193 20bd cae0 453d
000002e0: f3e7 a13d 9a87 a33d cc32 da3d d85c 893c
000002f0: 93fc c3bd 236a dbbd 29e5 51bd 503a 78bb
00000300: bcee aabc ade8 10bd 7c41 ccbc 2aee 0abd
00000310: 08c1 16bc 0a35 e43c ee22 19bd bf77 dd3c
00000320: cba8 063d 5149 f63c 4f6f 6dbd d101 13bd
00000330: 2972 253d 9bed 333c 59d1 05bc 4057 673c
00000340: 3ef7 383d 707c e93c dd67 613c 87e6 d13c
00000350: 72af 58bc 2bfd 8cbd d7fb 76bb 00df bf3b
00000360: c821 eabc 3c4a 02bd cc85 3bbd 585e f6bc
00000370: 3d34 6b3c ccae e13c 00f3 ad3c 2847 013d
00000380: 0d3f adb9 a4bc 653c 37c5 513d 23b0 e13c
00000390: b721 a13d 52fd e63b e48f 873c 34b9 d53b
000003a0: ad59 203d be5f 233c 0724 65bc 1ab6 52bc
000003b0: 0284 113c 8c7d 85bd 5392 08bc 10d7 793c
000003c0: 6789 ffbe 3564 863e 0d96 d73d 3ee1 093e
000003d0: a11d 8bbe 0bee cf3d f303 423f 422b 8cbe
000003e0: 8463 e63c 0e48 60be a178 b0bd 87e7 123d
000003f0: c606 fd3d dafa 213f 67fc b73e 0f38 11bd
-0.09406082 -0.13125958 0.02730923 -0.18815789 0.17748895 0.040380806 0.039081298 -0.118328705
0.0731409 -0.15611506 -0.049142033 0.058764804 0.14773667 0.03073259 0.046654172 -0.030338213
0.052387275 -0.0349564 0.056939803 0.1223652 0.086494766 -0.030888533 0.034994844 -0.09230959
0.02224002 -0.015524071 -0.06821579 -0.009274598 0.036411922 -0.018105187 -0.042347793 0.07276537
0.063731566 0.007085186 0.019346854 -0.07297869 0.0024098824 -0.033642206 -0.06197005 0.010762148
0.027177308 0.06694075 0.033807408 0.022514267 -0.09377726 -0.04954415 -0.009765249 0.05732277
-0.058687955 0.007570783 -0.029044243 0.103968814 0.13888653 -0.05757097 0.08064206 0.0822837
-0.11316599 -0.12058492 0.06795285 0.00067633536 -0.11344022 0.03575402 -0.17865755 -0.09579777
-0.10353951 0.07457558 -0.061556753 -0.0014049324 -0.08499834 0.038768638 0.009926293 0.13881475
0.06959105 -0.04857925 0.035848692 -0.05099814 -0.008803529 -0.0676464 0.042031646 -0.043826576
0.09027689 -0.029062588 -0.1045902 0.014253228 -0.06598808 -0.06673793 0.08263502 0.041651547
0.03550637 0.013078029 0.035305936 0.018277207 0.06314861 -0.025397781 -0.014017529 -0.10758444
-0.00652492 0.01347929 0.02411555 -0.061814196 0.0010225866 0.017295837 -0.03190773 -0.0023212966
0.031017326 -0.009852068 -0.008431168 0.016670447 0.042341553 -0.037992887 0.0202553 0.013628758
0.0397031 0.0021151681 0.02449576 0.04466041 -0.021312883 -0.016569767 0.0013892703 -0.012036585
-0.037829798 -0.0029332042 -0.05896502 -0.029640293 0.04801108 0.054225516 -0.004524427 0.0056985077
-0.033835486 -0.025902152 0.051373336 0.009045894 -0.018389395 0.051755246 -0.048237447 -0.0056987335
-0.026111024 0.0009405131 -0.005142505 0.009911278 -0.023010878 0.021439334 0.02650214 0.04940504
0.029325148 -0.07956551 0.034672998 -0.08504383 -0.07931355 0.013884608 0.01171574 -0.042046364
0.049613077 0.03938411 0.008798144 -0.032436185 0.075582564 -0.013397783 0.061402053 0.0771178
0.072915666 -0.05520589 0.026437752 0.07940849 0.030329013 -0.018503524 -0.11098401 -0.090832405
0.045359433 0.0051861806 0.009038558 -0.07002571 -0.034760606 -0.023288107 -0.08427954 0.11409753
0.16960464 0.1158139 -0.048860684 -0.08260564 0.04352432 -0.10082192 -0.03920347 0.04831008
0.07905569 0.07984848 0.1065422 0.016767904 -0.09569659 -0.10713603 -0.051243935 -0.0037876554
-0.02086579 -0.035378147 -0.02493357 -0.033918537 -0.009201296 0.027857322 -0.037386827 0.027034638
0.032875817 0.030064257 -0.05796748 -0.035890404 0.040392075 0.0109819425 -0.008167588 0.014119923
0.045157664 0.02850172 0.013757673 0.02562262 -0.013225423 -0.068842255 -0.003768673 0.005855441
-0.028580561 -0.031809077 -0.045781896 -0.030074283 0.014355716 0.02754917 0.021234035 0.031562
-0.00033044108 0.014022026 0.05121347 0.027549809 0.07867759 0.007049241 0.016548105 0.006522322
0.03914802 0.009971557 -0.01398564 -0.012860799 0.008881571 -0.06518087 -0.008335668 0.015249029
-0.49909517 0.26248327 0.10526667 0.1346483 -0.27171043 0.10152825 0.75787276 -0.27376753
0.028123625 -0.21902487 -0.08616758 0.035865333 0.123548076 0.63273394 0.35934755 -0.035453852

bias f4 [24]
00000000: 6fd0 07bc 6706 9b3c 922e 383c 9ad8 36bc
00000010: 45a5 033c e336 383b 6ac7 aebb 7122 583c
00000020: fbc8 f43a 369c 703b 6a02 243d a15a eb3c
00000030: f5e8 133a cfd4 3bbd 1e41 3b3d fe17 93bd
00000040: a809 ecbc 5187 18bc d1a6 29bb 357a 6e39
00000050: eda5 6bba 09e0 353c cb4c be3d 7589 23bc
-0.008289441 0.018923951 0.011241572 -0.01116004 0.008035009 0.0028108887 -0.0053338306 0.013191805
0.001867562 0.0036714203 0.040041365 0.028729739 0.0005642318 -0.045857247 0.045716397 -0.071823105
-0.028813198 -0.009309606 -0.0025886784 0.00022742974 -0.00089892634 0.011100777 0.09291991 -0.009981503

weight f4 [512, 24]
00000000: e2cb 473e 2a94 293e 31a1 b3bd 26ff 6fbe
00000010: 7155 be3e 4150 193d 28ac ddbd 3692 713e
00000020: b2c1 71be adcc acbe 102e 57bd 9902 dbbd
00000030: 911b 21bd 8b5d 2cbe 927a 85bd 1854 943d
00000040: 9959 e9bd e051 5b3b 00ee 89be 8e7a 1bbe
00000050: 2f9f 563e b093 143e d945 023e cc73 44bb
00000060: d0b6 c1be f03d 553e 0e9c e93d f338 a6be
00000070: 9515 aa3e 50dd e1bd 8911 68bd 858d 4e3e
00000080: 6cf8 96be 2936 90be 56f7 053e 7c8d e9bd
00000090: c3e5 cfbd bc37 853d b78b 923d 9c77 5e3d
000000a0: 86a1 eebc 7afc ebbd 03ec 113d 7e3a eebd
000000b0: 5a2c 70be 5a92 283e 0bd5 673e ad8a 1e3e
000000c0: f07c cbbd ea85 de3d 8883 0a3e ac26 bfbe
000000d0: 92c9 993e 5d1b 00be e852 82be 393c 4e3e
000000e0: 9abe a8be 06dd bbbe c242 adbe c451 edbc
000000f0: e627 833e 7303 acbd df7b e7bd f512 c03c
00000100: ccdb f2bd 8a0f 1bbd 3dc7 8cbc 7fb0 a83d
00000110: 0b6d c43d 2613 313e 0203 443e 646d 653e
00000120: ac00 e4bd cd4f 283e 0381 933e d784 e6be
00000130: 54b3 8b3e 2630 82be 6093 48bb c9d5 083f
00000140: 2f7a d8bd 23e9 09be ad27 2ebf 8c32 653e
00000150: f3cf 59be ad00 e2bc 612d 86be a742 53bd
00000160: ef55 2b3d 9a96 83be 01f1 38bd 82fb 813e
00000170: 68b2 853e 41bb 71bd affc 113e 3e67 9c3e
00000180: 9ace eabd 1a68 193e f7e5 c43d ad76 65be
00000190: 3758 6a3e 74c8 9dbc f26a 3bbd ce7a 023d
000001a0: ff55 afbe b3e1 84be 545b c2be 83c2 af3c
000001b0: 2d59 e6bd b911 42be 4bbe cabc 53ca 033e
000001c0: 183e d5bd ecf3 c93d 8d3d 2c3e 845b 363d
000001d0: 409c a83d e2cb e7bd 834f 3c3e b73a 183e
000001e0: 84ff 19be 59e2 ea3c 50d7 ddbd cd6c bdbd
000001f0: 8bd6 983d 3222 a2bd 9429 223d 01d0 243e
00000200: bb39 4fbe 0249 83be f712 c6ba 3f88 c7bd
00000210: a926 2cbc 6ad8 00be 95f3 453d d97e 4e3e
00000220: 5fbf cabd 7e1c 5c3c 547f 013e bfe0 5bbd
00000230: 5629 f53c 8743 e03d 07d9 ca3d 9816 df3d
00000240: 859b 4ebe 9e5f ccbd 5010 f5bd 4ff6 31be
00000250: b5e1 903e 4aef 073e 54ee 143d e0da 0f3e
00000260: 6f44 a9be 07d2 3abe 01c6 38be 9827 9cbc
00000270: d7cd 21bd fc26 6abd 7bce 9e3d 55c0 243e
00000280: c466 7bbd bf25 b0bc 592a 66be 5650 8c3d
00000290: a555 1cbe bc81 543e b95c 7c3e 1a2e b1bc
000002a0: 763e dfbc 7f24 bcbd 4a05 e63c d0a1 423d
000002b0: f72c b43d 1512 23be 1e3d f83d f7f5 2d3c
000002c0: bebf 03bf 1a2d 96be aaf4 47bd 2400 3e3d
000002d0: 8048 babd 7d9f e83c 495b 133e e73c a93e
000002e0: f413 293e 724e 1dbe 3c29 0a3e d396 753d
000002f0: b907 63be 5961 a8bc bd50 2e3e 7497 a63e
00000300: 8815 38be f66f 0a3e ce35 eb3d a334 a1bd
00000310: 5857 813e 0c4d 8e3d 5049 a2bd f1c0 013e
00000320: 342c 30be 2234 76be 8cdf a8bd 3a8a 273c
00000330: 3289 ed3d c3fb 8cbd 7552 a73c a09f 3c3e
00000340: 40e4 44be de46 313e 17db 713d 67b9 023d
00000350: 2c27 133e 7ad4 963c 1bcb ab3e 0b6e 5f3e
00000360: 4cbc 8cbe 94cb efbc 6185 183d 0dcc 9fbe
00000370: 8d69 813e ded2 dfbd d31b a8bd 9ecc 8c3e
00000380: 4606 06bf 7c5b 82be 3d7c 09be 5b3f 813d
00000390: ec00 05be 9028 1cbe ccd3 90bd 4e1f 42be
000003a0: 1e18 a3bd d0c2 e0bd b526 ab3d 8bdc 4f3e
000003b0: fc5e 81be c595 983e ec49 c93d 54a0 d23d
000003c0: 11cf ddbd 2a64 903e ba5e b8bd 8857 9cbe
000003d0: b058 853e c91c 83be 2346 b23d 9465 953e
000003e0: 4ea5 89be 2170 f5bd 5526 87bd 262f cb3d
000003f0: d9af e7bc 4cb2 433d e4bf 06be 0664 8abc
0.19511369 0.16560426 -0.08770979 -0.23437175 0.37174562 0.03743005 -0.10823852 0.23590931
-0.23609045 -0.33749905 -0.052534163 -0.10693855 -0.03933293 -0.16832559 -0.06517519 0.07242602
-0.113940425 0.003346555 -0.26939392 -0.1518347 0.20959161 0.14509463 0.12721957 -0.0029976247
-0.37834787 0.20824409 0.11406718 -0.32465324 0.3321959 -0.1102854 -0.056657348 0.20171173
-0.29486406 -0.2816632 0.13082632 -0.11403939 -0.101512454 0.06504771 0.07155555 0.054313287
-0.029129755 -0.115227655 0.03562547 -0.1163225 -0.23454419 0.16462079 0.22639863 0.15482588
-0.09935939 0.10865386 0.13526738 -0.37334192 0.30036598 -0.12510438 -0.25453877 0.2014016
-0.32957917 -0.36692065 -0.33839995 -0.028969653 0.25616378 -0.083990954 -0.113029234 0.02344654
-0.11858329 -0.037856616 -0.017184848 0.08236789 0.09591111 0.17292461 0.19141772 0.2240501
-0.11132941 0.16436692 0.28809366 -0.45023224 0.27285254 -0.2542736 -0.003060542 0.5345121
-0.1057018 -0.13467841 -0.6802929 0.22382563 -0.21270733 -0.027588213 -0.26206496 -0.051577237
0.04183 -0.25700837 -0.045151714 0.25387198 0.26112676 -0.05901647 0.14256547 0.30547518
-0.11465187 0.14981118 0.09614175 -0.22408552 0.22885214 -0.019260623 -0.045756288 0.031855397
-0.34245297 -0.25953445 -0.37960303 0.021455055 -0.11247478 -0.18952073 -0.024748942 0.1287015
-0.10412234 0.098609775 0.16820355 0.04452087 0.08232927 -0.113181844 0.18389706 0.14866148
-0.15038878 0.028672384 -0.10832083 -0.09249268 0.07462796 -0.079166785 0.039590433 0.16094972
-0.20236866 -0.25641638 -0.0015111853 -0.09742784 -0.010507264 -0.12582555 0.048328 0.20165576
-0.098997824 0.013434527 0.12646228 -0.05368113 0.029926937 0.1095038 0.09904676 0.10892981
-0.20176513 -0.09979175 -0.11966002 -0.17379116 0.282972 0.13274875 0.0363601 0.14048338
-0.33060023 -0.18244182 -0.18044282 -0.019061849 -0.039502945 -0.057166085 0.07754227 0.16088994
-0.0613773 -0.021502374 -0.22477092 0.0685126 -0.15267046 0.20752615 0.24644746 -0.021628428
-0.027251463 -0.091866486 0.028078694 0.047517598 0.08797639 -0.15924866 0.12121032 0.010617725
-0.5146445 -0.29331285 -0.048817314 0.046386853 -0.090958595 0.028396362 0.14390291 0.33054277
0.16511518 -0.15361956 0.13492292 0.05995829 -0.22170915 -0.020554231 0.17022987 0.32537425
-0.17976964 0.13519272 0.11484872 -0.07871368 0.2526195 0.06948289 -0.079241395 0.12671258
-0.17204362 -0.24043325 -0.08245763 0.010225827 0.115984336 -0.06883957 0.02042506 0.18420267
-0.19227695 0.1731219 0.05904683 0.031915095 0.14370412 0.018411864 0.33553395 0.21819322
-0.2748741 -0.029271878 0.037236575 -0.31210366 0.2527584 -0.109288916 -0.08208432 0.2749986
-0.5235332 -0.25460422 -0.134263 0.06310912 -0.12988633 -0.15249848 -0.07071647 -0.18957254
-0.07963584 -0.109746575 0.08356992 0.20298974 -0.2526778 0.29801765 0.098285526 0.102844864
-0.108305104 0.2820142 -0.09002443 -0.3053553 0.26044226 -0.256079 0.08704784 0.2917906
-0.2688393 -0.119842775 -0.06599108 0.09921102 -0.028282093 0.04777746 -0.13159138 -0.016893398

bias f4 [512]
00000000: 9153 95be 9780 aebd 23d2 3ebe 9768 89bd
00000010: 065a 22be 6b3c bcbe 1bca d23c 97c2 03be
00000020: 1685 f2bd c8ab 10be 0aee 35bd 3f55 93bd
00000030: c726 18be a2a4 c1be 0848 67be c2a5 3bbe
00000040: 18e3 b5be ae23 fe3a bbbc 40be bf0f 5bbe
00000050: 171f bebe 5e72 b9be 3baa dabd 7f8c 35be
00000060: 160e 22be 1aac 54be c403 3cbc 8d46 4ebe
00000070: be66 f1bd 461d 9abd 5d53 a6be a3d4 87be
00000080: a54b 313d 4bdd a6be 0b9f 91be e8e6 49be
00000090: 8e9c b5be 2d48 18be 7ab5 9cbe ed68 adbe
000000a0: 0364 59be 82fd 2cbe 845a 67be 6f65 d9be
000000b0: 667c dcbd b082 98bd 73bc 2ebe e72c 84be
000000c0: 78c7 963d b33b 6ebe 1b41 fcbe cc96 9dbd
000000d0: ff4c 47be 532d 3abe 79c6 a0be 65c3 89be
000000e0: f136 dabd abda debd 87b4 39be d656 ecbd
000000f0: f0e7 f0bd 8f7f 61be 6cfc 53be da63 8bbc
00000100: 3e10 8bbd df32 f73d 4567 a9be c9d5 21be
00000110: 1f0d 66be 7743 21be 6f05 a4be 9c4b 73be
00000120: 42e2 01bd 7162 cbbe 6be7 3bbd 0441 b9be
00000130: 1e5a 5fbe a2f7 cabd 8631 57bd c4cc f9bb
00000140: ec59 5dbd 2fc5 f438 5bc8 d1be 8594 8cbe
00000150: 4587 9fbe 50a3 c4bc 6e64 69be 026d 86be
00000160: 71fe 85be e1cf a9be 84a0 3bbe 939e 33be
00000170: 44cc febd e97a abbe bdbf e8bd e9d6 84be
00000180: 45ff 02be 96ca e7be 517d 5fbe 1029 a9be
00000190: 5a11 bbbe 8553 0dbe cc5e 0fbf a520 a5be
000001a0: 83cb 2c3d 9990 03bf 84b5 94be 3af5 8dbe
000001b0: c436 003e 1db8 eabd eaa6 b4bd ea22 9dbe
000001c0: db7d 41be 31c2 85be 837a b2bd 9142 96be
000001d0: 6532 e1bd 444d 1cbe 1b64 b8be 4113 afbe
000001e0: c5a3 a2bd e81d 64be bbc9 4fbe c514 81be
000001f0: 93cf cb3d b695 f0bd 95a6 51be 8194 13be
00000200: d9ea 1dbc 427b 7abd 5216 1d3e 5431 4cbc
00000210: be8a cabd 74a4 c7bd 6cae 32be 2081 99be
00000220: 445b 4ebe 6d23 f9be 79fb 94bd 23d1 dfbe
00000230: b013 ecbe 02fb 87be 3bad 3fbe 6842 2bbe
00000240: 7cc7 55be 3f4b 56be bca6 83be cca2 e4bd
00000250: 3c15 47be d0b3 8fbe 2814 7fbe 855b 95be
00000260: a3c9 b6be 9e93 4d3d 7a4c 99be 817b a2be
00000270: 410e 883d bf4d 59be b9f8 a9be 44f9 75be
00000280: 6eb9 34bd efe4 eabd 87e1 97be 44d7 9abe
00000290: 8241 0abe 1640 bebe ae92 eebe 20c2 5ebd
000002a0: 36d1 0fbe 450c 84be a86b 223e 38b9 80be
000002b0: 273f c4be 4252 f7bd 1b5c e63c 5201 a6be
000002c0: 88d1 7dbe 63f1 46be 1aab 4dbe 1706 3a3d
000002d0: 5591 87be c552 823d 0a78 a6be 2b2f 45be
000002e0: 07c5 6a3b b0a7 43be c0ff ecbe 2482 a4bd
000002f0: 2b0b 86be 8956 94be 221b a8be f77e 1fbb
00000300: eaa5 55bd 97c0 60be 448b 583d 7af7 543d
00000310: 2c56 78be 84a1 c3be 83fc c1be 9caf 45be
00000320: 1495 34be aefe 023e 1516 ecbb 95f1 18be
00000330: 1288 76be 1b16 27bf 519d 36be 48b2 ccbd
00000340: 57d0 c4be 1c2b 02be f677 b5be 9cf6 62bd
00000350: 4951 0bbd c446 0ebf 148e c4bd 8d73 eebe
00000360: 5fdf 05bf d4b7 b0be 4ff2 12be 57ca bdbe
00000370: 798d 74be 6115 83bc f579 01bf 65a5 d3bd
00000380: 0320 81be e976 9fbe 4c16 58be d653 16bf
00000390: 4fd9 78bd 5523 4dbe ddf0 05bf dfcb 7ebc
000003a0: e59f 793d e7fd adbe 90d0 51be 4112 85be
000003b0: ff31 14bd 0af4 76bd 0a79 5abe d3ba c9be
000003c0: 39e4 4dba 1447 6fbe 79ed bcbe c2c2 8a3d
000003d0: 41c7 12bd 87d6 d63d 8421 a1be 5004 f0bd
000003e0: 2559 02be 2dfa 80be 57f3 313e f5db 9bbd
000003f0: f57a 89be 08e0 59be 9396 c7bb 3495 4ebe
-0.2916532 -0.0852062 -0.18634848 -0.06709402 -0.15854654 -0.36764845 0.025731137 -0.12867199
-0.118417904 -0.1412803 -0.044416465 -0.07193994 -0.14858542 -0.37820917 -0.22586071 -0.1832495
-0.3552482 0.0019389295 -0.18821995 -0.21392725 -0.37133095 -0.36220068 -0.10677 -0.17729376
-0.15825686 -0.20768777 -0.011475507 -0.201441 -0.11787175 -0.07525115 -0.32485476 -0.26529416
0.04328503 -0.32590708 -0.28441653 -0.1971699 -0.35471004 -0.14871283 -0.30607206 -0.33869115
-0.21229558 -0.1689358 -0.22593123 -0.424602 -0.107659146 -0.07446802 -0.17064075 -0.25815508
0.073622644 -0.23264961 -0.49268422 -0.07694778 -0.19462965 -0.18181352 -0.31401423 -0.26906887
-0.106550105 -0.10881551 -0.18135272 -0.1154 -0.117629886 -0.22021316 -0.2070176 -0.017015386
-0.06790207 0.1207025 -0.330866 -0.15804209 -0.22465943 -0.15748392 -0.32035396 -0.23759311
-0.031709917 -0.39723542 -0.045874994 -0.36182415 -0.2181172 -0.099105135 -0.052537464 -0.007623287
-0.054040834 0.00011671555 -0.40973172 -0.2745706 -0.3115789 -0.024003655 -0.22792217 -0.2625504
-0.26170686 -0.33166412 -0.1832295 -0.1754096 -0.12441304 -0.3349221 -0.11364696 -0.25945213
-0.1279269 -0.45271748 -0.21825148 -0.3303914 -0.36536676 -0.13801391 -0.56004024 -0.32251468
0.04218627 -0.51392514 -0.29044735 -0.27726156 0.12520891 -0.11460898 -0.08820899 -0.306907
-0.18895666 -0.2612472 -0.087147735 -0.2934766 -0.1099594 -0.1526385 -0.36013874 -0.34194377
-0.07941393 -0.22277033 -0.20291798 -0.25211158 0.09951701 -0.11747305 -0.20473702 -0.14412118
-0.009638512 -0.061152704 0.15340546 -0.012462933 -0.09889744 -0.09748164 -0.17449349 -0.29981327
-0.20152003 -0.4865984 -0.07274527 -0.43714246 -0.4610877 -0.2655869 -0.18718426 -0.1672455
-0.20876878 -0.20927142 -0.25713146 -0.111638635 -0.19441694 -0.28066874 -0.24910033 -0.29171386
-0.35700712 0.050189607 -0.2994116 -0.3173485 0.06643344 -0.21221064 -0.33197573 -0.24020869
-0.044122152 -0.11469447 -0.2966425 -0.3024236 -0.13501552 -0.3715827 -0.46596283 -0.05438435
-0.14044651 -0.2579061 0.1586138 -0.2514131 -0.3832943 -0.12076236 0.028120091 -0.32422882
-0.24786961 -0.19428019 -0.20084801 0.045415964 -0.26478067 0.06363443 -0.32513458 -0.19256274
0.0035823004 -0.19106936 -0.46288872 -0.08032635 -0.26180395 -0.2897227 -0.328332 -0.0024337152
-0.05216018 -0.21948467 0.05286719 0.051993825 -0.24251622 -0.38209164 -0.37887964 -0.19305271
-0.17634994 0.12792465 -0.007204781 -0.14935906 -0.24075344 -0.65268105 -0.17833449 -0.09994942
-0.384402 -0.12711757 -0.35443085 -0.055410966 -0.034013066 -0.5557673 -0.09597412 -0.46572533
-0.5229396 -0.3451525 -0.14350246 -0.37068436 -0.23882093 -0.016001405 -0.50576717 -0.10334281
-0.25219736 -0.3114541 -0.21102256 -0.58721673 -0.060754117 -0.2003301 -0.52320653 -0.015551536
0.060943503 -0.33982775 -0.20489717 -0.2599049 -0.036180492 -0.060291328 -0.21335235 -0.39400348
-0.0007854137 -0.23366958 -0.36899927 0.06775428 -0.035834555 0.104901366 -0.31470883 -0.117195725
-0.12729318 -0.2519087 0.17377983 -0.07610313 -0.2685162 -0.21276867 -0.006090948 -0.20174104

weight f4 [24, 512]
00000000: 9ad3 04be 5c82 b23c d2c2 a03e 1878 603e
00000010: ae43 e83c 2202 3abd 5e62 ba3c b73c a13d
00000020: ebcc 343d 52b8 4f3c 811f da3b ccfd 3dbc
00000030: d973 493d cbd5 843d 8d4c ecbd 4f63 e73d
00000040: ea65 94be 2337 b4bc 6ff2 a83d 1564 143e
00000050: 5aeb ba3d f00f 0b3c a925 e33a b130 123c
00000060: 4540 aa3b 6141 5b3d 9058 ed3c 6043 2b3d
00000070: b4c0 1b3d de8e 68bb 7154 eb3d fbb7 583c
00000080: 1b60 873c 6228 ac3d bac0 6cbd 110d 193d
00000090: d6d8 7abe 9bde adbd 94e6 b93c 1738 a8bd
000000a0: 5adc 933d d485 3d3d d913 8cba 9f7b 8e3d
000000b0: a662 9d3d 3524 3f3d ce10 113d c19f 9b3d
000000c0: 8bad 313d 1f57 3e3d 2a04 1aba 6744 863d
000000d0: 5eb0 d6bd da26 7b3d 41d6 4fbc 62d2 02bd
000000e0: e255 f33d 880d 0d3d e37f 4a3d 24f2 0b3e
000000f0: 808e 033c 5e1c 6b3d 127c 7dba 05ce ee3c
00000100: c5d0 d1bc d9c3 7d3e 4538 eebb f899 e23d
00000110: cc70 f1ba 48f0 12be 79bf 973b 3e6b 133d
00000120: d1e0 813d 285c aa3d 34e3 f93b 1b7e d0bb
00000130: 40dd d3ba d08d a33c 5a23 5d3d cc9e 693d
00000140: 9a08 043e a4e4 aa3c a415 a53d f05b 09bb
00000150: 3fcf 00be 59da c23c 6e66 653c 5b3a e5bc
00000160: 1591 193e af6a abbc b743 00be 38cb 90bd
00000170: b95b 78bb b757 26bd 4fec 9b3d 568a 7bbb
00000180: e963 4b3e 5966 143e 5e1e 7b3c e4c0 ce3b
00000190: c430 89bd 6683 063d 73d2 4c3e 7c94 513e
000001a0: fb6e 8b3c 2b29 26b9 5297 c33e 0eec 9e3d
000001b0: 8afd a53c fb00 2a3d f8b1 163d 1701 083c
000001c0: 66bc 603c 637b 01bd 3b44 51bc 7691 26bd
000001d0: 89c0 a6bd a60b 89bd f0e6 c23c c8ca 263d
000001e0: 5cc4 7b3d 3b99 5d3e 398f 273e 1cd8 84bd
000001f0: 1612 353e 84b3 d0bd 85a2 0abd f7e8 b63c
00000200: 8ad3 c13d b612 3d3d bc85 b9bb 0a87 a73c
00000210: 67c0 73bd 087f 2f3c 9c9f b6bc a990 6e3c
00000220: 4659 aebc 3947 03be da7c 4a3e 4856 19be
00000230: a6d6 93bd 2e0f a03e afa8 033e 9f5c 993b
00000240: 91ed ae3b 3fec 2c3d 510f fd3c ac01 cdbd
00000250: 9f14 1a3e 16ed 413d a729 7d3d c29b f43c
00000260: fa89 68bd 8397 f83c 8e64 c7bd 0a27 503c
00000270: 9bdf cb3d 6dfe e53c cc05 4ebd fe51 03bc
00000280: 61ff d93d 44ac 183d 64b3 fb3c ddfb b3bd
00000290: 06ce 49be 4dd5 c23d 9a2a 95bd c9ef 63bd
000002a0: 67fc 003e 91c7 3b3e 8b70 963c d4c4 2a3d
000002b0: d4d7 20bd 25e0 33be d343 9eba 6ab8 dd3c
000002c0: a17f 213d 9a33 143d 3a41 c73d 95c0 f03b
000002d0: c0ff 4dbd b0ca a03d 10e3 a3bd f76e 8bbc
000002e0: dbc9 393d 30f1 493d ee34 a03b fe48 b23d
000002f0: c8f9 0d3e 649d 883d 6a41 683d 2c3c 1bbd
00000300: 435a 1fbd c982 113d c325 8bbc ecd7 4f3e
00000310: dbbf 2d3d 5125 fbbd 8514 c6bb d14a dc3a
00000320: 830f 973d b4ea 95be 7362 26be 5af7 d03d
00000330: a1aa f1bc cb42 1abd b877 543b c97b 893d
00000340: e755 a1bc 0bbb 1d3d 2e03 753d 0de8 91bd
00000350: f09a 8d3d 214b f7bc e76d c63d b121 263d
00000360: 5d4a 1b3e 46c2 a83d 18cf 203d 8083 75bb
00000370: edbf bcbc 6465 733d 4289 8e3e 7e99 c9bd
00000380: cc26 273e d484 653d 29b1 303b 45c5 9abc
00000390: 017a 883d ed21 9d3c 00c7 d1bc 49ea 953c
000003a0: fafb 8b3c 6c67 8f3c ac24 1c3d 4189 753d
000003b0: 4725 22bc 0131 8d3d 9742 143c be4f 9a3d
000003c0: 2ef4 22be 9026 e6bb beb3 b83a f8b8 b5bc
000003d0: 9022 c63c 8cb2 50bc 018c 7c3a c95c e73c
000003e0: ef11 7d3b 9894 0dbc 3eea 0ebc 6579 053e
000003f0: f8de 633d 0a48 8fbd 5fcb fe3d 1c07 cc3c
-0.12971345 0.021790676 0.31398636 0.21920812 0.028352585 -0.04541219 0.022751983 0.078729086
0.044140738 0.012678223 0.0066565876 -0.011596154 0.049182747 0.0648609 -0.115380384 0.112982385
-0.28984004 -0.021998947 0.082493655 0.14491303 0.09126921 0.0084876865 0.0017329949 0.008922742
0.00519565 0.053529147 0.028972894 0.0418123 0.038025573 -0.0035485546 0.11490715 0.013227458
0.016525319 0.0840614 -0.057800986 0.037365977 -0.24496779 -0.08489724 0.022692956 -0.08213823
0.07219763 0.046270207 -0.0010687067 0.069571726 0.07684831 0.04666539 0.035416417 0.0759883
0.043378394 0.046469804 -0.0005875254 0.065560155 -0.10482858 0.06131635 -0.012685359 -0.031938918
0.11881615 0.034436733 0.04943837 0.13666588 0.00802958 0.0574001 -0.0009669672 0.029150972
-0.025612244 0.24781741 -0.0072698914 0.110645235 -0.0018420457 -0.14349473 0.0046309796 0.035990946
0.063417085 0.08318359 0.0076259617 -0.006362689 -0.001616396 0.019965082 0.053988792 0.057036206
0.12893906 0.020860977 0.08060768 -0.002095934 -0.12579058 0.023785757 0.014001472 -0.027981928
0.1499675 -0.020924894 -0.12525831 -0.07070011 -0.0037896468 -0.040610995 0.07613432 -0.0038382015
0.19862331 0.14492168 0.015327064 0.0063096154 -0.066987544 0.032840155 0.20002155 0.20466799
0.017020693 -0.0001584633 0.38201386 0.077598676 0.020262498 0.04150484 0.036790818 0.008301041
0.013716793 -0.03161181 -0.012772615 -0.040666066 -0.08142192 -0.06691675 0.02379176 0.04072073
0.06146656 0.21640484 0.16363229 -0.06486532 0.1768268 -0.1019049 -0.033846397 0.022327883
0.09464176 0.046160422 -0.0056616943 0.020450134 -0.05950966 0.010711439 -0.022292905 0.014560857
-0.021282803 -0.12820138 0.1977419 -0.1497432 -0.07218675 0.3126158 0.12857316 0.0046802307
0.0053383787 0.04221749 0.030891092 -0.100100845 0.15046929 0.047345243 0.0618073 0.029859427
-0.05677221 0.030345684 -0.09735976 0.01270462 0.09954759 0.028075421 -0.050298497 -0.008015154
0.10644413 0.03727366 0.030725189 -0.087882735 -0.19707498 0.0951334 -0.07283516 -0.0556486
0.12596284 0.18337847 0.018364212 0.041691616 -0.03926833 -0.17565973 -0.0012074657 0.027065475
0.039428357 0.036182024 0.09729238 0.0073471763 -0.05029273 0.078511596 -0.08002293 -0.017020686
0.04535852 0.04930228 0.004889122 0.087053284 0.13864815 0.06670645 0.05670301 -0.03789918
-0.03890444 0.035525117 -0.01698578 0.20297211 0.042419296 -0.12262977 -0.0060449266 0.0016806965
0.073760055 -0.29280627 -0.16248493 0.102034286 -0.029500308 -0.037661355 0.003241999 0.06713063
-0.019694282 0.038508456 0.059817486 -0.07124338 0.069143176 -0.030187191 0.09688931 0.040559474
0.15165086 0.0824018 0.03926 -0.0037462413 -0.023040736 0.059422866 0.27839094 -0.098437294
0.16323394 0.056034878 0.0026961064 -0.018892894 0.066638954 0.019181216 -0.025607586 0.018300192
0.017087925 0.01750537 0.03812091 0.05994535 -0.009896583 0.068941124 0.009049079 0.07534741
-0.1591346 -0.00702364 0.0014091653 -0.022182927 0.024186403 -0.012737881 0.00096338993 0.028242486
0.0038615426 -0.008641385 -0.00872284 0.1303459 0.05563256 -0.06996162 0.12441134 0.024905734

bias f4 [24]
00000000: 8cc3 5a3a 0c89 d23a d73d 03bb a526 adbb
00000010: ba5b bc3b c3f8 583a 827a 333a f91e 293a
00000020: 3866 0dbc c0bf adbb 7a5d f8bc 317e 173b
00000030: f031 fc39 dc13 82ba ce9a 003b 6666 50bb
00000040: 1e7b 28bb 046d edba 2875 eb3a 2ad9 b2b9
00000050: 8a65 813b 2e37 08bb 804a 293e 5ad9 893a
0.0008345179 0.0016062572 -0.0020025873 -0.005284148 0.0057482393 0.00082768145 0.0006846563 0.00064514537
-0.008630328 -0.0053023994 -0.03031801 0.0023115987 0.00048102392 -0.0009924131 0.001962352 -0.0031799315
-0.002570815 -0.0018114154 0.0017963992 -0.00034112605 0.003948872 -0.0020784843 0.16532326 0.0010517046

weight f4 [24]
00000000: bad0 9a3f a0c8 aa3f 0e79 aa3f 8a6c bc3f
00000010: 03d7 b03f 84cb 9c3f 8a60 a03f 773d ce3f
00000020: 5150 c83f 53d6 c33f 57f2 5b3e 534e b63f
00000030: 9993 983f f3ee 9c3f f056 833f 18ff 903f
00000040: 408b bc3f 6189 9a3f 4ff6 a43f 7c93 953f
00000050: 22a2 b83f 52ff a63f a8ed 483e d9bd a23f
1.2094948 1.3342476 1.3318193 1.4720623 1.3815616 1.2249608 1.2529461 1.6112508
1.5649511 1.5299782 0.21479164 1.4242653 1.1920043 1.2260422 1.0260906 1.1327848
1.4729996 1.2073175 1.2887667 1.1685634 1.4424479 1.3046668 0.19621909 1.2714187

bias f4 [24]
00000000: 6e7c 7a3e 0826 13be 8aa6 8a3c 288a 293f
00000010: 0603 7ebe fc8d cd3d 07d0 0b3e c084 9cbe
00000020: 5a26 09be 1e5d b8bd 0de3 283f 346a 523e
00000030: 87e8 643d f36f 21be 0543 f6bc 1eca 31be
00000040: 476b 473d c61c 24bd a4e1 5a3d 1193 ae3d
00000050: ae67 8b3d dbed 2b3e d282 05bf 923a 26be
0.24461529 -0.14369977 0.016925115 0.66226435 -0.24805841 0.10036847 0.13653575 -0.3057003
-0.13393536 -0.09002136 0.6597145 0.20548326 0.055885818 -0.15765361 -0.030061254 -0.17362258
0.048686292 -0.040066503 0.053437844 0.085241444 0.06806885 0.16789953 -0.5215274 -0.1623328

weight f4 [24]
00000000: 9838 ab3f 2671 a83f 14f6 b93f df64 a83f
00000010: 6446 d63f 5788 a83f 267b 8e3f c65f a93f
00000020: 9327 c43f ed41 c83f c94f e23e 5508 a63f
00000030: 8778 953f 7913 b13f 6e5c 923f dc60 b33f
00000040: 1f37 b63f 7a04 8f3f ac7d 9b3f 5cb4 9e3f
00000050: 1f94 af3f b6fa bb3f 317f db3e 61f7 983f
1.3376646 1.315953 1.4528222 1.3155783 1.6740232 1.3166608 1.1131332 1.3232353
1.5324577 1.5645119 0.44201496 1.2971293 1.1677407 1.3834068 1.1434457 1.4013934
1.4235572 1.1173241 1.2147727 1.2398791 1.3717078 1.4685886 0.42870477 1.1950494

bias f4 [24]
00000000: 2397 86be fcca db3d 3940 60bd f80b d73d
00000010: e422 91be 7eb8 873d e9c6 2a3d 877b d73e
00000020: ff74 46be 8521 42be bbd5 11be c9c4 fbbb
00000030: 6638 f4bd d176 0f3e 7f2a b13a 809a 3f3e
00000040: 2de3 20bd 7ab5 f63d 0bf5 753e 8e29 0f3e
00000050: 55f6 393d 8d67 c7bb f51f d53d ef3d 643e
-0.26287183 0.107320756 -0.054748747 0.1050033 -0.28346932 0.06626986 0.0416936 0.4208643
-0.19380568 -0.18958099 -0.14241688 -0.0076833707 -0.1192482 0.14010169 0.0013516693 0.18711281
-0.03927915 0.12046333 0.24019258 0.13980696 0.045400936 -0.0060853423 0.10406486 0.22289251
