histories_pre/Transformer_EEGNet_BcicIv2a_pt/67.41%_slf=030_bs=032_lr=0.0143_ld=0.999893_nl=1_nh=06_fd=128_do=0.63/best_valid_loss.pt (torch, 74571 bytes, 17 tensors)

positional_encoding f4 [1, 257, 24]
00000000: 5f0f 42bf 714a ccbe 5c18 0a3e b64e d5be
00000010: ff58 d93d c40f 973d c821 323f 0b44 a7be
00000020: ba2b f0be c8a6 83bf 3a0a 58bf afb4 013f
00000030: f564 0fbe fa6c 433f 5e92 63bc 8fd6 2ebe
00000040: 6a86 babe e593 dc3e b9d1 553e 05e9 06bf
00000050: f495 903f 0023 0cc0 3494 3fbc b7ac fa3d
00000060: 7cbc 473f 0bb4 6fbf 2fd2 10bf d2b7 043f
00000070: 3051 9b3d d3a9 a73f 8f89 2c3e 5fe8 37bf
00000080: 54ab 95bf 958a 103e aed1 a5bf 9038 3c3f
00000090: 4659 83be 67d6 c0be ae4c 79be f4d0 ed3e
000000a0: 7d09 293f 019a a83d edda d93d 9453 1c3f
000000b0: 4926 b13e ef3a bd3f dbd7 abbe ec55 07be
000000c0: 4fe3 d4be dd9f 18be 357f 0a3f e8ef e13e
000000d0: 3d4f 203f 5b96 32bf c8a9 4e3f 4014 8bbe
000000e0: a32b 9abe 4ae6 2d3f 2f9f 8c3f b526 de3f
000000f0: a1a9 6abf 4bc0 fbbe 42f4 f33f f7a8 80bd
00000100: 65a5 35bd 745d 7abe 87a8 273f ae5f 713f
00000110: bee3 7cbf 95b9 ef3f eeef 3cbf aaa0 a5bd
00000120: 239b 3fbf fecc 57bf 704a 9b3d c86d c23d
00000130: 9835 7cbe 5a85 6d3f d740 10bf dc56 4dbf
00000140: f360 28be 1c95 d23e 040d cfbe 6280 b7be
00000150: 89f4 a73f 3614 f4bd c867 f93e c71f 333f
00000160: aad2 7bbf 795c be3f 1c98 3abf 26d7 023e
00000170: 8653 85bf 8642 c4bf 6248 813e 4b8b 163e
00000180: c316 c43f 341b 88bf f5b4 72bf f208 953c
00000190: 5358 e7bf 671c c5bf 8a40 383e ba0f 07bf
000001a0: 3f88 e93e 8e1e b0bd 3c4d d23e 05fe 253f
000001b0: 1b81 2a3f 8ccd 44bf 60c2 9b3e 7388 21bd
000001c0: 7b0a 273d 1339 f7bf ff9e 16bc dbd5 863e
000001d0: add6 f63e 34e1 083f 112c 4ebf 21b9 5abf
000001e0: 4845 37bf 6c43 a3bf a5f9 bd3f f3ec ffbe
000001f0: 28f5 703e 7180 2b3f 54a2 983d 7318 2d3e
00000200: 78ad 8dbf 92e7 533d b9a1 523e b920 2e3f
00000210: 6700 b8bd 0f46 633f 5267 b03f 71dd 79be
00000220: 6fc3 44be e888 1a3f 9495 0b3f 3ef3 09bf
00000230: 467a 16bc 0dba 68bf 0acd 80be 4ef2 3b3e
00000240: b737 07bf 9b4a d0be d744 f7be b6d2 133f
00000250: 73bb 0b3f 572c 113e 8e9f 25bd 7649 22be
00000260: 094a c5be 8841 513f b44e b3bf 1120 163f
00000270: 8a2f 7dbf 837c c13e b4e4 19bf e384 293f
00000280: 5601 843f ceea 44be 5342 d2bd ebf0 acbe
00000290: 4e22 cd3f 4ddf 2fbf 5c04 723f a918 e5bd
000002a0: 9a11 e2bd fb60 163e a474 46bd 3393 7e3e
000002b0: 49f0 37bf eeb5 65bf 9266 d8bd 6ada 48bf
000002c0: fa91 8ebe 8e52 b83e 1b01 75bf 6e5d 0c3f
000002d0: 1c2c 5b3f 4484 0e3d d561 ab3e b4f8 863e
000002e0: 5906 15bf 8f1c 0a3c c011 1dbe abca 2fbd
000002f0: 17e8 ef3d e7c8 a2bf f974 b3bf 99ac 2f3c
00000300: 5536 27bf f655 57bf 5b90 edbe 5c2e 273e
00000310: 6562 db3e 23b4 763f bc0f 91bf b793 6b3f
00000320: dbc2 fdbe 8c68 d3be 2d88 e03f 7b57 de3e
00000330: cb65 5a3f 470e 6abf 2631 9a3e 25b4 17be
00000340: e280 613f e53d b8be 5d55 873f acc3 263f
00000350: 7d72 5fbf 7fc1 0640 25fe 27bf 81b4 3cbf
00000360: 2713 213f 3122 cd3f be79 7ebf f4ae 6a3e
00000370: 2f10 963e f510 11bf e270 94bf cac9 773e
00000380: bdb4 0ebf 8d14 983f aded 9cbe ea1a d9be
00000390: 5c4c 7f3e db4d 973d 2452 d4be 693d 04bf
000003a0: 7c95 95ba 034c 93bf 0966 563e af79 8c3f
000003b0: 9275 e7be 9109 4d3e fb5d df3f 45af 45bf
000003c0: c86d 65bf 5a27 4bbf 6a88 a13c d726 83bd
000003d0: 90cf 0c3f f055 9a3d 4465 9f3d 8163 8dbe
000003e0: 6e24 6fbe facc 373f 26cf 35bf 2a0c 0b3f
000003f0: ef59 64bf 71d5 b6be 2126 0e3f c769 7dbe
-0.75804704 -0.39900544 0.13485855 -0.41661614 0.10612678 0.07376054 0.69582796 -0.326691
-0.4690836 -1.0285273 -0.84390604 0.50666326 -0.14003356 0.7633816 -0.013889877 -0.17074035
-0.36430675 0.43081585 0.20880784 -0.5269931 1.1295762 -2.1896362 -0.011693049 0.12239974
0.7802198 -0.936341 -0.56570715 0.5184299 0.07583845 1.3098701 0.1684935 -0.71838945
-1.169291 0.14115365 -1.2954614 0.7352381 -0.25654048 -0.37663576 -0.24345657 0.4644848
0.660301 0.08232499 0.1063746 0.6106503 0.34599522 1.478361 -0.33563122 -0.1321637
-0.41579673 -0.14904733 0.5410035 0.44128346 0.6262091 -0.69760674 0.80727816 -0.27163887
-0.30111417 0.6792952 1.0986079 1.7355562 -0.91665083 -0.49170145 1.9058917 -0.062822275
-0.044347186 -0.24449712 0.6549153 0.9428662 -0.98785007 1.872851 -0.73803604 -0.08087285
-0.74846095 -0.8429717 0.07582557 0.09493595 -0.2462982 0.92781603 -0.5634894 -0.8021066
-0.16443233 0.41129386 -0.40439618 -0.35840136 1.3121501 -0.119179174 0.4871199 0.69970363
-0.9836832 1.487197 -0.7288835 0.12777385 -1.0416114 -1.5332801 0.25250536 0.14701574
1.5319446 -1.0633302 -0.9480737 0.018192742 -1.807383 -1.5399293 0.1799337 -0.5275837
0.4561176 -0.08599578 0.4107455 0.6484073 0.6660325 -0.7687614 0.30421734 -0.03943677
0.04078148 -1.9314293 -0.009193181 0.26335034 0.4821066 0.5346863 -0.8053599 -0.85438734
-0.7159009 -1.275495 1.484181 -0.49985465 0.2353102 0.6699286 0.07452837 0.16903858
-1.1068563 0.051734515 0.20569505 0.6801868 -0.08984452 0.88778776 1.3781531 -0.2440088
-0.19215177 0.6036515 0.54525113 -0.53886783 -0.009184426 -0.9090889 -0.25156432 0.1835415
-0.5281939 -0.4068192 -0.48294708 0.57743394 0.545829 0.1417707 -0.040435366 -0.15848336
-0.38533047 0.8174062 -1.4008393 0.5864268 -0.98900664 0.37790307 -0.601146 0.66218394
1.0312908 -0.19230196 -0.102665566 -0.33777556 1.6026094 -0.68700105 0.945379 -0.11186344
-0.110385135 0.14685433 -0.04845108 0.2486084 -0.7185102 -0.8973073 -0.10566439 -0.78458273
-0.27845746 0.36000484 -0.9570481 0.5483006 0.8561418 0.034794107 0.33473077 0.2636162
-0.5821281 0.00842966 -0.15338802 -0.04291789 0.117141895 -1.271756 -1.4020072 0.010722303
-0.6531728 -0.8411554 -0.46399197 0.16326278 0.42848507 0.96368617 -1.1332927 0.9202227
-0.49562725 -0.412907 1.7541558 0.43426117 0.85311574 -0.91428035 0.30115622 -0.14814813
0.88087285 -0.35984722 1.0572926 0.6514232 -0.8728407 2.10556 -0.6562217 -0.7371293
0.6291985 1.6026059 -0.99404514 0.22918302 0.29309222 -0.566665 -1.1596949 0.2419807
-0.55744535 1.1881272 -0.30650082 -0.42403346 0.24931473 0.073878966 -0.41468918 -0.51656204
-0.0011412348 -1.1507572 0.20937361 1.0974635 -0.45206887 0.2002318 1.7450556 -0.77220565
-0.8962064 -0.7935692 0.019718368 -0.064038925 0.55004215 0.075359225 0.07782987 -0.27614978
-0.2335374 0.71797144 -0.7101921 0.54315436 -0.8919973 -0.35709718 0.5552693 -0.24747382

weight f4 [24, 22]
00000000: c557 063f 8ef1 a23f 8180 c03e af5c cabe
00000010: 7588 c2bf 9eff 03c0 4fd5 013f 2132 b7be
00000020: e034 603f f4f7 7b3f aadb 22bf 8f6a 6c3f
00000030: d37f 0ebf a0fc 03c0 f77c 4abe 9022 b23f
00000040: 5ac3 6c3f b8c0 5f3f 9274 2bbf eb8a 123f
00000050: e6f6 63bd 3680 bbbd 7e49 1cbf 6ad8 b1bf
00000060: 9a6c aabe fe5c acbd 25f1 ccbd ef44 123f
00000070: 958e e0bd d05b c53d e1f1 0f3e 3537 9c3e
00000080: c64b 1c3e d632 f7be b67f b83f 6f7c 893f
00000090: b44c 833f 9eb2 a23e d860 833e 44c0 803e
000000a0: 7407 0cbf 3733 53bf c2bc b83e fa40 cebf
000000b0: c533 b7bd 0cb7 32bf c830 f0be 302f 9f3e
000000c0: 6716 80be f25f 68be 34ce 4e3f 9c67 c33e
000000d0: f9ef df3e d545 463f a46b 59bf 7b5e 9ebf
000000e0: 4aed d93f edaf 22bf 6800 033e 4463 e63e
000000f0: 3566 cbbe 50c8 8fbd 734d 8bbf 9ad4 ff3c
00000100: 158d 873f cb6f 173f b1a1 5e3f 6db1 c73e
00000110: 86d5 42bd 171a fa3e dd07 dfbe 4c1a 32bf
00000120: 0a21 2f3e f204 20c0 032d bbbe 2f0d 3940
00000130: 4732 39be c7bd 02c0 15d5 0dbf c320 22c0
00000140: bfbe 993e c8cc 3c40 1cc9 ddbe 49b7 56bf
00000150: eca5 733f 85ed f63f c933 ae3e f69f d2bc
00000160: bb65 603f 7f24 a93f ea35 e83e 4772 0fbf
00000170: 37b6 09c0 5017 2cc0 6acd d73e 5843 d83f
00000180: 724b 9b3f 011b 3abf ad41 17bf 177c fe3f
00000190: f066 a8be 8cd9 52bf 22da 44be 671a 123f
000001a0: 3024 d33f 741a c63f 12f7 8bbf b7e4 bfbd
000001b0: 5154 dc3d fc18 913e 0994 353f 00cf 933f
000001c0: 34e8 1ebe 2e9a e1be f775 08bf a2fe 36be
000001d0: 7208 f83f 5da3 cdbd 6b18 b5be 9d90 133f
000001e0: c96b a3bf e016 94be be11 aa3f 89ed 97bf
000001f0: 10a9 e6be 18d7 813f b598 25bf 3b07 9cbd
00000200: 0d52 8fbe 7c32 183f 90b0 5f3e 0cb8 2cbf
00000210: d4d7 35be 4f12 9abf fcb0 3bbf bc47 b8bf
00000220: 717a 4abf 9873 873d 0dc2 06bf aead 993e
00000230: f2cd 0bbf 6558 3d3d 3af9 4b3f d777 e13f
00000240: 52ca 323f 1301 5f3f edb5 8d3f 9777 b73f
00000250: 355e b73f d1cc 643f 8209 8e3f b172 5d3d
00000260: 17d0 6fbf 4e6a 09c0 8cca 4fbe 18aa b2bf
00000270: 1918 103e dcb3 ae3e 4840 9c3f f8e1 953f
00000280: e4fc f3bf 64bd c0be 23ac ffbd 5ecd 8abe
00000290: c76a 0440 1e2a 9e3f 7afe fbbf 02c5 f03f
000002a0: 8c3d 753f 1d13 1cbf c04f 2c3f 5c1b 193d
000002b0: 528b c33f 4364 1ebe 7da3 9cbf 6fa9 88bf
000002c0: b90e 403f 4a81 a73f 2c01 f9bd b1e2 03bf
000002d0: c502 5dbf 12d6 34bf a63a 0140 3cf3 c03d
000002e0: 89bc a7be eb6d 0bbf de55 4fbf 810d 0d3f
000002f0: bbe8 523f 897d a8bf e10a 2cbf d552 023f
00000300: bd2f 9bbe 75f9 74bc 7837 0b3e 6414 eb3e
00000310: 25c3 8dbe 55b1 6c3f 8c42 aabe 3edc 95bf
00000320: 97c5 12bf 8004 903e f8e9 b63f 0c28 f03f
00000330: b749 46be f925 46bd 3099 85be 71ac c9be
00000340: 5acb 8ebd 5c9c 8abf 35ba 593f eaf6 ad3f
00000350: 3899 c6bd 7147 84bf 8bff 5abf 3353 dabe
00000360: 8170 3d3e f10f e5be b6b1 3f3f c3f2 b73f
00000370: 3762 38bf 4841 9cbe 76b9 6f3e 2753 0e3f
00000380: a353 fd3e 6a64 71be 4ba8 873e 6cd9 a7be
00000390: 1250 2a3f 83f6 c63e 3863 96be fa41 7abf
000003a0: b275 cc3e e573 c63d 5e1d d2be e2ed 6cbf
000003b0: 4d41 c7be 2bb3 ba3e d382 0ebf 500f 31be
000003c0: b447 4f3f e14e 9b3f b809 353f ff73 af3f
000003d0: e8e4 813f 5b3c 613f 7b10 893e 9f4b 7dbd
000003e0: 58c8 473e dbe6 0bbe 3ab2 243f 7044 203f
000003f0: 114e 28be babd d13e cbe8 b2be ed77 c3bf
0.52477676 1.2729967 0.3759804 -0.39523837 -1.5197893 -2.0624766 0.5071611 -0.35780433
0.8758068 0.9842522 -0.6361643 0.92350096 -0.55663794 -2.062294 -0.19774233 1.3916798
0.9248558 0.8740344 -0.6697475 0.5724322 -0.055655383 -0.09155314 -0.6104964 -1.3894169
-0.3328598 -0.08416174 -0.10006932 0.57136434 -0.10964695 0.096366525 0.14057113 0.3051087
0.1526328 -0.48280972 1.4413974 1.0741099 1.0257783 0.317769 0.25659823 0.25146687
-0.5469887 -0.8250002 0.3608151 -1.6113579 -0.08945421 -0.6981056 -0.46912217 0.3109069
-0.25017092 -0.2269285 0.8078339 0.38164985 0.43737772 0.77450305 -0.8492987 -1.2372583
1.702554 -0.6354969 0.12793124 0.4499761 -0.39726415 -0.070206285 -1.0883011 0.031229306
1.058993 0.5915496 0.8696547 0.39002553 -0.047566913 0.4884803 -0.43560687 -0.69571376
0.17102447 -2.5003018 -0.3655778 2.8914297 -0.18085586 -2.042833 -0.5540326 -2.5332496
0.3002834 2.9499989 -0.43317497 -0.8387342 0.9517505 1.9291235 0.34023884 -0.025711041
0.8765523 1.3214263 0.45353633 -0.5603375 -2.1517465 -2.688923 0.42148906 1.6895552
1.2132399 -0.72697455 -0.5908459 1.9881619 -0.32891035 -0.823632 -0.19223836 0.57071537
1.6495419 1.5476823 -1.0934775 -0.09369796 0.107582696 0.28339374 0.7092901 1.1547546
-0.15518266 -0.44062942 -0.53305 -0.17870572 1.9377577 -0.10040925 -0.35370192 0.5764254
-1.2767268 -0.28923702 1.3286664 -1.1869365 -0.4505086 1.0143766 -0.6468614 -0.076185666
-0.27992287 0.59452033 0.21844697 -0.67468333 -0.17758113 -1.2036837 -0.7331693 -1.4396892
-0.7909308 0.06613845 -0.5263985 0.3001532 -0.5461112 0.046226878 0.79677165 1.7614697
0.69839966 0.87111014 1.1071144 1.4333371 1.4325625 0.89375025 1.1096652 0.054064456
-0.93676895 -2.1471133 -0.20292109 -1.3958158 0.14071693 0.34121597 1.2207117 1.1709585
-1.9061551 -0.37644494 -0.12484004 -0.27109808 2.0690172 1.2356603 -1.9687035 1.8810122
0.9579704 -0.60966665 0.6730919 0.037379608 1.5276892 -0.15467934 -1.2237393 -1.0676707
0.75022465 1.3086331 -0.12158427 -0.5151778 -0.8633235 -0.70639145 2.0192046 0.09421393
-0.32761028 -0.54464597 -0.809904 0.5509873 0.8238637 -1.316331 -0.672041 0.5090764
-0.3030986 -0.014952053 0.13595378 0.45913994 -0.27687946 0.9245809 -0.33253896 -1.1707838
-0.5733275 0.28128433 1.4290152 1.8762221 -0.19364057 -0.048376057 -0.26093435 -0.39389375
-0.0697238 -1.0828967 0.85049754 1.3590977 -0.09697193 -1.0334302 -0.8554618 -0.426416
0.18499948 -0.44738725 0.7488054 1.437096 -0.72024864 -0.30518556 0.23410591 0.5559563
0.49477872 -0.23573461 0.26495585 -0.32783067 0.6652843 0.3885995 -0.29372573 -0.9775692
0.39933544 0.09690074 -0.4103803 -0.9255048 -0.38917008 0.3646482 -0.5566837 -0.17290998
0.80968785 1.2133447 0.70717955 1.3707274 1.0147982 0.8798272 0.26770386 -0.061839696
0.19510019 -0.13662283 0.6433445 0.6260443 -0.1643603 0.40965062 -0.34943232 -1.5270973

bias f4 [24]
00000000: 88f9 4ebe 45ba 5bbf d58b 42be fd0a c5be
00000010: 1a30 adbf 6ebe 10bf 649a 72bf ad22 4cbf
00000020: 1db8 0ebf 615a de3f 0aa4 3e3e a405 db3f
00000030: a929 42be 0879 09bf 35d8 aabe 6973 bd3f
00000040: 45a6 11c0 d74b 533f affa 1f40 ee44 c1bd
00000050: 9e7b 573f 9b34 87bc 11f8 923f b324 3fbf
-0.20212376 -0.858311 -0.18998654 -0.38484946 -1.3530304 -0.5654057 -0.9476683 -0.7974041
-0.55749685 1.7371331 0.18617263 1.7111096 -0.18961205 -0.53700304 -0.33368078 1.4800845
-2.2757733 0.825376 2.4996755 -0.094369754 0.84173 -0.016504576 1.1481954 -0.74665374

in_proj_weight f4 [72, 24]
00000000: 81b3 913e 4d1d cdbc cc27 eabe fd4d c33d
00000010: 1ff3 0c3f 4f86 10be 03fd 473e 0764 073f
00000020: 2632 80be 1cad 983c 11a3 bdbd 2be8 9e3d
00000030: f8c0 e73d 3042 ba3d 8ba0 67bc ff09 0cbf
00000040: 7c7b bcbd a9c5 3dbe aef8 0ebe d829 363e
00000050: 33df 6d3e aeff 573d 6077 ef3d 23a9 2b3e
00000060: 00b2 e13e 24b1 073e 78ab 483d 65f3 c03e
00000070: f5cf 1a3e 9b49 e2bd b5a0 353f 6aac 9a3e
00000080: 3682 a23c 3852 debd 8bdb 9ebe 7013 cebe
00000090: 52b2 123e bd76 913d 5768 04be 8405 19bf
000000a0: db7d 2bbe 444f 24bc 091a 143f 2bbd 5cbd
000000b0: 38b2 9e3d c010 34bc e883 7f3e ddf3 ebbe
000000c0: 4486 b53e dd77 523e 9459 0b3e 2f6e d5bd
000000d0: 4f48 903d 3884 a13d 3b83 6bbe c5bb a3bd
000000e0: 132a 5e3e ed04 ac3d 0fb5 173d 6e0e 203f
000000f0: 0e79 4b3e af72 65be 0dee 42be 3b06 91bd
00000100: a383 93bc b765 29bd 169b dfbc 0c4e b6bd
00000110: 1fab 52be 47e3 a4bd cd01 e6bb 4b39 8bbd
00000120: d18b 9dbb 7d2d e8be a630 b63e 8cd1 f93d
00000130: 7937 23bd 17f0 7dbe ada3 f03d 0add 133d
00000140: c48e a8bc 859f 003e 51b9 7d3d ecce 87bc
00000150: 0df9 b43e 5c4a 95be 6aa3 c43e cccd 193f
00000160: d243 efbc a58c 90bd 0971 44bc 41a5 843e
00000170: 0f97 16be ab80 643e 5fee c63d 7a60 3a3e
00000180: 99c0 da3d d11c d1bd fa1c 3abb 96cf 183e
00000190: 825e 823e 35fe fabd 403a e73b 9bb9 70bd
000001a0: ef81 5d3e 3056 623e 1b96 4f3d d0be 063d
000001b0: 3123 a7bc 1320 d53d 5f1f 83be 9727 83bc
000001c0: f126 033e 7778 52bd 9e0b 7d3b a10e b93d
000001d0: c243 9c3d 6193 553d 6118 8e3e ec62 80bc
000001e0: 24e5 6bbe eecf 3bbe ef0f a13d bf14 4d3e
000001f0: b3a5 b73c 4b34 323d c3e4 0dbd 3e04 be3d
00000200: 554f dbbd e533 143e 2069 cdbd af82 583d
00000210: 8224 7b3e 6a8a b6bd 9659 983e 9d23 6e3c
00000220: 6541 45be 3f5f 87be 5382 9b3d 4e38 f13d
00000230: 9e2a 883e ba86 b13e 64de e23d 1de2 21be
00000240: 1baf bcbc 3c22 7c3e 3655 0a3c 2d0e 0e3e
00000250: 344e 9d3a ab60 a93d 22a5 8cbd 24d1 633d
00000260: a904 cbbd fc4a cd3c aa70 803c 61b5 b4bd
00000270: b331 903e 3aa6 253e a527 02bd 0c1a e8bd
00000280: 7a13 84be 2da7 77be b89d 333e 8b2f a3be
00000290: 389f 113e 092f 80be 2f14 593e 1910 94bd
000002a0: 26c6 c9be 62f7 e03c 6230 eebc b3b7 0bbe
000002b0: 7c84 aabe a2e2 1c3e 890c ecbc 7d26 09be
000002c0: 10ba 003e b6b9 003d da3c bd3d dc89 a7bd
000002d0: 7a7c 3dbe 008b ec3d b058 0f3e d722 893d
000002e0: de6d c43d 2da7 1f3d fce2 5ebd 2e4d babd
000002f0: e63d 5abd 6f7f 8ebe 8ae5 a0be f917 dfbd
00000300: 9a20 47bd d1ca afbc c99c ddbd 1732 903e
00000310: cc26 693e e1ca 91be f641 a7bd 738b 143e
00000320: c31e 12bf b418 8abe 61d0 b2bc 385a 92bd
00000330: 7cc1 093e 3bb6 88be 5a3e 173e 264f 603c
00000340: d349 cfba 94eb 11be f942 ff3d d51a ac3d
00000350: 8625 48bd 0163 acbd 170f b63e 5e17 cbbc
00000360: 7a0c 98bd d519 6fbd d627 4abe 1d6f a3be
00000370: 353b 103e 2073 323d f0bf 933d eda3 06be
00000380: 56cb 5f3e 2180 f73d 8b69 10be 0c10 f93d
00000390: c86a 55be f101 7b3d cfc1 903e 9f33 63be
000003a0: 36ca 8ebd 4edd 033e db64 cb3d a209 8a3e
000003b0: cabe 983e fbc9 093e ced3 053e 8580 e7bd
000003c0: e8ce 85be 18f5 1ebd f666 1e3e 27c4 1f3e
000003d0: 5c32 a5bb 7054 133e c2be 8b3d 9e10 d83d
000003e0: 38e5 15bd 2206 7e3e 9283 843d c3ca 50bd
000003f0: 7508 41be f374 9e3d 3385 a7b9 f8df 463d
0.28457263 -0.025038386 -0.45733488 0.095363595 0.55058473 -0.14113735 0.1953011 0.52887005
-0.2503826 0.018637232 -0.09259618 0.07759126 0.11316103 0.090946555 -0.0141373975 -0.5470275
-0.0920324 -0.18532433 -0.13962051 0.177894 0.23229675 0.05273407 0.11692691 0.1676374
0.44081116 0.13251168 0.04899165 0.37685695 0.15118392 -0.110491954 0.70948344 0.30209666
0.01983748 -0.10855526 -0.31026873 -0.40249205 0.14325836 0.07102726 -0.12930427 -0.5977404
-0.16747229 -0.010028664 0.57852226 -0.053891342 0.07748836 -0.010990322 0.24952662 -0.4608449
0.35454 0.20553537 0.1360839 -0.104214065 0.07045042 0.07886547 -0.22999279 -0.079947986
0.21695738 0.08399377 0.037037905 0.6252202 0.19870397 -0.2240703 -0.19036122 -0.070812665
-0.018007105 -0.04135677 -0.02729563 -0.08901605 -0.2057309 -0.08051162 -0.0070192576 -0.06798037
-0.004807927 -0.45347205 0.3558399 0.12198171 -0.039847825 -0.24798618 0.11749969 0.03609947
-0.020575888 0.12560852 0.06194431 -0.01657816 0.3534626 -0.29158294 0.38405925 0.60079646
-0.029207144 -0.07058076 -0.01198984 0.2590733 -0.14706062 0.22314708 0.097134344 0.18200865
0.10681266 -0.102105744 -0.002839862 0.14922938 0.2546273 -0.122555174 0.0070565045 -0.058770757
0.21631597 0.2210319 0.05068026 0.032896817 -0.020402523 0.10406508 -0.25609872 -0.016010089
0.12807824 -0.051384415 0.003861166 0.09035993 0.07630111 0.052142505 0.27752975 -0.01567217
-0.23036629 -0.18341038 0.07864367 0.20027445 0.022417879 0.0435069 -0.034641992 0.09278153
-0.10708491 0.14472921 -0.10029817 0.052859005 0.24525645 -0.08913119 0.2975585 0.014534858
-0.19263227 -0.26439855 0.07593217 0.117783174 0.26595014 0.346731 0.11077574 -0.15808912
-0.023032716 0.24622434 0.008443167 0.13872595 0.0012001456 0.08270391 -0.06867434 0.055619374
-0.09912998 0.02506017 0.015678722 -0.08823658 0.28162917 0.16176692 -0.03177609 -0.11333093
-0.2579611 -0.24184866 0.17540634 -0.3187221 0.14220893 -0.25035885 0.21199106 -0.07229633
-0.39408988 0.027461711 -0.029075805 -0.13644294 -0.33304203 0.15320829 -0.028814571 -0.13393588
0.12570977 0.031427108 0.09240122 -0.081805915 -0.18504515 0.1154995 0.13998675 0.06696098
0.09591268 0.03897779 -0.054415688 -0.09096752 -0.053281687 -0.278316 -0.31425124 -0.10893244
-0.048615076 -0.021459015 -0.1082092 0.28163216 0.22768706 -0.28475097 -0.08166878 0.1450632
-0.5707819 -0.26971972 -0.021827878 -0.07146114 0.13452715 -0.2670153 0.14769879 0.013690745
-0.0015814848 -0.14250022 0.12463946 0.08403555 -0.04886391 -0.08417321 0.35558388 -0.024791416
-0.07424255 -0.058374245 -0.19741759 -0.3192071 0.14085086 0.043566823 0.072143435 -0.1314847
0.2185491 0.120849855 -0.14102761 0.12161264 -0.20841515 0.06128115 0.28272864 -0.2218766
-0.069721624 0.1287739 0.09931346 0.26960474 0.2983306 0.13455956 0.13069078 -0.1130381
-0.2613442 -0.03880796 0.15468964 0.1560217 -0.0050414037 0.14387679 0.068234935 0.105500445
-0.036595553 0.24807027 0.064704075 -0.05097462 -0.18850882 0.0773715 -0.00031951963 0.048553437

in_proj_bias f4 [72]
00000000: 0819 89bf c5da 4b3f 0e25 bf3f e40f b9bd
00000010: e4ab 52bf f115 4ebf f53d 09bf 3783 94be
00000020: 19bb 833f c165 f5be 09c8 dbbe b5f2 27bf
00000030: b452 78bf 731e 203f 9468 c2bf fd0d 94bf
00000040: 3b73 193d 4cca 35bf cb8c 55bf 59d7 1f3e
00000050: 1b50 91bf 8f19 243f 578f cb3e 1954 573f
00000060: b13a 093d cd11 5cbc cfc6 62bc f2f0 053d
00000070: ce23 a4bc c20d 76bd 91da 75bd ed9e 2dbd
00000080: 4a82 173e 6e18 973d f766 fcbd 628f ae3d
00000090: 9933 b63d eeaa cd3c 55fc 373d 953f 81bd
000000a0: 8054 afbc 7d68 303d 2833 be3c 02aa 173c
000000b0: e70d 9ebd 1ba7 c33d 0965 793d d90d b03d
000000c0: 025e ccbd 840b 4bbd 74c4 943e 4c9b 233e
000000d0: 06a5 0ebe a373 42be cb72 cbbd df71 04be
000000e0: ddbd 873d 89a5 f93d 4c9d f53d 4fc0 5cbe
000000f0: 3ba3 533e a927 f1bc dfaa 3dbe 0ab4 c13e
00000100: 0222 543d 4394 033d e028 3c3e 9d4d 1ebe
00000110: 3338 673d d8cf bfbd cee3 b33c 8cd3 b53c
-1.0710764 0.7963069 1.4933183 -0.09036234 -0.82293534 -0.8050223 -0.53610164 -0.2900636
1.0291473 -0.47929195 -0.42926052 -0.65604717 -0.97001195 0.6254646 -1.5188165 -1.1566769
0.037463408 -0.71011806 -0.8341796 0.15609492 -1.1352571 0.641015 0.39757797 0.841127
0.033503238 -0.013431978 -0.013841345 0.032700486 -0.020036604 -0.060071714 -0.060022894 -0.04238789
0.14795795 0.073777065 -0.123243265 0.08523442 0.0889656 0.02510592 0.044918377 -0.063109554
-0.021402597 0.043068398 0.023217753 0.009256842 -0.077174954 0.09553357 0.06088737 0.08596391
-0.09978868 -0.04957153 0.29056132 0.1597721 -0.13930139 -0.18989424 -0.099340044 -0.12934063
0.066280104 0.121897765 0.119928926 -0.21557735 0.20667736 -0.029437857 -0.18522213 0.3783267
0.051790245 0.032123815 0.18374968 -0.15459295 0.05645008 -0.09365815 0.021959212 0.0221956

weight f4 [24, 24]
00000000: b8ac 933d 3e64 213d b719 2cbe 8c20 42bc
00000010: 1532 2ebe df49 c8bd 2927 ab3d b7a0 eb3b
00000020: c74d e5bd b6e6 933c e4f2 d3bd 5ed4 703d
00000030: 0f51 333e 6a78 2dbc 2b9a afbd 222b bdbd
00000040: 8f73 94bd 50cd 84bd df35 d4bd f135 693d
00000050: c816 263d 16c3 903d 0e63 093e 49ba 0abe
00000060: 8fd9 4e3d c188 f8bb 8540 31bd fcc3 56bd
00000070: 02d7 b23d ac1d 613d 7df9 9c3d 66a4 e9bd
00000080: adeb 0fbb a4d9 94bd becc 9d3c 8b0d 7abb
00000090: 3e2f 2b3d 1bc0 6a3c d635 e7bc 5455 083d
000000a0: c2aa 52bc cb95 a1bd 9eb4 13be a3e6 f9bd
000000b0: f4e4 d4bd fa26 de3d 35a9 bf3b d636 1ebd
000000c0: c6ac b5bd 18d9 e0bd 7307 87bd e038 44bd
000000d0: 4d17 53bd e1ab 2cbd 0c4a 7a3d 5ece 823d
000000e0: 232a 63bd db1b 76bd 4eb6 88bd 4324 b9bc
000000f0: 0730 a6bd 994a 54bd 5e6e 08be 4861 45be
00000100: b104 10bd a60b 69bd bd02 00bc 7ca1 cbbd
00000110: 8dd2 353e 68ef 0e3d a0ae d0bc 0fd9 07be
00000120: ece6 9dbb ff00 6abd 21f9 01be b21e 6c3d
00000130: 9eb9 0abd d368 6d3c b984 00bd e57e a73d
00000140: dc62 bbbd d193 b0bd 19ac 603d 3f14 5a3c
00000150: 8bd3 83bd f1dc 133d 65d5 1c3c 3e9c b1bb
00000160: 07c8 3dbd b21e 3f3d 9517 dabd 6d9a f93b
00000170: 8042 9e3a 677a e83c 2286 5b3d 6d87 6abc
00000180: 2b89 7abc 3092 07bd fee0 0b3d 22a9 0c3d
00000190: dd7e d73c f450 523c b77d b039 e5e3 1e3d
000001a0: ca50 973d acc8 de3d f6a3 72ba e7e5 a9bc
000001b0: 2f17 11bd db22 9dbd c203 5abc 667b 0b3c
000001c0: f0f5 6dbc ead7 80bd d0a9 b53c 7529 0bbd
000001d0: 7c65 69bc fa87 593c a329 03bc 3d5f 82bc
000001e0: 6dd9 293d 2122 cfbb c529 92be 741a 68bb
000001f0: 38b0 70be 6cea 2bbe a052 32bd 4759 213d
00000200: 1342 943c d9d1 5d3d 472e 993c f525 553d
00000210: 2d9e 363c 12a4 ff3c 574f dabc 5cbd f0bb
00000220: b657 b63d 6c49 6f3d daf1 e73c f49b cc3d
00000230: fcf2 913d 609e 98bd 68f9 fc3d 4e3d e0bd
00000240: 50f3 d23c eb7f b43c 355f 6cbd 9ba5 1abd
00000250: 9787 d73d b595 013d 5746 d53b adc6 c6bc
00000260: 50ae e4bd 305b 4abd 5d3c d3bb be3a 96bc
00000270: 9397 89bd 5185 6bbd 545b 463b a312 5b3d
00000280: 8015 7a3d 0d92 91bb 094b 12bd 5a49 e53c
00000290: 737f 4a3c 8d1a 69bc e42c fcbb d886 c23c
000002a0: 577c b8bd db74 4bbc 9611 f13c 2dca eb3c
000002b0: b4a8 0fbe ae39 45bd 9507 84bd d721 953d
000002c0: aa21 d53a bf53 fabc 4cc1 04bd c1dc d23d
000002d0: 8d1c 463d 6b49 7b3c fce8 403b 3578 93bb
000002e0: 9803 51bd 54dd e33c 291b bfbd c643 ba3c
000002f0: 0bd9 bfbc 09e2 863d 44e6 603c c94a 6fbc
00000300: 8fc0 c03b 900e 4f3d d211 49be 0faf 81bd
00000310: d4b0 0bbb f053 4e3d f3f3 6e3d db4a 20be
00000320: 5ba6 c33d ee67 9f3c f4dc 79bd d027 f3bd
00000330: 436b 6ebb f13d 833d f928 803d fa05 55be
00000340: 8478 8d3c cb82 17bd 941b 41bd 81fa b33d
00000350: 43a8 933c 0852 e7bd ee23 25bd 35fc de3c
00000360: 26ec c23c eb33 b7bd e65f 033d fa0d debc
00000370: 38ad 58bd b901 7f3c 8346 87bd f051 91bd
00000380: 8968 893d 5dff 873d 3e2e f13c f099 a03c
00000390: 2530 453d 5f24 633c 5fd5 9d3d cef3 ae3d
000003a0: 9d44 923b e6e1 09bd 0307 a4bc 66bf 91bb
000003b0: 7c40 30bd a42d 673d fc84 493c 1684 5dbc
000003c0: 646e cf3d 3e97 4b3e 3e48 713e fdd0 1dbe
000003d0: 8967 f6bd bd3f d8bd 2b20 8f3d e576 073e
000003e0: 2f0b 50bd c682 5cbe 235b a03e 6193 d0bd
000003f0: 4012 b6bc 1c72 0cbd 447f d63c 3795 3cbe
0.07210678 0.03940224 -0.16806684 -0.01184858 -0.17011292 -0.09779715 0.083570786 0.0071907896
-0.111964755 0.018054347 -0.10349062 0.05879628 0.1751139 -0.010587791 -0.08574327 -0.092367426
-0.072486036 -0.06484473 -0.103618376 0.05693621 0.04054907 0.0706846 0.13416693 -0.13547625
0.05050045 -0.0075846617 -0.04327442 -0.052433 0.08732416 0.054959938 0.076647736 -0.1140831
-0.0021960542 -0.07268074 0.019262668 -0.0038155045 0.0417931 0.014328028 -0.028223913 0.0332845
-0.012858095 -0.07889899 -0.14424369 -0.122021936 -0.10395232 0.10847278 0.0058490285 -0.038626514
-0.088708445 -0.10978907 -0.06593218 -0.047905803 -0.051535893 -0.042156104 0.061105773 0.06387018
-0.055460107 -0.06008516 -0.06675397 -0.022600299 -0.08114629 -0.051828954 -0.13323352 -0.19275391
-0.035160724 -0.056895874 -0.007813153 -0.0994291 0.177561 0.034896284 -0.025473893 -0.13266395
-0.004818788 -0.057129856 -0.12692691 0.05764646 -0.033868425 0.014490324 -0.031376574 0.081785
-0.09149715 -0.08621944 0.054851625 0.013310491 -0.06436833 0.036099378 0.009572362 -0.005420237
-0.04633334 0.046660133 -0.10649029 0.007617286 0.0012074262 0.028378678 0.053594716 -0.014314515
-0.015291492 -0.0330984 0.034150116 0.034340985 0.02630561 0.012836684 0.00033663 0.038791556
0.07388456 0.10878119 -0.00092559995 -0.020739509 -0.0354225 -0.07672664 -0.01330656 0.008513307
-0.014523968 -0.06291182 0.0221757 -0.033975083 -0.014245387 0.013277048 -0.008005532 -0.015914554
0.04146712 -0.006321207 -0.28547493 -0.0035416158 -0.23504722 -0.16788644 -0.04353583 0.039391782
0.018097913 0.054155204 0.018698825 0.05203815 0.0111461105 0.031206165 -0.02664916 -0.007346792
0.08903448 0.05841963 0.028313566 0.09990683 0.07126424 -0.07452083 0.12352258 -0.10949193
0.025750786 0.022033652 -0.057707984 -0.03775559 0.105239086 0.031636912 0.0065086293 -0.024264658
-0.1116606 -0.04940337 -0.006446405 -0.018338557 -0.067183636 -0.057500187 0.0030266838 0.05348457
0.06105566 -0.0044424594 -0.03571609 0.027989078 0.012359488 -0.014227522 -0.007695781 0.02374594
-0.09008091 -0.012417997 0.029427331 0.028782928 -0.14029199 -0.04815071 -0.06446759 0.07281845
0.0016260643 -0.030557511 -0.032410905 0.10296012 0.048367072 0.015337328 0.0029435745 -0.004500414
-0.051028818 0.027815498 -0.09331352 0.022737395 -0.023418924 0.065860815 0.013726775 -0.0146052325
0.00588233 0.050550997 -0.19635704 -0.06332218 -0.0021315115 0.050373018 0.058338117 -0.15653555
0.09553214 0.019458737 -0.061001733 -0.11872828 -0.003637985 0.06408299 0.06257815 -0.20803061
0.01726938 -0.03698997 -0.04714544 0.08788014 0.01802457 -0.11294943 -0.04031747 0.027219871
0.023794245 -0.089454494 0.032073878 -0.027106274 -0.05289957 0.015564376 -0.06605246 -0.070957065
0.067093916 0.066405036 0.029440995 0.019604653 0.048141617 0.013863652 0.07706713 0.08542596
0.0044637457 -0.0336627 -0.020022875 -0.0044478653 -0.043030247 0.05644001 0.012299772 -0.013520261
0.10128477 0.19881913 0.23562714 -0.15411754 -0.120314665 -0.10559032 0.069885574 0.13228948
-0.050791916 -0.21534261 0.31319532 -0.1018436 -0.0222255 -0.03428851 0.026183732 -0.18416296

bias f4 [24]
00000000: fe53 e2bc d22c bcbd 92d5 cabc 4a17 08bc
00000010: 2853 523b c2b9 cd3c 3909 3abc 04f1 bebc
00000020: 3d5f 983d 5fc7 fb3c 9b88 623d 6792 85bc
00000030: bde0 f33b 9c28 3d3b 60de fd3b 5a1b 883b
00000040: 5695 3abd a11f 9eba 0965 1a3b 5bb0 8dbd
00000050: 3ddc d03c 2e68 553d 2ff6 bfb9 ed2d 8abc
-0.027627941 -0.09188236 -0.024760041 -0.008306334 0.0032093022 0.02511299 -0.011354738 -0.023308285
0.0744004 0.030734716 0.05530606 -0.016305162 0.0074425624 0.0028863316 0.0077474564 0.004153651
-0.045552574 -0.001206387 0.0023558757 -0.06918403 0.025495643 0.052101307 -0.0003661378 -0.016867602

weight f4 [128, 24]
00000000: dda6 783e 49f2 403e 3662 b3bc 2027 90bd
00000010: af55 91be d2da 023e c496 c0bc a361 e43d
00000020: 090e 853e 65da 8dbe 143a 693d 8d9c 4a3d
00000030: a064 cabd c410 cabd d913 01be 0da6 073e
00000040: 87d7 253e fe45 c63d b0be 9fbd da64 abbd
00000050: 338b af3c 7fba 4abe 1f91 733e ed1a 43be
00000060: 30a9 83be 4b1c 133e 2b64 e83e c01b 00bd
00000070: dd84 c73c 26d4 12bd f21a 68bd 418b d2bc
00000080: 2109 cd3c 1b8d f73c f9c1 61bd 3bd2 0cbe
00000090: 7d60 363d 04c8 a53d e82b 433e 0543 04bd
000000a0: 197a d13e 3793 493d d2a5 8e3e 4610 5cbe
000000b0: 8339 68be 6d7d 81be 7bef c3bc 3ecc b5bd
000000c0: 692a 2d3e 36fe 583e 9eca a33e eb6a cebe
000000d0: 18d2 393e e8db 2fbe 2944 6fbe 5fa3 dabd
000000e0: fdad 4dbd cc38 92be 4fda 43be 25d1 c73d
000000f0: 49ef 6b3e 3080 d0bd 7927 3fbe eb0f 0b3d
00000100: b7b5 853d b5e2 59be 5a05 333d 62c3 5cbd
00000110: eeb6 dcbd c65f 21be e526 793e 67da 693e
00000120: c771 fbbc 33bc 323e 1686 013f 4ba4 5c3d
00000130: 0a25 7e3d fb14 41bd fb93 8dbd b61d 8f3d
00000140: d933 a83c fd5f 98be ba70 a8be 007c 023e
00000150: 0fee ca3d da1d f43b 023f f6bd 5c34 91bc
00000160: 8515 fe3d bfdf 73be 0436 04be bd66 493d
00000170: 8566 77bb a826 59bc cd3e a03d ece4 333e
00000180: 625c c3bd 2764 cf3e b196 d53e d621 003e
00000190: a890 d03d 153a 40be b5f6 8fbd 73b3 1ebe
000001a0: cd6b c8bd 3416 dfbe bca4 7cbe 2342 b53d
000001b0: c7b1 97bd 605e 7abe f602 a43d c58b 5c3e
000001c0: c6ea ad3d f8b1 37bc 1c31 173e 40f7 f93d
000001d0: 06db 14be 0005 ebbd 9248 633e ad11 a23e
000001e0: c2ff df3c 6bf6 9b3d e3db 5abd 0f37 493e
000001f0: 1e85 6b3d ac86 2abe e257 413e cf87 1bbe
00000200: 113c 773d 6605 dfbe 831c 6f3d e169 1abc
00000210: 3911 84bd 6df8 61be 787f 9bbb 548a 6c3d
00000220: 560a 0a3d 19eb f13d a416 193e 5dd8 853d
00000230: 81a5 4dbe fd58 30be 88f8 8e3d 5e7c 0c3e
00000240: 155a 40be 9c25 bd3c 316e b33d 8f70 6dbd
00000250: c48b 71bd 56c2 803e 6023 f23a fb23 663d
00000260: 4804 bcbd 57fd 37be fdf4 81be 9859 c33d
00000270: 1474 d9bd 61f0 68be 09fa c43d 696f 2e3e
00000280: 0443 4b3e addd a53d f660 1fbe 380e 0f3d
00000290: 35ba b5be 95b6 26bd 6aa8 1a3e c243 02be
000002a0: 38de 873b 5bde 343c a55d f63d 5c36 0f3e
000002b0: 60e7 89be 543a 41be 3d1d 353e fc1c 613d
000002c0: 3ec3 4dbd 241f 3cbe 73c4 86bc 2e6a 8a3e
000002d0: 04f2 8b3d 8bbc 503b d02d 473d 6cbe 573c
000002e0: db7b 923e b46a a9bd 09bc 693e 633b 323e
000002f0: c17a 9dbe 23d3 6abe 012c de3d 1ee9 e13d
00000300: b022 67be 6b90 ca3d 306c a63e 9dca 0e3d
00000310: 8291 ab3d 6834 933e 922c a53d b346 8cbb
00000320: d754 a63d 8f56 05be bc6c 04be b55e a03d
00000330: be55 603e e13b 10be c43b 5c3c 1c1f 953d
00000340: 4db5 943e f180 193e cea2 3d3d a46a b4bc
00000350: 584d c13d daf9 8cbe b9cd 483e 7e09 883e
00000360: 8f26 c83d e487 f63d 8e4d 953e f99c 19be
00000370: b2df 9abc 2a8b 40be 4485 b4be ea29 3cbe
00000380: 8401 843e 3711 53bc a292 29bd 2815 4c3e
00000390: 41fb 7dbd 2fd0 00be 1574 8bbe 700c 273d
000003a0: a364 8c3e 2069 bbbd f343 8c3d 95a2 463d
000003b0: 2e50 34be 36b1 20be fc34 ba3d c975 e7bd
000003c0: 5667 483d 6892 8b3e 3248 703e 2f67 0cbe
000003d0: d5e9 1e3e ed79 51bc 2060 b8bd eaee 493e
000003e0: e680 f03d c5f9 dbbc ae89 dabe fb01 993e
000003f0: e42d 4f3e 05d6 42be 0cb9 3ebe 907c 97bc
0.24282403 0.18842424 -0.021897417 -0.070387125 -0.28385684 0.12778786 -0.02350939 0.11151435
0.2598727 -0.27705684 0.056940153 0.049465705 -0.09882474 -0.09866479 -0.12605228 0.13246937
0.16195498 0.09681319 -0.07800043 -0.08368845 0.02142868 -0.19797705 0.23785828 -0.1905324
-0.25715017 0.14366262 0.45388922 -0.031276464 0.024355346 -0.03584685 -0.056666322 -0.025701167
0.025028767 0.030218652 -0.055116627 -0.13752072 0.044525612 0.080947906 0.19059718 -0.032290477
0.40913466 0.04921266 0.27860886 -0.21490583 -0.22678189 -0.25291005 -0.023917904 -0.08876847
0.1691071 0.21190724 0.31990522 -0.40315947 0.1814655 -0.17173731 -0.23365845 -0.10675692
-0.050214756 -0.28558958 -0.19126247 0.09756688 0.23040499 -0.101807 -0.18667401 0.033950727
0.065288 -0.21277888 0.043706276 -0.05389727 -0.107770786 -0.15759191 0.24331243 0.2283722
-0.030693902 0.17454605 0.50595224 0.05386762 0.062047042 -0.04713915 -0.06912991 0.06988089
0.020532535 -0.29760733 -0.32898504 0.12742615 0.09908687 0.0074498476 -0.120237365 -0.017725162
0.12406448 -0.23815821 -0.1291123 0.049170244 -0.0037750315 -0.013253845 0.07824478 0.17567796
-0.09539105 0.40506098 0.4171653 0.12512907 0.10183841 -0.18772157 -0.070294775 -0.15498142
-0.09786186 -0.43571627 -0.24672216 0.08850505 -0.07406955 -0.24450064 0.08008377 0.21537693
0.08492045 -0.011211865 0.14764827 0.12205362 -0.14536676 -0.11475563 0.22195652 0.3165411
0.027343635 0.0761536 -0.053432357 0.1964991 0.057499997 -0.16652936 0.18881181 -0.15188526
0.06036002 -0.43558806 0.0583768 -0.009424658 -0.064485975 -0.22067423 -0.00474542 0.057749107
0.033701263 0.118124194 0.14950043 0.06535409 -0.20082666 -0.17221446 0.06980997 0.13719317
-0.18784364 0.023089223 0.08761252 -0.057968672 -0.05897118 0.25148267 0.0018473677 0.056186657
-0.09180504 -0.17967735 -0.25382224 0.09538573 -0.10617843 -0.22747947 0.09618003 0.17034687
0.19849783 0.08098922 -0.15564331 0.03492567 -0.35493627 -0.040701468 0.15103307 -0.1272116
0.0041463636 0.011039342 0.1202958 0.1398558 -0.26934338 -0.18869907 0.17686935 0.054959282
-0.050235026 -0.18371254 -0.016451096 0.27034134 0.0683327 0.0031850662 0.048627675 0.013167959
0.2861012 -0.08272305 0.22825636 0.17405467 -0.30757716 -0.22932105 0.10848237 0.11030792
-0.22571826 0.09890827 0.32504416 0.034861196 0.08377363 0.2875092 0.08065142 -0.004280889
0.08121651 -0.130213 -0.12932104 0.07830564 0.21907708 -0.14085342 0.013441984 0.07281324
0.29044572 0.14990593 0.04629784 -0.022023506 0.0943858 -0.27534372 0.19609727 0.26569742
0.097729795 0.12037638 0.29160732 -0.15001287 -0.018905494 -0.18803087 -0.35257924 -0.18375364
0.25782406 -0.012882522 -0.041399606 0.19929945 -0.062007193 -0.12579416 -0.27237 0.040783346
0.2742053 -0.091509104 0.06848898 0.048494894 -0.17608711 -0.156926 0.09092137 -0.113017626
0.048926674 0.27260137 0.2346504 -0.13711236 0.15518887 -0.012785417 -0.090027094 0.19720045
0.117433354 -0.026852498 -0.42683166 0.29884323 0.2023235 -0.19026954 -0.18625277 -0.018492013

bias f4 [128]
00000000: 7e74 6cbe dd22 933a 2e1d d03d 7627 f03b
00000010: 4cc0 cabd 231b 08be 5a65 90be 430f 74be
00000020: a42d bebd 1d8f 8ebd 0292 4a3b d64f 4fbe
00000030: 8354 60bd 9ea8 5bbe 564c 69bd 3712 fcbc
00000040: 8dba bcbe 2fde d6bd 4b92 9dbe c9ce 8cbd
00000050: 312e fc3d 10c8 0b3b d064 01bd 1059 b4bd
00000060: 8b2b 39be c42f 8bbd 3ba1 363d f746 fa3c
00000070: 3025 a7bc 36bd a8bc 5d63 4cbe 2a40 76be
00000080: 7419 5fbe ec8f 1dbd 231a 9dbe 5647 b73c
00000090: 3dc7 1c3b ec94 29be 370c 69be 6e24 9cbd
000000a0: 24a4 5ebd bdc7 9ebe f7db 5cbe f506 16be
000000b0: 3979 4fbe 26bd 6dbd 2478 a9be e42b 9fba
000000c0: 1fd9 9f3c fdbd 63be 8c7f d63c 9491 6abe
000000d0: d3d9 88be 93b2 39bd 6250 2abe 42ff 99bd
000000e0: 35e4 4ebe 73ca 94be 694c bf3c 40f2 83bd
000000f0: 33ee 77be b9ee 3bbe 0320 d5bc e41a b43d
00000100: 1bfe 62bd 3d41 613b 1283 63be d321 74be
00000110: b906 e7bd 8dca a3bc ede1 34be dd88 e13d
00000120: 104d 8ebe a24f 1dbe 898e 74be 0bf7 1e3e
00000130: 0c1f 643d c95e 52bd 56a8 21be 76fb babc
00000140: 4785 7abd 8c14 a93d 3416 9dbd 084e b53d
00000150: 578b 08be e90c acbd 30ff 4bbe 9c59 e5bd
00000160: 1afd 0abe b51b dcbd 65ba 1cbe 5e1c ce3d
00000170: e859 d9be 7479 3ebe a3c2 143d 940e 00bc
00000180: 5925 6dbe 6255 a3be 60a0 2bbd 7871 36be
00000190: 9079 91be f578 0ebb c2d8 febd 3f05 ddbc
000001a0: b974 98bd 30ee e53d 5eae 41bd d08c ecbe
000001b0: df68 8abc ed34 2ebe e565 d3bd 773b 01be
000001c0: 5e15 a23c 2905 43be 6a74 31be f9b7 1cbe
000001d0: fbdb 01bf 4157 93bd 53b7 c0be 66fe c4bd
000001e0: 716f 42be 680d c23c 5f9c 3bbe 12a3 45be
000001f0: 6310 50bd 47bb 473d b93d 4c3d 3ada d3bd
-0.23091313 0.00112256 0.101618156 0.007328923 -0.09899959 -0.13291602 -0.28202325 -0.23833947
-0.09286049 -0.069608904 0.0030909781 -0.20245299 -0.054768097 -0.21451041 -0.056957565 -0.030770404
-0.36861077 -0.10491597 -0.30775675 -0.06875379 0.12313498 0.0021328963 -0.031590283 -0.0880605
-0.18083017 -0.0679622 0.044587355 0.030551417 -0.020403475 -0.020598035 -0.19959779 -0.24047914
-0.21787053 -0.038467333 -0.30684003 0.022372883 0.0023922466 -0.16560715 -0.22758566 -0.07624136
-0.054355755 -0.31011763 -0.21568285 -0.14651091 -0.20261087 -0.058041714 -0.33099473 -0.0012143818
0.019512711 -0.22240444 0.026183866 -0.22907096 -0.26728687 -0.045336317 -0.16632226 -0.0751939
-0.20204242 -0.29060706 0.023351865 -0.0644269 -0.2421196 -0.18352784 -0.026016241 0.087941915
-0.055418115 0.003437116 -0.22217968 -0.23841028 -0.11280579 -0.019994045 -0.17664309 0.11012433
-0.2779317 -0.15362409 -0.23882498 0.15523927 0.05569367 -0.051359925 -0.15786871 -0.022824984
-0.06116226 0.08255872 -0.076702505 0.08852774 -0.13334404 -0.084009 -0.19921565 -0.11198732
-0.13573113 -0.10747472 -0.15305479 0.10064004 -0.42451406 -0.18601018 0.036318433 -0.007815976
-0.23158778 -0.3190108 -0.041900992 -0.17816722 -0.28413057 -0.0021739576 -0.12443687 -0.02698004
-0.07444138 0.11227071 -0.04728543 -0.4620118 -0.01689571 -0.17012377 -0.10322169 -0.1262034
0.01978558 -0.19044937 -0.17329565 -0.15304555 -0.5072629 -0.07194377 -0.37639865 -0.09618835
-0.18987824 0.023688033 -0.1832137 -0.19300488 -0.050796878 0.048762586 0.04986355 -0.10344358

weight f4 [24, 128]
00000000: bfb3 dfbd e3d5 cfbc f977 a03d 740c 3c3d
00000010: 009a ea3c c372 e23d 6864 21be aaa1 d33c
00000020: bd30 303d 8bdd 03bd bf67 b9bd c292 223d
00000030: e589 19bc ea2e 89bd ce4d 203d 7031 c9bd
00000040: fd4d dc3d 2362 dabd 7040 bf3d 591d 17be
00000050: 1ffc 1fbd 2e8d 13be 00e7 4c3d 4166 533d
00000060: b92f e43d b468 60b9 dab3 d43c 3bc6 18bd
00000070: 53b2 4f3d 91fc 96bd bf5e d6bd 1c33 fbbb
00000080: 22f8 883d 4a8f 6d3c 3b16 d3bc fb34 6c3d
00000090: fa7d ab3c 98dd 82bd cd92 f1be b81c 9ebb
000000a0: ec16 0d3d a3e9 afbd e8fa 3abd e481 a53d
000000b0: 9d95 e1bb bfa1 17be a74e 3d3d b942 14be
000000c0: ae19 1fbd c07a db3d 9c1b 1c3d 843c a73d
000000d0: 2337 5f3d 8df8 d53d a3d2 d6bd 9f25 ca3d
000000e0: e702 0c3e b7f1 d23d 2ab1 ed3b cdb6 203d
000000f0: a4d2 a3bd 5231 133d d57d 7e3d af19 b1bc
00000100: 2079 31bc 4bb3 0ebd 84ce d2bd 859f 873d
00000110: 27be 12be f2f0 333e 9f32 483d d6b6 5abd
00000120: 8ffb b23c 8ff2 893e 2007 4a39 e68e 26bd
00000130: 06df f3bd 523d 163d 8225 52bd eee5 1bbc
00000140: 4c9c 233d 20ad c7bd 27a1 053d cd8c 0a3e
00000150: e4dd 5fbb c058 86bd abe3 15be 47d0 f23d
00000160: 1bed db3d 0241 16be e32e 3cbc b879 6f3d
00000170: 4544 c63c 6ca0 ff3d 4b18 cb3d 5815 d5bc
00000180: 16e8 94bc 02bb 223e 3124 4b3d 095b 443d
00000190: 01cc d23b 0e58 6b3d 9947 ad3c 8f5f 4f3c
000001a0: 5e39 df3d 7498 223e 43f7 fcbc faff 983d
000001b0: 7e3c 273e 8afe 963c 32f6 4bbe 47c4 85bd
000001c0: c433 4d3b 9a9a b43d 8fc7 85bd 92fa f43d
000001d0: fdf5 57bc 2c8d 463e 33a8 10bb 832d db3c
000001e0: cb2b 0b3e 4114 063e fcbf 823d 92ef 0fbe
000001f0: c896 53bd 96be 9b3c 5146 8a3d 343f e1bb
00000200: 4251 edbd 7b29 7ebe 8657 39be 1bcd 0fbe
00000210: 389d 1dbd 99ce 3ebe 34dc 6cbe 77d2 12be
00000220: 7dda 1fbe 8354 fbbd c680 4ebe c26f 02be
00000230: ceb9 6dbe ef79 13be b5f1 0dbe f89d 1fbe
00000240: 2877 dabe 6d47 09be 2579 05be 9e17 18be
00000250: e998 d2bd b68c a3bd 7b11 5ebe 7112 23bd
00000260: 453a 8dbc 78d9 c4bd 1fff 40be fc96 aebe
00000270: 51da dbbd a85b 64be ba09 13be 96d7 b4bd
00000280: 0536 2abe 5aaf 3dbe fd59 d3bd 9229 45be
00000290: 8ef9 27be 62d3 abbe 2d1e b0be a911 32be
000002a0: 1cfb 8bbd 7c01 e5bd 8ed2 01be 3570 4ebe
000002b0: 1786 81bd cf6c 11be 0896 05bc 5edc 17be
000002c0: 83a5 14be 3f57 dbbd adfd eabd 7a0d 34be
000002d0: e2a2 dfbd 404e 95bd da57 7cbe 3d03 3fbe
000002e0: 8659 4dbe 0baf b7bd addc b9bd ee79 53be
000002f0: 603d 77be 02a7 fabd 4579 a6be df31 83bd
00000300: f4c6 d0bd c329 18be 41ca 7bbd 3d97 14be
00000310: bb18 04be b642 b8bd 1154 24be 6537 11be
00000320: ffde 71bd 5f60 8dbe 90d0 c2bd 3535 8abd
00000330: 7a4d 2abe 09dd f0bd d92e 67be 2b05 58be
00000340: 3293 48be 1b90 30be a8ea f8bd 5138 a2bd
00000350: b9c0 0cbe ea1b aebd f347 2dbd 9eab b2be
00000360: aab5 efbd b13e d6bc 8460 48be b20b d3bd
00000370: 33be 55be cbfc a6be a76a 52be 45ab 81be
00000380: 6fc1 96bd 00d7 02be 9714 f9bd e9f4 67be
00000390: 6584 09be 1ccc 3fbd 0644 bebd fe5c 35be
000003a0: 7f00 2bbe 3c03 9abd aadd 41be f232 7fbe
000003b0: 2e65 37bd a2c2 55bd f7f2 f7bd a701 82bd
000003c0: 95a3 8ebe cf12 96bd 9cbb 69be 4fe2 22be
000003d0: add7 3bbd 6ebd 3cbe 6b3f 6fbe 592e f8bd
000003e0: 08fe 51bd fada 2cbe 20ae 2ebe ed5e c7bb
000003f0: 90da 91bd bfdc 63be 6cc9 3fbe bfd6 82bd
-0.10922956 -0.025370544 0.07835383 0.045910314 0.028637886 0.11057045 -0.15760958 0.025833923
0.04301523 -0.0321937 -0.09052991 0.03969074 -0.0093712555 -0.06698401 0.0391367 -0.098238826
0.107570626 -0.10663249 0.09338462 -0.14757289 -0.0390588 -0.14409325 0.050024986 0.05161119
0.11141915 -0.0002140131 0.025964666 -0.037298422 0.050707173 -0.07372392 -0.1046729 -0.007666005
0.066879526 0.014499495 -0.025767436 0.057667714 0.020934094 -0.06389922 -0.47182313 -0.004825201
0.034445688 -0.085894845 -0.04564944 0.08081415 -0.0068842904 -0.14807795 0.046217587 -0.14478578
-0.03884285 0.10716772 0.038112268 0.08165839 0.05449594 0.10447798 -0.104893945 0.09870457
0.13672982 0.1030001 0.0072537856 0.039236832 -0.07999161 0.035935707 0.06213172 -0.021618692
-0.010832101 -0.034838956 -0.10293296 0.06622223 -0.1433035 0.17572382 0.0488764 -0.053397022
0.021848468 0.2694287 0.00019266875 -0.040663622 -0.11907773 0.036679573 -0.0513053 -0.009515269
0.03994398 -0.09749818 0.03262439 0.13530274 -0.0034159357 -0.065598965 -0.1463763 0.11856132
0.10738584 -0.14673236 -0.011485788 0.05846569 0.024202475 0.1248177 0.09916743 -0.026011154
-0.018177073 0.1589165 0.04959506 0.04793838 0.0064330106 0.057457022 0.021152304 0.01265706
0.10899614 0.15878469 -0.030879622 0.07470699 0.1633167 0.01843192 -0.19918135 -0.065315776
0.0031311372 0.088185504 -0.065322034 0.11961855 -0.013181207 0.1938979 -0.002207291 0.0267551
0.13590924 0.13093664 0.06384274 -0.14056233 -0.051657468 0.019011777 0.06751693 -0.0068739895
-0.11587764 -0.24820511 -0.18099794 -0.14043085 -0.038480014 -0.18633498 -0.23130876 -0.14338098
-0.1561069 -0.12271979 -0.2016631 -0.12737945 -0.2321541 -0.14401983 -0.13861735 -0.15587604
-0.42669034 -0.13406153 -0.13034494 -0.14852759 -0.102830715 -0.07985823 -0.21686356 -0.03981251
-0.0172397 -0.09611791 -0.18847321 -0.34099567 -0.10735 -0.22300589 -0.14359179 -0.08830182
-0.1662217 -0.18523923 -0.10319898 -0.19254139 -0.16403791 -0.3355971 -0.34398022 -0.1738955
-0.06835005 -0.11181924 -0.12677976 -0.20159991 -0.06324404 -0.14201663 -0.008153446 -0.14830157
-0.14516263 -0.1071 -0.11474166 -0.17583266 -0.10919739 -0.07290316 -0.24642888 -0.18653579
-0.20053682 -0.08968934 -0.09075294 -0.20651981 -0.24144506 -0.122388855 -0.32514396 -0.064059965
-0.10194197 -0.14859681 -0.06147218 -0.14510818 -0.12900059 -0.08997099 -0.16047694 -0.14181288
-0.059050556 -0.27612588 -0.095124364 -0.0674843 -0.16631117 -0.11760909 -0.22576465 -0.21095721
-0.195874 -0.17242472 -0.12154132 -0.07920898 -0.13745393 -0.08501418 -0.042304944 -0.3489656
-0.117045715 -0.02615294 -0.19568068 -0.10304965 -0.20873336 -0.3261474 -0.20548497 -0.2532598
-0.07361113 -0.12777328 -0.1216213 -0.2265202 -0.13429411 -0.046825513 -0.09290318 -0.17711255
-0.16699408 -0.07520148 -0.18932214 -0.24921778 -0.044774227 -0.05218757 -0.12106889 -0.063479714
-0.27859178 -0.07327806 -0.22825474 -0.15906642 -0.04585998 -0.18431637 -0.23364036 -0.12118215
-0.051267654 -0.16880408 -0.17058611 -0.006084314 -0.071217656 -0.22252177 -0.1872918 -0.06388616

bias f4 [24]
00000000: 644a e2bc 485f 843b 3771 133e 31e0 943c
00000010: dfe8 1d3c f2a3 a7bc 260d e43c 1318 b2bc
00000020: 30b4 86bd 3d36 b4bb 295e 42bd f6e4 d13b
00000030: 0b85 ecb9 2cab e9bc 7749 403d f4f7 ba3c
00000040: 3a44 cabc d5aa 0abd c45e 4ebc 5674 393d
00000050: 4ec3 943d cd9e 19bd d6d4 8b3c b747 7abc
-0.027623363 0.0040396787 0.14398657 0.018173309 0.00963804 -0.020463917 0.0278383 -0.021739995
-0.06577337 -0.00549963 -0.04745308 0.006405468 -0.00045112552 -0.028524004 0.04694506 0.022823311
-0.024690736 -0.033854324 -0.012595836 0.045276962 0.07263814 -0.03750496 0.017069262 -0.015275887

weight f4 [24]
00000000: d2b0 323f 1374 2340 1288 0c40 24db 593f
00000010: a486 7c3f 2f74 2b3f 1d6e 5d3f de4e 743f
00000020: 5ad6 983f 5ac3 3940 0866 c03f cae7 513f
00000030: 5017 443f bf71 713f 545e 553f 81fa 563f
00000040: a937 4c40 f613 453f 2a63 633f cb6a 603f
00000050: 5d5b 1b40 73f3 1a40 70e4 603f 3187 3a3f
0.69801056 2.5539596 2.195805 0.8510001 0.98642945 0.6697416 0.86496145 0.9543284
1.1940415 2.9025483 1.5031137 0.8199431 0.7659807 0.9431419 0.8334706 0.8397599
3.1908972 0.7698358 0.8882319 0.87662953 2.4274514 2.421109 0.8784857 0.72862536

bias f4 [24]
00000000: 1028 bf3d 3b74 cabf a664 97bf 5a86 153e
00000010: 9e7a dfbd e236 cdbd e133 5dbe 7264 11be
00000020: b03b 41bf 2760 f73f 933f bf3f c460 a83d
00000030: bb49 963d 5c80 5c3d b852 8cbe 7718 c3be
00000040: 0689 3dc0 3ad0 ec3d 23c1 9dbe 7979 c8bc
00000050: c41f bb3f d419 b83f 1f4e efbd 7f4e 483e
0.09333813 -1.5816721 -1.182759 0.14602032 -0.10912059 -0.10020234 -0.21601821 -0.14198473
-0.754817 1.9326218 1.4941276 0.082215816 0.07338282 0.05383335 -0.2740686 -0.38104603
-2.9614882 0.115631536 -0.30811414 -0.024471985 1.4619069 1.4382882 -0.11684822 0.19561194

weight f4 [24]
00000000: b049 8a3e 602b e53d 9ce6 ce3d b48c bb3e
00000010: f9da cf3e 30f6 843e c828 be3e 1b47 a53e
00000020: ba3a 0b3e 9c86 963d b8ab 893d 17da de3e
00000030: da52 5f3e 48fe 963e 6cce 453e ffeb e23e
00000040: af62 8f3d 13cf 9a3e e143 0d3f 2378 f63d
00000050: 57d6 783d 4a8f 5d3d 874a 9f3e 9408 c93e
0.27009344 0.11189914 0.10102579 0.36630785 0.4059675 0.25969076 0.3714049 0.32280812
0.13596621 0.073498935 0.06722206 0.43525764 0.21808949 0.29490876 0.19317025 0.44320676
0.07001244 0.3023611 0.551817 0.12034633 0.060751285 0.05409173 0.31111547 0.39264357

bias f4 [24]
00000000: fa29 f3ba f815 ef3d dddc 163d 6f17 653d
00000010: 71d0 973d 747a a83c 21dc ab3d 6ba8 ad3d
00000020: 7910 243d 3df2 4ebe 5d80 47bd f460 ddbd
00000030: 056f 34bb 816c d0ba 81b6 c9b8 47b3 a7bd
00000040: a0f1 443e b5e6 3bbd 2a2c 84bd 4a00 c13b
00000050: 49e5 9abd 7656 95bc 1801 64bc 81f7 4a3d
-0.0018551939 0.11674112 0.036831725 0.05593055 0.07412804 0.020566203 0.08391596 0.08479389
0.040054772 -0.20209594 -0.0487064 -0.10809508 -0.0027531993 -0.0015901477 -9.618421e-05 -0.08188491
0.19232798 -0.045874316 -0.06453736 0.005889927 -0.07563264 -0.018229704 -0.013916276 0.049552444
