histories_pre/Transformer_ATCNet_BcicIv2a_pt/78.44%_slf=050_bs=008_lr=0.0064_ld=0.999931_nl=2_nh=08_fd=512_do=0.45/best_valid_acc.pt (torch, 266086 bytes, 29 tensors)

positional_encoding f4 [1, 257, 24]
0	0xbfb6c60f	-1.4279193
1	0xbd09f62a	-0.033682026
2	0xbf5d2e04	-0.8639834
3	0xbf4e0675	-0.804786
4	0xbdcd15ad	-0.100139
5	0x3e31c98b	0.17362039
6	0xbcb3f7ec	-0.021968804
7	0xbf79cfc5	-0.97582656
8	0x3fb82104	1.4385076
9	0xbf9e1839	-1.2351142
10	0xbe9d13d5	-0.30679193
11	0x3f5b92f9	0.8577114
12	0xbe924438	-0.28567672
13	0x3f89117f	1.0708464
14	0xbdc2c5ed	-0.095104076
15	0x3e0af76a	0.13570943
16	0xbe908039	-0.28222826
17	0xbf97f6cd	-1.1872193
18	0x3e4405e6	0.19142875
19	0x3ea59986	0.32343692
20	0xbebbbecf	-0.36669013
21	0xbf14798f	-0.57997984
22	0xbef000f4	-0.46875727
23	0x3f02ca06	0.51089513
24	0x3f2dc885	0.67884094
25	0x3e096bdb	0.1342005
26	0xbf2744d0	-0.65339375
27	0x3f66fe76	0.90232027
28	0xbe2cd13f	-0.16876696
29	0x3f089e31	0.5336638
30	0x3f555cca	0.8334471
31	0xbf2dfe0c	-0.6796577
32	0xbe6789af	-0.22611116
33	0x3f7834a3	0.9695532
34	0xbeb6c606	-0.35697955
35	0xbedf8eb3	-0.43663558
36	0xbf1f57f5	-0.62243587
37	0x3d4c9c0e	0.049953513
38	0x3ea01bd2	0.31271225
39	0x3a714424	0.0009203574
40	0xbf3888c8	-0.7208371
41	0x3f11ce30	0.5695524
42	0xbf1e556c	-0.61849093
43	0x3f933735	1.1501223
44	0x3df9a151	0.12188972
45	0x40118728	2.2738743
46	0xbfaca797	-1.3488644
47	0xbef2ce73	-0.47423133
48	0xbfa07622	-1.2536051
49	0xbeea6891	-0.45782903
50	0xbe4a14bd	-0.19734474
51	0x3f8259a7	1.018361
52	0x3d99f1d4	0.07516828
53	0xbe44b827	-0.19210874
54	0x3fe32914	1.7746911
55	0xbf22bdfc	-0.63571143
56	0x3f04418b	0.5166251
57	0x3f59f841	0.8514443
58	0x3f88be7a	1.0683129
59	0x3fc4c06a	1.537122
60	0x3df20193	0.118167065
61	0xbf1e26e4	-0.6177809
62	0x3e8aa5bc	0.2707957
63	0x3f055ecd	0.5209778
64	0xbe21bf66	-0.15795669
65	0x3f0d3f51	0.5517474
66	0x3f7d8465	0.99030143
67	0x3fc71f10	1.5556355
68	0xbe916b11	-0.28401998
69	0x3f318a02	0.6935121
70	0xbe1b827f	-0.15186499
71	0x3efd6eea	0.49498683
72	0xbd9559cc	-0.07292518
73	0x3e0f86ff	0.1401634
74	0x3d0a6d09	0.03379539
75	0x3ecb4638	0.3970201
76	0xbf69bfa5	-0.9130805
77	0x3f73fb5e	0.9530543
78	0x3f1fa8a7	0.6236672
79	0xbdc205cd	-0.09473763
80	0xbf1b123a	-0.60574687
81	0x3ed46cf5	0.41489378
82	0xbf6f2494	-0.9341519
83	0xbe0a4cba	-0.13505831
84	0xbdf3ed3b	-0.119104825
85	0xbf6a1082	-0.9143144
86	0x3f921f43	1.141579
87	0xbe0277b4	-0.12740976
88	0xbf55d56b	-0.83528775
89	0x3eac43a8	0.33645368
90	0xbf75d7f3	-0.9603264
91	0x3e8e74ca	0.27823478
92	0xbf867aa0	-1.0506172
93	0xbf2759cc	-0.65371394
94	0x3e68b4dc	0.22725242
95	0x3f77db8a	0.96819365
96	0x3f15437f	0.58306116
97	0xbf1c9d83	-0.61177844
98	0xbf32af34	-0.6979859
99	0xbf13d4b6	-0.57746446
100	0xbf99e32b	-1.2022451
101	0xbf9ac216	-1.209048
102	0xbe9dc405	-0.30813614
103	0x3ee4201e	0.44555753
104	0xbd7959b7	-0.060876574
105	0xbda7de7d	-0.08196733
106	0x3d97006d	0.07373128
107	0x3e4dbccf	0.20091556
108	0xbee7c76b	-0.4526933
109	0xbebcb529	-0.36856964
110	0xbf826f4c	-1.0190215
111	0xbf1534e7	-0.5828385
112	0xbed7246d	-0.42019978
113	0xbf538eb8	-0.82639647
114	0x3f1ba2db	0.6079537
115	0x3e65f1de	0.22455546
116	0x3f1c10d6	0.6096319
117	0x3c0be599	0.008538627
118	0xbe7b8009	-0.2456056
119	0xbda60d06	-0.08107953
120	0xbedfe154	-0.437266
121	0xbe1d2690	-0.15346742
122	0x3f97041d	1.179813
123	0x3e97e11f	0.2966394
124	0xbf611351	-0.879201
125	0x3efe339a	0.49648744
126	0x3f4d2c21	0.8014546
127	0x3f7f7fdb	0.99804467
128	0xbe887003	-0.26647958
129	0x3e9a9305	0.30190292
130	0x3b0f078e	0.0021824571
131	0xb8eb1d56	-0.000112111375
132	0xbe9a168e	-0.30095333
133	0x3f286f84	0.6579516
134	0x3f819cf2	1.0126021
135	0xbf6c631a	-0.92338717
136	0xbe6f9b63	-0.23399119
137	0x3e1f3162	0.15546182
138	0xbf4e1b24	-0.80510163
139	0x3dbc3b73	0.091910265
140	0xbf04a754	-0.5181782
141	0xbfad174e	-1.3522737
142	0xbec638f4	-0.38715327
143	0x3f60bd44	0.87788796
144	0xbf091a2c	-0.5355556
145	0x3ecbeac3	0.39827546
146	0xbe6ada03	-0.22934727
147	0x3f5c9e19	0.8617874
148	0xbe04e7ca	-0.12979046
149	0x3e602543	0.21889214
150	0xbe3fcc5e	-0.18730304
151	0x3e54e822	0.20791677
152	0x3f96662d	1.1749932
153	0xbf4caaf9	-0.79948384
154	0xbfce1534	-1.6100221
155	0x3e2be4bd	0.16786475
156	0xbf48bbc6	-0.7841152
157	0xbc18dc9e	-0.009329943
158	0xbf1239d1	-0.5711947
159	0x3e59fe54	0.21288425
160	0x3f9823d0	1.1885929
161	0xbf8afa03	-1.0857548
162	0x3d80ce38	0.06289333
163	0x3e80f2d2	0.25185257
164	0x3f068eeb	0.52561826
165	0xbee819c1	-0.4533215
166	0x3f11caca	0.56950057
167	0x3edf30ea	0.43592006
168	0xbe88d601	-0.26725772
169	0x3f43c8ce	0.7647828
170	0xbc5eb6a4	-0.01359335
171	0xbe824185	-0.25440612
172	0xbf52542f	-0.82159704
173	0xbfa65801	-1.2995607
174	0xbf262a5d	-0.6490839
175	0xbf6d33e5	-0.9265731
176	0x3eeb5e22	0.45970255
177	0xbebe47b6	-0.37164086
178	0xbfaa3776	-1.3298175
179	0xbd5c72c9	-0.053820405
180	0x3e83df19	0.25756148
181	0xbc0563d3	-0.008141476
182	0x3eb92f2c	0.36168802
183	0x3f019061	0.5061093
184	0xbf0a62b1	-0.5405684
185	0xbe29d447	-0.16584884
186	0x3f731672	0.94956124
187	0x3f0e2153	0.555196
188	0xbdf6b4d1	-0.12046207
189	0xbe6a22fd	-0.2286491
190	0xbf722e77	-0.9460215
191	0xbf318199	-0.69338375
192	0x3d1ab634	0.03777142
193	0x3e47204f	0.19445919
194	0x3e170c32	0.14750746
195	0x3fe871c3	1.8159717
196	0xbf290953	-0.6602985
197	0x3f3ff333	0.7498047
198	0xbd9b9c0d	-0.07598124
199	0x3ecb1659	0.39665487
200	0x3e9bd834	0.30438387
201	0xbf377618	-0.7166457
202	0x3f8c80d2	1.0976813
203	0xbe4f8908	-0.20267117
204	0x3e9e90a7	0.30969736
205	0xbf977b85	-1.183457
206	0x3dc29b32	0.095022574
207	0xbf398c18	-0.7247939
208	0x3ecd0e26	0.40049857
209	0xbf041085	-0.51587707
210	0x3f8089c5	1.0042044
211	0x3fba7323	1.4566387
212	0xbf677f2a	-0.9042841
213	0xbe83c64d	-0.2573723
214	0xbc6f4fb3	-0.014606404
215	0xbd190648	-0.037359506
216	0x3f6a98e5	0.9163955
217	0x3f216231	0.63040453
218	0xbf13ede5	-0.57784873
219	0x3e035696	0.12825999
220	0xbd9f6a50	-0.077839494
221	0xbdbd63b9	-0.09247536
222	0xbf151db2	-0.58248436
223	0xbf3d63e4	-0.73980546
224	0xbeaef44b	-0.34170756
225	0x3fc9c687	1.5763711
226	0x3c8040da	0.015655924
227	0xbea6364d	-0.32463303
228	0x3bc52bb4	0.0060171727
229	0x3f0cffb9	0.550777
230	0xbfb7d552	-1.4361975
231	0xbeff443f	-0.49856755
232	0xbe116f9e	-0.14202735
233	0xbf556fd4	-0.8337376
234	0x3d6321b7	0.055452075
235	0x3f562fb9	0.8366657
236	0xbf1cbbc3	-0.61224
237	0x3f18a2d8	0.5962348
238	0x3f9c0221	1.218815
239	0xbf008ded	-0.5021656
240	0xbf7c8b60	-0.9865017
241	0xbf671096	-0.90259683
242	0xbcb9113d	-0.022591228
243	0xbf10bf68	-0.5654206
244	0x3e46797b	0.19382279
245	0xbf2b986e	-0.67029464
246	0xbe0a6a10	-0.13517022
247	0xbe469c25	-0.19395502
248	0x3ee1962f	0.44059893
249	0x3fb9b094	1.4507012
250	0x3e88316d	0.2660021
251	0xbe800cc1	-0.2500973
252	0xbfd100e2	-1.6328394
253	0x3e63efda	0.22259465
254	0x3f5a5efb	0.8530118
255	0x3dde9d1c	0.1086981

weight f4 [24, 22]
0	0x3e918f83	0.28429803
1	0x3f44c893	0.7686855
2	0x3e93c7bf	0.28863332
3	0xbdb09b34	-0.08623353
4	0xbf09a03d	-0.5376013
5	0xbf709900	-0.9398346
6	0xbfc1a9ad	-1.5129906
7	0xbea6464a	-0.324755
8	0x3ed3c2ae	0.41359466
9	0x3f274f6a	0.6535555
10	0x3ea87403	0.3290101
11	0x3f64dabb	0.89396256
12	0xbfcebdc0	-1.6151657
13	0xbfeb5fcc	-1.838861
14	0xbee8bb28	-0.4545529
15	0x3f6062d0	0.87650776
16	0x3f922626	1.1417892
17	0x3f22cedf	0.6359691
18	0xbf203a67	-0.62589115
19	0x3f21084b	0.6290328
20	0x3ebe9dbb	0.37229714
21	0x3f00f1b4	0.5036881
22	0x3e4f8ec4	0.20269305
23	0xbfcb912e	-1.590368
24	0xbf1efb78	-0.6210246
25	0xbc79e10d	-0.01525141
26	0x3e365e0b	0.17809312
27	0x3f9c7ab9	1.2224952
28	0xbf258ee4	-0.6467116
29	0xbfa61266	-1.2974365
30	0xbf23b3ea	-0.639464
31	0x3ee565d6	0.44804257
32	0x3ed8199c	0.42207038
33	0x3dd5f660	0.10447383
34	0x3e4e29db	0.20133154
35	0x3eda5ae8	0.4264748
36	0x3f6794ae	0.9046124
37	0x3f957580	1.1676483
38	0x3dbc8bf1	0.09206379
39	0xbe4eee3a	-0.20208064
40	0x3f101738	0.5628543
41	0x3dbf58d2	0.09343113
42	0xbf7e7883	-0.99402636
43	0xbff570ee	-1.9175088
44	0x3f6c7126	0.9236015
45	0x3ef004a9	0.46878555
46	0x3effd1f2	0.49964863
47	0x3f3502d6	0.7070745
48	0xbf31748d	-0.6931847
49	0xbf48e9ab	-0.7848155
50	0xbe7233b8	-0.23652542
51	0xbf9b9e9f	-1.2157782
52	0x3c7a7b99	0.015288257
53	0x3fd3ced0	1.6547489
54	0xbf0697fd	-0.52575666
55	0xbff39b50	-1.9031773
56	0xbebfd704	-0.3746873
57	0xc000245f	-2.00222
58	0x3e75e2d2	0.24012306
59	0x3fd156c1	1.63546
60	0xbe36ca9f	-0.17850731
61	0xbf62f21a	-0.8865067
62	0x3ee3927a	0.4444769
63	0x3f89dafe	1.0769956
64	0x3f503d8a	0.813439
65	0x3f362a30	0.71158123
66	0x3ed7d12a	0.42151767
67	0x3ebca70a	0.3684619
68	0x3ea9d490	0.33169985
69	0x3eafdd3b	0.34348473
70	0xbe75f44a	-0.2401897
71	0xbf73fea4	-0.95310426
72	0xbff80756	-1.9377239
73	0x3f3ab336	0.72929704
74	0x3f083860	0.5321102
75	0x3e34feb8	0.17675292
76	0x3ed54c1e	0.41659635
77	0x3ead8fb3	0.33898696
78	0xc00d40b0	-2.2070732
79	0x3e671aa8	0.22568762
80	0xbdca9ca8	-0.09893161
81	0x3d30fb34	0.043208316
82	0x3f437148	0.7634473
83	0x3f803921	1.0017434
84	0xbf0dbb01	-0.5536347
85	0xbe0e5059	-0.13897838
86	0x3ea7a60a	0.32743865
87	0xbeffc3bc	-0.4995402
88	0xbd85994d	-0.065233804
89	0xbe8d24ae	-0.27567047
90	0xbee640dc	-0.4497136
91	0xbd2aaacc	-0.04166679
92	0xbe6e876e	-0.2329385
93	0xbe236b1b	-0.15958826
94	0xbe3d59e5	-0.18491323
95	0x3ef03a88	0.46919656
96	0x3e146348	0.14490998
97	0x3e1afd24	0.15135628
98	0x3ef1eaea	0.47249538
99	0x3f04d98c	0.5189445
100	0xbed9c564	-0.4253341
101	0x3de18c0a	0.110130385
102	0x3ef8dc23	0.4860545
103	0x3e540796	0.20706019
104	0x3ecb7b6c	0.397426
105	0x3dd64014	0.10461441
106	0x3a81978f	0.0009887087
107	0xbe4f8490	-0.20265412
108	0xbe913160	-0.28357983
109	0xbf29c1ec	-0.66311526
110	0xbdccfbcc	-0.10008964
111	0x3f633998	0.88759756
112	0x3e7ad600	0.24495697
113	0xbe7dd597	-0.2478851
114	0xbf03339a	-0.5125061
115	0xbede3b7f	-0.43404767
116	0x3fbba449	1.4659511
117	0xbe7058dc	-0.23471397
118	0x3dfd3959	0.12364454
119	0x3f97d83a	1.1862862
120	0x3e3ac7d0	0.18240285
121	0x3e75e1cf	0.2401192
122	0x3eab32e2	0.33437258
123	0xbf7a9810	-0.9788828
124	0xbd5d9557	-0.0540975
125	0x3fa92723	1.3215069
126	0x3f1ace5f	0.6047115
127	0x3f251dc0	0.6449852
128	0xbeb1238c	-0.34597433
129	0xbc1e4591	-0.009660141
130	0x3d26c3bf	0.04071402
131	0xbfafae13	-1.3724998
132	0xbfba9dfb	-1.4579462
133	0xbf958847	-1.1682214
134	0xbfa91e14	-1.3212304
135	0xbfd5f0d6	-1.6714122
136	0xbf1a735d	-0.6033228
137	0xbcdff02d	-0.027336204
138	0xbf59e9cb	-0.85122365
139	0x3f2964d5	0.6616948
140	0xbecd6da9	-0.40122727
141	0xbf6a90d3	-0.91627234
142	0x3ed52160	0.41627026
143	0x3fee532c	1.8619132
144	0x3f0d2f7e	0.5515059
145	0x3f66af7b	0.9011151
146	0x3dec9c8d	0.11553297
147	0xbe6e8a00	-0.2329483
148	0x3f9b2291	1.2119924
149	0x3fcaf683	1.585648
150	0x3eece84e	0.46270984
151	0x3c153ac9	0.009108254
152	0x3ea962c7	0.33083174
153	0xbe650268	-0.22364199
154	0x3e6574dc	0.2240786
155	0xbffdc416	-1.9825466
156	0xbf83bb61	-1.0291559
157	0x3da9c431	0.08289374
158	0x3fa75d48	1.3075342
159	0x3fff4f42	1.9946063
160	0x3db0396a	0.08604701
161	0xbe785848	-0.24252427
162	0xbf1f72e8	-0.6228471
163	0xbf205f55	-0.62645465
164	0x3f04d8cd	0.5189331
165	0x3eb7727d	0.35829535
166	0x3e6831ba	0.22675219
167	0x4001750e	2.0227695
168	0x3f41c0eb	0.75684994
169	0xbf16d9bf	-0.58926004
170	0xbf34fa99	-0.7069488
171	0xbf6cb08b	-0.92456883
172	0x3f969caa	1.176656
173	0x3dcf3899	0.10118217
174	0xbf9f03db	-1.2423052
175	0xbf14f906	-0.5819248
176	0xbe37988d	-0.17929287
177	0xbf45d1a0	-0.7727299
178	0xbea09311	-0.31362203
179	0x3d74ba39	0.05974791
180	0x3e7ff329	0.24995102
181	0x3f343d8d	0.7040642
182	0x3f28bda8	0.6591439
183	0xbe778be9	-0.24174465
184	0xbe4e4579	-0.20143689
185	0xbe4ae057	-0.19812141
186	0x3e9d4133	0.30713806
187	0x3d6c4845	0.05768611
188	0x3dfd9ac9	0.123830386
189	0x3f465f7e	0.7748946
190	0x3ef1490a	0.47126037
191	0x3d33bf18	0.043883413
192	0xbe054dd3	-0.13017969
193	0xbe81da0a	-0.25361663
194	0x3e4229fc	0.18961328
195	0xbe431b5e	-0.19053409
196	0xbf0f03a1	-0.5586491
197	0xbe88c79d	-0.26714793
198	0xbec221c4	-0.37916386
199	0x3cad02c3	0.021119481
200	0xbe521aa8	-0.20517981
201	0xbe3ce4bc	-0.1844663
202	0xbe31ba53	-0.17356233
203	0xbda44c2b	-0.080223404
204	0xbcba72df	-0.022759853
205	0x3e882747	0.26592466
206	0x3e2ab08b	0.16668908
207	0x3e2ded41	0.16985036
208	0x3e93eb80	0.2889061
209	0x3eb9766c	0.3622316
210	0xbe918991	-0.28425267
211	0x3d79e585	0.061009903
212	0x3e8b330a	0.27187377
213	0x3f05c42e	0.5225247
214	0x3ec99c54	0.3937708
215	0x3f092aa8	0.53580713
216	0xbe9b64dd	-0.3035039
217	0xbec9751d	-0.39347163
218	0xbe2c9d22	-0.16856816
219	0xbf075ba4	-0.5287421
220	0x3d47526a	0.04866258
221	0x3ef3c83c	0.47613704
222	0x3ed77506	0.4208147
223	0x3e00c0c3	0.12573533
224	0x3d7c07dd	0.061530937
225	0xbf146252	-0.57962525
226	0xbea2a626	-0.31767386
227	0xbccf9b89	-0.02534272
228	0x3ee1efcd	0.44128266
229	0x3e6733dc	0.22578377
230	0xbe05469c	-0.13015217
231	0xbde0a055	-0.10968081
232	0xbedae89f	-0.427556
233	0xbea3d713	-0.32000026
234	0xbe2ad0d1	-0.1668122
235	0xbd93511c	-0.07193205
236	0x3d85d22b	0.06534227
237	0x3e927c16	0.28610295
238	0xbe951a83	-0.2912179
239	0x3cee248b	0.02907016
240	0x3e1eb6da	0.1549944
241	0x3dcf3ad8	0.101186454
242	0x3f2ae921	0.66761976
243	0xbf452ef2	-0.7702476
244	0x3e5bc71b	0.21462671
245	0x3fa49b18	1.2859831
246	0x3f62ea20	0.88638496
247	0x3f428545	0.75984603
248	0xbf07bde1	-0.5302411
249	0xbfaf4b28	-1.3694811
250	0xbd89e3c7	-0.06732898
251	0x401a96b3	2.415448
252	0x3f21fad8	0.6327338
253	0xbfb5cd4f	-1.420328
254	0xbf9bfa66	-1.218579
255	0xbf088227	-0.53323597

bias f4 [24]
0	0x3e7c46ea	0.24636427
1	0x3f5850a2	0.84498036
2	0x3cf31e7e	0.029677626
3	0x3e55c0da	0.20874348
4	0xc01b05e5	-2.4222348
5	0xbfa93256	-1.3218486
6	0x3e6f7be3	0.23387103
7	0xbe3bcfff	-0.18341063
8	0x3fba76d0	1.4567509
9	0x3f9e4356	1.2364299
10	0x3dfa03b8	0.122077405
11	0xbee9b433	-0.45645294
12	0xbfad9ad9	-1.3562881
13	0xbd5fb57e	-0.054616444
14	0x3f02c50a	0.5108191
15	0xbee4057e	-0.4453544
16	0xbf1ae766	-0.60509336
17	0xbfae980c	-1.3640151
18	0xbf72205c	-0.94580626
19	0x40126a28	2.2877293
20	0xbceb5470	-0.028726786
21	0xbf105934	-0.56386113
22	0xbe22dd57	-0.15904747
23	0x3f9476d2	1.1598761

in_proj_weight f4 [72, 24]
0	0x3cdd24a8	0.026995018
1	0x3ea07f9c	0.31347358
2	0x3cc856aa	0.024455387
3	0x3dbcf916	0.09227197
4	0xbec64bfe	-0.38729852
5	0xbe25aee6	-0.1618
6	0xbd949cc1	-0.07256461
7	0xbc236c17	-0.009974501
8	0x3eb69a3b	0.35664544
9	0x3dad7c4e	0.08470975
10	0x3e19f14b	0.15033452
11	0xbd6df994	-0.058099344
12	0x3e0d6206	0.13806924
13	0x3ec8382f	0.39105365
14	0xbe29d119	-0.1658367
15	0xbd1e6560	-0.038670897
16	0xbe16a26b	-0.14710395
17	0xbc38f362	-0.011288496
18	0xbd95528a	-0.07291134
19	0xbe068b12	-0.13138989
20	0xbe0ce7f3	-0.13760357
21	0x3dcc5548	0.099772036
22	0xbd250034	-0.040283397
23	0x3d9c159b	0.076213084
24	0x3bc93eda	0.0061415257
25	0x3d7f99aa	0.062402405
26	0xbcfdfbbb	-0.031003824
27	0x3e892c91	0.26791814
28	0xbe4e187f	-0.20126532
29	0xbe1538b4	-0.14572412
30	0xbc4ca44a	-0.012490341
31	0x3e73eafb	0.23820107
32	0x3dda8d6a	0.10671504
33	0xbdd976e5	-0.106183805
34	0xbd11e116	-0.03561505
35	0x3d6a514b	0.057206433
36	0xbdb0e782	-0.086379066
37	0x3e5840b8	0.21118438
38	0xbd6c1d8d	-0.05764537
39	0x3c11490a	0.0088675115
40	0xbd84ad68	-0.06478387
41	0xbe0dd3cb	-0.13850324
42	0xbcc344a0	-0.023836434
43	0xbe552c0e	-0.20817587
44	0xbd7a098f	-0.061044272
45	0xbd48e09b	-0.049042325
46	0x3d7bf5b5	0.06151362
47	0x3d160508	0.036625892
48	0x3cfcc778	0.030856833
49	0x3d7c1477	0.061542954
50	0x3d319f97	0.043365087
51	0xbe791513	-0.24324445
52	0xbdae03e7	-0.08496838
53	0x3c756704	0.014978174
54	0xbbd4e5c6	-0.0064971177
55	0xbda811bf	-0.0820651
56	0x3db00ae9	0.08595831
57	0x3e3960c3	0.18103318
58	0x3eedcf29	0.46447113
59	0x3dba5ebd	0.09100101
60	0x3e587f9b	0.21142428
61	0x3da0fa4f	0.078602426
62	0x3e0e3534	0.13887483
63	0xbd1b1d00	-0.037869453
64	0x3caab042	0.020836
65	0xbbaac778	-0.005211767
66	0xbc7433ca	-0.014904926
67	0x3de2bc3c	0.11071059
68	0xbd97fdc7	-0.07421451
69	0x3df3aea8	0.118985474
70	0xbe920727	-0.28521082
71	0xbcee804a	-0.029113907
72	0xbd376660	-0.044775367
73	0x3e7f6060	0.24939108
74	0xbd89b30e	-0.06723605
75	0x3e63bd5a	0.222402
76	0x3cfd67dc	0.030933313
77	0xbe92e8b8	-0.28693175
78	0x3dcf28c7	0.101151995
79	0x3ecec68c	0.40385854
80	0x3cb985d1	0.022646816
81	0x3e2fde5d	0.17174669
82	0xbdda8ff7	-0.1067199
83	0xbe8434f9	-0.25821665
84	0xbc8f7943	-0.017513877
85	0x3c8ad76a	0.01694842
86	0xbd0e6e49	-0.034773145
87	0x3e446e9f	0.19182824
88	0x3ca85b2a	0.020551283
89	0xbd4377b4	-0.04772158
90	0x3dec3e7a	0.11535354
91	0x3e31077c	0.17288011
92	0x3ecf69e1	0.40510467
93	0xbe0ff61c	-0.14058727
94	0x3e18535c	0.14875549
95	0x3df5b997	0.11998289
96	0xbea4a478	-0.3215673
97	0x3e3715e3	0.17879443
98	0xbf13c876	-0.57727754
99	0xbd2f3d8c	-0.042783305
100	0xbe5fd922	-0.21860173
101	0xbe593cc8	-0.21214592
102	0x3e572f09	0.21014036
103	0x3e9ac22a	0.3022626
104	0x3e0515a9	0.12996544
105	0x3e55a010	0.2086184
106	0xbe196283	-0.14978985
107	0xbe8a6203	-0.27027902
108	0x3dab1c11	0.083549626
109	0x3d4a147e	0.04933595
110	0xbd62aeb8	-0.055342406
111	0xbd8fecf7	-0.07027619
112	0x3d357337	0.04429933
113	0x3e3581e3	0.17725329
114	0x3ca850a3	0.020546263
115	0x3ed82cce	0.42221683
116	0xbe66d09c	-0.22540516
117	0xbe9395c2	-0.28825194
118	0x3e8df226	0.27723807
119	0xbe2de48c	-0.16981715
120	0xbe96ad15	-0.29428926
121	0xbd4c0f7e	-0.049819462
122	0x3cb4b54d	0.022059107
123	0x3e8dcf1a	0.27697068
124	0xbde29d70	-0.11065185
125	0x3cddbe7e	0.027068373
126	0xbc0097f4	-0.007848728
127	0x3df146fe	0.11781119
128	0x3d96aa45	0.07356695
129	0x3d00cd9c	0.031446084
130	0x3cf653d0	0.030069262
131	0xbb6d2831	-0.0036187286
132	0x3e5ec3e1	0.2175441
133	0x3da9ebf5	0.08296958
134	0x3d404cb2	0.046948142
135	0xbc9a72a4	-0.018853493
136	0x3e683960	0.22678137
137	0x3e32ac8b	0.17448632
138	0xbe9e5830	-0.30926657
139	0xbeb2e190	-0.34937716
140	0x3e241480	0.16023445
141	0xbd7e2ba1	-0.062053327
142	0xbe749309	-0.23884214
143	0xbe6d5430	-0.23176646
144	0x3e30b660	0.1725707
145	0xbec05038	-0.37561202
146	0x3ee180bf	0.44043538
147	0x3e64dc58	0.2234968
148	0xbce47c63	-0.027891343
149	0xbd86ac7a	-0.06575866
150	0x3df9b523	0.12192752
151	0xbd805b9e	-0.062674746
152	0x3df02915	0.11726586
153	0xbd3b1914	-0.045678213
154	0xbdb01e9c	-0.08599588
155	0xbe707c05	-0.2348481
156	0x3df2926d	0.11844335
157	0xbdfb61d3	-0.12274518
158	0xbe7f6f2f	-0.24944757
159	0x3cf84331	0.030305477
160	0xbe66bcdb	-0.2253298
161	0x3e3927d2	0.18081596
162	0xbd1b0275	-0.03784414
163	0x3e570c51	0.21000792
164	0xbe0274f3	-0.12739925
165	0xbd7f04f6	-0.06226059
166	0x3dfd6ef6	0.1237468
167	0x3d09fb62	0.033687003
168	0xbda0e5f5	-0.07856361
169	0x3e879e67	0.2648804
170	0x3deed25d	0.11661217
171	0xbd86960b	-0.06571587
172	0x3e9080fe	0.28223413
173	0xbe2d7ef7	-0.16942964
174	0x3e20e561	0.15712501
175	0x3d9e2729	0.07722313
176	0x3d4ed4b3	0.050495815
177	0xbeac8470	-0.33694792
178	0xbe0e529a	-0.13898697
179	0xbdcd48bc	-0.100236386
180	0xbd0c1789	-0.034202132
181	0xbd7d9877	-0.06191298
182	0x3d1d85f8	0.03845784
183	0x3ea2e6c6	0.3181669
184	0xbde17ffd	-0.1101074
185	0x3d3b36c3	0.04570652
186	0xbd8b09fd	-0.067890145
187	0x3d0ff94c	0.035149857
188	0xbd454f98	-0.04817161
189	0xbe299301	-0.16559984
190	0x3d259e20	0.040434003
191	0xbe04f580	-0.12984276
192	0xbb8ea183	-0.00435275
193	0x3eae5e3d	0.34056273
194	0xbe6a71f2	-0.22895029
195	0xbeb45810	-0.35223436
196	0x3e648024	0.22314507
197	0xbbffe2b0	-0.0078090057
198	0x3dbe2b3e	0.092855915
199	0x3df6fa42	0.12059452
200	0x3bb94fe0	0.005655274
201	0x3df4985c	0.11943123
202	0x3e8b345a	0.2718838
203	0x3dcd6dca	0.10030706
204	0x3ce2d834	0.027690984
205	0x3e3b5454	0.18293887
206	0x3e1feccb	0.15617673
207	0x3d60a04d	0.054840375
208	0xbcdb74b3	-0.026789045
209	0x3d0b06ed	0.03394215
210	0xbd526ef7	-0.051375356
211	0x3d96a63d	0.07355926
212	0xbdc4e523	-0.09614017
213	0xbe881743	-0.26580247
214	0x3ddd7257	0.10812824
215	0xbd807396	-0.06272046
216	0x3df7c9b1	0.120990165
217	0xbe140e69	-0.14458622
218	0x3dfc1973	0.123095416
219	0x3df28470	0.11841667
220	0x3e357876	0.17721733
221	0x3dff4c70	0.12465751
222	0x3c16d6b1	0.00920646
223	0xbe922458	-0.28543353
224	0xbd94d09b	-0.07266351
225	0xbe2b96f2	-0.167568
226	0xbe6eb184	-0.23309904
227	0x3e924b73	0.28573188
228	0xbd3e1656	-0.04640802
229	0xbd5fed3b	-0.0546696
230	0xbe1d4751	-0.15359236
231	0xbe30b3d3	-0.17256097
232	0x3e272d56	0.16325888
233	0xbe12ea08	-0.14347088
234	0xbc94fedd	-0.018187935
235	0x3da42250	0.08014357
236	0x3da87ae7	0.08226567
237	0xbe70ac0e	-0.23503134
238	0xbe065a4b	-0.13120382
239	0xbe0c5280	-0.13703346
240	0xbe8fee25	-0.28111377
241	0xbde57610	-0.11204159
242	0xbdbaa80e	-0.09114085
243	0x3d098f0b	0.033583682
244	0x3e86385e	0.2621488
245	0xbdaae16b	-0.08343776
246	0xbcecf170	-0.02892372
247	0xbdcfc708	-0.10145384
248	0xbe05fad5	-0.13083966
249	0xbe86c844	-0.26324666
250	0x3dc61a78	0.09673017
251	0x3e84b0cb	0.25916132
252	0xbcb4238a	-0.021989603
253	0xbd0b08ee	-0.033944063
254	0x3d4292c5	0.04750325
255	0xbd9573cc	-0.07297477

in_proj_bias f4 [72]
0	0xbf7c275d	-0.98497564
1	0xbf897449	-1.0738612
2	0xbe83862b	-0.256883
3	0xbe804ff6	-0.25061005
4	0xbf6a7998	-0.9159179
5	0xbf50aa11	-0.815095
6	0xbec3caa1	-0.3824053
7	0x3edbefe7	0.42956468
8	0x3db7d038	0.089752614
9	0x3ec883a7	0.39162943
10	0x3f31360b	0.6922309
11	0xbec5699a	-0.3855713
12	0xbf32177d	-0.6956709
13	0xbd49d1df	-0.049272414
14	0x3f2f5f74	0.68505025
15	0x3e8a0f70	0.26964903
16	0x3e6421a9	0.22278465
17	0x3ece6caa	0.4031728
18	0x3f8ead75	1.1146685
19	0xbfb280ee	-1.3945596
20	0x3f066a43	0.5250589
21	0xbf5eb261	-0.86990935
22	0x3f1c5eda	0.6108223
23	0xbea5bce1	-0.32370666
24	0x3cf52b21	0.029927792
25	0x3d73f0b8	0.05955574
26	0xbc0ed5b3	-0.008717942
27	0x3d73f6aa	0.05956141
28	0x3e397726	0.18111858
29	0x3db2b6ce	0.087262735
30	0xbab5e272	-0.001387669
31	0xba9ec1c1	-0.0012112187
32	0x3b39f8d4	0.0028377073
33	0x3c6b3400	0.0143556595
34	0x3c205267	0.009785271
35	0x3d335d53	0.043790173
36	0xbceb9dbc	-0.028761737
37	0xb6cc2726	-6.0842312e-06
38	0xbaeaeff2	-0.0017924292
39	0x3d6aad78	0.05729434
40	0x3cbb01f6	0.022828083
41	0x3cf97d9c	0.030455403
42	0xbd034b61	-0.03205431
43	0x3d946767	0.07246285
44	0xbc164902	-0.00917268
45	0xbc39ab52	-0.01133235
46	0xbc7d9e96	-0.015479704
47	0x3c1db4ee	0.0096256565
48	0x3e318a18	0.17337835
49	0xbe0d962a	-0.13826814
50	0xbd765590	-0.060140193
51	0x3e9a0db7	0.3008859
52	0xbe149b97	-0.14512478
53	0x3e3f21c0	0.18665218
54	0xbdce1f07	-0.10064512
55	0xbbe9a4c5	-0.0071302378
56	0x3e037277	0.12836634
57	0x3e2861ee	0.16443607
58	0x3d835f11	0.06414617
59	0x3da0d5d6	0.07853286
60	0x3eab78b7	0.33490536
61	0x3d189757	0.037253704
62	0x3d78b69e	0.060721032
63	0x3d684cf6	0.05671402
64	0xbde42460	-0.111397505
65	0x3d6fce47	0.05854633
66	0xbdecf00c	-0.11569223
67	0x3de17096	0.11007802
68	0x3e6dbb67	0.2321602
69	0xbdd688b7	-0.10475295
70	0x3d5852cc	0.052813336
71	0x3e156d86	0.14592561

weight f4 [24, 24]
0	0xbd34a2cc	-0.044100568
1	0x3c4e2c3e	0.01258379
2	0xbd2f03a6	-0.04272809
3	0xbc951713	-0.01819948
4	0x3e9bd74b	0.30437693
5	0xbcd6369d	-0.026149089
6	0xbcc066b1	-0.023486467
7	0x3cb8ed9f	0.022574244
8	0xbcd0b0dc	-0.025474958
9	0xbc9cd45f	-0.019144235
10	0x3d994acb	0.07484969
11	0xbcff3d5d	-0.03115719
12	0x3ceba6f6	0.028766137
13	0x3da31834	0.07963601
14	0x3e126529	0.14296402
15	0xbd98ae31	-0.074550994
16	0x3d8af5d9	0.06785173
17	0xbd03cd15	-0.032178003
18	0x3e2be567	0.16786729
19	0x3d84cdae	0.06484543
20	0x3d85554d	0.065104105
21	0x3daa3bfd	0.08312223
22	0xbdfe0d51	-0.12404884
23	0xbd862b5e	-0.065512404
24	0x3ccaa383	0.024736172
25	0x3c13e774	0.009027351
26	0x3c89c561	0.01681775
27	0x3b94ccae	0.0045410013
28	0xbbb6c126	-0.0055772243
29	0xbbd97f73	-0.0066375076
30	0x3d3e18fc	0.046410546
31	0xbcdd15bd	-0.026987905
32	0xbcfac72f	-0.030612556
33	0x3c305ad4	0.010763843
34	0x3c3f4bfa	0.011675829
35	0x3c619158	0.013767563
36	0x3d204c49	0.03913525
37	0x3d36fda1	0.044675473
38	0xbd5643fa	-0.05231092
39	0xbca5d979	-0.0202453
40	0xbc86a463	-0.016435808
41	0xbd138198	-0.036012262
42	0xbc49d5ad	-0.012319011
43	0xbd2635ea	-0.04057876
44	0xbd206b83	-0.03916503
45	0x3b8a92c4	0.0042289216
46	0x3c601af7	0.013678304
47	0xbca2ffac	-0.019897304
48	0x3d882c79	0.066491075
49	0xbb9aaaaa	-0.004720052
50	0x3d7cdeb6	0.06173583
51	0x3bed7d5c	0.00724761
52	0x3e124c55	0.14286931
53	0xbbac0ab3	-0.005250299
54	0xbc660c51	-0.014041022
55	0x3cb957dc	0.022624902
56	0xbafa2096	-0.0019083198
57	0x3c1567c6	0.00911898
58	0xbd82fe72	-0.06396188
59	0xbcc1e844	-0.023670323
60	0xbd1294a8	-0.0357863
61	0xbcaff94d	-0.02148118
62	0x3a9c3c72	0.001191987
63	0xbd6bf7f5	-0.057609517
64	0xbc9fea9b	-0.019521048
65	0x3b922a4f	0.00446061
66	0xbd065569	-0.032796297
67	0xbc899e2b	-0.016799053
68	0xbda1abee	-0.07894121
69	0xbdb957ec	-0.09049973
70	0xbbd9e337	-0.0066494006
71	0x3ccf43ff	0.025300978
72	0xbc920b54	-0.017827667
73	0xbbc3ef79	-0.005979475
74	0x3ca48975	0.020085076
75	0x3d0f4d0f	0.0349856
76	0x3e2148db	0.15750448
77	0xbcdd1a10	-0.026989967
78	0xbd489320	-0.048968434
79	0x3d169674	0.036764577
80	0x3cc553ae	0.024087753
81	0xbc0b8343	-0.008515182
82	0xbcd0f04b	-0.025505206
83	0x3b7d4822	0.003864773
84	0xbd6342bf	-0.055483576
85	0xbd0fefe7	-0.035140898
86	0xbcc93b7f	-0.024564503
87	0x3d300495	0.04297312
88	0x3c85c90d	0.01633122
89	0x3cc5726e	0.024102416
90	0x3de09e95	0.10967747
91	0xbc958662	-0.018252555
92	0x3e3fa38d	0.18714733
93	0xbcbb6390	-0.022874624
94	0x3c5cc34f	0.0134743
95	0xbc542cb6	-0.012950113
96	0x3b28de98	0.0025767442
97	0x3c8b758b	0.017023822
98	0x3a25b151	0.00063206727
99	0xbd193d10	-0.03741175
100	0xbbd8eed8	-0.0066202693
101	0xbd1e2711	-0.038611475
102	0xbcc3e578	-0.02391313
103	0x3ca6f26b	0.020379266
104	0xbd057255	-0.03257974
105	0x3a871d5a	0.001030843
106	0x3c5fc988	0.013658889
107	0xbc446d29	-0.011988916
108	0xbc65d317	-0.0140273785
109	0xbbf6f4f2	-0.007536524
110	0x3bf4be8a	0.007469003
111	0xbc1957a7	-0.009359277
112	0x3c62bffd	0.013839719
113	0x3c0c4d48	0.008563347
114	0x3a558a1c	0.0008145885
115	0x3c85bebb	0.016326299
116	0xbceef361	-0.029168786
117	0xbc24dec6	-0.010062879
118	0xbce7546e	-0.028238501
119	0xbc8b9c6f	-0.017042367
120	0xbceb0d9c	-0.028693013
121	0xbc5dbfdd	-0.013534513
122	0xbd1763b9	-0.036960337
123	0xbb6a7350	-0.0035774298
124	0xbd31f79a	-0.043449022
125	0x3cb18a49	0.021672385
126	0x3c0240a3	0.007949981
127	0xbcb132f3	-0.02163074
128	0x3d1f9d17	0.038968172
129	0xbc893adf	-0.016751705
130	0xbc948d76	-0.01813386
131	0x3cb139bd	0.021633977
132	0xbc55c53e	-0.0130475145
133	0x3c81d374	0.015847899
134	0xbc8e6c45	-0.017385611
135	0xbb8f1620	-0.004366651
136	0x3bf56922	0.0074893394
137	0xbbb558d9	-0.005534273
138	0xbcd9ba79	-0.026578175
139	0xbc40f69f	-0.011777549
140	0xbc3435ca	-0.010999152
141	0x3c0375bb	0.008023675
142	0xbd3ed347	-0.04658821
143	0xbb95f62e	-0.004576466
144	0x3d294ff8	0.04133603
145	0x3d3197cb	0.04335765
146	0x3c96c4aa	0.018404324
147	0x3ce50748	0.027957574
148	0xbdfac0c0	-0.122437954
149	0x3d29365f	0.041311618
150	0xbcc56cd5	-0.024099747
151	0x3acf9022	0.0015835802
152	0xbce45a87	-0.027875198
153	0xbba9c2bb	-0.0051806844
154	0x3ca5bee7	0.02023263
155	0x3b9d5659	0.004801553
156	0x3cfc6b4a	0.030812878
157	0x3d1a5040	0.03767419
158	0xbae89556	-0.0017744701
159	0x3cc08403	0.023500448
160	0x3c8d676e	0.017261233
161	0xbc057793	-0.0081461845
162	0x3cf5b8aa	0.029995281
163	0xbc9ac2ec	-0.018891774
164	0x3ccd9884	0.02509714
165	0xbd398704	-0.045294777
166	0xbda5f268	-0.08102876
167	0x3cf91833	0.030407047
168	0x3d89879c	0.067153186
169	0xbc45a22a	-0.012062589
170	0x3c3f9db4	0.011695314
171	0x3cf92631	0.030413719
172	0xbdbffdc2	-0.09374572
173	0xbb0a45cb	-0.0021098729
174	0x3d063c17	0.03277215
175	0x3cc60adb	0.024175098
176	0xbc469db5	-0.012122561
177	0x3b8f1a27	0.0043671313
178	0x3bd06100	0.0063592196
179	0xbd94f389	-0.07273013
180	0xbd32a88b	-0.043617766
181	0x3c9ea613	0.0193663
182	0x3cff5f01	0.031173231
183	0xbdabce86	-0.083890006
184	0xbb8af747	-0.0042409035
185	0xbc7b1b86	-0.015326386
186	0x3c1f3110	0.009716287
187	0xbc4a4294	-0.012344975
188	0xbe2a7b0a	-0.16648498
189	0xbd307f7f	-0.04309034
190	0xbd0a041c	-0.033695325
191	0xbcbbac1d	-0.022909218
192	0x3a9d5be2	0.0012005533
193	0x3c328bdc	0.010897603
194	0x3c1fc017	0.009750388
195	0xbce937a1	-0.028468909
196	0xbdbb70e2	-0.0915239
197	0xbce35cfd	-0.027754301
198	0xbc884de8	-0.016638711
199	0xbacb28c7	-0.0015499823
200	0x3be0d869	0.0068617356
201	0x3d34050f	0.043950137
202	0xbd8fcfb5	-0.07022039
203	0xbc97978c	-0.01850488
204	0xbc84cc02	-0.01621056
205	0xbd23a057	-0.039947834
206	0x3d2fb46d	0.042896677
207	0x3c4cebd7	0.0125074005
208	0xbcba99c3	-0.022778397
209	0xbc8521de	-0.0162515
210	0xbd1df3b9	-0.03856251
211	0x3d0bd6da	0.034140445
212	0x3c0950ce	0.008381082
213	0xbd04ddcd	-0.03243809
214	0xbc8c52dc	-0.017129354
215	0x3d134f65	0.03596439
216	0xbcb058f6	-0.021526795
217	0xbc3a8e1c	-0.011386421
218	0xbd428bdd	-0.047496665
219	0x3d2946e1	0.04132736
220	0x3c3842ee	0.011246426
221	0x3d599a8c	0.053125903
222	0x3c29a0ab	0.010353248
223	0xbcf57a69	-0.029965596
224	0x3c245a1e	0.010031251
225	0x3cc64f1d	0.024207646
226	0x3d370108	0.044678718
227	0x3ce4643b	0.027879825
228	0x3d11e6b1	0.035620395
229	0x3a9fed4e	0.001220146
230	0x3deb2d79	0.114832826
231	0xbc7ef5f0	-0.015561566
232	0x3cb10a96	0.021611493
233	0x3cdaec69	0.026724057
234	0xbc8f1738	-0.017467126
235	0xbc7b0de9	-0.015323141
236	0x3d50cdb3	0.05097742
237	0xbb733566	-0.0037110685
238	0xbcb8775b	-0.02251785
239	0xbc26afbd	-0.010173735
240	0xbee35c05	-0.44406143
241	0x3dd11923	0.102098726
242	0x3e0710ca	0.13189998
243	0x3db6026b	0.0888718
244	0xbd125050	-0.035721123
245	0xbe614bf5	-0.22001632
246	0x3ed07dc6	0.40720958
247	0x3d1c7dac	0.038205788
248	0x3e5f30b1	0.21795918
249	0xbb801e07	-0.0039098295
250	0xbd4fee0c	-0.05076413
251	0xbd28fc8b	-0.04125647
252	0xbd099ab1	-0.03359479
253	0x3e416b1c	0.18888515
254	0x3d88fca5	0.06688813
255	0x3e1d66fd	0.15371318

bias f4 [24]
0	0x3d596aad	0.05308025
1	0x3c1969ae	0.009363575
2	0xbb9425dd	-0.004521115
3	0xbd2e32b7	-0.042528834
4	0x3bd7b14c	0.0065824147
5	0x3b27645c	0.0025541997
6	0xbc080a3d	-0.008303222
7	0xbc6cbdcc	-0.014449548
8	0xba23bc3b	-0.0006246005
9	0x3cf22cbf	0.029562352
10	0x3e7eb4ff	0.24873732
11	0x3b1d4f12	0.0024003428
12	0x3bdd40dc	0.0067521166
13	0xbb581446	-0.0032971068
14	0x3cf9f232	0.030510996
15	0x3d1f00ef	0.03881925
16	0xbca6b20a	-0.020348568
17	0xbb7eba40	-0.0038868338
18	0xbad6e996	-0.0016396518
19	0xbbb3bd75	-0.0054852315
20	0xbcf3ed25	-0.029776165
21	0x3ba4d306	0.0050300388
22	0x3cfd1a0c	0.03089621
23	0xbbd31572	-0.0064417655

weight f4 [512, 24]
0	0x3e47cbe2	0.19511369
1	0x3e29942a	0.16560426
2	0xbdb3a131	-0.08770979
3	0xbe6fff26	-0.23437175
4	0x3ebe5571	0.37174562
5	0x3d195041	0.03743005
6	0xbdddac28	-0.10823852
7	0x3e719236	0.23590931
8	0xbe71c1b2	-0.23609045
9	0xbeacccad	-0.33749905
10	0xbd572e10	-0.052534163
11	0xbddb0299	-0.10693855
12	0xbd211b91	-0.03933293
13	0xbe2c5d8b	-0.16832559
14	0xbd857a92	-0.06517519
15	0x3d945418	0.07242602
16	0xbde95999	-0.113940425
17	0x3b5b51e0	0.003346555
18	0xbe89ee00	-0.26939392
19	0xbe1b7a8e	-0.1518347
20	0x3e569f2f	0.20959161
21	0x3e1493b0	0.14509463
22	0x3e0245d9	0.12721957
23	0xbb4473cc	-0.0029976247
24	0xbec2c726	-0.38042563
25	0x3e571b84	0.2100659
26	0x3ded42f1	0.11585034
27	0xbea72691	-0.3264661
28	0x3ea928a6	0.33038825
29	0xbde23389	-0.11044986
30	0xbd615e91	-0.055021826
31	0x3e505e1e	0.20348403
32	0xbe9609bb	-0.293043
33	0xbe8f4745	-0.27984062
34	0x3e07d415	0.13264497
35	0xbded4bda	-0.11586733
36	0xbdcf2af1	-0.10115612
37	0x3d88f01d	0.06686423
38	0x3d92933f	0.07156991
39	0x3d5c9bdf	0.053859588
40	0xbcdd18b0	-0.026989311
41	0xbdf01f32	-0.117247
42	0x3d1b5130	0.037919223
43	0xbdf1a8a8	-0.11799747
44	0xbe720536	-0.236348
45	0x3e2a71f1	0.16645028
46	0x3e660035	0.22461016
47	0x3e1dcb76	0.15409645
48	0xbdcb7cf0	-0.09935939
49	0x3dde85ea	0.10865386
50	0x3e0a8388	0.13526738
51	0xbebf26ac	-0.37334192
52	0x3e99c992	0.30036598
53	0xbe001b5d	-0.12510438
54	0xbe8252e8	-0.25453877
55	0x3e4e3c39	0.2014016
56	0xbea8be9a	-0.32957917
57	0xbebbdd06	-0.36692065
58	0xbead42c2	-0.33839995
59	0xbced51c4	-0.028969653
60	0x3e8327e6	0.25616378
61	0xbdac0373	-0.083990954
62	0xbde77bdf	-0.113029234
63	0x3cc012f5	0.02344654
64	0xbdf2dbcc	-0.11858329
65	0xbd1b0f8a	-0.037856616
66	0xbc8cc73d	-0.017184848
67	0x3da8b07f	0.08236789
68	0x3dc46d0b	0.09591111
69	0x3e311326	0.17292461
70	0x3e440302	0.19141772
71	0x3e656d64	0.2240501
72	0xbe688627	-0.22707425
73	0xbbd5261e	-0.006504788
74	0x3e84fca9	0.25974014
75	0xbe90be3c	-0.28270137
76	0x3eaba081	0.33520892
77	0xbe12d040	-0.14337254
78	0xbce41db2	-0.027846191
79	0x3ed091af	0.40736148
80	0xbdab7e1a	-0.08373661
81	0xbe760d10	-0.2402842
82	0xbf3cf69d	-0.738138
83	0x3e13abcb	0.14421003
84	0x3d855ad0	0.06511462
85	0x3e6be79b	0.23037569
86	0xbe186d00	-0.1488533
87	0xbd4418e3	-0.047875296
88	0x3de2236f	0.11041915
89	0xbdbc764e	-0.09202252
90	0xbdade22c	-0.084904045
91	0x3cc8c569	0.024508195
92	0x3e3bfdcc	0.18358535
93	0xbd0e59bf	-0.034753557
94	0x3e224c89	0.15849508
95	0x3e47bd9e	0.19505927
96	0xbdeace9a	-0.11465187
97	0x3e19681a	0.14981118
98	0x3dc4e5f7	0.09614175
99	0xbe6576ad	-0.22408552
100	0x3e6a5837	0.22885214
101	0xbc9dc874	-0.019260623
102	0xbd3b6af2	-0.045756288
103	0x3d027ace	0.031855397
104	0xbeaf55ff	-0.34245297
105	0xbe84e1b3	-0.25953445
106	0xbec25b54	-0.37960303
107	0x3cafc283	0.021455055
108	0xbde6592d	-0.11247478
109	0xbe4211b9	-0.18952073
110	0xbccabe4b	-0.024748942
111	0x3e03ca53	0.1287015
112	0xbdd53e18	-0.10412234
113	0x3dc9f3ec	0.098609775
114	0x3e2c3d8d	0.16820355
115	0x3d365b84	0.04452087
116	0x3da89c40	0.08232927
117	0xbde7cbe2	-0.113181844
118	0x3e3c4f83	0.18389706
119	0x3e183ab7	0.14866148
120	0xbe19ff84	-0.15038878
121	0x3ceae259	0.028672384
122	0xbdddd750	-0.10832083
123	0xbdbd6ccd	-0.09249268
124	0x3d98d68b	0.07462796
125	0xbda22232	-0.079166785
126	0x3d222994	0.039590433
127	0x3e24d001	0.16094972
128	0xbe4f39bb	-0.20236866
129	0xbe834902	-0.25641638
130	0xbac612f7	-0.0015111853
131	0xbdc7883f	-0.09742784
132	0xbc2c26a9	-0.010507264
133	0xbe00d86a	-0.12582555
134	0x3d45f395	0.048328
135	0x3e4e7ed9	0.20165576
136	0xbdcabf5f	-0.098997824
137	0x3c5c1c7e	0.013434527
138	0x3e017f54	0.12646228
139	0xbd5be0bf	-0.05368113
140	0x3cf52956	0.029926937
141	0x3de04387	0.1095038
142	0x3dcad907	0.09904676
143	0x3ddf1698	0.10892981
144	0xbe4e9b85	-0.20176513
145	0xbdcc5f9e	-0.09979175
146	0xbdf51050	-0.11966002
147	0xbe31f64f	-0.17379116
148	0x3e90e1b5	0.282972
149	0x3e07ef4a	0.13274875
150	0x3d14ee54	0.0363601
151	0x3e0fdae0	0.14048338
152	0xbea9446f	-0.33060023
153	0xbe3ad207	-0.18244182
154	0xbe38c601	-0.18044282
155	0xbc9c2798	-0.019061849
156	0xbd21cdd7	-0.039502945
157	0xbd6a26fc	-0.057166085
158	0x3d9ece7b	0.07754227
159	0x3e24c055	0.16088994
160	0xbd7b66c4	-0.0613773
161	0xbcb025bf	-0.021502374
162	0xbe662a59	-0.22477092
163	0x3d8c5056	0.0685126
164	0xbe1c55a5	-0.15267046
165	0x3e5481bc	0.20752615
166	0x3e7c5cb9	0.24644746
167	0xbcb12e1a	-0.021628428
168	0xbc45705b	-0.012050713
169	0xbd3bb114	-0.04582317
170	0x3d4195ee	0.047262125
171	0xbb89e4d3	-0.004208186
172	0x3e11a987	0.14224826
173	0xbdf73f70	-0.120726466
174	0x3d98a225	0.074528016
175	0x3dc8c87d	0.09803865
176	0xbee11416	-0.43960637
177	0xbe9f7710	-0.31145525
178	0xbdbea5b3	-0.09308948
179	0x3da4d65f	0.080487005
180	0x3c5b193f	0.013372718
181	0xbd97e5f0	-0.07416904
182	0x3d997479	0.074929185
183	0x3e8ad4d6	0.27115506
184	0x3d9bb815	0.0760347
185	0xbdd9fe62	-0.10644223
186	0x3e3b4a7d	0.18290134
187	0xbce316c3	-0.027720815
188	0xbe56ddea	-0.20983091
189	0xbe0243bd	-0.12721153
190	0x3e58327a	0.21113005
191	0x3e973aec	0.2953714
192	0xbe381588	-0.17976964
193	0x3e0a6ff6	0.13519272
194	0x3deb35ce	0.11484872
195	0xbda134a3	-0.07871368
196	0x3e815758	0.2526195
197	0x3d8e4d0c	0.06948289
198	0xbda24950	-0.079241395
199	0x3e01c0f1	0.12671258
200	0xbe302c34	-0.17204362
201	0xbe763422	-0.24043325
202	0xbda8df8c	-0.08245763
203	0x3c278a3a	0.010225827
204	0x3ded8932	0.115984336
205	0xbd8cfbc3	-0.06883957
206	0x3ca75275	0.02042506
207	0x3e3c9fa0	0.18420267
208	0xbe44e440	-0.19227695
209	0x3e3146de	0.1731219
210	0x3d71db17	0.05904683
211	0x3d02b967	0.031915095
212	0x3e13272c	0.14370412
213	0x3c96d47a	0.018411864
214	0x3eabcb1b	0.33553395
215	0x3e5f6e0b	0.21819322
216	0xbe86df3a	-0.26342183
217	0xbd0536e6	-0.03252306
218	0x3d4d226d	0.05008166
219	0xbe9b43af	-0.30325076
220	0x3e72b470	0.23701644
221	0xbdf70dc8	-0.120631754
222	0xbdc5a706	-0.09650998
223	0x3e853ea4	0.26024354
224	0xbf02dafa	-0.5111538
225	0xbe744b9c	-0.23856968
226	0xbdf5f427	-0.12009459
227	0x3d9e18c0	0.077195644
228	0xbe119fda	-0.14221135
229	0xbe29ce71	-0.16582657
230	0xbd829d20	-0.063776255
231	0xbe528768	-0.20559466
232	0xbd865862	-0.065598264
233	0xbdfb4ec7	-0.12270885
234	0x3d8eeafc	0.069784135
235	0x3e5ec121	0.2175336
236	0xbe891aec	-0.26778352
237	0x3ea0aa4f	0.31379935
238	0x3db1131b	0.08646222
239	0x3dbc024b	0.09180125
240	0xbdcd6f4c	-0.10030994
241	0x3e7efeba	0.24901858
242	0xbd7ca187	-0.061677482
243	0xbea41c7c	-0.32052982
244	0x3e96f90d	0.29486886
245	0xbe60e466	-0.21962127
246	0x3d69b425	0.057056565
247	0x3e804a33	0.2505661
248	0xbe9e1d6f	-0.3088183
249	0xbe1acbc5	-0.15116794
250	0xbdcb030f	-0.09912693
251	0x3d820ed8	0.063504875
252	0x3b9f357c	0.0048586708
253	0x3d0e7b14	0.034785345
254	0xbdd6502e	-0.10464512
255	0xbc80ff71	-0.015746804

bias f4 [512]
0	0xbe955391	-0.2916532
1	0xbdaacfc4	-0.083404094
2	0xbe3ed223	-0.18634848
3	0xbdb9029a	-0.09033699
4	0xbe225a06	-0.15854654
5	0xbebc3c6b	-0.36764845
6	0x3cd2ca1b	0.025731137
7	0xbe2eb3f5	-0.17060836
8	0xbdf28516	-0.118417904
9	0xbe01f983	-0.12692837
10	0xbda09453	-0.078407906
11	0xbd93553f	-0.07193994
12	0xbe1826c7	-0.14858542
13	0xbec1a4a2	-0.37820917
14	0xbe674808	-0.22586071
15	0xbe286a0b	-0.16446702
16	0xbeb5dbaf	-0.35519168
17	0x3afe23ae	0.0019389295
18	0xbe40bcbb	-0.18821995
19	0xbe3c5b9a	-0.18394318
20	0xbeaa2837	-0.33233806
21	0xbeb5b898	-0.35492396
22	0xbdc299b2	-0.09501971
23	0xbe358c7f	-0.17729376
24	0xbe220e16	-0.15825686
25	0xbe54ac1a	-0.20768777
26	0xbb9cabdb	-0.004781229
27	0xbe4e468d	-0.201441
28	0xbdf166be	-0.11787175
29	0xbd7f0cc8	-0.06226805
30	0xbebbb40b	-0.366608
31	0xbe87d4a3	-0.26529416
32	0x3d4dbb86	0.050227664
33	0xbea6dd4b	-0.32590708
34	0xbe919f0b	-0.28441653
35	0xbe49e6e8	-0.1971699
36	0xbeb979bb	-0.36225685
37	0xbe0b5364	-0.1360603
38	0xbe9cb57a	-0.30607206
39	0xbeadd84f	-0.33954093
40	0xbe38118c	-0.17975444
41	0xbe2cfd82	-0.1689358
42	0xbe6d7a60	-0.23191214
43	0xbed9656f	-0.424602
44	0xbddc7c66	-0.107659146
45	0xbd8fe654	-0.070263535
46	0xbe1eaa49	-0.15494646
47	0xbe6e36c1	-0.23263074
48	0x3d96c778	0.073622644
49	0xbe646a05	-0.22306068
50	0xbef93cbf	-0.48679158
51	0xbd9d96cc	-0.07694778
52	0xbe474cff	-0.19462965
53	0xbe1045e8	-0.14089167
54	0xbea0c679	-0.31401423
55	0xbe89c365	-0.26906887
56	0xbdccf4de	-0.10007642
57	0xbddedaab	-0.10881551
58	0xbe39b487	-0.18135272
59	0xbdd71ce8	-0.1050356
60	0xbdf0e7f0	-0.117629886
61	0xbe617f8f	-0.22021316
62	0xbe414f1c	-0.18877834
63	0xbc254555	-0.010087331
64	0xbd8b103e	-0.06790207
65	0x3db8b6f3	0.0901927
66	0xbea96745	-0.330866
67	0xbe08c3c2	-0.13355926
68	0xbe65755a	-0.22408047
69	0xbe14fd50	-0.14549756
70	0xbea99aac	-0.33125818
71	0xbe734b9c	-0.23759311
72	0xbd01e242	-0.031709917
73	0xbec0f234	-0.37684786
74	0xbd185bdf	-0.03719699
75	0xbeb8e253	-0.36110172
76	0xbe5f5a1e	-0.2181172
77	0xbdcaf7a2	-0.099105135
78	0xbd573186	-0.052537464
79	0xbc1492b3	-0.009068179
80	0xbd5d59ec	-0.054040834
81	0x38f4c52f	0.00011671555
82	0xbed1c85b	-0.40973172
83	0xbe83f977	-0.25776264
84	0xbeb4238d	-0.35183373
85	0xbcc4a350	-0.024003655
86	0xbe69646e	-0.22792217
87	0xbe866d02	-0.2625504
88	0xbe7181c4	-0.23584658
89	0xbea9cfe1	-0.33166412
90	0xbe70b162	-0.23505166
91	0xbe345bb7	-0.17613111
92	0xbdfecc44	-0.12441304
93	0xbeaa922e	-0.3331465
94	0xbdda0897	-0.1064617
95	0xbe797ba7	-0.24363576
96	0xbe1c095b	-0.15237944
97	0xbeebc981	-0.46052173
98	0xbe5f7d51	-0.21825148
99	0xbec2a97d	-0.38019934
100	0xbebb115a	-0.36536676
101	0xbe0e0b6f	-0.13871549
102	0xbf0f5ecc	-0.56004024
103	0xbea0b748	-0.31389832
104	0x3d2ccb83	0.04218627
105	0xbefd830a	-0.49514037
106	0xbe6e7c1e	-0.23289534
107	0xbe90b522	-0.28263193
108	0x3e12d648	0.14339554
109	0xbde622fc	-0.112371415
110	0xbdb4a6ea	-0.08820899
111	0xbe9d22ea	-0.306907
112	0xbe417ddb	-0.18895666
113	0xbe85c231	-0.2612472
114	0xbdea3e44	-0.114376575
115	0xbea7eccb	-0.32797846
116	0xbde1e39e	-0.11029743
117	0xbe1c4d44	-0.1526385
118	0xbeb8641b	-0.36013874
119	0xbe9d1c4c	-0.3068565
120	0xbda2a3c5	-0.07941393
121	0xbe3c1b00	-0.18369675
122	0xbe84151f	-0.25797364
123	0xbe8114c5	-0.25211158
124	0x3cbb7a0a	0.022885341
125	0xbdf095b6	-0.11747305
126	0xbe51a695	-0.20473702
127	0xbe139481	-0.14412118
128	0xbc29d036	-0.010364583
129	0xbd80d744	-0.06291059
130	0x3e1d1652	0.15340546
131	0xbc31987b	-0.010839577
132	0xbdca8abe	-0.09889744
133	0xbdb587d1	-0.088637955
134	0xbe32ae6c	-0.17449349
135	0xbe96c7a6	-0.29449195
136	0xbe24154f	-0.16023754
137	0xbef9236d	-0.4865984
138	0xbd94fb79	-0.07274527
139	0xbec79122	-0.38977915
140	0xbee7bd5e	-0.45261663
141	0xbe7b4ac8	-0.24540246
142	0xbe734906	-0.23758325
143	0xbe2cb6f5	-0.16866668
144	0xbe839635	-0.25700536
145	0xbe578362	-0.21046212
146	0xbe83a6bc	-0.25713146
147	0xbde4a2cc	-0.111638635
148	0xbe44fc72	-0.19236925
149	0xbe8fb3d0	-0.28066874
150	0xbe7be54f	-0.24599193
151	0xbe955b85	-0.29171386
152	0xbeb6c9a3	-0.35700712
153	0x3d4d939e	0.050189607
154	0xbe9a9145	-0.30188957
155	0xbea28d44	-0.31748402
156	0x3d43c527	0.04779544
157	0xbe594dbf	-0.21221064
158	0xbe9f212d	-0.3108
159	0xbe4caebc	-0.19988531
160	0xbd34b96e	-0.044122152
161	0xbdeae4ef	-0.11469447
162	0xbeb52f4b	-0.35387644
163	0xbe9ad744	-0.3024236
164	0xbe0a4182	-0.13501552
165	0xbec4b554	-0.38419592
166	0xbef6ebd3	-0.48226795
167	0xbd5ec220	-0.05438435
168	0xbe0fd136	-0.14044651
169	0xbe98aee2	-0.29820925
170	0x3e238b5c	0.1597113
171	0xbe80b938	-0.2514131
172	0xbec4389a	-0.38324434
173	0xbe1b25ba	-0.1515111
174	0x3d4b36ce	0.049612813
175	0xbe8fdb3f	-0.2809696
176	0xbe7cb6a2	-0.24679044
177	0xbe46f163	-0.19428019
178	0xbe4dab1a	-0.20084801
179	0x3d3a0617	0.045415964
180	0xbe715de1	-0.23570968
181	0x3d8252c5	0.06363443
182	0xbea6780a	-0.32513458
183	0xbe453ab7	-0.19260679
184	0x3b6ac507	0.0035823004
185	0xbe43a7b0	-0.19106936
186	0xbee217fc	-0.44158924
187	0xbd99e701	-0.075147636
188	0xbe860b2b	-0.26180395
189	0xbe945689	-0.2897227
190	0xbea81b22	-0.328332
191	0xbb1f7ef7	-0.0024337152
192	0xbd37e0f6	-0.044892274
193	0xbe535dae	-0.20641205
194	0x3d588b44	0.05286719
195	0x3d3c7f4b	0.046019834
196	0xbe78562c	-0.24251622
197	0xbec3a184	-0.38209164
198	0xbec1fc83	-0.37887964
199	0xbe336615	-0.1751941
200	0xbe349514	-0.17634994
201	0x3dd11036	0.1020817
202	0x3d0eb8ea	0.034844317
203	0xbe18f195	-0.14935906
204	0xbe60904f	-0.2193005
205	0xbf274ace	-0.6534852
206	0xbe369d51	-0.17833449
207	0xbdccb248	-0.09994942
208	0xbec4bd35	-0.38425604
209	0xbdf96a97	-0.121785335
210	0xbeb577f6	-0.35443085
211	0xbdddfdeb	-0.10839447
212	0xbd0b5149	-0.034013066
213	0xbf0d12e2	-0.5510694
214	0xbd64da6c	-0.055872366
215	0xbeee738d	-0.46572533
216	0xbefc151a	-0.4923485
217	0xbeb0b7d4	-0.3451525
218	0xbde23263	-0.11044767
219	0xbead8c14	-0.33895934
220	0xbe748d79	-0.23882093
221	0xbc803ae5	-0.015653083
222	0xbeff537e	-0.49868387
223	0xbd196702	-0.03745175
224	0xbe8f3995	-0.2797362
225	0xbe9f76e9	-0.3114541
226	0xbe58164c	-0.21102256
227	0xbf1155fe	-0.5677184
228	0xbd78d94f	-0.060754117
229	0xbe2ba334	-0.16761476
230	0xbf05f0dd	-0.52320653
231	0xbc7ecbdf	-0.015551536
232	0x3d75a83f	0.059974905
233	0xbeadfde7	-0.33982775
234	0xbe51d090	-0.20489717
235	0xbe8a579f	-0.27019975
236	0xbb07e295	-0.0020734419
237	0xbd76f40a	-0.060291328
238	0xbe5a790a	-0.21335235
239	0xbec9bad3	-0.39400348
240	0x3ca87d77	0.020567639
241	0xbe6f4714	-0.23366958
242	0xbebbcf63	-0.3668166
243	0x3d8ac2c2	0.06775428
244	0x3bae4e47	0.00531939
245	0x3d93f0c8	0.0722366
246	0xbea12184	-0.31470883
247	0xbdf00450	-0.117195725
248	0xbe025925	-0.12729318
249	0xbe80fa2d	-0.2519087
250	0x3e31f357	0.17377983
251	0xbdc513b1	-0.096228965
252	0xbe897af5	-0.2685162
253	0xbe57f54c	-0.21089667
254	0xbbc79693	-0.006090948
255	0xbe4e9534	-0.20174104
