histories_pre/LSTM_ATCNet_BcicIv2a_pt/84.91%_slf=100_bs=064_lr=0.0013_ld=0.999872_nl=3_hs=032_do=0.23/best_valid_loss.pt (torch, 103628 bytes, 14 tensors)

weight_ih_l0 f4 [128, 22]
0	0xbaacc405	-0.0013180977
1	0x3dd80123	0.10547092
2	0xbd4fc493	-0.050724577
3	0xbc382935	-0.011240293
4	0x3def4938	0.11683887
5	0x3de798b2	0.11308421
6	0xbdd355cd	-0.103190996
7	0x3e313a27	0.1730734
8	0x3db67a76	0.08910076
9	0x3ceddd7f	0.029036282
10	0x3d49e6e2	0.049292453
11	0x3e72e854	0.23721439
12	0xbd5f47bf	-0.05451178
13	0x3e4518d5	0.19247754
14	0x3e5ebb9f	0.2175126
15	0xbcd380be	-0.025818225
16	0x3df40510	0.11915028
17	0x3e811f54	0.25219214
18	0x3e64826d	0.22315378
19	0x3e3a1e88	0.18175709
20	0x3e64397a	0.2228755
21	0x3cb01aeb	0.02149721
22	0x3efab92d	0.48969403
23	0x3e80a6e9	0.25127342
24	0x3e75ac4e	0.2399151
25	0x3e46bb99	0.194075
26	0x3dd4ad34	0.103845984
27	0x3ecc2975	0.3987538
28	0x3ed85bff	0.42257687
29	0x3e75545d	0.23957963
30	0x3e597039	0.21234216
31	0x3e3ddd97	0.18541561
32	0x3eb957bc	0.3619975
33	0x3efca596	0.49345082
34	0x3eb68bd8	0.35653567
35	0x3f0183df	0.50591844
36	0x3e26e3cc	0.16297835
37	0x3e8020a6	0.2502491
38	0x3f0ea5e2	0.5572187
39	0x3ed02792	0.4065519
40	0x3e8ce2bc	0.27516735
41	0x3eb5d035	0.35510412
42	0x3ef42e81	0.4769173
43	0x3ecb2baa	0.3968175
44	0x3e75a2a9	0.23987831
45	0x3cd52465	0.02601833
46	0x3e62f09d	0.22162099
47	0x3e5728c2	0.21011642
48	0x3e3704ee	0.17872974
49	0xbe0720e1	-0.13196136
50	0x3e72cb1f	0.23710297
51	0xbcd02285	-0.025407085
52	0xbb82cdf9	-0.003991839
53	0x3e5eb385	0.21748169
54	0xbe02a122	-0.1275678
55	0x3cb536d3	0.022120869
56	0x3e9eeefa	0.310417
57	0x3d6b9e74	0.05752416
58	0x3e87429c	0.26418006
59	0x3e4ec3ed	0.20191927
60	0xbd8e3b08	-0.06944853
61	0x3e3bf36a	0.18354574
62	0xbd9c3d28	-0.07628852
63	0x3e2ba394	0.16761619
64	0x3d390ada	0.045176364
65	0x3e23948c	0.15974635
66	0xbc8f02f9	-0.017457472
67	0x3dd2226f	0.10260474
68	0xbd54a64d	-0.05191641
69	0xbe225c35	-0.15855487
70	0xbe2f60a9	-0.17126717
71	0xbb2fe73b	-0.0026840705
72	0x3d90f668	0.07078248
73	0xbe3e7cea	-0.18602338
74	0xbd771b71	-0.060328905
75	0xbdb935ed	-0.09043489
76	0xbc71120e	-0.014713777
77	0x3cb9acd8	0.022665426
78	0xbe165b28	-0.14683211
79	0xbd677601	-0.05650902
80	0xbd42dc61	-0.04757345
81	0x3df83ab5	0.121205725
82	0xbd838e45	-0.0642362
83	0xbd9d89b1	-0.07692278
84	0x3da066b5	0.0783209
85	0xbddd9ea7	-0.10821276
86	0x3cf9962a	0.030467112
87	0xbe6ea873	-0.23306446
88	0x3e6e1e54	0.23253757
89	0x3e956951	0.29181913
90	0x3eb2b8ec	0.3490671
91	0x3edcc864	0.43121636
92	0x3ecb0aa4	0.39656556
93	0x3eac26b8	0.3362329
94	0xbaa73ed3	-0.0012759812
95	0x3ebc92ae	0.36830658
96	0x3ea7d30a	0.32778198
97	0x3f0bbfef	0.5458974
98	0x3ee9e8eb	0.45685515
99	0x3f0696cc	0.5257385
100	0x3e8a5aa2	0.27022272
101	0x3ee461e3	0.44605932
102	0x3e57ed35	0.21086581
103	0x3eef39bd	0.46723738
104	0x3e8c1cef	0.27365825
105	0x3e93c923	0.28864393
106	0x3e86cdcc	0.26328886
107	0x3ed9d3da	0.42544442
108	0x3f047742	0.51744473
109	0x3f112131	0.5669127
110	0x3f1408ba	0.57825816
111	0x3ed41c5f	0.41427895
112	0x3ed2ca8c	0.41170156
113	0x3ea8c7ba	0.3296488
114	0x3ef2d5ef	0.47428843
115	0x3e49a213	0.19690733
116	0x3e11c86e	0.14236614
117	0x3d990d22	0.07473208
118	0x3eb1fafb	0.34761795
119	0x3ea3404e	0.31884998
120	0x3e54d713	0.2078517
121	0x3ed85a65	0.42256466
122	0x3ef4ba4d	0.47798386
123	0x3e177689	0.14791311
124	0x3e0e646c	0.13905495
125	0x3e261f0e	0.16222784
126	0x3e8c1fc5	0.27367988
127	0x3f03c4a0	0.514719
128	0x3eb273bc	0.34853923
129	0x3eb1dd66	0.34739226
130	0x3ea110e5	0.31458202
131	0x3e97a473	0.29617652
132	0x3d29359c	0.04131089
133	0x3ed8c52f	0.4233794
134	0x3de95809	0.113937445
135	0x3dd84a56	0.105610535
136	0x3d72aec8	0.059248716
137	0x3e8a93dc	0.27065933
138	0x3e35c081	0.17749216
139	0x3ebcaedf	0.36852166
140	0x3e2a119d	0.16608281
141	0x3df34fd5	0.11880461
142	0x3e73907d	0.23785587
143	0x3e395c56	0.1810163
144	0x3e164c64	0.14677578
145	0x3ea191f2	0.3155666
146	0x3d955080	0.07290745
147	0x3dc380f3	0.095460795
148	0x3e84ee59	0.25963095
149	0x3ea76d8c	0.32700765
150	0x3d958f3e	0.07302712
151	0x3db0e515	0.08637444
152	0x3db5616f	0.088564746
153	0x3e773d6f	0.24144529
154	0xbe0126d1	-0.12612464
155	0x3e163d23	0.1467176
156	0x3bca73f9	0.006178376
157	0xbe25caaa	-0.16190591
158	0xbd9d1b34	-0.07671204
159	0xbe6a17e1	-0.22860672
160	0xbc256920	-0.010095865
161	0x3cfaacc6	0.030599963
162	0xbe07a35d	-0.13245912
163	0x3e00d694	0.12581855
164	0x3d98d64d	0.0746275
165	0xbe289656	-0.16463599
166	0xbdcbf285	-0.09958366
167	0x3e68ae62	0.22722772
168	0x3d214b22	0.039378293
169	0xbe04087d	-0.12893863
170	0xbbc710d2	-0.006075003
171	0xbde06a1a	-0.10957737
172	0x3d759d0f	0.059964236
173	0x3cb41d3d	0.021986598
174	0x3e66930a	0.22517028
175	0x3e8ab983	0.2709466
176	0x3e09bb4e	0.13450357
177	0x3eddd76d	0.4332842
178	0x3e456041	0.19274999
179	0x3e1604d0	0.14650273
180	0x3dc7ad9b	0.097499095
181	0x3e1fc130	0.15601039
182	0x3e8b441a	0.27200395
183	0x3e928675	0.28618208
184	0x3e044863	0.12918238
185	0x3dbbc2c5	0.09168009
186	0x3e08d805	0.13363655
187	0x3d663a5b	0.056207996
188	0x3ed52c6e	0.4163546
189	0x3d840742	0.06446697
190	0x3da046b2	0.07825984
191	0x3decf309	0.11569793
192	0x3e255c4b	0.16148488
193	0x3e648b6b	0.22318809
194	0xbd8d4f6c	-0.06899914
195	0xbdc60194	-0.0966827
196	0x3d7fea99	0.06247959
197	0x3ec4e87d	0.38458624
198	0x3ec21302	0.37905127
199	0x3ec1d106	0.37854785
200	0x3ecba721	0.39775947
201	0x3e778bb1	0.24174382
202	0x3eb20b36	0.34774178
203	0x3e38deef	0.18053792
204	0x3e4d0e56	0.20025
205	0x3e8a4810	0.27008104
206	0x3f0c43fd	0.5479124
207	0x3e4870db	0.19574301
208	0x3e8fba9c	0.2807206
209	0x3ed81b07	0.4220812
210	0x3ea5d92c	0.32392251
211	0x3ecca661	0.39970687
212	0x3f089139	0.5334659
213	0x3ea071f7	0.31336948
214	0x3e613fae	0.21996948
215	0x3e8b84aa	0.27249652
216	0x3ec68a0e	0.38777202
217	0x3f1bd0fc	0.6086576
218	0x3edb7a76	0.42866868
219	0x3ea64bbe	0.32479662
220	0x3dde76e7	0.108625226
221	0x3eb56a63	0.3543273
222	0x3eed6603	0.4636689
223	0x3ebc26a4	0.3674823
224	0x3ee23200	0.44178772
225	0x3f09b83c	0.53796744
226	0x3eca9e6f	0.39574
227	0x3f103bf1	0.56341463
228	0x3f06ec4d	0.52704316
229	0x3ea5e4ee	0.32401222
230	0x3f2b33ea	0.6687609
231	0x3f311d52	0.69185364
232	0x3f1679ef	0.58779806
233	0x3f002b27	0.50065845
234	0x3f085bd8	0.5326514
235	0x3ebb393a	0.36567098
236	0x3efabef1	0.48973802
237	0x3ee7e20b	0.45289645
238	0x3e804390	0.25051546
239	0x3ea58116	0.32325047
240	0x3e6f559d	0.23372503
241	0x3ef81508	0.48453546
242	0xbd155938	-0.03646204
243	0xbcf16676	-0.029467802
244	0x3ccf4fed	0.025306666
245	0x3e2fae60	0.17156363
246	0xbe118f0b	-0.14214723
247	0xbd9832b9	-0.074315496
248	0x3d7e6517	0.062108126
249	0xbe056caf	-0.13029741
250	0x3e471509	0.19441618
251	0x3e1b6d92	0.15178517
252	0x3d254818	0.040351957
253	0x3d8814b4	0.06644574
254	0x3e7a827c	0.24463838
255	0x3d217a43	0.03942324

weight_hh_l0 f4 [128, 32]
0	0xbe9febaf	-0.312345
1	0xbc875f71	-0.016525002
2	0x3db56fc9	0.08859212
3	0xbd5c6326	-0.053805493
4	0x3ead77d1	0.33880475
5	0xbd326d31	-0.043561164
6	0xbc475d09	-0.012168177
7	0x3d398d88	0.04530099
8	0x3e195a0c	0.14975756
9	0x3df0f454	0.11765352
10	0x3e8f2c40	0.27963448
11	0xbe243dde	-0.16039225
12	0x3dc9b78e	0.098494634
13	0xbe862a9a	-0.26204377
14	0x3c3bef15	0.011470576
15	0x3e01100d	0.12603779
16	0x3df4a15e	0.11944841
17	0xbdaaaad8	-0.08333367
18	0x3d53a495	0.05167063
19	0x3d327989	0.043572936
20	0x3da76414	0.08173385
21	0x3c0be9ba	0.0085396115
22	0xbe8d9c56	-0.27658337
23	0xbe362d66	-0.17790756
24	0x3d972891	0.07380784
25	0x3e83c453	0.2573572
26	0x3bfd6735	0.0077332505
27	0x3e4b75ea	0.198692
28	0xbdc2f347	-0.09519058
29	0x3dc81575	0.097697176
30	0xbe733013	-0.23748808
31	0xbe858ef6	-0.26085633
32	0xbf345d22	-0.7045461
33	0xbe705469	-0.234697
34	0x3e9ecf19	0.31017378
35	0xbf09504d	-0.53638154
36	0xbd5cdbce	-0.05392056
37	0x3d0798a7	0.033104565
38	0x3e8d6a77	0.2762029
39	0xbf4fe252	-0.8120471
40	0x3e3c3cb7	0.18382536
41	0xbef0dad1	-0.47041944
42	0x3eb4b0ea	0.35291225
43	0xbf7c48e8	-0.98548746
44	0xbb7062b7	-0.0036679932
45	0xbf320217	-0.6953444
46	0xbe910201	-0.2832184
47	0xbf47f88e	-0.7811364
48	0x3e92dfdd	0.2868642
49	0x3e2bb26a	0.16767278
50	0xbe505703	-0.20345692
51	0xbf7584d2	-0.9590579
52	0xbe6b2074	-0.22961599
53	0xbe1ee4fc	-0.15517038
54	0xbd903120	-0.0704062
55	0xbe0de240	-0.13855839
56	0xbe98a446	-0.2981283
57	0xbf36ec40	-0.7145424
58	0x3c35eb56	0.011103472
59	0xbf30f4e7	-0.6912369
60	0x3f1f3a77	0.62198585
61	0xbe6234de	-0.2209048
62	0x3c83817f	0.01605296
63	0xbf47dd19	-0.78071743
64	0xbf22d436	-0.6360506
65	0xbeb3af0c	-0.35094488
66	0x3f163ac4	0.5868342
67	0xbea064c7	-0.31326887
68	0x3e2fac0a	0.17155471
69	0xbd1f6f8f	-0.03892475
70	0x3ee237f9	0.4418333
71	0xbeb45a47	-0.35225126
72	0x3e2828e2	0.16421846
73	0xbe85d861	-0.26141647
74	0xbd431edd	-0.047636855
75	0xbf6dda7f	-0.92911524
76	0x3e1cc8bf	0.15310954
77	0xbf1b379c	-0.6063173
78	0xbe9ab5d9	-0.30216864
79	0xbeb5152a	-0.3536771
80	0x3ef20a53	0.47273502
81	0x3e26f65d	0.16304918
82	0xbed09560	-0.40738964
83	0xbf65e0a8	-0.89795923
84	0xbea28ee9	-0.31749657
85	0xbe9068e9	-0.2820504
86	0x3ce8bc13	0.028409993
87	0xbb80c78b	-0.0039300374
88	0xbe436326	-0.19080791
89	0xbef89e51	-0.48558286
90	0x3e32c2f6	0.17457184
91	0xbecd3ab0	-0.40083838
92	0x3f074fc9	0.5285612
93	0xbeceea9d	-0.4041337
94	0xbe794edd	-0.2434649
95	0xbf4adc36	-0.79242265
96	0x3e97e616	0.2966773
97	0x3ebf3d0d	0.37351266
98	0xbe62ba96	-0.2214149
99	0x3d00e281	0.03146601
100	0x3d2435dc	0.040090427
101	0x3dcf208a	0.10113628
102	0xbe202336	-0.15638432
103	0x3e9a192a	0.30097324
104	0xbc92be61	-0.017913045
105	0x3e223ed8	0.15844285
106	0x3d23edba	0.040021636
107	0x3d186a67	0.03721085
108	0x3e918ad2	0.28426224
109	0x3ebe5214	0.37171996
110	0x3db2309f	0.0870068
111	0x3cc38579	0.023867356
112	0x3e0a52a6	0.1350809
113	0xbd336bf6	-0.04380413
114	0x3ca954be	0.020670291
115	0xbd761f39	-0.06008837
116	0x3b2d261a	0.0026420415
117	0xbed2373e	-0.4105777
118	0xbc813b10	-0.015775234
119	0x3e4f3c13	0.2023776
120	0x3e98ca5f	0.29841897
121	0xbd22fca1	-0.039791707
122	0xbd567cd3	-0.052365135
123	0xbd0e773b	-0.034781676
124	0xbdf8ef85	-0.1215506
125	0xbe18869b	-0.14895098
126	0xbe06e54d	-0.13173409
127	0xbce92539	-0.028460132
128	0xbe67fd8e	-0.22655317
129	0xbdd0d127	-0.10196143
130	0x3dfc0c65	0.123070516
131	0xbefb38f1	-0.4906688
132	0xbe75b3de	-0.23994395
133	0xbdd8b866	-0.10582046
134	0xbe5bff43	-0.21484093
135	0xbe8abd97	-0.2709777
136	0xbdab28f9	-0.08357424
137	0xbe4f0e57	-0.20220314
138	0x3e3a9d33	0.18224029
139	0xbe15ba2f	-0.14621805
140	0x3d3187b7	0.04334232
141	0xbe73ae59	-0.23796977
142	0xbe39e978	-0.18155468
143	0xbeaa0b5c	-0.33211792
144	0xbc52e597	-0.012872121
145	0x3c9346ec	0.017978154
146	0x3b88fd66	0.004180598
147	0xbe53337f	-0.20625113
148	0xbf020ccd	-0.5080078
149	0x3ce209eb	0.02759262
150	0x3e715f82	0.2357159
151	0x3e0e587f	0.13900946
152	0x3e43843c	0.19093412
153	0xbede38df	-0.43402764
154	0xbe5aeeb0	-0.21380115
155	0xbeade356	-0.33962506
156	0xbd3ea651	-0.04654533
157	0x3ec41461	0.38296798
158	0xbe77924b	-0.241769
159	0xbd227eaa	-0.039671578
160	0xbee7f1fb	-0.45301804
161	0xbea746bb	-0.3267115
162	0x3e531bdf	0.206161
163	0xbf138647	-0.57626766
164	0xbeeff775	-0.46868482
165	0x3f5af566	0.855307
166	0x3ef0c65e	0.47026342
167	0xbeff6e2c	-0.49888742
168	0x3e9b8826	0.3037731
169	0xbf14aa5e	-0.5807246
170	0xbd4ef548	-0.050526887
171	0xbf1e8819	-0.6192642
172	0x3ee52161	0.4475203
173	0xbe86fa5a	-0.26362878
174	0xbef59702	-0.47966772
175	0xbf126012	-0.5717784
176	0x3ea86cab	0.32895407
177	0x3e88a972	0.26691777
178	0xbe431c26	-0.19053707
179	0xbf56e67d	-0.8394545
180	0xbf79b2e5	-0.97538596
181	0xbf2b7c31	-0.66986376
182	0x3f36f24c	0.71463466
183	0x3f1fb52d	0.6238583
184	0xbe89a649	-0.26884678
185	0xbf4d5514	-0.80207944
186	0xbe0e22d7	-0.13880478
187	0xbf5fb367	-0.8738312
188	0x3f4263d6	0.7593359
189	0xbf03ee00	-0.51535034
190	0xbef9bf63	-0.4877883
191	0xbf208526	-0.6270317
192	0xbf2cde07	-0.67526287
193	0xbe09e8a9	-0.13467659
194	0x3e9e40da	0.30908853
195	0xbecd2066	-0.4006378
196	0xbd6f5b73	-0.058436822
197	0x3e46dea1	0.19420864
198	0x3d9aa5aa	0.07551129
199	0xbed98fc8	-0.4249251
200	0xbdfce234	-0.12347832
201	0x3d974ed4	0.07388082
202	0x3da9331f	0.08261704
203	0xbee4873c	-0.44634426
204	0x3e8f0194	0.27930892
205	0xbebbc430	-0.36673117
206	0xbee7270a	-0.45146972
207	0xbefc6366	-0.49294585
208	0x3ee1e75c	0.44121826
209	0xbd7874a8	-0.060658127
210	0xbe939509	-0.28824642
211	0xbece2b0e	-0.40267223
212	0xbedc659a	-0.43046266
213	0xbe4d1772	-0.20028475
214	0xbef6bc3f	-0.48190495
215	0xbe0a2dd3	-0.13494043
216	0xbda29669	-0.07938845
217	0xbebc2829	-0.3674939
218	0xbe09ae90	-0.13445497
219	0xbed2c4da	-0.4116581
220	0x3e43c542	0.19118217
221	0xbd27e987	-0.040994193
222	0xbe38444e	-0.17994806
223	0xbf1e3e64	-0.6181395
224	0xbd1312f4	-0.035906747
225	0xbed48361	-0.41506484
226	0x3deabb0a	0.11461456
227	0xbd178571	-0.036992494
228	0x3d06211b	0.032746416
229	0xbea0c212	-0.31398064
230	0x3d9f9e95	0.07793919
231	0x3d6cdc14	0.05782707
232	0xbde22edd	-0.11044095
233	0xbe7cc7a4	-0.24685532
234	0x3d010550	0.031499207
235	0xbeb1f50c	-0.34757268
236	0xbde8157c	-0.11332223
237	0xbe8832dd	-0.26601306
238	0x3d6f7da2	0.058469422
239	0xbd962cc3	-0.07332756
240	0xbef18ef3	-0.47179374
241	0xbdb94336	-0.090460226
242	0xbd8dd260	-0.069248915
243	0xbefd909b	-0.49524388
244	0xbe34057c	-0.17580217
245	0x3ec5ce31	0.38633874
246	0x3dd571a3	0.10422065
247	0xbe86551e	-0.26236814
248	0xbed297d2	-0.41131455
249	0xbc03cad1	-0.008043961
250	0xbd8ac677	-0.067761354
251	0xbdaa0243	-0.08301213
252	0xbdff4b51	-0.12465537
253	0x3eb99e14	0.36253417
254	0x3dd8ecb7	0.10592025
255	0xbe21c2fd	-0.15797038

bias_ih_l0 f4 [128]
0	0x3d9aefac	0.07565245
1	0x3ef16c58	0.47152972
2	0x3ecb0d24	0.39658463
3	0x3e14d508	0.1453439
4	0x3ec14acd	0.3775238
5	0x3f32555f	0.69661516
6	0x3eb799d4	0.3585955
7	0xbddf8dde	-0.10915731
8	0x3f07f3ad	0.53106195
9	0x3f308783	0.68956774
10	0x3edcfa68	0.43159795
11	0x3ec94fda	0.39318734
12	0x3f23ee6c	0.6403568
13	0x3f82ccda	1.0218766
14	0x3e590b4f	0.2119572
15	0xbcee3eb1	-0.029082628
16	0x3f267193	0.6501705
17	0x3f138162	0.576193
18	0x3f01d7d2	0.5071994
19	0x3eaac9e9	0.3335717
20	0x3f2b2faa	0.66869605
21	0x3efe0b5e	0.49618047
22	0x3ea8dbd1	0.32980207
23	0x3ee0f28e	0.43935055
24	0x3f18ddc9	0.5971342
25	0x3c667792	0.014066594
26	0x3f295e69	0.66159683
27	0x3ebf6145	0.37378898
28	0x3efb8bb5	0.49130026
29	0x3f745b04	0.9545138
30	0x3e8cdb98	0.27511287
31	0x3ef8a11d	0.4856042
32	0xbe5c7061	-0.21527244
33	0xbe66dce7	-0.22545205
34	0xbdb2957f	-0.0871992
35	0x3d92767f	0.071515076
36	0xbe9c038b	-0.30471453
37	0xbe8f9240	-0.28041267
38	0xbe97031f	-0.2949457
39	0xbe522141	-0.20520498
40	0xbe9754e0	-0.29556942
41	0xbe45fc8c	-0.1933462
42	0xbe516972	-0.2045038
43	0x3e8b089a	0.27155
44	0xbe8e4d4d	-0.2779335
45	0xbe36d60b	-0.17855088
46	0x3b2e65a9	0.0026610887
47	0x3e0674db	0.13130514
48	0xbe316335	-0.17323
49	0xbe037468	-0.12837374
50	0xbde8004d	-0.11328182
51	0x3d1cfbab	0.038325947
52	0xbe9a7b5c	-0.3017224
53	0xbe89e1b7	-0.2693002
54	0xbe0559f5	-0.13022597
55	0xbd0a489c	-0.033760652
56	0xbe88f420	-0.26748753
57	0xbd869984	-0.065722495
58	0xbdd7b8ef	-0.1053332
59	0xbe5c5625	-0.21517237
60	0xbe4d2f4f	-0.20037578
61	0xbe89f750	-0.26946497
62	0xbd4c8c2e	-0.049938373
63	0x3d33bb52	0.043879814
64	0xbe6766e8	-0.2259785
65	0xbd8ddebf	-0.06927251
66	0x3dd939cf	0.10606729
67	0x3e0c2dc0	0.13689327
68	0xbe2f3ec0	-0.17113781
69	0xbd0e15ac	-0.034688637
70	0x3de9b57d	0.11411569
71	0x3d636025	0.055511612
72	0x3d78ba44	0.06072451
73	0xbcb50d94	-0.022101201
74	0xbc859c13	-0.016309774
75	0xbeb0d0fd	-0.34534445
76	0x3bc14fa0	0.0058993846
77	0xbe656fa3	-0.22405867
78	0x3c3a774f	0.011380984
79	0xbde59516	-0.112100765
80	0x3ddf64ba	0.10907884
81	0x3e4e2576	0.20131478
82	0x3d90f527	0.07078009
83	0xbe997ae3	-0.29976568
84	0xbced52f3	-0.028970217
85	0xbe1a7660	-0.15084219
86	0xbdc1d481	-0.0946436
87	0x3e335218	0.17511785
88	0xbd882344	-0.066473514
89	0xbda497f8	-0.08036798
90	0x3e4eb176	0.20184883
91	0xbdfadb13	-0.12248816
92	0xbd14ace8	-0.03629771
93	0xbcad7e80	-0.021178484
94	0x3de968c0	0.113969326
95	0xbee15190	-0.4400754
96	0x3edb8b60	0.42879772
97	0x3f092c63	0.53583354
98	0x3ed614ff	0.41812894
99	0x3d12453b	0.035710555
100	0x3e8211db	0.25404248
101	0x3f440965	0.76576835
102	0x3eac2232	0.3361984
103	0x3d6c741f	0.05772793
104	0x3ecc3510	0.39884233
105	0x3ee9152f	0.45523974
106	0x3f279e8b	0.6547629
107	0x3da92bf1	0.08260334
108	0x3f289ea6	0.6586708
109	0x3f79481f	0.97375673
110	0x3ea4cb81	0.3218651
111	0x3c1b7630	0.009488627
112	0x3f3e9578	0.7444682
113	0x3f7d21fb	0.98879975
114	0x3f087ec4	0.5331843
115	0x3e5233d8	0.2052759
116	0x3f117597	0.5682005
117	0x3efdc76c	0.4956621
118	0x3f065b59	0.52483135
119	0x3f384341	0.7197762
120	0x3edce7bc	0.4314555
121	0xbdc345f3	-0.09534826
122	0x3ef64be3	0.48104772
123	0x3f32ab5c	0.69792724
124	0x3ed2f32a	0.41201144
125	0x3f4474fb	0.76741
126	0x3e7f8a26	0.24955043
127	0x3e272c3f	0.16325472

bias_hh_l0 f4 [128]
0	0x3e7afc8c	0.24510401
1	0x3f03dca0	0.5150852
2	0x3ee0f569	0.43937233
3	0x3d8f5de1	0.07000328
4	0x3f040b62	0.5157987
5	0x3f42f5a7	0.76156086
6	0x3eeb9e81	0.46019366
7	0x3d35cf0a	0.0443869
8	0x3ee92256	0.4553401
9	0x3f150667	0.58212894
10	0x3f236ba2	0.6383611
11	0x3e382c24	0.17985588
12	0x3f390518	0.722734
13	0x3f6c2c4c	0.9225509
14	0x3cfa0a3b	0.030522456
15	0x3d1aeb4b	0.03782205
16	0x3f0dc9fc	0.5538633
17	0x3ea02030	0.31274557
18	0x3eccee7c	0.400257
19	0x3ed341c2	0.41261107
20	0x3f2223e6	0.63336027
21	0x3f302aa9	0.68815094
22	0x3f0863ae	0.532771
23	0x3ed9099b	0.4239014
24	0x3ea1cd9e	0.31602186
25	0xbd580286	-0.05273678
26	0x3ec10481	0.3769875
27	0x3efc75ee	0.49308723
28	0x3e94c314	0.29055083
29	0x3f3f54a4	0.74738526
30	0x3e85233e	0.2600345
31	0x3e273bfc	0.16331476
32	0xbe76ed55	-0.24113972
33	0xbdf1745b	-0.11789771
34	0xbde52406	-0.111885116
35	0x3e0d4af1	0.13798119
36	0xbe3b1390	-0.18269181
37	0xbeaab239	-0.33339098
38	0xbe311e76	-0.17296776
39	0xbe6f5874	-0.23373586
40	0xbea44dd3	-0.32090625
41	0xbb53dfed	-0.0032329515
42	0xbe2213d9	-0.15827884
43	0x3d89e7ef	0.06733691
44	0x3c832a33	0.016011333
45	0xbe25fa58	-0.1620878
46	0xbde61969	-0.11235315
47	0x3dd67c13	0.10472884
48	0x3d88376e	0.066511974
49	0xbdd4222a	-0.10358079
50	0xbdd974a8	-0.106179535
51	0x3bf5bd6b	0.007499387
52	0xbe28aaa4	-0.16471344
53	0xbe013e71	-0.12621476
54	0xbdb66002	-0.08905031
55	0x3d10ce8e	0.035353236
56	0xbe4304c1	-0.19044782
57	0x3e013ac1	0.12620069
58	0x3c1893cd	0.009312582
59	0xbe92b867	-0.28656313
60	0xbe9569ac	-0.29182184
61	0xbe8c87d8	-0.2744739
62	0xbd1f78e2	-0.038933642
63	0x3d414581	0.047185425
64	0xbe4bdbb5	-0.1990803
65	0x3d310f3f	0.04322743
66	0x3dbe2a3f	0.092854016
67	0xbe043c00	-0.12913513
68	0x3dfdb75a	0.12388487
69	0x3de25c38	0.110527456
70	0x3d4f8866	0.05066719
71	0x3d06f1b8	0.032945365
72	0x3d872040	0.06597948
73	0x3c282cc5	0.01026458
74	0x3c8b38a6	0.016994786
75	0xbd414129	-0.047181282
76	0x3e1bb2cf	0.15204929
77	0xbcbb1496	-0.022836965
78	0x3bdadade	0.006678923
79	0xbe7cdd3d	-0.2469377
80	0x3a3a920a	0.00071170984
81	0x3e09a149	0.13440432
82	0xbe1d98f7	-0.15390383
83	0xbeac9b46	-0.33712214
84	0xbdb52af2	-0.08846082
85	0x3c830057	0.015991373
86	0x3dc8a2e1	0.09796692
87	0xbdca7810	-0.09886181
88	0xbda57867	-0.080796055
89	0xbe2c9bac	-0.16856259
90	0xbc962e02	-0.018332485
91	0xbdf99aa6	-0.121877
92	0x3e212d16	0.15739855
93	0xbe12e86d	-0.14346476
94	0x3c41fe9a	0.011840487
95	0xbdcdf1d6	-0.10055892
96	0x3e560c02	0.20903018
97	0x3f2d7cc0	0.6776848
98	0x3ed0b0c5	0.40759864
99	0x392d1349	0.0001650575
100	0x3f063f4d	0.5244034
101	0x3f14c477	0.5811228
102	0x3f0dc6b5	0.5538133
103	0x3decc85f	0.11561655
104	0x3f015fc7	0.5053677
105	0x3f252b30	0.64519024
106	0x3f355bbd	0.70843107
107	0x3df1d7d5	0.11808745
108	0x3f2e97d8	0.68200445
109	0x3f588a98	0.8458648
110	0x3e809eb1	0.25121072
111	0x3e2d82bc	0.16944402
112	0x3f3b4e60	0.73166466
113	0x3f5253e3	0.8215925
114	0x3f0b325c	0.5437372
115	0x3eae3874	0.34027445
116	0x3f008b35	0.50212413
117	0x3f3ba767	0.7330231
118	0x3f10054d	0.5625809
119	0x3f1b1cc3	0.6059076
120	0x3ecc4a84	0.399006
121	0x3dbaa20a	0.09112938
122	0x3eb093f2	0.34487873
123	0x3f1c6ab6	0.6110033
124	0x3f0b1e5f	0.5434322
125	0x3f317c1c	0.6933
126	0x3d3800e5	0.044922728
127	0x3e0f3abe	0.13987252

weight_ih_l1 f4 [128, 32]
0	0xbd2592c4	-0.04042317
1	0xbc1fc430	-0.009751365
2	0xbd854e40	-0.06509066
3	0xbdf0e46c	-0.11762318
4	0xbec8eb4e	-0.39242023
5	0x3e0c0eee	0.1367757
6	0xbd07fc78	-0.033199757
7	0x3db0f576	0.08640568
8	0x3b8e9a67	0.0043519023
9	0x3c9b0c70	0.01892683
10	0x3d7af8aa	0.0612723
11	0xbe8f9ab1	-0.28047708
12	0x3e780a79	0.24222745
13	0xbea9c4e6	-0.33158034
14	0xbe3bf86e	-0.18356487
15	0xbce378f9	-0.027767645
16	0x3db24cf2	0.087060824
17	0x3d0b65a8	0.034032494
18	0xbdf5f6ff	-0.120100014
19	0xbefd39fb	-0.49458298
20	0xbedde86a	-0.4334138
21	0x3e8c2a08	0.27375817
22	0x3da7d179	0.081942506
23	0xbe64023c	-0.22266477
24	0xba1640a1	-0.00057316764
25	0xbe698804	-0.22805792
26	0x3daa547c	0.08316895
27	0xbd9c3575	-0.076273836
28	0x3da06723	0.07832172
29	0x3b35e1e8	0.0027753059
30	0xbe752001	-0.2393799
31	0xbed27c1a	-0.41110307
32	0xbe297d02	-0.16551593
33	0x3d81ceb6	0.06338255
34	0xbbb55524	-0.005533831
35	0xbe49e748	-0.19717133
36	0x3da8e0dd	0.08246014
37	0xbe7a54a7	-0.24446355
38	0x3dc040ee	0.09387384
39	0xbdbd3e8e	-0.09240447
40	0xbe03c742	-0.1286898
41	0xbddd257a	-0.10798164
42	0xbdc5b589	-0.09653766
43	0xbdbcd216	-0.09219758
44	0x3d25f3e5	0.0405158
45	0xbe397883	-0.18112378
46	0xbe652f51	-0.22381331
47	0xbe88cbda	-0.26718026
48	0x3e02ed2d	0.12785788
49	0xbeb36f07	-0.35045645
50	0xbda1db76	-0.07903187
51	0x3d6376d7	0.055533256
52	0x3cc06ecb	0.02349033
53	0xbddbaac0	-0.10725927
54	0xbdc5ace5	-0.09652118
55	0xbba9abe3	-0.005177961
56	0xbe6b9891	-0.23007418
57	0x3c1421c6	0.009041255
58	0xbea998cc	-0.33124387
59	0x3ddde02e	0.108337745
60	0xbbf113c7	-0.007357094
61	0x3d39858f	0.045293387
62	0xbe664616	-0.22487673
63	0xbe89582c	-0.26825082
64	0x3ec54302	0.38527685
65	0x3e419145	0.18903072
66	0xbe8ccaa5	-0.27498356
67	0xbddb5a91	-0.107106335
68	0x3e0a8095	0.13525613
69	0x3d3e74bd	0.04649805
70	0xbeb042d8	-0.34425998
71	0x3e0371a4	0.12836319
72	0xbe3aecb0	-0.18254352
73	0x3dc91bf5	0.098197855
74	0x3e000b58	0.12504327
75	0xbe350184	-0.1767636
76	0xbe1d36ab	-0.15352885
77	0x3df787da	0.120864585
78	0x3c91cab8	0.01779686
79	0xbd89a23e	-0.06720398
80	0xbc609d2f	-0.0137093505
81	0xbdb153de	-0.086585745
82	0xbd2104aa	-0.03931109
83	0xbf20c2c5	-0.62797195
84	0x3e4562c4	0.19275957
85	0xbb97b756	-0.0046300096
86	0xbd6aaa03	-0.057291042
87	0x3e12d57f	0.14339255
88	0x3e419ba0	0.18907022
89	0x3dcb951b	0.09940549
90	0xbe809bf8	-0.25118995
91	0x3e6b3683	0.22970013
92	0xbe0689e0	-0.13138533
93	0xbd3497ef	-0.044090208
94	0xbd0ec330	-0.034854114
95	0xbd3ef4d8	-0.04662022
96	0xbe26df1e	-0.1629605
97	0x3b0cf463	0.002150797
98	0x3d965324	0.073400766
99	0x3dd14fee	0.102203235
100	0x3e92bf97	0.28661796
101	0x3cd37481	0.02581239
102	0xbe0ab8ce	-0.1354706
103	0x3d611bb8	0.054958075
104	0xbdc57d32	-0.0964302
105	0x3dfefc63	0.12450483
106	0xbc2d0399	-0.01055994
107	0xbe8c2ca9	-0.27377823
108	0x3cbb771a	0.02288394
109	0xbc84ff5e	-0.01623505
110	0xbdc3c868	-0.09559709
111	0x3e024908	0.12723172
112	0xbd90ac9c	-0.070641726
113	0x3cef61cb	0.029221436
114	0x3dbe6ddf	0.092983
115	0xbef0539b	-0.46938786
116	0x3e1f7041	0.15570165
117	0x3e58e819	0.21182288
118	0xbd3c06a4	-0.04590477
119	0x3e80ce63	0.2515746
120	0xbd189a45	-0.037256498
121	0xbdfd17f8	-0.12358087
122	0xbe23fc85	-0.16014297
123	0xbd4aae96	-0.049482904
124	0xbdce4cb5	-0.100732245
125	0x3d026233	0.03183193
126	0x3dfe85cd	0.12427864
127	0xbef61eb1	-0.4807029
128	0xbd7644bb	-0.06012414
129	0x3e071c1e	0.1319432
130	0xbe9ffeb2	-0.31249005
131	0xbdbaea87	-0.09126764
132	0x3e213a02	0.15744784
133	0x3d841e5d	0.06451104
134	0xbe474326	-0.19459209
135	0x3c8fd379	0.017556893
136	0xbe4e1e9e	-0.20128867
137	0x3e25e73f	0.16201495
138	0x3e863956	0.2621562
139	0xbea6076a	-0.3242753
140	0x3ce734ce	0.028223421
141	0x3d8330d7	0.064058
142	0xbc1de03d	-0.009635982
143	0x3d255e95	0.040373404
144	0x3e30ca90	0.17264771
145	0x3d7cf914	0.061760977
146	0x3e4a025a	0.1972746
147	0xbe9d4041	-0.30713084
148	0x3de308b3	0.110856436
149	0xbd005954	-0.03133519
150	0xbec32def	-0.38120982
151	0xbda0d420	-0.0785296
152	0xbd4033f5	-0.04692455
153	0xbde9986c	-0.11406025
154	0xbe51a8d6	-0.20474562
155	0x3eb043c8	0.34426713
156	0xbd1375fe	-0.036001198
157	0x3dbf2830	0.09333837
158	0xbd0f2394	-0.03494604
159	0xbe5db029	-0.21649231
160	0x3db96388	0.09052187
161	0xbad0488e	-0.0015890764
162	0x3cab169a	0.0208848
163	0xbd9d8c8d	-0.076928236
164	0x3dc8dd35	0.09807817
165	0xbeaf94fc	-0.34293354
166	0xbdbc6e59	-0.09200735
167	0xbe829331	-0.25502923
168	0xbebfac1f	-0.37436005
169	0x3dccf952	0.100084916
170	0x3c89e1e8	0.016831353
171	0xbd30f833	-0.04320545
172	0xbe62d399	-0.2215103
173	0x3eaaa799	0.33330992
174	0xbdce9bac	-0.10088286
175	0xbe86fd5d	-0.26365176
176	0xbecba2fc	-0.39772785
177	0xbeba4bd4	-0.36385977
178	0x3d709c04	0.058742538
179	0xbe9cd051	-0.30627683
180	0x3d9a9674	0.07548228
181	0x3eb7a00a	0.35864288
182	0xbe06804e	-0.13134882
183	0xbe8a088b	-0.26959643
184	0x3e444545	0.19167049
185	0xbea49e93	-0.32152233
186	0xbe58e9e2	-0.21182969
187	0x3e501a06	0.20322427
188	0xbe56e012	-0.20983914
189	0x3ebdcc86	0.37070101
190	0xbe5e8856	-0.21731696
191	0xbe7a6b66	-0.24455032
192	0xbd560f35	-0.052260596
193	0x3e23037e	0.15919301
194	0xbd8060e0	-0.062684774
195	0x3b3e3148	0.0029021073
196	0x3dcfc063	0.10144117
197	0x3dba0a54	0.09084001
198	0x3cdc27df	0.02687448
199	0xbdd06083	-0.10174658
200	0x3e110e53	0.1416562
201	0x3e25c568	0.16188586
202	0x3d36f890	0.04467064
203	0xbe9789c0	-0.29597282
204	0xbda5c664	-0.08094481
205	0x3e50535c	0.20344299
206	0xbd160a2a	-0.036630787
207	0xbe5aaad5	-0.2135423
208	0xbeb78ec0	-0.35851097
209	0xbd84f353	-0.06491723
210	0x3c4dc3dc	0.012558904
211	0xbedfd49c	-0.43716896
212	0x3df95b41	0.121756084
213	0x3e6ae356	0.22938284
214	0xbe0b51c0	-0.13605404
215	0xbea52d9a	-0.32261354
216	0x3e4d22f7	0.2003287
217	0xbe611510	-0.21980691
218	0xbd52de04	-0.05148126
219	0x3e77a17e	0.24182698
220	0xbd9e5564	-0.07731131
221	0x3e4abfe3	0.19799761
222	0x3c023a39	0.007948452
223	0xbeda8057	-0.4267604
224	0x3f0ac5be	0.5420798
225	0x3e19a1c4	0.15003115
226	0x3d769c6e	0.060207777
227	0x3e293b3a	0.165265
228	0x3e0606af	0.13088487
229	0xbe0fc6d0	-0.14040685
230	0x3d73dd25	0.05953707
231	0xbc9398ec	-0.018017255
232	0xbed4feca	-0.4160064
233	0x3e314bcb	0.17314069
234	0xbd563ecc	-0.05230598
235	0x3d916975	0.071001925
236	0xbbf8a106	-0.007587555
237	0xbd944507	-0.072397284
238	0xbe07d201	-0.13263704
239	0x3c95d823	0.018291539
240	0xbd6c95ea	-0.057760157
241	0x3e8ebcb1	0.27878335
242	0x3d12c0a0	0.035828233
243	0xbe26a7e6	-0.16274986
244	0x3e1e5626	0.1546255
245	0x3e952d14	0.29135954
246	0xbb82bbce	-0.003989673
247	0x3e3d4a50	0.18485379
248	0x3e498bbf	0.19682215
249	0x3d17b747	0.03704002
250	0xbe16c885	-0.1472493
251	0x3e61211c	0.21985286
252	0xbe5162ce	-0.20447847
253	0x3eb9953c	0.3624667
254	0x3de2ad8a	0.11068256
255	0xbe20a88a	-0.15689293

weight_hh_l1 f4 [128, 32]
0	0xbcadc0f5	-0.021210173
1	0xbdb3505d	-0.087555625
2	0xbdfab6c8	-0.12241894
3	0x3e9cc3fe	0.3061828
4	0x3e5ec20e	0.21753713
5	0xbe44b671	-0.19210221
6	0xbecf1742	-0.40447432
7	0xbeadf469	-0.33975533
8	0xbd3efa2a	-0.046625294
9	0x3dfc7e2a	0.123287514
10	0x3e09e20f	0.13465141
11	0xbec2dcae	-0.3805899
12	0x3c8ab652	0.01693264
13	0x3c3d9f69	0.011573651
14	0xbdf32a48	-0.11873299
15	0xbde0be10	-0.109737515
16	0x3cb385ab	0.021914324
17	0xbdbe6455	-0.092964806
18	0xbe2c0f7e	-0.16802785
19	0x3c6300d1	0.013855175
20	0xbdc64b04	-0.09682277
21	0x3e3f1471	0.18660142
22	0xbc80058c	-0.015627645
23	0xbd03cf36	-0.032180034
24	0x3e091618	0.13387334
25	0x3e20ead2	0.15714577
26	0xbda7a903	-0.08186533
27	0xbdc78daa	-0.09743817
28	0x3c42c4f0	0.011887774
29	0x3e1e530e	0.1546137
30	0xbde88b4f	-0.11354696
31	0x3e9b851e	0.30374998
32	0x3db381e0	0.08765006
33	0x3b98e8b6	0.004666413
34	0xbe96abfb	-0.29428086
35	0xbe671b79	-0.22569074
36	0xbd792214	-0.060823515
37	0xbcd76243	-0.026291972
38	0x3e832b5a	0.25619012
39	0x3e678f9a	0.22613373
40	0x3e4b170b	0.19833009
41	0x3d817b8c	0.06322393
42	0x3d5d9d65	0.05410518
43	0x3e54228c	0.20716304
44	0x3da80653	0.08204331
45	0xbead335e	-0.33828253
46	0x3e8ecdbc	0.27891338
47	0x3eb95eff	0.3620529
48	0x3d87a36b	0.066229664
49	0x3e726f46	0.2367526
50	0xbc870a94	-0.016484536
51	0xbd121701	-0.03566647
52	0x3e1fff10	0.15624642
53	0x3c087314	0.008328218
54	0x3e2b60e8	0.16736186
55	0xbe722d77	-0.23650156
56	0xbe46c265	-0.19410093
57	0xbd8ef68b	-0.06980618
58	0x3c88fc92	0.016721997
59	0xbe473a73	-0.1945589
60	0x3edadb84	0.42745602
61	0xbc63a93e	-0.013895331
62	0x3e68ec26	0.22746333
63	0x3e56c6b2	0.20974234
64	0x3bf471e9	0.007459868
65	0x3d431049	0.047622953
66	0xbe023153	-0.12714128
67	0x3e17d785	0.14828308
68	0xbde02749	-0.10944993
69	0xbe8e94b7	-0.27847835
70	0xbe88852e	-0.26664108
71	0x3e8c0dd6	0.27354306
72	0x3dc21348	0.09476334
73	0x3e975340	0.29555702
74	0x3db37f10	0.087644696
75	0xbd928307	-0.07153898
76	0x3db000cf	0.08593904
77	0x3e907114	0.28211272
78	0x3c1c975e	0.009557573
79	0x3c7e9d8f	0.015540495
80	0xbd227d33	-0.03967018
81	0x3c75d665	0.015004729
82	0xbe2a0d99	-0.1660675
83	0xbdbb61a2	-0.09149481
84	0xbe93787f	-0.2880287
85	0xbe2e3250	-0.1701138
86	0xbc143db1	-0.0090479115
87	0xbe0942cb	-0.13404386
88	0x3e19dc7b	0.15025513
89	0xbe10ecf5	-0.14152892
90	0xbd4b84e2	-0.049687274
91	0xbdcd6529	-0.100290604
92	0x3e9d90b6	0.30774468
93	0xbda45f0e	-0.08025943
94	0x3e9abf96	0.30224293
95	0xbd72826c	-0.05920641
96	0x3d1501ae	0.036378555
97	0xbde2c6c4	-0.11073068
98	0xbe1b16a4	-0.15145355
99	0xbd61af34	-0.055098727
100	0x3d7cc319	0.061709497
101	0xbe7a29cb	-0.24430005
102	0xbd9d8d9c	-0.076930255
103	0x3e9e7a46	0.30952662
104	0x3e289e7f	0.16466711
105	0xbe074871	-0.13211228
106	0xbcb3507d	-0.021888966
107	0x3ded88ab	0.11598333
108	0xbe863708	-0.2621386
109	0x3d867dc2	0.06566955
110	0xbde8aff8	-0.113616884
111	0x3d2b5453	0.041828465
112	0x3d97a159	0.074038215
113	0x3e608a71	0.21927811
114	0xbd8d4141	-0.06897212
115	0xbc3a87e5	-0.011384939
116	0xbec77852	-0.38958985
117	0x3e7e04f8	0.24806583
118	0x3d8eb92c	0.069689125
119	0xbe039e79	-0.12853421
120	0xbd3f56fc	-0.046713814
121	0xbe356cb4	-0.17717248
122	0x3e8f7a9a	0.28023225
123	0x3ce50373	0.027955746
124	0x3eb23b60	0.34810925
125	0xbd46dbc4	-0.04854943
126	0x3de84501	0.113412865
127	0x3e90f149	0.28309086
128	0xbe5c71ef	-0.21527837
129	0x3ea2527d	0.3170356
130	0xbe309ce8	-0.17247355
131	0x3e815e97	0.2526748
132	0xbd8b096c	-0.067889065
133	0xbe906569	-0.2820237
134	0x3e472c12	0.19450405
135	0x3eebaeba	0.46031743
136	0xbe9b6e82	-0.30357748
137	0xbe5f11ba	-0.21784106
138	0x3e6f829f	0.23389672
139	0x3eb47132	0.3524261
140	0x3dab45ef	0.08362948
141	0x3d8ab9b3	0.067737006
142	0x3d44566e	0.04793399
143	0xbe20b1d0	-0.1569283
144	0x3e9b619c	0.30347908
145	0x3e3f17f9	0.18661489
146	0xbc7af891	-0.015318052
147	0xbe0b43a6	-0.13600025
148	0xbdb22041	-0.08697558
149	0xbf07bd0d	-0.53022844
150	0x3e52be4b	0.20580404
151	0xbe6eddf4	-0.23326856
152	0x3e948887	0.29010412
153	0xbef1aa08	-0.47200036
154	0x3ecaaa8c	0.39583242
155	0xbd834414	-0.06409469
156	0xbea6138b	-0.32436785
157	0x3e140076	0.14453301
158	0x3d18bafe	0.037287705
159	0x3e014cb1	0.12626912
160	0xbec971a3	-0.3934451
161	0x3cc7d7d5	0.024394909
162	0x3df086e3	0.117444776
163	0xbe06955e	-0.13142917
164	0x3dd0365b	0.101666175
165	0xbcfb0827	-0.030643536
166	0xbc82f963	-0.015988057
167	0xbbfdb0d6	-0.0077420278
168	0xbdec8f18	-0.115507305
169	0xbef0738b	-0.46963152
170	0x3e122458	0.14271677
171	0x3e79412f	0.24341272
172	0xbec264ef	-0.3796763
173	0x3e022234	0.1270836
174	0x3d5862f0	0.05282873
175	0xbc424561	-0.0118573615
176	0x3d0aae9d	0.03385793
177	0x3e4122b0	0.18860888
178	0xbed87316	-0.42275304
179	0xbe9d004b	-0.30664286
180	0x3cd20f69	0.025642114
181	0xbcee82f5	-0.02911518
182	0xbd8cc9ea	-0.068744496
183	0xbeb74bdd	-0.35800067
184	0x3db329e8	0.08748227
185	0x3e12185a	0.14267102
186	0x3d1c3404	0.038135543
187	0xbd7a5383	-0.0611148
188	0x3e4473ed	0.19184847
189	0x3de7de36	0.1132168
190	0x3e2b37c8	0.16720498
191	0xbe0306e8	-0.12795603
192	0xbe896f6e	-0.26842827
193	0xbe552e85	-0.20818527
194	0x3e950c22	0.2911082
195	0x3e75759e	0.23970649
196	0x3e201255	0.15631993
197	0xbb5f7863	-0.0034098856
198	0x3e475def	0.19469427
199	0xbe4be7ea	-0.19912687
200	0xbe3caf4c	-0.18426245
201	0xbe2a7bda	-0.16648808
202	0x3e3725a9	0.1788546
203	0x3e163802	0.14669803
204	0xbe888ce5	-0.26669994
205	0xbcb8348e	-0.022485998
206	0x3e32bf95	0.17455895
207	0xbdc2248f	-0.09479629
208	0x3de723ee	0.1128615
209	0xbe2a6059	-0.16638316
210	0x3dcd006a	0.100098446
211	0xbdef61b2	-0.11688556
212	0xbf15485f	-0.58313555
213	0xbe813332	-0.2523437
214	0xbe7998c1	-0.24374677
215	0xbcf7255c	-0.030169182
216	0x3cfe951b	0.031076958
217	0xbe85eca7	-0.26157114
218	0x3d5f52e0	0.054522395
219	0x3e16695e	0.14688632
220	0xbe8cb3c9	-0.27480915
221	0x3d61efc6	0.055160306
222	0x3d68d0e0	0.056839824
223	0xbe5a9417	-0.21345554
224	0xbe80e094	-0.2517134
225	0x3c4e85c3	0.0126051335
226	0xbed9999e	-0.42500013
227	0xbbeac561	-0.0071646427
228	0xbe9fe82f	-0.3123183
229	0xbc176315	-0.009239932
230	0x3e7a6df0	0.24456
231	0x3e01fbd7	0.12693726
232	0x3e9f7e3c	0.31150997
233	0xbd0da14a	-0.034577645
234	0x3c228c5d	0.0099211605
235	0x3ea083df	0.3135061
236	0x3e08a8b4	0.13345605
237	0xbcfbfa53	-0.030759012
238	0x3d3bde34	0.045866206
239	0x3eaeab4e	0.3411507
240	0x3cbed709	0.023295896
241	0x3e7bd0a4	0.24591309
242	0x3ccbee34	0.024893858
243	0x3db9cba5	0.09072045
244	0xbdf7075e	-0.12061952
245	0xbe4c008b	-0.19922082
246	0x3d8c6f61	0.06857181
247	0xbd85ed72	-0.0653943
248	0x3d4830a0	0.048874497
249	0xbe1c7f8f	-0.15283035
250	0x3e9cffef	0.30664012
251	0xbe252fbf	-0.16131495
252	0x3dc3f4a6	0.09568147
253	0xbe70046c	-0.23439187
254	0x3dfbe399	0.1229927
255	0x3cf07cf9	0.029356467

bias_ih_l1 f4 [128]
0	0x3e0de32a	0.13856187
1	0x3e9cc734	0.3062073
2	0x3ef6ddd4	0.48216116
3	0x3e6671a6	0.22504291
4	0x3ed0f356	0.4081065
5	0x3eb370ae	0.35046905
6	0x3ef19f3f	0.47191808
7	0x3eb76c3a	0.35824758
8	0x3e92fe2d	0.28709546
9	0x3e4b3ba6	0.19846973
10	0x3eb543d6	0.35403317
11	0x3dc24c25	0.0948718
12	0x3e743907	0.23849879
13	0x3eb00007	0.3437502
14	0x3efd7568	0.49503636
15	0x3e96a4d9	0.29422644
16	0x3ec60532	0.3867584
17	0x3eb499fa	0.35273725
18	0x3ec1c966	0.37848967
19	0x3eeafb14	0.45894682
20	0x3d987c99	0.0744564
21	0x3ed009c9	0.40632465
22	0x3ec77458	0.3895595
23	0x3eb3c226	0.3510906
24	0x3ef46c69	0.4773896
25	0x3ecd5ed6	0.40111417
26	0x3ee06bfa	0.4383238
27	0x3e49eee4	0.19720036
28	0x3e844899	0.25836638
29	0x3e48276a	0.19546285
30	0x3d0ca19a	0.034333803
31	0x3dd10dee	0.10207735
32	0xbdd03ce4	-0.10167864
33	0xbe04e9b0	-0.1297977
34	0xbe839dbc	-0.2570628
35	0xbe4c188d	-0.1993124
36	0xbd2a8d86	-0.041638874
37	0x3d1d1159	0.038346622
38	0xbe7f9fb9	-0.24963273
39	0xbd8e6ee0	-0.069547415
40	0xbcbefce7	-0.023313953
41	0xbd81e4b3	-0.06342449
42	0xbe224851	-0.15847899
43	0xbdc109da	-0.09425707
44	0xbd858f42	-0.06521465
45	0xbde078f2	-0.109605685
46	0xbe0c2f28	-0.13689864
47	0xbe0f7e45	-0.14013012
48	0xbe39779f	-0.18112038
49	0xbe3ba93f	-0.18326281
50	0xbd8f2431	-0.06989325
51	0xbd1bd74c	-0.03804712
52	0x3cf5880c	0.029972099
53	0xbea4930d	-0.3214344
54	0xbe6018e3	-0.21884494
55	0xbe1a850e	-0.15089819
56	0xbdb64dcc	-0.08901557
57	0xbe034968	-0.12820971
58	0xbd113565	-0.03545131
59	0xbdbf3162	-0.09335591
60	0xbe9e8079	-0.30957392
61	0x3d3a85d9	0.045537803
62	0xbdd54472	-0.104134455
63	0xbe0b9f3a	-0.13634959
64	0xbcf0a58b	-0.029375812
65	0xbb9990d6	-0.0046864552
66	0x3db3a9dd	0.08772633
67	0x3da095af	0.0784105
68	0x3d7ae691	0.06125504
69	0x3d438e6d	0.04774325
70	0x3c8d2491	0.01722935
71	0xbd2dc331	-0.042422477
72	0x3d399190	0.045304835
73	0x3d97ea40	0.074177265
74	0x3ce22a5a	0.027608085
75	0xbb8ddc87	-0.0043292674
76	0x3dbe3004	0.09286502
77	0xbd012b56	-0.03153547
78	0x3d799195	0.060929853
79	0xbe140684	-0.1445561
80	0xbb44f999	-0.0030055998
81	0x3dbb405c	0.09143135
82	0xbc3e4c5d	-0.011614886
83	0xbce12560	-0.027483642
84	0x3b9929df	0.004674181
85	0x3c9e2a19	0.019307183
86	0xbe0187d9	-0.12649478
87	0xbe037fdb	-0.12841742
88	0x3d4e7f54	0.0504144
89	0xbd1ac5df	-0.03778636
90	0x3c03b031	0.008037613
91	0x3d12a7d2	0.035804577
92	0xbe20975d	-0.1568274
93	0x3c82c282	0.01596189
94	0xbce57a99	-0.02801256
95	0x3ccb7b9e	0.024839219
96	0x3ee2cd41	0.4429722
97	0x3ea64cc0	0.3248043
98	0x3e43ba12	0.19113949
99	0x3e64d53a	0.22346964
100	0x3e93437f	0.28762433
101	0x3ec9643e	0.3933429
102	0x3edcc6e2	0.43120486
103	0x3e689149	0.22711672
104	0x3e97d18d	0.29652062
105	0x3eefa2d2	0.4680391
106	0x3ecc0753	0.39849338
107	0x3f07c20f	0.53030485
108	0x3eaf070a	0.34185058
109	0x3f234f5e	0.6379298
110	0x3f30b804	0.69030786
111	0x3eab8100	0.33496857
112	0x3f09478e	0.5362481
113	0x3e6c9159	0.2310232
114	0x3ed3a472	0.413364
115	0x3ed4ccf8	0.4156263
116	0x3e9f9033	0.31164703
117	0x3dd6bde5	0.10485438
118	0x3ecfa04d	0.40551987
119	0x3ecf9f67	0.40551302
120	0x3f132388	0.5747609
121	0x3e92e47f	0.28689954
122	0x3e9074e0	0.2821417
123	0x3eb98ea6	0.36241645
124	0x3e7d60a3	0.24743895
125	0x3ee4de02	0.4470063
126	0x3e640304	0.22266775
127	0x3ea9f357	0.33193466

bias_hh_l1 f4 [128]
0	0x3e7d4a77	0.24735437
1	0x3e8966d0	0.26836252
2	0x3ec43b2d	0.38326398
3	0x3de601ea	0.11230834
4	0x3eb37a2d	0.3505415
5	0x3eea9f62	0.45824724
6	0x3ed994f4	0.42496455
7	0x3e1185ac	0.14211148
8	0x3e03f1ea	0.12885252
9	0x3ee2f0a5	0.44324222
10	0x3e227a9c	0.15867084
11	0x3ec14d49	0.37754276
12	0x3e4d2c7a	0.20036498
13	0x3f0a8966	0.54115903
14	0x3f1281f0	0.5722952
15	0x3e98352a	0.2972806
16	0x3eb25b33	0.34835204
17	0x3e39a111	0.18127848
18	0x3f0675bd	0.52523404
19	0x3e3d9045	0.18512066
20	0x3e340cb0	0.17582965
21	0x3e981e50	0.29710627
22	0x3ec01efa	0.37523633
23	0x3edbedce	0.42954868
24	0x3ec8955f	0.3917646
25	0x3ebf0abb	0.37312874
26	0x3efd7b0d	0.49507943
27	0x3eafc340	0.3432865
28	0x3e3f1392	0.18659809
29	0x3ee1c090	0.44092226
30	0x3e935690	0.2877698
31	0x3d8d8d57	0.06911724
32	0xbe82105f	-0.25403115
33	0xbe076a26	-0.13224086
34	0xbe900076	-0.28125352
35	0xbe0f30e2	-0.13983491
36	0xbd856e94	-0.06515232
37	0xbdab119b	-0.08352967
38	0xbe0e8b8c	-0.1392042
39	0xbd647394	-0.055774286
40	0xbe6e9236	-0.23297963
41	0xbe966815	-0.29376283
42	0xbeb7698b	-0.3582271
43	0xbd13a44c	-0.036045358
44	0xbe4123e8	-0.18861353
45	0xbe5a23de	-0.21302745
46	0xbe81de89	-0.25365093
47	0xbd15112e	-0.036393337
48	0xbd1f2db1	-0.038861934
49	0xbd1800cb	-0.03711013
50	0x3c6bfcd0	0.014403537
51	0xbdcb043e	-0.099129185
52	0xbe8c9e48	-0.2746451
53	0xbe51f297	-0.20502697
54	0xbdcecb96	-0.10097425
55	0xbe9314f8	-0.28726935
56	0xbe57c05b	-0.21069472
57	0xbe8a5581	-0.2701836
58	0xbe523bb8	-0.20530593
59	0xbdbaf8f3	-0.091295145
60	0xbe973c5e	-0.29538244
61	0xbe5d7cf8	-0.21629703
62	0xbe6f2a10	-0.2335589
63	0xbd4c833a	-0.049929835
64	0x3d1a47c5	0.0376661
65	0x3c90a471	0.017656537
66	0xbe021309	-0.12702574
67	0xbda521ab	-0.08063062
68	0xbd9a05ed	-0.075206615
69	0xbd0936a5	-0.03349938
70	0x3b853964	0.0040656794
71	0x3d337118	0.043809026
72	0xbcf00344	-0.029298432
73	0xbd91893b	-0.07106253
74	0xbbb9ddc2	-0.0056721875
75	0x3c1a7d98	0.009429358
76	0xbd4d17be	-0.05007147
77	0x3c09d5f2	0.008412825
78	0xbceb0f44	-0.028693803
79	0x3e18775c	0.14889282
80	0x3c6b835d	0.014374581
81	0xbd34cdce	-0.044141583
82	0x3cae6ce7	0.021292163
83	0x3c8a8e9b	0.016913703
84	0xbd094075	-0.033508737
85	0xbc8a7f5f	-0.016906438
86	0x3dfcea0a	0.12349327
87	0x3e12647d	0.14296146
88	0xbcfc2694	-0.030780114
89	0x3b4eb1c8	0.0031539071
90	0xbc84bd5a	-0.016203571
91	0xbd0884ab	-0.033329647
92	0x3e27547f	0.16340826
93	0xbcca53df	-0.024698196
94	0x3d92aee1	0.07162262
95	0x3d04596b	0.032311838
96	0x3eaac553	0.3335367
97	0x3e5bbb66	0.21458206
98	0x3eabce26	0.33555716
99	0x3e9a612d	0.30152264
100	0x3ea057a1	0.31316856
101	0x3e8e3be6	0.27780074
102	0x3e775e9e	0.24157187
103	0x3e6bb487	0.23018084
104	0x3e668b8b	0.22514169
105	0x3e6f6959	0.2338003
106	0x3e198428	0.1499182
107	0x3ea80c13	0.32821712
108	0x3eb99131	0.36243585
109	0x3f0fdc50	0.56195545
110	0x3f14a6aa	0.5806681
111	0x3e491979	0.19638623
112	0x3ee1993d	0.44062224
113	0x3e12cc50	0.14335752
114	0x3ef20290	0.4726758
115	0x3e9ad494	0.3024031
116	0x3e573030	0.21014476
117	0x3ea29044	0.3175069
118	0x3ecd98c4	0.40155613
119	0x3e7581fc	0.23975366
120	0x3ede7ed5	0.4345614
121	0x3e95337f	0.2914085
122	0x3ec15dfc	0.37767017
123	0x3e2e7218	0.17035711
124	0x3ee18732	0.44048458
125	0x3ebbcf81	0.3668175
126	0x3e91f1d2	0.28504807
127	0x3ec1bc94	0.37839186

weight_ih_l2 f4 [128, 32]
0	0xbe85baea	-0.26119167
1	0x3e5254c6	0.20540151
2	0xbc37a6fa	-0.011209244
3	0xbeb14b2f	-0.34627673
4	0xbe7ce13c	-0.24695295
5	0xbd8b0434	-0.06787911
6	0x3db04352	0.0860659
7	0x3e2dff87	0.16992007
8	0xbd9b6631	-0.07587851
9	0xbe282581	-0.16420557
10	0x3e99eb0c	0.3006214
11	0x3dc78489	0.09742076
12	0x3d492753	0.049109768
13	0xbe1a41fd	-0.15064235
14	0x3dc8ebe0	0.098106146
15	0xbc24e6bc	-0.010064777
16	0x3e02847c	0.12745851
17	0x39841443	0.00025192098
18	0x3e0a4265	0.1350189
19	0xbd1f2b1c	-0.03885947
20	0x3e8f9840	0.28045845
21	0xbea2f70f	-0.31829116
22	0xbda06dec	-0.07833466
23	0xbdab25d6	-0.08356826
24	0x3dcc90b0	0.099885345
25	0x3d0779bb	0.033075076
26	0x3e13210c	0.14368075
27	0xbe716d06	-0.23576745
28	0x3ca44c80	0.02005601
29	0xbc4e6000	-0.01259613
30	0x3c4efc43	0.012633386
31	0x3d5dc5bf	0.054143663
32	0x3c2e8c67	0.010653592
33	0x3c335814	0.010946292
34	0x3e4f3b59	0.20237483
35	0x3e12f786	0.14352235
36	0x3dfdfcf4	0.124017626
37	0x3dd17b7a	0.102286294
38	0xbdc9e753	-0.09858575
39	0xbe8d8a06	-0.27644366
40	0xbdfa1f3a	-0.12212987
41	0xbd86d4d8	-0.065835655
42	0x3e5a1814	0.21298248
43	0x3d896b1a	0.06709881
44	0xbe92baa1	-0.28658012
45	0xbe1c656d	-0.15273066
46	0x3ddd6442	0.10810138
47	0xbe423221	-0.18964435
48	0xbba87ec5	-0.005142065
49	0xbe991792	-0.29900795
50	0xbdcdf2d5	-0.10056082
51	0xbdcc55fb	-0.09977337
52	0x3ea4a822	0.32159525
53	0xbe386dbe	-0.18010613
54	0xbdd35971	-0.10319794
55	0x3e549787	0.20760928
56	0xbe7a8e2c	-0.24468297
57	0x3d004fa4	0.03132595
58	0xbd3dd30b	-0.046343844
59	0xbd4b683d	-0.049659956
60	0xbe02657b	-0.12734024
61	0x3e213421	0.15742542
62	0xbc8ad563	-0.016947454
63	0xbd0522ed	-0.03250401
64	0xbc87ba4e	-0.01656833
65	0x3dcf1faf	0.10113465
66	0xbd17370e	-0.03691774
67	0x3e72d0a7	0.23712407
68	0x3e2b9dc6	0.16759405
69	0xbd9029c0	-0.07039213
70	0x3beef475	0.007292325
71	0xbdde063a	-0.108410314
72	0xbeb285fa	-0.3486784
73	0xbdb1de1b	-0.086849414
74	0x3d55d1b3	0.052201938
75	0xbe08f367	-0.133741
76	0x3da82e82	0.08211996
77	0x3dee26ca	0.11628492
78	0xbeb1ec33	-0.34750518
79	0xbd7d3ec5	-0.06182744
80	0x3d214e42	0.039381273
81	0xbe5809d6	-0.21097502
82	0xbe03437a	-0.12818709
83	0xbd0c2bc1	-0.034221414
84	0x3dc145b5	0.09437124
85	0xbe164fa3	-0.14678816
86	0x3dac7acf	0.084218614
87	0xbdea2136	-0.11432116
88	0x3dce4611	0.10071958
89	0x3e7ae773	0.24502353
90	0xbc2a40f7	-0.010391465
91	0xbe5d1242	-0.21588996
92	0xbe0cebdd	-0.1376185
93	0x3cab6739	0.020923244
94	0xbe1597e3	-0.14608721
95	0xbe9b6bb4	-0.30355608
96	0x3dfbb9b9	0.12291283
97	0x3e41871e	0.188992
98	0xbdf25cb3	-0.11834087
99	0xbe43547b	-0.19075195
100	0xbe01ddc5	-0.12682255
101	0x3dd11996	0.10209958
102	0x3e224f2a	0.15850511
103	0x3e6c416c	0.23071831
104	0xbd841f3b	-0.06451269
105	0xbd532045	-0.051544446
106	0xbf02c112	-0.5107585
107	0x3e9b691c	0.3035363
108	0x3cc6ddaa	0.02427562
109	0x3d9717b1	0.07377566
110	0x3ea0a40a	0.31375152
111	0x3e901115	0.28138033
112	0x3eaaf4da	0.33389932
113	0x3e839b14	0.25704253
114	0xbe37d017	-0.17950474
115	0x3dd29981	0.10283185
116	0x3e9f8b39	0.31160906
117	0x3ed34349	0.41262272
118	0x3da5db59	0.08098478
119	0x3e897525	0.26847187
120	0x3e92d097	0.28674766
121	0xbd477d54	-0.048703507
122	0x3e427145	0.18988521
123	0x3e9c9da8	0.30589032
124	0xbe0936bc	-0.13399786
125	0xbe3abf50	-0.18237042
126	0x3d94d456	0.07267062
127	0x3e8380f6	0.25684327
128	0x3d0b695c	0.034036025
129	0x3d10deb1	0.035368625
130	0xbdfb4ea3	-0.12270858
131	0xbe073d2f	-0.13206933
132	0x3dfa89dd	0.122333266
133	0x3e509ee4	0.20373112
134	0xbc0adea1	-0.00847593
135	0xbe21835e	-0.15772769
136	0x3e794c13	0.24345426
137	0xbda84794	-0.082167774
138	0xbd8b5c70	-0.068047404
139	0x3d99a17b	0.07501503
140	0xbc09483c	-0.008379038
141	0x3ea9d35b	0.33169064
142	0x3b73a7b3	0.0037178814
143	0xbda69637	-0.0813412
144	0xbe44334d	-0.19160195
145	0xba10f092	-0.0005529012
146	0xbd010089	-0.03149465
147	0xbe2782bb	-0.16358463
148	0x3e8b3ade	0.2719335
149	0x3e19aa54	0.15006381
150	0xbee587a6	-0.44830054
151	0x3e8097bd	0.25115767
152	0x3e7b8821	0.24563648
153	0xbdbd45b7	-0.09241813
154	0x3da77b0f	0.081777684
155	0x3dc8fe70	0.09814155
156	0xbc827d62	-0.015928928
157	0x3dfeb234	0.12436333
158	0xbd741667	-0.059591677
159	0x3e6b325a	0.22968426
160	0xbcd633b1	-0.026147695
161	0x3e074c26	0.13212642
162	0xbdb9540f	-0.09049236
163	0xbdcba71c	-0.09943983
164	0x3d0b4cfa	0.034008957
165	0xbdf65658	-0.120281875
166	0xbc55dc3e	-0.013052998
167	0xbea383be	-0.3193645
168	0x3d1d24eb	0.038365286
169	0xbd84123e	-0.06448792
170	0x3d38fc49	0.045162473
171	0xbd6b9acf	-0.057520684
172	0x3e754626	0.23952541
173	0x3df4d2d0	0.11954272
174	0xbd73b047	-0.059494283
175	0xbce36ccf	-0.027761845
176	0xbe505fb2	-0.20349005
177	0xbcc80b29	-0.024419384
178	0xbca61de3	-0.020277923
179	0x3e2ddc85	0.16978653
180	0x3ec8febe	0.39256853
181	0xbd3f3024	-0.04667677
182	0xbdf7a3a8	-0.12091762
183	0x3c444ceb	0.011981229
184	0xbdf52df6	-0.11971657
185	0x3dd8bdad	0.10583053
186	0xbcfe56ed	-0.031047309
187	0xbe998642	-0.29985243
188	0xbdac32eb	-0.08408149
189	0x3eb54bbe	0.3540935
190	0xbe820007	-0.25390646
191	0xbd4a8dae	-0.049451523
192	0xbe2a0b74	-0.16605932
193	0xbe40ea23	-0.18839316
194	0x3e496264	0.1966644
195	0xbe4b3b32	-0.198468
196	0xbdbeb4a6	-0.093118
197	0x3e77dcd9	0.2420534
198	0x3ee82204	0.45338452
199	0x3e048eca	0.12945095
200	0x3e423664	0.18966061
201	0x3b57fb31	0.0032956118
202	0xbdc00062	-0.09375073
203	0x3e819384	0.25307858
204	0xbe511851	-0.20419432
205	0xbdbaa649	-0.091137476
206	0x3bf5c1e3	0.0074999197
207	0x3cc37e2e	0.023863878
208	0x3e1f577e	0.1556072
209	0xbdaf74f6	-0.085672304
210	0xbb7ead98	-0.0038860794
211	0xbe22adfb	-0.15886681
212	0xbdf56f84	-0.119841605
213	0xbb8ba2ea	-0.004261364
214	0xbdeeeb27	-0.116659455
215	0xbbb62daf	-0.005559645
216	0xbd12f8b4	-0.035881713
217	0x3d33e83e	0.043922655
218	0x3bc76fa4	0.0060863066
219	0x3e9ad9d3	0.30244312
220	0x3e130a61	0.14359428
221	0xbd23a920	-0.039956212
222	0x3e0a27a8	0.1349169
223	0x3e21971d	0.15780301
224	0x3cce26a6	0.025164913
225	0xbeac650a	-0.33670837
226	0xbe6346ae	-0.22194931
227	0xbddd0b25	-0.10793141
228	0xbdb96cf9	-0.09053988
229	0x3e045745	0.12923916
230	0x3e12d51a	0.14339104
231	0xbca88370	-0.020570487
232	0x3e1da539	0.15395059
233	0x3e4c83cf	0.19972156
234	0xbbc82560	-0.006107971
235	0x3e09b103	0.13446431
236	0x3a67aa73	0.00088373496
237	0xbf5a8352	-0.8535663
238	0x3ea6f12a	0.3260587
239	0x3e75ebcd	0.24015732
240	0x3e86504c	0.26233137
241	0x3e3b6889	0.18301596
242	0x39876e2d	0.00025831294
243	0x3ede0737	0.4336488
244	0xbe65d85a	-0.22445813
245	0x3e314f0d	0.17315312
246	0x3e83e8eb	0.2576364
247	0x3d5f9cf9	0.05459306
248	0xbcc33c03	-0.023832327
249	0xbd9b3b0b	-0.07579621
250	0x3d26ed19	0.040753458
251	0x3efa07e9	0.4883416
252	0xbcedf8a8	-0.029049233
253	0xbda7004b	-0.08154353
254	0x3e364654	0.17800266
255	0x3dc7731f	0.097387545
