histories_cls/04.24-17.54.06_70.45%_pt_EEGNet_BcicIv2a_bs=16_lr=0.03_ld=0.99993_os/best_valid_loss.pt (torch, 19098 bytes, 17 tensors)

weight f4 [8, 1, 1, 32]
-11.151281 -8.213691 -5.179863 -3.0689678 -3.300194 -4.9866853 -6.540897 -6.490093
-5.8788 -4.9065065 -4.198521 -3.8498523 -4.152952 -4.2255683 -3.8966708 -3.4449043
-3.6788886 -3.5663025 -4.0780287 -3.800236 -2.6594396 -1.6429112 -1.8108306 -2.140431
-2.7357879 -3.0292246 -2.7230334 -2.1181715 -1.2385926 -1.5497515 -3.4841983 -6.308515
1.8181909 2.1244915 2.5037315 2.9348097 3.5137892 4.269502 4.3598175 3.9317856
3.0456548 2.4937763 2.8580096 3.4361637 4.281733 4.642423 4.672157 4.2716956
3.6721573 3.208999 2.562647 2.040986 2.0232692 2.589265 3.5686235 4.1094985
4.24632 3.3839464 2.4829323 1.6250602 1.2934345 1.3449233 1.5269874 2.212126
-8.856683 -5.977065 -2.6519659 0.10084527 1.8915251 2.6950495 2.4181411 1.9968134
0.85284984 -1.6132913 -4.702026 -6.4424896 -4.832715 -1.3061975 1.6385655 2.3531475
2.2102582 2.9258983 2.1457152 -0.14890437 -2.2985222 -3.9550893 -4.0463324 -2.811463
-0.99433434 -0.08385924 0.64482516 1.36521 1.9302281 1.0618469 -2.4203413 -7.831279
8.656596 4.7449923 3.0877144 3.025455 3.7143838 4.2985744 3.9864798 3.6983154
3.81039 4.6131945 4.2588344 2.9574885 1.9201953 1.7615185 1.6065246 1.9133267
2.2673512 2.378294 2.3346786 2.7198153 3.8477442 4.233042 3.7257645 3.3118503
3.3173537 3.3640182 3.181928 3.0158665 2.6035044 3.0664027 4.1062446 5.5269465
7.447433 5.6321893 5.0408993 4.3858294 3.6504672 4.111789 4.359277 4.0818634
4.129522 4.632801 4.84894 4.8505025 4.8655534 4.895294 4.6597466 4.041181
3.8556414 2.7855487 2.702941 2.4619439 2.4357095 2.4943419 2.4321883 2.4181256
2.3940213 2.0939252 1.3340524 0.34782606 0.56420964 1.1249326 2.6851096 4.4890313
-3.7111187 -7.438958 -5.3245835 -0.91765696 2.1251128 3.547313 5.1213923 6.29426
5.692916 3.292621 -0.32502362 -4.4652333 -6.9503784 -6.5981913 -3.5270011 -0.5250356
0.82082075 2.5453303 4.033648 4.426129 3.904441 2.102588 -0.3495586 -3.0273368
-4.189234 -4.2913885 -3.4901175 -1.9053682 -0.30688006 1.7550642 3.3369238 4.203632
8.813658 0.499553 -3.8208427 -6.43615 -7.102635 -3.318869 2.0799718 5.906888
6.05856 3.568343 -0.15523973 -2.751654 -3.0403228 -1.943828 -1.5742009 -0.56985617
-0.38149977 -0.5837595 0.101142555 1.5388708 3.1137102 2.7229042 0.7782469 -1.4289918
-3.7895334 -4.448021 -2.0963378 1.277761 3.9406564 4.538934 2.5864453 -5.8441367
-10.088858 -3.6658661 0.31390336 -0.07645407 -3.4022238 -4.791394 -3.4449 -1.8949116
-2.4843984 -4.0968137 -4.748919 -3.239457 -0.3723351 0.28637254 -0.69168335 -1.4270239
-1.0513273 -0.010499179 -0.7686209 -3.2744546 -4.7488847 -3.500697 -0.4299977 0.6172401
-0.4291939 -3.0294962 -4.584758 -3.0818033 -0.76420116 -2.947656 -8.266426 -12.094497
00000000: a66b 32c1 476b 03c1 70c1 a5c0 f869 44c0
00000010: 6136 53c0 ed92 9fc0 074f d1c0 d8ae cfc0
00000020: 211f bcc0 1a02 9dc0 495a 86c0 fb63 76c0
00000030: fce4 84c0 db37 87c0 0e63 79c0 5079 5cc0
00000040: e972 6bc0 4d3e 64c0 367f 82c0 1137 73c0
00000050: 4234 2ac0 ea4a d2bf 4cc9 e7bf d2fc 08c0
00000060: 2617 2fc0 d1de 41c0 2e46 2ec0 1f90 07c0
00000070: 348a 9ebf 425e c6bf 1bfd 5ec0 5bdf c9c0
00000080: 7bba e83f abf7 0740 233d 2040 ecd3 3b40
00000090: ece1 6040 c39f 8840 a083 8b40 60a2 7b40
000000a0: 02ec 4240 089a 1f40 a1e9 3640 1bea 5b40
000000b0: f503 8940 bb8e 9440 4f82 9540 bbb1 8840
000000c0: a004 6b40 3d60 4d40 6902 2440 849f 0240
000000d0: 3e7d 0140 85b6 2540 5464 6440 0381 8340
000000e0: dae1 8740 9492 5840 5de8 1e40 f901 d03f
000000f0: 438f a53f 7226 ac3f 5374 c33f 7993 0d40
00000100: f9b4 0dc1 1e44 bfc0 cfb9 29c0 f787 ce3d
00000110: 7f1d f23f b17b 2c40 d3c2 1a40 9597 ff3f
00000120: 5e54 5a3f 5480 cebf ff76 96c0 e028 cec0
00000130: 9aa5 9ac0 7b31 a7bf 84bc d13f f899 1640
00000140: df74 0d40 eb41 3b40 6653 0940 637a 18be
00000150: fd1a 13c0 2f20 7dc0 8e7b 81c0 03ef 33c0
00000160: b28c 7ebf 65be abbd 4313 253f 34bf ae3f
00000170: b711 f73f 99ea 873f dfe6 1ac0 d699 fac0
00000180: 6b81 0a41 fad6 9740 1d9d 4540 0ea1 4140
00000190: 77b8 6d40 ec8d 8940 7c22 7f40 33b1 6c40
000001a0: 6edd 7340 4a9f 9340 5f48 8840 7e47 3d40
000001b0: f6c8 f53f 7079 e13f 99a2 cd3f e4e7 f43f
000001c0: 481c 1140 f835 1840 606b 1540 7411 2e40
000001d0: 7141 7640 1475 8740 ed72 6e40 5bf5 5340
000001e0: 864f 5440 134c 5740 b5a4 4b40 f503 4140
000001f0: d19f 2640 f13f 4440 5b66 8340 bfdc b040
00000200: 5f51 ee40 e53a b440 0c4f a140 b758 8c40
00000210: 41a1 6940 c793 8340 327f 8b40 a09e 8240
00000220: 0b25 8440 e83f 9440 842a 9b40 5137 9b40
00000230: 9db2 9b40 40a6 9c40 a51c 9540 5b51 8140
00000240: d4c2 7640 6e46 3240 fcfc 2c40 7d90 1d40
00000250: aae2 1b40 4ca3 1f40 f9a8 1b40 92c2 1a40
00000260: a537 1940 df02 0640 3bc2 aa3f 4216 b23e
00000270: 0b70 103f cbfd 8f3f d6d8 2b40 25a6 8f40
00000280: f882 6dc0 f20b eec0 fd62 aac0 91eb 6abf
00000290: d901 0840 2d07 6340 72e2 a340 946a c940
000002a0: 5e2c b640 4dba 5240 7f69 a6be 31e3 8ec0
000002b0: 8069 dec0 6224 d3c0 63ba 61c0 bc68 06bf
000002c0: 4f21 523f b1e6 2240 a513 8140 d9a2 8d40
000002d0: 5de2 7940 cd90 0640 58f9 b2be e3bf 41c0
000002e0: 340e 86c0 0e53 89c0 165e 5fc0 1be3 f3bf
000002f0: 621f 9dbe f2a5 e03f 2990 5540 2784 8640
00000300: be04 0d41 69c5 ff3e b088 74c0 f1f4 cdc0
00000310: c948 e3c0 5a68 54c0 421e 0540 3a05 bd40
00000320: b9df c140 bb5f 6440 2af7 1ebe 191b 30c0
00000330: a694 42c0 5bcf f8bf 6a7f c9bf 18e2 11bf
00000340: f053 c3be 4371 15bf d423 cf3d b8f9 c43f
00000350: 0747 4740 1044 2e40 303b 473f 34e9 b6bf
00000360: b787 72c0 3056 8ec0 662a 06c0 ac8d a33f
00000370: b733 7c40 f33e 9140 5288 2540 2b03 bbc0
00000380: f66b 21c1 8d9d 6ac0 f1b7 a03e f493 9cbd
00000390: 09be 59c0 1a53 99c0 3e79 5cc0 778c f2bf
000003a0: 6200 1fc0 1919 83c0 25f7 97c0 4353 4fc0
000003b0: b5a2 bebe 6c9f 923e 2912 31bf b8a8 b6bf
000003c0: e591 86bf c004 2cbc 57c4 44bf aa90 51c0
000003d0: ddf6 97c0 6b0b 60c0 a928 dcbe 7203 1e3f
000003e0: 4ebf dbbe 44e3 41c0 56b6 92c0 443c 45c0
000003f0: b0a2 43bf 65a6 3cc0 4843 04c1 0f83 41c1

weight f4 [8]
9.003977 -4.653483 9.716234 6.388918 6.9001155 13.19656 10.902056 9.408396
00000000: 4a10 1041 55e9 94c0 b275 1b41 0472 cc40
00000010: bfcd dc40 1c25 5341 d26e 2e41 ca88 1641

bias f4 [8]
8.643366 1.9560044 0.7309984 3.354045 -0.6316314 -0.6235366 -0.27475736 5.812385
00000000: 3a4b 0a41 5a5e fa3f b622 3b3f aca8 5640
00000010: 98b2 21bf 18a0 1fbf ffac 8cbe 0fff b940

running_mean f4 [8]
4.5199163e-06 -3.0003316e-06 3.290404e-07 -2.1413491e-06 -4.4797034e-06 7.690371e-07 1.4530954e-07 -1.4068053e-07
00000000: c9a9 9736 4e59 49b6 f8a6 b034 19b4 0fb6
00000010: 5c50 96b6 d46f 4e35 6206 1c34 f80d 17b4

running_var f4 [8]
4.159581e-07 2.4353932e-07 8.180506e-08 2.8500617e-07 3.231656e-07 1.523047e-07 5.1070494e-08 2.0438526e-07
00000000: d950 df34 cabf 8234 cfac af33 f302 9934
00000010: 8b7f ad34 3289 2334 9a58 5b33 fe74 5b34

weight f4 [16, 1, 22, 1]
-0.003571894 0.039074477 0.018499827 0.15219198 -0.11783003 -0.30443835 -0.16321559 0.59724224
0.015264685 -0.25749496 -0.067980714 0.38071418 0.07398735 -0.10779609 -0.11509598 -0.2253674
-0.09637465 0.17599586 -0.0825176 -0.23867448 0.16852048 0.23527943 0.23345691 0.02637576
0.092477806 0.03852174 -0.033070404 -0.10720612 0.01327966 -0.33487773 -0.15229225 0.22225717
-0.17225362 -0.28480598 0.010327325 -0.1753931 0.34628087 0.25454232 -0.09522387 0.26123455
0.22380933 0.050997254 0.03683799 -0.52842396 0.27397713 0.0015650511 0.19083716 0.48386675
0.19204742 -0.009675072 -0.2922844 -0.30909052 0.10768544 0.24429123 0.112667814 -0.1665617
-0.21123151 -0.23723103 -0.12327176 0.13783093 0.10073418 -0.082221806 -0.29552254 -0.27754444
0.06197818 -0.06667077 0.018647272 -0.06912857 -0.014225174 0.20686841 -0.023445738 -0.16340876
0.2704409 -0.16257168 -0.18342926 0.42251867 -0.26293692 -0.5280175 0.34373537 -0.18785992
0.12315647 0.2043081 -0.16127469 0.025711903 0.13979934 0.012296394 0.08330826 -0.035751957
0.12303549 0.4009068 -0.05741441 -0.0028546548 -0.10856972 -0.12167691 0.092338845 -0.092779204
-0.25081268 0.35260734 -0.22048384 0.13453178 -0.28432485 -0.3389607 0.17667954 0.37453333
-0.06781056 0.26797628 -0.18488942 -0.04461775 0.20422941 -0.026678966 -0.20051268 0.31540164
0.12453305 -0.28553775 -0.09333372 -0.08913125 0.75906587 -0.08179459 0.0113445595 0.011625219
0.027653053 -0.102522224 -0.09590737 -0.056855332 -0.27786493 -0.0544004 0.038515687 0.048687384
-0.030089224 0.098594606 0.18545038 -0.10362769 -0.1038466 -0.1114657 0.041227687 -0.1524918
0.09979514 0.39380872 -0.024447534 -0.26900473 -0.13861948 -0.0568222 0.35715055 -0.15650067
-0.041324586 0.29400006 0.26271522 -0.090239435 -0.089882806 -0.3245048 0.39713427 0.014392354
-0.14922893 -0.28358993 0.25360447 -0.0377243 -0.05652489 0.102678835 -0.14650217 -0.15703285
0.06434801 -0.47061 0.2266431 0.5096944 -0.101010285 -0.28514332 0.04619102 -0.13365006
-0.039340686 0.23195174 0.09395831 -0.116011426 0.1254933 -0.11562387 0.25789687 -0.22595257
0.18705687 0.17228617 -0.114378884 -0.26485705 -0.36207032 -0.24609895 0.012659325 0.22514842
0.2536432 0.15834396 -0.11256102 0.09152139 0.13280514 -0.071758546 -0.12786765 -0.043641567
0.4208486 0.19034533 -0.3997216 -0.18672065 0.15249813 -0.16293064 0.1298267 -0.15016715
0.033921953 0.28486833 0.03238718 -0.22789651 0.25012332 0.2403645 -0.004102279 -0.40404
-0.31386536 0.060978904 0.36245504 0.037535768 0.030142609 -0.10202677 -0.28493595 0.06577529
-0.17926334 -0.028518545 0.0830121 0.411574 -0.07062927 -0.18484312 -0.11779981 0.112858914
0.3948257 0.4119038 0.024371106 0.018920656 -0.03247501 0.03677498 0.10791326 -0.5317274
-0.3383572 0.075706854 0.106830396 -0.084086016 0.050242294 -0.060976714 -0.057297282 -0.2253297
0.32772714 -0.0076534986 0.12765522 -0.050990075 -0.019190572 -0.20336853 0.07233589 -0.101238646
0.12992682 0.1923478 -0.38179776 0.021410212 -0.071917914 0.046918344 0.10908867 -0.20390253
00000000: 7016 6abb 8f0c 203d f38c 973c 37d8 1b3e
00000010: df50 f1bd 58df 9bbe fd21 27be dee4 183f
00000020: bb18 7a3c 61d6 83be 7939 8bbd f8ec c23e
00000030: ae86 973d 32c4 dcbd 71b7 ebbd b6c6 66be
00000040: 1360 c5bd 4238 343e fdfe a8bd 1567 74be
00000050: a290 2c3e 17ed 703e 540f 6f3e fa11 d83c
00000060: 0165 bd3d f9c8 1d3d d574 07bd e28e dbbd
00000070: ee92 593c 1875 abbe 80f2 1bbe 6297 633e
00000080: 4163 30be 17d2 91be f133 293c 409a 33be
00000090: ba4b b13e 5f53 823e bb04 c3bd 89c0 853e
000000a0: 462e 653e 7fe2 503d 6fe3 163d cb46 07bf
000000b0: bb46 8c3e 6722 cd3a d16a 433e 62bd f73e
000000c0: 14a8 443e 3184 1ebc 4da6 95be 1d41 9ebe
000000d0: 2f8a dc3d 7b27 7a3e 62be e63d 268f 2abe
000000e0: 134d 58be b1ec 72be e875 fcbd 8d23 0d3e
000000f0: b94d ce3d e863 a8bd bb4e 97be 4e1a 8ebe
00000100: d5dc 7d3d af8a 88bd 2ac2 983c 4893 8dbd
00000110: b410 69bc 50d5 533e 4711 c0bc a054 27be
00000120: 3b77 8a3e 3179 26be e1d4 3bbe 5e54 d83e
00000130: ab9f 86be 282c 07bf 15fe af3e 5a5e 40be
00000140: 7639 fc3d 2436 513e 3125 25be c5a1 d23c
00000150: 8f27 0f3e d176 493c 859d aa3d a570 12bd
00000160: 08fa fb3d a843 cd3e 5f2b 6bbd 2915 3bbb
00000170: cd59 debd be31 f9bd 261c bd3d 0603 bebd
00000180: 856a 80be f388 b43e 84c6 61be b3c2 093e
00000190: 0793 91be 428c adbe 7beb 343e d5c2 bf3e
000001a0: 43e0 8abd 3034 893e a753 3dbe 1ac1 36bd
000001b0: 8421 513e d98d dabc 3253 4dbe 537c a13e
000001c0: 2f0b ff3d 0132 92be c025 bfbd 728a b6bd
000001d0: 2452 423f ec83 a7bd 88de 393c b477 3e3c
000001e0: a888 e23c 2cf7 d1bd 156b c4bd 23e1 68bd
000001f0: 5044 8ebe f4d2 5ebd a0c2 1d3d 6c6c 473d
00000200: ad7d f6bc f8eb c93d b4e6 3d3e c13a d4bd
00000210: 87ad d4bd 2148 e4bd 5dde 283d cf26 1cbe
00000220: 6561 cc3d 4ca1 c93e 3246 c8bc fdba 89be
00000230: 44f2 0dbe 65be 68bd 70dc b63e b641 20be
00000240: f843 29bd 2d87 963e 9c82 863e 74cf b8bd
00000250: 7a14 b8bd 7e25 a6be 2f55 cb3e e8cd 6b3c
00000260: 78cf 18be b332 91be 72d8 813e cc84 1abd
00000270: a586 67bd 4849 d23d aa04 16be 38cd 20be
00000280: e4c8 833d cbf3 f0be 2115 683e 557b 023f
00000290: 7bde cebd 4efe 91be cc32 3d3d 90db 08be
000002a0: b323 21bd c284 6d3e 376d c03d 6697 edbd
000002b0: 5181 003e 35cc ecbd 0f0b 843e 1c60 67be
000002c0: d68b 3f3e c96b 303e 7a3f eabd 589b 87be
000002d0: 4861 b9be 5d01 7cbe 0f69 4f3c 4f8d 663e
000002e0: 86dd 813e eb24 223e 6486 e6bd 916f bb3d
000002f0: 12fe 073e 25f6 92bd bdef 02be 80c1 32bd
00000300: 7879 d73e e3e9 423e 4fa8 ccbe b333 3fbe
00000310: 7828 1c3e 4ad7 26be 4af1 043e 6bc5 19be
00000320: bff1 0a3d 43da 913e 6ba8 043d b45d 69be
00000330: 2a10 803e 1d22 763e 696c 86bb 55de cebe
00000340: f6b2 a0be 04c5 793d b593 b93e 1bbf 193d
00000350: a2ed f63c 69f3 d0bd 20e3 91be 32b5 863d
00000360: cf90 37be b99f e9bc 3f02 aa3d d4b9 d23e
00000370: 14a6 90bd 8447 3dbe 0741 f1bd 9322 e73d
00000380: 9826 ca3e 0ee5 d23e eaa5 c73c 7eff 9a3c
00000390: 8404 05bd 5da1 163d a101 dd3d 491f 08bf
000003a0: 283d adbe 320c 9b3d e5c9 da3d 4a35 acbd
000003b0: ddca 4d3d b8c2 79bd 8eb0 6abd d4bc 66be
000003c0: dacb a73e 33ca fabb 0db8 023e f8da 50bd
000003d0: 8c35 9dbc d73f 50be d724 943d 3556 cfbd
000003e0: 890b 053e d2f6 443e ff7a c3be 7864 af3c
000003f0: b349 93bd 732d 403d e169 df3d d3cb 50be

weight f4 [16]
1.5004015 1.476848 3.2557588 2.9387875 1.4990622 2.8854005 2.096415 2.7788837
1.9642451 2.031156 -4.2904754 6.3890367 9.484349 10.228219 2.6086526 2.4090226
00000000: 280d c03f 5b09 bd3f 5a5e 5040 1815 3c40
00000010: 45e1 bf3f 67aa 3840 aa2b 0640 3bd9 3140
00000020: 626c fb3f 76fe 0140 934b 89c0 fd72 cc40
00000030: e5bf 1741 c9a6 2341 2af4 2640 6d2d 1a40

bias f4 [16]
-0.37772098 -0.121929124 3.856964 -0.42555135 -0.21811984 -0.8299276 0.26963666 -1.6589885
-0.28316462 -0.4331181 -1.6049678 -1.9817896 -3.4544642 -4.470406 -1.0350204 -0.76206994
00000000: a564 c1be fab5 f9bd 80d8 7640 dee1 d9be
00000010: cf5a 5fbe 2376 54bf d10d 8a3e bc59 d4bf
00000020: f4fa 90be a8c1 ddbe 966f cdbf 48ab fdbf
00000030: f115 5dc0 910d 8fc0 8c7b 84bf 0417 43bf

running_mean f4 [16]
0.6653948 -0.6425288 -0.33277628 0.113026194 0.2361089 0.10937189 -0.4414005 0.09295018
0.06070107 -0.20788077 0.02682825 -0.036206957 -0.003685668 -0.00018143383 0.17825384 -0.7103578
00000000: 5057 2a3f c47c 24bf a761 aabe 477a e73d
00000010: 88c6 713e 5ffe df3d 3fff e1be aa5c be3d
00000020: afa1 783d b2de 54be ebc6 db3c bf4d 14bd
00000030: 408b 71bb 463f 3eb9 2d88 363e 02da 35bf

running_var f4 [16]
0.0016569826 0.0022469924 0.0036745837 0.00020619087 0.0015781855 0.0015881278 0.00072555576 0.0011145726
0.0013245249 0.0014283862 0.0036786676 0.00088493683 0.00064949144 0.0010588898 0.0032598202 0.005083694
00000000: 1c2f d93a 4742 133b 49d1 703b f134 5839
00000010: 1edb ce3a ba28 d03a 3933 3e3a da16 923a
00000020: ae9b ad3a b038 bb3a cd15 713b 1bfb 673a
00000030: a242 2a3a 72ca 8a3a b5a2 553b 1e95 a63b

weight f4 [16, 1, 1, 16]
-0.24447556 0.6160006 1.574002 0.7514691 1.7391051 2.0215964 2.566618 2.908772
1.8040538 -0.13560201 -0.3519562 -0.010256781 -1.148615 1.059664 2.7232602 4.2429724
4.595658 2.4429436 2.0234802 0.6230415 -1.0856365 -1.674933 -2.1425018 -2.6211421
-1.8741025 -1.3682519 -1.1016273 -0.6563154 0.49217975 -0.43053052 -1.7435997 -1.9896661
-2.0143018 0.7989543 2.4493308 -0.34191972 -1.8524064 1.9860959 -4.755892 5.545236
-3.8092458 0.86249995 2.7005053 -1.2528101 -0.7721642 0.927284 -2.8652887 2.1410847
1.7706141 1.2172518 0.8086122 -0.36785367 -1.4226797 -1.9557236 -1.8795059 -2.737661
-2.5811522 -2.4217849 -2.7244835 -1.546563 -1.3254535 -1.0971223 -1.9981557 -2.250831
2.2944944 1.940668 0.5031105 1.4535898 1.562694 1.963387 3.4454832 0.9658579
1.8308821 0.9754181 0.67490375 0.68823475 0.778237 0.45491996 -0.17336258 1.4604973
4.7746296 2.4601274 2.982536 0.4302876 0.7627185 0.8871375 -0.45259923 0.03478684
0.7870137 -1.3970987 0.010762295 0.3349079 -0.5487645 0.23817292 1.7123313 4.266759
-4.2856445 -2.2415326 -1.8506284 0.058468334 -1.5997847 -0.7859292 -1.0119481 -0.78562075
-0.18646869 -1.5904672 0.59607774 -0.08635641 0.4982949 1.1972696 2.675659 3.058681
5.6020436 3.2122412 1.4546206 0.6210359 0.08306564 -0.06600168 0.33095413 0.070187435
0.3583694 0.80092543 1.3685893 0.9732601 0.7074367 0.85242945 0.05315351 0.09591884
-3.1419797 -1.406396 -1.8547941 -1.9595147 -2.1407137 -3.3235662 -3.372483 -2.1097145
-2.1669407 -1.0826025 -0.15505354 -0.06869051 1.4122099 2.089829 2.0324366 1.7020806
-5.991922 -2.9237666 -1.3953674 -0.4384506 0.18670042 1.5503533 1.476614 1.1631715
1.1762897 -0.1731615 -0.64181805 -0.8159796 0.18930344 -0.37613425 1.5078702 3.68715
-3.2187324 -2.6628413 -0.80354303 -1.0096515 0.28940555 0.92499065 -0.26132238 -1.047391
-0.4394837 0.3126929 0.8338468 -1.2340913 -0.82968515 -0.2686468 -2.6649961 -4.12413
7.2642627 3.0218697 4.2952194 1.348486 -0.03927739 0.28305936 0.78410935 -0.053201802
0.7058072 0.5666443 -1.1065615 -0.83778226 0.16002811 0.27894947 -0.3635662 1.6357983
-7.3927975 -4.298039 -1.4735098 -1.8859385 -1.2334812 -1.3754797 0.92811877 -0.7738914
-0.63481325 -0.41374606 -2.003411 -0.13993701 2.2568295 -1.44284 0.6038695 0.15879597
5.5459027 1.9045388 -0.65717 3.5091717 1.2007388 -2.3071754 3.5966592 0.1489123
0.17634386 4.0846562 -0.31984055 -1.2029855 2.5555568 -0.71652174 -0.20960605 2.7368858
-4.2543 -1.6761869 -1.2103205 0.6588173 0.39798632 -0.06644418 0.4323167 -0.19347788
-1.0073833 0.027148256 -0.33374393 -0.30171058 0.14582255 -1.0218623 -2.3721404 -4.2020106
-4.3126106 -2.6936526 -0.63275295 0.29226622 -0.09063285 0.52429676 1.518536 -1.9221902
-0.43393114 -0.015284869 -0.3380392 -0.6829698 0.83815825 0.01743956 -1.5168811 -5.4812098
00000000: cd57 7abe 37b2 1d3f e678 c93f 4760 403f
00000010: ff9a de3f d661 0140 7843 2440 5229 3a40
00000020: 3ceb e63f 41db 0abe 9a33 b4be 0f0c 28bc
00000030: d105 93bf 12a3 873f e549 2e40 6ec6 8740
00000040: a10f 9340 3059 1c40 b380 0140 a67f 1f3f
00000050: 23f6 8abf 3464 d6bf c01e 09c0 cbc0 27c0
00000060: 97e2 efbf e122 afbf 2002 8dbf 4904 28bf
00000070: fcfe fb3e 7f6e dcbe 462e dfbf 61ad febf
00000080: 52ea 00c0 4588 4c3f d6c1 1c40 1a10 afbe
00000090: a71b edbf 6438 fe3f 4430 98c0 9372 b140
000000a0: afca 73c0 cccc 5c3f 14d5 2c40 155c a0bf
000000b0: 8eac 45bf 7c62 6d3f e460 37c0 8807 0940
000000c0: 7ca3 e23f e8ce 9b3f 3601 4f3f 5157 bcbe
000000d0: 5e1a b6bf 2755 fabf a693 f0bf d635 2fc0
000000e0: 9931 25c0 86fe 1ac0 f05d 2ec0 c7f5 c5bf
000000f0: 76a8 a9bf 816e 8cbf 91c3 ffbf 9d0d 10c0
00000100: ffd8 1240 cf67 f83f dacb 003f 3b0f ba3f
00000110: 5b06 c83f 4450 fb3f cc82 5c40 7742 773f
00000120: 585a ea3f 00b5 793f 7ec6 2c3f 2730 303f
00000130: 8a3a 473f 45eb e83e f685 31be 93f1 ba3f
00000140: c4c9 9840 ba72 1d40 dfe1 3e40 a84e dc3e
00000150: 8541 433f 711b 633f 16bb e7be a57c 0e3d
00000160: bb79 493f 21d4 b2bf 5654 303c 0c79 ab3e
00000170: d57b 0cbf 9ae3 733e ac2d db3f 4a89 8840
00000180: 0024 89c0 4575 0fc0 64e1 ecbf 7e7c 6f3d
00000190: bfc5 ccbf a832 49bf 8487 81bf 711e 49bf
000001a0: a6f1 3ebe 6e94 cbbf 8d98 183f a1db b0bd
000001b0: 8220 ff3e 2140 993f ff3d 2b40 6ec1 4340
000001c0: f143 b340 5c95 4d40 0231 ba3f 35fc 1e3f
000001d0: 511e aa3d e42b 87bd d272 a93e 6ebe 8f3d
000001e0: 327c b73e 7309 4d3f ef2d af3f 9327 793f
000001f0: 921a 353f d138 5a3f 7fb7 593d 1971 c43d
00000200: 3216 49c0 c904 b4bf e569 edbf 61d1 fabf
00000210: 7401 09c0 4fb5 54c0 c3d6 57c0 9005 07c0
00000220: 28af 0ac0 b892 8abf 5bc6 1ebe 9cad 8cbd
00000230: 4bc3 b43f c2bf 0540 7113 0240 c7dd d93f
00000240: d3bd bfc0 fe1e 3bc0 669b b2bf 997c e0be
00000250: 652e 3f3e fa71 c63f b001 bd3f cee2 943f
00000260: a990 963f 4051 31be 304e 24bf 0ae4 50bf
00000270: c3d8 413e ab94 c0be e401 c13f 44fa 6b40
00000280: b6ff 4dc0 fe6b 2ac0 ffb4 4dbf 433c 81bf
00000290: f72c 943e 30cc 6c3f 0ccc 85be e910 86bf
000002a0: 0204 e1be 4919 a03e fc76 553f b4f6 9dbf
000002b0: 3f66 54bf 138c 89be 4c8f 2ac0 dff8 83c0
000002c0: d774 e840 5066 4140 7072 8940 309b ac3f
000002d0: 54e1 20bd 28ed 903e 64bb 483f 22ea 59bd
000002e0: c8af 343f 9a0f 113f cfa3 8dbf e678 56bf
000002f0: 69de 233e 77d2 8e3e 5925 babe d761 d13f
00000300: cc91 ecc0 8989 89c0 f89b bcbf 6f66 f1bf
00000310: b6e2 9dbf b80f b0bf 3199 6d3f bf1d 46bf
00000320: 1f83 22bf 86d6 d3be e337 00c0 a64b 0fbe
00000330: e56f 1040 fbae b8bf 3197 1a3f 699b 223e
00000340: 0978 b140 edc7 f33f 4b3c 28bf 4596 6040
00000350: cfb1 993f c3a8 13c0 aa2f 6640 777c 183e
00000360: 7c93 343e 81b5 8240 24c2 a3be 6efb 99bf
00000370: 3e8e 2340 f86d 37bf f8a2 56be 2329 2f40
00000380: 3a23 88c0 4b8d d6bf c8eb 9abf 40a8 283f
00000390: ddc4 cb3e e313 88bd 9d58 dd3e 111f 46be
000003a0: f0f1 80bf 0566 de3c 7ce0 aabe cf79 9abe
000003b0: 8252 153e 62cc 82bf 26d1 17c0 df76 86c0
000003c0: e800 8ac0 ce64 2cc0 19fc 21bf eba3 953e
000003d0: b79d b9bd 5038 063f 635f c23f 540a f6bf
000003e0: 392c debe 636d 7abc 7913 adbe 1cd7 2ebf
000003f0: 8a91 563f 68dd 8e3c 2929 c2bf 1266 afc0

weight f4 [16, 16, 1, 1]
1.2143534 1.4455122 2.64536 -1.1485933 -0.4436097 3.5356214 -1.661758 1.0005907
2.9027362 -3.195996 -1.6198816 -0.7966643 2.6629357 -0.9943925 -0.5281296 -3.2572014
1.974516 3.4469526 3.6994889 1.6666483 -2.708748 0.14284717 3.9182513 2.8882325
-0.31253162 -3.144901 -1.1660718 -2.0237305 -0.059741598 -0.23306935 -0.32135668 -0.2663564
-0.21767654 -1.0759639 2.039825 -2.3976407 0.759188 -1.5490174 -3.21409 -2.0761452
4.848476 0.64581877 -0.27908188 3.8962684 0.9678827 -1.7168286 -1.8105063 1.4370692
0.48402107 4.0848103 2.3559744 0.43401766 -2.5843298 1.4870821 -0.33248547 2.3445678
0.19633387 -1.7101011 -2.739092 0.013459667 -0.28530964 -4.3054132 -2.430308 0.13565655
-4.644345 -2.134093 3.243949 0.12683399 -0.22617991 0.73182285 0.94505054 -2.5541937
-4.6073318 1.893939 1.3230886 2.8019006 0.6460767 -0.4250977 -0.36297598 -0.60807514
-0.25372702 2.759243 -3.2740507 0.47263765 -0.92616683 2.4235206 0.10779801 -0.8284293
0.8519951 -0.3696906 -0.09424256 4.9350452 1.3161949 -2.0223608 -1.477072 -0.86369824
-0.6311259 -0.46417615 3.5457344 2.6876664 3.1675823 -0.54348683 -1.8237183 -2.982763
-2.765986 2.6600864 2.9244595 2.4566388 -0.5597262 0.18431374 3.6506653 -0.5276685
-2.5763185 -1.4281125 -3.8966553 -0.47915798 2.7502787 -1.2012868 -2.5995042 -2.8384008
-1.9592611 4.132204 0.5423566 3.2333722 -0.29211643 -0.52269626 1.2687908 0.8036967
-0.2574808 -2.2385108 2.78052 -1.6048437 0.8696311 -3.8006606 -2.2184603 -1.7760382
0.49141577 3.2839537 -0.25419673 -3.240672 -2.3398514 1.2511605 1.0012465 2.940402
-1.3357159 -3.0104907 -1.9034966 -2.9333913 1.3024783 2.9478204 -1.2674794 -0.44298422
2.0269403 -1.1589481 0.07377266 1.7128823 5.254559 0.5019484 -0.6842237 -2.325393
0.85348326 2.623159 3.0615926 -0.6345187 -4.9916906 0.93646836 1.4548786 3.344733
0.36915442 -3.0623093 -2.5591073 -2.0652425 0.40800312 -0.5822885 -1.9395577 0.42898822
1.5702972 0.26057407 -1.5922273 -0.36631644 0.055804312 2.437309 -0.07635788 0.3779363
-0.43826368 -1.9378437 2.14087 -0.30847213 1.7630895 5.803483 2.405317 -3.7708316
-4.692296 -2.8091888 3.0156949 -2.8154845 -2.2937746 0.8795712 -2.0384557 -0.6986881
-0.29344493 2.6144378 -0.9289695 1.9609905 0.4572171 -1.9550736 -1.7395198 0.8459822
0.037515547 0.18071672 0.9541029 1.6817758 -0.49256665 -2.2626948 -0.5280556 -0.29554224
-0.8263306 2.4867268 -4.1129746 -1.0326828 -5.568543 -1.9975367 -2.366789 2.641176
0.07950769 -0.09644054 -2.1598957 1.3372883 -0.46656328 -3.6210744 0.783757 0.6414125
-2.0185258 2.6543515 -2.2904603 -1.6653886 -4.029992 -0.07021181 -0.13803546 2.868234
-3.31022 -1.0502112 -2.034833 -0.58924985 -0.39722404 -0.5922471 -0.16806902 -0.7103935
0.6900162 1.5505106 -1.8834156 1.3419459 -0.8248641 -5.5164857 -2.8257875 1.7193166
00000000: ef6f 9b3f 8b06 b93f 944d 2940 1b05 93bf
00000010: d020 e3be 9f47 6240 7cb4 d4bf 5b13 803f
00000020: 6ec6 3940 338b 4cc0 4858 cfbf 31f2 4bbf
00000030: 8a6d 2a40 8290 7ebf 8033 07bf fd75 50c0
00000040: f1bc fc3f df9a 5c40 6dc4 6c40 bb54 d53f
00000050: 215c 2dc0 8746 123e a1c4 7a40 cdd8 3840
00000060: 2504 a0be 0f46 49c0 d741 95bf cd84 01c0
00000070: 9bb3 74bd bba9 6ebe dd88 a4be de5f 88be
00000080: 99e6 5ebe 2fb9 89bf 7e8c 0240 f272 19c0
00000090: 255a 423f 3446 c6bf a7b3 4dc0 90df 04c0
000000a0: b726 9b40 6154 253f d2e3 8ebe 765c 7940
000000b0: 29c7 773f 0ac1 dbbf acbe e7bf e2f1 b73f
000000c0: 9cd1 f73e c4b6 8240 49c8 1640 9037 de3e
000000d0: a965 25c0 b558 be3f 893b aabe 660d 1640
000000e0: bf0b 493e 98e4 dabf 494d 2fc0 ef85 5c3c
000000f0: 1b14 92be f2c5 89c0 2b8a 1bc0 8de9 0a3e
00000100: 799e 94c0 fb94 08c0 dc9c 4f40 c5e0 013e
00000110: b59b 67be be58 3b3f d5ee 713f e977 23c0
00000120: 436f 93c0 986c f23f f85a a93f 5752 3340
00000130: 4865 253f 68a6 d9be fdd7 b9be d0aa 1bbf
00000140: 82e8 81be 7097 3040 0c8a 51c0 90fd f13e
00000150: 4519 6dbf f61a 1b40 34c5 dc3d f113 54bf
00000160: 5a1c 5a3f 1648 bdbe 3e02 c1bd e4eb 9d40
00000170: 1379 a83f 5c6e 01c0 b210 bdbf 541b 5dbf
00000180: 7891 21bf 7fa8 edbe 50ed 6240 ba02 2c40
00000190: abb9 4a40 f421 0bbf 9a6f e9bf 97e5 3ec0
000001a0: ea05 31c0 db3e 2a40 582a 3b40 9239 1d40
000001b0: 374a 0fbf bebc 3c3e 80a4 6940 4815 07bf
000001c0: 67e2 24c0 64cc b6bf cd62 79c0 3254 f5be
000001d0: 9104 3040 c4c3 99bf 475e 26c0 5ca8 35c0
000001e0: 11c9 fabf 043b 8440 e2d7 0a3f 92ef 4e40
000001f0: 4990 95be 6ccf 05bf bd67 a23f 11bf 4d3f
00000200: 86d4 83be c343 0fc0 0af4 3140 856b cdbf
00000210: 25a0 5e3f 063e 73c0 41fb 0dc0 3855 e3bf
00000220: d99a fb3e 4c2c 5240 1326 82be 2c67 4fc0
00000230: 20c0 15c0 0726 a03f d828 803f 8c2f 3c40
00000240: bdf8 aabf e1ab 40c0 c7a5 f3bf afbc 3bc0
00000250: 9cb7 a63f 17a9 3c40 c43c a2bf d4ce e2be
00000260: 64b9 0140 6958 94bf 1f16 973d ba3f db3f
00000270: 5925 a840 b17f 003f 4929 2fbf 3dd3 14c0
00000280: e17d 5a3f d6e1 2740 22f1 4340 d16f 22bf
00000290: eebb 9fc0 64bc 6f3f 7639 ba3f 1b10 5640
000002a0: cf01 bd3e e0fc 43c0 6ac8 23c0 ef2c 04c0
000002b0: c9e5 d03e dc10 15bf 6d43 f8bf 58a4 db3e
000002c0: 80ff c83f f769 853e 1bce cbbf d48d bbbe
000002d0: 1093 643d dffc 1b40 8561 9cbd de80 c13e
000002e0: 1964 e0be 430b f8bf 0404 0940 0ff0 9dbe
000002f0: ebac e13f 22b6 b940 b7f0 1940 4e55 71c0
00000300: 4a27 96c0 c0c9 33c0 2501 4140 e630 34c0
00000310: 34cd 12c0 942b 613f 0f76 02c0 39dd 32bf
00000320: 6a3e 96be f352 2740 f2d0 6dbf bd01 fb3f
00000330: 5c18 ea3e da3f fabf 96a8 debf 4a92 583f
00000340: e7a9 193d ce0d 393e 1640 743f 6e44 d73f
00000350: b231 fcbe fecf 10c0 a72e 07bf 5051 97be
00000360: 678a 53bf 8826 1f40 7d9d 83c0 f32e 84bf
00000370: 8131 b2c0 48af ffbf 7979 17c0 0709 2940
00000380: eed4 a23d 9e82 c5bd bb3b 0ac0 432c ab3f
00000390: 62e1 eebe afbf 67c0 4ca4 483f 9c33 243f
000003a0: 872f 01c0 e5e0 2940 e796 12c0 742b d5bf
000003b0: b2f5 80c0 36cb 8fbd 2b59 0dbe 2591 3740
000003c0: a5da 53c0 526d 86bf b43a 02c0 14d9 16bf
000003d0: f360 cbbe 829d 17bf 491a 2cbe 59dc 35bf
000003e0: e7a4 303f 2277 c63f c313 f1bf e2c4 ab3f
000003f0: 4b2a 53bf 0d87 b0c0 b4d9 34c0 9112 dc3f

weight f4 [16]
0.2720759 0.27822676 0.2744335 0.42303383 0.24827027 -0.5511263 0.29330903 0.2525847
0.38140976 -0.30201104 0.25474983 -0.65543836 0.2585773 -0.5628544 0.2774262 0.60072356
00000000: 884d 8b3e bd73 8e3e 8c82 8c3e e497 d83e
00000010: 903a 7e3e 9d16 0dbf 9a2c 963e c852 813e
00000020: 2448 c33e 31a1 9abe 926e 823e cfca 27bf
00000030: 3e64 843e 3a17 10bf cf0a 8e3e 05c9 193f

bias f4 [16]
-0.035502225 -0.03101403 0.010126638 -0.041165657 0.015123676 -0.081326395 -0.009043227 0.013726602
-0.058621008 0.032651696 -0.0267768 -0.12752315 -0.012137685 -0.122165605 0.03921491 -0.109706566
00000000: c86a 11bd 2311 febc 33ea 253c 529d 28bd
00000010: 4bc9 773c 748e a6bd 0b2a 14bc 8be5 603c
00000020: 951c 70bd c9bd 053d 055b dbbc 6e95 02be
00000030: 24dd 46bc f631 fabd d09f 203d d6ad e0bd

running_mean f4 [16]
-22.838102 -37.841263 -0.8648611 -44.45472 23.500477 -5.4308076 36.695923 35.72989
21.325687 -2.482296 -40.32601 30.98237 -0.61485064 8.345746 7.997888 -22.574654
00000000: 6fb4 b6c1 745d 17c2 8967 5dbf a2d1 31c2
00000010: fa00 bc41 2dc9 adc0 a0c8 1242 68eb 0e42
00000020: 029b aa41 f0dd 1ec0 d64d 21c2 e5db f741
00000030: da66 1dbf 2d88 0541 b3ee ff40 e498 b4c1

running_var f4 [16]
40810.098 51016.56 43233.105 68825.055 49621.91 58081.207 50317.77 59160.723
46772.973 46422.67 39937.883 100022.69 44792.957 58314.484 41036.41 95312.76
00000000: 196a 1f47 8f48 4747 1be1 2847 876c 8647
00000010: e9d5 4147 35e1 6247 c58d 4447 b918 6747
00000020: f9b4 3647 ac56 3547 e201 1c47 585b c347
00000030: f5f8 2e47 7cca 6347 694c 2047 6128 ba47

weight f4 [4, 128]
-0.82482 0.12908316 0.52525526 0.5203911 0.3658953 0.2607779 0.2446306 0.008213487
0.38453722 0.06753563 -0.27479392 -0.3710432 -0.29205814 0.040815454 -0.0007001096 0.12917118
-1.1894524 0.07310423 0.71808463 0.38311806 0.16422486 -0.10406733 -0.21764001 -0.26720014
-0.124325 -0.35851032 0.04903079 -0.11857675 -0.13258816 0.03877829 -0.0705027 -0.019291434
0.54069465 0.045337502 -0.5251861 -0.08739624 0.1404873 0.25869367 0.4219797 0.41064754
-0.023308173 -0.3497481 -0.3906691 -0.22563441 -0.12807393 -0.33963457 -0.13534167 -0.19064258
0.66197515 0.0033775182 -0.14308463 -0.011964862 -0.1525121 -0.015357147 0.16890721 0.10117758
-0.05889626 -0.2656693 -0.19558692 0.026577733 0.06410325 -0.056621637 0.13613342 -0.021188766
-0.3651399 -0.5654518 -0.12061284 -0.10695482 -0.03992734 -0.39696383 -0.26533085 -0.49436352
0.77919614 -0.51272213 -0.46342304 -0.610787 -0.633935 -0.2969287 -0.3699253 -0.25148916
-0.33909315 -0.14604105 -0.11784051 -0.15406702 -0.08276366 0.02950731 -0.05519108 0.046242047
-0.26426053 -0.33343086 -0.1848051 -0.27785805 -0.21837476 -0.19122802 -0.17720953 -0.14909993
-0.6196336 -0.1780534 -0.088554956 0.3069987 0.380878 0.09128775 0.36685348 0.12802017
-0.24048255 0.40936768 0.31821704 0.3107413 0.3744749 0.33858207 0.30123627 0.30684203
0.567007 -0.69526386 -0.70212656 -0.7556352 -0.63624674 -0.42483425 -0.38317463 -0.24891768
-0.47921896 -0.26572496 -0.12853616 -0.08792969 0.000803948 -0.07224801 -0.0056956825 -0.115199424
0.1112035 0.012151546 -0.10533994 -0.2578291 -0.30304405 -0.013712151 0.090166405 0.04000899
-0.14909464 0.18883012 0.27237022 0.06154121 0.028562246 0.0423007 0.0544797 -0.15856278
0.2590101 0.07811356 0.1914438 0.18026438 0.1810901 -0.014544497 0.07243899 0.06444242
0.3623072 0.62248504 0.33776903 0.101085804 0.20931205 0.2524345 0.18516819 0.22920597
-0.0060623726 -0.045767937 0.15062936 0.18873693 0.20952179 0.23862165 -0.12897636 -0.08407476
-0.44679245 -0.494627 -0.32044294 -0.07607714 -0.12602907 -0.21415798 -0.08482485 -0.16838239
0.09929269 -0.004339073 -0.2851345 -0.2317323 -0.27922022 0.074930586 0.01947615 0.043383405
0.06847357 -0.1279074 -0.14289804 -0.0038503744 0.09459914 0.089125566 -0.03514642 0.11641667
-0.25663385 -0.29156092 -0.22724587 -0.021353595 0.04231765 -0.14943478 0.031799905 0.024156012
0.22662307 0.31535256 0.1605002 0.107267365 0.09707374 0.028463239 0.0728144 -0.0070828027
-0.08656176 0.21725088 0.36769992 0.16740449 0.13140789 -0.029908832 -0.021101868 -0.22686021
0.10078731 0.55113405 0.44099045 0.3770725 0.3538063 0.21070239 0.2972121 0.30759653
0.06588349 0.072026104 0.31908545 0.4307262 0.28666168 -0.020575052 -0.067693576 0.25450066
-0.265924 -0.3196967 -0.11506765 -0.23878507 -0.18511263 -0.08340075 -0.114521995 -0.13732372
-0.06526077 0.16234508 0.25624248 0.24674533 0.21229695 0.08910786 0.03055031 0.01636418
0.07467857 0.50626755 0.41337603 0.49577948 0.41921383 0.18862619 0.23761763 0.2835059
00000000: 6727 53bf 602e 043e 2177 063f 5a38 053f
00000010: a156 bb3e ae84 853e 7280 7a3e dd91 063c
00000020: 10e2 c43e 1f50 8a3d cab1 8cbe 60f9 bdbe
00000030: a588 95be 1b2e 273d 8f87 37ba 7345 043e
00000040: fa3f 98bf acb7 953d 65d4 373f 0d28 c43e
00000050: 902a 283e 4121 d5bd 06dd 5ebe 75ce 88be
00000060: 1b9e febd aa8e b7be 82d4 483d 5ed8 f2bd
00000070: 31c5 07be fcd5 1e3d b863 90bd 1209 9ebc
00000080: f76a 0a3f d1b3 393d 9972 06bf cdfc b2bd
00000090: e7db 0f3e 7f73 843e b90d d83e 6540 d23e
000000a0: c8f0 bebc 2f12 b3be c805 c8be b50c 67be
000000b0: d025 03be 95e4 adbe 0297 0abe cf37 43be
000000c0: 3477 293f 5a59 5d3b c784 12be 4508 44bc
000000d0: 222c 1cbe 8b9c 7bbc 03f6 2c3e 3136 cf3d
000000e0: 343d 71bd ce05 88be f047 48be 8cb9 d93c
000000f0: 9148 833d 17ec 67bd 8f66 0b3e 1094 adbc
00000100: 9ef3 babe 73c1 10bf dd03 f7bd 210b dbbd
00000110: da8a 23bd d83e cbbe 72d9 87be 371d fdbe
00000120: 6679 473f c241 03bf c945 edbe 895c 1cbf
00000130: 9049 22bf 0a07 98be d966 bdbe 30c3 80be
00000140: 9e9d adbe c98b 15be 5e56 f1bd bfc3 1dbe
00000150: fe7f a9bd 50b9 f13c 0b10 62bd 4d68 3d3d
00000160: 284d 87be 73b7 aabe 8c3d 3dbe 6943 8ebe
00000170: a29d 5fbe 47d1 43be 6a76 35be a7ad 18be
00000180: 4fa0 1ebf a153 36be 4d5c b5bd ef2e 9d3e
00000190: 7102 c33e 12f5 ba3d 38d4 bb3e b817 033e
000001a0: 0f41 76be a498 d13e 58ed a23e 7c19 9f3e
000001b0: 2dbb bf3e a15a ad3e a43b 9a3e 661a 9d3e
000001c0: 5f27 113f d0fc 31bf 91be 33bf 4f71 41bf
000001d0: 11e1 22bf e083 d9be 772f c4be 47e4 7ebe
000001e0: 305c f5be 1a0d 88be fc9e 03be 7b14 b4bd
000001f0: 09c0 523a c4f6 93bd d9a2 babb aded ebbd
00000200: a9be e33d 4717 473c 77bc d7bd 2d02 84be
00000210: 9728 9bbe eea8 60bc 2aa9 b83d 77e0 233d
00000220: 44ac 18be af5c 413e 1c74 8b3e a312 7c3d
00000230: 5ffb e93c 8043 2d3d 1b26 5f3d 485e 22be
00000240: f99c 843e 01fa 9f3d d809 443e 3a97 383e
00000250: af6f 393e 0b4c 6ebc e55a 943d 63fa 833d
00000260: 5480 b93e 2e5b 1f3f 10f0 ac3e 1306 cf3d
00000270: e655 563e 183f 813e bb9c 3d3e f8b4 6a3e
00000280: dea6 c6bb 2977 3bbd 953e 1a3e 4144 413e
00000290: e18c 563e 3c59 743e 6112 04be 632f acbd
000002a0: fbc1 e4be c03f fdbe 1911 a4be 55ce 9bbd
000002b0: c40d 01be 3b4c 5bbe a7b8 adbd 6f6c 2cbe
000002c0: f759 cb3d c82e 8ebb 26fd 91be 3b4b 6dbe
000002d0: f4f5 8ebe 3575 993d 728c 9f3c ccb2 313d
000002e0: df3b 8c3d 28fa 02be dd53 12be 9056 7cbb
000002f0: 32bd c13d 7787 b63d b1f5 0fbd dd6b ee3d
00000300: 8365 83be 7947 95be 24b3 68be bced aebc
00000310: 4655 2d3d 6e05 19be 9e40 023d d4e2 c53c
00000320: e10f 683e e475 a13e 2a5a 243e feae db3d
00000330: 99ce c63d bd2b e93c b71f 953d db16 e8bb
00000340: 4b47 b1bd 0477 5e3e 2a43 bc3e 156c 2b3e
00000350: ca8f 063e 5e03 f5bc d3dd acbc 0b4e 68be
00000360: 9469 ce3d 1f17 0d3f 80c9 e13e a60f c13e
00000370: 1926 b53e 5ec2 573e 2f2c 983e 4b7d 9d3e
00000380: eced 863d 6c82 933d 2b5f a33e 2588 dc3e
00000390: 52c5 923e 038d a8bc eea2 8abd e94d 823e
000003a0: 3127 88be 49af a3be 97a8 ebbd 1384 74be
000003b0: 2a8e 3dbe 03ce aabd 828a eabd 979e 0cbe
000003c0: 70a7 85bd ca3d 263e 3732 833e cfaa 7c3e
000003d0: 5f64 593e 2f7e b63d a544 fa3c 2c0e 863c
000003e0: 14f1 983d c09a 013f 06a6 d33e cfd6 fd3e
000003f0: 32a3 d63e 3927 413e 0952 733e af27 913e
