histories_cls/GRU_BcicIv2a_pt/49.28%_bs=064_lr=0.0065_ld=0.999919_nl=1_hc=032_do=0.16/best_valid_loss.pt (torch, 25548 bytes, 6 tensors)

weight_ih_l0 f4 [96, 22]
000000 35 64 22 bf 0d 2a d3 3e ac f7 5c bc a6 61 1f be
       -0.63434154 0.4124302 -0.013486784 -0.15564594
000010 94 38 b7 be 88 42 57 3e a8 68 c8 3e 17 31 92 be
       -0.35785353 0.21021473 0.39142346 -0.28553078
000020 6b a2 47 bd d3 10 83 3e 44 e3 fa bd 91 d9 b4 be
       -0.04873888 0.25598773 -0.12250379 -0.3532224
000030 04 47 23 3f f2 7e c8 bd 56 74 86 3e 0d 12 dc 3e
       0.63780236 -0.09789838 0.26260632 0.42982522
000040 1d 2c bd 3e c7 43 29 be 88 cc 23 be d7 e0 b8 3d
       0.36947718 -0.16529761 -0.15995991 0.0902726
000050 de 5b a2 3c 20 6b b9 3e eb a1 46 3f 5d d6 0b 3e
       0.019819196 0.36214542 0.7759082 0.13655992
000060 30 26 83 3e d2 4a 17 3f b7 58 66 3f 17 6d 8e 3f
       0.25615072 0.5909854 0.8997912 1.1127042
000070 9b 0f b1 3e 17 61 c7 3d 08 bc 6b 3e 32 d2 43 3f
       0.3458222 0.09735315 0.23020947 0.7649261
000080 67 1d 05 3f 03 e5 82 3e 0f 4e ba 3d c6 8b 0f 3f
       0.5199799 0.25565347 0.0909692 0.5607265
000090 06 c1 8c 3e a1 37 94 3e 03 e3 b0 3e 7a af 1d bd
       0.27491015 0.2894869 0.34548196 -0.038497426
0000a0 2e a1 4b 3e f7 5b d7 bd a5 0d 89 be df dc a8 be
       0.19885704 -0.10515588 -0.26768222 -0.3298101
0000b0 72 75 99 bd a2 ee 3a 3e 8d 2c 0b bf 42 d8 88 bf
       -0.07493104 0.18255094 -0.54364854 -1.0690997
0000c0 f0 9e ee be 1b 78 2b 3e 6a 83 39 3d c0 d3 b2 3e
       -0.46605635 0.16745035 0.04529134 0.34927177
0000d0 4c 7f c0 3d 78 5d 21 be 77 fb e2 3d cb 55 30 3f
       0.0939928 -0.15758312 0.11083119 0.6888091
0000e0 ed 17 bd be fc 27 62 3e d8 5d b0 3e c2 c8 82 3d
       -0.36932316 0.22085565 0.34446597 0.06385948
0000f0 d0 65 55 3e 37 01 84 3c cc 2f 13 3f 10 ae 6b 3d
       0.2083962 0.01611386 0.5749481 0.057539046
000100 ac 49 39 bd db e5 8d bf a5 ed 14 3f 08 e8 4f bf
       -0.045236275 -1.1085771 0.58175117 -0.81213427
000110 74 8f 4c bf fd 33 89 bd dc 0f f8 be 96 83 f3 3e
       -0.7990639 -0.06699369 -0.484496 0.4756133
000120 90 29 64 bf d6 0e 85 bf f9 73 8f bf 4a 7a 28 bf
       -0.8912592 -1.0395153 -1.1207267 -0.658116
000130 29 29 b5 bf c2 0a a6 bf 66 6c 24 be e8 aa fc be
       -1.4153186 -1.2972033 -0.16056976 -0.4934914
000140 4a 4d fc be 00 9a 37 bf 3f 20 77 bf ce 1e 5e bf
       -0.49277717 -0.7171936 -0.9653358 -0.86765754
000150 28 74 12 be 53 49 c7 bc e1 fb 31 bd 2a cc 4d 3f
       -0.14302123 -0.024326956 -0.0434531 0.80389655
000160 e3 e9 83 bf 21 c0 ae be a6 2a cd bf f4 f7 b1 bf
       -1.0305752 -0.34130958 -1.602864 -1.3903794
000170 d0 c9 6c bf cb 71 4a bf 85 2b 86 bf 35 a3 a5 be
       -0.9249544 -0.79079884 -1.0482031 -0.3235108
000180 e3 35 8d bf 0d 3c 90 bf 31 a3 a0 bf 66 0c c9 be
       -1.103207 -1.1268326 -1.2549802 -0.39267272
000190 c2 4c 08 bf 42 ba 3b bf b1 a8 99 bf 1a 1f ab bf
       -0.53242123 -0.7333108 -1.2004606 -1.3368866
0001a0 02 07 ad bf 5c 49 24 bf bb 87 aa bf d8 43 9a bf
       -1.3517764 -0.6417444 -1.3322672 -1.2051954
0001b0 2b 52 8e bf 43 3e 7c bf db e1 08 3f b2 ab e3 be
       -1.1118826 -0.98532504 0.5346963 -0.4446693
0001c0 8f bb b2 3e 90 10 8e 3f f6 8c 6b 3f 22 50 93 3e
       0.3490872 1.1098804 0.92011964 0.28772074
0001d0 80 a3 2b bf 86 9c 18 bf 20 bc 44 3f d3 cc 91 3f
       -0.67046356 -0.59613836 0.76849556 1.1390632
0001e0 f0 de bc 3e bf 40 1e bf 42 bb 2f 3e c0 da 88 3d
       0.36888838 -0.61817545 0.17161277 0.06682348
0001f0 3f 34 8f 3e f4 fd 0e 3f ef 6b 30 bf bd 2d f8 be
       0.27969548 0.5585625 -0.68914694 -0.48472396
000200 9e 9f b7 3f 8f 82 9c 3f 31 32 84 3f 70 d5 d5 3f
       1.4345586 1.2227343 1.0327817 1.6705761
000210 80 5c a7 3f c4 6f 4b 3e 74 88 aa 3e 87 9e ee 3e
       1.3075104 0.19866854 0.3330723 0.46605322
000220 78 1a 16 3f 91 d5 9a 3f 5b b2 2c bf 9b 94 46 3f
       0.5863414 1.2096425 -0.6745965 0.77570504
000230 9a be 9b 3e 8f 68 97 3e 05 2e 57 3f c5 74 cd 3f
       0.30418855 0.2957196 0.84054595 1.605126
000240 45 47 3e 3c a1 b3 4d 3e 6b 84 8a bd df 13 4a be
       0.011613672 0.20088054 -0.06763538 -0.19734143
000250 10 85 8d 3f b9 59 3b 3f 49 17 37 3f b1 3e 66 3f
       1.1056232 0.7318378 0.71519905 0.8993941
000260 09 3e 36 3f 81 37 bc 3e 8f 91 61 bf e2 ff 0e be
       0.7118841 0.36761096 -0.8811273 -0.13964799
000270 3e 75 fa be c0 fd 72 be a6 c5 9c be b3 cf c3 3e
       -0.48917574 -0.2372961 -0.30619544 0.382444
000280 1a d5 c6 3e fd a3 b3 bf a2 ff 21 bf e8 3c 0d bd
       0.3883446 -1.403442 -0.6328069 -0.034481913
000290 a1 1c 07 bf f2 de 81 3d ce 22 52 3f cd ff b1 bf
       -0.5277806 0.063413516 0.8208436 -1.3906189
0002a0 19 2c dc be 87 18 4e 3e 93 3e 37 be 95 02 50 3e
       -0.43002394 0.20126544 -0.17894964 0.20313485
0002b0 54 04 a1 be 89 ea ce be 0a 86 af be d2 83 b7 be
       -0.31448615 -0.4041331 -0.3428195 -0.35842758
0002c0 28 4b fc 3d 64 3a c7 be 82 88 31 bf 87 ca 0e 3e
       0.123190224 -0.38911736 -0.6934892 0.13944446
0002d0 a7 a6 90 3e 06 ca 03 3f ec 88 30 3d d5 b9 01 bf
       0.28252146 0.5148014 0.04309933 -0.5067418
0002e0 53 51 12 bf 7f d3 68 3f a9 72 ad bd ea 9f 82 bf
       -0.5715534 0.9094772 -0.08469135 -1.0205052
0002f0 82 ba 5c bf b5 c6 0f be 4d 6f 63 3e d2 e0 4a 3f
       -0.8622209 -0.14040644 0.22210427 0.792493
000300 fc 4f 0b bf 24 d5 a4 bf 83 80 eb 3e 4f d2 89 3e
       -0.5441892 -1.2877545 0.45996484 0.26918265
000310 0e f5 4c bf 6e 14 5e bf b8 b9 ee 3e 7b 6b 99 3e
       -0.80061424 -0.86749923 0.46626067 0.29964814
000320 5f f3 c0 3e e9 07 a0 3e 9d bb 24 3e 98 a5 9d be
       0.37685677 0.31256035 0.16087194 -0.307904
000330 79 b7 cf 3e 74 15 5d bd c5 1f 67 3d d8 99 7f 3d
       0.40569666 -0.053975537 0.056426782 0.062402576
000340 fe 3b d8 bc 48 74 f6 bd f7 18 84 3c a8 7a 18 be
       -0.026395794 -0.12033898 0.016125185 -0.1489054
000350 5c 50 f3 bd 1d 83 00 3e 2b 2c cc bd 2a 42 c6 3d
       -0.11880562 0.12550016 -0.09969362 0.096805885
000360 94 c2 0e be 24 e9 eb bd 8b da 7d 3d d9 df b0 3d
       -0.13941413 -0.115190774 0.061975997 0.086364456
000370 83 60 6e 3e 89 8d d7 3e f7 b2 d5 3e 1d fd 38 3d
       0.23279004 0.4210017 0.41738102 0.045163263
000380 dc f2 85 3e 7a 19 bb 3e 0c 99 8b 3e d6 d7 75 3e
       0.2616185 0.36542875 0.27265203 0.24008116
000390 08 aa c5 3e 4b 28 8a 3e d9 bc 75 3e 75 8b 0a 3e
       0.38606286 0.26983866 0.23997821 0.13529761
0003a0 d6 fa 14 3e 46 9a 01 be ae fa 32 3d 3b a6 42 3d
       0.14548811 -0.12656507 0.043696098 0.04752181
0003b0 83 90 48 3e 63 37 88 3e 3a be 5e be ae 4f c7 3c
       0.19586377 0.26604757 -0.21752253 0.024329986
0003c0 16 1f b6 3d 89 7f 18 be 77 72 40 3d 85 82 9a 3e
       0.08892648 -0.14892401 0.046984162 0.30177703
0003d0 48 38 9b 3d 39 ae e2 bd d5 34 52 be c4 b8 66 3e
       0.07579094 -0.110683866 -0.20527966 0.2253142
0003e0 4f 78 af be 5c 8e f9 3e 66 d1 23 3e 74 3d db be
       -0.34271476 0.48741424 0.15997848 -0.42820323
0003f0 a2 1f 47 be 29 72 1e 3f 26 bd 7c 3e 10 de e2 3e
       -0.1944566 0.61892945 0.2468153 0.44310045

weight_hh_l0 f4 [96, 32]
000000 e9 30 db 3d 01 15 0a 3f f1 7a 4b 3f 28 9a fa 3e
       0.10702688 0.539383 0.7948447 0.48945737
000010 e1 27 23 3e a0 15 2f 3f cc f8 2a c0 66 dd ce be
       0.15933181 0.6839237 -2.6714354 -0.4040329
000020 b3 18 83 3f b6 63 ff be f5 a1 24 3f 4a fc b5 3e
       1.0241913 -0.4988076 0.64309627 0.35544044
000030 91 d4 50 bd 83 dd 03 bf 37 05 c0 3f 21 4f 09 3f
       -0.05098397 -0.51509875 1.5001591 0.53636366
000040 8f 14 3e be 83 73 a5 3e c2 e4 80 3e 5b e7 f4 3d
       -0.1856253 0.3231469 0.25174528 0.1195819
000050 58 b0 81 3f 21 d9 bd 3e ca 26 b0 3f 08 db f6 be
       1.0131941 0.3707972 1.3761837 -0.48213983
000060 49 9c 43 3e 70 24 63 bf 63 9e 6a be 6c 17 1c bf
       0.19102587 -0.88727474 -0.22911982 -0.6097324
000070 73 13 a4 be fb 73 5c bf fd 75 34 3d 29 00 25 bf
       -0.3204609 -0.8611447 0.044057835 -0.6445337
000080 76 1c 9b 3e 85 33 fd 3d b7 f6 0d 3f e0 08 d3 bf
       0.3029515 0.12363342 0.5545458 -1.6487083
000090 01 d6 7c 3f b9 8f 04 bf f6 70 90 3f 0d fd 8f 3d
       0.98764044 -0.51781803 1.1284473 0.070306875
0000a0 e9 39 82 3c 13 4f 97 be e4 42 14 3f a5 c2 b0 3e
       0.015896754 -0.29552516 0.57914567 0.34523502
0000b0 be c4 dc bf f7 ce f9 be 56 06 5d bf 98 0e 83 3f
       -1.7247541 -0.48790714 -0.8633779 1.0238829
0000c0 11 7c fe bf cd 97 f8 3e 41 db f2 3e 36 17 0b 3e
       -1.9881612 0.48553315 0.47432902 0.13583073
0000d0 13 7a 77 3f 14 d2 73 3c 79 7a cd 3c 1e da b7 3e
       0.96670645 0.0148816295 0.025082814 0.35908598
0000e0 a4 f1 3d bf b1 eb 81 3e 00 95 89 be d9 f7 26 bf
       -0.7419684 0.2537513 -0.2687149 -0.65221936
0000f0 88 0e 22 3d de b9 8c 3c da 83 86 be 3a cd 13 bf
       0.03956464 0.017178472 -0.2627247 -0.57735026
000100 ac 41 e6 3e 10 a6 8d 3e ea 02 a2 bc 66 d8 b8 be
       0.4497198 0.27665758 -0.01977678 -0.361026
000110 36 5d c3 be 2d f3 aa bf df 8f db bd f2 d9 37 3f
       -0.38157052 -1.3355461 -0.107208006 0.71816933
000120 f4 da 87 bd 47 d3 d4 be b9 a8 03 bf ed 73 76 be
       -0.06633559 -0.41567442 -0.51429325 -0.2406766
000130 47 44 85 be 89 4b 06 bf 10 8d 04 be 93 2b 90 bb
       -0.26028654 -0.5245901 -0.12944436 -0.0043997257
000140 f4 6d da 3e 2b cf bf 3e 8b b6 a3 bf e3 53 28 3f
       0.42662013 0.37462744 -1.2790083 0.65753
000150 00 bb c0 3f 61 a1 b2 3e e7 13 f5 3f 65 fd 08 3f
       1.5057068 0.34888747 1.9146699 0.5351165
000160 07 19 40 bf de 0e a0 3d d4 75 44 3d 17 e7 84 bd
       -0.7503819 0.07815336 0.047963932 -0.064893894
000170 bf 14 94 bf 76 96 6c 3f c3 21 85 bf 8f 99 e8 3e
       -1.1568831 0.92417085 -1.0400928 0.45429656
000180 05 39 96 bf 45 2b 09 3f db 45 93 bf 2c 1d ee 3f
       -1.1736151 0.5358165 -1.1505693 1.8602653
000190 2d 13 c4 bf 37 cd 10 3f 06 8e 55 bf 13 0a 5e 3f
       -1.5318352 0.56563133 -0.83419836 0.8673412
0001a0 1b a3 26 3f 32 66 6c 3f 69 50 14 3f f7 d0 35 be
       0.6509263 0.9234344 0.57935196 -0.17755495
0001b0 f6 c2 2f bf e3 43 6a 3c d6 26 5d 3f a4 57 8b be
       -0.6865686 0.014298412 0.86387384 -0.27215302
0001c0 b7 11 be bc b2 e2 71 bf 3a 6b a2 3b a3 39 e6 be
       -0.023201806 -0.94486535 0.00495663 -0.44965848
0001d0 f2 0c 8e be 9f d4 1f bf 1d 91 57 bd 26 61 5a be
       -0.2774425 -0.6243381 -0.052628625 -0.21326122
0001e0 a2 06 b2 3d 38 04 1e 3e 94 4d 22 bf 9d b6 b9 bf
       0.08692671 0.15431297 -0.63399625 -1.4508854
0001f0 a9 aa 37 3d 2f 44 9c 3e c7 99 0b 3f 0a 4d 15 3f
       0.04484049 0.3052077 0.5453152 0.5832068
000200 47 a0 21 be 78 42 83 be 21 03 ef 3d df d7 ac 3f
       -0.15783797 -0.2563665 0.11670519 1.3503379
000210 6d 8c b9 3e 34 b1 15 3f 76 11 5d bf a9 c8 b9 be
       0.3623995 0.58473516 -0.8635477 -0.36285904
000220 2d 92 2a 3f ed bb ed bd 72 50 f5 3d 67 6d 2d 3f
       0.66629297 -0.116081096 0.11978234 0.6774506
000230 f7 ba f4 3e 0a 0f 7a 3b 88 3a a5 3e 10 e9 a9 bf
       0.47798893 0.0038155937 0.32271218 -1.327425
000240 4e 50 bc be 89 90 0c 3e df dd eb 3e eb b4 1c bf
       -0.36780018 0.13727011 0.46067712 -0.6121356
000250 0d 63 03 bf 36 7b 49 3e da 11 60 3c 13 a8 13 bf
       -0.51323014 0.19675907 0.013676131 -0.57678336
000260 a1 2b ff be aa 5b 31 bf 70 87 00 3d 4d 6b 5a bf
       -0.49837974 -0.69280493 0.031379163 -0.8531998
000270 a7 a4 ba 3f 8a e4 30 be e5 45 d9 3c a8 34 3b 3f
       1.4581498 -0.1727468 0.026522586 0.7312722
000280 4c a9 f4 be 97 16 4d be 6b 67 18 c0 21 0c 17 3f
       -0.47785413 -0.20028149 -2.3813121 0.5900288
000290 79 14 f1 bf 31 a4 57 3f 5a ab 06 c0 14 0b 83 3f
       -1.8834373 0.8423491 -2.1042085 1.0237756
0002a0 1d a1 b3 3e a7 17 76 3c 90 b0 a7 be 70 16 b8 be
       0.35083857 0.015020288 -0.32751894 -0.35954618
0002b0 73 5e 5d bf f0 6a b3 3f 63 76 51 be 3c 3a d9 bf
       -0.86472243 1.401701 -0.20455317 -1.6970897
0002c0 9b f7 48 be b0 42 e3 3e 44 79 64 bf 09 4f 1b bf
       -0.19625704 0.44386816 -0.89247537 -0.60667473
0002d0 d4 aa c9 3e 32 bb 81 bf ca 8c be bd ef 73 1f 3e
       0.39388144 -1.0135252 -0.09304197 0.15571569
0002e0 b3 77 56 bd 4f 58 fa 3e 46 df 49 bf ca f3 18 be
       -0.052360248 0.488955 -0.78856313 -0.14936748
0002f0 11 a4 93 3e 60 53 75 bf d3 d3 88 3f 8b 7f 79 3f
       0.2883611 -0.95830345 1.0689644 0.9746024
000300 ec 52 8d 3d 0d 84 2b 3f 00 6e 84 3f 9e 43 5a 3f
       0.06900582 0.6699837 1.0346069 0.85259426
000310 51 25 25 be 3d 5e cf 3e be 78 5a 3e 9f 6a 50 be
       -0.16127516 0.40501586 0.21335122 -0.20353173
000320 94 4f 8c 3e 42 1a d1 be 0f 85 14 bf 29 25 7d 3e
       0.27404463 -0.40840346 -0.5801553 0.24721207
000330 f0 4a 1b bf c9 51 e0 be 0d d5 ab bd 34 65 66 be
       -0.6066122 -0.43812397 -0.083902456 -0.22499543
000340 9b cf 28 3e 3b 72 68 be ac 30 61 3e 2a 7a a0 3c
       0.16485445 -0.22699825 0.21991223 0.019589502
000350 5a 68 7c bf 72 8d 10 be b5 c3 0c bf 93 28 55 bf
       -0.9859673 -0.14116457 -0.54986125 -0.83265036
000360 03 a0 3e bf 5f 9c 35 be bd ec 25 bf 1e ca a6 3f
       -0.7446291 -0.17735432 -0.6481436 1.3030431
000370 53 e1 d6 3e 99 79 d2 3e d5 96 5d 3e 57 58 e4 3f
       0.41968784 0.41108397 0.21639569 1.7839459
000380 38 78 c9 3e ec 59 28 3f 3d d7 fe be db 96 ae 3d
       0.39349532 0.6576221 -0.4977359 0.08524867
000390 08 79 fb be dc e6 82 bf d2 cf f5 be fa d0 02 bf
       -0.49115777 -1.0226703 -0.48010117 -0.5110012
0003a0 03 ba 7a 3f 40 f5 6c bd e0 98 20 3f b6 be 1e bf
       0.9794008 -0.057851076 0.6273327 -0.6200975
0003b0 23 24 ba 3f fa 80 05 be a5 1b 30 3e 09 12 1e 3f
       1.4542278 -0.13037482 0.17198046 0.6174627
0003c0 36 50 a4 be a1 57 56 3f 8c 18 80 be 95 62 7e be
       -0.32092446 0.8372746 -0.25018728 -0.24842294
0003d0 56 31 30 3f c6 1e cd 3e 2e 66 56 bd 40 02 06 3f
       0.6882528 0.4006254 -0.05234354 0.52347183
0003e0 b3 c3 9b be cc f8 18 3f c0 2a bb 3d e0 f1 08 be
       -0.30422744 0.59754634 0.09139013 -0.13373518
0003f0 32 d1 89 3f 47 cc 25 bf 66 55 36 3e df 61 83 3f
       1.0766966 -0.6476483 0.17806014 1.0264243

bias_ih_l0 f4 [96]
000000 80 90 5f 3d ac 10 2e 3e ca 2a 97 3d 3a a3 68 3e
       0.054581165 0.16998547 0.07381208 0.22718516
000010 61 57 30 bf 4e 7c 6e 3e 46 b8 72 3e 03 46 a1 3e
       -0.6888333 0.23289606 0.23703107 0.31498727
000020 95 27 06 be fe 0a ac 3e 51 23 21 3e b2 58 cc 3b
       -0.13101037 0.33602136 0.15736128 0.0062361592
000030 73 db ff be 1e 9c 8a bd 71 73 33 be a9 2d a4 3d
       -0.49972114 -0.06768058 -0.17524506 0.080165215
000040 e5 fa 2f 3f 96 65 4e 3e ef f5 0e 3f 59 0c b3 3e
       0.6874221 0.2015594 0.55844015 0.34970358
000050 e2 c0 e9 bd de 98 f6 3e f5 51 ec bd 7f 0f e7 bb
       -0.114137426 0.48163503 -0.115390696 -0.007051408
000060 3a 1f 2b bd 73 1e cb be a9 70 bc be 07 71 1f bf
       -0.041777827 -0.39671668 -0.36804703 -0.6228184
000070 c4 49 3d bc e2 b7 d5 bc a0 6a 9b be 13 88 b0 bd
       -0.011553232 -0.026088659 -0.30354786 -0.08619704
000080 31 9e dd 3e 1a 8e 09 3f 4d a7 1e bd 20 e6 c4 3e
       0.43284753 0.53732455 -0.03873377 0.3845682
000090 ac 46 e4 3c d4 4e 94 3e fc 13 67 3f d4 72 9e 3b
       0.02786573 0.2896639 0.9026487 0.004835466
0000a0 86 17 47 bf df aa 09 bf 15 1e af bf 51 e8 3f 3f
       -0.7777027 -0.53776354 -1.3681055 0.7496386
0000b0 af 20 67 bf 9d a9 aa 3f ba 40 00 3f 8c 55 95 3e
       -0.90284246 1.3333012 0.50098765 0.2916683
0000c0 27 36 1b bf 06 42 0d bf 20 88 1b 3e 66 bc 8a 3f
       -0.60629505 -0.5517887 0.15188646 1.0838745
0000d0 47 1a 19 bc 3a 48 51 3e 06 74 24 bf 1f db eb 3d
       -0.009344644 0.20437708 -0.6423954 0.115164034
0000e0 b7 b5 5a bf 1e 61 00 bc af 59 8e 3f c5 87 a3 3e
       -0.85433525 -0.007835655 1.1121119 0.3193952
0000f0 64 25 36 be d0 18 44 be c5 ea a2 3f 99 35 65 bf
       -0.17787701 -0.1915009 1.2727896 -0.8953491
000100 a5 82 d1 be c5 a2 dc 3d 55 44 97 3e 0f b0 c5 be
       -0.40919986 0.10773233 0.2954432 -0.38610885
000110 a2 96 ed bd 18 05 fa be 06 70 cc be 10 fd 3a 3e
       -0.116009966 -0.4883201 -0.39929217 0.18260598
000120 9a f2 81 3e f5 48 9e 3e fc b6 f1 3d 68 4e 32 3f
       0.25380403 0.30915037 0.118024796 0.6965089
000130 fb ac 86 be 5b fe ad bd 92 22 cd bd ee 59 1e bf
       -0.2630385 -0.0849578 -0.100163594 -0.6185597
000140 c2 36 c8 be da b0 30 3e f3 56 8d be dd 6c e6 be
       -0.39104277 0.17254964 -0.276054 -0.4500493
000150 81 41 c1 3e 20 cb 37 bf fa 26 8b 3e f5 57 c7 3e
       0.37745288 -0.7179432 0.27178174 0.38934293
000160 af 6c a4 3d 2d 3e 6b be fa 6b 1c bf 3b 37 32 bf
       0.08028542 -0.22972937 -0.6110226 -0.69615525
000170 a8 78 c0 bd 8e 3b 28 be aa 72 94 3d 49 f9 91 3e
       -0.09398013 -0.16428968 0.07248433 0.28510502

bias_hh_l0 f4 [96]
000000 fb 3b e2 bb 44 c1 06 be ca dc 54 3e 82 6a 99 3e
       -0.006904123 -0.13159662 0.2078735 0.29964072
000010 43 ca 3d bf c7 c0 ec 3d 04 bb 77 3e 93 61 20 3e
       -0.7413675 0.11560207 0.24192435 0.15662222
000020 7c 7b 1c be fa 05 34 3e 8b 7c 88 3e 74 af 2b bd
       -0.1528148 0.17580405 0.2665752 -0.041915372
000030 b8 47 e8 be 57 31 b6 be af 75 17 bd 27 b7 d1 bd
       -0.45367217 -0.35584518 -0.036977466 -0.10240012
000040 19 a9 12 3f 6a aa 06 3d 12 8d f7 3e d4 2c 03 3f
       0.5728927 0.032877363 0.48349816 0.5124028
000050 e6 5f 12 be ac 67 9b 3e 2a 00 05 3e ed 15 6a bd
       -0.14294395 0.30352533 0.12988344 -0.057149816
000060 23 87 23 3e c9 fd b7 be 64 53 16 bf 2c a0 15 bf
       0.1596952 -0.3593581 -0.58720994 -0.5844753
000070 f5 13 55 bd 48 5f 84 bd 7d ba ee be 90 94 a5 be
       -0.052020986 -0.06463486 -0.46626654 -0.32339907
000080 0a 7a 2f 3e 30 b2 f7 3e 6a 51 40 be 80 2c d2 3e
       0.17136398 0.48378134 -0.18781057 0.41049576
000090 7d 86 cb bd d7 25 6d 3e b1 71 41 3f 89 61 d1 bc
       -0.09937761 0.23158966 0.75564104 -0.025559204
0000a0 1d ec 53 bf d6 ab 06 bf 7a 50 9b bf 01 c5 29 3f
       -0.82782155 -0.5260595 -1.2133934 0.6631623
0000b0 06 2a 4e bf f1 43 a7 3f 4a 5a 0e 3f 50 6f 0b 3e
       -0.8053287 1.3067609 0.5560652 0.13616681
0000c0 9c 5b e9 be 3e 5a 34 bf f1 b3 94 3e ae 82 9b 3f
       -0.45577705 -0.704502 0.29043534 1.2149255
0000d0 aa 00 e3 3d 16 ca be 3d e2 7a 24 bf 48 33 9b 3d
       0.11084111 0.093158886 -0.64250004 0.075781405
0000e0 3e 06 44 bf 25 cb e4 bd 28 57 9a 3f b5 45 98 3e
       -0.76572025 -0.11171559 1.2057848 0.29740682
0000f0 58 69 d6 be 95 9c 40 be 9a 9f b3 3f 8c d6 41 bf
       -0.41877246 -0.18809731 1.4033082 -0.75718
000100 46 1d 2c bf e6 67 93 3e 72 31 c2 3e 51 d2 ab be
       -0.6723217 0.28790206 0.3792835 -0.33558896
000110 3f d2 4f bd cf df b1 be 23 49 f1 bd f9 0e 09 3f
       -0.050737616 -0.34741065 -0.11781528 0.5353847
000120 ab ab c0 3b 00 07 4e bd d8 a6 c5 3e 14 29 59 3f
       0.0058798394 -0.050299644 0.38603854 0.84828305
000130 6b c9 93 3d 80 62 42 3e d4 fc 00 be 9d 79 33 bf
       0.07216152 0.18982887 -0.12596446 -0.7010744
000140 33 86 43 bf 30 d8 49 3d 00 25 59 bf 52 ec 4f bf
       -0.76376647 0.049278438 -0.8482208 -0.8121997
000150 bf 4c 0c 3f e3 f0 8e bf d4 7f 01 bf b7 1f 12 3f
       0.54804605 -1.1167263 -0.50585675 0.57079643
000160 de ad 18 bf d3 55 c5 3e ad fa 22 be 5a b8 7d be
       -0.596403 0.3854204 -0.15915938 -0.24777356
000170 cd 6a ea 3d d3 7e 11 be 2c 38 aa 3d 00 a4 f9 bd
       0.11446152 -0.14208536 0.08311495 -0.12189484

weight f4 [4, 32]
000000 20 f9 82 3c 65 65 61 3e b6 ed cb 3e 3f 02 74 be
       0.015987933 0.22011335 0.39829797 -0.23828982
000010 7c 75 f3 bc 65 2e 9d bf 2f 40 14 be 83 73 35 3e
       -0.029719107 -1.2279783 -0.14477609 0.17719845
000020 fd 62 67 bb 42 5a 7c 3d ef 75 ec bd 09 a0 f8 3e
       -0.0035306804 0.061609514 -0.115459315 0.48559597
000030 a9 42 71 bd 89 f3 ba be 02 31 4b bd 03 b8 8b 3e
       -0.058901463 -0.36513928 -0.049607284 0.27288827
000040 94 47 96 bc 80 c4 a3 3d 89 30 8a bc ef fe 2e 3f
       -0.018344678 0.07996464 -0.016868846 0.6835775
000050 d9 27 6a 3e 7e f4 a1 3d ad 6d 56 3e 50 aa 37 3e
       0.22866763 0.07907961 0.20940275 0.17936063
000060 bb e2 8a 3d 53 5c 16 3e eb 7e 2e 3d 0d 07 30 be
       0.06781527 0.14683656 0.042601507 -0.1719019
000070 cb f6 9e bd 01 f1 54 3e 2b d7 78 bd 50 f2 ed bd
       -0.07761916 0.2079506 -0.060752075 -0.11618483
000080 dd 80 27 bf b2 c9 fa 3e cc 88 fd 3d cf 60 52 3e
       -0.65431005 0.48982006 0.123796076 0.20544742
000090 67 dc 0e 3d 70 e6 9d 3e 4b 64 bc bb a7 c4 4f 3e
       0.03487816 0.30839872 -0.0057492605 0.2028986
0000a0 4e 7a b3 bc 3e 6d f4 3d 9c fb a3 bd 25 e8 76 be
       -0.021908905 0.11934899 -0.08006975 -0.24111994
0000b0 13 ff f1 bd f1 cb 48 be 82 94 77 be 74 b4 a3 be
       -0.1181623 -0.19609047 -0.24177745 -0.31973612
0000c0 f6 fc 10 bc 9d fe 61 3d 49 23 07 bd 70 d8 cd be
       -0.008849373 0.05517446 -0.032992635 -0.4020419
0000d0 05 0f 44 3e a8 7c 35 bd 41 8d 3c 3e 7b e0 1f 3d
       0.19146354 -0.044308335 0.18413259 0.03903244
0000e0 7f 1d b5 bb a8 49 e1 3d ce 92 c8 be 6c 91 cc 3d
       -0.005527198 0.11000377 -0.39174503 0.099886745
0000f0 a3 3e 10 be d3 22 8c be 6c 17 1a bd ba 43 97 3e
       -0.14086394 -0.2737032 -0.037619993 0.2954386
000100 ba ed 79 3e 88 3e bc be 28 05 29 be 86 2a 78 bf
       0.24407092 -0.36766458 -0.16505873 -0.96939886
000110 f6 11 9b bd 6b ff a8 3e ed ef a5 3e 57 88 e3 3c
       -0.07571785 0.33007368 0.3240961 0.027774973
000120 cc d1 93 3c bf fe 74 3d f3 b8 ee 3b 27 a9 9b 3b
       0.018044375 0.059813257 0.0072852313 0.004750389
000130 a2 52 95 bc 96 00 20 3f 6f 9a 9e be d8 63 bd be
       -0.018227879 0.62500894 -0.30977198 -0.36990237
000140 1b 7d 8e bd d2 c9 b6 3d de 6f 0f 3d 32 79 8e be
       -0.06957456 0.08925213 0.035018794 -0.2782684
000150 10 29 65 3d 34 b5 ba bd 35 64 a7 be 7a db 4d 3d
       0.055947363 -0.09116593 -0.3269364 0.050258137
000160 a9 85 c1 bc be 41 da 3d 3d b6 5a 3f ff 61 c8 3e
       -0.023623304 0.106570706 0.85434324 0.39137265
000170 7e 72 fa bd c8 31 c0 3e 93 5b dc bc 8f 86 b4 3d
       -0.12228869 0.3753798 -0.026899135 0.088147275
000180 bb 7d c5 3e 2c 4b af bd eb 72 29 bf b1 c5 8b 3f
       0.38572487 -0.0855926 -0.66190976 1.0919706
000190 2e 16 66 be 3d cc 53 3e 04 e7 36 3e 12 e8 88 be
       -0.22469398 0.2068338 0.17861563 -0.26739556
0001a0 73 56 78 bc 58 0a 00 3d ef 00 17 be 0d dc c8 be
       -0.01515733 0.031259865 -0.1474645 -0.39230385
0001b0 ec 5f 64 3b cb e8 be be 73 b2 ff 3e a6 b3 28 3f
       0.0034847213 -0.37286982 0.49940833 0.6589912
0001c0 72 47 19 bd f7 49 de 3d ce 1e 21 bd 38 e1 e7 3a
       -0.03742165 0.108539514 -0.03933602 0.0017691022
0001d0 33 27 43 be 90 09 1f bc bd 04 fe 3d 87 31 c1 3d
       -0.19057922 -0.00970687 0.124032475 0.09433275
0001e0 53 e0 57 3d c5 a7 de 3b db 9b 13 bf 49 0f 06 be
       0.052704167 0.006794902 -0.5765969 -0.13091768
0001f0 a2 d4 b9 bd 27 72 45 bd 45 a4 2f bd a3 29 81 3c
       -0.090737596 -0.048204567 -0.04288127 0.015766924

bias f4 [4]
000000 31 b6 37 3e 53 97 04 3e bd 5c 80 be 7d 01 ad 3d
       0.17940594 0.1294835 -0.25070754 0.084475495
