histories_cls/GRU_BcicIv2a_pt/49.28%_bs=064_lr=0.0065_ld=0.999919_nl=1_hc=032_do=0.16/best_valid_acc.pt (torch, 25541 bytes, 6 tensors)

weight_ih_l0 f4 [96, 22]
0	0xbf79a262	-0.975134
1	0x3ed91bd5	0.42404047
2	0xbe1cf7c0	-0.15328884
3	0xbeb6f87a	-0.35736448
4	0xbee0320e	-0.4378819
5	0x3ed22552	0.41044098
6	0x3f45ef22	0.7731801
7	0xbe5e32c3	-0.21699052
8	0xbd83319f	-0.06405949
9	0x3e40d4f9	0.18831243
10	0xbe16408a	-0.14673057
11	0x3e45b3f7	0.19306932
12	0x3f81ffd7	1.0156201
13	0x3d9581f7	0.073001795
14	0x3ebd665b	0.36992154
15	0x3ee9c2e4	0.45656502
16	0x3f0575cf	0.52132887
17	0x3ed2c0b7	0.41162655
18	0xbead4323	-0.33840284
19	0x3e754b91	0.23954608
20	0x3e2cb1ce	0.16864702
21	0x3eb53211	0.3538976
22	0x3f4be450	0.7964525
23	0x3e05bb8c	0.13059825
24	0x3e559a3d	0.20859618
25	0x3f68aead	0.90891534
26	0x3f89766e	1.0739267
27	0x3facdb55	1.3504435
28	0x3ec666b3	0.38750228
29	0x3ce16a74	0.027516581
30	0x3e97e5ba	0.29667455
31	0x3f92aa02	1.1458132
32	0x3f2d23bf	0.6763267
33	0x3ebcaa00	0.3684845
34	0x3e0474df	0.12935208
35	0x3f2676cb	0.65025014
36	0x3e9b85dd	0.30375567
37	0x3edb6c8e	0.42856258
38	0x3effb6b7	0.49944088
39	0x3dfffcdf	0.12499403
40	0x3ead2169	0.33814552
41	0xbdea7e89	-0.11449916
42	0xbeac8259	-0.33693197
43	0xbf028c52	-0.5099536
44	0xbead7b52	-0.33883148
45	0x3e1bee2d	0.15227576
46	0xbf29ad92	-0.6628047
47	0xbf9ee585	-1.2413794
48	0xbf274ca7	-0.6535134
49	0x3d63b2bb	0.055590373
50	0x3d92be8a	0.07165249
51	0x3ecaf466	0.39639586
52	0xbd540149	-0.051759038
53	0xbe85286d	-0.26007405
54	0x3e3d464b	0.18483846
55	0x3f457c96	0.7714323
56	0xbf226ab8	-0.6344409
57	0x3ea72cc5	0.32651344
58	0x3e89653c	0.26835048
59	0xbc49e0a1	-0.012321622
60	0x3e5a905e	0.21344134
61	0x3b333f3f	0.002735093
62	0x3f1877cd	0.595578
63	0xbc6dd944	-0.014517132
64	0xbda64991	-0.081195004
65	0xbfa77c17	-1.3084744
66	0x3f5517d2	0.8323947
67	0xbfb0194d	-1.3757721
68	0xbf589d51	-0.84615046
69	0x3d8a02c8	0.06738812
70	0xbf8120e7	-1.0088166
71	0x3f0d8c07	0.5529179
72	0xbf805968	-1.0027285
73	0xbfd87fd1	-1.6914006
74	0xbf9b119d	-1.211475
75	0xbf214b04	-0.6300509
76	0xc02338d3	-2.5503433
77	0xc0027019	-2.038092
78	0xbdc6e702	-0.0971203
79	0xbf2e26d0	-0.68027973
80	0xbec97fa9	-0.3935521
81	0xbf1b1be0	-0.6058941
82	0xbfa93f62	-1.3222468
83	0xbfb9a2b5	-1.4502779
84	0xbe3da9dc	-0.18521827
85	0x3d46ea58	0.04856333
86	0xbe19529b	-0.14972918
87	0x3f38f599	0.7224975
88	0xbf8945da	-1.0724442
89	0xbe9dd70a	-0.30828124
90	0xbfd234df	-1.6422385
91	0xbfb54917	-1.416293
92	0xbf76878c	-0.9630058
93	0xbf572dc8	-0.8405423
94	0xbf83122c	-1.0239921
95	0xbeb342aa	-0.35011798
96	0xbf8b6e59	-1.089305
97	0xbf7d7ccc	-0.9901855
98	0xbf9f2ed6	-1.2436168
99	0xbee28d68	-0.4424851
100	0xbf0f122c	-0.55887103
101	0xbf4b4044	-0.79394937
102	0xbf9a612d	-1.2060906
103	0xbfa862d1	-1.3155156
104	0xbfa39379	-1.277938
105	0xbf28cf74	-0.6594155
106	0xbfaf70d5	-1.3706309
107	0xbf9dc9ce	-1.2327211
108	0xbf4cf27a	-0.8005749
109	0xbf40f44f	-0.75372785
110	0x3ed92a23	0.4241496
111	0xbef82412	-0.4846502
112	0x3e4a3277	0.19745813
113	0x3f818fa6	1.0121963
114	0x3f5b0c95	0.85566074
115	0x3eac9c37	0.33712932
116	0xbf51325c	-0.8171747
117	0xbf28ea83	-0.65982836
118	0x3f3cff9e	0.7382754
119	0x3f71cf14	0.944566
120	0x3d7349af	0.059396442
121	0xbf45daad	-0.772868
122	0x3e8a17d3	0.269713
123	0x3d3136b6	0.043265067
124	0x3e5f7189	0.21820654
125	0x3ec7c556	0.39017743
126	0xbf70d1b1	-0.94069964
127	0xbf22f185	-0.6364978
128	0x3fa9b84d	1.3259369
129	0x3f9c4042	1.220711
130	0x3f8773c9	1.058221
131	0x3fdc4d6f	1.7211131
132	0x3f86c801	1.0529786
133	0xbe0f5e51	-0.14000823
134	0x3dfc4ccb	0.123193346
135	0x3f01bfd6	0.50683343
136	0x3f59884d	0.84973603
137	0x3fd87afe	1.6912534
138	0xbf63fb28	-0.8905511
139	0x3e5540c8	0.20825493
140	0xbd9b6c11	-0.075889714
141	0x3ea8a86a	0.3294099
142	0x3f6d8d58	0.927938
143	0x3fe50c80	1.789444
144	0x3e95df9f	0.29272172
145	0xbe60eec1	-0.21966077
146	0xbea5f21a	-0.3241127
147	0xbd58d117	-0.05293378
148	0x3fae2f93	1.3608268
149	0x3f91a6a8	1.1378984
150	0x3f3961f3	0.72415084
151	0x3f9df76e	1.2341135
152	0x3f8b3f22	1.0878642
153	0x3eae11a0	0.33997822
154	0xbf832097	-1.0244321
155	0xbd9d2ea3	-0.07674911
156	0xbf00cba9	-0.5031076
157	0xbec32849	-0.38116673
158	0xbeda9460	-0.42691326
159	0x3e97dba6	0.29659766
160	0x3ec9c7d7	0.39410278
161	0xbfacddbd	-1.3505169
162	0xbf1956df	-0.5989818
163	0xbd8b9897	-0.068162136
164	0xbf084010	-0.5322275
165	0x3c62b683	0.0138374595
166	0x3f58d7eb	0.84704465
167	0xbfae16d1	-1.3600713
168	0xbecb8744	-0.39751637
169	0x3e76ad58	0.24089563
170	0xbe344675	-0.17605002
171	0x3dd1fef5	0.10253707
172	0xbe8d0041	-0.27539256
173	0xbec4b5bd	-0.38419905
174	0xbe8f9e2d	-0.28050366
175	0xbebfccd2	-0.37460953
176	0x3e1df38f	0.15424941
177	0xbed1ba1e	-0.4096231
178	0xbf35fb72	-0.710868
179	0x3e1f5279	0.15558805
180	0x3eb93d1f	0.36179444
181	0x3f268cc5	0.6505855
182	0x3e140bb2	0.14457586
183	0xbec1f5dd	-0.3788289
184	0xbedf8069	-0.43652657
185	0x3f861e58	1.047801
186	0x3cb0b2d9	0.021569656
187	0xbf70dbfb	-0.94085664
188	0xbf2c3551	-0.67268854
189	0x3e16be73	0.14721088
190	0x3eea512a	0.45765048
191	0x3f6f039a	0.9336487
192	0xbeadda5f	-0.33955666
193	0xbf937d91	-1.1522695
194	0x3f1a4ceb	0.6027362
195	0x3ebc8fb0	0.36828375
196	0xbf0a763d	-0.5408667
197	0xbf27af78	-0.6550212
198	0x3ec1c26d	0.37843648
199	0x3e5ab9e9	0.21359982
200	0x3e916a23	0.28401288
201	0x3e6d9bf9	0.2320403
202	0x3d9d683c	0.07685897
203	0xbec7a79f	-0.38995072
204	0x3ea2559c	0.3170594
205	0xbe0f9f92	-0.14025715
206	0xbd0b782a	-0.034050144
207	0xbccae643	-0.024768
208	0xbde6ce53	-0.11269822
209	0xbe58c1b6	-0.21167645
210	0xbd96a987	-0.073565535
211	0xbe771f55	-0.24133046
212	0xbe564eea	-0.20928541
213	0x3d0355e7	0.032064345
214	0xbe478001	-0.19482423
215	0x3ac754ac	0.0015207729
216	0xbe721494	-0.23640662
217	0xbe589086	-0.21148881
218	0xbd040f8a	-0.03224138
219	0xbbc4a3e8	-0.0060009845
220	0x3e931b0f	0.28731582
221	0x3efe22ac	0.49635828
222	0x3efbf710	0.4921193
223	0x3da48f10	0.080350995
224	0x3e39f37a	0.18159285
225	0x3ec54e58	0.38536334
226	0x3eb1c93c	0.34723842
227	0x3e9fb02e	0.31189102
228	0x3ee6df8a	0.45092422
229	0x3ea9be4e	0.33153003
230	0x3e987f31	0.2978454
231	0x3e5268e1	0.2054782
232	0x3e5c5a2a	0.2151877
233	0xbd5265be	-0.05136656
234	0x3de70cfe	0.11281775
235	0x3df20041	0.11816455
236	0x3e89dcf0	0.26926374
237	0x3eace700	0.3376999
238	0xbe1af3d0	-0.1513207
239	0x3dc3706e	0.09542929
240	0x3e244bbf	0.1604452
241	0xbdabf637	-0.08396571
242	0x3cd8bb99	0.026456641
243	0x3e881a39	0.26582506
244	0x3d6ae935	0.05735131
245	0xbe06ec70	-0.13176131
246	0xbe672bb9	-0.22575273
247	0x3e476a82	0.19474223
248	0xbec63d7a	-0.38718778
249	0x3ef0b867	0.47015688
250	0x3e12e141	0.1434374
251	0xbee84246	-0.45363063
252	0xbe5b476f	-0.21413969
253	0x3f1bb3c1	0.6082116
254	0x3e55f93f	0.20895861
255	0x3ed952a4	0.42445862

weight_hh_l0 f4 [96, 32]
0	0x3e39a27d	0.1812839
1	0x3f575f90	0.8413019
2	0x3f348ffd	0.7053221
3	0x3f4867f9	0.7828365
4	0x3f26db02	0.6517793
5	0x3f96b180	1.1772919
6	0xc02e8d31	-2.7273676
7	0xbe904496	-0.28177327
8	0x3f99bb01	1.2010194
9	0xbe983011	-0.29724172
10	0x3f080c63	0.531439
11	0x3c578c7e	0.013156055
12	0xbcd14d77	-0.025549633
13	0xbdc245e6	-0.09485988
14	0x3fa3ca0b	1.2796034
15	0x3ee2e001	0.44311526
16	0x3dcf641e	0.10126518
17	0x3f18216a	0.59425986
18	0x3e77944d	0.24177666
19	0xbea9d518	-0.3317039
20	0x3f7880b3	0.9707138
21	0xbe068069	-0.13134922
22	0x3ee093d9	0.438628
23	0xbe685180	-0.2268734
24	0xbe5cf456	-0.21577582
25	0xbf29922e	-0.6623868
26	0xbd0e543a	-0.034748293
27	0xbe6c077d	-0.23049732
28	0xbbcae88f	-0.006192274
29	0xbfc32bf2	-1.5247786
30	0xbdc9c6e1	-0.09852386
31	0xbdeb89de	-0.115009055
32	0x3e2367b8	0.15957534
33	0x3d03d856	0.032188736
34	0x3e1b538a	0.15168586
35	0xc017bf7c	-2.3710623
36	0x3f5d7079	0.86499745
37	0xbe7911e5	-0.24323232
38	0x3f2f6922	0.68519795
39	0xbcf9196b	-0.030407628
40	0xbd0f8021	-0.035034303
41	0xbf1d2e29	-0.6139856
42	0x3eeaa643	0.45829973
43	0x3f3acbea	0.729674
44	0xbfcfd9b0	-1.6238308
45	0xbe96b876	-0.29437608
46	0xbf5a6eab	-0.85325116
47	0x3fefa5dc	1.8722491
48	0xbfeea1dd	-1.8643147
49	0x3ec291f0	0.38001966
50	0x3f1e6d13	0.61885184
51	0x3e8ef097	0.2791793
52	0x3f509cdd	0.81489354
53	0x3dd6e33d	0.10492561
54	0x3e1d952b	0.15388934
55	0x3eb14dc0	0.3462963
56	0xbf2c4fe0	-0.6730938
57	0x3d288930	0.041146457
58	0xbdab1ea9	-0.08355457
59	0xbe211837	-0.15731893
60	0x3d6cd71c	0.05782233
61	0x3e40dda3	0.18834548
62	0x3d1de0f2	0.038544603
63	0xbf980499	-1.1876403
64	0x3e050089	0.12988485
65	0x3e2502c9	0.16114344
66	0x3d1381f7	0.036012616
67	0xbedae41b	-0.42752156
68	0xbb358776	-0.002769915
69	0xbf82026a	-1.0156987
70	0x3e85dc4b	0.26144633
71	0x3f545e23	0.8295614
72	0xbe954d10	-0.29160357
73	0xbf0d8478	-0.55280256
74	0xbeb2be78	-0.3491094
75	0xbe90def5	-0.28295103
76	0xbefda4c6	-0.49539775
77	0xbf194067	-0.59863895
78	0x3e3f6913	0.18692426
79	0xbe8be9b8	-0.2732675
80	0x3f61392f	0.8797788
81	0x3e2a5788	0.16634953
82	0xbf938276	-1.1524189
83	0x3e315015	0.17315705
84	0x3fb7e6a1	1.4367257
85	0x3ef34339	0.47512224
86	0x3fdefbbc	1.7420573
87	0x3e98e052	0.29858643
88	0xbf47d096	-0.7805265
89	0x3e0dd39a	0.13850251
90	0xbe63f560	-0.22261572
91	0x3dd77bbf	0.105216496
92	0xbf99eb82	-1.2024996
93	0x3ef42b09	0.47689083
94	0xbf959863	-1.168713
95	0x3f3d3c34	0.7391999
96	0xbf9bf943	-1.2185444
97	0x3e83dfb7	0.25756618
98	0xbfedbce0	-1.8573265
99	0x40089867	2.134302
100	0xc00f4c2d	-2.2390244
101	0x3f2450f2	0.6418601
102	0xbeec52ef	-0.46157023
103	0x3f3d56bf	0.7396049
104	0x3f49a844	0.7877238
105	0x3f633191	0.8874751
106	0x3dce166c	0.100628704
107	0xbe18fc98	-0.14940107
108	0xbf132eae	-0.574931
109	0xbe89be83	-0.2690316
110	0x3f1b2044	0.6059611
111	0x3dcdec17	0.10054796
112	0x3e6f9dce	0.23400041
113	0xbf48a1e2	-0.78372014
114	0xbe1d4498	-0.15358198
115	0xbf233846	-0.6375774
116	0xbe58d4ed	-0.21174975
117	0xbe978070	-0.29590178
118	0x3f8c0fc5	1.0942312
119	0xbc81e987	-0.015858425
120	0x3e11232b	0.14173572
121	0x3ed2e1e6	0.41187972
122	0xbe94afdc	-0.2904042
123	0xbfcc3875	-1.5954729
124	0x3eb4489e	0.35211653
125	0x3dba2517	0.090891056
126	0x3f3a3b36	0.727466
127	0x3f20ffd5	0.6289037
128	0xbe34f8b4	-0.17672998
129	0xbedd01fe	-0.43165582
130	0x3e31dfd1	0.17370535
131	0x3f11eb75	0.56999904
132	0x3ebc6189	0.36793163
133	0x3ee1b764	0.44085228
134	0xbf1f4be7	-0.6222519
135	0xbe97f5c9	-0.29679707
136	0x3f202b2d	0.6256588
137	0xbdabf9a5	-0.08397225
138	0xbd9a018b	-0.075198255
139	0x3f393c9c	0.7235811
140	0x3e988107	0.2978594
141	0x3cb19258	0.021676227
142	0x3dc35b60	0.09538913
143	0xbfa7c145	-1.3105856
144	0xbeca3881	-0.39496234
145	0x3e737489	0.23774923
146	0x3e6cc4da	0.23121968
147	0xbe56b579	-0.20967664
148	0xbec5aae4	-0.38606942
149	0x3e5aad24	0.2135511
150	0xbee9d98e	-0.45673794
151	0xbf0e0dc0	-0.5548973
152	0xbf17608c	-0.59131694
153	0xbf1faa28	-0.6236901
154	0x3c38de7e	0.011283515
155	0xbf8a2d68	-1.0795107
156	0x3fbfeb5b	1.49937
157	0xbd9471d4	-0.072482735
158	0xbb81bf0e	-0.003959543
159	0x3f5b0ab0	0.8556318
160	0xbed42cdb	-0.41440472
161	0x3d064173	0.03277726
162	0xc019756d	-2.397792
163	0x3e4938d2	0.19650581
164	0xbfe1f8ac	-1.7654014
165	0x3f425771	0.75914675
166	0xc009295c	-2.1431494
167	0x3f854688	1.041215
168	0x3e9c49e6	0.3052513
169	0xbdfc6969	-0.12324793
170	0xbe5bc8b0	-0.21463275
171	0x3de1a9f6	0.110187456
172	0xbf53538f	-0.82549375
173	0x3fbd6f54	1.47996
174	0xbf0cd6a7	-0.55015033
175	0xbfca3da2	-1.5800059
176	0xbeb3ee8c	-0.35142934
177	0x3ed1c983	0.40974054
178	0xbf4373be	-0.76348484
179	0xbe879ac1	-0.26485255
180	0x3de232e7	0.11044865
181	0xbfc250bf	-1.5180892
182	0xbe865ac9	-0.2624114
183	0xbd1181f3	-0.03552432
184	0xbc206f5b	-0.009792174
185	0x3ee1dbdf	0.4411306
186	0xbf2d2ecf	-0.6764955
187	0x3ca2f3dd	0.019891674
188	0x3e4c9636	0.19979176
189	0xbf71724d	-0.94315034
190	0x3fa0c224	1.2559247
191	0x3f897267	1.0738038
192	0xbba102fb	-0.0049136854
193	0x3ee81a7c	0.45332706
194	0x3f045b88	0.51702166
195	0x3f413ec4	0.754864
196	0xbebb0c6c	-0.36532915
197	0x3f2258d6	0.634168
198	0x3e183dec	0.14867371
199	0xbec18b81	-0.37801746
200	0x3d8db40a	0.06919105
201	0xbee6c7c2	-0.45074278
202	0xbee777e3	-0.45208654
203	0x3ee67173	0.4500843
204	0xbf1ff476	-0.6248239
205	0xbf28639a	-0.6577698
206	0xbd3ef07e	-0.04661607
207	0xbe39f484	-0.18159682
208	0x3f3f6fd3	0.74780005
209	0xbed1d00e	-0.40979046
210	0x3ecd751f	0.4012842
211	0xbe8c2119	-0.27369002
212	0xbf714add	-0.9425486
213	0xbe8a1d36	-0.2697541
214	0xbf2b6862	-0.6695615
215	0xbf2046a8	-0.6260781
216	0xbf78498d	-0.9698723
217	0xbd808461	-0.06275249
218	0xbf2b47f4	-0.66906667
219	0x3f85b0cc	1.0444579
220	0x3e97e6c2	0.29668242
221	0x3eedc43e	0.46438783
222	0xbde58f78	-0.11209005
223	0x4003bb08	2.0582905
224	0x3f30d53b	0.69075364
225	0x3ef5990c	0.47968328
226	0xbf60d531	-0.87825304
227	0xbed0691a	-0.40705186
228	0xbe7c757f	-0.24654196
229	0xbf4090e8	-0.7522111
230	0xbf305a8c	-0.68888164
231	0xbf0ded03	-0.55439776
232	0x3f807c59	1.0037948
233	0xbe0b3494	-0.13594276
234	0x3f3d1d35	0.7387269
235	0xbeff34b5	-0.498449
236	0x3faedef1	1.3661786
237	0xbd92fa72	-0.07176675
238	0x3dd77d8c	0.10521993
239	0x3f9564a0	1.1671333
240	0xbf3c334c	-0.7351577
241	0x3f462b8d	0.77410203
242	0xbe129eb8	-0.14318359
243	0xbf0a2e44	-0.53976846
244	0x3f103026	0.5632347
245	0x3f1b38d7	0.60633606
246	0xbe97529e	-0.2955522
247	0x3f117996	0.5682615
248	0xbe337ad3	-0.17527322
249	0x3f0a568e	0.5403832
250	0xbdb6c298	-0.089238346
251	0xbe1c7256	-0.1527799
252	0x3f84dbed	1.0379616
253	0xbf80c1a4	-1.0059094
254	0x3ead561f	0.33854768
255	0x3f8944a2	1.072407

bias_ih_l0 f4 [96]
0	0x3e321568	0.17390978
1	0xbd8259e9	-0.06364805
2	0xbda8544d	-0.08219204
3	0x3dc3709e	0.095429644
4	0xbf1cb77c	-0.61217475
5	0x3e25369c	0.16134113
6	0x3dfacb12	0.12245764
7	0x3e9b2528	0.30301785
8	0xbdd04801	-0.10169984
9	0x3e78558c	0.24251384
10	0x3e5cbd3f	0.21556567
11	0xbc564877	-0.0130788
12	0xbe68be77	-0.22728907
13	0xbd399c9d	-0.045315374
14	0xbe5349ed	-0.20633669
15	0x3dd5e7ea	0.10444625
16	0x3f4ff9b2	0.8124038
17	0x3e088a69	0.1333405
18	0x3f037f8b	0.5136649
19	0x3eb9eef8	0.3631513
20	0xbe0824f2	-0.13295344
21	0x3ef33d28	0.47507596
22	0xbdf9c506	-0.12195782
23	0xbd594319	-0.053042505
24	0xbdaa9aa7	-0.08330279
25	0xbeb430c6	-0.3519346
26	0xbefafcd7	-0.49021026
27	0xbf2d78c3	-0.6776239
28	0x3d91010f	0.0708028
29	0xbe26050e	-0.16212866
30	0xbe916e8a	-0.28404647
31	0x3e07ff7d	0.13281055
32	0x3ede1e67	0.4338257
33	0x3f121b93	0.57073325
34	0xbd95117b	-0.07278725
35	0x3e75e098	0.24011457
36	0x3dcbaa57	0.09944599
37	0x3e877a80	0.26460648
38	0x3f7cc5f0	0.9873953
39	0xbdb50476	-0.088387415
40	0xbf16a758	-0.58849096
41	0xbeb5f35a	-0.35537225
42	0xbfba8f75	-1.457503
43	0x3f4bd2a6	0.796183
44	0xbf46df0a	-0.7768408
45	0x3fa56958	1.2922773
46	0x3f071f77	0.52782387
47	0x3ead20cc	0.33814085
48	0xbf498b71	-0.78728396
49	0xbef9caa8	-0.48787427
50	0x3e430815	0.19046052
51	0x3f8977df	1.0739707
52	0x3d653586	0.055959247
53	0x3e740e1a	0.23833504
54	0xbf16cb2b	-0.5890376
55	0x3e68a801	0.22720338
56	0xbf3e9837	-0.7445101
57	0xbccfac90	-0.025350839
58	0x3f9a9b1d	1.2078587
59	0x3e9e0c74	0.30868876
60	0xbe71d53c	-0.23616499
61	0xbe86ad71	-0.263042
62	0x3f9eaabc	1.2395854
63	0xbf64a3ff	-0.8931274
64	0xbebbf7f1	-0.36712602
65	0x3e4334a5	0.19063051
66	0x3e818fcc	0.2530502
67	0xbe7d1dfc	-0.2471847
68	0xbe3e6a87	-0.18595324
69	0xbf08690d	-0.53285295
70	0xbeb18123	-0.34668836
71	0x3e7074aa	0.23482004
72	0x3e6cff50	0.23144269
73	0x3ec54ff8	0.38537574
74	0x3e800be1	0.25009063
75	0x3f366826	0.7125267
76	0xbe6cf658	-0.23140848
77	0xbd2c1cc3	-0.042019617
78	0xbe23e5f4	-0.16005689
79	0xbf18e2b9	-0.5972095
80	0xbed30276	-0.41212815
81	0x3e42efc9	0.19036783
82	0xbea0c2bf	-0.3139858
83	0xbeec80ee	-0.46192116
84	0x3eb62e82	0.35582358
85	0xbf25fc0f	-0.64837736
86	0x3e616ffa	0.22015372
87	0x3eba8070	0.36426115
88	0x3d113db1	0.035459224
89	0xbe2bd807	-0.16781627
90	0xbf542b59	-0.82878643
91	0xbf57930f	-0.8420877
92	0xbd57d173	-0.05268998
93	0xbe9be3bf	-0.30447194
94	0x3e0068cc	0.12539977
95	0x3eb4443f	0.35208318

bias_hh_l0 f4 [96]
0	0x3de63f24	0.11242512
1	0xbebaff5a	-0.36522943
2	0x3d5474e6	0.051869296
3	0x3e2bea2a	0.16788545
4	0xbf2a2a5e	-0.664709
5	0x3d346add	0.044047225
6	0x3e02684d	0.127351
7	0x3e141fc5	0.14465244
8	0xbdfcefbf	-0.123504154
9	0x3da88b2a	0.082296684
10	0x3ea64984	0.32477963
11	0xbd7accb8	-0.06123039
12	0xbe399733	-0.18124084
13	0xbeaabdde	-0.33347982
14	0xbd8b676c	-0.068068355
15	0xbd9ffcd9	-0.07811899
16	0x3f32a7e6	0.6978744
17	0xbd10c26d	-0.03534167
18	0x3ee0a019	0.43872145
19	0x3f069e11	0.5258494
20	0xbe25a468	-0.16175997
21	0x3e980be9	0.29696587
22	0x3dfc8cf5	0.12331573
23	0xbdd33b76	-0.10314076
24	0x3df2033c	0.11817023
25	0xbea11012	-0.31457573
26	0xbf35997a	-0.7093731
27	0xbf23a7ef	-0.6392812
28	0x3cf881a2	0.030335251
29	0xbe4d7db4	-0.20067483
30	0xbee4be59	-0.44676474
31	0xbdd5cafa	-0.10439105
32	0x3e3079e4	0.17233998
33	0x3f04668d	0.5171898
34	0xbe633029	-0.2218634
35	0x3e8836ad	0.26604214
36	0xbce3b82e	-0.027797785
37	0x3e537d33	0.20653228
38	0x3f5723a5	0.84038764
39	0xbdf3440d	-0.11878214
40	0xbf237bef	-0.6386098
41	0xbeaff546	-0.34366816
42	0xbfa6c1da	-1.3027909
43	0x3f35af56	0.70970666
44	0xbf2de861	-0.6793271
45	0x3fa203ac	1.265737
46	0x3f153906	0.58290136
47	0x3e3b05bf	0.1826391
48	0xbf230312	-0.6367656
49	0xbf23fd8e	-0.6405877
50	0x3ea87400	0.32901
51	0x3f9a3e27	1.2050217
52	0x3e345f5b	0.176145
53	0x3e022acd	0.1271164
54	0xbf16d207	-0.58914226
55	0x3e40541a	0.18782082
56	0xbf27e8be	-0.6558951
57	0xbe0454ff	-0.12923048
58	0x3fa69896	1.3015316
59	0x3e92ca64	0.28670037
60	0xbef4413c	-0.4770602
61	0xbe84ef4a	-0.25963813
62	0x3faf5f91	1.370104
63	0xbf4144f2	-0.7549583
64	0xbe8d3f54	-0.27587378
65	0x3ead41bd	0.33839217
66	0x3eb62782	0.35577017
67	0xbe0f570a	-0.13998047
68	0x3d5dc38d	0.05414157
69	0xbec44ff5	-0.38342252
70	0xbd738f68	-0.059462935
71	0x3f13b50c	0.5769813
72	0xbc9bfc64	-0.019041248
73	0x3c6dfac3	0.014525118
74	0x3f0f005d	0.5585993
75	0x3f5ac43c	0.8545568
76	0xbd63a206	-0.05557444
77	0x3e5e8caf	0.21733354
78	0xbe0efabb	-0.13962834
79	0xbf365db6	-0.7123674
80	0xbf6a8131	-0.9160338
81	0x3dc8066d	0.097668506
82	0xbf4dd31f	-0.8040027
83	0xbf473f58	-0.7783103
84	0x3f1be1c9	0.60891396
85	0xbfa4af7e	-1.2866056
86	0xbf049dae	-0.518031
87	0x3f18552c	0.5950496
88	0xbf208526	-0.6270317
89	0x3edf22f7	0.43581364
90	0xbe37aba7	-0.17936574
91	0xbeb7e063	-0.3591338
92	0x3d19cbe4	0.03754796
93	0xbe4de5cb	-0.2010719
94	0x3db5a037	0.08868449
95	0xbe0755b8	-0.13216293

weight f4 [4, 32]
0	0xbe82deac	-0.2556051
1	0x3ea58fd0	0.32336283
2	0x3edb75ad	0.42863217
3	0xbf26fe5d	-0.6523188
4	0x3c856a5d	0.01628607
5	0xbfcecd9a	-1.6156495
6	0xbb958610	-0.0045631006
7	0x3e799baa	0.24375787
8	0xbca34deb	-0.019934615
9	0x3d4c8a2a	0.04993645
10	0xbdbac7d7	-0.09120148
11	0x3edf26a1	0.4358416
12	0xbdb0cc38	-0.08632702
13	0xbe7598b2	-0.2398403
14	0xbe5a06b9	-0.21291627
15	0x3e4b3b01	0.19846727
16	0xbe382377	-0.17982279
17	0x3d974dd6	0.07387893
18	0x3cf5a5f9	0.029986368
19	0x3fa412df	1.2818259
20	0x3e86de5e	0.26341528
21	0x3ef2e087	0.47436926
22	0x3c69fcf0	0.014281496
23	0x3e842e9b	0.25816807
24	0x3d1029a5	0.035195965
25	0x3dfd182c	0.12358126
26	0x3eb7c895	0.3589522
27	0xbf026d26	-0.509478
28	0xbdf5af54	-0.11996332
29	0x3ee4e9e8	0.44709706
30	0xbc7d4ddf	-0.01546046
31	0xbd831e18	-0.06402224
32	0xbf6fff19	-0.93748623
33	0x3eeeb8c7	0.4662535
34	0x3e122c8c	0.14274806
35	0x3ef12fe8	0.47106862
36	0x3d0f022f	0.03491419
37	0x3edfd93a	0.43720418
38	0x3e01f307	0.12690364
39	0x3e93d84e	0.28875965
40	0xbc4ef7ac	-0.012632292
41	0x3d9bad6b	0.07601436
42	0xbdc880fc	-0.09790227
43	0xbe483998	-0.1955322
44	0xbe1b5faa	-0.15173212
45	0xbe8830b3	-0.26599655
46	0xbf048a63	-0.5177366
47	0xbecc3772	-0.3988605
48	0x3e116617	0.141991
49	0x3db7364c	0.08945903
50	0xbd0e248d	-0.034702826
51	0xbe959308	-0.29213738
52	0x3dc9f67e	0.09861468
53	0xbea36ad7	-0.3191745
54	0x3e1a48b8	0.15066803
55	0xbe0f971c	-0.14022487
56	0x3c8c9b3a	0.017163862
57	0x3da8780e	0.082260236
58	0xbf065056	-0.5246633
59	0x3d8f6bda	0.07002993
60	0xbde60b07	-0.11232572
61	0xbf2a9720	-0.6663685
62	0xbd226a1f	-0.039651986
63	0x3ed24ecb	0.4107574
64	0x3e9df8cc	0.3085388
65	0xbf04e2c8	-0.5190854
66	0xbed115bf	-0.40836903
67	0xbf4928d0	-0.785779
68	0xbdc0e073	-0.0941781
69	0x3eb57406	0.3544008
70	0x3e3e2c95	0.18571694
71	0xbd748cce	-0.059704594
72	0x3c95ecfa	0.018301476
73	0x3dba8426	0.091072366
74	0xbcd28357	-0.025697393
75	0xbd02def8	-0.03195092
76	0xbeca6707	-0.3953173
77	0x3f76870c	0.96299815
78	0xbe6b7b8d	-0.2299635
79	0xbea31e42	-0.31859022
80	0xbda3e7b3	-0.080031775
81	0x3dccfcd8	0.100091636
82	0xbc3890d1	-0.011264996
83	0xbef77cb0	-0.48337317
84	0xbdb7080d	-0.089370824
85	0xbf28730a	-0.65800536
86	0xbe2aa46a	-0.16664281
87	0x3e354da4	0.17705399
88	0x3bcb75c9	0.0062091094
89	0x3dd5ff38	0.1044907
90	0x3f46090e	0.77357566
91	0x3f3eb2e3	0.7449171
92	0xbdca0629	-0.09864456
93	0x3ea43599	0.32072142
94	0xbcf7a9b2	-0.030232284
95	0x3d3a6686	0.04550793
96	0x3f7a79e3	0.97842234
97	0xbd9b85d6	-0.075938866
98	0xbf00c402	-0.50299084
99	0x3f890d0f	1.070711
100	0xbe8af215	-0.2713782
101	0x3eaf7c8c	0.3427471
102	0x3d6c49dd	0.05768763
103	0xbeb16505	-0.34647384
104	0xbbc20f86	-0.0059222607
105	0x3d774a78	0.060373753
106	0xbe008aba	-0.1255292
107	0xbeaac528	-0.33353543
108	0x3ee8fde9	0.45506218
109	0xbf497881	-0.786995
110	0x3f69e86f	0.9137029
111	0x3f55cebb	0.8351857
112	0xbcd28c35	-0.025701622
113	0x3d950b9a	0.072776034
114	0xbd37426d	-0.044741083
115	0xbe42258c	-0.18959635
116	0x3c5a9d08	0.013343103
117	0x3ee0f4fc	0.43936908
118	0x3e31d071	0.1736467
119	0x3d6ea4bb	0.058262568
120	0x3ced466d	0.028964246
121	0x3d812e4b	0.06307658
122	0xbf301abe	-0.68790805
123	0xbe459079	-0.19293393
124	0xbdc6584b	-0.09684809
125	0x3e2414ec	0.16023606
126	0xbda68b4f	-0.0813204
127	0xbe007cd3	-0.12547617

bias f4 [4]
0	0x3e8aee8d	0.27135125
1	0x3d0ff68d	0.03514724
2	0xbeacd7d6	-0.3375842
3	0x3e2e56ea	0.17025343
