histories_pre_cls/04.29-22.18.02_65.04%_pt_LSTM_EEGNet_BcicIv2a_bs=032_lr=0.0800_ld=0.999870_k1=32_k2=16_do=0.50/best_valid_acc.pt (torch, 19778 bytes, 17 tensors)

weight f4 [8, 1, 1, 32]
00000000: 9355 01c1 2a79 a2c0 a557 2e3e 7ee4 a640
00000010: 7a05 ce40 1a59 8140 4fce 153f d42c 6abf
00000020: 3491 953e cfde ff3f e506 fd3e 37cc 41c0
00000030: a767 cfc0 d457 c9c0 f94e e8bf ed64 8440
00000040: 36d2 5441 adf2 b740 2a8f 853c fd2c 34c0
00000050: 2b3e 71c0 1698 3dc0 54ea 16c0 dbb4 88bf
00000060: 45f6 473f b038 1940 b0a6 0640 be31 3b3f
00000070: 5038 0cbf 587e b4bf 26a4 2ebf 65f6 163f
00000080: 8997 b140 4ed7 9940 78f5 6740 79f9 1940
00000090: 3fbd 883e 85bb 11c0 d7fc 69c0 fcd6 4ac0
000000a0: c591 d4bf 3255 093e dc08 bb3f 57ce d73f
000000b0: b124 4e3f 9586 02c0 6070 87c0 4731 b0c0
000000c0: ecf8 02c1 4623 55c0 ef39 ee3e f069 af3f
000000d0: 5223 163f d1d7 1ebe dd6f bbbf 41b0 17c0
000000e0: b37e 41c0 dc93 66c0 dbaa 67c0 b6db fabf
000000f0: 8332 07bf 9775 be3d 0587 94be 5c0f acbe
00000100: 564b 27c0 810b aabf eb9d 27bf 7d10 edbe
00000110: 43c8 44bf 76a7 88bf 390b 10bf 6704 72bf
00000120: 8f9c 72bf 71d1 81bf 2eee ca3e d7ea ef3f
00000130: 80c4 1840 9057 0c40 b8af 4c40 6c2a dd40
00000140: 53b6 4341 f465 0e41 656d 9c40 f7e4 9140
00000150: bce2 c440 708d 8c40 ab21 9a3f a8f5 ae3e
00000160: c32a 833f 0aaa 103f 8e40 19bf 5a8a c7bf
00000170: 19a1 c0bf 5c3e e1be 5e1f 113f 68ef 023f
00000180: e7b4 a840 c2b5 8540 ab31 2c40 d212 db3f
00000190: f0ff 853f 9648 84bd 5d79 47bf a1ea 86bf
000001a0: d843 44bf 006f 8c3e b2f3 2bbf 7ce1 f4bf
000001b0: a970 69c0 7896 bdc0 0ee7 fbc0 d97c 25c1
000001c0: 1ddd 49c1 1c55 17c1 6a43 a8c0 b73f 12c0
000001d0: 6c68 913e c0c4 ed3f 91b8 2440 ca3b e93f
000001e0: 808e ff3e d948 8bbf cabd 0fc0 e21a 48c0
000001f0: 4db3 4bc0 1b22 eebf b045 8ebf b982 05c0
00000200: 530e a8c0 a0a9 bac0 f083 afc0 286b 7dc0
00000210: 7586 a9bf 4f00 dd3f 396e 7540 2984 9b40
00000220: 3477 8840 6f02 5b40 5d68 eb3f 0ac3 e0bd
00000230: c1cc d4bf bb20 01c0 a2a3 fcbf 2a53 4cbf
00000240: f465 2f40 cdfc 2240 f37e e73f cad4 dd3f
00000250: 67a1 fd3f 86bb a03f 7391 153f 7484 49be
00000260: 86ad a4bf 6008 99bf 6131 3fbf 0885 06bf
00000270: 9b2d 8bbe 4a89 173f 7299 8c3f 4515 1b3f
00000280: 0e18 53c0 7b7d 21c0 d443 f7bf 6ec9 a3bf
00000290: d7bc 923c 0cf1 b53f 8ec6 803f 1a9b 0dbf
000002a0: e5a4 84bf 4a23 bf3f 7269 6340 4e7b 2b40
000002b0: ab07 a93e 4fa1 f8be c039 1840 c557 dd40
000002c0: d3ba 1a41 d3d5 d63f 6a9f cdbf 3bcc 21bf
000002d0: b74b 4340 562c 3a40 6876 093e 11ab c0bf
000002e0: 398c eebe 2ab6 8c3f 681a bdbe 9c1b 03c0
000002f0: 5354 e6bf 1622 00bf c0f9 dc3d 24e7 9cbf
00000300: 2acf febf b3d6 01bf 4114 d53d 7a7d 043e
00000310: d404 35be 426b 653e ad56 e33e f91a ac3d
00000320: 3a6a 95bd a3fe f83e 97b2 933f 087c b53f
00000330: 6254 d63f f019 1940 ea29 5540 c83e 7f40
00000340: 5a55 d340 90bc 8e40 da68 4140 4fad 5140
00000350: b88b 4640 f2a3 2a40 0648 c93f 5e85 7b3f
00000360: 2ba9 863f 2683 803f 7607 963f e1bc a23f
00000370: e596 e83f 8f2b 2240 40a7 3240 aabf 2640
00000380: b563 79bf d3a0 bfbf 06e5 c4bf 7bf7 d7bf
00000390: 227d 1fc0 0605 36c0 15d8 15c0 4dc2 e1bf
000003a0: 6a67 93bf e744 eebe 1d19 253f d868 f93f
000003b0: a34f 4540 e48b 9540 7ed2 ac40 4f94 a940
000003c0: 518e ab40 5196 b140 2ebb a540 6fd5 9640
000003d0: 39ff 6540 ad40 1e40 2447 723e 7c4a b7bf
000003e0: 782e 4cc0 3160 a1c0 c78b 82c0 912f 13c0
000003f0: 69eb 76bf efe5 efbf 9181 d1bf 88a5 d6bf
-8.083392 -5.0772905 0.17025621 5.215392 6.4381685 4.0421267 0.58517927 -0.9147465
0.29212344 1.9989871 0.49419323 -3.0280893 -6.481403 -6.291971 -1.81491 4.13732
13.301321 5.7483735 0.016303618 -2.8152459 -3.7694194 -2.9624076 -2.3580523 -1.0680193
0.7811015 2.394085 2.1039238 0.73122776 -0.54773426 -1.4101057 -0.6821922 0.5896972
5.549748 4.8075323 3.6243572 2.4058516 0.26706883 -2.2770703 -3.6560571 -3.1693716
-1.6606985 0.13411406 1.4612079 1.6859845 0.80524737 -2.0394642 -4.2324677 -5.5060153
-8.185772 -3.330278 0.46528575 1.3704205 0.58647645 -0.15512015 -1.4643513 -2.3701327
-3.023358 -3.6027746 -3.6198032 -1.95983 -0.5281145 0.09299772 -0.29009262 -0.33605468
-2.6139731 -1.3284761 -0.6547534 -0.46301642 -0.76868075 -1.0676105 -0.56267124 -0.9453797
-0.9477014 -1.0142041 0.39634842 1.8743542 2.3869934 2.1928444 3.198225 6.9114285
12.232013 8.899891 4.888354 4.5592 6.1526775 4.3922653 1.2041525 0.34171796
1.0247425 0.5650946 -0.5986413 -1.5589097 -1.5049163 -0.4399289 0.5668849 0.51146555
5.272083 4.178437 2.6905315 1.7115119 1.0468731 -0.06459157 -0.7791956 -1.0540353
-0.7666602 0.27428436 -0.67168725 -1.9131312 -3.6475012 -5.924618 -7.871955 -10.34298
-12.616483 -9.458279 -5.2582293 -2.2851388 0.2839998 1.8575668 2.573765 1.8221371
0.49913406 -1.0881606 -2.2459588 -3.1266408 -3.1828187 -1.8604158 -1.1115017 -2.0861037
-5.2517486 -5.833206 -5.4848557 -3.9596653 -1.3244158 1.7265719 3.8348525 4.859883
4.264551 3.4220235 1.8391224 -0.10974701 -1.6624986 -2.0176227 -1.9737437 -0.798144
2.7405977 2.5466797 1.8085617 1.7330563 1.9814881 1.2557228 0.5842506 -0.19679433
-1.2865455 -1.1955681 -0.7468472 -0.5254674 -0.27183232 0.5919386 1.0984328 0.6057933
-3.2983432 -2.5232837 -1.9317575 -1.2795846 0.017912311 1.4214187 1.0060594 -0.5531479
-1.0362822 1.4932644 3.5533109 2.679401 0.33013663 -0.4856057 2.3785248 6.916964
9.670611 1.6784004 -1.6064274 -0.63202256 3.0514963 2.908956 0.13424075 -1.5052205
-0.46591356 1.0993092 -0.3693421 -2.0485601 -1.7994484 -0.5005201 0.107898235 -1.2258039
-1.9906971 -0.5071823 0.10404254 0.1293849 -0.17677623 0.22404197 0.44402066 0.08403582
-0.07295652 0.48631772 1.1538876 1.4178476 1.6744502 2.392208 3.3306832 3.9882069
6.604169 4.460518 3.0220246 3.276203 3.1022778 2.6662564 1.5725105 0.9825038
1.0520376 1.0040023 1.1721027 1.2713891 1.8171049 2.5339086 2.7914581 2.6054482
-0.97417766 -1.4970955 -1.5382392 -1.68724 -2.4920125 -2.8440566 -2.3413136 -1.7637421
-1.1515934 -0.46536943 0.64491445 1.9485121 3.0829856 4.6733265 5.400695 5.299354
5.3611226 5.549599 5.179099 4.713554 3.5937026 2.4726975 0.2365995 -1.4319606
-3.1903362 -5.042992 -4.0795627 -2.2997782 -0.9645296 -1.8742045 -1.6367666 -1.6769266

weight f4 [8]
00000000: 75d5 833e dc80 0e41 89eb e640 8738 e340
00000010: 3417 3941 37e3 0d3f 5436 f140 79e9 3e40
0.25748792 8.90646 7.216252 7.1006503 11.568165 0.5542483 7.537882 2.983

bias f4 [8]
00000000: a36f 323f eafa 4fbe 579c 7b3f 8c22 1140
00000010: 5b01 09c0 874c 0e3e 33a9 303d 89b9 6dbf
0.69701594 -0.2031056 0.9828543 2.2677336 -2.1407077 0.1389638 0.04313011 -0.9286123

running_mean f4 [8]
00000000: b98e 803f a822 62c1 a329 c041 ea1a ddc1
00000010: 2d1d b33f d278 0d41 8ea2 cf41 08fa a540
1.0043555 -14.133461 24.02033 -27.638142 1.3993279 8.841997 25.954372 5.1867714

running_var f4 [8]
00000000: 268e e241 857c 0342 69ae 8942 2ab0 bd42
00000010: a91a b741 7fca 8f41 b1af 4842 2ad0 1742
28.319408 32.8716 68.840645 94.84407 22.888018 17.973875 50.171574 37.953285

weight f4 [16, 1, 22, 1]
00000000: d32d 823e 8945 6abd f893 183e 364f 3bbe
00000010: 7403 a6be 84aa bfbe 589e 85bd 9b5e 913d
00000020: 542a a33d 6197 73be 926d d3bc 8994 df3e
00000030: a781 8ebd 59df 08bd 22d3 cdbd d83e 87b9
00000040: 88ac 713e 9cbb c23e 4587 a53d 7d4c 253e
00000050: f38c acbe c5d4 73bd 04dc d3bc eb4b 833e
00000060: 5dc9 913d 68af 213e 6417 d9bd 5167 3bbd
00000070: eae6 723e bdb6 c0be f1a0 173e 62e7 933e
00000080: bb91 3fbd 2236 3a3d e2ac 023e 73f2 1bbf
00000090: 87cb 66be b613 433e 13ad 2abd 5ff1 babd
000000a0: 254d 493d 0bbe c73d 6f94 67be 90a5 3f3e
000000b0: b94e 72bd 556b 5e3d 28b8 ab3d 65f4 09bc
000000c0: 5458 f0bc 93c0 a93b ec55 3abe bf4b d6bd
000000d0: c990 453e c75d cd3d 846c 2e3e 91de fb3d
000000e0: 2e06 d8be 1809 a23c 4747 7d3e b07c 33bd
000000f0: 7f54 413d 325d 423e 1d9f d5bd 6518 9a3e
00000100: 2e35 893d f56b 2ebf 42ab 6dbe 8cb4 ee3c
00000110: c07b 8c3e fc7d 713e 4ad3 71bc 963e a7be
00000120: 94c8 b43e f2e2 ba3d f3c8 253e d25f 35be
00000130: f042 d5bd 93d9 32bd e56b 833c ae1c f63d
00000140: c6d7 05bd c728 05bf 9fab 72be dd2e 6f3e
00000150: f68c 10be b782 253e 5a9b 6d3e ab46 a93d
00000160: f248 67be 754b b93e b644 e23d af1d db3d
00000170: 170d ba3d 780b 5a3d c7f8 ee3c b907 14be
00000180: ab4b eaba 9a08 423e 0848 06be 41f0 ecbe
00000190: 636a 633d 4e44 bebe 43d7 58bc 6785 ae3e
000001a0: 1950 5abd 4490 c4be 3757 10bd 5b4e 593e
000001b0: 3ea0 313e 4df1 cd3d 60f6 1e3e 1cc3 41be
000001c0: 83c6 023e 4ff6 573e 0e2c 22be 00f0 aabe
000001d0: f105 373e a25b f23d 256c 223e 2a3a 6f3d
000001e0: b18e 45be 5851 75be d6dc d43e a7b7 bebd
000001f0: 9016 80bd 124c a7bd ca02 a03c c2fc 783e
00000200: 3103 ebbe 5361 053c ecaa aa3e 18fa 82bb
00000210: 2c9b d2be dd43 bb3e f4b5 523e 683e 353d
00000220: 4035 c53d cae4 2ebc db78 5ebd 7cdf 753e
00000230: bdd1 f93d fb08 26be b1a3 f2bd 4544 013e
00000240: 48c7 ac3c ed9f 8abe 9be4 93be 1db0 7bbe
00000250: f52d e7bd 5984 cb3b b8e2 97be fbb9 94bd
00000260: 8d08 493e a408 c53e 2fce 97bc 6ff0 f0bc
00000270: e000 15be cf47 b7be b062 eabd 8a86 8e3d
00000280: 5892 e2bd 2e89 083f f5e9 113e e43a a8be
00000290: 7fdb 0dbe 0fe4 c23e 918e 2b3e 540e 773e
000002a0: e4af 0bbd 6eae 1bbd b2d2 9ebd aa13 fabd
000002b0: f58e 1cbe 8c56 90bc 8a04 5ebe 6a0a 7e3e
000002c0: 0316 78bd ccb0 a83c 34d9 033e 1f81 063e
000002d0: e5c5 22be 1a35 173d 9d96 b8bd a29d 54be
000002e0: 0f8c 863e 710e e3bd eedf 943e bfd5 2f3d
000002f0: 4ecf 16be df8e 303e d4e9 3e3e 153f 36bf
00000300: b035 bdbd 3d04 0b3e d9ce c43c f352 4fbe
00000310: 2b1b 523e c320 e83d d041 8fbe 922b c9bd
00000320: 5904 3bbd 9522 023e 22a9 433e 10a2 c63e
00000330: b70e 6e3e 46a7 1fbe 5bef 80be d59b 29bd
00000340: 2550 133e 4bcc 4cbe d6d0 1e3e 686b b13e
00000350: 5e24 48bd 7ab8 c4be a3a5 25be 3650 a0ba
00000360: e250 563e b8eb 8ebe fd69 6c3e 4753 aebd
00000370: 233d 4fbe be4d cd3d 7e25 8f3d 5391 583c
00000380: 078e a13d 37e0 023d 065e 7cbd 9475 5d3e
00000390: 58ae 9c3c e5f2 92be fedd 193e f35a 143f
000003a0: da23 acbe b2f1 e13d 990e 0ebe fe53 cdbe
000003b0: ab5a 0a3d 53d7 423e 57b8 83bd f3a1 b9bd
000003c0: 43bc ddbd 86ef 8e3e 65f5 463e a47e 3f3e
000003d0: 2061 1ebe 16a0 a0be d718 ecbe dcab 21be
000003e0: 70de fe3c 6782 223e 3586 553e b9aa f73d
000003f0: 1a45 ddbd 80d0 82bd 7396 803e 164f febd
0.25425586 -0.05719522 0.14900196 -0.18291935 -0.3242451 -0.3743478 -0.06524342 0.07098123
0.07967058 -0.23788215 -0.025809083 0.4366801 -0.06958323 -0.033416126 -0.10050036 -0.0002579603
0.23600972 0.3803376 0.08082441 0.16142459 -0.33701286 -0.059529085 -0.025861748 0.25643858
0.07118485 0.15789568 -0.106001645 -0.045752827 0.23720899 -0.37639418 0.14807488 0.2888747
-0.04676984 0.04546178 0.12761262 -0.60916823 -0.22538577 0.19050488 -0.041668963 -0.09128069
0.049145836 0.09753045 -0.22615217 0.18715501 -0.059157107 0.05430158 0.083847344 -0.008420085
-0.029338993 0.0051804273 -0.18196839 -0.10463666 0.19293512 0.10027652 0.17033583 0.122983105
-0.42192215 0.019779727 0.24734221 -0.043820083 0.047199722 0.18980864 -0.10430739 0.30096737
0.06699596 -0.6813348 -0.23209861 0.029138826 0.27438164 0.23583215 -0.014759848 -0.32664937
0.3530928 0.09125318 0.16189937 -0.17712334 -0.10413158 -0.043664526 0.016042659 0.12017189
-0.03267648 -0.52015346 -0.23698281 0.2335772 -0.14116272 0.16163145 0.23203793 0.08265432
-0.2258642 0.36190382 0.11048262 0.10699021 0.09084528 0.053233594 0.02917136 -0.14456071
-0.0017875334 0.18948594 -0.13113415 -0.4627705 0.05552138 -0.37161487 -0.013234916 0.34086153
-0.053299043 -0.38391316 -0.035239425 0.21221296 0.17346284 0.1005579 0.15523672 -0.18922085
0.12771039 0.21090053 -0.15837118 -0.3338623 0.1787336 0.11833884 0.15861566 0.05840508
-0.19292714 -0.23956811 0.41574734 -0.09312373 -0.062543035 -0.08168806 0.01953258 0.2431517
-0.45900872 0.00814088 0.33333528 -0.0039970987 -0.41134012 0.36575213 0.20577222 0.04424897
0.09629297 -0.010674665 -0.054314476 0.24011034 0.121982075 -0.16214363 -0.11847628 0.12623699
0.021091118 -0.2707514 -0.2888535 -0.245789 -0.112880625 0.0062108454 -0.2966516 -0.072620355
0.19632168 0.38483155 -0.018530933 -0.029411523 -0.14551115 -0.35796973 -0.114446044 0.06959255
-0.11063069 0.5333432 0.14249404 -0.3285743 -0.13853262 0.3806462 0.16753604 0.2412656
-0.03410329 -0.038008146 -0.07755031 -0.12210782 -0.15288909 -0.017619394 -0.21681419 0.2480866
-0.060567867 0.020592116 0.12875825 0.13135193 -0.15895803 0.036915876 -0.09013102 -0.20763257
0.2627873 -0.11086739 0.29077095 0.042928454 -0.14727518 0.17242001 0.18643886 -0.71190006
-0.09238756 0.13575836 0.024024414 -0.20246486 0.20518176 0.11334374 -0.27979898 -0.098227635
-0.045658443 0.12708504 0.19107488 0.3879552 0.23247801 -0.15591154 -0.25182614 -0.04140838
0.14386041 -0.19999807 0.15509352 0.34652257 -0.048862807 -0.38421994 -0.16176467 -0.0012230936
0.20929292 -0.27914214 0.23087306 -0.08511978 -0.20238166 0.10024594 0.06989573 0.013218242
0.07888418 0.03195211 -0.061613105 0.21626884 0.019126102 -0.2870094 0.1502609 0.5795128
-0.33621103 0.11032428 -0.13872756 -0.40103143 0.033777874 0.19027452 -0.064316444 -0.090640925
-0.10826924 0.27917117 0.19429548 0.18700653 -0.15466738 -0.31372136 -0.461127 -0.15788215
0.031111926 0.15870057 0.20851977 0.1209311 -0.10804196 -0.063874245 0.25114784 -0.12417428

weight f4 [16]
00000000: 1ec6 db40 9ff0 a340 a1c8 0240 e8f0 aa3f
00000010: 9266 663f 0fae 9b3f 39b7 b23f e327 803f
00000020: 5059 4f40 e6dd 0940 ecd5 5540 1ab0 5940
00000030: 3cc4 c93f 2f26 4b40 8378 f640 351d a5c0
6.867934 5.1231227 2.0434954 1.3354769 0.9000026 1.2162493 1.3962165 1.0012172
3.2398262 2.1541686 3.3411818 3.4013734 1.5763011 3.1742055 7.702211 -5.1598153

bias f4 [16]
00000000: 7f32 7ac0 adbb 25c0 1d6c 30bf 787f b73d
00000010: 12bd f13c b9af c3bd 8e21 b2bd be12 94be
00000020: ffdf afbf 31e7 2ebf 1514 90bf edd1 e6be
00000030: ce22 ccba 5f6b 25c0 c9da 65bf 279e 34c0
-3.909332 -2.5895798 -0.6891497 0.089598596 0.029509101 -0.09555001 -0.08697806 -0.2892055
-1.3740233 -0.6832152 -1.1256129 -0.45082036 -0.0015574337 -2.5846784 -0.89786965 -2.8221529

running_mean f4 [16]
00000000: b559 5fbc 30c1 293d 92f9 fcbd bb26 9f3d
00000010: fe6c 61be af4d cbbe 7368 49bf ad54 34bf
00000020: cb27 c33d 28d9 df3d ac5a 523d bb8b 19bd
00000030: c626 3ebe b18a 243f 73f4 25be 1e44 1abf
-0.013632228 0.041444004 -0.12352289 0.07771059 -0.22014233 -0.39707705 -0.78675 -0.70441705
0.09529074 0.10930091 0.051356003 -0.037486773 -0.18569478 0.64274126 -0.16206531 -0.6026019

running_var f4 [16]
00000000: 7bb4 283c bdbc 9f3c 65af 8a41 b7c2 7a41
00000010: 2ba6 0841 e78a d540 c2ac 2241 b60b 4741
00000020: be90 c640 e090 4b41 c761 083d dba5 4b3d
00000030: 803b e140 098c 8b41 c94a e03f a22b 4140
0.010296936 0.019499177 17.335642 15.672538 8.540568 6.673206 10.167177 12.440359
6.2051687 12.72287 0.033296373 0.04971872 7.038513 17.443377 1.7522823 3.0182881

weight f4 [16, 1, 1, 32]
00000000: e8d0 0241 11b2 a340 c598 f540 9df4 d440
00000010: b71d 3740 3796 8f40 3c1f 4f40 41af dbbe
00000020: e1e9 1f40 b664 9c40 bc95 8740 ed95 f440
00000030: 0b49 fe3f 4b86 9b40 220e 7040 7ebf cdbe
00000040: bc8e 963f b215 8fbf f348 553f 391d 01c0
00000050: d19b e23f b509 acbf fe32 0c40 4ab1 57be
00000060: 968e 963e 50c4 72bf 2c67 21c0 a13a 0fbf
00000070: cd68 003f 6078 763f 4fcc 27c0 dbe8 ef3f
00000080: 0e15 0341 6083 fe40 c064 bb40 08a7 9540
00000090: 67d9 8a40 8613 6240 ae93 7940 978d d740
000000a0: efe7 0541 fff6 2640 ef41 19bf 7ec3 0040
000000b0: 99bd 21bd 9611 3ac0 df6f 023f a5a4 1dbf
000000c0: c38b 96c0 1379 993f 25e4 5840 a654 13bf
000000d0: 78ec 5e40 85a5 f73f 1036 29bf 62e8 893f
000000e0: 66fe 12be 392d d8bf 7f92 5f40 e2fa dd3f
000000f0: 2b35 b5c0 c187 9e40 36ce 3d3f c821 2640
00000100: 8c95 b9c0 f9a5 8ac0 7be1 7bbe ce14 8cbd
00000110: 2d83 e9be db78 343f 1424 7cbe d110 a73f
00000120: 871d fb3f 113f 9c40 d097 d940 3722 ec40
00000130: 6c0b c040 788d 2640 8ddf 94be 02b9 563f
00000140: bbd0 953f d729 8e3f b42a 173f 7859 483f
00000150: 9bd7 9b3f aaee 933f 2439 3340 ab08 e53f
00000160: 3eda c53f d2d3 fe3d c430 16c0 0dfa 20c0
00000170: 8116 6a3f 2570 abbf a0b4 78be 8a98 e8bf
00000180: a02a b940 8034 5140 1cd0 a4bf 0494 93c0
00000190: 4b47 cac0 59c1 76c0 aa4c 14c0 8f0a 883f
000001a0: 5dcc 2f40 c61c df3d dbfe 88bf 2941 6dc0
000001b0: bd46 76c0 9306 60c0 9e86 75c0 8372 78c0
000001c0: fced d1c0 5ce7 84c0 bc20 bcbe 3f92 ea3f
000001d0: 6d5e 8c40 1cc3 c13f 1527 12be e2de 0b3f
000001e0: 20ea bb3e d9b5 c53f 22f3 673e afaa e4be
000001f0: d612 b43f be89 b73f b915 6a40 3122 b040
00000200: 7d7f 69c0 9291 aec0 ba93 ccc0 7a48 99c0
00000210: 39a3 92c0 c225 bfc0 ef98 c0c0 8e6a 58c0
00000220: 2841 3ebf 80f4 ea3f 5b65 1d40 aadb 1640
00000230: cfc7 ce3f 42c4 b63f 59a1 1640 d729 a23f
00000240: 6fca 4b3d ab03 1e3f 9885 b23f e0c9 a73d
00000250: c228 8f3f 88fa 0640 91f1 7e40 10e9 6540
00000260: 428b d13e 2a19 b2bf 1ed7 1dbf dea7 8bbd
00000270: 642c c43f 6402 9040 aadf 5640 9e3c 8340
00000280: ef0c 9040 f0cd 5540 41ba f43f ae30 103f
00000290: a25b 663e 0c7a 513f a450 ff3f 661d 0340
000002a0: 9ea2 dc3f d46b 6dbe 99cf 58c0 fa2a bac0
000002b0: 078d a8c0 5be1 9bc0 9d34 b1c0 45a5 9ac0
000002c0: 94d7 87c0 83ec eabf dd73 743f 8675 463f
000002d0: 9893 6d3f 916f 36bf a9e4 94bf d613 7fbf
000002e0: 80ca 74bf 754f 01bf fa46 8f3f 5583 c83f
000002f0: 1be7 c43e 8140 f63e 1929 3440 4bd9 8040
00000300: 8abb a6bf 4821 fc3e 505a 0fbf 3ce7 46c0
00000310: c52e 7cc0 767a 72c0 3e13 9bc0 4f17 94c0
00000320: a132 99c0 6c22 2ec0 ae2f 9fbf 772f 5d3d
00000330: 4004 0a40 cdd1 0840 650e a53f ac9c da3f
00000340: 72ff 13bf 84cc 1cc0 9c2d c3bf b82f f23e
00000350: 725e 4040 546f 4440 8024 7c40 c4b7 3b40
00000360: 4dfc 7940 b5a6 023d 3e89 37bf 7d93 9e3e
00000370: 0ffa 69be b8a1 4940 5dbe cb40 eb7b 6040
00000380: 00f1 5840 9d29 6240 8215 9840 1560 d740
00000390: fa6c 9940 b66b 9840 c621 b840 d003 bb40
000003a0: 1946 d640 8274 4f40 4e28 ac3f 5706 973f
000003b0: 8fa4 03c0 8245 07c0 80d0 f4bf 6aeb 1bc0
000003c0: bb69 223d 9730 413f 5e39 b0bf 064e 77c0
000003d0: cb44 76c0 496a 71c0 ebc8 38c0 a773 9cbf
000003e0: a824 10c0 ddb9 b13f b87d ef3f 4587 89bd
000003f0: 98db 813c 4d9c 45c0 cbb2 acc0 803e 8cc0
8.1760025 5.1154866 7.6748986 6.65486 2.8611887 4.487087 3.2362814 -0.42907146
2.4986498 4.887294 4.237028 7.6433015 1.9866041 4.860143 3.7508626 -0.4018516
1.1762309 -1.1178496 0.83314437 -2.0174086 1.7703801 -1.3440462 2.1906123 -0.21063724
0.2940566 -0.948308 -2.521922 -0.55948836 0.50159913 0.9627743 -2.621845 1.8742937
8.19264 7.953537 5.8560486 4.6766396 4.3390384 3.5324416 3.8996387 6.736034
8.369124 2.6088254 -0.5986623 2.011932 -0.039487455 -2.9073234 0.5095195 -0.6157935
-4.7045608 1.1990074 3.3889248 -0.5755104 3.483183 1.9347388 -0.6609812 1.0774043
-0.14354858 -1.6888801 3.4933164 1.7342188 -5.66274 4.9540715 0.7414278 2.5958118
-5.799505 -4.3327603 -0.24597733 -0.06839906 -0.45607892 0.7049691 -0.24623138 1.3052007
1.9618386 4.8826985 6.799782 7.3791766 6.0013943 2.6023846 -0.29076806 0.8387605
1.1704324 1.1106519 0.59049535 0.7826152 1.2175173 1.155721 2.8003626 1.789327
1.5457227 0.12442745 -2.3467264 -2.515262 0.9144059 -1.3393599 -0.24287653 -1.8171551
5.7864532 3.2688293 -1.287601 -4.6118183 -6.3212028 -3.855551 -2.3171792 1.0628222
2.7468483 0.1089416 -1.0702776 -3.707102 -3.8480675 -3.5004013 -3.8363414 -3.8819892
-6.560301 -4.153242 -0.36743724 1.8325881 4.3865266 1.5137668 -0.14272721 0.5463697
0.3670206 1.544612 0.22651342 -0.4466147 1.4068248 1.433891 3.6575758 5.5041738
-3.6484063 -5.45527 -6.393033 -4.790097 -4.5824246 -5.973359 -6.0186687 -3.3815036
-0.7431817 1.8355865 2.4593112 2.3571572 1.6154727 1.4278643 2.3535979 1.2669019
0.049753603 0.61724347 1.394702 0.081928015 1.1184313 2.1090412 3.983494 3.59235
0.40926558 -1.391393 -0.6165637 -0.068191275 1.5326047 4.500292 3.3574014 4.1011496
4.501579 3.3406944 1.911934 0.5632428 0.22495893 0.81826854 1.9946485 2.0486693
1.7237127 -0.23185664 -3.3876708 -5.817746 -5.2672153 -4.871259 -5.5376725 -4.8326745
-4.2450657 -1.8353428 0.95489293 0.77523077 0.92803335 -0.71263987 -1.1632282 -0.9963964
-0.9562149 -0.50511867 1.1193535 1.5665079 0.3845757 0.48096088 2.8150084 4.026525
-1.3025982 0.49244142 -0.5599718 -3.1078634 -3.9403546 -3.7887244 -4.846099 -4.6278453
-4.7874303 -2.720851 -1.2436426 0.054000344 2.1565094 2.1378052 1.2895018 1.7079062
-0.57811654 -2.4499826 -1.5248294 0.47302032 3.0057645 3.069295 3.9397278 2.9330912
3.9060242 0.031897265 -0.7169379 0.309719 -0.22849296 3.1504955 6.3669877 3.5075634
3.3897095 3.5337899 4.7526255 6.730479 4.794553 4.7631483 5.7541227 5.8442154
6.696057 3.241486 1.34498 1.179881 -2.0569189 -2.1136174 -1.9126129 -2.4362435
0.039651614 0.7546477 -1.3767507 -3.8641372 -3.8479488 -3.7721121 -2.887263 -1.2222794
-2.2522373 1.3884846 1.8710241 -0.06715254 0.01585178 -3.0876648 -5.3968253 -4.3826294

weight f4 [16, 16, 1, 1]
00000000: 1608 9c3e 2da1 bbbe af96 cc3f 6c71 9bbf
00000010: 9e8b a93f 8f09 43c0 fa84 3840 a6c3 92c0
00000020: 4c79 0a40 f5f5 543e ed48 383f 66f6 1540
00000030: 0358 0dc0 4484 713e 400a c840 f0c1 e8bf
00000040: 3be2 54c0 f627 c73d bc7d 58c0 d36e 67c0
00000050: 83df b6bf bc2e c140 67d6 47c0 3a65 5340
00000060: d7fa 56bf 4e52 af40 ca82 96c0 828c 4ec0
00000070: 66ca e53f c3b6 5ebe 7ced 5f40 3831 bdbf
00000080: 3075 1840 68a0 09c1 175a e53f 2496 6d3e
00000090: 8aa9 2c40 6653 20bf 1b11 4040 7c6e cfbf
000000a0: 5ab7 53c0 4e99 1640 f416 3240 cd18 13c0
000000b0: 5da4 753f 3486 0fc0 22e2 46c0 88d7 d4bf
000000c0: 3099 edbd 4888 fa3f c3cf 27bf 2fd2 47c0
000000d0: f9b8 10c0 5d59 ac40 ecc9 cfbf 8cef 1f40
000000e0: 1695 73bd c320 db40 9d32 e6bf 8bca 27c0
000000f0: d01d 2540 3799 53bf 9ff4 80c0 1020 0b40
00000100: a328 c6bf 5ecd adbe f8a6 47bf 83fa 0440
00000110: c0ce a03f 1d61 86c0 98cc a840 f1a8 94c0
00000120: e810 84be 3448 6cc0 46bc 8040 9934 07c0
00000130: bd7d a4c0 4b18 9bbf 7271 66c0 aa42 7ec0
00000140: b1cb 343f 9399 b13f 9e15 d1bf 0b18 b3c0
00000150: c309 5740 cb87 fabf f811 55c0 6f40 e73f
00000160: c18e 9b40 3edc 93c0 ded5 0240 a6ab 2abf
00000170: 7970 503f 948f d1c0 5b6d 3740 ae19 963f
00000180: bd18 d0bf 5e97 ac40 48e7 8140 ad81 02c0
00000190: 9b53 f040 c4d2 e43d fb78 8940 a70a 95c0
000001a0: c592 9b3f a028 42bf 82f4 8c3f 03b8 6f40
000001b0: 0778 bf3f 097d 4cc0 7965 87c0 efd8 1240
000001c0: 670a 0bbe b34c 56bf a1ea 0cc0 929b 1c40
000001d0: d0fd a0c0 1b74 ee3f 39bc 923f 6da5 bb3f
000001e0: e2f0 f63f 2caa 3b40 d7e6 89c0 0590 5740
000001f0: c16e 9140 ea5a 1c40 ff78 7ac0 c4fa 613f
00000200: 5663 ffbf 6ede 0e41 d27a d43e a7c0 4140
00000210: 2003 a1bf 29c9 bfbd 5720 5840 d768 a3c0
00000220: a375 0c40 ddac a23e 0d6c 0440 c585 1cbf
00000230: d42d 0140 fbe2 01c0 c140 ab3f f502 ab40
00000240: f280 063f c92e 33bf 34d2 e8c0 d8ab 8340
00000250: 4afe abc0 7028 903f b86a b63f a58f c63f
00000260: 4d72 393f 8e06 a9bf 377d 8140 dea3 c33e
00000270: 09bf 27bf a83c a23f aa01 8440 0d5f 9e3f
00000280: 5e12 9bbf 6997 91bf ea50 0940 be15 a3c0
00000290: 17d4 d8bf effe 3940 cb42 dcbf 2b3f 36c0
000002a0: cdc2 f3bf d3e2 d440 0123 89bf 4282 1bc0
000002b0: 0af7 06c0 3609 65c0 72fd 2640 4576 063f
000002c0: 27cc b640 0412 3ac0 e8cb 2dbf 91ea edbf
000002d0: 74a5 b93f ead4 e8bf 466c 1ec0 cbcb 3940
000002e0: 0ec5 d040 4dba 30c0 76ca a53e cd46 9640
000002f0: d29c 553f 6b13 abbf e5c5 81c0 1147 c53f
00000300: 68b1 afbe c0e4 1b40 ffdf 7c40 5ff3 9f3f
00000310: fb17 e3c0 4599 b83f fc51 b7be e05b 38c0
00000320: 421a 64c0 e8c6 4940 418e abbe ef39 b13f
00000330: 7a1e e3bf 7fcb 7b3f 3331 77c0 2c58 ea3e
00000340: c0be 8dc0 b783 0540 dbd2 b1c0 8e4b e1bf
00000350: 7081 43bf 7ff4 a040 c1d5 0ec0 78aa 4940
00000360: 3501 67be 5eac 5340 6bec ccbf 50b3 86c0
00000370: d881 fc3f 0aa6 e83e d9cb 98c0 3a49 a9bf
00000380: e443 44be 5240 c73f 609a bcc0 d3f9 abc0
00000390: 56d5 393f 43ba aebf 0ee5 00c0 132c 753f
000003a0: 7874 be40 1abd 963f fdcc 4cbf 4ac3 83bf
000003b0: 8528 3040 666a 6ec0 8366 b9c0 1b29 0abe
000003c0: 5108 22c1 0603 a140 983d 5fbf 0f51 f3bf
000003d0: 4880 29bf 3e12 533f 47fa f13f 2e48 bebf
000003e0: f6f0 1fc0 dce8 e0bf 856a 813d 128e 2fbf
000003f0: bbed 21c0 aee4 5c3f 77a5 cbbf 22e5 34c0
0.3047492 -0.36646405 1.5983485 -1.2143989 1.3245733 -3.0474584 2.8831162 -4.586383
2.1636534 0.2079695 0.71986276 2.343164 -2.2084968 0.23585612 6.251251 -1.8184185
-3.326308 0.09724419 -3.3826742 -3.6161392 -1.428696 6.036955 -3.122461 3.3030534
-0.839765 5.478797 -4.7034655 -3.227326 1.7952392 -0.21749406 3.49887 -1.4780645
2.3821526 -8.601662 1.7918118 0.23201805 2.6978478 -0.62627256 3.001044 -1.6205592
-3.308066 2.353107 2.782651 -2.2983887 0.95953923 -2.242566 -3.107552 -1.6628275
-0.11601484 1.957284 -0.65551394 -3.1222036 -2.2612898 5.3859086 -1.6233497 2.4989958
-0.05946835 6.847749 -1.7984196 -2.6217372 2.5799446 -0.8265566 -4.029861 2.173832
-1.5481151 -0.33945745 -0.7798915 2.07779 1.2563095 -4.1993546 5.274975 -4.6456227
-0.25794148 -3.691907 4.0229826 -2.1125853 -5.140349 -1.2116789 -3.6006742 -3.9728189
0.7062331 1.3874992 -1.6334722 -5.596685 3.3599708 -1.9572691 -3.3292217 1.8066539
4.861176 -4.620635 2.0443034 -0.66668165 0.8142162 -6.5487766 2.8660495 1.1726587
-1.625755 5.3934774 4.0594826 -2.0391648 7.5102057 0.11173013 4.296018 -4.6575503
1.2154166 -0.7584324 1.1012118 3.7456062 1.4958504 -3.1951315 -4.231137 2.2944906
-0.13578187 -0.83710784 -2.2018206 2.4469953 -5.030983 1.8629183 1.1463691 1.4659859
1.9292262 2.9322615 -4.3094287 3.3681653 4.54477 2.443049 -3.913635 0.8827326
-1.995219 8.929304 0.41499954 3.0273836 -1.2579079 -0.0936454 3.3769739 -5.106548
2.19468 0.3177251 2.069095 -0.61141616 2.0184221 -2.0294788 1.3379136 5.344111
0.52540505 -0.69993263 -7.2756596 4.114727 -5.374791 1.126234 1.4251318 1.5512587
0.72440034 -1.3205125 4.046535 0.38210958 -0.6552587 1.2674761 4.125203 1.2372757
-1.211498 -1.1374332 2.1455636 -5.096404 -1.6939725 2.906185 -1.7207884 -2.8476055
-1.9043823 6.6526885 -1.0713807 -2.4298253 -2.108828 -3.5786872 2.609219 0.52524215
5.712421 -2.9073496 -0.6788926 -1.8587209 1.4503617 -1.8189976 -2.4753585 2.9030635
6.5240545 -2.761371 0.32381028 4.6961427 0.83442414 -1.3365301 -4.055407 1.5412313
-0.34315038 2.4358368 3.9511716 1.2496146 -7.0966773 1.4421774 -0.35804737 -2.8806076
-3.5641026 3.1527653 -0.3350697 1.3845805 -1.7743676 0.98357385 -3.862378 0.45770395
-4.429535 2.0861642 -5.556989 -1.7601182 -0.7636938 5.0298457 -2.2317965 3.1510296
-0.22559054 3.3073955 -1.6009649 -4.2093887 1.9727125 0.45439178 -4.7748837 -1.3225472
-0.19166523 1.5566504 -5.8938446 -5.374246 0.7259115 -1.3650593 -2.0139804 0.95770377
5.9517174 1.1776459 -0.8000029 -1.0293972 2.752473 -3.725244 -5.7937636 -0.13492243
-10.12703 5.031619 -0.8720336 -1.9009112 -0.66211367 0.8244971 1.8904504 -1.4865777
-2.499082 -1.7571063 0.06319145 -0.6857616 -2.530135 0.8628644 -1.5909871 -2.8264852

weight f4 [16]
00000000: 14e5 0e3f d6d2 9e3e dc29 5a3f ae38 923e
00000010: e5ea b53e 5772 b9be 9fc2 8a3e 8852 a03e
00000020: fd16 4abf 8c8a a13e 1c4d 8bbe 577f 03bf
00000030: abc7 883e 0105 bf3e 2045 da3e 6bb0 683f
0.55818295 0.3102023 0.8522012 0.28558868 0.35530773 -0.36220047 0.2710161 0.31312966
-0.7894133 0.31551015 -0.27207267 -0.5136618 0.26714835 0.37308505 0.42630863 0.9089419

bias f4 [16]
00000000: 7073 d2bd dea5 e3bc 69c1 6dbe 3bea 5a3c
00000010: 9f33 69bd 97c3 a23c 47c2 a03b 1038 fbbc
00000020: b743 35be 64e1 a0bc 9e30 21bc 52b3 9cbd
00000030: f2a1 813c c87a 32bd f3e4 29bd dfbb 74be
-0.10275924 -0.027789053 -0.23218311 0.013361509 -0.056933995 0.019868655 0.004905972 -0.030666381
-0.17701612 -0.019638725 -0.009838251 -0.0765139 0.015824292 -0.043574125 -0.04147811 -0.23899792

running_mean f4 [16]
00000000: 9bea 0e41 cccd af41 65da 12c2 396a 7142
00000010: 8134 adc2 f9f2 4742 dbeb abc1 a860 7ec2
00000020: bdcf c142 23c6 1ec0 d367 0b42 3e8d f3c1
00000030: 5884 76c1 6dcd 0ac2 6b1a 1fc1 3cc3 05c3
8.932277 21.975487 -36.713276 60.353733 -86.60255 49.987278 -21.490164 -63.59439
96.90574 -2.4808433 34.85139 -30.443966 -15.4073105 -34.70061 -9.94395 -133.76263

running_var f4 [16]
00000000: ea86 4949 b708 c448 f4c3 d948 8bb2 d048
00000010: 1402 c348 6541 8348 895f 0249 9b20 c948
00000020: bc71 a048 cd49 c548 e4d3 5648 2460 0249
00000030: 7188 bc48 b614 1e49 0451 4249 d893 0549
825454.6 401477.72 445983.62 427412.34 399376.62 268811.16 534008.56 411908.84
328589.88 404046.4 219983.56 534018.25 386115.53 647499.4 795920.25 547133.5

weight f4 [4, 128]
00000000: 1b00 8e3f b936 5dbe 058e a9be 4d3b 44bf
00000010: 512a e9be b9e8 f03e f8a6 09bf c7ac 4dbe
00000020: 3f35 a9bf 49fc 313f 5730 583f f962 da3e
00000030: d75c d33e ea93 373e ce50 613d 3729 b13e
00000040: 1200 5cbe 37ff 8fbd 78a5 25be edc0 573e
00000050: 934e ca3c e68f 923e 1de2 803e 2d05 5b3e
00000060: 8484 cfbf f376 863f 77ac ba3e 259f 923d
00000070: 41fe b7be 52e0 df3b a599 c73e 62bd 48be
00000080: cfb0 41bd acd3 80bf 95c3 96be 2eca 24bd
00000090: 348c 2b3f 72cf 7b3f d49b 5f3e 7a42 9f3e
000000a0: 4087 1cbd a50f 903f 1bc9 4c3f 93ef 313e
000000b0: 883d b13d 1a03 50be 095f d03e 6839 78be
000000c0: 2f69 1e3f c5a3 193f 6e09 1dbe 131c 573d
000000d0: f453 3bbf c2a3 18be 9685 27be b0a3 0ebd
000000e0: 3f3c 173d f9fd b13f d02b 573f d394 093f
000000f0: e9ac b4be ce8a a1bf 1436 5bbf cdcc 7dbf
00000100: f1b0 65be ba10 b8be fdfe 4bbe df20 79bd
00000110: 3bc0 103c 6459 71bd bbf5 d63d 1fe1 ebbc
00000120: 4c4f 1a3e 5344 31bf e173 f73e 045f a0bd
00000130: 070e 91be 16b7 313e 55a3 04be 2626 0bbf
00000140: 7398 b23f 2d1c 03bf a4dd 11bf 8be4 21bf
00000150: b34e 5cbf 216d 64bf f4fa c0bd 3a5e cabe
00000160: f5c7 b0bf 73ed 743f 8f30 173f ba4b 413e
00000170: 9105 9b3e 67bb 223f 11fd 9c3e bcf4 1f3f
00000180: c088 22bf 8577 063f 60c5 5b3f 5092 82be
00000190: 02ed 92be c056 80bd 60fc 8fbd 0090 9ebe
000001a0: 4fd6 04c0 89d0 813e 0503 0e3f 1ca6 d73e
000001b0: 78a1 053f cb14 e43e d34c 1c3f 6868 7e3e
000001c0: 3737 73bf a436 6b3d 24af 3dbe 70ee ebbd
000001d0: c58d a03c 8514 40bb fa38 2bbe dcfb 85be
000001e0: a6ca eebe 7d4a a73e f713 b23e a463 243e
000001f0: 5f2a d33e 871f 493e e0b6 953e 9c32 cc3e
00000200: 6fd0 883e a032 10bf 05c1 9fbb 4f1a 28bf
00000210: 8e38 47bd 77d8 433f 1747 d73d 1bb5 053f
00000220: 2511 cb3e 688f 31be 7047 e43e d0e3 463e
00000230: 336b 05bf 3f27 873e 4c4a 973e 1d06 8c3e
00000240: 45df 5b3f d105 483f 1e85 f73e 71aa b43d
00000250: fed4 743b bdf0 b33e 4861 aa3e 92c4 813e
00000260: ed78 7d3f dd27 4a3e 962a d6be 1666 f8be
00000270: 146f 563e 26ca 883e 3473 013e 02f2 323f
00000280: 8f72 15be a7c3 0ebe ee53 a03e 3572 23bd
00000290: 0f91 96bd 5f58 f5bd 8ba4 b4be 5e1c 7cbe
000002a0: fb88 4cbe cc90 39be 5d57 4e3f 8e56 093f
000002b0: c02a ed3e aafc 8fbd 4b2c 39be 6832 263e
000002c0: 7136 f8bd 3898 2e3f a794 5ebf 6aed 95bf
000002d0: 48e9 d5bc 9364 d3bd 4555 4b3e 8ffe 653e
000002e0: 3152 3fbe d719 ecbe c21f 263e e776 1a3f
000002f0: c9fc dfbe 076e 293e f4f0 c2bd 65c4 733e
00000300: 32fe efbd 5deb 3d3e 63f2 503f 4df7 df3e
00000310: 2c27 463e bb45 183e b9a7 6c3e abf9 a63e
00000320: dd6c 27bf b69d bbbe 6f37 a93e ef43 7d3f
00000330: 2126 d43e 3466 443f 48de c63e 0a97 55bf
00000340: 161e babf 60d2 a73e 7412 9b3c bc78 253f
00000350: 4f54 1f3f 4eb7 0a3e a01e 75be bd07 9cbf
00000360: 8aa5 373e 80cd 8abe d12e edbd 5432 3b3e
00000370: ed93 d63d 0c70 c83e 2c26 da3e c027 b6bd
00000380: 7403 5a3e 40d4 88be fa8a 1fbf a8c8 17be
00000390: 62fc 6b3f 99c0 c33e 36d1 0ebc ef18 ef3e
000003a0: 0c14 ec3e de5f a6bc a3a9 943e d09f 19bd
000003b0: fd57 1fbe f3dd 89bd bd41 4cbd bbd9 4ebe
000003c0: 16a6 483f a3da b73e 13e6 94be 401c 0abf
000003d0: 3a8f 25bf 04f3 00be be1f 01bf 3f2f 2c3e
000003e0: 732c afbf 60a0 80be fa73 85bc c840 4ebe
000003f0: 8ed1 31be 776f 93be c5bf 0abe 4c51 97be
1.1093782 -0.21602906 -0.33116165 -0.76652986 -0.45540097 0.47052553 -0.537704 -0.2008544
-1.3219374 0.6952558 0.8444876 0.42653635 0.4128177 0.17927518 0.055008702 0.34601757
-0.21484402 -0.070311 -0.16176403 0.21069689 0.02469567 0.2862541 0.2517251 0.21388693
-1.6212316 1.050505 0.36459705 0.07159261 -0.35936168 0.006832161 0.3898441 -0.19603494
-0.04728776 -1.0064597 -0.29446092 -0.040231876 0.6701081 0.9836341 0.21836787 0.31105405
-0.038214922 1.1254774 0.7999436 0.17376547 0.08654314 -0.20313683 0.40697506 -0.24240649
0.6187925 0.6001552 -0.15335628 0.052517008 -0.7317498 -0.14906219 -0.16359553 -0.034824073
0.03692269 1.3905631 0.8405123 0.5374271 -0.3528817 -1.2620485 -0.8562939 -0.99140626
-0.22430779 -0.3595026 -0.19921489 -0.060822364 0.008834894 -0.05892314 0.10496088 -0.02879387
0.15069312 -0.6924488 0.48330596 -0.07830623 -0.28331015 0.17354998 -0.12952931 -0.54355085
1.3952774 -0.5121487 -0.5697882 -0.63239354 -0.86057585 -0.8922902 -0.094228655 -0.39525014
-1.3811022 0.9567482 0.5905847 0.18876544 0.30277684 0.63567203 0.30661824 0.6248281
-0.63489914 0.5252612 0.85848045 -0.25502253 -0.28696448 -0.06266546 -0.070305586 -0.30969238
-2.0755804 0.25354412 0.5547336 0.4211892 0.52199507 0.44547114 0.61054724 0.24844515
-0.95006126 0.057425156 -0.18523842 -0.11520088 0.019598851 -0.0029309106 -0.16720954 -0.26168716
-0.46638983 0.32674018 0.34780857 0.16053635 0.41243264 0.19640933 0.29241085 0.39882362
0.26721522 -0.5632725 -0.0048753046 -0.65665144 -0.04863792 0.76502174 0.10511606 0.5222947
0.39661518 -0.17339861 0.44585752 0.19422841 -0.521167 0.2639713 0.29548872 0.27348414
0.8588756 0.78133875 0.48343748 0.088215716 0.0037358399 0.35144606 0.33277345 0.25345284
0.99012643 0.19741769 -0.41829365 -0.48515385 0.2094081 0.26716727 0.12641603 0.69900525
-0.14594482 -0.13941823 0.31314033 -0.03990384 -0.073518865 -0.11979746 -0.35281786 -0.24620196
-0.19974129 -0.18121642 0.80602056 0.53647697 0.46321678 -0.07030614 -0.18083303 0.16230166
-0.12119759 0.6820102 -0.86945575 -1.1713078 -0.026112214 -0.103219174 0.19856746 0.22460388
-0.18683697 -0.46113464 0.16223052 0.6033768 -0.43747547 0.16545878 -0.095186144 0.23805387
-0.11718406 0.18546815 0.8161985 0.43743363 0.1935088 0.1487035 0.23110856 0.32612357
-0.6540049 -0.3664376 0.33050105 0.98931783 0.4143534 0.7671845 0.38841462 -0.8343359
-1.4540431 0.3277769 0.018929698 0.6463735 0.6223802 0.13546488 -0.23937464 -1.2189862
0.17934242 -0.2710991 -0.11581195 0.18280917 0.10477433 0.39147985 0.42607248 -0.088943005
0.2129038 -0.26724434 -0.62321436 -0.14822638 0.9218198 0.38232878 -0.008716872 0.4669871
0.46109045 -0.020309385 0.29035673 -0.037505925 -0.15560909 -0.067317866 -0.04986738 -0.20200245
0.7837843 0.35908994 -0.29081783 -0.53949356 -0.6467167 -0.12592703 -0.5043906 0.16814898
-1.368544 -0.25122356 -0.016290653 -0.201419 -0.17365095 -0.28795978 -0.13549717 -0.29554212
