histories_pre_cls/04.29-22.18.02_65.04%_pt_LSTM_EEGNet_BcicIv2a_bs=032_lr=0.0800_ld=0.999870_k1=32_k2=16_do=0.50/best_valid_loss.pt (torch, 19802 bytes, 17 tensors)

weight f4 [8, 1, 1, 32]
0	0xc10160ef	-8.086165
1	0xc0a270ca	-5.076268
2	0x3e2eae75	0.17058738
3	0x40a6dc1f	5.2143703
4	0x40ce09fc	6.438719
5	0x40817701	4.045777
6	0x3f1749ac	0.5909679
7	0xbf690aa5	-0.9103187
8	0x3e958d0a	0.29209167
9	0x3fff6514	1.9952722
10	0x3efb095e	0.49030584
11	0xc041e15e	-3.0293803
12	0xc0cf53e5	-6.478991
13	0xc0c93ee6	-6.288928
14	0xbfe85539	-1.8151008
15	0x40844f35	4.134669
16	0x4154d045	13.300847
17	0x40b8102f	5.7519755
18	0x3caf9391	0.02143267
19	0xc0340d98	-2.8133297
20	0xc0716b1e	-3.772163
21	0xc03de838	-2.9672985
22	0xc01704c0	-2.359665
23	0xbf882d0f	-1.0638751
24	0x3f494b8d	0.78630906
25	0x40194a62	2.395165
26	0x40066fa7	2.1005647
27	0x3f3a2507	0.7271275
28	0xbf0c8166	-0.54884946
29	0xbfb42c72	-1.4076064
30	0xbf2e1f1c	-0.6801622
31	0x3f16038b	0.58599156
32	0x40b1d613	5.557382
33	0x4099f4b0	4.811119
34	0x406825eb	3.6273143
35	0x401a6184	2.412202
36	0x3e8ee190	0.27906466
37	0xc010a1fa	-2.2598863
38	0xc068bd62	-3.636559
39	0xc049c51b	-3.1526554
40	0xbfd36743	-1.6515888
41	0x3e0a9053	0.13531618
42	0x3fbaa904	1.458283
43	0x3fd7594a	1.6824124
44	0x3f4d7ed6	0.8027166
45	0xc002a47c	-2.0412893
46	0xc0877cf5	-4.2340035
47	0xc0b0368b	-5.506658
48	0xc102f734	-8.185352
49	0xc055280a	-3.3305688
50	0x3eeee2e7	0.46657488
51	0x3fb01415	1.3756129
52	0x3f185077	0.5949778
53	0xbe157875	-0.14596732
54	0xbfba7920	-1.4568214
55	0xc0177951	-2.3667796
56	0xc041ad04	-3.026185
57	0xc066f87a	-3.6089158
58	0xc0682d6d	-3.6277726
59	0xbffc6d3f	-1.9720839
60	0xbf0ae77b	-0.5425946
61	0x3da40747	0.080092005
62	0xbe993a42	-0.2992726
63	0xbeaf4cf9	-0.34238413
64	0xc027c66b	-2.6214855
65	0xbfab1849	-1.3366786
66	0xbf29bd36	-0.6630434
67	0xbef114b7	-0.47086117
68	0xbf468b52	-0.77556336
69	0xbf896353	-1.0733436
70	0xbf114d1e	-0.56758296
71	0xbf730055	-0.9492238
72	0xbf72f80b	-0.94909734
73	0xbf818eb1	-1.0121671
74	0x3eccb117	0.3997886
75	0x3ff027df	1.8762168
76	0x4018c5de	2.3870769
77	0x400c3e3d	2.1912987
78	0x404c6d6f	3.1941793
79	0x40dcf140	6.9044495
80	0x4143a22a	12.227091
81	0x410e7ab6	8.904959
82	0x409cc38f	4.898872
83	0x4091ee81	4.5603642
84	0x40c482bf	6.14096
85	0x408c08f3	4.3760924
86	0x3f9897d4	1.1921334
87	0x3eab6df8	0.33482337
88	0x3f82bbaf	1.0213526
89	0x3f1073cd	0.564267
90	0xbf18d7f0	-0.59704494
91	0xbfc717bd	-1.5554119
92	0xbfc02cc5	-1.5013663
93	0xbee05399	-0.4381378
94	0x3f10f1e5	0.566191
95	0x3f0264f8	0.50935316
96	0x40a9209d	5.285231
97	0x408636f5	4.1942086
98	0x402d4759	2.7074797
99	0x3fdd172d	1.7272698
100	0x3f87aa3f	1.059883
101	0xbd5c1c5b	-0.05373798
102	0xbf450999	-0.7696777
103	0xbf85dc13	-1.0457786
104	0xbf4290ab	-0.76001996
105	0x3e8f94f7	0.2804334
106	0xbf29ceaa	-0.6633097
107	0xbff35ab2	-1.9012053
108	0xc0687a67	-3.6324708
109	0xc0bd0ca2	-5.907792
110	0xc0fb51ce	-7.853736
111	0xc1252a9f	-10.322906
112	0xc14971ca	-12.590281
113	0xc1172441	-9.446351
114	0xc0a81a5a	-5.2532167
115	0xc01202a6	-2.2814116
116	0x3e929ec9	0.28636768
117	0x3fede79c	1.8586307
118	0x4024c1f4	2.574338
119	0x3fe96602	1.8234255
120	0x3f0079c4	0.501858
121	0xbf8ad19a	-1.0845215
122	0xc00fa07a	-2.2441697
123	0xc0483bc3	-3.1286476
124	0xc04bf353	-3.1867263
125	0xbfee6331	-1.8624021
126	0xbf8e253a	-1.1105111
127	0xc0055bf6	-2.0837379
128	0xc0a8703d	-5.263701
129	0xc0bacf7c	-5.8378277
130	0xc0af7fc5	-5.484347
131	0xc07d3cae	-3.9568286
132	0xbfa93b40	-1.3221207
133	0x3fdce605	1.7257696
134	0x40754b16	3.832708
135	0x409b7c45	4.8589196
136	0x408880ce	4.265723
137	0x405b3898	3.4253292
138	0x3fec48b2	1.8459685
139	0xbdcba7cf	-0.09944116
140	0xbfd36dea	-1.6517918
141	0xc0009f85	-2.0097363
142	0xbffc28a9	-1.9699908
143	0xbf4c9ce4	-0.79926896
144	0x402f023e	2.7345119
145	0x40227e91	2.538975
146	0x3fe6ca11	1.8030416
147	0x3fddcb80	1.7327728
148	0x3ffe5639	1.9870063
149	0x3fa20dca	1.2660458
150	0x3f18e7c5	0.5972865
151	0xbe3c932b	-0.18415515
152	0xbfa376cd	-1.277063
153	0xbf9893ca	-1.1920102
154	0xbf40290d	-0.7506264
155	0xbf0909a5	-0.5353034
156	0xbe9204bc	-0.28519237
157	0x3f13ee4e	0.577855
158	0x3f8b2150	1.0869541
159	0x3f199f97	0.6000914
160	0xc0531718	-3.2982845
161	0xc02181e6	-2.5235534
162	0xbff77faa	-1.9335835
163	0xbfa45ff6	-1.2841785
164	0x3c45d272	0.0120741
165	0x3fb59036	1.4184635
166	0x3f812c42	1.0091631
167	0xbf0bf84d	-0.5467575
168	0xbf8449b8	-1.0334997
169	0x3fbeb407	1.489869
170	0x40632be5	3.549554
171	0x402b8d0b	2.6804836
172	0x3eac668e	0.33671993
173	0xbef43fe3	-0.47704992
174	0x4018c2cf	2.3868902
175	0x40dd8646	6.922641
176	0x411ab377	9.668815
177	0x3fd69b04	1.6766057
178	0xbfcdea92	-1.608721
179	0xbf21e8e8	-0.6324601
180	0x404373a2	3.0539327
181	0x403a763f	2.9134672
182	0x3e0facb8	0.1403073
183	0xbfbfcd54	-1.4984536
184	0xbeeb9798	-0.46014094
185	0x3f8cee91	1.1010305
186	0xbebe49ea	-0.37165767
187	0xc0033d45	-2.0506146
188	0xbfe5e7e3	-1.7961391
189	0xbefb8a45	-0.4912893
190	0x3df3a57f	0.118968
191	0xbf9b9c4b	-1.2157072
192	0xbffee750	-1.9914341
193	0xbf033a84	-0.5126116
194	0x3dc5ada5	0.09652261
195	0x3dfb47f3	0.122695826
196	0xbe393175	-0.18085273
197	0x3e645329	0.22297348
198	0x3ee3cae3	0.44490728
199	0x3db1d472	0.08683099
200	0xbd8d5893	-0.0690166
201	0x3efacc1b	0.48983845
202	0x3f93c865	1.154553
203	0x3fb51182	1.4145968
204	0x3fd578ed	1.6677529
205	0x401884f1	2.383114
206	0x4054bf9d	3.3241951
207	0x407f42a4	3.9884424
208	0x40d37e3f	6.609161
209	0x408ed81e	4.4638815
210	0x4041365a	3.0189424
211	0x4050ed91	3.2645
212	0x40460b41	3.094437
213	0x402ac70a	2.6683984
214	0x3fca4b80	1.5804291
215	0x3f7de2c1	0.99174124
216	0x3f87bd87	1.0604714
217	0x3f81959b	1.0123781
218	0x3f97012e	1.1797235
219	0x3fa35c84	1.2762609
220	0x3fe8c70c	1.8185744
221	0x402224d8	2.5334988
222	0x403292ae	2.7902026
223	0x40268c1c	2.6023016
224	0xbf787c45	-0.9706462
225	0xbfbf187a	-1.4929345
226	0xbfc465d6	-1.5343578
227	0xbfd78aa3	-1.6839184
228	0xc01f2b99	-2.487036
229	0xc0358762	-2.836388
230	0xc015342d	-2.3313096
231	0xbfe0425c	-1.7520251
232	0xbf91a2c9	-1.1377803
233	0xbee58eae	-0.44835418
234	0x3f2961dd	0.6616495
235	0x3ffae866	1.9602172
236	0x404596f2	3.087338
237	0x409577c8	4.6708717
238	0x40ac8c8d	5.392157
239	0x40a933a0	5.287552
240	0x40ab4ac9	5.352879
241	0x40b184fc	5.5474834
242	0x40a5d1eb	5.1818748
243	0x409711a2	4.7209024
244	0x40669c6b	3.603297
245	0x401ebad0	2.4801521
246	0x3e732e1d	0.2374806
247	0xbfb7fc55	-1.4373881
248	0xc04cb4ef	-3.1985433
249	0xc0a1a810	-5.0517654
250	0xc082e785	-4.0907617
251	0xc0141344	-2.3136759
252	0xbf79b80c	-0.9754646
253	0xbff05286	-1.8775184
254	0xbfd0d0d1	-1.6313726
255	0xbfd5065b	-1.6642565

weight f4 [8]
0	0x3e86913e	0.26282686
1	0x410e8d9e	8.9095745
2	0x40e6e9a5	7.216021
3	0x40e34bd0	7.1030045
4	0x41392753	11.572101
5	0x3f0c852a	0.5489069
6	0x40f12b6f	7.536552
7	0x403fbde8	2.995966

bias f4 [8]
0	0x3f33ad2e	0.70186126
1	0xbe4fbfcf	-0.20288013
2	0x3f7baf31	0.98314196
3	0x40112ea8	2.2684727
4	0xc008eb9c	-2.1393805
5	0x3e0f9324	0.14020973
6	0x3d3107d2	0.04322035
7	0xbf6dd669	-0.9290529

running_mean f4 [8]
0	0x3f80dbd5	1.0067087
1	0xc161d4dc	-14.114468
2	0x41bfd25b	23.977713
3	0xc1dc0f31	-27.507418
4	0x3fb3f709	1.4059764
5	0x410df9a0	8.873444
6	0x41cf9670	25.948456
7	0x40a6dc2a	5.2143755

running_var f4 [8]
0	0x41e2c6c5	28.347055
1	0x420365b3	32.849316
2	0x42895340	68.6626
3	0x42bca194	94.31558
4	0x41b724c6	22.892956
5	0x418fde09	17.983416
6	0x42489f7b	50.155743
7	0x42179c1f	37.902462

weight f4 [16, 1, 22, 1]
0	0x3e816ca6	0.25278205
1	0xbd65acf7	-0.056073155
2	0x3e175fdf	0.14782666
3	0xbe3c0637	-0.18361746
4	0xbea69f52	-0.32543427
5	0xbec11758	-0.37713122
6	0xbd87b9db	-0.06627246
7	0x3d8fbfe5	0.07019023
8	0x3da1d791	0.07902444
9	0xbe72cd8f	-0.23711227
10	0xbcd73d3e	-0.02627432
11	0x3edf1129	0.4356778
12	0xbd8f1cf3	-0.069879435
13	0xbd0b8394	-0.03406103
14	0xbdcc4001	-0.09973145
15	0x3a4f3559	0.0007904373
16	0x3e72a73f	0.23696612
17	0x3ec370aa	0.38171893
18	0x3da58d84	0.080836326
19	0x3e24e0b6	0.16101345
20	0xbeaba7a4	-0.33526337
21	0xbd75715b	-0.059922557
22	0xbcd60efe	-0.026130196
23	0x3e831a0c	0.2560581
24	0x3d930ce8	0.07180196
25	0x3e222999	0.15836181
26	0xbdd8552c	-0.1056312
27	0xbd3b90d4	-0.045792416
28	0x3e7227c6	0.23647985
29	0xbec0c25c	-0.37648284
30	0x3e1628b7	0.14663969
31	0x3e93a841	0.28839305
32	0xbd3f2248	-0.046663553
33	0x3d373312	0.04472644
34	0x3e0348fe	0.12820813
35	0xbf1c3772	-0.610221
36	0xbe678b66	-0.2261177
37	0x3e423f74	0.18969518
38	0xbd2a8d7c	-0.041638836
39	0xbdbb062a	-0.09132035
40	0x3d468a68	0.04847184
41	0x3dc856ac	0.09782156
42	0xbe66529f	-0.22492455
43	0x3e402599	0.18764342
44	0xbd7210d6	-0.059098087
45	0x3d57f4a6	0.05272355
46	0x3dab9154	0.083773285
47	0xbbfe718c	-0.0077650007
48	0xbcec361a	-0.028834391
49	0x3b5b0cdf	0.003342442
50	0xbe3aacb9	-0.18229951
51	0xbdd7956a	-0.10526545
52	0x3e44edef	0.1923139
53	0x3dcde973	0.100542925
54	0x3e2ebf85	0.17065246
55	0x3df68dcd	0.12038765
56	0xbed88e46	-0.42296046
57	0x3ca7a5a9	0.020464735
58	0x3e7df71d	0.24801297
59	0xbd2b2f9a	-0.041793443
60	0x3d44519c	0.04792939
61	0x3e40cc81	0.18828012
62	0xbdd2cfab	-0.10293516
63	0x3e999dc5	0.3000318
64	0x3d8766ed	0.066114284
65	0xbf2e9d01	-0.6820832
66	0xbe6e0877	-0.23245417
67	0x3d03a246	0.032137178
68	0x3e8c7876	0.27435654
69	0x3e70446c	0.23463601
70	0xbc85eac5	-0.016347298
71	0xbea7281e	-0.32647794
72	0x3eb53b6f	0.35396907
73	0x3dc2839d	0.094977595
74	0x3e26a3e8	0.16273463
75	0xbe35115f	-0.17682408
76	0xbdd6e97a	-0.10493751
77	0xbd38272c	-0.044959232
78	0x3c684a4b	0.014177869
79	0x3df6685e	0.12031625
80	0xbd094698	-0.03351459
81	0xbf050fff	-0.51977533
82	0xbe72efde	-0.23724315
83	0x3e6ccd00	0.23125076
84	0xbe129167	-0.14313279
85	0x3e232e53	0.1593564
86	0x3e6d3810	0.23165917
87	0x3dad6a07	0.08467489
88	0xbe64230d	-0.22278996
89	0x3eb8c30d	0.36086312
90	0x3de74fd1	0.11294521
91	0x3de1228a	0.10992916
92	0x3dbc712f	0.092012756
93	0x3d59283f	0.053016897
94	0x3ce59407	0.028024687
95	0xbe155c65	-0.14586027
96	0xba1f6e92	-0.0006081845
97	0x3e433499	0.19063033
98	0xbe063d4a	-0.13109317
99	0xbeedd9ba	-0.46455175
100	0x3d551de0	0.052030444
101	0xbebd6207	-0.3698885
102	0xbc47269b	-0.0121552
103	0x3eadc3d8	0.3393848
104	0xbd627ccd	-0.0552948
105	0xbec5ac36	-0.3860795
106	0xbd036d3f	-0.032086607
107	0x3e58ca8e	0.21171018
108	0x3e2f7626	0.17134914
109	0x3dd0fa3a	0.10203977
110	0x3e1d5f20	0.15368319
111	0xbe3f1705	-0.18661125
112	0x3e03ec8c	0.12883204
113	0x3e576498	0.21034467
114	0xbe227e0d	-0.15868397
115	0xbeab4961	-0.3345442
116	0x3e38cc68	0.18046725
117	0x3df4ee1a	0.11959477
118	0x3e240ba4	0.16020066
119	0x3d72310f	0.059128817
120	0xbe4641b7	-0.19361006
121	0xbe768a98	-0.24076307
122	0x3ed4ca67	0.4156067
123	0xbdbfde86	-0.09368615
124	0xbd7a67f5	-0.061134297
125	0xbda09019	-0.078399844
126	0x3ca22883	0.019794708
127	0x3e772f83	0.24139218
128	0xbeea939d	-0.45815745
129	0x3c249ca5	0.010047113
130	0x3eab477f	0.33452985
131	0xbadb67a8	-0.0016739266
132	0xbed152b3	-0.40883407
133	0x3ebb1153	0.36536655
134	0x3e52a6b3	0.20571403
135	0x3d3744a1	0.044743184
136	0x3dc335c0	0.095317364
137	0xbc2b1e9c	-0.01044431
138	0xbd5c81d5	-0.053834755
139	0x3e771f58	0.2413305
140	0x3dfa7db5	0.12231008
141	0xbe253236	-0.16132435
142	0xbdf028a3	-0.11726501
143	0x3e0470fc	0.12933725
144	0x3cbbe87c	0.022938006
145	0xbe89f071	-0.26941255
146	0xbe9498c0	-0.2902279
147	0xbe7e2905	-0.24820335
148	0xbde6bacf	-0.112661
149	0x3c14f871	0.009092436
150	0xbe980515	-0.29691377
151	0xbd94ed8a	-0.072718695
152	0x3e478dbe	0.19487664
153	0x3ec5a061	0.38598922
154	0xbccc514f	-0.024941115
155	0xbcf25f2d	-0.029586399
156	0xbe1708e6	-0.14749488
157	0xbeb83f1f	-0.35985658
158	0xbdef3e0a	-0.11681755
159	0x3d8c895d	0.068621375
160	0xbde28e0b	-0.11062249
161	0x3f083159	0.532003
162	0x3e1037d6	0.140838
163	0xbea87c11	-0.32907155
164	0xbe0e48ee	-0.13895008
165	0x3ec29143	0.3800145
166	0x3e2bbb11	0.16770579
167	0x3e7719e6	0.24130973
168	0xbd0ff6bf	-0.035147425
169	0xbd26754d	-0.04063921
170	0xbda1220d	-0.07867823
171	0xbdf6dd9c	-0.120539874
172	0xbe1bcc3d	-0.1521463
173	0xbc8f7067	-0.017509652
174	0xbe5c2450	-0.21498227
175	0x3e7ed0e1	0.24884368
176	0xbd82b44d	-0.06382046
177	0x3ca8087d	0.02051186
178	0x3e04ed65	0.12981184
179	0x3e06b405	0.1315461
180	0xbe20f6f3	-0.15719204
181	0x3d0a21c6	0.033723615
182	0xbdb902e3	-0.09033754
183	0xbe523cb1	-0.20530964
184	0x3e8617e3	0.261901
185	0xbde539a5	-0.111926354
186	0x3e93c66a	0.28862315
187	0x3d30cb92	0.04316289
188	0xbe18c047	-0.14917098
189	0x3e31f0cc	0.17377013
190	0x3e3e69f0	0.185951
191	0xbf362308	-0.71147203
192	0xbdbb16f9	-0.09135241
193	0x3e0dcd45	0.13847835
194	0x3cc08b5e	0.023503955
195	0xbe51961d	-0.2046742
196	0x3e537571	0.20650269
197	0x3dea2178	0.11432165
198	0xbe8fd50e	-0.28092235
199	0xbdccb890	-0.0999614
200	0xbd41a93d	-0.04728054
201	0x3e00b3ac	0.1256854
202	0x3e4550a7	0.19269048
203	0x3ec72078	0.3889196
204	0x3e6ccbbc	0.23124593
205	0xbe1fc637	-0.15602957
206	0xbe8121c3	-0.2522107
207	0xbd2fb6d1	-0.042898957
208	0x3e14588e	0.14486906
209	0xbe48932c	-0.19587392
210	0x3e1e84fb	0.15480416
211	0x3eb182ee	0.34670204
212	0xbd4689bf	-0.04847121
213	0xbec51be3	-0.38497838
214	0xbe2534e4	-0.16133457
215	0xb9800d35	-0.00024423903
216	0x3e56eaba	0.20987979
217	0xbe8f1500	-0.2794571
218	0x3e6a24a7	0.22865544
219	0xbda9a5e5	-0.08283595
220	0xbe4f0bfd	-0.20219417
221	0x3dccf84c	0.10008296
222	0x3d8b6aeb	0.06807502
223	0x3c3249ab	0.010881822
224	0x3da00ecd	0.07815323
225	0x3d026b37	0.03184053
226	0xbd82c459	-0.063851066
227	0x3e5e94fc	0.2173652
228	0x3c8e5b0b	0.017377397
229	0xbe930299	-0.2871292
230	0x3e18900a	0.14898697
231	0x3f1413d9	0.57842785
232	0xbeacc7fa	-0.3374632
233	0x3de064da	0.10956736
234	0xbe0f993a	-0.14023295
235	0xbecd661b	-0.40116963
236	0x3d0716af	0.032980617
237	0x3e430dbb	0.19048207
238	0xbd85c41f	-0.06531548
239	0xbdbbbd1b	-0.091669284
240	0xbddc34bc	-0.10752246
241	0x3e8e92b4	0.278463
242	0x3e465656	0.19368872
243	0x3e3e9eb8	0.18615234
244	0xbe1e9e4f	-0.15490077
245	0xbea120cf	-0.31470343
246	0xbeeb114a	-0.45911628
247	0xbe1f78f6	-0.15573487
248	0x3cf6acf1	0.030111762
249	0x3e23335c	0.15937561
250	0x3e554cbe	0.20830056
251	0x3df81ccb	0.12114867
252	0xbdd997f4	-0.10624686
253	0xbd7bbb77	-0.061458077
254	0x3e814227	0.25245783
255	0xbdfd5540	-0.12369776

weight f4 [16]
0	0x40dbaab8	6.8645897
1	0x40a3d8ef	5.120231
2	0x4002c5db	2.0433261
3	0x3fab8033	1.3398498
4	0x3f667c49	0.90033394
5	0x3f9b5d1d	1.2137791
6	0x3fb33cdc	1.4002948
7	0x3f8069aa	1.0032246
8	0x404f1cfa	3.2361436
9	0x40099ae8	2.1500797
10	0x40559636	3.3372931
11	0x405983e6	3.3986754
12	0x3fc950ec	1.572782
13	0x404b27b1	3.1742976
14	0x40f6ec4c	7.716345
15	0xc0a50f34	-5.158106

bias f4 [16]
0	0xc07a4811	-3.9106486
1	0xc025c3fc	-2.590087
2	0xbf3094ad	-0.6897686
3	0x3dbed0aa	0.09317143
4	0x3ce1b39d	0.027551467
5	0xbdceaef6	-0.10091965
6	0xbdb45f0b	-0.088071905
7	0xbe9519f1	-0.29121354
8	0xbfaebb16	-1.3650844
9	0xbf2e5d59	-0.6811119
10	0xbf8f8eeb	-1.121549
11	0xbee2b1a0	-0.44276142
12	0xbbd96a4d	-0.0066349865
13	0xc025788b	-2.5854824
14	0xbf5f4a5f	-0.87222856
15	0xc034ab32	-2.822949

running_mean f4 [16]
0	0xbc384971	-0.011247979
1	0x3d1ef56c	0.03880827
2	0xbdebba11	-0.11510099
3	0x3dc045a0	0.0938828
4	0xbe6fb410	-0.23408532
5	0xbecb983b	-0.3976458
6	0xbf40f109	-0.7536779
7	0xbf439bad	-0.7640942
8	0x3db7cf30	0.08975065
9	0x3dbf78ee	0.093492374
10	0x3d4dc13b	0.050233107
11	0xbd1864e1	-0.03720558
12	0xbe3fdd08	-0.1873666
13	0x3f240e2e	0.64084136
14	0xbe21a137	-0.15784155
15	0xbf1f05e6	-0.62118375

running_var f4 [16]
0	0x3c312f10	0.010814443
1	0x3ca6667a	0.020312537
2	0x418ba6df	17.45648
3	0x417da2f5	15.852284
4	0x410ac4ac	8.673016
5	0x40d80be0	6.7514496
6	0x411f5558	9.958336
7	0x41503dd5	13.015096
8	0x40c5577d	6.1669297
9	0x4149d6a6	12.614904
10	0x3d02371b	0.031790834
11	0x3d473783	0.048636924
12	0x40e9e61e	7.3093405
13	0x418d8180	17.688232
14	0x3fe37a95	1.7771784
15	0x404c108e	3.1885104

weight f4 [16, 1, 1, 32]
0	0x4102d390	8.176651
1	0x40a3b8fb	5.1163306
2	0x40f5b0f7	7.677852
3	0x40d4ce0c	6.650152
4	0x4037665d	2.8656228
5	0x408f8f58	4.486248
6	0x404ee6ca	3.2328362
7	0xbedc3e3e	-0.43016237
8	0x401f2793	2.4867904
9	0x409c8169	4.890797
10	0x4087a8d7	4.2393603
11	0x40f488ca	7.641698
12	0x40000b6e	2.0006976
13	0x409b67bd	4.8564134
14	0x4070445b	3.754172
15	0xbeca33e0	-0.39492702
16	0x3f96244a	1.1729825
17	0xbf8f9270	-1.1216564
18	0x3f53e284	0.8276751
19	0xc001af31	-2.0263178
20	0x3fe157e7	1.7604951
21	0xbfac45e7	-1.3458833
22	0x400bdb0c	2.1852446
23	0xbe5735c1	-0.21016599
24	0x3e9399a2	0.2882815
25	0xbf732e1b	-0.94992226
26	0xc021871b	-2.5238712
27	0xbf111454	-0.56671643
28	0x3f00dbbd	0.50335294
29	0x3f768cef	0.963088
30	0xc027e988	-2.6236286
31	0x3fef9e35	1.8720156
32	0x41034521	8.204377
33	0x40ff0ae6	7.9700804
34	0x40bb639f	5.855911
35	0x4095d9dc	4.682844
36	0x408b243e	4.348174
37	0x4062337a	3.5343919
38	0x4079f044	3.9052896
39	0x40d7c82b	6.7431846
40	0x4105ffa9	8.374917
41	0x4026f111	2.6084635
42	0xbf1871d3	-0.5954868
43	0x400095aa	2.0091348
44	0xbd3d67b3	-0.046241473
45	0xc03a46b5	-2.9105656
46	0x3efef06c	0.49792802
47	0xbf214efb	-0.6301114
48	0xc096a1e6	-4.707263
49	0x3f98077f	1.1877288
50	0x4058aaec	3.3854322
51	0xbf1184d3	-0.568433
52	0x405ea138	3.47859
53	0x3ff7e088	1.9365396
54	0xbf284fcf	-0.6574678
55	0x3f891ae5	1.0711333
56	0xbe135dfd	-0.14391322
57	0xbfd6ffa7	-1.6796769
58	0x405f5be9	3.4899848
59	0x3fdd9f1f	1.7314185
60	0xc0b4f3ae	-5.654746
61	0x409e658a	4.949895
62	0x3f3de30e	0.7417458
63	0x402691ad	2.6026413
64	0xc0b955f0	-5.7917404
65	0xc08a596e	-4.3234167
66	0xbe78fd42	-0.2431536
67	0xbd80ae5d	-0.06283257
68	0xbee76f0d	-0.45201913
69	0x3f34404c	0.7041061
70	0xbe76def4	-0.24108487
71	0x3fa6d3b7	1.303336
72	0x3ffb44fb	1.9630426
73	0x409c4c4b	4.884313
74	0x40d9c223	6.8049483
75	0x40ec58b7	7.3858294
76	0x40c04ed3	6.009622
77	0x40271ab1	2.611004
78	0xbe8ef5f7	-0.2792203
79	0x3f58f51d	0.84749013
80	0x3f969573	1.1764358
81	0x3f8e285c	1.1106067
82	0x3f166fcd	0.58764344
83	0x3f46caf7	0.7765345
84	0x3f9a9f12	1.2079794
85	0x3f929b97	1.1453732
86	0x4032943f	2.7902982
87	0x3fe4621c	1.7842441
88	0x3fc58bce	1.543329
89	0x3dff649b	0.12470361
90	0xc0161ed8	-2.3456326
91	0xc020b204	-2.5108652
92	0x3f6a9024	0.9162619
93	0xbfaa7efa	-1.332
94	0xbe7b1ca8	-0.2452265
95	0xbfe841b6	-1.8145053
96	0x40b95022	5.791032
97	0x4051acab	3.2761638
98	0xbfa3b8f4	-1.2790818
99	0xc0934bf7	-4.603023
100	0xc0c9f50c	-6.311163
101	0xc076b135	-3.8545659
102	0xc01466b1	-2.3187678
103	0x3f86c95d	1.0530201
104	0x402f48da	2.7388215
105	0x3ddedf87	0.10882478
106	0xbf88abd4	-1.0677438
107	0xc06c88e5	-3.6958554
108	0xc075c870	-3.8403587
109	0xc05fba57	-3.4957483
110	0xc07529f4	-3.8306856
111	0xc077f695	-3.8744252
112	0xc0d19419	-6.5493283
113	0xc0847f2f	-4.1405253
114	0xbeb82a91	-0.35969976
115	0x3fec037f	1.8438567
116	0x408c6d70	4.388359
117	0x3fc2c37b	1.5215906
118	0xbe111791	-0.14169146
119	0x3f0abd6c	0.54195285
120	0x3ebcef00	0.36901093
121	0x3fc5ecfc	1.5462947
122	0x3e7125ea	0.2354962
123	0xbedc83a7	-0.43069193
124	0x3fb6308e	1.4233568
125	0x3fb9b814	1.4509301
126	0x406b239d	3.6740487
127	0x40b07b2d	5.515036
128	0xc0695edc	-3.6464148
129	0xc0ae848f	-5.4536815
130	0xc0cc9073	-6.392633
131	0xc0993c8e	-4.788642
132	0xc092777d	-4.577086
133	0xc0bee409	-5.9653363
134	0xc0c04be3	-6.0092635
135	0xc057fccd	-3.3748047
136	0xbf3dfb9b	-0.74212044
137	0x3fea90f1	1.8325483
138	0x401d1b1e	2.45478
139	0x40165d6c	2.349452
140	0x3fcdf302	1.6089785
141	0x3fb6c362	1.4278376
142	0x4016bda2	2.3553243
143	0x3fa1fcee	1.2655313
144	0x3d42c474	0.047550634
145	0x3f1dd2a8	0.6164956
146	0x3fb2dcb6	1.3973606
147	0x3dbcbd87	0.09215837
148	0x3f911c7b	1.1336817
149	0x400791b9	2.1182692
150	0x407ef337	3.9835947
151	0x4065c979	3.590422
152	0x3ed091e3	0.40736303
153	0xbfb2962e	-1.3952081
154	0xbf1e66a1	-0.6187535
155	0xbd87748d	-0.06614027
156	0x3fc4c234	1.5371766
157	0x408ff652	4.4988184
158	0x40566b9c	3.350318
159	0x4082e0ef	4.0899577
160	0x408fee66	4.4978514
161	0x4055cb86	3.340547
162	0x3ff5263c	1.9152293
163	0x3f117ff8	0.5683589
164	0x3e6b5ef7	0.22985445
165	0x3f525022	0.8215352
166	0x3fff501b	1.9946321
167	0x4002fc53	2.0466506
168	0x3fdc787a	1.7224267
169	0xbe709e5d	-0.23497911
170	0xc0591242	-3.3917394
171	0xc0ba32ec	-5.818716
172	0xc0a8734f	-5.2640758
173	0xc09b9961	-4.862473
174	0xc0b0fb0d	-5.530646
175	0xc09a871d	-4.8289933
176	0xc087b812	-4.2412195
177	0xbfe9cb1a	-1.8265107
178	0x3f76a095	0.9633878
179	0x3f47fc6c	0.7811954
180	0x3f6db66a	0.92856467
181	0xbf3783b1	-0.7168532
182	0xbf9560bf	-1.167015
183	0xbf7efebb	-0.9960744
184	0xbf73db51	-0.95256525
185	0xbf012b06	-0.50456274
186	0x3f8eb79e	1.1149786
187	0x3fc7e37d	1.5616299
188	0x3ec639ff	0.38716123
189	0x3ef7aa76	0.4837224
190	0x40344442	2.8166661
191	0x4080e7e6	4.028308
192	0xbfa7c109	-1.3105785
193	0x3ef724ff	0.48270413
194	0xbf10eef0	-0.5661459
195	0xc046f371	-3.1086085
196	0xc07c2f41	-3.9403841
197	0xc072358d	-3.7845185
198	0xc09b013a	-4.8438997
199	0xc0944056	-4.6328535
200	0xc0997257	-4.7952075
201	0xc02ec379	-2.7306807
202	0xbfa08602	-1.2540896
203	0x3d2243ea	0.03961555
204	0x4009119c	2.1416998
205	0x4007c379	2.1213057
206	0x3fa32383	1.2745212
207	0x3fd96855	1.6984965
208	0xbf15a7be	-0.5845908
209	0xc01d0265	-2.4532712
210	0xbfc3b3f7	-1.5289296
211	0x3eefd88e	0.46844906
212	0x40403a24	3.0035486
213	0x404430b3	3.0654724
214	0x407bca46	3.9342208
215	0x403b9dde	2.9315104
216	0x4079b3a4	3.9015894
217	0x3cea6c59	0.028616117
218	0xbf3828c1	-0.71937186
219	0x3e9d75de	0.30753988
220	0xbe6a9649	-0.22908892
221	0x40497b68	3.1481571
222	0x40cba93b	6.364408
223	0x4061213c	3.5176535
224	0x40589ea3	3.3846824
225	0x4061f998	3.530859
226	0x4097eb4d	4.7474732
227	0x40d710a6	6.7207823
228	0x409962ad	4.7932954
229	0x4098784e	4.7646856
230	0x40b82892	5.7549524
231	0x40bb1430	5.8462143
232	0x40d62134	6.691553
233	0x404f5a62	3.2398915
234	0x3fabb8a3	1.3415722
235	0x3f966bb1	1.1751615
236	0xc003a75f	-2.0570905
237	0xc0076a40	-2.11586
238	0xbff5e6ea	-1.9211094
239	0xc01c5ed0	-2.443287
240	0x3d03909b	0.03212033
241	0x3f40e983	0.7535631
242	0xbfb009dc	-1.3753009
243	0xc07741ba	-3.8633866
244	0xc07647b6	-3.848127
245	0xc071c272	-3.777493
246	0xc03949e9	-2.895136
247	0xbf9d0459	-1.2266952
248	0xc010485b	-2.2544162
249	0x3fb13b1f	1.3846167
250	0x3fef5e9e	1.870075
251	0xbd838cc6	-0.06423335
252	0x3c7d01ae	0.015442295
253	0xc045b414	-3.089116
254	0xc0acba65	-5.3977532
255	0xc08c3c18	-4.3823357

weight f4 [16, 16, 1, 1]
0	0x3e9f49bf	0.3111095
1	0xbebb9acc	-0.36641538
2	0x3fcc9828	1.5983934
3	0xbf9a84db	-1.2071794
4	0x3faa55c9	1.330743
5	0xc041a8f4	-3.025937
6	0x4038345f	2.8781965
7	0xc092b304	-4.5843525
8	0x4009c379	2.1525557
9	0x3e476385	0.19471557
10	0x3f35c1ea	0.70999014
11	0x40168ddb	2.3524082
12	0xc00d8497	-2.2112176
13	0x3e69bacc	0.22825164
14	0x40c844d6	6.258403
15	0xbfea2db5	-1.8295199
16	0xc0553023	-3.331063
17	0x3de50a71	0.11183632
18	0xc0589b56	-3.384481
19	0xc067b26b	-3.6202648
20	0xbfb7d0e5	-1.4360625
21	0x40c0f76e	6.030204
22	0xc047f939	-3.1245863
23	0x40539d92	3.3064923
24	0xbf520f8c	-0.8205497
25	0x40af46ca	5.4773912
26	0xc0965c47	-4.6987643
27	0xc04e0053	-3.2187698
28	0x3fe5c448	1.7950525
29	0xbe4bf440	-0.19917393
30	0x406025ee	3.502315
31	0xbfbd21b3	-1.4775909
32	0x40189d55	2.3846028
33	0xc1099d64	-8.600925
34	0x3fe437ea	1.7829564
35	0x3e708bf4	0.23490888
36	0x402c2af7	2.6901224
37	0xbf21cf19	-0.6320663
38	0x4040262a	3.0023293
39	0xbfd076a5	-1.6286207
40	0xc05431d0	-3.3155403
41	0x401631c1	2.3467867
42	0x4031138e	2.7668185
43	0xc0133799	-2.3002684
44	0x3f747073	0.95484084
45	0xc00f39aa	-2.2378945
46	0xc04720b6	-3.1113715
47	0xbfd42de5	-1.6576506
48	0xbdeafdd6	-0.114741966
49	0x3ffc4ee9	1.9711581
50	0xbf286b3a	-0.65788615
51	0xc046c43c	-3.1057272
52	0xc011596b	-2.2710826
53	0x40ac38c1	5.381928
54	0xbfd043fd	-1.6270748
55	0x402085fe	2.5081782
56	0xbd4a9967	-0.049462702
57	0x40db1ec2	6.8475046
58	0xbfe603a3	-1.796986
59	0xc027ffe9	-2.6249945
60	0x4024812f	2.5703847
61	0xbf554de2	-0.83321965
62	0xc080f43a	-4.029813
63	0x400a5976	2.1617103
64	0xbfc710e0	-1.5552025
65	0xbeafd8c9	-0.3434508
66	0xbf4792e4	-0.7795851
67	0x40041d14	2.0642748
68	0x3fa0b1a3	1.255421
69	0xc086636e	-4.1996374
70	0x40a90e27	5.2829776
71	0xc094acfb	-4.646116
72	0xbe8e184a	-0.27752906
73	0xc06cc40c	-3.6994658
74	0x4080ad5e	4.021163
75	0xc006e7f5	-2.1079075
76	0xc0a43fdc	-5.1327953
77	0xbf9c10e3	-1.2192653
78	0xc0666c3e	-3.6003566
79	0xc07db9f9	-3.9644759
80	0x3f352fbb	0.70775956
81	0x3fb1b135	1.3882204
82	0xbfd27e52	-1.64448
83	0xc0b2fe02	-5.593507
84	0x4057acb2	3.3699155
85	0xbffaff8d	-1.9609238
86	0xc0553a93	-3.3317
87	0x3fe5d378	1.795516
88	0x409b57ad	4.8544526
89	0xc093dfaf	-4.621055
90	0x4002bbb3	2.0427063
91	0xbf29e8b5	-0.6637071
92	0x3f4ee5e0	0.8081951
93	0xc0d1a6f7	-6.5516315
94	0x4037885a	2.8676972
95	0x3f95aaee	1.1692789
96	0xbfcfafa7	-1.622548
97	0x40ad04c8	5.4068336
98	0x40819261	4.0491185
99	0xc002b0e8	-2.0420475
100	0x40f07090	7.5137405
101	0x3ddc3ad7	0.1075341
102	0x4088d97b	4.276548
103	0xc094db50	-4.6517715
104	0x3f9a8435	1.2071596
105	0xbf3eddb6	-0.74557054
106	0x3f8d0eca	1.1020138
107	0x406f51d9	3.7393706
108	0x3fbdf1ce	1.4839418
109	0xc04caf84	-3.1982126
110	0xc087a09c	-4.2383556
111	0x4011c131	2.2774165
112	0xbe0950e9	-0.13409771
113	0xbf557d8f	-0.8339471
114	0xc00d1c46	-2.2048507
115	0x401c3db3	2.4412658
116	0xc0a0956e	-5.018241
117	0x3fee2223	1.8604168
118	0x3f91eb86	1.1400001
119	0x3fbd5591	1.4791738
120	0x3ff8725e	1.9409902
121	0x403c7048	2.944353
122	0xc0896274	-4.293268
123	0x4057b043	3.3701332
124	0x4091543b	4.541532
125	0x401d7abe	2.4606166
126	0xc07adc0c	-3.9196806
127	0x3f5f610e	0.8725747
128	0xbfff8be9	-1.9964572
129	0x410eccd2	8.925005
130	0x3ed1e6a9	0.40996292
131	0x404135d9	3.0189116
132	0xbf9ea7b0	-1.2394924
133	0xbd9faa0d	-0.077961065
134	0x4058245f	3.37722
135	0xc0a36d67	-5.107105
136	0x400c4bfa	2.1921372
137	0x3e9e2fe0	0.308959
138	0x4005be64	2.0897455
139	0xbf1b73fa	-0.6072384
140	0x4000ff95	2.0155995
141	0xc001d205	-2.0284436
142	0x3fad1b34	1.3523927
143	0x40ab45aa	5.352254
144	0x3f05f156	0.52321374
145	0xbf34f090	-0.7067957
146	0xc0e90484	-7.281801
147	0x40838fb7	4.1112933
148	0xc0abb020	-5.3652496
149	0x3f90f669	1.1325198
150	0x3fb7645d	1.4327503
151	0x3fc55d7a	1.5419152
152	0x3f3bb183	0.73317736
153	0xbfa89816	-1.3171413
154	0x408157e9	4.041981
155	0x3ec23fd7	0.3793933
156	0xbf29f48a	-0.6638876
157	0x3fa294e1	1.2701684
158	0x4084084f	4.126014
159	0x3f9ed4e6	1.2408721
160	0xbf9b67b4	-1.2141023
161	0xbf908bc7	-1.1292657
162	0x40090f57	2.1415613
163	0xc0a31ee1	-5.0975194
164	0xbfd9976a	-1.6999333
165	0x403ac71f	2.9184034
166	0xbfdbc2cd	-1.7168823
167	0xc035f854	-2.8432817
168	0xbff394ff	-1.9029845
169	0x40d4df46	6.652255
170	0xbf88578e	-1.065172
171	0xc01b00de	-2.421928
172	0xc006ca60	-2.106102
173	0xc065028e	-3.578281
174	0x4027751b	2.6165226
175	0x3f064200	0.5244446
176	0x40b69611	5.7058187
177	0xc03aaa39	-2.9166396
178	0xbf2d4b2f	-0.67692846
179	0xbfee510e	-1.8618486
180	0x3fb9d3d9	1.4517776
181	0xbfe7e26d	-1.8115975
182	0xc01e28cb	-2.4712398
183	0x4039e96f	2.9048727
184	0x40d0fba3	6.5307174
185	0xc030d7c5	-2.7631695
186	0x3ea6a80c	0.32550085
187	0x4095d690	4.6824417
188	0x3f595ae0	0.8490429
189	0xbfacd2fc	-1.3501887
190	0xc081ef73	-4.0604796
191	0x3fc4ee93	1.5385307
192	0xbeae2da5	-0.340192
193	0x401c143d	2.4387352
194	0x407ca793	3.947728
195	0x3fa028c7	1.2512444
196	0xc0e2d33e	-7.0882864
197	0x3fb89e01	1.4423219
198	0xbeb8dae3	-0.36104497
199	0xc0378209	-2.8673117
200	0xc0642a6c	-3.5650892
201	0x40498988	3.1490192
202	0xbea52e37	-0.32261822
203	0x3fb008d9	1.37527
204	0xbfe266f0	-1.7687664
205	0x3f79ecdf	0.9762706
206	0xc077fbb8	-3.8747387
207	0x3eea8882	0.45807272
208	0xc08de24b	-4.4338737
209	0x4005e5d2	2.092152
210	0xc0b19984	-5.5499897
211	0xbfe22808	-1.7668467
212	0xbf461dff	-0.7738952
213	0x40a0f003	5.0292983
214	0xc00ee2c8	-2.2325916
215	0x4049cd73	3.1531646
216	0xbe5ae6a4	-0.21377045
217	0x40538541	3.3050082
218	0xbfcccf8a	-1.6000836
219	0xc0868aae	-4.2044287
220	0x3ffd57e8	1.9792452
221	0x3eede8d3	0.46466693
222	0xc098a1d8	-4.7697563
223	0xbfa92569	-1.3214542
224	0xbe4b28d9	-0.19839801
225	0x3fc7d4b9	1.5611793
226	0xc0bca27f	-5.894836
227	0xc0ac02b2	-5.375329
228	0x3f388295	0.7207425
229	0xbfae7aa3	-1.3631176
230	0xc001231e	-2.0177684
231	0x3f75e5eb	0.9605395
232	0x40be5d3f	5.9488826
233	0x3f94dcbb	1.1629862
234	0xbf4dc37b	-0.80376405
235	0xbf836cb5	-1.026755
236	0x4030c1c2	2.761826
237	0xc06e5264	-3.7237787
238	0xc0b94bcd	-5.790503
239	0xbe174698	-0.14773023
240	0xc12201a3	-10.1254
241	0x40a10a3a	5.0324984
242	0xbf60af4b	-0.87767476
243	0xbff4c807	-1.9123544
244	0xbf281238	-0.656528
245	0x3f51613b	0.81788987
246	0x3ff0dd0a	1.8817456
247	0xbfc013ce	-1.5006044
248	0xc02002a4	-2.5001612
249	0xbfdef750	-1.7419224
250	0x3d89c15f	0.06726336
251	0xbf2f988a	-0.6859213
252	0xc021c44f	-2.5276067
253	0x3f59aa69	0.8502565
254	0xbfcc83ab	-1.5977682
255	0xc0351124	-2.8291712

weight f4 [16]
0	0x3f0de8ff	0.5543365
1	0x3e9d8ca2	0.30771357
2	0x3f598c5a	0.84979784
3	0x3e92a226	0.28639334
4	0x3eb5b517	0.35489723
5	0xbeb9bbe3	-0.3627616
6	0x3e892fe8	0.26794362
7	0x3e9e58a5	0.30927005
8	0xbf48f04e	-0.78491676
9	0x3ea223bc	0.31667888
10	0xbe8b5d98	-0.27219844
11	0xbf02d502	-0.51106274
12	0x3e87f9f1	0.26557878
13	0x3ebe06af	0.37114474
14	0x3eda8dd7	0.4268634
15	0x3f6781dc	0.90432525

bias f4 [16]
0	0xbdd258f1	-0.102708705
1	0xbcd75803	-0.026287084
2	0xbe6b6416	-0.22987399
3	0x3c1739c9	0.009230086
4	0xbd65956e	-0.05605071
5	0x3ca80b06	0.020513069
6	0x3ba73c22	0.005103604
7	0xbd053250	-0.032518685
8	0xbe302c69	-0.17204441
9	0xbc9eb06e	-0.019371238
10	0xbc1b4dd3	-0.009479004
11	0xbd9ff788	-0.07810885
12	0x3c888d39	0.016668903
13	0xbd353a71	-0.044245187
14	0xbd1f4d15	-0.03889187
15	0xbe733e87	-0.23754321

running_mean f4 [16]
0	0x4101ac5a	8.104578
1	0x41b44936	22.535748
2	0xc216bba6	-37.68325
3	0x42770a56	61.760094
4	0xc2ad6a08	-86.70709
5	0x4244e7ff	49.22656
6	0xc1a922c4	-21.141975
7	0xc2817ae5	-64.74003
8	0x42c378d7	97.736015
9	0xc03a5f29	-2.912058
10	0x42100148	36.00125
11	0xc1feb68e	-31.839138
12	0xc1585083	-13.519656
13	0xc207afc8	-33.92166
14	0xc12a6bf5	-10.651357
15	0xc3055012	-133.31277

running_var f4 [16]
0	0x494cd5f7	839007.44
1	0x48c58a19	404560.78
2	0x48dd0f31	452729.53
3	0x48d3624b	432914.34
4	0x48c50c2d	403553.4
5	0x48851b49	272602.28
6	0x490459bd	542107.8
7	0x48cb678e	416572.44
8	0x48a34bf2	334431.56
9	0x48c81f68	409851.25
10	0x485a097f	223269.98
11	0x49038eca	538860.6
12	0x48c0321a	393616.8
13	0x491f1cb7	651723.44
14	0x4944a8cd	805516.8
15	0x4904fb28	544690.5

weight f4 [4, 128]
0	0x3f8eac84	1.1146398
1	0xbe5eda45	-0.2176295
2	0xbea7b941	-0.32758525
3	0xbf42e545	-0.7613109
4	0xbee756a2	-0.45183283
5	0x3ef3b381	0.47597888
6	0xbf0a328b	-0.5398337
7	0xbe552fbf	-0.20818995
8	0xbfaa08c2	-1.3283923
9	0x3f30f859	0.6912895
10	0x3f579876	0.8421701
11	0x3eda4625	0.4263164
12	0x3ed4027b	0.41408142
13	0x3e3ab3d7	0.18232666
14	0x3d5c79ff	0.053827282
15	0x3eb10ef1	0.34581712
16	0xbe5b7cb8	-0.21434295
17	0xbd8cffb3	-0.06884708
18	0xbe2b3606	-0.16719827
19	0x3e55ac28	0.20866454
20	0x3cc58842	0.024112824
21	0x3e944fb1	0.2896705
22	0x3e811d9b	0.252179
23	0x3e5715f0	0.21004462
24	0xbfcf0ccc	-1.617578
25	0x3f8666d1	1.0500127
26	0x3ebbfc46	0.36715907
27	0x3d9d4953	0.07680001
28	0xbeb628e6	-0.35578078
29	0x3b5a5ace	0.0033318284
30	0x3ec5a1de	0.38600057
31	0xbe492121	-0.19641544
32	0xbd3dac05	-0.04630663
33	0xbf80bb03	-1.0057071
34	0xbe988a68	-0.29793096
35	0xbd2b2601	-0.04178429
36	0x3f2b2a46	0.6686138
37	0x3f7c1565	0.98470145
38	0x3e5eb6a7	0.21749364
39	0x3e9eb2e3	0.30995855
40	0xbd413f71	-0.047179643
41	0x3f8f705f	1.1206168
42	0x3f4c2193	0.7973873
43	0x3e31b8b9	0.17355622
44	0x3dba606f	0.091004245
45	0xbe57b0e6	-0.21063575
46	0x3ecfa07a	0.4055212
47	0xbe7bca13	-0.24588804
48	0x3f1e3ce6	0.61811674
49	0x3f1a6840	0.6031532
50	0xbe1cd52c	-0.15315694
51	0x3d6b9a65	0.05752029
52	0xbf3a2c2f	-0.7272367
53	0xbe1a09a4	-0.1504274
54	0xbe21282b	-0.15737979
55	0xbd156f11	-0.036482874
56	0x3d1a8093	0.037720274
57	0x3fb1b3e0	1.3883018
58	0x3f56f959	0.83974224
59	0x3f08eed0	0.534894
60	0xbeb59569	-0.35465553
61	0xbfa0ff86	-1.257798
62	0xbf598f41	-0.84984213
63	0xbf7e636c	-0.99370456
64	0xbe694913	-0.22781782
65	0xbeb87b60	-0.36031628
66	0xbe4e81e7	-0.20166741
67	0xbd81d0b1	-0.06338633
68	0x3c111e48	0.008857317
69	0xbd6f4f2f	-0.058425125
70	0x3dd7a840	0.10530138
71	0xbd07e760	-0.03317964
72	0x3e18a431	0.14906384
73	0xbf2f0ace	-0.6837586
74	0x3ef9a9ae	0.48762268
75	0xbd967b17	-0.07347696
76	0xbe91a57e	-0.28446573
77	0x3e305c94	0.17222816
78	0xbe05af72	-0.13055208
79	0xbf0baa1f	-0.5455646
80	0x3fb2af4a	1.3959744
81	0xbf029248	-0.5100446
82	0xbf105356	-0.5637716
83	0xbf21d641	-0.6321755
84	0xbf5caa23	-0.8619711
85	0xbf65618e	-0.8960198
86	0xbdc36714	-0.09541145
87	0xbeca22c3	-0.39479646
88	0xbfb0b19a	-1.38042
89	0x3f73da47	0.9525494
90	0x3f1874bc	0.5955312
91	0x3e416712	0.18886974
92	0x3e9c7e75	0.3056523
93	0x3f239bf1	0.6390982
94	0x3e9bc2b5	0.30421987
95	0x3f20bf45	0.62791854
96	0xbf224f0e	-0.6340188
97	0x3f05eaf0	0.5231161
98	0x3f5b3127	0.85621876
99	0xbe804318	-0.25051188
100	0xbe910fcd	-0.28332368
101	0xbd80e62f	-0.06293904
102	0xbd821082	-0.06350805
103	0xbe9d535c	-0.3072766
104	0xc0052788	-2.0805378
105	0x3e807b38	0.25094008
106	0x3f0e1223	0.55496424
107	0x3ed7acf2	0.42124134
108	0x3f05184c	0.519902
109	0x3ee52d3c	0.44761074
110	0x3f1b662c	0.60702777
111	0x3e801dd1	0.25022748
112	0xbf7203ca	-0.9453703
113	0x3d7769e0	0.060403705
114	0xbe3bbdb1	-0.1833408
115	0xbde9fbcb	-0.11424979
116	0x3c7cb4ba	0.015423948
117	0xbb99412f	-0.00467696
118	0xbe2b6c7a	-0.167406
119	0xbe85c181	-0.26124194
120	0xbeebeb53	-0.46077976
121	0x3ea7b152	0.32752472
122	0x3eb13f8b	0.34618792
123	0x3e28e226	0.16492519
124	0x3ed5dbfd	0.417694
125	0x3e4a7778	0.19772136
126	0x3e964c3f	0.29355046
127	0x3eccec5d	0.4002408
128	0x3e86541d	0.26236048
129	0xbf1056fb	-0.5638272
130	0xbbb96972	-0.005658322
131	0xbf28b19f	-0.6589603
132	0xbd58d687	-0.052938964
133	0x3f441ce3	0.7660658
134	0x3dd24d76	0.10268681
135	0x3f0675c1	0.5252343
136	0x3ecb8c73	0.39755592
137	0xbe2e3b15	-0.17014726
138	0x3ee52144	0.44751942
139	0x3e494e6e	0.19658825
140	0xbf06288c	-0.5240562
141	0x3e85bc76	0.26120347
142	0x3e96cb16	0.29451817
143	0x3e8bd5cf	0.2731156
144	0x3f5c2b0e	0.86003196
145	0x3f4775fe	0.77914417
146	0x3ef8943b	0.4855059
147	0x3db39ec4	0.087705165
148	0x3bc2cc12	0.0059447372
149	0x3eb510d7	0.3536441
150	0x3eaa7da2	0.33298975
151	0x3e82cb69	0.25545815
152	0x3f7e1df4	0.99264455
153	0x3e4b6e1b	0.1986622
154	0xbed9f6af	-0.42571017
155	0xbefd1534	-0.4943024
156	0x3e5c2e71	0.21502091
157	0x3e8a7d3c	0.2704867
158	0x3e0175ee	0.12642643
159	0x3f32b5f1	0.6980887
160	0xbe14c416	-0.14527926
161	0xbe0fe5c4	-0.14052492
162	0x3ea183e5	0.3154594
163	0xbd199c7f	-0.037502762
164	0xbd8d3984	-0.06895736
165	0xbdfa9d33	-0.122370146
166	0xbeb43ca4	-0.35202515
167	0xbe79aa60	-0.24381399
168	0xbe4aeb9e	-0.19816443
169	0xbe35a931	-0.17740323
170	0x3f4e065e	0.80478466
171	0x3f0982c3	0.5371515
172	0x3eee522e	0.46547073
173	0xbd88d91d	-0.06682036
174	0xbe3a483f	-0.18191622
175	0x3e25a4a5	0.16176088
176	0xbde99808	-0.11405951
177	0x3f2fb556	0.6863607
178	0xbf5e094f	-0.86732954
179	0xbf95c58e	-1.1700914
180	0xbcc0d115	-0.023537198
181	0xbdd7d8bc	-0.10539386
182	0x3e47302b	0.19451968
183	0x3e6585d1	0.22414328
184	0xbe4067dc	-0.18789619
185	0xbeebaa1c	-0.4602822
186	0x3e276dd7	0.16350494
187	0x3f1bafe9	0.6081529
188	0xbedf2411	-0.43582204
189	0x3e27c188	0.1638242
190	0xbdcc01cd	-0.09961281
191	0x3e769018	0.24078405
192	0xbdf46535	-0.11933366
193	0x3e3bcc05	0.18339546
194	0x3f516b12	0.81804
195	0x3ee1df8c	0.44115865
196	0x3e4630be	0.19354531
197	0x3e1a2cb0	0.1505611
198	0x3e67e80d	0.22647114
199	0x3ea95ed1	0.33080152
200	0xbf28215c	-0.656759
201	0xbebee92c	-0.3728727
202	0x3ea7a8fa	0.32746106
203	0x3f7af65c	0.98032165
204	0x3ed5f981	0.4179192
205	0x3f4565f3	0.7710869
206	0x3ec6bd95	0.38816515
207	0xbf564838	-0.8370395
208	0xbfba5211	-1.4556295
209	0x3ea702b0	0.32619238
210	0x3c9e095c	0.019291572
211	0x3f267b71	0.65032107
212	0x3f1df125	0.6169608
213	0x3e0c958a	0.1372892
214	0xbe723272	-0.23652056
215	0xbf9be1f1	-1.2178327
216	0x3e359090	0.17730927
217	0xbe89a608	-0.26884484
218	0xbdeb1ce6	-0.11480121
219	0x3e3ca6fe	0.18423077
220	0x3dd3b79b	0.10337754
221	0x3ec9e96c	0.394359
222	0x3edb1028	0.42785764
223	0xbdb761b3	-0.089541815
224	0x3e5aeaea	0.21378675
225	0xbe8a0cc1	-0.26962855
226	0xbf21485a	-0.63001025
227	0xbe1c3110	-0.15253091
228	0x3f6c9fc5	0.9243129
229	0x3ec2ab62	0.3802138
230	0xbc5070de	-0.012722222
231	0x3eef943b	0.46792778
232	0x3eedd1b0	0.4644904
233	0xbc97080c	-0.018436454
234	0x3e963a1a	0.29341203
235	0xbd194740	-0.037421465
236	0xbe1eec74	-0.15519887
237	0xbd7fed3b	-0.0624821
238	0xbd3c227b	-0.04593132
239	0xbe4dbac2	-0.20090774
240	0x3f490547	0.7852368
241	0x3eb96ede	0.36217397
242	0xbe954ef0	-0.29161787
243	0xbf0aace3	-0.54170054
244	0xbf25123f	-0.64480966
245	0xbdfa98bf	-0.12236165
246	0xbefeaecc	-0.49742734
247	0x3e2ea340	0.17054462
248	0xbfaf38cf	-1.3689212
249	0xbe7e99ed	-0.24863406
250	0xbc77150b	-0.015080701
251	0xbe4fc28e	-0.2028906
252	0xbe3276f8	-0.17428195
253	0xbe929c40	-0.28634834
254	0xbe0b075d	-0.13577028
255	0xbe967284	-0.29384243
