histories_pre_cls/04.30-10.47.25_67.87%_pt_Transformer_ATCNet_BcicIv2a_bs=064_lr=0.0010_ld=0.999891_nw=3_cps=9/best_valid_loss.pt (torch, 300965 bytes, 88 tensors)

weight f4 [16, 1, 1, 129]
00000000: 1492 06bd 9c33 e53c ccb7 9dbd aa44 69bd
00000010: b103 eebc 38ca da3c 7808 2eba 8293 a03d
00000020: bf8f d03c 818d 933d 2ccb a63c 246f 4d3c
00000030: 7830 87bd 0798 5dbd c51b 34bd 3d98 2fbc
00000040: ce83 cf3c 2c95 6f3d 7522 86bc c96a 5d3c
00000050: 0adf 7e3d 75ef 713d 0c61 5dbd 6eb8 153d
00000060: 9311 87bc 3525 503c 141d a13d 2567 c6bd
00000070: e54d aabd a600 f6bc 38c7 013c 15d9 283e
00000080: 917b db3c 0fb4 c8bc 1be4 f8bd 2c70 31be
00000090: 8882 00be 859a 583d 3163 bb3d e1f6 213e
000000a0: c77f 003e 5613 093d a189 a13c 8fac f9bd
000000b0: efe9 f1bd 288c d2bd 781b 73bb 4676 6fbc
000000c0: fea4 cabd 3aab cebc 3c97 c63d 3d0d 453e
000000d0: 3b29 353e 6add 023e 35d4 9e3d 016a 10be
000000e0: e456 11be ab92 65be 8fee 11be 7c97 b0bc
000000f0: 5ce5 163e dad9 2f3e 2aea 173d 2a78 033d
00000100: 6004 83bb f990 84bd 1fbb c4bc a859 333c
00000110: 1252 db3c 9982 a73c 517c 12be ff9a 94bd
00000120: 6e11 463d c027 f63d 3389 e93d cd72 823d
00000130: 43e2 77bd 0156 30be 4199 3abd 0b55 bcbc
00000140: d202 833c 5dee 323e 3307 f93d 76e1 b9bd
00000150: cd70 23bd aaf0 acbd e895 86bd 04eb 57bd
00000160: a0a4 7f3d 606c 21bc 5637 793d defb 523d
00000170: 7b6e 953d 1be6 753d febf 93bd 976d acbd
00000180: 620c adbc 3ad2 2ebd f8cf bebd fe79 f3bc
00000190: 518d 103e 7e87 0a3e 7c14 0e3c d328 f4bc
000001a0: 982a f4bd 242f 8ebc 9bdf 00bd a9fe bc3b
000001b0: e5fc 8f3d 76c5 5c3d f6c8 5ebd 60eb cd3a
000001c0: 9add a9bd c5fc b13d 3e99 ab3d 3c22 49bd
000001d0: 732e b9bc b853 d3bc 8113 a8bc daee 753c
000001e0: 816d 9b3d 8062 963d fa61 02ba 61ab 433d
000001f0: 8cc7 d7bd b9a4 92bd 3e4b 35bb 2f6f e63c
00000200: 7162 9b3d 61d0 bdbc 4c23 d43c 4572 713d
00000210: 5c7d 18bc 4230 503d 6daa 073e fba7 a03d
00000220: c4b6 b93d 99a5 a63d ed10 c43d f440 fa3d
00000230: 2dfe 053e 3b68 9e3d 0bf1 c53d b056 8c3c
00000240: b449 33bd 8669 563b 7afb c93d e92b 1c3d
00000250: 6532 83bb b89d ebbc d463 02bd 105a 40bc
00000260: 29bd 593d 77dd e73d 5b2c c33d 04b8 34bd
00000270: bb68 a23d 2ff9 51bd f289 0fbc edac 42bd
00000280: 8c4b 33bd 8beb 6bbd bc94 03be 229e f7bd
00000290: 46c0 71bd 54cc 29bd 6e74 cbbd 3ab9 45bd
000002a0: 65ef 23be 9147 b1bd 81b9 db3b 9148 aabd
000002b0: 904c ff3c 145c 9fbc f0b4 1fbe 3d4e 57bd
000002c0: 3778 fbbd e54e 23be 7bb3 6cbd 3fe6 56be
000002d0: 76e3 07be 18bc 0abe 5aab 98bc e8b4 11bb
000002e0: 9dbb 313d a5eb e33c 7f48 32bd a631 bebd
000002f0: eca8 39be 92cd 96bd 06e1 58bd f7dc 59bd
00000300: d183 2fbe 03ce c1bd b711 bbbd 31b4 e6bc
00000310: 87ce 6bbb 61dc 8e3d 4413 05bd 729c 82bc
00000320: 11c3 12bd 6898 3d3c fac5 bfbd 1553 85bd
00000330: 439d 833a 9a33 2f3e 92bb fa3d 896f 6f3e
00000340: 1997 3d3e 2bad 173e bc39 ca3d c6df 1e3d
00000350: 88f9 1e3d 4df1 163b 362b 533c e90f 143c
00000360: 0ac2 9ebd f7db 1cbd 8fae ce3d 227b 64bb
00000370: f148 a03d bab1 1e3e d6dd 5c3d c2c1 2fbd
00000380: 1e0e 27be c845 6ebd cf93 12be 7bb4 98bd
00000390: c873 5cbd ea4e 94bc 60f0 dfbb 1dbc 843d
000003a0: eea9 e43c dc29 e83d a051 c93d d6c7 94bc
000003b0: 74b2 623d 9f18 59bd d046 9fbc 591f 843d
000003c0: 891d ba3d 28f1 013e ab5d 1b3d 0c64 803d
000003d0: 7f3f d13d 6d6a 8fbc 463d f13d e057 e1bc
000003e0: 07b5 323d 9328 4d3d 364a 3a3d 096c e23d
000003f0: 4985 1d3e 1e72 263c 9451 71bd f043 54bd
-0.032854155 0.02797871 -0.07701072 -0.05695025 -0.029054495 0.026707754 -0.0006638835 0.07840635
0.025459168 0.07204724 0.020360552 0.012538705 -0.066010416 -0.054100063 -0.043971796 -0.010717449
0.025331404 0.05849187 -0.016373852 0.013514229 0.062224425 0.059066255 -0.05404763 0.03655284
-0.016487872 0.012704183 0.07866874 -0.09687642 -0.083156385 -0.030029606 0.007921033 0.1648906
0.02679232 -0.024499921 -0.12152883 -0.17327946 -0.12549794 0.052881736 0.09149779 0.15816833
0.12548743 0.033465706 0.019718947 -0.12191116 -0.118121974 -0.10280639 -0.003709523 -0.014615601
-0.09894751 -0.025228132 0.096968144 0.19243331 0.1769151 0.12779775 0.07755319 -0.14102937
-0.14193302 -0.2241923 -0.14251159 -0.021556608 0.14735931 0.17172948 0.03708855 0.03209702
-0.0039983243 -0.06472964 -0.024015008 0.010946669 0.026772533 0.020448016 -0.14305235 -0.07256126
0.048356466 0.120193005 0.11403122 0.06369553 -0.060518514 -0.17220308 -0.04555631 -0.02298977
0.015992556 0.17473741 0.12159576 -0.090762064 -0.039902497 -0.084443405 -0.06571561 -0.052714363
0.062412858 -0.009852499 0.060843788 0.05150973 0.07296463 0.0600339 -0.07214354 -0.0841934
-0.021124069 -0.042680956 -0.09317011 -0.029721256 0.14116408 0.13528249 0.008671876 -0.029804623
-0.119221866 -0.017356463 -0.031463247 0.0057676625 0.07030658 0.05389925 -0.05439087 0.0015710406
-0.0829422 0.0869079 0.08378838 -0.049104914 -0.022605157 -0.025796756 -0.020517113 0.01501056
0.075892456 0.07343006 -0.0004973706 0.04777086 -0.105361074 -0.071603246 -0.0027663256 0.028129188
0.075871356 -0.023170652 0.025895737 0.058946867 -0.009307232 0.050827272 0.13248606 0.0784454
0.09068063 0.08137054 0.09573541 0.1221942 0.13085242 0.07734724 0.09665116 0.01713118
-0.04377146 0.0032716705 0.098624185 0.038127813 -0.00400381 -0.02876173 -0.031833485 -0.011740223
0.053158913 0.11321538 0.095299445 -0.044120803 0.07930132 -0.05126303 -0.008760916 -0.047528196
-0.04377322 -0.05759768 -0.12849706 -0.12090708 -0.059021257 -0.041454628 -0.099343166 -0.04827235
-0.1600929 -0.08656228 0.0067054634 -0.08314622 0.031164438 -0.019453086 -0.15596366 -0.05256485
-0.122787885 -0.15948065 -0.057788353 -0.2098627 -0.13270363 -0.13548315 -0.018636394 -0.0022233073
0.043391813 0.027822325 -0.04352617 -0.092868134 -0.18130845 -0.07363428 -0.052948974 -0.053189244
-0.17140128 -0.09463122 -0.09134238 -0.028162094 -0.0035981254 0.06975628 -0.032489076 -0.01594374
-0.03583056 0.011571981 -0.09363933 -0.06509987 0.0010041374 0.17109528 0.122428074 0.23382391
0.1851467 0.14812152 0.09874293 0.038787626 0.03881219 0.002303201 0.01288872 0.009036996
-0.07751854 -0.038295712 0.10091888 -0.0034863432 0.078264125 0.15497485 0.053922497 -0.04290939
-0.16313979 -0.058172017 -0.14314197 -0.07456299 -0.053821355 -0.018104035 -0.006834075 0.06481192
0.02791306 0.11336109 0.09830022 -0.018161695 0.055345967 -0.053001996 -0.019442946 0.064512916
0.09087665 0.1268965 0.037931126 0.062690824 0.10217189 -0.017506802 0.11779265 -0.027507722
0.043629672 0.050087523 0.04548093 0.11055762 0.15382876 0.010159044 -0.05891569 -0.051822603

weight f4 [16]
00000000: cacf 8b3f f72d 813f b698 7f3f d5f7 7c3f
00000010: 03b0 833f 1342 7e3f fcac 793f 50e1 823f
00000020: 17c0 7a3f 1a8a 7d3f 3baf 793f 4b13 7e3f
00000030: f9c1 7f3f 4ea3 823f 7c0d 843f b778 803f
1.0922787 1.0092152 0.99842393 0.9881566 1.028809 0.9931957 0.9752958 1.022501
0.97949356 0.9903885 0.97533005 0.9924819 0.99905354 1.0206087 1.0316615 1.0036839

bias f4 [16]
00000000: 91bb cbbb 0236 ee3c 9210 e2bc 0665 efbc
00000010: 621b 23bc a48d f8bb 8cee ea3c 312f 06bc
00000020: 7d35 a13c f6c8 c53c eb7b 5f3c 08a8 cbbc
00000030: 055b 35bb 15ce 4dbb 6672 113b 7917 77bc
-0.006217428 0.029078487 -0.027595792 -0.029222976 -0.009955259 -0.0075852443 0.028678201 -0.008189962
0.019678826 0.024143677 0.013640384 -0.024860397 -0.002767266 -0.0031403352 0.002219343 -0.01508128

running_mean f4 [16]
00000000: 1cfc b93b a1c1 35bd 8429 973e dce9 3cbd
00000010: 10ad c23b b40d 3ebd 3249 0f3e c8af ec3d
00000020: 1b9d 98bd 7fd5 a53d 48f7 923a 1978 953d
00000030: 991e fd3c 0024 9d3e 1538 05bc 7188 813e
0.0056758057 -0.044374112 0.2952386 -0.046121463 0.005941041 -0.046399787 0.13992766 0.11556965
-0.074518405 0.08097362 0.0011212612 0.072982974 0.03089838 0.30691528 -0.008131047 0.2529941

running_var f4 [16]
00000000: 4317 203d 0f0c 483e a920 103e 6336 a33d
00000010: 73df 323e 1bf6 4c3d 0ccc 293e b1e0 b43d
00000020: e8d4 0c3e ab4b 303f 04c2 da3d 6736 363e
00000030: 495c 013e 1a00 a73d bd17 2d3e 8b6b 083e
0.039084684 0.1953585 0.14074959 0.07969358 0.17468052 0.050039392 0.16581744 0.08831919
0.13753092 0.6886546 0.10681537 0.1779419 0.1263286 0.08154316 0.16903587 0.13322274

weight f4 [32, 1, 22, 1]
00000000: 7f07 733e 2fae 2f3d 01e0 2dbe 528d f63c
00000010: 3164 863c dd41 513d f723 b2bc 65b3 533d
00000020: 3f90 66be 964c 873e 4200 5e3e a894 4dbe
00000030: 4b6d 5cbc d851 d1bc 98e4 cb3d 1d7b 8dbd
00000040: 9040 48be a9dc a8be 3f4f 4bbd 0d0c 4e3e
00000050: ac50 113c 5240 803d 775f 1fbe ff45 08bc
00000060: 126d 20be 7bed ccbd 079d 6dbd b1fc 7d3c
00000070: d7be 253e 9734 54bd 1a57 3fbd 9a89 c3bd
00000080: 0765 063e cf59 423e a880 9bbd f0d2 eb3e
00000090: 41cb 0bbe 17de a8bd a935 44bd 1521 54bd
000000a0: fa96 4e3e ad54 a53d 0d4f bfbd 61f8 16be
000000b0: 4a10 a43e 3879 e13d 9b62 9e3d c014 4e3d
000000c0: db25 103d be5d ff3d 23d9 5dbd eeb1 4fbe
000000d0: 1347 49be 351f 59bc c07e 0f3e 7171 29be
000000e0: fdee cfbd a592 5fbd e804 20be b031 7d3d
000000f0: a3d7 b9bd f738 0c3d 3ae9 0c3e b8a5 2c3e
00000100: ce0f 4b3e 3a8f 4bbe da53 53bd 3ca8 183e
00000110: 156d 0abe a9c3 4d3d b491 3abe 5c73 5f3d
00000120: dbf2 743e 40f8 f0bd 780d 613e ee9b 803d
00000130: 0a10 1fbe bd63 593e f77b 33be ab60 3fbe
00000140: 726a 00be b137 dabc daae 8b3d de64 36bc
00000150: 5d6d 78be 9578 ebbc 82ad 403e 5d77 463e
00000160: 3f20 343e 0ffa 063e 79dd ce3d 9f0c 15be
00000170: f87d 893d ea94 51be 8066 6abd 07b8 8bbd
00000180: 5ae0 1a3e 4243 87bd edf0 f8bd c11c 573d
00000190: 98bf 05be e157 2cbe c5fd 22bc 7937 56bd
000001a0: 51a5 cbbb 1a85 323e 63ee 38be c6b1 c0bd
000001b0: 3dd6 903e a35d 223e f891 a1bd 4d0a e43d
000001c0: 6b58 fe3d 2b72 84bd fa9d b8bd 7b0a 94bc
000001d0: ccf5 8a3c 069b 8e3c 8597 fd3d 83a3 72be
000001e0: 24ff b4bd 305c 833e 5047 5b3d 3e67 403d
000001f0: 2a83 233d b564 f2bd 8918 6abd 4fb7 f33d
00000200: a977 9dbd 5c56 fdbd 7aa3 f2ba 0f23 923d
00000210: 1a5a 293d 9700 a23d 2b55 923d 9c9c c0bd
00000220: f247 2b3d 8850 4ebe 12f1 6b3e f90d 0f3e
00000230: e841 0abe 729b 503d 4a28 90be 9f56 6fbd
00000240: 8a33 14be e92f 93be 7945 06bd d564 0dbe
00000250: 5321 333e 4187 0dbe 9070 1d3e d7d6 193e
00000260: bf89 813e 800b 6d3d 2085 8ebe 66ce 8ebe
00000270: 4840 d03d 4262 06be d7e8 393d 5b8b 9c3d
00000280: 0ac7 6a3d 7170 71bd 8c15 1f3e 5c76 3bbe
00000290: 8259 723e d4c0 893b 4872 9abd d00c 5d3e
000002a0: 5fd6 e43d 0492 0cbe 9229 86be 32e5 cf3d
000002b0: bdbd 7b3e e487 abbb 8481 c33c 8538 d2bd
000002c0: 4910 1e3c a10a 1dbe 3819 23be 6f01 edbd
000002d0: 2bd4 b23c 130a 6e3e 3f35 88bd 102a 9c3d
000002e0: daea ecbb 3f33 35be eb17 6f3c 05f9 8f3e
000002f0: c3e3 2f3e 0c3c 813e 14b5 09bd c5ba b4bd
00000300: dc0a 9c3d c976 ddbd 1b83 b9bd 5938 e23d
00000310: 4f3e acbd a536 39be e2c1 723e 8adf 5ebc
00000320: 553e e53d e116 0ebe 7c78 d33d 0ad1 3b3e
00000330: 84aa 47be 0c14 8cbe 0560 d93d 9102 dd3d
00000340: ad20 b13d 8812 9d3d 6bf0 593d 10b1 4cbd
00000350: 5680 f7bd fa21 00be 2b2c cc3d 466b c33d
00000360: 00e1 a63b 109e 46bd 2b0d adbc 1e15 44bd
00000370: ce6a 9e3e 9e8e 26be b30c c6bd b3be 633e
00000380: f773 643c 1f02 b53d 87cc 213c 1e37 7ebd
00000390: 3e7c ba3d 9cd6 d63d dfe4 4d3d 5e3a dfbd
000003a0: 7a7e f9bc e50b 463d a904 003e a101 47be
000003b0: a431 2ebe 39af a4be 4fd3 263c af1e 4f3e
000003c0: e789 b0bd 6058 1abc 6e25 303e 33bc 033b
000003d0: 4e76 3e3e 20d6 9b3d 149a 35bd 2e5b 483d
000003e0: 8210 09be 5000 823d ed65 813d 460b e6bd
000003f0: 23cd 9e3c 95bc 1bbe ed08 9abd c283 82be
0.23733328 0.042890724 -0.16979982 0.030096684 0.016405197 0.051088203 -0.021745665 0.051684756
-0.22515963 0.26425618 0.21679786 -0.20076239 -0.013453792 -0.025551721 0.0995571 -0.069082476
-0.19555879 -0.3298085 -0.04963612 0.20121785 0.008869331 0.06262268 -0.1556376 -0.00831747
-0.15666607 -0.10006233 -0.05801108 0.015502141 0.16186081 -0.051807966 -0.046713926 -0.0954773
0.13124476 0.18979572 -0.075928986 0.4605937 -0.13651754 -0.08245485 -0.047902737 -0.051789362
0.2017478 0.08072791 -0.093412496 -0.14743187 0.32043678 0.11009449 0.07733651 0.050312757
0.03519235 0.12469052 -0.054162156 -0.20282719 -0.19656019 -0.013252069 0.14013195 -0.1654718
-0.10153005 -0.05458321 -0.15626872 0.061814964 -0.090743326 0.034234013 0.13760844 0.16860092
0.19830248 -0.19878855 -0.05159364 0.14907926 -0.13518174 0.050235424 -0.18219644 0.054553375
0.23920767 -0.117661 0.21977794 0.06279741 -0.15533462 0.21229453 -0.17527758 -0.1868922
-0.12540606 -0.026637884 0.0682046 -0.011132447 -0.24260469 -0.028744021 0.18816188 0.19381471
0.17590426 0.13181327 0.10100836 -0.14555596 0.0671348 -0.20466962 -0.057226658 -0.0682221
0.15124646 -0.06604625 -0.12155328 0.052517656 -0.13061368 -0.16830398 -0.009948199 -0.052298997
-0.0062147756 0.17433587 -0.18059687 -0.094089076 0.2828845 0.15856032 -0.078891695 0.11134777
0.12419208 -0.06467088 -0.09014507 -0.018071404 0.016962908 0.017407905 0.12382416 -0.23695187
-0.08837727 0.2565627 0.053534806 0.04697346 0.03992001 -0.118356146 -0.057152305 0.11900198
-0.07688839 -0.12369987 -0.0018511855 0.07135593 0.041345693 0.07910269 0.07145151 -0.09404871
0.04181666 -0.20147908 0.2304118 0.13970174 -0.13501704 0.050929494 -0.28155738 -0.058432218
-0.14472786 -0.2874749 -0.032781098 -0.13807996 0.17493181 -0.13821127 0.1537497 0.15023361
0.25300404 0.057872295 -0.2783594 -0.27891845 0.10168511 -0.1312342 0.04538807 0.076437674
0.057318725 -0.058945123 0.15535563 -0.1830687 0.23666957 0.004203895 -0.07541329 0.21586919
0.111737005 -0.13727576 -0.2620359 0.101511374 0.24584098 -0.0052347053 0.023865469 -0.102646865
0.009647437 -0.15336086 -0.15927589 -0.11572539 0.021829685 0.2324603 -0.06650781 0.0762521
-0.007230145 -0.1769533 0.014593105 0.28119674 0.17176728 0.25241125 -0.033619955 -0.08824686
0.07619259 -0.10813672 -0.090582095 0.11045904 -0.08410322 -0.18087251 0.23706773 -0.013603101
0.111935295 -0.13875915 0.10325715 0.18341461 -0.1949864 -0.27359045 0.106140174 0.10791505
0.086488105 0.0766955 0.053207796 -0.049973547 -0.12085025 -0.12512961 0.09969362 0.09541945
0.00509274 -0.048490584 -0.021124443 -0.0478717 0.3094086 -0.16265342 -0.09670391 0.22240715
0.013943664 0.08838295 0.009875423 -0.062064283 0.091057286 0.10490152 0.050267097 -0.108998045
-0.030455817 0.048351187 0.12501778 -0.19434215 -0.17011124 -0.32164934 0.010182216 0.20226549
-0.08620053 -0.009420484 0.17201778 0.002010119 0.18599817 0.076092005 -0.044336393 0.04891508
-0.13385203 0.06347716 0.06318269 -0.11232619 0.019384926 -0.15208657 -0.07521234 -0.25491148

bias f4 [32]
00000000: 74ad e13a 96d2 8b3c a1c2 a5bd fd64 c23d
00000010: 017a 45bd 9eb5 da3d a5a6 e7bd ab12 2c3e
00000020: 44bc 1a3e b97e e33d 8d8d cc3c 10c7 f03d
00000030: 5ef4 22be 03e1 373e 02ec 4cbd 1fb0 003e
00000040: 370b 20bd 7cea 90bd 30bc f3bd de36 293e
00000050: 9b91 e9bd aaf2 83bd 8f95 003e 5e42 13bd
00000060: 3dd0 94be b585 78be a79f 2dbd c68e 443e
00000070: 3810 0dbe a299 2c3e 3f5c 1b3e 3972 f6bd
0.0017217831 0.017068189 -0.08093763 0.09491918 -0.048212055 0.10679172 -0.11311082 0.16803996
0.1511088 0.11108155 0.02496984 0.11756718 -0.15913531 0.17956929 -0.050029762 0.12567185
-0.039073195 -0.07075974 -0.11901128 0.16524836 -0.11404725 -0.06442769 0.12557052 -0.035951965
-0.29065123 -0.24269755 -0.042388584 0.19195089 -0.13775718 0.16855481 0.15171908 -0.12033505

weight f4 [32]
00000000: 9a40 c03f 57f9 b93f 3451 863f b304 793f
00000010: eb2d 7a3f 7ba9 833f 278e 913f 0355 ab3f
00000020: 776c 8b3f 3f65 733f 1196 ae3f a600 b83f
00000030: 586c 833f 287f 493f e961 993f 0f94 913f
00000040: 36c8 913f 72ff 923f 9e4a 703f 6d1c 323f
00000050: 4e15 9a3f b86d ad3f e625 843f a2ad 6e3f
00000060: 6b95 893f 6cf5 8c3f 647d 6f3f dd26 823f
00000070: 8ac7 8f3f 54c0 893f 89e4 683f 5820 883f
1.5019715 1.4529217 1.0493531 0.97272795 0.97726315 1.0286096 1.1371506 1.3385319
1.0892476 0.95076364 1.3639547 1.4375198 1.0267439 0.7870965 1.1983005 1.1373309
1.1389225 1.1484206 0.93863857 0.69574624 1.2037752 1.3549109 1.0324066 0.9323369
1.0748724 1.1012397 0.93550706 1.016811 1.123277 1.0761819 0.90973717 1.063487

bias f4 [32]
00000000: 4cf0 a2be 7424 9abe 42b3 80be 3f11 09be
00000010: 909c 28be 205b 353e 479f 62be 7840 a2be
00000020: 5929 84be 8b54 51be db8a 8ebe a2a7 75be
00000030: 7809 51be b44f 34bd f38e 66be 9136 26be
00000040: 1bf7 8fbe 923b 52be 121c 4cbe 6c04 c1bd
00000050: 7f92 46be 8cd3 42be 28db 12be eb52 47be
00000060: 545f 69be aa5e 89be 2e44 50be 5a8c 70be
00000070: ccfd 4dbe 3c64 61be d891 b8bd 710a 39be
-0.31823957 -0.30105937 -0.25136763 -0.13385485 -0.16465974 0.17710543 -0.22131072 -0.3168981
-0.25812796 -0.20442407 -0.27840313 -0.23989728 -0.20413768 -0.044021323 -0.22515468 -0.16231753
-0.28118214 -0.20530537 -0.19932583 -0.094246715 -0.19391821 -0.19026011 -0.14341414 -0.19465224
-0.22790271 -0.26830035 -0.20338508 -0.2349104 -0.20116347 -0.22010893 -0.090121925 -0.1807039

running_mean f4 [32]
00000000: 6bdb 0539 e982 a23c f37b 99bd b97a c43d
00000010: 7bdf 74bd 0418 f13d ae4d e4bd 06d9 243e
00000020: 9468 163e 7f2b d43d f3e2 db3c 1ffa f63d
00000030: 1e0d 25be f199 343e 63c6 60bd f638 f93d
00000040: d385 2bbd d900 8bbd 9fc5 f5bd 9d4e 283e
00000050: 6e6f e9bd d54d 8dbd 4bc0 fc3d 076a 40bd
00000060: b487 93be 899c 78be 9035 57bd f3c3 383e
00000070: d76b 14be 24aa 313e 03e3 323e a866 01be
0.00012765608 0.019837813 -0.074943446 0.0959372 -0.05978344 0.11772159 -0.11147629 0.16098413
0.14688331 0.10359859 0.026841616 0.120594256 -0.16118285 0.17636849 -0.054876696 0.121690676
-0.04187567 -0.06787271 -0.12000584 0.16436239 -0.11398207 -0.06899611 0.123413645 -0.046976116
-0.2881447 -0.24278463 -0.052541316 0.18043499 -0.14494263 0.1735006 0.1746941 -0.12636817

running_var f4 [32]
00000000: 4459 0f3e 4757 713e e467 bb3d bb5d 503c
00000010: bc0a b33c 2dd5 d33c e4ca 083e c8a5 013e
00000020: 5bd3 453d f5a3 363e 4ccd 313e 3798 273e
00000030: 9faf 923c 51ac 363d 7cd3 643e c29c 633d
00000040: 840d ae3e 9eef 213d a5fc 393c d267 623c
00000050: 461c 9c3d 3761 993d fc24 b43c bfd2 ab3d
00000060: e072 b43c dfc8 cc3d 95e5 a93c 2f27 883f
00000070: 9107 c63d fc77 393d fc21 fb3f 647a 0c3d
0.13998896 0.2356845 0.09150675 0.01271766 0.021855704 0.025858486 0.13358647 0.12660897
0.048297267 0.17835982 0.17363471 0.16366659 0.017906008 0.044597927 0.223463 0.055569418
0.33994687 0.039535157 0.011351739 0.013818698 0.0762258 0.074892454 0.021990292 0.08389806
0.022027433 0.099992506 0.020739356 1.0636958 0.09669412 0.04528044 1.9619746 0.03429641

weight f4 [32, 32, 1, 16]
00000000: c009 16be 53ad c83a 712d c3bc 40b8 743c
00000010: 93d5 0abc b483 ef3d ff21 5d3d 7f64 0dbd
00000020: 5f65 65bd ab81 76bc ed8e 94bd bed1 13be
00000030: 0411 61be be38 bbbd 1bee 6abe 2065 4cbe
00000040: 84bc ca3d 2c82 7c3e d54f 5d3e d319 013e
00000050: 6782 5d3e fe30 183e 8212 873d 9c08 33bd
00000060: 9fe3 35bd 4882 57bd a9ad adbd 5256 dcbd
00000070: a427 deba b00b 0cbd 7939 25ba ab3a 05bd
00000080: 5c69 81bb 2e8e e23c d90a c0bc 0fa2 7e3b
00000090: 0be8 5c3b 94ee 123c 76c5 993b 7432 0a3d
000000a0: 1949 353d ad16 90bb f127 25bd 29af 223b
000000b0: 8697 193d 8898 833c 1828 3dbd b601 99bc
000000c0: dcc0 c1bd 22c9 a1bc e2a9 0d3d 54d1 ed3b
000000d0: d8d1 ebbd 2a79 6dbd 81b6 68bb f7b0 e03b
000000e0: a9d1 2a3d 1a09 35bd 7ed4 cebb e51e 983c
000000f0: 2b29 9e39 2308 d63c ec10 b5ba a7eb d8bb
00000100: 8d13 813d 3f37 aabb c54a 4dbd 98a4 b3bd
00000110: dc5a 483d 61c3 2e3d 9f2b 983c 184d e73c
00000120: b3bc 623c d686 663d ec00 643d ebaf 673c
00000130: f287 ba3d 5a67 3b3d 09a3 95bc 84c6 1ebd
00000140: c534 a73d 68bb 313d bcd2 983c 47f1 e63c
00000150: 274e 8e3b d0f8 87bc 877f a6bd 039b 40bd
00000160: fb39 9dba 0fb1 18bd dbe2 ccbb b1ed 7fbb
00000170: 0b6f debc dd5f 133d 3d03 cc3d a8a6 313e
00000180: d3e4 81bd 0ed8 7dbe 5c3a 55bd e242 ec3c
00000190: 9fd0 fc3c 1fb9 d4bd 46f8 17be 8ed1 09bd
000001a0: a65b 38bd 90f3 86bd 34c8 22bd d5ab 903d
000001b0: a8e1 723d b9b4 a93d cb7e a93d c236 033e
000001c0: f5a1 6d3e c24a 31bd 7463 2e3c 285f a73c
000001d0: dcc1 763b bd25 f53c 318a 5e3d 9197 1c3a
000001e0: 413b ba39 38f5 07be a8d4 9ebb ed86 8cbc
000001f0: ae17 febc 7932 89bd 1652 91bc 65f4 b2bc
00000200: 80bd a1bd fb78 19be f038 21be 8eb5 e5bd
00000210: 9ebb 18bd dd7e ce3c b54b ab3b 7e6f 16be
00000220: 5b29 a5bc a66e ddbd 972b c63c d382 113d
00000230: 70f7 9d3c 93f3 183e 9377 0c3e 826b 023e
00000240: 2457 f9bd b9c2 13bd 3761 05bd d418 16bd
00000250: d411 84bd 0a8d ce3b 02b2 e23c 87d5 31bd
00000260: 39e1 e9bc f55b 7cbc 678b e73c 627c 5c3b
00000270: 764b b93d d6b2 1d3d 494e 453d 68a7 2fbd
00000280: c5d8 9ebd eef9 16be 08fa 96bd 66ee c1bd
00000290: 7338 2bbe 7d26 d5bd 3295 b93c b70d c93c
000002a0: dff4 b33d b27d b6bd c283 1bbe 3473 81be
000002b0: 1fd4 abbd 3846 19bc 5ec6 eabb 4e14 7ebd
000002c0: 4bbd 893e 6b0b 663d 1b96 b73d 6f30 243d
000002d0: f871 883d 1952 b63d 4e49 bebc 892e 6539
000002e0: 936f aa3d ef17 733c 60da 82bd 6f13 e2bd
000002f0: 609a 6f3a 0a0c dabb 29db a13d 6bbe 943d
00000300: a7c9 d9bd 26f0 82bc 6980 d03c 09d8 4f3c
00000310: 853c 923d b4e3 3dbd 7922 c2bd aeaa 0dbe
00000320: 292c 913c b890 723d f3fa e33c 0db7 1c3e
00000330: 429b db3d c212 59bd 61a3 aebd a607 ac3c
00000340: 8c1a 5a3e 49c7 813d d743 bf3c 4f8b 263d
00000350: 2b72 5b3d a67c 003e 3eff 843c d546 4c3d
00000360: 9522 8e3c da5a 76bd 7816 92bd a745 4abb
00000370: e7b8 febc 7359 5fbd e333 93bd 0371 4bbd
00000380: 3253 083c 0d13 823d 8ed4 803d 9532 3dbd
00000390: 4574 4ebd 8015 21bd 1602 8b3b 663d 713d
000003a0: 274f 7e3d 7aea 623d ee30 1c3b c0cb 9c3d
000003b0: 3d08 e43d 3bed 813d 2fb2 a23c d557 b6bc
000003c0: af62 37bd 337e 99bd 1f28 6bbc a9d8 c7bd
000003d0: d0ab 2bbe 5206 43be c318 8ebd 37fc a6bc
000003e0: 327a 973d 2037 623c 5417 07bd a2f3 3d3c
000003f0: eb2e 7f3c c4d6 4b3c fa48 c83c 24e0 b53d
-0.14652157 0.0015310444 -0.02382538 0.014936507 -0.008473772 0.11695042 0.0539875 -0.03451967
-0.056004878 -0.015045564 -0.072538234 -0.14435479 -0.21979147 -0.09141682 -0.22942393 -0.19960451
0.09899238 0.24659032 0.21612485 0.12607507 0.21631776 0.14862439 0.06595327 -0.043709382
-0.04440653 -0.05261448 -0.08480389 -0.10758652 -0.001694907 -0.034190834 -0.00063028146 -0.032526653
-0.0039493274 0.027655687 -0.023442673 0.0038853919 0.0033707644 0.008968014 0.0046927286 0.033739522
0.044259164 -0.0043972344 -0.040321294 0.0024823642 0.03749802 0.016063944 -0.046180815 -0.018677574
-0.09460613 -0.019749228 0.03458584 0.00725762 -0.11514634 -0.05797688 -0.0035509171 0.0068570334
0.041703854 -0.044198133 -0.006311952 0.01856942 0.0003016678 0.026126927 -0.0013814247 -0.006619889
0.06302557 -0.005194574 -0.050120134 -0.08771628 0.048914775 0.042666797 0.018575488 0.028235003
0.013838935 0.056280933 0.05566494 0.014141063 0.09107961 0.04575286 -0.018266218 -0.038763538
0.08164362 0.043391615 0.018655173 0.028191222 0.0043428126 -0.016598135 -0.08129793 -0.04702283
-0.0011995429 -0.03727823 -0.006252629 -0.0039051587 -0.027152559 0.035980094 0.09961555 0.1734873
-0.06342473 -0.2478945 -0.05205761 0.028840486 0.030861197 -0.103868715 -0.14840803 -0.033647113
-0.045009278 -0.065894246 -0.03974171 0.07064024 0.059297234 0.08286423 0.08276137 0.12813857
0.23206313 -0.043284185 0.010643829 0.020431116 0.003765217 0.029925222 0.05433101 0.0005973513
0.00035520832 -0.13277137 -0.004847128 -0.017154181 -0.03101715 -0.0669908 -0.017739337 -0.021845052
-0.078974724 -0.14987557 -0.15744376 -0.112162694 -0.0372883 0.025206978 0.005227531 -0.14690968
-0.020161321 -0.1081212 0.024190707 0.035525154 0.019283026 0.14936666 0.13717489 0.12736323
-0.12174824 -0.036074374 -0.032563414 -0.03664477 -0.06448713 0.0063034343 0.027672771 -0.043416526
-0.028549777 -0.015402784 0.028264714 0.0033643474 0.09047596 0.03850063 0.04817036 -0.04288426
-0.07756189 -0.14743778 -0.073719084 -0.09469299 -0.16720752 -0.10407732 0.02265415 0.024542673
0.0878694 -0.08910693 -0.1518698 -0.25283206 -0.08390068 -0.00935512 -0.0071647605 -0.062031083
0.26902232 0.056163233 0.08964177 0.040085252 0.06662363 0.08902378 -0.023228314 0.00021856478
0.08322062 0.014837249 -0.06389308 -0.11038863 0.000914013 -0.006654267 0.079031296 0.07262882
-0.10634165 -0.015983652 0.025451856 0.012685784 0.071404494 -0.046359733 -0.094792314 -0.1383464
0.017721253 0.059220046 0.027829623 0.15304203 0.107229725 -0.052996404 -0.08527256 0.02099974
0.2129919 0.06336839 0.023347778 0.0406602 0.053575676 0.1254755 0.01623499 0.04987224
0.017350474 -0.060145237 -0.07133192 -0.003086427 -0.031094028 -0.054528665 -0.07187631 -0.049668323
0.008320617 0.0635129 0.062905416 -0.046190817 -0.050403852 -0.039327145 0.004242192 0.058896445
0.062087204 0.055399396 0.0023832875 0.0765605 0.11134384 0.06344076 0.019860355 -0.022258678
-0.044771846 -0.07494774 -0.014352827 -0.097581215 -0.1676476 -0.1904538 -0.06938317 -0.020383937
0.07396354 0.013807088 -0.03298123 0.011593731 0.015575151 0.012441341 0.02444886 0.08880642

weight f4 [32]
00000000: ab7c bc3f 56d1 b23f cd26 9b3f af98 a03f
00000010: 4f29 ab3f 0983 9d3f 96dc 933f ec8c b63f
00000020: c0da bd3f 23e9 a13f e48c 9b3f e983 8a3f
00000030: f70c aa3f c461 c43f 9b73 9c3f 2eaf b33f
00000040: 49c4 ad3f f195 943f 99fb 933f be36 993f
00000050: 3726 983f dd71 b13f 4f08 883f d71a b53f
00000060: 44af b03f 3c81 9a3f 05a5 ab3f 5988 aa3f
00000070: ca9c 973f d3fe a43f 86e8 a83f 91cb b53f
1.4725546 1.3970134 1.2121216 1.2546595 1.3371981 1.2305614 1.1551692 1.4261756
1.4832382 1.2649273 1.2152371 1.0821506 1.3285207 1.5342336 1.222278 1.4037836
1.3575526 1.1608258 1.1561157 1.1969831 1.1886662 1.3862873 1.0627536 1.4148816
1.3803487 1.2070689 1.3409735 1.332286 1.1844723 1.2890266 1.319596 1.4202749

bias f4 [32]
00000000: e7ae 45be df44 a3be f127 37be bba6 2abe
00000010: 5e11 4cbe dfbd 31be f38e 1ebe 68cb 91be
00000020: 655b 97be 5b6c 35be c844 6dbe 07df 09be
00000030: 9e7a 51be 29d1 cebd 9410 5fbe 67d4 2ebe
00000040: 036d 2ebe 0154 44be 83be 09be 9ade 23be
00000050: 6dc1 6dbe 0c7e 38be c5bf 04be dafd 39be
00000060: 6a61 9bbd 2a30 71be c6b9 67be c663 f7bd
00000070: 01de 46be f1e2 60be b6f3 3fbe 203c 34be
-0.19305001 -0.31888482 -0.1788633 -0.16665165 -0.199285 -0.17357586 -0.15484218 -0.284755
-0.29561916 -0.17717116 -0.23170769 -0.13463984 -0.20456931 -0.10098488 -0.21783668 -0.17073213
-0.17033772 -0.1917267 -0.1345158 -0.16002885 -0.23218317 -0.18016833 -0.1296378 -0.18163243
-0.0758694 -0.2355353 -0.2262946 -0.12079577 -0.19420625 -0.21961571 -0.18745312 -0.17601061

running_mean f4 [32]
00000000: f92b 38bc 8e98 94bd 0065 9e3d f907 433d
00000010: 21a2 20be 8b43 1dbe 0279 3fbe 630b 9b3d
00000020: a8cc 94bd 6d3f f9bd f27e 13be 18f3 3ebd
00000030: 9971 5f3d 8c24 013d efb5 fbbd 5a32 a0bd
00000040: c0ee e0bc fbe6 5fbe 2e43 4d3d d83f 0b3e
00000050: a3eb 26be 2771 37bd bffd dc3a 32b3 cfbe
00000060: 89f0 d53d a0b3 f3bd 10c4 28be 600f 863e
00000070: 8ac0 cebb 5bc4 afbd 9535 05bd c224 29bd
-0.011240953 -0.0725566 0.07734108 0.047615025 -0.15686847 -0.15357797 -0.18698505 0.07570531
-0.072655976 -0.12170301 -0.14403895 -0.04661855 0.054551695 0.031528994 -0.122905605 -0.07822104
-0.027457595 -0.21865456 0.050112896 0.13598573 -0.16300826 -0.044785645 0.001686029 -0.40566403
0.10446269 -0.11899495 -0.16481042 0.26183605 -0.0063095735 -0.08582374 -0.032521803 -0.04129482

running_var f4 [32]
00000000: baf1 f23f b275 d83f bfe2 e03f 0746 eb3f
00000010: 8845 dd3f 4a39 1840 8f72 1e40 fb9c ec3f
00000020: e59b e83f ab20 bb3f 57a6 b43f 1c3f d33f
00000030: 602d d33f d9f7 0340 13d1 ea3f 8f28 db3f
00000040: 6e56 e33f 80b1 0b40 6119 d63f 388c e83f
00000050: 4294 ee3f 62d3 ec3f 7a13 0040 2653 0540
00000060: a45c 0e40 de54 fb3f cc46 e33f 91f6 cc3f
00000070: 6080 e53f 4fe9 f53f d733 dd3f afb1 e53f
1.8980019 1.6910918 1.7569197 1.8380746 1.7286844 2.3784966 2.475742 1.8485407
1.8172575 1.4619344 1.4113263 1.6503634 1.6498222 2.0620024 1.8345054 1.7121753
1.7760751 2.1827087 1.6726495 1.8167791 1.8638995 1.8502009 2.0011888 2.0832
2.2244043 1.9635274 1.775598 1.6012746 1.7929802 1.9211825 1.7281445 1.794485

in_proj_weight f4 [96, 32]
00000000: 792b e3bd d65e b9bd 2731 923d 5d35 273d
00000010: 804e dd3d d474 103e 5d68 14be 0567 493e
00000020: 333e 533c 974b 38be 08b1 fb3d dd0d fabd
00000030: 1b71 2a3e a5f9 d4bd 56bb bebd 7b9f b73d
00000040: ff9e 533e b7da 21be 8535 bb3d 1a91 2fbe
00000050: e28c 363e af0a e5bb 68b2 fa3d 2000 07be
00000060: 9e7b 853d 1dd6 323e c24a f33d 2c02 193e
00000070: 7cfb 1a3e 1cb6 4abd bc84 37be 6cb0 d13c
00000080: f23c 2bbe a464 58be 9753 b93d 9735 203e
00000090: 4fa0 423d 3b12 3fbe ffbc 843c c319 243e
000000a0: 09d9 e93c 0540 2fbe 6601 34bd a014 19be
000000b0: d8f4 5a3c bbfd d4bd 01e5 52be 2562 693d
000000c0: d5ef 6ebd 0948 4bbe 5d01 443e faa8 72bd
000000d0: 5cc8 3ebe e97d 9b3d f18b 373e 6322 dabd
000000e0: 9e1f 3cbe a111 ccbc 71d6 573e 5305 5b3e
000000f0: f00e b03d 34d9 4ebd 6906 063e 0a9f 623c
00000100: 34db d83c 559a 313d 8254 d0bd c117 bcbd
00000110: 9e27 eebd eec1 8dbd 8d29 223d 126d 363c
00000120: ac6a 3b3d 5e21 413e 412a 953c 8f0b f93d
00000130: 0b54 04bd 51a5 21be df38 d43d a7b7 563e
00000140: ca22 043e be7a 663c adb0 22bd 3c4c 43be
00000150: 03a5 2a3e ef7e 1f3e 8771 373d 6df5 94bc
00000160: 534b c93d 796a 09be 90b5 0c3e e333 33be
00000170: 6177 5a3e 1cb6 dfbd 78f6 e2bd dbfd b33c
00000180: b4bc 80bd dd37 6a3d 29bd 08be 992b 8cbd
00000190: ad89 f73b dbc2 8cbd 2a96 6fbd c905 d8ba
000001a0: d2da 423d 08e9 ea3d 1cbd 003e 3816 fe3d
000001b0: d109 d3bd 9653 10be bcfa 9fbd 4539 44be
000001c0: 5c48 30be ceb0 dc3d c2b7 05be 4e2e 09bc
000001d0: 6413 fb3d 2462 2f3e e8d8 883d a319 32bd
000001e0: 4184 75bd c9be 1d3e fd5c b5bd 90aa f83d
000001f0: 3698 e33d 8aa5 c6bd ea7b 1a3a 2b61 a03d
00000200: f5d9 2dbe 72b0 e83d 8c8c db3d cb4c 41be
00000210: 96cc 463e af24 4b3e a0b8 013e 8c13 c93d
00000220: 0936 133e b1cb 423c 58aa 883c 5551 92ba
00000230: 286a 40be f35c 1ebd 1818 033e 6e42 dfbb
00000240: 1cb4 5abe 5048 8e3d c434 853d 4c32 a63d
00000250: e7b5 aa3d f15a c93d 2025 e83d 75e7 933d
00000260: bca2 f4bd 9282 cbbd 1ab5 1d3e 6e04 b93d
00000270: 2b6f bebc 25b9 173e 99cd 6bbd 0478 9fbd
00000280: 5581 89bd c383 313e 5d58 13be 7eb8 9c3d
00000290: 94e3 a9bb ac88 7ebd 5698 3bbe 4ed5 083e
000002a0: 2063 a43d e2f4 033e 8737 2f3e f74d 2dbe
000002b0: d12e 003e 3bfc 233d 0e06 75bd 9223 3abe
000002c0: 83f5 1f3e 8055 c63c 781f 0b3e 16d7 69bd
000002d0: 0501 58bb 7730 2a3e aa15 99bd 833a 8fbd
000002e0: 7fa1 59bd e2fe 1abe 689d 113e 326f 343c
000002f0: a111 013d 1c47 033e cb55 36be 3b22 3bbe
00000300: 09b6 3dbe 67c8 813d 3f68 78bd a2e1 1e3e
00000310: 398f 123e 60b6 0bbe 1c7b d73c 5848 16be
00000320: 1651 a93d 0b5f ad3c ddc9 203d 8726 073d
00000330: 115a b33a 8522 3cbe 22f1 7bbc df4f c63d
00000340: 948d f3bd d7ac 573e 6d6b 843c bdb0 76bd
00000350: 0883 3bbc c2f3 cfbd e0c0 4e3c b5b8 3dbd
00000360: 0c3c 03bd f0a7 483e 0195 093e 9954 c7bb
00000370: 38b6 2fbe e77b 45be d68a 38be 3e23 22bd
00000380: afb5 56be b0e3 063e 2104 45be 513b f53c
00000390: e889 393e 3efd 1c3e 9bd4 ad3d aa29 e93c
000003a0: e130 b33d 6e37 3a3e 838b 4fbe ccd3 233d
000003b0: e4e8 06be a0c0 403e 7fe6 e13d 147d 13be
000003c0: 5628 bfbd 0846 313d abbf 53bd 26d9 3ebe
000003d0: f93d ccbd 6a2e e43d d8a9 90bc c640 9b3c
000003e0: 1c10 52be 7f72 04be cb02 d33d 7f10 993d
000003f0: a0b9 20be dd78 e1bd 6652 e2bd 4559 3c3e
-0.11092276 -0.09051292 0.07138281 0.040822376 0.10805988 0.14107066 -0.14492936 0.19668205
0.012893247 -0.17997585 0.122896254 -0.122096755 0.16644709 -0.103991784 -0.09313075 0.08965965
0.20666121 -0.1580609 0.091410674 -0.17145196 0.1782718 -0.006989799 0.122410595 -0.13183641
0.06517719 0.1746449 0.11879493 0.14942235 0.15134996 -0.04949008 -0.17921728 0.02559682
-0.16722468 -0.21132141 0.090491466 0.15645443 0.047516163 -0.18659298 0.016203402 0.16025452
0.028545873 -0.17114265 -0.043946646 -0.14949274 0.013364039 -0.10399958 -0.2059517 0.056978364
-0.05833419 -0.19851698 0.19141145 -0.05924318 -0.18631119 0.07592375 0.17924477 -0.1065109
-0.18371436 -0.02491075 0.21077897 0.2138875 0.08596599 -0.05050011 0.13088383 0.013831863
0.026471712 0.043360073 -0.101723686 -0.09184218 -0.1162865 -0.06921755 0.039590407 0.011134403
0.045756027 0.18860385 0.018208625 0.12160408 -0.032306712 -0.1578572 0.1036241 0.20968495
0.12903896 0.01406735 -0.039719272 -0.1907205 0.1666451 0.15575765 0.044786002 -0.018183434
0.0982882 -0.13419522 0.13741136 -0.17500262 0.21334602 -0.109234065 -0.110821664 0.021971634
-0.06285992 0.05718218 -0.13353409 -0.06844253 0.007554254 -0.06873103 -0.058492817 -0.0016481216
0.047571965 0.114702284 0.1257214 0.12406582 -0.10304607 -0.14094386 -0.07811496 -0.19162472
-0.17215103 0.1077591 -0.1305838 -0.008372856 0.12259558 0.17127281 0.066819966 -0.04348148
-0.05994058 0.1540481 -0.08855627 0.12141907 0.11113016 -0.09699543 0.00058930984 0.07831033
-0.16977675 0.11361779 0.107201666 -0.1887695 0.19413981 0.19838212 0.12668085 0.098181814
0.14376082 0.011889384 0.016682789 -0.0011163155 -0.18790495 -0.038662862 0.1280216 -0.006813339
-0.21357769 0.06947386 0.06504205 0.08115062 0.08335476 0.09831799 0.11335206 0.07221881
-0.119451016 -0.09937014 0.15401116 0.09034048 -0.023246368 0.14816721 -0.05756912 -0.07786563
-0.06714121 0.1733542 -0.14389177 0.076523766 -0.0051846 -0.06214206 -0.1831983 0.1336262
0.08026719 0.12886384 0.17111026 -0.16924272 0.12517859 0.040035468 -0.059820227 -0.18177631
0.15620999 0.024210691 0.13586223 -0.057089888 -0.0032959592 0.1662005 -0.07474835 -0.06993582
-0.05313253 -0.15136293 0.14220202 0.011012839 0.031510953 0.12820095 -0.17806165 -0.18274777
-0.18526472 0.06337052 -0.06064629 0.1551576 0.14312448 -0.1364379 0.02630382 -0.14676034
0.08267419 0.021163484 0.03925501 0.032995727 0.0013683458 -0.18372543 -0.015377315 0.09683203
-0.11892238 0.21062027 0.016164506 -0.060227145 -0.0114448145 -0.10153915 0.012619227 -0.04631873
-0.032039687 0.19595313 0.13435747 -0.006083083 -0.17159355 -0.19285546 -0.18021712 -0.03958439
-0.20967744 0.13172793 -0.19239856 0.02993551 0.18119013 0.15330979 0.08487817 0.02846225
0.08749557 0.18185207 -0.20268063 0.039996907 -0.13174778 0.1882348 0.11030292 -0.14403182
-0.09333865 0.043279678 -0.05169646 -0.18637523 -0.09972758 0.11141665 -0.017659113 0.018951785
-0.20513958 -0.12934302 0.10303267 0.074738495 -0.1569581 -0.11009381 -0.110508725 0.18393429

in_proj_bias f4 [96]
00000000: 0000 0000 0000 0000 0000 0000 0000 0000
00000010: 0000 0000 0000 0000 0000 0000 0000 0000
00000020: 0000 0000 0000 0000 0000 0000 0000 0000
00000030: 0000 0000 0000 0000 0000 0000 0000 0000
00000040: 0000 0000 0000 0000 0000 0000 0000 0000
00000050: 0000 0000 0000 0000 0000 0000 0000 0000
00000060: 0000 0000 0000 0000 0000 0000 0000 0000
00000070: 0000 0000 0000 0000 0000 0000 0000 0000
00000080: 0000 0000 0000 0000 0000 0000 0000 0000
00000090: 0000 0000 0000 0000 0000 0000 0000 0000
000000a0: 0000 0000 0000 0000 0000 0000 0000 0000
000000b0: 0000 0000 0000 0000 0000 0000 0000 0000
000000c0: 0000 0000 0000 0000 0000 0000 0000 0000
000000d0: 0000 0000 0000 0000 0000 0000 0000 0000
000000e0: 0000 0000 0000 0000 0000 0000 0000 0000
000000f0: 0000 0000 0000 0000 0000 0000 0000 0000
00000100: 0000 0000 0000 0000 0000 0000 0000 0000
00000110: 0000 0000 0000 0000 0000 0000 0000 0000
00000120: 0000 0000 0000 0000 0000 0000 0000 0000
00000130: 0000 0000 0000 0000 0000 0000 0000 0000
00000140: 0000 0000 0000 0000 0000 0000 0000 0000
00000150: 0000 0000 0000 0000 0000 0000 0000 0000
00000160: 0000 0000 0000 0000 0000 0000 0000 0000
00000170: 0000 0000 0000 0000 0000 0000 0000 0000
0.0 0.0 0.0 0.0 0.0 0.0 0.0 0.0
0.0 0.0 0.0 0.0 0.0 0.0 0.0 0.0
0.0 0.0 0.0 0.0 0.0 0.0 0.0 0.0
0.0 0.0 0.0 0.0 0.0 0.0 0.0 0.0
0.0 0.0 0.0 0.0 0.0 0.0 0.0 0.0
0.0 0.0 0.0 0.0 0.0 0.0 0.0 0.0
0.0 0.0 0.0 0.0 0.0 0.0 0.0 0.0
0.0 0.0 0.0 0.0 0.0 0.0 0.0 0.0
0.0 0.0 0.0 0.0 0.0 0.0 0.0 0.0
0.0 0.0 0.0 0.0 0.0 0.0 0.0 0.0
0.0 0.0 0.0 0.0 0.0 0.0 0.0 0.0
0.0 0.0 0.0 0.0 0.0 0.0 0.0 0.0

weight f4 [32, 32]
00000000: 3fb8 aa3d 3fcf ea3d d61a eaba b5c4 31be
00000010: 90cc a23d a94b e53d 088f 9cbc a05c f33d
00000020: 201a 8e3d cc5a 203d 4684 273e 2ba8 adbd
00000030: 3ef9 e63c ed45 08be 719d 1d3e 7f7c 673d
00000040: ace2 203e 8201 10be 0c85 1d3e 4f7f e23d
00000050: f49e 1d3e 0b5a a0bd 566f 14be b777 febc
00000060: b63d 0f3e 009e 313e d753 86bc 84af a43c
00000070: 9e99 83bc 8e37 67bc a846 f63c 6b79 a93d
00000080: 2678 27bd 57b5 0bbe 1259 a9bb 33d3 c73d
00000090: b4c4 11be 9894 293e 2f39 813d 7eb6 aa3d
000000a0: 2a3f af3d b548 f93d bfbc 1e3e 4da7 9fbd
000000b0: baf4 3d3d 0095 d93d be3a 33be f2af d13d
000000c0: 56c9 2dbe cd2e ecbd ce5b d4bd f6c6 f6bd
000000d0: 8813 02be c89b d53d ae46 1cbe 3ae0 afbd
000000e0: e163 29be 1032 8fbd b45f 2cba 408d 733d
000000f0: 83af babd 7513 003d 59f0 af3d 5da7 123e
00000100: b84f 0cbd 0ec9 f5bd 080b de3d 6460 82bd
00000110: ba33 2dbe 9a2f 8abd 74c9 e0bc b9ab 1f3d
00000120: 349a 093e e9aa e53d 16f7 9abd 72ac 123e
00000130: be4a 853d 5999 3a3d f42f 04be a2b1 f5bc
00000140: 6d4f 813d 0ae3 54bd 7663 993d 0708 a93d
00000150: 4a8d fcbd 3eac 123e 739a 953c 8bc7 40bc
00000160: f804 5bbc 8e2f 5fbc 5af1 a3bc 6962 72bd
00000170: fc0b d53c 6c3b 41bd 4790 123e efd0 77bd
00000180: fd1b 26be 6773 333e d2c1 d53d 89de 00be
00000190: 00f2 0e3e e39d 1dbe bb22 b4bd 9b96 bbbd
000001a0: d464 f03c 618e 443d 0cc2 93bd 6652 74bd
000001b0: 0430 c2bd 87b8 0a3e 4d4b b03d fa63 7f3c
000001c0: 1d70 1d3c 6030 343c 447c 26bd 30fe a3bd
000001d0: c603 233e e86e 8dbd f308 dfbd 0b79 90bc
000001e0: 2009 5f3d 84b0 1abe 8ce9 453d 6100 0abc
000001f0: 7745 a8bd b8ba b53c 7868 903c 3b8d 2ebe
00000200: 983c aa3d 04f8 893d 022a d0bd 24be 643d
00000210: 2ae1 bebd 9b9f 063e 67a3 a1bd ad9c 813d
00000220: 9bc9 693d d996 26bc 6cbc c6bd 32e0 ab3d
00000230: a49b 3b3d 5a2e a8bd 66ce c8bc 31cc 953d
00000240: e2b3 18be 8b0c d43c 1300 1a3d 896c 31be
00000250: ead5 d03c b9d1 0dbe b652 22be 07ed 1e3e
00000260: 401d ba3d 1996 013e b938 213e 9bff c2bd
00000270: cd96 9abd d5c6 b0b7 856e 913d 1efd 943c
00000280: 059c 84bc 98e1 343e e99f b0bd 535b a53d
00000290: 709c 953d 6728 afbd 6e06 ce3d 4370 f93d
000002a0: 2019 0fbd 7de9 f4bd a87e de3d bbeb 083e
000002b0: 2600 883d c8e1 b23c b4a2 b03d a48e 5e3d
000002c0: f754 5fbd 6b5a 05be 4f29 9ebd 8907 803d
000002d0: 998a 92bd b429 8a3d 5df0 bbbd 8e4b 08be
000002e0: 5b60 003e 45e8 e4bd c08f 5d3d 6563 193e
000002f0: be57 293c d13c e23d e57e 3fbd b81e 1cbe
00000300: 0323 adbd 0bd1 5ebd 707f d2bd a69f d9bd
00000310: 600b 9f3d e6ea 273e 34ea e63d c657 733d
00000320: d1e2 0fbe c86c f0bc 9b2d 853d 7936 1f3e
00000330: ab1e b1bd 8985 d63d 9dfb cf3d daf4 1dbd
00000340: e3f2 25be 9ee2 a63d df1c b93d ca9a 0fbe
00000350: 1507 0d3e 6994 2bbc 25da 07be 5458 7b3c
00000360: 952f cb3d 664b d23b e01f 0cbe 65a9 c2bd
00000370: 2c4f d53d c4c7 9a3d 7ac8 e73d 9835 853d
00000380: f37b ea3d b961 1ebd ed8a a83d e44d 4a3d
00000390: 6de4 fb3c d868 213e 9685 8dbd 4ec4 093e
000003a0: 57a1 8dbd fd31 113e 3a82 eebc 6145 083e
000003b0: 714d 6dbd ea34 6d3c 0089 1e3e 7f94 7cbc
000003c0: dff8 6dbc a45e 98bd 08be 013e 0e7d be3d
000003d0: d0ba 1fbd d412 41bd 698d 213e 1ca7 db3d
000003e0: deb1 123e 03cb bebd b4b6 88bd 874e edbd
000003f0: f691 05be 8eb9 9fbc b47a e8bb bf56 b6bd
0.083359234 0.1146531 -0.0017860781 -0.17360194 0.079491735 0.11196072 -0.019111171 0.11882901
0.06938577 0.03914909 0.16359052 -0.08479341 0.02819502 -0.13307925 0.1539209 0.056515213
0.15711468 -0.14063075 0.15382785 0.110594384 0.15392667 -0.07829674 -0.14495596 -0.031062944
0.13988385 0.17345428 -0.0163974 0.020103224 -0.016064461 -0.014112366 0.030062988 0.08275112
-0.040886067 -0.13643394 -0.0051680887 0.0975708 -0.14235193 0.1656059 0.06309735 0.08335589
0.085569695 0.12172071 0.15501688 -0.07795582 0.046375968 0.106241226 -0.17502877 0.10238637
-0.16971335 -0.11532364 -0.10369073 -0.120496675 -0.12702763 0.104301035 -0.15261337 -0.0858769
-0.16542007 -0.069919705 -0.000657554 0.05946088 -0.091155075 0.031268556 0.085907646 0.14321657
-0.034255713 -0.12001239 0.10841948 -0.06366041 -0.16914263 -0.067473605 -0.02743981 0.038982127
0.1343773 0.11214239 -0.07566659 0.14323595 0.065083966 0.0455564 -0.12908918 -0.029991928
0.063139774 -0.051974334 0.07489674 0.08253484 -0.12331636 0.14323518 0.018262124 -0.011766325
-0.013367884 -0.013622178 -0.020012546 -0.059175882 0.026006691 -0.04717581 0.1431285 -0.06050199
-0.16221614 0.17524491 0.10437359 -0.1258489 0.13959503 -0.1539226 -0.08795687 -0.09159585
0.029344954 0.047987346 -0.07214746 -0.059648894 -0.094818145 0.13546954 0.086081125 0.015587801
0.009609249 0.010997862 -0.040645853 -0.08007467 0.15919408 -0.06905919 -0.10890379 -0.017635843
0.05445206 -0.15106398 0.04831843 -0.008422942 -0.08216374 0.022183761 0.01762794 -0.17046063
0.083123386 0.06736758 -0.10164262 0.055845395 -0.093202904 0.13146822 -0.07892495 0.06328712
0.05707703 -0.010167801 -0.09703907 0.08392371 0.045802727 -0.08211966 -0.024512481 0.07314337
-0.1491237 0.025884887 0.037597727 -0.17326559 0.025492627 -0.13849534 -0.15851864 0.15520106
0.0908761 0.12654914 0.15744294 -0.09521409 -0.07548294 -2.1073423e-05 0.07101158 0.018187102
-0.016187677 0.17664182 -0.086242504 0.08074059 0.07305229 -0.08552628 0.1005982 0.12179615
-0.03493607 -0.11958597 0.108640015 0.13371174 0.06640653 0.021836177 0.08624783 0.05433525
-0.05452439 -0.13022773 -0.07722723 0.06251437 -0.07155342 0.067462355 -0.09176705 -0.13310072
0.12536757 -0.111771144 0.05409217 0.14979322 0.010335861 0.11046756 -0.046751875 -0.15246093
-0.084539436 -0.054398578 -0.10278213 -0.10626154 0.077658415 0.163982 0.112751395 0.05940988
-0.14051367 -0.029348746 0.06502839 0.15548123 -0.086484276 0.104746886 0.10155413 -0.038563587
-0.16205935 0.081486925 0.0903871 -0.14023891 0.13772233 -0.010472395 -0.1326681 0.015340883
0.09921185 0.0064176796 -0.13684034 -0.09504966 0.104154915 0.075576335 0.11317535 0.06504363
0.11449423 -0.038667414 0.08229623 0.04939069 0.03074857 0.15762651 -0.06910245 0.1345379
-0.06915539 0.14179225 -0.029114831 0.13307716 -0.057935182 0.014477948 0.15481949 -0.015416264
-0.0145246675 -0.07439926 0.12670147 0.09301196 -0.038996518 -0.047137097 0.157766 0.10725233
0.14325663 -0.09316065 -0.06675473 -0.115872435 -0.13043961 -0.019497659 -0.0070947055 -0.08903264

bias f4 [32]
00000000: 0000 0000 0000 0000 0000 0000 0000 0000
00000010: 0000 0000 0000 0000 0000 0000 0000 0000
00000020: 0000 0000 0000 0000 0000 0000 0000 0000
00000030: 0000 0000 0000 0000 0000 0000 0000 0000
00000040: 0000 0000 0000 0000 0000 0000 0000 0000
00000050: 0000 0000 0000 0000 0000 0000 0000 0000
00000060: 0000 0000 0000 0000 0000 0000 0000 0000
00000070: 0000 0000 0000 0000 0000 0000 0000 0000
0.0 0.0 0.0 0.0 0.0 0.0 0.0 0.0
0.0 0.0 0.0 0.0 0.0 0.0 0.0 0.0
0.0 0.0 0.0 0.0 0.0 0.0 0.0 0.0
0.0 0.0 0.0 0.0 0.0 0.0 0.0 0.0

weight f4 [32, 1, 4]
00000000: 6193 27be 67d5 b5bd c7c7 ec3d 827c babe
00000010: 7301 9bbd 60f9 70bb 59ce f33e 7589 97be
00000020: 7c87 c6bd 4ab0 373e 42f7 8bbe a7de 8a3e
00000030: 9e72 fbbe 102e b43e 13cb 753e c49a d0be
00000040: 3bbc cc3e b012 87bc e86a bf3e b93f 453d
00000050: 11c1 733e f8bf d1be 61dd d53e cc19 a4bd
00000060: 5db1 10bf bf57 36bc 30ab 69bc 36da 2f3e
00000070: 0ac7 58be be57 8c3d dd0b 093f e60f a6be
00000080: facc b53d ba5d b73e 07bf 1a3c eb91 fe3d
00000090: ba19 733d 16b3 073f 4f39 723c cc25 12bd
000000a0: 7741 983e 7c4d 543b 9547 ebbe 4ccb a63c
000000b0: c39f b7be a241 a8bc c82d dc3e 903b f1bd
000000c0: cb42 afbe b45a dc3e 281a 0f3e 2232 65be
000000d0: 02ef 92be d5a3 f53e 89f8 a63d 6be6 013f
000000e0: fc36 f4be 2cdc 81bd 0988 b4bd a5f4 d5be
000000f0: 691b 80bd 776a 193f 6e3a da3d 9e00 dc3c
00000100: 717c c2bd f775 033f f0ac a73d aca6 ccbe
00000110: 42b9 e2bd 4beb 433e 1ee6 223e 4b6a 8e3e
00000120: 1f39 463c eb17 983d 3f67 01bf 7e55 3a3e
00000130: 854b 26be b259 9c3d 1284 c2be d9d9 c23d
00000140: 6a81 66be d61b 12bd f6de 93be ae18 e13d
00000150: 14f6 523e 7407 ad3c 454a e03e de0f 19bd
00000160: 82ef 26be 4fca 0e3f 1e0b 533e bdee 813d
00000170: d445 343e f1e1 5b3e de6a 13bf eed5 adbe
00000180: 7dd2 debd 25ae bcbd ad7d eebb 7964 c33e
00000190: d3ab 5c39 d96c c33e e7d0 cc3b e4b6 cbbb
000001a0: 6dca 0f3e 9806 f43d 0632 c8bd 2ec5 d7bd
000001b0: 131c 983e 33f0 3f3d f59c 6bbd a825 82bd
000001c0: cf46 a93e 6cf8 c2be d384 a2be 2697 acbd
000001d0: 8b47 173f f300 b7bd 6e0b 87bd edb9 1fbe
000001e0: 8c14 16bf 7740 a93d 4d0f db3d 3c04 5ebe
000001f0: 950f eebe fb19 883e d234 25be 2b00 3cbe
-0.16364814 -0.08878594 0.11561542 -0.36423117 -0.07568636 -0.0036769733 0.47618368 -0.2959706
-0.0969381 0.17938343 -0.2733708 0.27122995 -0.49110883 0.35191393 0.24003248 -0.40743077
0.39987358 -0.016488403 0.3738625 0.048156474 0.23804118 -0.40966773 0.4177046 -0.08012733
-0.56520635 -0.011129319 -0.014262006 0.17173085 -0.21169677 0.06852673 0.53533727 -0.32434005
0.08876987 0.35813695 0.0094449585 0.124301754 0.059350707 0.5300764 0.014784171 -0.035680577
0.29737446 0.0032394817 -0.4595305 0.020360611 -0.35864076 -0.020539109 0.43003678 -0.11778939
-0.34230646 0.4303795 0.13974822 -0.22382405 -0.28697973 0.47976556 0.08152873 0.50742215
-0.476982 -0.063408226 -0.08815009 -0.4178821 -0.06255228 0.5992808 0.10655676 0.026855763
-0.094963916 0.51351875 0.08187282 -0.3997091 -0.110704914 0.19132726 0.15908095 0.2781547
0.01209858 0.07426437 -0.50548166 0.18196675 -0.16239746 0.076342955 -0.37991387 0.095142074
-0.22510305 -0.035671078 -0.28881043 0.109910354 0.20601684 0.021121718 0.43806663 -0.037368648
-0.16302302 0.5577745 0.2060971 0.06344364 0.17604762 0.21472909 -0.5758494 -0.33952278
-0.10879991 -0.09212903 -0.0072781653 0.38162592 0.00021044844 0.38168982 0.006250489 -0.0062168706
0.14042063 0.1191532 -0.09775166 -0.10535656 0.2970892 0.04685993 -0.057522733 -0.063548386
0.33061835 -0.38080156 -0.31741962 -0.08427267 0.5909354 -0.08935728 -0.06593977 -0.15598269
-0.586251 0.08264249 0.10696278 -0.21681303 -0.46496263 0.26582322 -0.1613343 -0.18359439

bias f4 [32]
00000000: e2c0 57be 8f36 c1bd 1693 45be 85a1 68be
00000010: cd96 a43e 0bc3 92bc afaa 863e 250b 8fbe
00000020: 5f6c 85bd 0c43 aebe be69 6b3d 98e0 243e
00000030: 1457 5bbc 59ef 0e3e 5ad9 96be a08a e7be
00000040: 0c8d a5bd 7cd6 083e eb62 91bd 3705 863e
00000050: 7833 093e 3082 afbd 2bdc 3d3d 35f9 67bb
00000060: 97de ab3e cb20 dbbd 5c2e 813e a6f9 8cbd
00000070: 2cd8 cb3c 68ab 4dbe e615 f4bd 6670 04bc
-0.21069673 -0.09434234 -0.1929439 -0.22717865 0.32146302 -0.01791527 0.26302096 -0.2793819
-0.06514811 -0.34035528 0.05747389 0.161013 -0.01338746 0.13958491 -0.294627 -0.4522295
-0.08083543 0.1336307 -0.07098945 0.26175854 0.1339854 -0.08569753 0.046352547 -0.0035396342
0.3356826 -0.10699614 0.25230682 -0.06883554 0.024883352 -0.20084918 -0.11918239 -0.0080834385

weight f4 [32]
00000000: 0b0b 853f 7d00 923f b1b8 823f 65a1 993f
00000010: 27ff 8e3f f842 843f 2796 963f 6fc5 833f
00000020: e2e4 873f 1803 943f b105 893f 2e29 8a3f
00000030: 4693 8f3f d827 793f 4bf2 8a3f f8bf 873f
00000040: 8e45 873f b8ed 803f e02c 853f 42bc 953f
00000050: ec73 953f 7274 933f ed58 863f a2b8 893f
00000060: 5c6d 943f 8afe ae3f 4e75 7c3f 7a77 853f
00000070: fd0c 593f d46d 8e3f 35d4 9f3f 4397 813f
1.0393995 1.1406399 1.0212613 1.2002379 1.1171616 1.0332937 1.1764573 1.0294627
1.0616724 1.1563444 1.0704862 1.0793817 1.1216819 0.9732642 1.0855192 1.0605459
1.0568101 1.0072546 1.040432 1.1698077 1.1676002 1.1519911 1.0495888 1.075947
1.1595874 1.3671429 0.9861649 1.0427086 0.84785444 1.1127267 1.2486635 1.0124286

bias f4 [32]
00000000: ec8d 27be 9bee 02bb 93c9 15bd 542d 36be
00000010: 3ed3 a4bd 8c59 cabd 2329 443d 32c5 cabd
00000020: 184d adbc 8e37 1dbd 8e5b 17bd 8212 783d
00000030: 8df0 51be 95ea 6bbd ad44 e0bd a3fc 9d3a
00000040: 3dae 50bd 2e82 cabd 72b1 d63a b521 40bd
00000050: 3d53 cabd ad19 bd3b fb15 afbc eff4 c7bd
00000060: ef7b b53d 3ed7 153e fa59 dabd 4bec 8bbd
00000070: 5eeb e0bd e200 80bb ff79 1bbe 9423 333d
-0.16362733 -0.0019978646 -0.03656919 -0.17790729 -0.08048104 -0.09880361 0.047890794 -0.09900893
-0.021154925 -0.03838306 -0.036952548 0.060564525 -0.20501919 -0.05759676 -0.10950599 0.0012053441
-0.050947417 -0.09888111 0.0016379787 -0.046907146 -0.09879158 0.005770883 -0.021372786 -0.09763514
0.08861529 0.1463289 -0.10661693 -0.06832179 -0.10982393 -0.0039063552 -0.15183257 0.0437351

running_mean f4 [32]
00000000: 2ac8 8bbe 5736 a5bd 2158 3bbe 5da5 86be
00000010: 2f64 d83e c41f ce3a a2f0 563e 86ef 89be
00000020: efa7 153c 1166 88be 06ac 223d a9c2 1c3e
00000030: cd44 28bc f755 743e cdd0 d9be 750f bbbe
00000040: eaa6 84bd 1aae 4b3e 0134 cfbd 2d53 5c3e
00000050: bcfd 9f3d 8975 d4bb 1e8c 073e 23fa 8abd
00000060: 8f5e b63e 4fb4 6abd 7823 853e 7b3d 26bd
00000070: 6c0a 09bd 4edb 29be 64fb 47be 876d 99bd
-0.2730115 -0.08067005 -0.18295337 -0.26298037 0.42263934 0.001572602 0.20990232 -0.26940554
0.009134277 -0.2664037 0.039714836 0.15308632 -0.01027031 0.23860918 -0.42542115 -0.3653523
-0.06477149 0.19890633 -0.10117341 0.21516104 0.07812068 -0.006483738 0.13237044 -0.06785991
0.35619017 -0.057300862 0.26003623 -0.040585976 -0.033457205 -0.16587564 -0.19529492 -0.07491594

running_var f4 [32]
00000000: b487 0e3e 6f0c 733e c5e7 083e aba1 ee3e
00000010: 007f 673e 0c72 983e a850 793e 6c65 ab3e
00000020: 101e f13d 692f 623e 7bb3 653e 2de3 7f3e
00000030: 8733 953e fb20 ce3e db7a aa3e cc28 943e
00000040: 7301 ac3e 57aa da3d afaa 5d3e 7aed 083e
00000050: 539f d63d 379f 313e ba31 963e bce3 c13e
00000060: f627 e83d bb99 e63d 9731 1e3d 0765 8f3d
00000070: abd8 893e 47da 8a3e 36c4 a43e 77ca 893e
0.13918954 0.23735212 0.13369663 0.46607718 0.2260704 0.2977451 0.24347174 0.33475816
0.11773312 0.22088398 0.22431748 0.24989004 0.29140875 0.40259537 0.33296856 0.28937376
0.33594856 0.10677021 0.21647142 0.1337184 0.104796074 0.17345892 0.29334813 0.3786906
0.11335747 0.112597905 0.03862151 0.07001691 0.26923117 0.27119657 0.32180947 0.2691228
