histories_pre_cls/04.30-10.47.25_67.87%_pt_Transformer_ATCNet_BcicIv2a_bs=064_lr=0.0010_ld=0.999891_nw=3_cps=9/best_valid_acc.pt (torch, 300862 bytes, 88 tensors)

weight f4 [16, 1, 1, 129]
-0.030438421 0.029498572 -0.07643318 -0.05728124 -0.028907375 0.02752032 0.0010786578 0.08048812
0.026842272 0.072551884 0.020488491 0.012985453 -0.06461575 -0.05226728 -0.042281743 -0.008789894
0.027935768 0.06197276 -0.013452067 0.015612376 0.062888436 0.059157826 -0.05469049 0.035057418
-0.018457564 0.011578755 0.07939374 -0.09369717 -0.0784238 -0.025651157 0.010645421 0.16513051
0.026188958 -0.024608875 -0.12088261 -0.1724937 -0.12471618 0.053988677 0.09248325 0.15865119
0.12562326 0.03365707 0.02063445 -0.12124781 -0.11812411 -0.1034237 -0.0046881516 -0.015272103
-0.09872669 -0.025008313 0.095925525 0.19024076 0.17433003 0.12590353 0.077689715 -0.13961668
-0.14013779 -0.22279626 -0.14184798 -0.021728229 0.14616545 0.17000774 0.036327492 0.032735
-0.0027736851 -0.06390365 -0.023910468 0.010572043 0.026481759 0.021208834 -0.14139992 -0.071496285
0.048011668 0.11867016 0.112003185 0.06251753 -0.060563326 -0.17166692 -0.04542032 -0.023773603
0.015032137 0.17418616 0.121450886 -0.09064406 -0.039676838 -0.085351385 -0.06706741 -0.054054275
0.060910195 -0.010898295 0.060039457 0.050975636 0.07290384 0.060403675 -0.071320325 -0.08345407
-0.020905707 -0.04313868 -0.09412773 -0.030835196 0.14040245 0.135417 0.010013669 -0.027167177
-0.11647114 -0.016473427 -0.03310281 0.002918391 0.06835127 0.054126065 -0.051524665 0.0052755577
-0.08060422 0.086935684 0.08285022 -0.04986258 -0.02180405 -0.023741774 -0.017466128 0.017930467
0.07719585 0.0732529 -4.5526293e-05 0.049438126 -0.10238002 -0.06792654 0.00085901027 0.03163475
0.07892508 -0.017243905 0.030820714 0.062589414 -0.0064872904 0.053469397 0.13540258 0.08158301
0.09405175 0.08462133 0.098848276 0.1247257 0.13342597 0.08028359 0.09989512 0.020278148
-0.04075232 0.006112531 0.101513125 0.041164987 -0.0010046503 -0.026127411 -0.030037828 -0.011603313
0.051434293 0.11019113 0.09222844 -0.046552334 0.07793242 -0.051736224 -0.008424583 -0.046487913
-0.041941743 -0.0549612 -0.12537524 -0.11774558 -0.056217276 -0.03939667 -0.09712921 -0.045595463
-0.15779667 -0.08511028 0.0072786836 -0.08306321 0.030955432 -0.020105781 -0.15676808 -0.053077865
-0.12310062 -0.15888083 -0.056882128 -0.20847256 -0.1319095 -0.13563158 -0.020618252 -0.006193841
0.03792238 0.022175774 -0.0485283 -0.095924385 -0.18291743 -0.073843434 -0.0523545 -0.05245401
-0.17020325 -0.09324422 -0.090924084 -0.029149255 -0.0054510715 0.06814042 -0.033180557 -0.015463597
-0.033799555 0.015654162 -0.08806985 -0.059287466 0.0051122555 0.17203249 0.12029073 0.23014699
0.18130481 0.1446688 0.09665692 0.038003262 0.038809694 0.0020400763 0.012680082 0.009759723
-0.07592632 -0.037215505 0.10078191 -0.0047979224 0.07678844 0.15434593 0.055387456 -0.03875388
-0.15701778 -0.051655997 -0.13776022 -0.070456415 -0.051150333 -0.016499987 -0.0055512846 0.06557176
0.027700704 0.112088196 0.096817836 -0.018608829 0.055968862 -0.05141123 -0.017636605 0.06529155
0.09104052 0.12704988 0.03800026 0.06238966 0.10149453 -0.018497257 0.11724658 -0.027049992
0.04411759 0.049434267 0.043958828 0.10936527 0.15461622 0.013007944 -0.054923415 -0.048165366
00000000: ff59 f9bc fda6 f13c 0089 9cbd bc9f 6abd
00000010: 29cf ecbc 4b72 e13c c061 8d3a f5d6 a43d
00000020: 53e4 db3c 1596 943d 7bd7 a73c f0c0 543c
00000030: 4355 84bd 3716 56bd 9f2f 2dbd 7d03 10bc
00000040: 8dd9 e43c 26d7 7d3d 0f66 5cbc 0dcb 7f3c
00000050: a7cb 803d 7a4f 723d 2303 60bd 5e98 0f3d
00000060: 5134 97bc d2b4 3d3c 2f99 a23d 4de4 bfbd
00000070: a89c a0bd 6022 d2bc 226a 2e3c f917 293e
00000080: 3a8a d63c 8d98 c9bc 4d91 f7bd 30a2 30be
00000090: 326b ffbd 3b23 5d3d dc67 bd3d 7575 223e
000000a0: 62a3 003e ffdb 093d 9409 a93c c650 f8bd
000000b0: 0eeb f1bd cecf d3bd 119f 99bb d837 7abc
000000c0: 3831 cabd 3cde ccbc 9a74 c43d 79ce 423e
000000d0: 9283 323e dbec 003e c91b 9f3d adf7 0ebe
000000e0: 4880 0fbe b424 64be 9940 11be 66ff b1bc
000000f0: 65ac 153e 8216 2e3e 23cc 143d 2315 063d
00000100: b7c6 35bb ebdf 82bd e3df c3bc 5d36 2d3c
00000110: 46f0 d83c 26be ad3c 24cb 10be a56c 92bd
00000120: e2a7 443d 5709 f33d ed61 e53d 3109 803d
00000130: 4011 78bd 74c9 2fbe a80a 3abd dcc0 c2bc
00000140: 5a49 763c db5d 323e 3ebb f83d 98a3 b9bd
00000150: 2e84 22bd b5cc aebd a35a 89bd 0468 5dbd
00000160: f87c 793d c38e 32bc efeb 753d d4cb 503d
00000170: 9c4e 953d d869 773d 6410 92bd f8e9 aabd
00000180: 7242 abbc 2fb2 30bd 0ac6 c0bd 189a fcbc
00000190: a9c5 0f3e c1aa 0a3e 5f10 243c b38d debc
000001a0: 6c88 eebd 48f3 86bc d096 07bd 7a42 3f3b
000001b0: c0fb 8b3d 4bb3 5d3d 870b 53bd 96de ac3b
000001c0: d313 a5bd 560b b23d 60ad a93d b43c 4cbd
000001d0: 689e b2bc 1c7e c2bc 2015 8fbc eae2 923c
000001e0: dc18 9e3d 9e05 963d 7cf3 3eb8 a27f 4a3d
000001f0: 9eac d1bd 121d 8bbd 342f 613a 7193 013d
00000200: 79a3 a13d 1743 8dbc b97b fc3c e12e 803d
00000210: 5693 d4bb ba02 5b3d f9a6 0a3e fe14 a73d
00000220: 349e c03d f34d ad3d f770 ca3d 3070 ff3d
00000230: d1a0 083e b96b a43d d095 cc3d 5c1e a63c
00000240: e8eb 26bd a04b c83b 1de6 cf3d 9e9c 283d
00000250: 78ae 83ba 2709 d6bc e411 f6bc d21b 3ebc
00000260: c4ac 523d e3ab e13d 44e2 bc3d a9ad 3ebd
00000270: 089b 9f3d 5de9 53bd 4307 0abc 1c6a 3ebd
00000280: 1bcb 2bbd ff1e 61bd 5e62 00be 9824 f1bd
00000290: 1644 66bd 675e 21bd aeeb c6bd 4fc2 3abd
000002a0: 7395 21be 4c4e aebd 0682 ee3b 0b1d aabd
000002b0: 3f96 fd3c e1b4 a4bc d087 20be 2d68 59bd
000002c0: 2e1c fcbd a8b1 22be 3cfd 68bd d579 55be
000002d0: 4913 07be 01e3 0abe 9ce7 a8bc b4f5 cabb
000002e0: 7f54 1b3d f8a9 b53c 9cc5 46bd 0174 c4bd
000002f0: b54e 3bbe 3a3b 97bd ac71 56bd 04da 56bd
00000300: c349 2ebe d3f6 bebd 6836 babd 6bca eebc
00000310: e79e b2bb 348d 8b3d 56e8 07bd 075b 7dbc
00000320: 6771 0abd 283d 803c f75d b4bd 6ad7 72bd
00000330: b584 a73b 4929 303e fc5a f63d a7ab 6b3e
00000340: f8a7 393e 0f24 143e 10f4 c53d 4fa9 1b3d
00000350: eaf6 1e3d cdb2 053b 1ec0 4f3c 3fe7 1f3c
00000360: 427f 9bbd 496f 18bd bf66 ce3d e437 9dbb
00000370: 4243 9d3d dc0c 1e3e f5dd 623d 63bc 1ebd
00000380: 45c9 20be 3d95 53bd 0411 0dbe 744b 90bd
00000390: 0383 51bd fb2a 87bc 8de7 b5bb 7d4a 863d
000003a0: 96ec e23c 7f8e e53d 6e48 c63d 8b71 98bc
000003b0: 9b3f 653d 9594 52bd a47a 90bc 93b7 853d
000003c0: 7473 ba3d 5d19 023e 29a6 1b3d 4d8c 7f3d
000003d0: 5ddc cf3d 8f87 97bc fa1e f03d f297 ddbc
000003e0: a5b4 343d 967b 4a3d 2c0e 343d e6fa df3d
000003f0: b753 1e3e 461f 553c 60f7 60bd 0c49 45bd

weight f4 [16]
1.0945556 0.9985151 0.9987683 0.9887456 1.0286163 0.99141634 0.9730543 1.0177393
0.98037064 0.99541533 0.9685344 0.9956561 0.9950556 1.0181017 1.0298926 0.9995757
00000000: 661a 8c3f b09e 7f3f 48af 7f3f 6f1e 7d3f
00000010: b3a9 833f 76cd 7d3f 161a 793f 4845 823f
00000020: 92f9 7a3f 8ad3 7e3f dff1 773f 51e3 7e3f
00000030: f7bb 7e3f 2851 823f 85d3 833f 31e4 7f3f

bias f4 [16]
-0.011518138 0.028946817 -0.031054694 -0.028582526 -0.010009512 -0.011285162 0.023204353 -0.0014722418
0.027211787 0.020307817 0.011940733 -0.017287327 -0.007176976 -0.0071310145 -0.009788066 -0.012842705
00000000: 93b6 3cbc e021 ed3c 6a66 febc e725 eabc
00000010: f0fe 23bc 66e5 38bc 0e17 be3c 3df8 c0ba
00000020: 41eb de3c 945c a63c 10a3 433c 279e 8dbc
00000030: d72c ebbb 49ab e9bb 205e 20bc 356a 52bc

running_mean f4 [16]
0.048106585 -0.025572501 0.28205234 -0.04559136 -0.06332624 -0.038370717 0.16894114 0.084131315
-0.00881271 0.12175065 0.04498923 0.14847267 -0.019389613 0.260801 0.027464882 0.19866332
00000000: 690b 453d 6c7d d1bc 2a69 903e 02be 3abd
00000010: 30b1 81bd 9d2a 1dbd e8fe 2c3e 0a4d ac3d
00000020: 2f63 10bc 6858 f93d a046 383d 3809 183e
00000030: f7d6 9ebc b587 853e 08fe e03c 666e 4b3e

running_var f4 [16]
0.0390238 0.19437954 0.13241975 0.07932876 0.1605832 0.049756438 0.1725537 0.08810746
0.13555053 0.67684156 0.1087379 0.16993493 0.1311394 0.08198774 0.16171546 0.1303109
00000000: 6cd7 1f3d 6e0b 473e 0b99 073e 1e77 a23d
00000010: ec6f 243e 68cd 4b3d ebb1 303e af71 b43d
00000020: c2cd 0a3e 7d45 2d3f fab1 de3d 6c03 2e3e
00000030: 6849 063e 30e9 a73d bd98 253e 3870 053e

weight f4 [32, 1, 22, 1]
0.23925695 0.047771316 -0.16855401 0.030840116 0.016923252 0.053149443 -0.02397856 0.051299073
-0.2259292 0.2588175 0.21578169 -0.1973954 -0.01534198 -0.030756647 0.093711846 -0.07595013
-0.19762301 -0.33157098 -0.056333173 0.1964418 0.003102324 0.06087647 -0.14657086 -0.0055881497
-0.14974372 -0.09140054 -0.047319032 0.02565996 0.16318059 -0.048865456 -0.04163175 -0.08644258
0.14086933 0.19839202 -0.06893354 0.46666208 -0.13015158 -0.074791685 -0.041007627 -0.045458216
0.20943996 0.08818921 -0.08611092 -0.14096268 0.31920332 0.1115624 0.07806317 0.051533647
0.036736086 0.1256177 -0.053781558 -0.20102008 -0.1953792 -0.013547141 0.14064205 -0.16404979
-0.10154975 -0.053452905 -0.1563206 0.061444055 -0.0901824 0.03456163 0.13714865 0.16705993
0.19663486 -0.20101795 -0.05279474 0.14600335 -0.13623998 0.049149133 -0.18162599 0.055757746
0.23844288 -0.117533684 0.21979925 0.0639837 -0.15357147 0.21484989 -0.17246068 -0.18391138
-0.12301796 -0.024961282 0.07018045 -0.008497213 -0.23912528 -0.025992278 0.19054121 0.19648696
0.17231634 0.12609124 0.09750183 -0.14859775 0.067698546 -0.2013145 -0.06151829 -0.0709392
0.14849533 -0.066890076 -0.11908782 0.060080133 -0.121803865 -0.1659204 -0.008909468 -0.051857453
-0.0019042249 0.18134059 -0.17594428 -0.090818614 0.28742498 0.1630721 -0.0777806 0.111300945
0.12420274 -0.06405779 -0.0900133 -0.017976983 0.018367007 0.016921274 0.12351427 -0.23611392
-0.08851532 0.25519156 0.052929062 0.04841663 0.04126543 -0.11712239 -0.057375472 0.11813342
-0.07290957 -0.120402925 0.0006943968 0.07633187 0.042053904 0.07790815 0.07035973 -0.095631264
0.041083306 -0.20038202 0.22991203 0.13763885 -0.13790967 0.04893629 -0.28270373 -0.05721627
-0.14173354 -0.290003 -0.035773806 -0.1412245 0.17305665 -0.13795787 0.15010108 0.14677769
0.25092784 0.05463292 -0.27609637 -0.27533293 0.104567215 -0.12926361 0.047254555 0.079195425
0.060058627 -0.057711713 0.15908712 -0.17870337 0.24210775 0.010426477 -0.06708441 0.21631572
0.11591347 -0.13061063 -0.25427926 0.11067539 0.250206 0.0014668045 0.03230614 -0.096799046
0.005648523 -0.15540275 -0.16319656 -0.120277174 0.016684549 0.22814949 -0.06673687 0.07421033
-0.010828517 -0.18200561 0.010031009 0.2776272 0.16912723 0.25155216 -0.036223736 -0.09171105
0.07351391 -0.1103282 -0.08895461 0.11065321 -0.08299507 -0.17585161 0.23844539 -0.013026969
0.11258804 -0.1381646 0.10388848 0.18420584 -0.19387938 -0.27140418 0.10594431 0.10580468
0.084628835 0.074270956 0.048701614 -0.04765207 -0.12148227 -0.12839739 0.09618317 0.0906215
0.004764495 -0.050691564 -0.024704797 -0.04835679 0.30635503 -0.16412207 -0.09953807 0.21997279
0.01318694 0.0897599 0.007924706 -0.06251784 0.08848217 0.099810205 0.04872924 -0.10659423
-0.030419638 0.04736672 0.121636875 -0.20012164 -0.17233878 -0.323008 0.0064841714 0.19740118
-0.092510276 -0.013585843 0.17120802 0.00022874413 0.18518661 0.07549343 -0.04540307 0.045085914
-0.13534312 0.06389387 0.06333174 -0.11213841 0.01644725 -0.15693276 -0.081482254 -0.2517579
00000000: c6ff 743e dbab 433d 6c99 2cbe 69a4 fc3c
00000010: a2a2 8a3c 3bb3 593d af6e c4bc fa1e 523d
00000020: fc59 67be ba83 843e e0f5 5c3e 0522 4abe
00000030: ee5c 7bbc 5df5 fbbc ffeb bf3d be8b 9bbd
00000040: b05d 4abe acc3 a9be 9dbd 66bd 0a28 493e
00000050: 5c50 4b3b 9b59 793d ac16 16be cc1c b7bb
00000060: 6b56 19be 3530 bbbd 9ad1 41bd d634 d23c
00000070: d018 273e 2527 48bd 0e86 2abd cf08 b1bd
00000080: 0d40 103e 4727 4b3e 072d 8dbd 55ee ee3e
00000090: 7546 05be 622c 99bd 9df7 27bd 6532 3abd
000000a0: 6e77 563e 8b9c b43d ec5a b0bd 8558 10be
000000b0: 9e6e a33e d47a e43d 95df 9f3d f214 533d
000000c0: 9478 163d eda1 003e 0d4a 5cbd 35d8 4dbe
000000d0: 7c11 48be d4f4 5dbc 7804 103e abfc 27be
000000e0: 51f9 cfbd 6ff1 5abd 8212 20be c3ac 7b3d
000000f0: 8db1 b8bd 7f90 0d3d b270 0c3e c211 2b3e
00000100: a65a 493e a6d7 4dbe 4c3f 58bd e781 153e
00000110: 7e82 0bbe 9a50 493d 2afc 39be 3c62 643d
00000120: 5f2a 743e 80b5 f0bd 0e13 613e e309 833d
00000130: d741 1dbe 9c01 5c3e 8899 30be 4453 3cbe
00000140: d7f0 fbbd 9a7b ccbc c5ba 8f3d e537 0bbc
00000150: 42dd 74be c2ed d4bc 3c1d 433e e133 493e
00000160: b273 303e 101e 013e 0aaf c73d 022a 18be
00000170: 89a5 8a3d 6325 4ebe 9afa 7bbd 9248 91bd
00000180: 290f 183e aafd 88bd 51e4 f3bd 9616 763d
00000190: 4e74 f9bd 0ae7 29be 04f9 11bc 7b68 54bd
000001a0: 2f97 f9ba 59b1 393e bd2a 34be 1cff b9bd
000001b0: 5e29 933e 5ffc 263e 6f4b 9fbd c0f1 e33d
000001c0: 025e fe3d bb30 83bd e558 b8bd 7744 93bc
000001d0: 6876 963c 7c9e 8a3c 0df5 fc3d d9c7 71be
000001e0: 8547 b5bd 78a8 823e 25cc 583d 8450 463d
000001f0: f105 293d dddd efbd 8b02 6bbd efef f13d
00000200: 9d51 95bd cf95 f6bd 2e08 363a e253 9c3d
00000210: b740 2c3d 4f8e 9f3d c318 903d 53da c3bd
00000220: f846 283d f230 4dbe 0f6e 6b3e 33f1 0c3e
00000230: 3138 0dbe 6b71 483d 8bbe 90be 9c5b 6abd
00000240: 9922 11be 467b 94be 8e87 12bd 289d 10be
00000250: c335 313e d444 0dbe 19b4 193e e44c 163e
00000260: 9d79 803e c5c6 5f3d 815c 8dbe 70f8 8cbe
00000270: 5627 d63d ae5d 04be fe8d 413d 3631 a23d
00000280: 0900 763d 1e63 6cbd bce7 223e 04fe 36be
00000290: 18eb 773e d0d3 2a3c 8d63 89bd de81 5d3e
000002a0: 0b64 ed3d cbbe 05be e430 82be c7a9 e23d
000002b0: 001b 803e cb41 c03a 7153 043d 943e c6bd
000002c0: 3f17 b93b e621 1fbe 001d 27be e153 f6bd
000002d0: 09ae 883c 05a0 693e 57ad 88bd 96fb 973d
000002e0: 186a 31bc ae5f 3abe 1a59 243c 2725 8e3e
000002f0: b02f 2d3e 72cb 803e 575f 14bd 01d3 bbbd
00000300: 768e 963d c0f3 e1bd d62d b6bd 269e e23d
00000310: 52f9 a9bd 7212 34be 072b 743e 116f 55bc
00000320: 8f94 e63d 057b 0dbe 7cc3 d43d 75a0 3c3e
00000330: 5188 46be 7df5 8abe 55f9 d83d 20b0 d83d
00000340: e251 ad3d 5f1b 983d 587b 473d d12e 43bd
00000350: b2cb f8bd 9b7a 03be affb c43d c497 b93d
00000360: 7b1f 9c3b f5a1 4fbd b761 cabc c511 46bd
00000370: 91da 9c3e 9e0f 28be 9eda cbbd 8c40 613e
00000380: 090e 583c 0ad4 b73d a0d6 013c 5a09 80bd
00000390: 2436 b53d 4b69 cc3d 5098 473d 134e dabd
000003a0: 9b32 f9bc 9b03 423d c11c f93d b0ec 4cbe
000003b0: 9479 30be 4e61 a5be 2c79 d43b 8923 4a3e
000003c0: 0776 bdbd 2897 5ebc 2851 2f3e 09db 6f39
000003d0: 8fa1 3d3e 4d9c 9a3d 92f8 39bd 02ac 383d
000003e0: 6397 0abe cada 823d 12b4 813d d3a8 e5bd
000003f0: 62bc 863c fbb2 20be 2be0 a6bd 69e6 80be

bias f4 [32]
0.012054903 0.025372006 -0.07964728 0.0951853 -0.0529032 0.09683455 -0.10462119 0.16837786
0.14719166 0.10928884 0.0159158 0.12534063 -0.16635484 0.17926125 -0.041758746 0.124211475
-0.042591073 -0.06845416 -0.122353256 0.16366298 -0.12190457 -0.054275867 0.13161789 -0.03276457
-0.284777 -0.23856635 -0.04645844 0.19278106 -0.13502792 0.16729224 0.15125008 -0.12426494
00000000: ee81 453c f4d8 cf3c 1d1e a3bd 83f0 c23d
00000010: 07b1 58bd 3151 c63d a243 d6bd 3f6b 2c3e
00000020: 69b9 163e d4d2 df3d da61 823c 4b59 003e
00000030: ec58 2abe 4390 373e 380b 2bbd 9662 fe3d
00000040: fa73 2ebd b231 8cbd 5894 fabd 4597 273e
00000050: 1aa9 f9bd 5f50 5ebd d7c6 063e 2434 06bd
00000060: 4ace 91be bd4a 74be 354b 3ebd 6668 453e
00000070: c244 0abe a84e 2b3e 4de1 1a3e 9e7e febd

weight f4 [32]
1.4948006 1.4500775 1.050633 0.9739059 0.95455545 1.0267375 1.1299812 1.3440522
1.0732083 0.9289954 1.3686321 1.4332331 1.0097504 0.7896168 1.1854422 1.125757
1.1337035 1.1317933 0.9482054 0.69869304 1.2047514 1.3514496 1.0334914 0.92983323
1.0845312 1.0969721 0.9250422 0.99686974 1.1193558 1.0809846 0.89908755 1.0579424
00000000: a055 bf3f 249c b93f 247b 863f e651 793f
00000010: bf5d 743f 226c 833f 39a3 903f e709 ac3f
00000020: e45e 893f a4d2 6d3f 562f af3f 2f74 b73f
00000030: 803f 813f 5424 4a3f 92bc 973f ce18 903f
00000040: 321d 913f 9ade 903f 97bd 723f 8cdd 323f
00000050: 4b35 9a3f 4dfc ac3f 7249 843f 8d09 6e3f
00000060: ebd1 8a3f 9569 8c3f 91cf 6c3f db32 7f3f
00000070: 0d47 8f3f b45d 8a3f 9a2a 663f a86a 873f

bias f4 [32]
-0.3283465 -0.30074543 -0.24563894 -0.13335027 -0.17408226 0.18471226 -0.2287021 -0.3056179
-0.26257294 -0.22583109 -0.2752617 -0.24304454 -0.22948655 -0.039241944 -0.2287233 -0.15980457
-0.27265275 -0.2006768 -0.20144865 -0.10979211 -0.19585119 -0.19659957 -0.13667418 -0.19677019
-0.22998731 -0.25631317 -0.20233506 -0.23363724 -0.20157653 -0.22316253 -0.08633199 -0.18262267
00000000: 081d a8be 4efb 99be c688 7bbe f98c 08be
00000010: 9f42 32be 3625 3d3e e230 6abe f379 9cbe
00000020: f66f 86be 4440 67be 1aef 8cbe abe0 78be
00000030: 86fe 6abe 29bc 20bd 7136 6abe cfa3 23be
00000040: 2499 8bbe 387e 4dbe 8e48 4ebe b0da e0bd
00000050: 378d 48be 6651 49be 51f4 0bbe 207e 49be
00000060: cb81 6bbe 7b3b 83be ec30 4fbe 9a3e 6fbe
00000070: 146a 4ebe b884 64be d4ce b0bd 7001 3bbe

running_mean f4 [32]
0.0050553675 0.033039887 -0.0735025 0.09570012 -0.062332768 0.10809204 -0.10231772 0.1592486
0.13729994 0.10239116 0.016443938 0.12670307 -0.17092527 0.17519459 -0.044752024 0.12258639
-0.04679829 -0.064699225 -0.12241558 0.16323155 -0.12136026 -0.057806533 0.128908 -0.045973167
-0.28572172 -0.2405132 -0.05648371 0.17927152 -0.14025588 0.17226112 0.17350984 -0.12879348
00000000: 7fa7 a53b d554 073d 7b88 96bd 6dfe c33d
00000010: a550 7fbd 5c5f dd3d f48b d1bd 1112 233e
00000020: 5b98 0c3e 75b2 d13d 70b5 863c 73be 013e
00000030: 0907 2fbe 3666 333e e64d 37bd 930e fb3d
00000040: 90af 3fbd 0781 84bd 05b5 fabd 2c26 273e
00000050: ba8b f8bd 8bc6 6cbd 7500 043e 5c4e 3cbd
00000060: 1e4a 92be 1849 76be 765b 67bd f492 373e
00000070: 3d9f 0fbe 3865 303e 90ac 313e 70e2 03be

running_var f4 [32]
0.13765326 0.23272139 0.09130169 0.01254494 0.024837492 0.026752625 0.13041882 0.12232062
0.051242378 0.17674486 0.17660151 0.15475282 0.016268738 0.046695422 0.22209695 0.052947838
0.356892 0.037698105 0.0119754765 0.025339764 0.079388276 0.07110211 0.021795278 0.0982666
0.019468654 0.09114191 0.021659624 1.1214651 0.09102174 0.045564972 2.0570207 0.035847366
00000000: faf4 0c3e 844e 6e3e 61fc ba3d 4b89 4d3c
00000010: ff77 cb3c 5228 db3c 838c 053e 3c83 fa3d
00000020: 87e3 513d 9bfc 343e 07d7 343e 8677 1e3e
00000030: 0446 853c b343 3f3d 626d 633e d5df 583d
00000040: 8cba b63e 5469 1a3d ca34 443c 5695 cf3c
00000050: 5296 a23d fc9d 913d 038c b23c 0040 c93d
00000060: ba7c 9f3c 9ca8 ba3d 866f b13c 2b8c 8f3f
00000070: 9b69 ba3d 56a2 3a3d 3aa6 0340 b0d4 123d

weight f4 [32, 32, 1, 16]
-0.14777265 -0.0055521335 -0.021399979 0.012572633 -0.008175569 0.10601124 0.04913748 -0.030343218
-0.058517963 -0.029200085 -0.084831156 -0.14685354 -0.22625697 -0.11003577 -0.23375697 -0.20591624
0.10386873 0.24595535 0.22012587 0.12889981 0.21051875 0.1432816 0.058676913 -0.0404019
-0.03951984 -0.053141516 -0.08766058 -0.1070919 -0.00015096621 -0.037927356 -0.0028904937 -0.025995692
-0.004423678 0.031226538 -0.015212961 0.0045859194 -0.0017492321 -0.00052882935 -0.006852121 0.023476433
0.034358896 -0.010307285 -0.044628028 0.0037685672 0.04176653 0.022441719 -0.03923378 -0.013769859
-0.09529925 -0.020769298 0.0349011 0.013791376 -0.102652706 -0.043758303 0.0063876626 0.013201794
0.045495424 -0.040225048 -0.0012706155 0.024275055 0.0030099489 0.024783742 -0.0043705623 -0.0075112106
0.06277154 -0.005551762 -0.047689065 -0.085550874 0.05474526 0.05196456 0.021507462 0.024810461
0.018767213 0.06903852 0.066608645 0.017831897 0.09137895 0.048405558 -0.009633064 -0.03496185
0.08324969 0.049391236 0.02902703 0.03476854 0.0021624793 -0.020220323 -0.08207808 -0.044118006
0.0019980036 -0.03743365 -0.00944558 -0.007484073 -0.027166951 0.039932013 0.10129246 0.17104472
-0.078848064 -0.2508614 -0.061885975 0.01761172 0.021339368 -0.09921523 -0.14735469 -0.042620834
-0.0521086 -0.06767626 -0.050464805 0.055446867 0.053054187 0.08485892 0.07265911 0.11949604
0.22613141 -0.038802747 0.019349866 0.026284698 0.0102456175 0.036015745 0.05567055 0.0033983728
-0.003754083 -0.13057983 -0.004638583 -0.025475765 -0.03607321 -0.07008686 -0.02315531 -0.027897475
-0.084793046 -0.15067902 -0.15216857 -0.10189692 -0.033789366 0.021447575 -0.00074855494 -0.14893758
-0.017274588 -0.099789046 0.024272911 0.029713908 0.007192569 0.13812882 0.13606204 0.13087992
-0.120483965 -0.033053797 -0.021708274 -0.029151484 -0.07263436 -0.009531948 0.008334106 -0.055018723
-0.032156035 -0.019556466 0.026241891 0.0019071524 0.084227666 0.0318478 0.04596058 -0.03837385
-0.07115927 -0.13595976 -0.074954554 -0.09769541 -0.16174772 -0.10870335 0.0068169734 0.017915655
0.07546843 -0.10144907 -0.16303353 -0.25824136 -0.0990892 -0.024420302 -0.021100866 -0.07553631
0.27082455 0.06167317 0.094532914 0.04825214 0.062981874 0.08164191 -0.019495286 0.0023741967
0.07679893 0.012866799 -0.059044342 -0.11073651 -0.0027697398 -0.0039055264 0.07132911 0.063343935
-0.106673956 -0.01853289 0.030070174 0.014761853 0.08145048 -0.034238275 -0.08960583 -0.13572335
0.012896639 0.05604058 0.03162045 0.15134317 0.11070573 -0.041226756 -0.071355335 0.020810504
0.21204072 0.057692528 0.023515722 0.041293006 0.049427107 0.11910195 0.017110033 0.05530658
0.01721658 -0.05923989 -0.06404224 0.0059334245 -0.012772526 -0.036660757 -0.06069698 -0.052001778
0.020266613 0.07292421 0.063290894 -0.061557457 -0.07079714 -0.06310683 0.0032860395 0.066813275
0.068100296 0.05251343 -0.011649494 0.05785644 0.09908219 0.0645364 0.028816413 -0.015292338
-0.045141317 -0.07421246 -0.00929785 -0.08118862 -0.15312614 -0.1803643 -0.06625014 -0.014279199
0.07650293 0.026526272 -0.016642155 0.0150635345 0.0060912557 0.00303682 0.024091326 0.09610667
00000000: b751 17be acee b5bb 024f afbc 72fd 4d3c
00000010: d2f2 05bc 6c1c d93d 6244 493d 5792 f8bc
00000020: 88b0 6fbd 0435 efbc f5bb adbd c660 16be
00000030: e8af 67be 6f5a e1bd fd5d 6fbe b5db 52be
00000040: 21b9 d43d b8db 7b3e ad68 613e 50fe 033e
00000050: 3a92 573e 69b8 123e 3457 703d 767c 25bd
00000060: 8edf 21bd ebaa 59bd 6487 b3bd 0053 dbbd
00000070: af4c 1eb9 b759 1bbd 706e 3dbb ebf4 d4bc
00000080: 80f4 90bb ccce ff3c c83f 79bc 7b45 963b
00000090: 7d46 e5ba 23a1 0aba c287 e0bb a651 c03c
000000a0: eabb 0c3d e3df 28bc e1cb 36bd 11fa 763b
000000b0: 6213 2b3d b2d7 b73c 9ab3 20bd fa9a 61bc
000000c0: 412c c3bd 6024 aabc 75f4 0e3d 39f5 613c
000000d0: 953b d2bd e83b 33bd 994f d13b 564c 583c
000000e0: 6959 3a3d 05c3 24bd c88a a6ba 7bdc c63c
000000f0: 9042 453b 4607 cb3c ef36 8fbb 9a20 f6bb
00000100: 5d8e 803d 8eeb b5bb 9c55 43bd 4c35 afbd
00000110: 913c 603d cad8 543d 6b30 b03c 4f3f cb3c
00000120: b3bd 993c 1164 8d3d 1d6a 883d 3314 923c
00000130: e324 bb3d e844 463d 00d4 1dbc 2834 0fbd
00000140: d07e aa3d 774e 4a3d 18ca ed3c 7569 0e3d
00000150: 62b8 0d3b 17a5 a5bc 8d18 a8bd 15b5 34bd
00000160: f0f0 023b 0754 19bd a2c1 1abc f43c f5bb
00000170: 3a8d debc c08f 233d 6c72 cf3d 5926 2f3e
00000180: 187b a1bd e870 80be 267c 7dbd 7446 903c
00000190: e6cf ae3c 5b31 cbbd 26e4 16be 2f93 2ebd
000001a0: d46f 55bd da99 8abd 2fb4 4ebd 411c 633d
000001b0: 594f 593d 83ca ad3d 4dce 943d 57ba f43d
000001c0: fe8e 673e a1ef 1ebd 9c83 9e3c 0253 d73c
000001d0: 3cdd 273c 3f85 133d cd06 643d 3cb7 5e3b
000001e0: 1007 76bb b8b6 05be 41ff 97bb 8db2 d0bc
000001f0: 81c1 13bd b389 8fbd 34b0 bdbc 3f89 e4bc
00000200: faa7 adbd 9a4b 1abe 14d2 1bbe 55af d0bd
00000210: b866 0abd d3b2 af3c ac3a 44ba 1883 18be
00000220: 7083 8dbc 335e ccbd fcd7 c63c 956a f33c
00000230: a4af eb3b a471 0d3e d953 0b3e 6305 063e
00000240: 4cc0 f6bd 6b63 07bd 8dd5 b1bc 18cf eebc
00000250: 53c1 94bd e32b 1cbc c68b 083c 505b 61bd
00000260: 0cb6 03bd e234 a0bc 3cf9 d63c 6af9 f93a
00000270: 8e7f ac3d d772 023d 2941 3c3d e62d 1dbd
00000280: f4bb 91bd 0939 0bbe c681 99bd 8814 c8bd
00000290: 32a1 25be dd9f debd eb60 df3b dac3 923c
000002a0: 318f 9a3d 88c4 cfbd 43f2 26be 3638 84be
000002b0: 47ef cabd 160d c8bc b9db acbc c8b2 9abd
000002c0: 84a9 8a3e 029d 7c3d 799a c13d 09a4 453d
000002d0: a4fc 803d e033 a73d 94b4 9fbc 6998 1b3b
000002e0: c248 9d3d 44cf 523c 7bd8 71bd d3c9 e2bd
000002f0: 8684 35bb dcf3 7fbb ff14 923d 77ba 813d
00000300: e077 dabd 4ad2 97bc ba55 f63c b3db 713c
00000310: 82cf a63d 6f3d 0cbd 4383 b7bd 10fb 0abe
00000320: 6d4c 533c cf8a 653d 7284 013d b4f9 1a3e
00000330: b0b9 e23d 63dd 28bd bf22 92bd ca7a aa3c
00000340: 3421 593e 004f 6c3d 0ba4 c03c db22 293d
00000350: 1474 4a3d b9eb f33d 572a 8c3c 2789 623d
00000360: c909 8d3c 87a5 72bd 9428 83bd 2c6d c23b
00000370: db43 51bc 9729 16bd 669d 78bd d1ff 54bd
00000380: 2b06 a63c 4a59 953d a89e 813d ac23 7cbd
00000390: 17fe 90bd 273e 81bd 985a 573b 66d5 883d
000003a0: 2b78 8b3d 5318 573d 85dd 3ebc e0fa 6c3d
000003b0: 9aeb ca3d a92b 843d 6610 ec3c b78c 7abc
000003c0: 1ae6 38bd b4fc 97bd 0256 18bc 3846 a6bd
000003d0: 19cd 1cbe 6bb1 38be 27ae 87bd 4df3 69bc
000003e0: 91ad 9c3d a04d d93c 2155 88bc 0bcd 763c
000003f0: 2899 c73b 6305 473b 2c5b c53c 93d3 c43d

weight f4 [32]
1.4659332 1.3823361 1.1996491 1.2383028 1.3167689 1.2235669 1.1488206 1.4117348
1.4647183 1.2411449 1.2013131 1.0743384 1.3145069 1.5291833 1.2115877 1.3841724
1.3411676 1.1525526 1.1471463 1.2001692 1.1859531 1.3673128 1.0517275 1.3993498
1.3714868 1.2048335 1.3134934 1.3109596 1.1823692 1.2806801 1.3025339 1.4158077
00000000: b3a3 bb3f 64f0 b03f 1a8e 993f b580 9e3f
00000010: e28b a83f d79d 9c3f 8e0c 933f bab3 b43f
00000020: e47b bb3f d6dd 9e3f a1c4 993f ec83 893f
00000030: c341 a83f 47bc c33f 4e15 9b3f 902c b13f
00000040: 61ab ab3f d886 933f b1d5 923f 259f 993f
00000050: 50cd 973f 1b04 af3f 029f 863f e51d b33f
00000060: e18c af3f fc37 9a3f 8d20 a83f 86cd a73f
00000070: e057 973f 53ed a33f 6eb9 a63f 3039 b53f

bias f4 [32]
-0.1826491 -0.31796843 -0.17705482 -0.16318463 -0.1943095 -0.16576736 -0.1490159 -0.2749012
-0.28818572 -0.18300134 -0.22325702 -0.12948109 -0.19787493 -0.09344254 -0.21027556 -0.1639722
-0.16236739 -0.18665528 -0.12846886 -0.14952162 -0.22461477 -0.17489965 -0.13060367 -0.1649176
-0.07477793 -0.22874385 -0.22303286 -0.12043534 -0.18931112 -0.21228252 -0.18305694 -0.16090696
00000000: 5e08 3bbe c2cc a2be dc4d 35be df19 27be
00000010: 12f9 46be ebbe 29be a097 18be dabf 8cbe
00000020: 148d 93be b464 3bbe 7d9d 64be b196 04be
00000030: ba9f 4abe cd5e bfbd 7a52 57be 54e8 27be
00000040: a343 26be 9022 3fbe 578d 03be 321c 19be
00000050: 6a01 66be e518 33be f8bc 05be 29e0 28be
00000060: 2c25 99bd d43b 6abe ba62 64be cea6 f6bd
00000070: c6da 41be 9760 59be 4773 3bbe cbc4 24be

running_mean f4 [32]
0.03393045 -0.07747526 0.06112997 0.03714738 -0.12459728 -0.13570186 -0.17551692 -0.01439374
0.0118743405 -0.09186018 -0.06930048 -0.13692208 0.040461596 0.017084792 -0.117098674 -0.05136325
-0.023880167 -0.25818488 0.113940634 0.09156659 -0.18745184 -0.1265028 0.022551041 -0.4050072
0.059666272 -0.035365943 -0.09705049 0.19167829 0.011261361 -0.06989099 -0.00803842 -0.110608
00000000: a8fa 0a3d 59ab 9ebd 6b63 7a3d da27 183d
00000010: dc2c ffbd 6ef5 0abe b5ba 33be b9d3 6bbc
00000020: 988c 423c 3121 bcbd 69ed 8dbd 4d35 0cbe
00000030: 0fbb 253d 68f5 8b3c 6ed1 efbd 4562 52bd
00000040: 57a0 c3bc cf30 84be b559 e93d 4487 bb3d
00000050: 60f3 3fbe f389 01be f6bc b83c 1b5d cfbe
00000060: 9f64 743d e1db 10bd 68c2 c6bd 5047 443e
00000070: 9281 383c 0223 8fbd 94b3 03bc 7286 e2bd

running_var f4 [32]
1.8470116 1.7941461 1.6612781 1.8404101 1.7346382 2.385382 2.443813 1.8561198
1.7791777 1.5190283 1.4151511 1.8035626 1.6635076 2.1702113 1.9044415 1.6485946
1.8336489 2.2485626 1.7152294 1.7038525 1.7898248 1.7918528 2.0660844 1.984791
2.246524 1.9486835 1.6781749 1.5852804 1.7849149 1.8999016 1.7496008 1.7824311
00000000: e06a ec3f 94a6 e53f c3a4 d43f 8f92 eb3f
00000010: a008 de3f 19aa 1840 6f67 1c40 5595 ed3f
00000020: 18bc e33f 856f c23f ac23 b53f 24db e63f
00000030: d1ed d43f bee4 0a40 bdc4 f33f 2605 d33f
00000040: 02b5 ea3f 73e8 0f40 a38c db3f d717 da3f
00000050: fb18 e53f 6f5b e53f ba3a 0440 a20d fe3f
00000060: 0dc7 0f40 766e f93f 6fce d63f 78ea ca3f
00000070: 1778 e43f fa2f f33f ebf2 df3f b426 e43f

in_proj_weight f4 [96, 32]
-0.11092276 -0.09051292 0.07138281 0.040822376 0.10805988 0.14107066 -0.14492936 0.19668205
0.012893247 -0.17997585 0.122896254 -0.122096755 0.16644709 -0.103991784 -0.09313075 0.08965965
0.20666121 -0.1580609 0.091410674 -0.17145196 0.1782718 -0.006989799 0.122410595 -0.13183641
0.06517719 0.1746449 0.11879493 0.14942235 0.15134996 -0.04949008 -0.17921728 0.02559682
-0.16722468 -0.21132141 0.090491466 0.15645443 0.047516163 -0.18659298 0.016203402 0.16025452
0.028545873 -0.17114265 -0.043946646 -0.14949274 0.013364039 -0.10399958 -0.2059517 0.056978364
-0.05833419 -0.19851698 0.19141145 -0.05924318 -0.18631119 0.07592375 0.17924477 -0.1065109
-0.18371436 -0.02491075 0.21077897 0.2138875 0.08596599 -0.05050011 0.13088383 0.013831863
0.026471712 0.043360073 -0.101723686 -0.09184218 -0.1162865 -0.06921755 0.039590407 0.011134403
0.045756027 0.18860385 0.018208625 0.12160408 -0.032306712 -0.1578572 0.1036241 0.20968495
0.12903896 0.01406735 -0.039719272 -0.1907205 0.1666451 0.15575765 0.044786002 -0.018183434
0.0982882 -0.13419522 0.13741136 -0.17500262 0.21334602 -0.109234065 -0.110821664 0.021971634
-0.06285992 0.05718218 -0.13353409 -0.06844253 0.007554254 -0.06873103 -0.058492817 -0.0016481216
0.047571965 0.114702284 0.1257214 0.12406582 -0.10304607 -0.14094386 -0.07811496 -0.19162472
-0.17215103 0.1077591 -0.1305838 -0.008372856 0.12259558 0.17127281 0.066819966 -0.04348148
-0.05994058 0.1540481 -0.08855627 0.12141907 0.11113016 -0.09699543 0.00058930984 0.07831033
-0.16977675 0.11361779 0.107201666 -0.1887695 0.19413981 0.19838212 0.12668085 0.098181814
0.14376082 0.011889384 0.016682789 -0.0011163155 -0.18790495 -0.038662862 0.1280216 -0.006813339
-0.21357769 0.06947386 0.06504205 0.08115062 0.08335476 0.09831799 0.11335206 0.07221881
-0.119451016 -0.09937014 0.15401116 0.09034048 -0.023246368 0.14816721 -0.05756912 -0.07786563
-0.06714121 0.1733542 -0.14389177 0.076523766 -0.0051846 -0.06214206 -0.1831983 0.1336262
0.08026719 0.12886384 0.17111026 -0.16924272 0.12517859 0.040035468 -0.059820227 -0.18177631
0.15620999 0.024210691 0.13586223 -0.057089888 -0.0032959592 0.1662005 -0.07474835 -0.06993582
-0.05313253 -0.15136293 0.14220202 0.011012839 0.031510953 0.12820095 -0.17806165 -0.18274777
-0.18526472 0.06337052 -0.06064629 0.1551576 0.14312448 -0.1364379 0.02630382 -0.14676034
0.08267419 0.021163484 0.03925501 0.032995727 0.0013683458 -0.18372543 -0.015377315 0.09683203
-0.11892238 0.21062027 0.016164506 -0.060227145 -0.0114448145 -0.10153915 0.012619227 -0.04631873
-0.032039687 0.19595313 0.13435747 -0.006083083 -0.17159355 -0.19285546 -0.18021712 -0.03958439
-0.20967744 0.13172793 -0.19239856 0.02993551 0.18119013 0.15330979 0.08487817 0.02846225
0.08749557 0.18185207 -0.20268063 0.039996907 -0.13174778 0.1882348 0.11030292 -0.14403182
-0.09333865 0.043279678 -0.05169646 -0.18637523 -0.09972758 0.11141665 -0.017659113 0.018951785
-0.20513958 -0.12934302 0.10303267 0.074738495 -0.1569581 -0.11009381 -0.110508725 0.18393429
00000000: 792b e3bd d65e b9bd 2731 923d 5d35 273d
00000010: 804e dd3d d474 103e 5d68 14be 0567 493e
00000020: 333e 533c 974b 38be 08b1 fb3d dd0d fabd
00000030: 1b71 2a3e a5f9 d4bd 56bb bebd 7b9f b73d
00000040: ff9e 533e b7da 21be 8535 bb3d 1a91 2fbe
00000050: e28c 363e af0a e5bb 68b2 fa3d 2000 07be
00000060: 9e7b 853d 1dd6 323e c24a f33d 2c02 193e
00000070: 7cfb 1a3e 1cb6 4abd bc84 37be 6cb0 d13c
00000080: f23c 2bbe a464 58be 9753 b93d 9735 203e
00000090: 4fa0 423d 3b12 3fbe ffbc 843c c319 243e
000000a0: 09d9 e93c 0540 2fbe 6601 34bd a014 19be
000000b0: d8f4 5a3c bbfd d4bd 01e5 52be 2562 693d
000000c0: d5ef 6ebd 0948 4bbe 5d01 443e faa8 72bd
000000d0: 5cc8 3ebe e97d 9b3d f18b 373e 6322 dabd
000000e0: 9e1f 3cbe a111 ccbc 71d6 573e 5305 5b3e
000000f0: f00e b03d 34d9 4ebd 6906 063e 0a9f 623c
00000100: 34db d83c 559a 313d 8254 d0bd c117 bcbd
00000110: 9e27 eebd eec1 8dbd 8d29 223d 126d 363c
00000120: ac6a 3b3d 5e21 413e 412a 953c 8f0b f93d
00000130: 0b54 04bd 51a5 21be df38 d43d a7b7 563e
00000140: ca22 043e be7a 663c adb0 22bd 3c4c 43be
00000150: 03a5 2a3e ef7e 1f3e 8771 373d 6df5 94bc
00000160: 534b c93d 796a 09be 90b5 0c3e e333 33be
00000170: 6177 5a3e 1cb6 dfbd 78f6 e2bd dbfd b33c
00000180: b4bc 80bd dd37 6a3d 29bd 08be 992b 8cbd
00000190: ad89 f73b dbc2 8cbd 2a96 6fbd c905 d8ba
000001a0: d2da 423d 08e9 ea3d 1cbd 003e 3816 fe3d
000001b0: d109 d3bd 9653 10be bcfa 9fbd 4539 44be
000001c0: 5c48 30be ceb0 dc3d c2b7 05be 4e2e 09bc
000001d0: 6413 fb3d 2462 2f3e e8d8 883d a319 32bd
000001e0: 4184 75bd c9be 1d3e fd5c b5bd 90aa f83d
000001f0: 3698 e33d 8aa5 c6bd ea7b 1a3a 2b61 a03d
00000200: f5d9 2dbe 72b0 e83d 8c8c db3d cb4c 41be
00000210: 96cc 463e af24 4b3e a0b8 013e 8c13 c93d
00000220: 0936 133e b1cb 423c 58aa 883c 5551 92ba
00000230: 286a 40be f35c 1ebd 1818 033e 6e42 dfbb
00000240: 1cb4 5abe 5048 8e3d c434 853d 4c32 a63d
00000250: e7b5 aa3d f15a c93d 2025 e83d 75e7 933d
00000260: bca2 f4bd 9282 cbbd 1ab5 1d3e 6e04 b93d
00000270: 2b6f bebc 25b9 173e 99cd 6bbd 0478 9fbd
00000280: 5581 89bd c383 313e 5d58 13be 7eb8 9c3d
00000290: 94e3 a9bb ac88 7ebd 5698 3bbe 4ed5 083e
000002a0: 2063 a43d e2f4 033e 8737 2f3e f74d 2dbe
000002b0: d12e 003e 3bfc 233d 0e06 75bd 9223 3abe
000002c0: 83f5 1f3e 8055 c63c 781f 0b3e 16d7 69bd
000002d0: 0501 58bb 7730 2a3e aa15 99bd 833a 8fbd
000002e0: 7fa1 59bd e2fe 1abe 689d 113e 326f 343c
000002f0: a111 013d 1c47 033e cb55 36be 3b22 3bbe
00000300: 09b6 3dbe 67c8 813d 3f68 78bd a2e1 1e3e
00000310: 398f 123e 60b6 0bbe 1c7b d73c 5848 16be
00000320: 1651 a93d 0b5f ad3c ddc9 203d 8726 073d
00000330: 115a b33a 8522 3cbe 22f1 7bbc df4f c63d
00000340: 948d f3bd d7ac 573e 6d6b 843c bdb0 76bd
00000350: 0883 3bbc c2f3 cfbd e0c0 4e3c b5b8 3dbd
00000360: 0c3c 03bd f0a7 483e 0195 093e 9954 c7bb
00000370: 38b6 2fbe e77b 45be d68a 38be 3e23 22bd
00000380: afb5 56be b0e3 063e 2104 45be 513b f53c
00000390: e889 393e 3efd 1c3e 9bd4 ad3d aa29 e93c
000003a0: e130 b33d 6e37 3a3e 838b 4fbe ccd3 233d
000003b0: e4e8 06be a0c0 403e 7fe6 e13d 147d 13be
000003c0: 5628 bfbd 0846 313d abbf 53bd 26d9 3ebe
000003d0: f93d ccbd 6a2e e43d d8a9 90bc c640 9b3c
000003e0: 1c10 52be 7f72 04be cb02 d33d 7f10 993d
000003f0: a0b9 20be dd78 e1bd 6652 e2bd 4559 3c3e

in_proj_bias f4 [96]
0.0 0.0 0.0 0.0 0.0 0.0 0.0 0.0
0.0 0.0 0.0 0.0 0.0 0.0 0.0 0.0
0.0 0.0 0.0 0.0 0.0 0.0 0.0 0.0
0.0 0.0 0.0 0.0 0.0 0.0 0.0 0.0
0.0 0.0 0.0 0.0 0.0 0.0 0.0 0.0
0.0 0.0 0.0 0.0 0.0 0.0 0.0 0.0
0.0 0.0 0.0 0.0 0.0 0.0 0.0 0.0
0.0 0.0 0.0 0.0 0.0 0.0 0.0 0.0
0.0 0.0 0.0 0.0 0.0 0.0 0.0 0.0
0.0 0.0 0.0 0.0 0.0 0.0 0.0 0.0
0.0 0.0 0.0 0.0 0.0 0.0 0.0 0.0
0.0 0.0 0.0 0.0 0.0 0.0 0.0 0.0
00000000: 0000 0000 0000 0000 0000 0000 0000 0000
00000010: 0000 0000 0000 0000 0000 0000 0000 0000
00000020: 0000 0000 0000 0000 0000 0000 0000 0000
00000030: 0000 0000 0000 0000 0000 0000 0000 0000
00000040: 0000 0000 0000 0000 0000 0000 0000 0000
00000050: 0000 0000 0000 0000 0000 0000 0000 0000
00000060: 0000 0000 0000 0000 0000 0000 0000 0000
00000070: 0000 0000 0000 0000 0000 0000 0000 0000
00000080: 0000 0000 0000 0000 0000 0000 0000 0000
00000090: 0000 0000 0000 0000 0000 0000 0000 0000
000000a0: 0000 0000 0000 0000 0000 0000 0000 0000
000000b0: 0000 0000 0000 0000 0000 0000 0000 0000
000000c0: 0000 0000 0000 0000 0000 0000 0000 0000
000000d0: 0000 0000 0000 0000 0000 0000 0000 0000
000000e0: 0000 0000 0000 0000 0000 0000 0000 0000
000000f0: 0000 0000 0000 0000 0000 0000 0000 0000
00000100: 0000 0000 0000 0000 0000 0000 0000 0000
00000110: 0000 0000 0000 0000 0000 0000 0000 0000
00000120: 0000 0000 0000 0000 0000 0000 0000 0000
00000130: 0000 0000 0000 0000 0000 0000 0000 0000
00000140: 0000 0000 0000 0000 0000 0000 0000 0000
00000150: 0000 0000 0000 0000 0000 0000 0000 0000
00000160: 0000 0000 0000 0000 0000 0000 0000 0000
00000170: 0000 0000 0000 0000 0000 0000 0000 0000

weight f4 [32, 32]
0.083359234 0.1146531 -0.0017860781 -0.17360194 0.079491735 0.11196072 -0.019111171 0.11882901
0.06938577 0.03914909 0.16359052 -0.08479341 0.02819502 -0.13307925 0.1539209 0.056515213
0.15711468 -0.14063075 0.15382785 0.110594384 0.15392667 -0.07829674 -0.14495596 -0.031062944
0.13988385 0.17345428 -0.0163974 0.020103224 -0.016064461 -0.014112366 0.030062988 0.08275112
-0.040886067 -0.13643394 -0.0051680887 0.0975708 -0.14235193 0.1656059 0.06309735 0.08335589
0.085569695 0.12172071 0.15501688 -0.07795582 0.046375968 0.106241226 -0.17502877 0.10238637
-0.16971335 -0.11532364 -0.10369073 -0.120496675 -0.12702763 0.104301035 -0.15261337 -0.0858769
-0.16542007 -0.069919705 -0.000657554 0.05946088 -0.091155075 0.031268556 0.085907646 0.14321657
-0.034255713 -0.12001239 0.10841948 -0.06366041 -0.16914263 -0.067473605 -0.02743981 0.038982127
0.1343773 0.11214239 -0.07566659 0.14323595 0.065083966 0.0455564 -0.12908918 -0.029991928
0.063139774 -0.051974334 0.07489674 0.08253484 -0.12331636 0.14323518 0.018262124 -0.011766325
-0.013367884 -0.013622178 -0.020012546 -0.059175882 0.026006691 -0.04717581 0.1431285 -0.06050199
-0.16221614 0.17524491 0.10437359 -0.1258489 0.13959503 -0.1539226 -0.08795687 -0.09159585
0.029344954 0.047987346 -0.07214746 -0.059648894 -0.094818145 0.13546954 0.086081125 0.015587801
0.009609249 0.010997862 -0.040645853 -0.08007467 0.15919408 -0.06905919 -0.10890379 -0.017635843
0.05445206 -0.15106398 0.04831843 -0.008422942 -0.08216374 0.022183761 0.01762794 -0.17046063
0.083123386 0.06736758 -0.10164262 0.055845395 -0.093202904 0.13146822 -0.07892495 0.06328712
0.05707703 -0.010167801 -0.09703907 0.08392371 0.045802727 -0.08211966 -0.024512481 0.07314337
-0.1491237 0.025884887 0.037597727 -0.17326559 0.025492627 -0.13849534 -0.15851864 0.15520106
0.0908761 0.12654914 0.15744294 -0.09521409 -0.07548294 -2.1073423e-05 0.07101158 0.018187102
-0.016187677 0.17664182 -0.086242504 0.08074059 0.07305229 -0.08552628 0.1005982 0.12179615
-0.03493607 -0.11958597 0.108640015 0.13371174 0.06640653 0.021836177 0.08624783 0.05433525
-0.05452439 -0.13022773 -0.07722723 0.06251437 -0.07155342 0.067462355 -0.09176705 -0.13310072
0.12536757 -0.111771144 0.05409217 0.14979322 0.010335861 0.11046756 -0.046751875 -0.15246093
-0.084539436 -0.054398578 -0.10278213 -0.10626154 0.077658415 0.163982 0.112751395 0.05940988
-0.14051367 -0.029348746 0.06502839 0.15548123 -0.086484276 0.104746886 0.10155413 -0.038563587
-0.16205935 0.081486925 0.0903871 -0.14023891 0.13772233 -0.010472395 -0.1326681 0.015340883
0.09921185 0.0064176796 -0.13684034 -0.09504966 0.104154915 0.075576335 0.11317535 0.06504363
0.11449423 -0.038667414 0.08229623 0.04939069 0.03074857 0.15762651 -0.06910245 0.1345379
-0.06915539 0.14179225 -0.029114831 0.13307716 -0.057935182 0.014477948 0.15481949 -0.015416264
-0.0145246675 -0.07439926 0.12670147 0.09301196 -0.038996518 -0.047137097 0.157766 0.10725233
0.14325663 -0.09316065 -0.06675473 -0.115872435 -0.13043961 -0.019497659 -0.0070947055 -0.08903264
00000000: 3fb8 aa3d 3fcf ea3d d61a eaba b5c4 31be
00000010: 90cc a23d a94b e53d 088f 9cbc a05c f33d
00000020: 201a 8e3d cc5a 203d 4684 273e 2ba8 adbd
00000030: 3ef9 e63c ed45 08be 719d 1d3e 7f7c 673d
00000040: ace2 203e 8201 10be 0c85 1d3e 4f7f e23d
00000050: f49e 1d3e 0b5a a0bd 566f 14be b777 febc
00000060: b63d 0f3e 009e 313e d753 86bc 84af a43c
00000070: 9e99 83bc 8e37 67bc a846 f63c 6b79 a93d
00000080: 2678 27bd 57b5 0bbe 1259 a9bb 33d3 c73d
00000090: b4c4 11be 9894 293e 2f39 813d 7eb6 aa3d
000000a0: 2a3f af3d b548 f93d bfbc 1e3e 4da7 9fbd
000000b0: baf4 3d3d 0095 d93d be3a 33be f2af d13d
000000c0: 56c9 2dbe cd2e ecbd ce5b d4bd f6c6 f6bd
000000d0: 8813 02be c89b d53d ae46 1cbe 3ae0 afbd
000000e0: e163 29be 1032 8fbd b45f 2cba 408d 733d
000000f0: 83af babd 7513 003d 59f0 af3d 5da7 123e
00000100: b84f 0cbd 0ec9 f5bd 080b de3d 6460 82bd
00000110: ba33 2dbe 9a2f 8abd 74c9 e0bc b9ab 1f3d
00000120: 349a 093e e9aa e53d 16f7 9abd 72ac 123e
00000130: be4a 853d 5999 3a3d f42f 04be a2b1 f5bc
00000140: 6d4f 813d 0ae3 54bd 7663 993d 0708 a93d
00000150: 4a8d fcbd 3eac 123e 739a 953c 8bc7 40bc
00000160: f804 5bbc 8e2f 5fbc 5af1 a3bc 6962 72bd
00000170: fc0b d53c 6c3b 41bd 4790 123e efd0 77bd
00000180: fd1b 26be 6773 333e d2c1 d53d 89de 00be
00000190: 00f2 0e3e e39d 1dbe bb22 b4bd 9b96 bbbd
000001a0: d464 f03c 618e 443d 0cc2 93bd 6652 74bd
000001b0: 0430 c2bd 87b8 0a3e 4d4b b03d fa63 7f3c
000001c0: 1d70 1d3c 6030 343c 447c 26bd 30fe a3bd
000001d0: c603 233e e86e 8dbd f308 dfbd 0b79 90bc
000001e0: 2009 5f3d 84b0 1abe 8ce9 453d 6100 0abc
000001f0: 7745 a8bd b8ba b53c 7868 903c 3b8d 2ebe
00000200: 983c aa3d 04f8 893d 022a d0bd 24be 643d
00000210: 2ae1 bebd 9b9f 063e 67a3 a1bd ad9c 813d
00000220: 9bc9 693d d996 26bc 6cbc c6bd 32e0 ab3d
00000230: a49b 3b3d 5a2e a8bd 66ce c8bc 31cc 953d
00000240: e2b3 18be 8b0c d43c 1300 1a3d 896c 31be
00000250: ead5 d03c b9d1 0dbe b652 22be 07ed 1e3e
00000260: 401d ba3d 1996 013e b938 213e 9bff c2bd
00000270: cd96 9abd d5c6 b0b7 856e 913d 1efd 943c
00000280: 059c 84bc 98e1 343e e99f b0bd 535b a53d
00000290: 709c 953d 6728 afbd 6e06 ce3d 4370 f93d
000002a0: 2019 0fbd 7de9 f4bd a87e de3d bbeb 083e
000002b0: 2600 883d c8e1 b23c b4a2 b03d a48e 5e3d
000002c0: f754 5fbd 6b5a 05be 4f29 9ebd 8907 803d
000002d0: 998a 92bd b429 8a3d 5df0 bbbd 8e4b 08be
000002e0: 5b60 003e 45e8 e4bd c08f 5d3d 6563 193e
000002f0: be57 293c d13c e23d e57e 3fbd b81e 1cbe
00000300: 0323 adbd 0bd1 5ebd 707f d2bd a69f d9bd
00000310: 600b 9f3d e6ea 273e 34ea e63d c657 733d
00000320: d1e2 0fbe c86c f0bc 9b2d 853d 7936 1f3e
00000330: ab1e b1bd 8985 d63d 9dfb cf3d daf4 1dbd
00000340: e3f2 25be 9ee2 a63d df1c b93d ca9a 0fbe
00000350: 1507 0d3e 6994 2bbc 25da 07be 5458 7b3c
00000360: 952f cb3d 664b d23b e01f 0cbe 65a9 c2bd
00000370: 2c4f d53d c4c7 9a3d 7ac8 e73d 9835 853d
00000380: f37b ea3d b961 1ebd ed8a a83d e44d 4a3d
00000390: 6de4 fb3c d868 213e 9685 8dbd 4ec4 093e
000003a0: 57a1 8dbd fd31 113e 3a82 eebc 6145 083e
000003b0: 714d 6dbd ea34 6d3c 0089 1e3e 7f94 7cbc
000003c0: dff8 6dbc a45e 98bd 08be 013e 0e7d be3d
000003d0: d0ba 1fbd d412 41bd 698d 213e 1ca7 db3d
000003e0: deb1 123e 03cb bebd b4b6 88bd 874e edbd
000003f0: f691 05be 8eb9 9fbc b47a e8bb bf56 b6bd

bias f4 [32]
0.0 0.0 0.0 0.0 0.0 0.0 0.0 0.0
0.0 0.0 0.0 0.0 0.0 0.0 0.0 0.0
0.0 0.0 0.0 0.0 0.0 0.0 0.0 0.0
0.0 0.0 0.0 0.0 0.0 0.0 0.0 0.0
00000000: 0000 0000 0000 0000 0000 0000 0000 0000
00000010: 0000 0000 0000 0000 0000 0000 0000 0000
00000020: 0000 0000 0000 0000 0000 0000 0000 0000
00000030: 0000 0000 0000 0000 0000 0000 0000 0000
00000040: 0000 0000 0000 0000 0000 0000 0000 0000
00000050: 0000 0000 0000 0000 0000 0000 0000 0000
00000060: 0000 0000 0000 0000 0000 0000 0000 0000
00000070: 0000 0000 0000 0000 0000 0000 0000 0000

weight f4 [32, 1, 4]
-0.15897144 -0.08708711 0.11984133 -0.3644817 -0.07623667 0.0048281997 0.4784762 -0.29246172
-0.08664358 0.1837949 -0.25971594 0.28183165 -0.495257 0.35589683 0.24509068 -0.39076504
0.3857277 -0.012760418 0.3887429 0.046281364 0.23668665 -0.39634457 0.42716852 -0.08704848
-0.5483927 -0.019807037 -0.0062869503 0.18893495 -0.19250402 0.07613759 0.54383516 -0.3214495
0.09933636 0.340313 0.0079938425 0.14484385 0.07363666 0.51955545 0.0054424196 -0.02981057
0.29821917 -0.004579549 -0.45803073 0.019051822 -0.34760582 -0.019096738 0.43847167 -0.12044966
-0.3369214 0.44846472 0.12550145 -0.20787488 -0.2759928 0.48175147 0.08466406 0.51273906
-0.46430233 -0.075980686 -0.09050559 -0.426801 -0.06352276 0.5965438 0.10776581 0.029112617
-0.08564092 0.51785916 0.06747024 -0.40183178 -0.11185617 0.18784602 0.16403036 0.27561283
0.020678485 0.06915821 -0.50472856 0.18336539 -0.15680927 0.06902334 -0.38130084 0.10293079
-0.21314733 -0.05617089 -0.2872947 0.11848102 0.20103927 0.018139303 0.44074744 -0.045688186
-0.15773535 0.560549 0.20245123 0.07354944 0.17814057 0.21233228 -0.56691706 -0.35008633
-0.105748765 -0.09073104 0.0044888053 0.38353696 -0.010792087 0.37246832 -0.0056426586 -0.00577014
0.118978046 0.11789127 -0.11504678 -0.11144706 0.29155236 0.044622775 -0.058181804 -0.07270519
0.31908166 -0.38487685 -0.32238436 -0.08895492 0.57381445 -0.10315226 -0.06953883 -0.16555014
-0.57550526 0.09093647 0.118973814 -0.21413848 -0.45247063 0.2755087 -0.16833779 -0.18286006
00000000: 69c9 22be ba5a b2bd 5f6f f53d 589d babe
00000010: f921 9cbd e035 9e3b d5fa f43e 8bbd 95be
00000020: 3072 b1bd bb34 3c3e 7df9 84be 3d4c 903e
00000030: 5392 fdbe 1c38 b63e 0df9 7a3e 5b12 c8be
00000040: 1a7e c53e 1211 51bc 4f09 c73e 8791 3d3d
00000050: fc5d 723e aded cabe d5b5 da3e 7946 b2bd
00000060: 7763 0cbf 5e42 a2bc c302 cebb 2a78 413e
00000070: c61f 45be 06ee 9b3d c838 0b3f 0795 a4be
00000080: dd70 cb3d 813d ae3e 9bf8 023c f251 143e
00000090: d1ce 963d 9601 053f 5356 b23b 4c35 f4bc
000000a0: 2fb0 983e 0b10 96bb 0183 eabe 9112 9c3c
000000b0: 64f9 b1be c370 9cbc 5c7f e03e 50ae f6bd
000000c0: f680 acbe 2b9d e53e 7483 003e 27dd 54be
000000d0: ee4e 8dbe 21a8 f63e 5a64 ad3d de42 033f
000000e0: 09b9 edbe c39b 9bbd ff5a b9bd a985 dabe
000000f0: 3918 82bd 18b7 183f 52b4 dc3d 957d ee3c
00000100: 8264 afbd 6b92 043f d62d 8a3d e5bc cdbe
00000110: d914 e5bd b55a 403e 93f7 273e 201d 8d3e
00000120: ed65 a93c d2a2 8d3d e435 01bf 23c4 3b3e
00000130: 9c92 20be 1c5c 8d3d dd39 c3be 61cd d23d
00000140: 4b43 5abe 7213 66bd 4a18 93be 2da6 f23d
00000150: 3ddd 4d3e e098 943c a6a9 e13e 8923 3bbd
00000160: 6085 21be 2480 0f3f 604f 4f3e 17a1 963d
00000170: 7b6a 363e a26d 593e 7a21 11bf 843e b3be
00000180: cf92 d8bd 32d1 b9bd d416 933b f55e c43e
00000190: 4bd1 30bc 2bb4 be3e 0de6 b8bb 7113 bdbb
000001a0: c3aa f33d fa70 f13d a59d ebbd 5b3e e4bd
000001b0: 5a46 953e 5fc6 363d 0b50 6ebd 75e6 94bd
000001c0: ac5e a33e 940e c5be 900f a5be ff2d b6bd
000001d0: 81e5 123f 7e41 d3bd 606a 8ebd fa85 29be
000001e0: 5054 13bf e63c ba3d 8ba8 f33d 1e47 5bbe
000001f0: 3baa e7be 7a0f 8d3e be60 2cbe ab3f 3bbe

bias f4 [32]
-0.21054682 -0.09435148 -0.19325992 -0.22662571 0.32208338 -0.018481707 0.26319396 -0.2792038
-0.06435406 -0.3408494 0.057339817 0.1612889 -0.0138950925 0.13978037 -0.2944877 -0.45216173
-0.080914184 0.13217011 -0.071577646 0.2623884 0.13384867 -0.08522507 0.046516214 -0.0037782425
0.3350029 -0.10766427 0.25291494 -0.06821656 0.024776312 -0.20132564 -0.12000249 -0.007896693
00000000: 9699 57be 593b c1bd eee5 45be 9210 68be
00000010: 1de8 a43e f366 97bc 5cc1 863e cdf3 8ebe
00000020: 10cc 83bd d083 aebe 28dd 6a3d eb28 253e
00000030: 3ea8 63bc 9622 0f3e 18c7 96be be81 e7be
00000040: 56b6 a5bd 9a57 073e 4d97 92bd c657 863e
00000050: a00f 093e 7b8a aebd c987 3e3d 649c 77bb
00000060: 8085 ab3e 167f dcbd 117e 813e 20b5 8bbd
00000070: b1f7 ca3c 4f28 4ebe dec3 f5bd 2261 01bc

weight f4 [32]
1.0279175 1.1189038 1.0181938 1.2067314 1.1178433 1.0301986 1.1587228 1.0162152
1.0630424 1.1412151 1.0627712 1.0721523 1.1171551 0.98298293 1.0822227 1.0458052
1.0554779 1.0037905 1.031562 1.167965 1.1600261 1.13241 1.0444368 1.0793384
1.1513053 1.3332555 0.9838695 1.0338994 0.8639412 1.1095881 1.224175 1.0014375
00000000: cd92 833f 3d38 8f3f 2d54 823f 2d76 9a3f
00000010: 7d15 8f3f 8cdd 833f 0751 943f 5713 823f
00000020: c611 883f 5613 923f e308 883f 493c 893f
00000030: f0fe 8e3f c5a4 7b3f 4686 8a3f f2dc 853f
00000040: e619 873f 357c 803f 390a 843f e17f 953f
00000050: bc7b 943f d0f2 903f 1bb0 853f c327 8a3f
00000060: f95d 933f 1ea8 aa3f dfde 7b3f d156 843f
00000070: 402b 5d3f fc06 8e3f c4b1 9c3f 1b2f 803f

bias f4 [32]
-0.1542799 -0.017050996 -0.023566581 -0.16990694 -0.07296705 -0.10444372 0.041949768 -0.0937561
-0.027041422 -0.045589376 -0.03925757 0.052849453 -0.21454838 -0.056438223 -0.07753159 -0.0090580005
-0.050711457 -0.08067771 0.007738242 -0.04896212 -0.10469594 0.015633138 -0.006365039 -0.086333446
0.08466726 0.14555743 -0.08282728 -0.06052576 -0.1022973 0.00040654157 -0.16205123 0.053602222
00000000: 8dfb 1dbe 88ae 8bbc b40e c1bc 16fc 2dbe
00000010: c06f 95bd 97e6 d5bd 85d3 2b3d 3303 c0bd
00000020: f985 ddbc edbb 3abd 8ccc 20bd ab78 583d
00000030: 92b2 5bbe c42b 67bd e2c8 9ebd 0268 14bc
00000040: d1b6 4fbd 5b3a a5bd 1491 fd3b 818c 48bd
00000050: d36a d6bd 1111 803c d191 d0bb 97cf b0bd
00000060: 0766 ad3d 020d 153e 59a1 a9bd dce9 77bd
00000070: 3f81 d1bd 1625 d539 c2f0 25be 018e 5b3d

running_mean f4 [32]
-0.27098155 -0.08085492 -0.17793411 -0.26033315 0.4205433 0.0015168036 0.21542588 -0.2664561
0.009453511 -0.26899242 0.04032937 0.15450968 -0.008770695 0.23913361 -0.42391327 -0.36796305
-0.06656153 0.19540542 -0.09905454 0.21818122 0.080175996 -0.010484954 0.1314857 -0.06605458
0.3575632 -0.06335446 0.2549746 -0.042654768 -0.03444562 -0.1723781 -0.19085722 -0.07127452
00000000: 18be 8abe 4497 a5bd 5c34 36be 634a 85be
00000010: 7451 d73e 7ccf c63a 9a98 5c3e ef6c 88be
00000020: e6e2 1a3c 60b9 89be 6930 253d c937 1e3e
00000030: f6b2 0fbc 71df 743e 290b d9be a765 bcbe
00000040: 6951 88bd 5c18 483e 1bdd cabd e66a 5f3e
00000050: 5033 a43d 16c9 2bbc 30a4 063e a047 87bd
00000060: 8612 b73e fcbf 81bd 088c 823e c4b6 2ebd
00000070: da16 0dbd e283 30be 1370 43be 60f8 91bd

running_var f4 [32]
0.14819935 0.25430113 0.14234936 0.49703875 0.2429568 0.31826583 0.2521609 0.35793754
0.12320179 0.23092116 0.240429 0.26823923 0.31480736 0.43707904 0.35538864 0.3098831
0.3635226 0.11475343 0.23174398 0.14330281 0.111019395 0.18658571 0.31760874 0.40579078
0.12270968 0.11563942 0.041282784 0.07337441 0.29068232 0.2820202 0.33787146 0.2863018
00000000: 92c1 173e c233 823e 08c4 113e dd7b fe3e
00000010: abc9 783e bdf3 a23e 3c1b 813e 9743 b73e
00000020: 3851 fc3d 9976 6c3e 0533 763e a756 893e
00000030: 6e2e a13e d3c8 df3e 80f5 b53e ffa8 9e3e
00000040: a21f ba3e d903 eb3d 4b4e 6d3e f9bd 123e
00000050: 235e e33d 5310 3f3e 9d9d a23e cfc3 cf3e
00000060: 364f fb3d 5cd4 ec3d 2318 293d 5345 963d
00000070: 50d4 943e f464 903e 7dfd ac3e 2696 923e
