histories_pre_cls/04.29-18.50.31_64.26%_pt_LSTM_ATCNet_BcicIv2a_bs=064_lr=0.0010_ld=0.999891_nw=3/best_valid_acc.pt (torch, 300862 bytes, 88 tensors)

weight f4 [16, 1, 1, 129]
00000000: dc6f 0e3c 2099 5b3d 92e8 99bd 1e2f a7bd
00000010: 594e 8dbd 2672 2bbc f4b9 86bc f191 a43d
00000020: ef76 243d 899c bd3d 8d33 3b3d 9c82 293d
00000030: f5c2 20bd 0cc2 f1bc c473 33bd b510 32bd
00000040: 1341 f2bc 9aa6 1fba e31c 62bd 4a93 583c
00000050: a476 c13d df3d e33d 5686 d1bc d87f c73c
00000060: 9608 84bd 93a7 12bd 4eb0 683d 8c35 a1bd
00000070: 66b3 ffbc 37b2 f33c 8806 483d f2fc 273e
00000080: e22c 72bc 8679 afbd 48f1 32be 8d1f 59be
00000090: 88bf 0ebe 5750 7c3d 74da f43d f5c2 4a3e
000000a0: 9767 383e 9e79 b83d 875c 833d 4af6 ffbd
000000b0: 77dc 35be 73b4 49be df39 babd bf3a 4abd
000000c0: 7439 99bd d0e0 f43c cdc4 113e 6577 5e3e
000000d0: dcb8 393e 0f0f f93d f8c0 9e3d 99d9 12be
000000e0: 5c93 22be 1ada 7dbe 7a92 31be 769e 26bd
000000f0: 0d49 163e 54ec 493e 96b2 cc3d bb3e dc3d
00000100: 2045 613d 96f4 59bd 2cd0 87bd b325 84bd
00000110: a592 21bd 91a2 3c3b e828 dcbd 0ad9 c4bc
00000120: 4e27 ae3d 549a 053e 468a e63d cd5d 8d3d
00000130: 0f55 21bd 19a8 16be ca64 15bd 5427 20bd
00000140: f2d7 dabc c591 013e 06d1 c83d 7f7e 9bbd
00000150: 3b15 bfba 8d78 3dbd 9a38 2dbd 9363 32bd
00000160: 7e73 683d 8780 cfbb 956d 8c3d a1e9 513d
00000170: becd 4e3d 6068 6a3c 6106 eebd a5b1 d9bd
00000180: 5775 a9bc 543b c4bc 5f9a 8dbd 0f9d b8bc
00000190: d24c 023e 1c8d d93d 222a 5abb b483 11bc
000001a0: 8c88 a1bd d1e9 263c e43e f6bc 1665 28bc
000001b0: 09a2 653d 9fec 363d aa4b 18bd 3897 e63c
000001c0: d345 9ebd 9b5a 763d 72d0 573d 412f 8abd
000001d0: c61c babc 531d 90bb 46af 983c c632 433d
000001e0: ff0d a73d 9442 343d 0900 40bd bcc0 0bbc
000001f0: 944e 0dbe 3074 93bd a88f 273c ff03 f03c
00000200: 8443 7e3d 3d87 d03b 3db1 2f3d 569d 883d
00000210: d85c 4abb 607a 8b3d 8c2a 2f3e b195 0b3e
00000220: 8043 2b3e 5ebd 2d3e 14c1 343e 5be5 393e
00000230: 09c4 353e d300 073e 3c03 213e 44a9 7f3d
00000240: b153 a6bc 3840 493b 082f 853d 9299 10bd
00000250: 56e3 f1bd 623b 33be c029 55be 9637 5cbe
00000260: 215d 16be d84f 61bd 51cc f3bc 87de 03be
00000270: 80ad da3c c29e cdbd 593e 90bd 5619 f0bd
00000280: 7609 d7bd 2451 d0bd cc5d 2abe 0a6b 2dbe
00000290: d95a efbd 12b3 bbbd ad8c edbd 9cc9 b0bc
000002a0: baae f2bd 5057 61bd 94ae 2e3b c808 01be
000002b0: 3c4c 3cba b873 bdba e26f 8cbd 5912 ba3d
000002c0: a592 223d 8366 1b3b ebee d43d f904 66bd
000002d0: 788e ba3b 5a46 02bd ffc4 203d e529 5c3b
000002e0: 5d03 f33c d57b 073d dd1a 62bb d317 45bb
000002f0: 1a9d 66bd ea98 4c3d 4dc0 133d e31f 2cbc
00000300: be56 23be 76ba c2bd ecd3 06be 1efe cbbd
00000310: 81db 86bd e77c 453d c71b 8cbc 2915 103d
00000320: 7d90 fe3c bf81 b63d 8a00 6dbc 635e 273c
00000330: d07f c33c c9d8 e03d e08d e2bb cf26 b03d
00000340: 9963 323d fe6e b03c ea8a 7bbb aed7 febc
00000350: a38a bdbc d3fd a0bd d460 8dbd fc48 6dbd
00000360: 81f2 ddbd 8a2d 29bd 0f44 d53d 5e0d e1bc
00000370: 5f85 b43c 4289 cb3d 2ff8 043d 74d6 7cbc
00000380: 5900 a9bd c206 673d 8ff5 0cbd 5d86 153c
00000390: c587 a73b df15 263d c52f 8c3d 67e4 123e
000003a0: e94b b83d 52b1 133e d098 c33d 21c7 f6bc
000003b0: d327 8b3d 6d75 81bb b650 2d3d 5155 083e
000003c0: 8874 213e 588b 3f3e 86e1 aa3d 145c b43d
000003d0: 93b0 c43d 7bec a4bd 87f4 bf3c 930b f7bd
000003e0: 1c9e 42bd 1229 69bd 4355 82bd 2c83 a13c
000003f0: 6b9b c83d 877e 75bb 2a8e 26bd 188f 05bd
0.008693662 0.05361283 -0.075150624 -0.08163284 -0.06899709 -0.010464227 -0.016446091 0.080356486
0.040152486 0.09258372 0.04570346 0.041384324 -0.039248426 -0.029511474 -0.043811575 -0.043472964
-0.029572045 -0.0006090194 -0.05520333 0.01321871 0.09446457 0.11095785 -0.025576752 0.024352953
-0.0644695 -0.035804342 0.056808762 -0.078715414 -0.031213474 0.029748065 0.048834354 0.16405085
-0.014781209 -0.08568101 -0.17474854 -0.21203442 -0.13940251 0.061600056 0.11955729 0.19800933
0.18008266 0.09007572 0.064141326 -0.12498148 -0.17759882 -0.19697742 -0.09093069 -0.04937243
-0.074816614 0.029892355 0.1423523 0.21725233 0.18136925 0.12161075 0.077516496 -0.1434082
-0.15876526 -0.2479023 -0.17341033 -0.040678464 0.14676304 0.19719058 0.09995 0.107541524
0.054997563 -0.05321177 -0.066315025 -0.06452503 -0.03944649 0.002878342 -0.1074999 -0.024029274
0.085035905 0.13047153 0.11256842 0.06902657 -0.03938776 -0.14712562 -0.036473073 -0.039100006
-0.026714299 0.12653263 0.09805493 -0.075924866 -0.0014578471 -0.046257544 -0.042290308 -0.043551993
0.056750767 -0.0063324603 0.068568386 0.051248197 0.05048918 0.0143071115 -0.116223104 -0.10629586
-0.020685835 -0.023954071 -0.069142096 -0.022535829 0.12724617 0.106226176 -0.0033289273 -0.008881498
-0.078873724 0.010187582 -0.030059285 -0.010278007 0.056062732 0.044659253 -0.037181534 0.028148279
-0.07728162 0.060145 0.052689023 -0.06747294 -0.022718798 -0.004398027 0.018638264 0.047655843
0.081569664 0.044008806 -0.046875034 -0.008529838 -0.13799506 -0.071998954 0.010227121 0.02929878
0.062076107 0.006363778 0.042893637 0.066706344 -0.0030878093 0.068104506 0.17106074 0.13631321
0.16724968 0.16966769 0.17651778 0.18153898 0.17750563 0.13183908 0.1572389 0.062417284
-0.020303579 0.0030708443 0.06503111 -0.035302706 -0.11810939 -0.17503121 -0.20816708 -0.2150558
-0.14683963 -0.055007786 -0.029760512 -0.12877856 0.02669406 -0.10040046 -0.07043142 -0.117235824
-0.104998514 -0.10171726 -0.16637343 -0.16935363 -0.1168725 -0.09165014 -0.115990974 -0.02158051
-0.11849733 -0.05501491 0.002665435 -0.12601006 -0.00071829907 -0.0014454043 -0.068572775 0.09085531
0.039690632 0.0023712225 0.103971325 -0.056157086 0.005693253 -0.031805374 0.03925037 0.0033594307
0.02966469 0.03307708 -0.0034500875 -0.0030074015 -0.056302167 0.049950518 0.036072064 -0.010505649
-0.15951058 -0.09508221 -0.1316678 -0.099605784 -0.06584836 0.04821482 -0.017103089 0.03517643
0.031074757 0.08911466 -0.014465461 0.010215375 0.023864657 0.109788485 -0.0069138855 0.08601152
0.043552015 0.0215373 -0.003838236 -0.031108703 -0.023137396 -0.07860913 -0.06903234 -0.05793093
-0.108372696 -0.041303195 0.10413372 -0.027472194 0.022036253 0.09938289 0.03246325 -0.015431989
-0.082520194 0.05640293 -0.03441387 0.009126273 0.0051126205 0.0405482 0.06845049 0.14344941
0.08998854 0.14423111 0.09550631 -0.030124249 0.06794705 -0.003950766 0.0423133 0.13313796
0.1576711 0.18705499 0.083437964 0.08806625 0.09603991 -0.080529176 0.02343203 -0.120627545
-0.047514066 -0.056923933 -0.06363919 0.019715868 0.097952686 -0.003745945 -0.040662922 -0.032607168

weight f4 [16]
00000000: 5410 653f 01ad 843f 4b48 743f c372 873f
00000010: 18bf 7d3f a78b 7b3f 63b2 883f 1727 833f
00000020: b7da 7c3f a50f 783f 566e 6e3f dfed 7d3f
00000030: f1fa 793f 1380 793f 98ad 823f 2f19 843f
0.8947804 1.0365297 0.9542281 1.0581897 0.9911971 0.9825997 1.0679439 1.0246304
0.9877123 0.9689887 0.9313711 0.9919109 0.9764853 0.9746105 1.0209227 1.0320185

bias f4 [16]
00000000: f5f5 eebc 628c 72bd 7054 193b 6951 aa3d
00000010: 15c9 423c 0e3d 13bc 250f 1ebd b388 2ebd
00000020: 0958 2ebd 468e f8bc b10b 2a3d a64d ccbc
00000030: 156b 70bd 90fa afbb 6259 753c dd02 9b3b
-0.029170016 -0.05921591 0.0023396276 0.08316309 0.011888762 -0.008986725 -0.03858866 -0.042610835
-0.042564426 -0.030341279 0.041515056 -0.02493937 -0.05869587 -0.0053704455 0.014974924 0.004730566

running_mean f4 [16]
00000000: 5844 e63b 5e2d 90bd 31f4 623d e558 9fbb
00000010: 9517 8abb 2533 21bd 2033 803c f8d3 18be
00000020: 1e54 01be 5dea 943d 9c49 ac3d 621f 613e
00000030: 2e98 1dbd e0f1 70be b46e 293d 2299 693e
0.00702719 -0.07039903 0.05540866 -0.004862892 -0.004214237 -0.039355416 0.015649378 -0.1492461
-0.12629744 0.07271264 0.084124774 0.21984628 -0.038475208 -0.23529768 0.04136534 0.22812322

running_var f4 [16]
00000000: 2775 753d 179b 303e ec53 423e 22ab 163e
00000010: 2680 463d afaf 803d c9df ef3d 215b d23d
00000020: d76c 703e 0ef1 2a3f b745 e83d c7e3 343e
00000030: 7849 aa3d 732a 033e 8e29 093e b12e 223e
0.05992618 0.17246662 0.18977326 0.1471372 0.048462056 0.06283509 0.117126055 0.10271288
0.23479019 0.6677407 0.11341422 0.17665015 0.08314794 0.12809162 0.13394758 0.15838124

weight f4 [32, 1, 22, 1]
00000000: 989c c73d 1102 033d 36dd 76be 7829 dd3c
00000010: 2c69 a73d df32 333e 0ba5 a5bb de12 fc3d
00000020: ba5d 0cbe 4591 5a3e a3e5 393e 57f0 65be
00000030: 9a39 c33d 685e 04bd 8b3b ba3d d935 bdbd
00000040: ff0c 51be a97b b3be 1f4c 0fbe 41eb 1a3e
00000050: 698f b43d 25df 953d ad11 15be 80f9 6dba
00000060: 3331 11be 8558 e9bb 1eac 203c 244f cb3d
00000070: d3d5 fdbd f0d3 bd3d bc3b ec3d c431 07be
00000080: c9c6 2c3d 38cc ab3d 47af 0abd 514c 103f
00000090: a549 0bbe 55c9 eebd bda0 ffbd 73fa 8cbd
000000a0: 6324 cf3d ea6a f7bc bc33 c13d ab6c acbd
000000b0: 8ed2 813d db4c 353c 1e25 93bd a0e4 0bbe
000000c0: 13d6 0c3b f570 723e 33b6 b4bd f97e 6ebd
000000d0: 3fb3 72be e331 25be 04f5 483e db8f fa3d
000000e0: 7bb3 47bd f0aa 193e 1f91 10be 2ca1 45bd
000000f0: b81a ddbc 5e95 2b3e 1274 303e 4c02 c63d
00000100: be4a b43d adfa 8bbe 99de ecbd 6da2 313e
00000110: 73d0 b8bd f703 803d fd74 44be 78e9 0a3d
00000120: 9427 3d3e e7f6 21be e043 633e 1098 fb3d
00000130: 4d48 0ebe e4ba 6d3e 332e e1bd 7e8c 78be
00000140: d95c 18be 7229 a4bb 55c1 883d 0b45 33bc
00000150: 9d5f 79be f821 b5bc 13a6 443e ba4a 613e
00000160: 1939 1a3e 54d4 b33d 59d6 b33c e040 80be
00000170: f537 d03c 0360 41be bab4 97bd 4fce db3c
00000180: 0cc0 573e 0238 f1bc e05b 88bd 920a 103e
00000190: a6f6 f8bd 309f a7bd 4187 a03d fa4d 1e3d
000001a0: 3b41 4d3d 8b47 473e 733f 84be 6515 12be
000001b0: 1b83 2b3e 230a 8e3c 7ccc f6bd 83a6 053e
000001c0: ffc1 153e f853 c3bc e2ee adbd 0679 63bd
000001d0: e633 6abc 9192 ae3b e7b3 083e d2e7 3bbe
000001e0: 82e0 acbd a936 733e 4d5e adbc 3d51 313d
000001f0: cdc1 6c3c c6e3 debd 9ece a6bd 6dd6 ce3d
00000200: fd15 82bd deeb e2bd ca9c 3d3a dba6 263e
00000210: 3d70 60bd 7e2e 133e fd70 a73d ff0f 5dbe
00000220: b0ba df3d 1978 0b3e 62a0 253c 8628 443e
00000230: 7550 5fbe 234b ef3b 7bb3 98be d210 933d
00000240: 3884 3cbe 5de7 45be ff5f 113d 61ab 19be
00000250: 14a4 c33d 223b a9be 492b 573e 7d59 163e
00000260: bc1c c93d 760b c1bd f502 733c 330f 5abe
00000270: b2a3 683e 7b4f 133c 7d98 223d 1756 c1bc
00000280: 9056 073e a47b 86be b03e 443e a7eb c0bd
00000290: 6b01 1b3e 82b1 8cbe e6b7 383c c760 99bd
000002a0: 48ba 803d c07d fcbc 135f a0be 1bc6 303d
000002b0: 1aa1 1e3e 9910 5b3d b2b1 843e a952 36bd
000002c0: df95 5fbd 4d3d 7b3d 0654 43bd 0f39 0ebe
000002d0: 0e07 37be ca8e c6bd ea94 0bbe 7bc3 ce3d
000002e0: 3b58 8e3d 4b4c 23be 9d7d 3e3c 7fba bf3e
000002f0: 9c32 de3d 1716 233e 903e b5bd e255 6ebd
00000300: fced 383e d6a9 db3d d45c fbbd 3379 1c3e
00000310: 1c20 dbbd 837c 65bd 00ff 573e 0929 c8bd
00000320: 04ab ac3d 0678 64be 47e3 f9bc 106b 8e3b
00000330: 35dc 54be 9583 9fbe b9cc 1c3e 4328 2b3e
00000340: f821 bc3d ada5 113c a9bc 72bd b3a9 cb3c
00000350: 0528 7c3c 3dce 8abb f908 dc3d 8293 37bc
00000360: 3b7a 0f3e 5c8a ab3d 49a0 f1bd b62e 953b
00000370: 5469 bfbd 1356 77be c4f7 99be 7834 8f3d
00000380: 4cdf 2ebd ac2e e53d 5dcf 9fbc 08b1 4a3e
00000390: 1842 093e 18f5 86bd b384 653d 6eb9 843d
000003a0: 4f3b cbbc ffab a53e a2a0 193e ec4a 95be
000003b0: af30 56bd ce9c 5cbd 9f70 6cbc bb98 e13d
000003c0: 7fbb e53c e052 3bbd 21a7 573e cb72 3b3d
000003d0: a278 553e 88f9 d23a 2f50 aebd 8d5f 8b3c
000003e0: c951 e23d 0ded 4bbd 92b3 4cbd e7c4 efbd
000003f0: d42f 033d 702e c3bd c504 9d3c 5cca b3be
0.09746665 0.031984393 -0.24107823 0.026997313 0.08174357 0.17499875 -0.005055075 0.12308286
-0.13707629 0.21344478 0.18154006 -0.22454964 0.09532471 -0.032316595 0.09093388 -0.09238786
-0.20415114 -0.35055283 -0.13993882 0.15128805 0.08816416 0.07317952 -0.14557524 -0.0009078011
-0.14178924 -0.007121148 0.009806661 0.09927204 -0.12394299 0.092689395 0.11534831 -0.13202578
0.042181764 0.08388561 -0.033858564 0.5636645 -0.13602312 -0.11659495 -0.1248183 -0.06883707
0.10114362 -0.030202348 0.09433696 -0.08419164 0.06338988 0.011065687 -0.07184814 -0.13661432
0.0021489903 0.23675902 -0.08823814 -0.05822656 -0.2370119 -0.16132312 0.19624716 0.122344695
-0.04875515 0.15006614 -0.1411786 -0.04824941 -0.02699028 0.16756198 0.17231777 0.09668407
0.088033184 -0.27339688 -0.11565895 0.17347117 -0.090241335 0.06250756 -0.19185252 0.03391406
0.18472129 -0.15816842 0.22193861 0.12284863 -0.13894768 0.23215824 -0.1099514 -0.24272344
-0.14879169 -0.0050098235 0.066775 -0.010941754 -0.2435288 -0.022110924 0.19203977 0.22001162
0.15060844 0.08780733 0.021952795 -0.25049496 0.025417307 -0.18884282 -0.07407518 0.026831774
0.21069354 -0.029445652 -0.06658149 0.14066532 -0.121564195 -0.081846595 0.07838298 0.038648583
0.050111037 0.19460885 -0.25829658 -0.14265974 0.16749232 0.017338818 -0.12050721 0.130518
0.14624785 -0.02384375 -0.08492829 -0.05553534 -0.0142946 0.0053275307 0.13349877 -0.18350151
-0.08441259 0.2375132 -0.02116313 0.043290365 0.014450503 -0.10883288 -0.08144878 0.10099492
-0.0635185 -0.11080144 0.0007233141 0.16274588 -0.05479454 0.14373204 0.08175848 -0.21588133
0.1092428 0.13620032 0.010109039 0.19156083 -0.21808036 0.007302658 -0.29824433 0.071809426
-0.18409812 -0.1932654 0.03549194 -0.15006782 0.0955278 -0.33052927 0.21012606 0.14682575
0.09819934 -0.09426014 0.014832248 -0.2129486 0.22718695 0.008991118 0.039696205 -0.023600621
0.13216615 -0.26266205 0.19164538 -0.09419947 0.1513726 -0.27479178 0.011274314 -0.07489162
0.0628553 -0.030821681 -0.31322536 0.043157678 0.15491143 0.053482626 0.2591682 -0.044512425
-0.054586288 0.061337758 -0.047687553 -0.13888954 -0.17873785 -0.096952036 -0.13631025 0.10095879
0.069504224 -0.15947072 0.011626628 0.37446973 0.10849497 0.15926395 -0.088498235 -0.058187373
0.18059534 0.10725753 -0.12273565 0.15280609 -0.10699484 -0.056026947 0.21093369 -0.09773452
0.08431056 -0.2231141 -0.030503882 0.004346259 -0.20787127 -0.31155077 0.1531247 0.16714577
0.091861665 0.008889598 -0.05926195 0.024861192 0.015390401 -0.0042360113 0.10743899 -0.011204602
0.14011471 0.08375999 -0.1179815 0.0045526875 -0.093462616 -0.24153928 -0.30071843 0.069924295
-0.04269342 0.111905426 -0.019508058 0.19794095 0.13404119 -0.06589717 0.056034755 0.064806804
-0.024808554 0.32357785 0.15002683 -0.29158723 -0.052292522 -0.053860478 -0.014431148 0.11015459
0.028043507 -0.045733333 0.21059848 0.045763772 0.20846799 0.0016096095 -0.085113876 0.017013336
0.110507555 -0.049786616 -0.04997594 -0.11707478 0.032028034 -0.095303416 0.019167313 -0.35115325

bias f4 [32]
00000000: 8fb5 073d a6cf 48bd 11cd 16be af69 ba3d
00000010: 75e5 27be c0f4 c53c 1fee bdbd 8e6a 203e
00000020: 9d91 083e 9bae 153e 892e 88bc 443f b23d
00000030: f269 9ebe e7d8 443e 836b a2bd 19ae c43d
00000040: 9fba ccbc 074e ffbd ab45 3bbe c7e1 223e
00000050: bb6c 00be 36ab 06be cbf7 733d 1b5e 6f3d
00000060: dd06 86be c2a3 3fbe 02a0 20be 718d 2f3e
00000070: c984 36be ea17 0f3e f7bb 2a3e 679d bdbd
0.033132132 -0.049026154 -0.14726664 0.09102189 -0.16396125 0.024164557 -0.092739336 0.15665647
0.13336797 0.14617388 -0.016623752 0.08703473 -0.30940205 0.19223367 -0.079306625 0.09603519
-0.024991332 -0.124660544 -0.18288295 0.1590644 -0.12541477 -0.1315125 0.059562486 0.058439355
-0.2617711 -0.18714812 -0.15686038 0.171438 -0.17824091 0.13973966 0.16673265 -0.09258538

weight f4 [32]
00000000: fc61 b53f e3ff bb3f 02c0 843f 327f 803f
00000010: f726 5a3f 9f2a 673f 6820 533f 2de2 7d3f
00000020: 5498 b73f 1032 953f bf33 9d3f 895b 993f
00000030: 4a1f 993f 7947 893f a6f3 8e3f 9f38 923f
00000040: 449c 673f 0ae7 4f3f 4bae 643f d355 343f
00000050: 9479 8c3f 592f b03f 2c76 723f 71fe 7f3f
00000060: c5d6 b13f 29ab 973f 54eb 893f 435f 923f
00000070: 0874 a13f fad1 893f 65a8 973f fe2e 893f
1.4170527 1.4687465 1.0371096 1.0038817 0.85215706 0.9029941 0.82471323 0.9917324
1.4343362 1.1655903 1.2281417 1.1981059 1.1962674 1.0724937 1.1168106 1.1423529
0.9047282 0.8121191 0.8932845 0.7044346 1.0974603 1.3764449 0.94711566 0.9999762
1.3893667 1.1849109 1.0774941 1.1435322 1.2613535 1.0767205 1.1848265 1.0717466

bias f4 [32]
00000000: 18c6 8dbe eaaf 61be c91e 39be b68b 0fbe
00000010: 891c d9bd d35b db3c d78d cbbc 3976 85be
00000020: d60b 8fbe 7ec7 52be b7d8 2abe ace4 54be
00000030: 6102 6bbe 02b5 88be 8261 f4bd a83e 59be
00000040: 3f53 10be bbff f0bd 4fd8 a3be 2db2 19be
00000050: 0668 25be da13 5abe 87b2 15be e415 5ebe
00000060: ff39 7fbe 8fdd 8ebe d863 2abe 339b ebbd
00000070: 8b29 83be 5e53 3ebe 4881 99be 7587 3dbe
-0.27690196 -0.22039762 -0.1807815 -0.14018139 -0.10601146 0.026777184 -0.024847908 -0.2606676
-0.27938718 -0.20583913 -0.16684233 -0.20790356 -0.22950126 -0.26700598 -0.11932661 -0.21215308
-0.14094256 -0.11767527 -0.32000968 -0.15009375 -0.16152963 -0.21296635 -0.14618884 -0.21688038
-0.24924468 -0.2790341 -0.1663965 -0.11504211 -0.25617632 -0.1858649 -0.29981446 -0.18508704

running_mean f4 [32]
00000000: fd05 073d f738 4ebd 66ed 17be 02ac b43d
00000010: dd47 27be f4b1 ca3c d8f1 00be 8c00 233e
00000020: 25bf 073e 7ab2 143e 62cf 8bbc e37d b23d
00000030: 56a3 9dbe 29c4 443e 866e acbd c626 d73d
00000040: b2fb f5bc 9c38 ffbd 9481 3bbe 714a 283e
00000050: d0a8 04be 42ee 08be bee1 733d 5461 5a3d
00000060: bcba 87be acac 3fbe 2667 21be 51c8 2d3e
00000070: 89c5 3bbe 5d5c 113e eb84 273e 96f5 c7bd
0.032964695 -0.050347295 -0.14836654 0.088218704 -0.16336007 0.024743058 -0.12592256 0.15918177
0.1325651 0.14521208 -0.017066661 0.08715417 -0.30788678 0.19215454 -0.08419518 0.10505442
-0.030027244 -0.12461969 -0.18311149 0.16434647 -0.12955022 -0.13372138 0.059541456 0.053315476
-0.26509655 -0.18718213 -0.15762004 0.16970946 -0.18337072 0.1419539 0.16359298 -0.09763639

running_var f4 [32]
00000000: 050f 563d de38 fc3d 2990 2d3d ee2e 923c
00000010: 9e00 f13b 43d2 f53b 04da 4b3e ea7b 983c
00000020: 0da5 0a3e 89a6 a23d 86ec fd3d 55be fb3d
00000030: e016 ec3c ee6e b33d 887c 8f3c d23c 133d
00000040: a60c 2f3d 7b0f d23b 6ea5 173c 7bc8 1f3c
00000050: ed6a 0e3d 12c3 213d 2555 163d c871 623d
00000060: 1bfb 743d 23a0 943d a617 bb3d d9b9 b33d
00000070: f175 ab3d 1dbd 1d3d 7c4e 503e f5de 463d
0.052260417 0.12315534 0.04237381 0.017844643 0.00735481 0.007501872 0.19907385 0.018613774
0.13539524 0.0794192 0.12398629 0.12292162 0.028819501 0.087613925 0.017515436 0.035946675
0.042736672 0.006410537 0.00925575 0.009752388 0.03476994 0.039492674 0.036702294 0.05528429
0.059809785 0.07257106 0.0913537 0.08775682 0.08372105 0.03851043 0.2034244 0.048552472

weight f4 [32, 32, 1, 16]
00000000: 1562 b93c d292 173c 4a55 253d 2e18 41bc
00000010: b9a0 30bd 91de dfbd 3dda 4ebd b3df 3ebd
00000020: ebb7 e0bc 7e6d 56bc 2732 cebd fde0 81bd
00000030: 6154 04be 90ef 98bd 51cb 39bd a3b1 4ebd
00000040: dd43 ec3b 818d 233d f12c 8e3d 324d e53d
00000050: acd0 4bbc 8866 853d 0f8c 293e faf6 f03d
00000060: ca50 bf3d d13f bfbb 6274 e1bd 1ef5 27bd
00000070: 5511 83bd d081 24bc b82a 40bc 1747 78bd
00000080: a420 4abd b5f0 eebc 8fc7 bbbc 52b4 fb3b
00000090: a63d fb3c 3384 83bc 27dd 573b 61d8 e0ba
000000a0: a1dc b53d 9ab5 b73d 8af3 473d 797b 2c3d
000000b0: 1708 32bc 0ec3 34bd 2344 933d ad40 213e
000000c0: 5c3f 253e df63 93bd 0fe3 01be 68a0 57bd
000000d0: 6f88 fabd 5900 8bbb 79e5 043d ba8a 88bd
000000e0: fc49 adbb 1974 dabc 0b4d b4bb 2d9a 57bd
000000f0: 4652 e6bd 8ade 943c bfe1 913d 2771 dabc
00000100: 45d8 873c 7f22 aa3d 871e 243d f7c2 ef3c
00000110: 8502 633d 2759 c73d 5daa a13d c2c4 c13c
00000120: 33ee 793d a129 993d b7c3 c1bd eb41 b5bd
00000130: 9649 993b 0658 bd3d cf5e 1e3e 91b7 1d3d
00000140: 61d7 423d 20b9 e03d 27b7 db3c 9189 5c3a
00000150: 0767 393c 8d7a f83c e4cd f1bc 2732 34bd
00000160: c7fa eebc 823f 9bbd 3a4c a53c 8617 f53c
00000170: d115 f83c f5de 063d 045d b6bc 5d06 f73b
00000180: a5cd 38bb b110 1d3d 5495 ec3d 71bc e23d
00000190: 78e6 c63d ca26 7f3d 4995 30bb 55be c03c
000001a0: ec48 c0bc eff9 6cbd 4965 9cbc 99b8 f7bc
000001b0: f90e 153c 55e3 8cbc 111e 6dbc b01a 393c
000001c0: 123f ebbc b65c 84bd f338 07bd 38ed 103d
000001d0: e48f 943b 99ba a73d e08b 1bbd 0119 8f3d
000001e0: 5f4f d13c aef3 fabc c345 7bbb cdde 3cbc
000001f0: d1cf 13bd d253 10bd 7f2e 5a3b 1dcc 083e
00000200: 318e c8bd 770c 1dbc 2fde 313d c63e 4d3d
00000210: 11c9 aa3c 7c5b b5bd 00b8 fbbd 81fc d5bd
00000220: 37e9 7c3b f1d4 9f3c 1a3c 23bd 3f12 4cbd
00000230: 100d 02be c5c5 e9bb e3b3 9ebd 3e90 25bd
00000240: 5c8a 0d3e 2888 ce3d d72a ba3d 26a3 793d
00000250: c4c6 e23d c6a0 bf3d b091 84bd 6275 a3bc
00000260: 5a1d 403d 98b6 99bc 54a8 e63d ffe7 523d
00000270: 5d6e 80bd 1136 cdbd 4f92 80bd 8774 5f3c
00000280: 1637 013e dee8 803c e090 4b3d 9fdb db3d
00000290: 4dbe df3d 2165 7c3d 8d00 d0bc 32c9 72bd
000002a0: 2fd9 3e3d bbb1 463d 7aa2 283e 25bf 3a3e
000002b0: cee7 a73d 0b8d 633d b63f 0fbd 05d6 03be
000002c0: d814 b03d ed77 0b3e 2b67 c93d da3f 863d
000002d0: e12a 8f3d 581a 173d 26be ecbc 27b6 4dbd
000002e0: 1625 af3b 1d96 103e e976 0b3e 5d60 893d
000002f0: 5c89 3b3d 898f 843d 6c7a b53c e00a bfbc
00000300: 3ca2 463e ea51 d13c 83f3 fb3d ea21 023e
00000310: ff99 4d3e a931 8d3d 7b63 503b 18e3 a33d
00000320: f4b6 6f3c f27a 42bd 7df0 8cbd 3b1c 9cbd
00000330: 0abe 4fbe 6a79 95be 03ed 89be b91c 28be
00000340: 9678 b53d c647 c8ba 8ff0 af3c cbb4 b53d
00000350: cef2 0e3c b0f5 023e 90c6 93bd 6026 b43b
00000360: f4d4 46bc a07f d5bd df0a 0fbd 2eb3 b03c
00000370: 30ac edbc d29a 0fbd 80c5 1abd 2796 7fbc
00000380: d264 f93d 4efd 963d fa83 4b3e 1dcc 303d
00000390: 9be4 013d d27f c7bd 44d1 77bc 2ab7 f6bc
000003a0: 7fa0 94bd 5a32 3abe 4acd f1bd c453 8c3c
000003b0: 1fe3 a13d de79 87bc e919 66bd 96a9 aebd
000003c0: aa34 1abd 88e3 ac3a 4422 f23c a0db 3e3d
000003d0: 6a23 ee3c d048 3f3d 335f b03d 0f3e 843c
000003e0: 97e6 cdbc bfbb d2bd edec 61bd ba19 57bc
000003f0: a016 01bd 3ce8 d53c 2664 8a3d 37c3 9a3c
0.022629777 0.009251313 0.04036454 -0.01178555 -0.043122027 -0.10931123 -0.050501097 -0.046600055
-0.027431449 -0.013087628 -0.100681596 -0.06341741 -0.12922813 -0.07467568 -0.045359913 -0.050462376
0.0072102384 0.03992987 0.06942166 0.111963645 -0.012439888 0.06513697 0.16557334 0.11765857
0.09341581 -0.005836465 -0.110085264 -0.041005246 -0.0639979 -0.010040715 -0.011728935 -0.06061467
-0.049347535 -0.029167512 -0.022922305 0.007681408 0.030669045 -0.016054248 0.0032938214 -0.001715433
0.08879972 0.089701846 0.04881624 0.04210994 -0.010866187 -0.04413133 0.071907304 0.15747328
0.16137451 -0.07196783 -0.12684272 -0.05264321 -0.12233054 -0.004241985 0.032445405 -0.06667085
-0.0052883606 -0.026666688 -0.0055023483 -0.052637268 -0.11246161 0.018172521 0.07123136 -0.026665283
0.016582618 0.08307361 0.040068176 0.029267771 0.055422325 0.09733801 0.07893822 0.023653392
0.06101818 0.07478643 -0.09461158 -0.088504635 0.0046779616 0.09245305 0.15465854 0.03850514
0.047568683 0.1097281 0.026820732 0.0008412833 0.011316068 0.030331874 -0.029517122 -0.04399314
-0.029172314 -0.075804725 0.02017795 0.029918443 0.03028384 0.032927472 -0.02226115 0.0075386004
-0.0028198746 0.038345996 0.115519196 0.110710986 0.09711927 0.06229285 -0.002694445 0.023528257
-0.023472272 -0.057855543 -0.019091265 -0.03023939 0.009097808 -0.017198244 -0.0144725 0.011297867
-0.028716598 -0.06462996 -0.033013295 0.03538248 0.0045337547 0.081898876 -0.037975192 0.06987191
0.025550542 -0.030633774 -0.0038341142 -0.011527729 -0.03608686 -0.035236187 0.0033291874 0.13359113
-0.09792746 -0.009585491 0.04342478 0.050108694 0.020847829 -0.0885534 -0.122909546 -0.10448552
0.0038591155 0.019510718 -0.03985224 -0.04982209 -0.12700295 -0.0071341717 -0.077491544 -0.040420763
0.13822311 0.100845635 0.09090202 0.060946606 0.11073068 0.09356837 -0.064731 -0.019953433
0.04690299 -0.018763825 0.11262575 0.05149078 -0.0627105 -0.10020078 -0.06277906 0.013638622
0.1261867 0.01573604 0.04969871 0.10735249 0.10924969 0.06161988 -0.025390888 -0.059273906
0.04659384 0.04850934 0.1646823 0.18236978 0.0819851 0.05555443 -0.03497287 -0.1287461
0.08597726 0.13619967 0.09834131 0.065551475 0.069906004 0.036890358 -0.028899264 -0.050222542
0.005344997 0.14119764 0.1361958 0.06707833 0.045785293 0.0647269 0.022153102 -0.023320615
0.19397825 0.025551755 0.123023055 0.1270825 0.20078276 0.068942375 0.0031797576 0.08002299
0.014631022 -0.04748053 -0.06881807 -0.07622572 -0.20287338 -0.29194194 -0.26938638 -0.16417207
0.088608906 -0.0015280179 0.021477012 0.08872374 0.008724881 0.12789035 -0.07215607 0.0054977387
-0.012135733 -0.10424733 -0.034922477 0.021569815 -0.02901277 -0.035059758 -0.037786007 -0.015599764
0.12177433 0.07372533 0.19874564 0.043163408 0.031712156 -0.09741177 -0.015125576 -0.030116636
-0.07257175 -0.1818327 -0.11806734 0.017129786 0.07904648 -0.016537603 -0.056177054 -0.0852844
-0.03764788 0.0013190368 0.029557355 0.04659617 0.029069621 0.0467003 0.08611908 0.016142873
-0.025134368 -0.10289716 -0.05515759 -0.013128692 -0.031515718 0.026111715 0.06757383 0.018891914

weight f4 [32]
00000000: 963a b13f 172d b93f de1d cc3f 1641 b83f
00000010: 4615 c83f b765 c53f 98bd a33f 6db5 a73f
00000020: 9a1e b93f 8b97 bb3f 8908 ca3f ea62 ae3f
00000030: 81ad bb3f 6553 b73f 87d2 b83f 071d a63f
00000040: 2d7b b83f d50e c53f 7837 a83f 5b90 a23f
00000050: 38b3 ab3f e773 a03f dbc4 bf3f 1098 be3f
00000060: e36c c73f d356 af3f 5a4c b43f f5b3 b33f
00000070: 3a4f c53f 6c25 bc3f 5653 c63f db2a ee3f
1.3846004 1.4466885 1.5946615 1.4394863 1.5631492 1.5421666 1.2792234 1.3102242
1.4462464 1.4655622 1.5783855 1.3623936 1.4662324 1.4322325 1.4439248 1.2977608
1.441259 1.5395151 1.3141928 1.2700304 1.3414068 1.253537 1.498195 1.4890156
1.5580105 1.3698372 1.4085801 1.4039294 1.5414803 1.469892 1.5494182 1.8606828

bias f4 [32]
00000000: 1c66 1cbe f489 18be cc29 a9be f5ed 98be
00000010: 3518 a1be 36cb 0fbe f9a5 5ebe 3ae8 83be
00000020: 879f 54be b8ad a3be 9316 29be 2bf6 35be
00000030: 25bb 6fbe 2b79 4cbe 48cf 76be c20a 82be
00000040: a183 93be d5e8 54be b8f0 d9bd d09a 7bbe
00000050: fb10 38be 4cfc eabd beba 9cbe 390a 5ebe
00000060: b1ac 80be 2f07 46be d6b0 90be 009a 9abe
00000070: e490 acbe 2f64 60be f04b 66be 46cc 8ebe
-0.15273327 -0.14896375 -0.330397 -0.29869047 -0.3146378 -0.14042363 -0.21743001 -0.25763112
-0.2076398 -0.31968474 -0.16512518 -0.17769687 -0.23411234 -0.19968097 -0.24102509 -0.25398833
-0.28811362 -0.20791943 -0.106416166 -0.24570775 -0.17975228 -0.11473903 -0.30611223 -0.21683587
-0.25131753 -0.19338678 -0.28259915 -0.30195618 -0.33704293 -0.21913217 -0.22489905 -0.27890223

running_mean f4 [32]
00000000: fbac 4a3d 176d d1bd 1dd1 26bd 89b7 9cbd
00000010: 29dc 18bd 673d 953d b16d 50bd 1689 24be
00000020: 25da e93d db5b afbe 3608 07be 082f 7ebd
00000030: 0036 21be 8df7 40bd c1c5 b83b c920 a33e
00000040: 0292 ae3c 5c06 d7bd 7dbd 6d3d 7183 e2bd
00000050: 715c 033e 0090 b7bd 20cc b53d 907d 2ebe
00000060: a4fa 9abd b9a4 4fbd 13ff b1be 2e71 edbd
00000070: 91f8 0bbd 8bd9 7fbd 0812 abbd 2400 8cbe
0.049481373 -0.10225885 -0.04072677 -0.07652194 -0.037319336 0.07287102 -0.05088586 -0.16067919
0.11418561 -0.34249768 -0.13186726 -0.06205657 -0.15743256 -0.047111083 0.0056388085 0.3186095
0.021309856 -0.1049926 0.05804204 -0.11060227 0.12828232 -0.08963013 0.088768244 -0.17040086
-0.07567337 -0.0506942 -0.3476492 -0.11593853 -0.0341726 -0.062463325 -0.083530486 -0.27343857

running_var f4 [32]
00000000: 02a1 d13f a3e3 dc3f bf17 a93f 7665 e23f
00000010: 7cd5 ed3f 59ea c13f af6b f93f 760f e93f
00000020: 876c e63f 7a13 c53f e83b f53f 816c f53f
00000030: 1db5 c53f c35e e73f 351b f23f a495 ed3f
00000040: 105e b63f f8fb d73f 9f7f de3f 2617 f93f
00000050: ff44 ef3f 4525 e73f bc7a af3f 7d16 f63f
00000060: ab51 ba3f 4abe e13f fb1e 0b40 b9b5 e13f
00000070: 4059 c63f 5ddc cb3f 4437 d43f 69d8 cb3f
1.6377261 1.7256969 1.3210372 1.7687213 1.8580775 1.5149642 1.9485987 1.8207843
1.800187 1.5396569 1.9158907 1.9173738 1.5445896 1.8075794 1.8914553 1.8561292
1.4247456 1.687377 1.7382697 1.9460189 1.8692931 1.8058249 1.370933 1.9225613
1.4556173 1.7636197 2.173766 1.7633582 1.5495987 1.5926625 1.6579366 1.5925418

in_proj_weight f4 [96, 32]
00000000: 792b e3bd d65e b9bd 2731 923d 5d35 273d
00000010: 804e dd3d d474 103e 5d68 14be 0567 493e
00000020: 333e 533c 974b 38be 08b1 fb3d dd0d fabd
00000030: 1b71 2a3e a5f9 d4bd 56bb bebd 7b9f b73d
00000040: ff9e 533e b7da 21be 8535 bb3d 1a91 2fbe
00000050: e28c 363e af0a e5bb 68b2 fa3d 2000 07be
00000060: 9e7b 853d 1dd6 323e c24a f33d 2c02 193e
00000070: 7cfb 1a3e 1cb6 4abd bc84 37be 6cb0 d13c
00000080: f23c 2bbe a464 58be 9753 b93d 9735 203e
00000090: 4fa0 423d 3b12 3fbe ffbc 843c c319 243e
000000a0: 09d9 e93c 0540 2fbe 6601 34bd a014 19be
000000b0: d8f4 5a3c bbfd d4bd 01e5 52be 2562 693d
000000c0: d5ef 6ebd 0948 4bbe 5d01 443e faa8 72bd
000000d0: 5cc8 3ebe e97d 9b3d f18b 373e 6322 dabd
000000e0: 9e1f 3cbe a111 ccbc 71d6 573e 5305 5b3e
000000f0: f00e b03d 34d9 4ebd 6906 063e 0a9f 623c
00000100: 34db d83c 559a 313d 8254 d0bd c117 bcbd
00000110: 9e27 eebd eec1 8dbd 8d29 223d 126d 363c
00000120: ac6a 3b3d 5e21 413e 412a 953c 8f0b f93d
00000130: 0b54 04bd 51a5 21be df38 d43d a7b7 563e
00000140: ca22 043e be7a 663c adb0 22bd 3c4c 43be
00000150: 03a5 2a3e ef7e 1f3e 8771 373d 6df5 94bc
00000160: 534b c93d 796a 09be 90b5 0c3e e333 33be
00000170: 6177 5a3e 1cb6 dfbd 78f6 e2bd dbfd b33c
00000180: b4bc 80bd dd37 6a3d 29bd 08be 992b 8cbd
00000190: ad89 f73b dbc2 8cbd 2a96 6fbd c905 d8ba
000001a0: d2da 423d 08e9 ea3d 1cbd 003e 3816 fe3d
000001b0: d109 d3bd 9653 10be bcfa 9fbd 4539 44be
000001c0: 5c48 30be ceb0 dc3d c2b7 05be 4e2e 09bc
000001d0: 6413 fb3d 2462 2f3e e8d8 883d a319 32bd
000001e0: 4184 75bd c9be 1d3e fd5c b5bd 90aa f83d
000001f0: 3698 e33d 8aa5 c6bd ea7b 1a3a 2b61 a03d
00000200: f5d9 2dbe 72b0 e83d 8c8c db3d cb4c 41be
00000210: 96cc 463e af24 4b3e a0b8 013e 8c13 c93d
00000220: 0936 133e b1cb 423c 58aa 883c 5551 92ba
00000230: 286a 40be f35c 1ebd 1818 033e 6e42 dfbb
00000240: 1cb4 5abe 5048 8e3d c434 853d 4c32 a63d
00000250: e7b5 aa3d f15a c93d 2025 e83d 75e7 933d
00000260: bca2 f4bd 9282 cbbd 1ab5 1d3e 6e04 b93d
00000270: 2b6f bebc 25b9 173e 99cd 6bbd 0478 9fbd
00000280: 5581 89bd c383 313e 5d58 13be 7eb8 9c3d
00000290: 94e3 a9bb ac88 7ebd 5698 3bbe 4ed5 083e
000002a0: 2063 a43d e2f4 033e 8737 2f3e f74d 2dbe
000002b0: d12e 003e 3bfc 233d 0e06 75bd 9223 3abe
000002c0: 83f5 1f3e 8055 c63c 781f 0b3e 16d7 69bd
000002d0: 0501 58bb 7730 2a3e aa15 99bd 833a 8fbd
000002e0: 7fa1 59bd e2fe 1abe 689d 113e 326f 343c
000002f0: a111 013d 1c47 033e cb55 36be 3b22 3bbe
00000300: 09b6 3dbe 67c8 813d 3f68 78bd a2e1 1e3e
00000310: 398f 123e 60b6 0bbe 1c7b d73c 5848 16be
00000320: 1651 a93d 0b5f ad3c ddc9 203d 8726 073d
00000330: 115a b33a 8522 3cbe 22f1 7bbc df4f c63d
00000340: 948d f3bd d7ac 573e 6d6b 843c bdb0 76bd
00000350: 0883 3bbc c2f3 cfbd e0c0 4e3c b5b8 3dbd
00000360: 0c3c 03bd f0a7 483e 0195 093e 9954 c7bb
00000370: 38b6 2fbe e77b 45be d68a 38be 3e23 22bd
00000380: afb5 56be b0e3 063e 2104 45be 513b f53c
00000390: e889 393e 3efd 1c3e 9bd4 ad3d aa29 e93c
000003a0: e130 b33d 6e37 3a3e 838b 4fbe ccd3 233d
000003b0: e4e8 06be a0c0 403e 7fe6 e13d 147d 13be
000003c0: 5628 bfbd 0846 313d abbf 53bd 26d9 3ebe
000003d0: f93d ccbd 6a2e e43d d8a9 90bc c640 9b3c
000003e0: 1c10 52be 7f72 04be cb02 d33d 7f10 993d
000003f0: a0b9 20be dd78 e1bd 6652 e2bd 4559 3c3e
-0.11092276 -0.09051292 0.07138281 0.040822376 0.10805988 0.14107066 -0.14492936 0.19668205
0.012893247 -0.17997585 0.122896254 -0.122096755 0.16644709 -0.103991784 -0.09313075 0.08965965
0.20666121 -0.1580609 0.091410674 -0.17145196 0.1782718 -0.006989799 0.122410595 -0.13183641
0.06517719 0.1746449 0.11879493 0.14942235 0.15134996 -0.04949008 -0.17921728 0.02559682
-0.16722468 -0.21132141 0.090491466 0.15645443 0.047516163 -0.18659298 0.016203402 0.16025452
0.028545873 -0.17114265 -0.043946646 -0.14949274 0.013364039 -0.10399958 -0.2059517 0.056978364
-0.05833419 -0.19851698 0.19141145 -0.05924318 -0.18631119 0.07592375 0.17924477 -0.1065109
-0.18371436 -0.02491075 0.21077897 0.2138875 0.08596599 -0.05050011 0.13088383 0.013831863
0.026471712 0.043360073 -0.101723686 -0.09184218 -0.1162865 -0.06921755 0.039590407 0.011134403
0.045756027 0.18860385 0.018208625 0.12160408 -0.032306712 -0.1578572 0.1036241 0.20968495
0.12903896 0.01406735 -0.039719272 -0.1907205 0.1666451 0.15575765 0.044786002 -0.018183434
0.0982882 -0.13419522 0.13741136 -0.17500262 0.21334602 -0.109234065 -0.110821664 0.021971634
-0.06285992 0.05718218 -0.13353409 -0.06844253 0.007554254 -0.06873103 -0.058492817 -0.0016481216
0.047571965 0.114702284 0.1257214 0.12406582 -0.10304607 -0.14094386 -0.07811496 -0.19162472
-0.17215103 0.1077591 -0.1305838 -0.008372856 0.12259558 0.17127281 0.066819966 -0.04348148
-0.05994058 0.1540481 -0.08855627 0.12141907 0.11113016 -0.09699543 0.00058930984 0.07831033
-0.16977675 0.11361779 0.107201666 -0.1887695 0.19413981 0.19838212 0.12668085 0.098181814
0.14376082 0.011889384 0.016682789 -0.0011163155 -0.18790495 -0.038662862 0.1280216 -0.006813339
-0.21357769 0.06947386 0.06504205 0.08115062 0.08335476 0.09831799 0.11335206 0.07221881
-0.119451016 -0.09937014 0.15401116 0.09034048 -0.023246368 0.14816721 -0.05756912 -0.07786563
-0.06714121 0.1733542 -0.14389177 0.076523766 -0.0051846 -0.06214206 -0.1831983 0.1336262
0.08026719 0.12886384 0.17111026 -0.16924272 0.12517859 0.040035468 -0.059820227 -0.18177631
0.15620999 0.024210691 0.13586223 -0.057089888 -0.0032959592 0.1662005 -0.07474835 -0.06993582
-0.05313253 -0.15136293 0.14220202 0.011012839 0.031510953 0.12820095 -0.17806165 -0.18274777
-0.18526472 0.06337052 -0.06064629 0.1551576 0.14312448 -0.1364379 0.02630382 -0.14676034
0.08267419 0.021163484 0.03925501 0.032995727 0.0013683458 -0.18372543 -0.015377315 0.09683203
-0.11892238 0.21062027 0.016164506 -0.060227145 -0.0114448145 -0.10153915 0.012619227 -0.04631873
-0.032039687 0.19595313 0.13435747 -0.006083083 -0.17159355 -0.19285546 -0.18021712 -0.03958439
-0.20967744 0.13172793 -0.19239856 0.02993551 0.18119013 0.15330979 0.08487817 0.02846225
0.08749557 0.18185207 -0.20268063 0.039996907 -0.13174778 0.1882348 0.11030292 -0.14403182
-0.09333865 0.043279678 -0.05169646 -0.18637523 -0.09972758 0.11141665 -0.017659113 0.018951785
-0.20513958 -0.12934302 0.10303267 0.074738495 -0.1569581 -0.11009381 -0.110508725 0.18393429

in_proj_bias f4 [96]
00000000: 0000 0000 0000 0000 0000 0000 0000 0000
00000010: 0000 0000 0000 0000 0000 0000 0000 0000
00000020: 0000 0000 0000 0000 0000 0000 0000 0000
00000030: 0000 0000 0000 0000 0000 0000 0000 0000
00000040: 0000 0000 0000 0000 0000 0000 0000 0000
00000050: 0000 0000 0000 0000 0000 0000 0000 0000
00000060: 0000 0000 0000 0000 0000 0000 0000 0000
00000070: 0000 0000 0000 0000 0000 0000 0000 0000
00000080: 0000 0000 0000 0000 0000 0000 0000 0000
00000090: 0000 0000 0000 0000 0000 0000 0000 0000
000000a0: 0000 0000 0000 0000 0000 0000 0000 0000
000000b0: 0000 0000 0000 0000 0000 0000 0000 0000
000000c0: 0000 0000 0000 0000 0000 0000 0000 0000
000000d0: 0000 0000 0000 0000 0000 0000 0000 0000
000000e0: 0000 0000 0000 0000 0000 0000 0000 0000
000000f0: 0000 0000 0000 0000 0000 0000 0000 0000
00000100: 0000 0000 0000 0000 0000 0000 0000 0000
00000110: 0000 0000 0000 0000 0000 0000 0000 0000
00000120: 0000 0000 0000 0000 0000 0000 0000 0000
00000130: 0000 0000 0000 0000 0000 0000 0000 0000
00000140: 0000 0000 0000 0000 0000 0000 0000 0000
00000150: 0000 0000 0000 0000 0000 0000 0000 0000
00000160: 0000 0000 0000 0000 0000 0000 0000 0000
00000170: 0000 0000 0000 0000 0000 0000 0000 0000
0.0 0.0 0.0 0.0 0.0 0.0 0.0 0.0
0.0 0.0 0.0 0.0 0.0 0.0 0.0 0.0
0.0 0.0 0.0 0.0 0.0 0.0 0.0 0.0
0.0 0.0 0.0 0.0 0.0 0.0 0.0 0.0
0.0 0.0 0.0 0.0 0.0 0.0 0.0 0.0
0.0 0.0 0.0 0.0 0.0 0.0 0.0 0.0
0.0 0.0 0.0 0.0 0.0 0.0 0.0 0.0
0.0 0.0 0.0 0.0 0.0 0.0 0.0 0.0
0.0 0.0 0.0 0.0 0.0 0.0 0.0 0.0
0.0 0.0 0.0 0.0 0.0 0.0 0.0 0.0
0.0 0.0 0.0 0.0 0.0 0.0 0.0 0.0
0.0 0.0 0.0 0.0 0.0 0.0 0.0 0.0

weight f4 [32, 32]
00000000: 3fb8 aa3d 3fcf ea3d d61a eaba b5c4 31be
00000010: 90cc a23d a94b e53d 088f 9cbc a05c f33d
00000020: 201a 8e3d cc5a 203d 4684 273e 2ba8 adbd
00000030: 3ef9 e63c ed45 08be 719d 1d3e 7f7c 673d
00000040: ace2 203e 8201 10be 0c85 1d3e 4f7f e23d
00000050: f49e 1d3e 0b5a a0bd 566f 14be b777 febc
00000060: b63d 0f3e 009e 313e d753 86bc 84af a43c
00000070: 9e99 83bc 8e37 67bc a846 f63c 6b79 a93d
00000080: 2678 27bd 57b5 0bbe 1259 a9bb 33d3 c73d
00000090: b4c4 11be 9894 293e 2f39 813d 7eb6 aa3d
000000a0: 2a3f af3d b548 f93d bfbc 1e3e 4da7 9fbd
000000b0: baf4 3d3d 0095 d93d be3a 33be f2af d13d
000000c0: 56c9 2dbe cd2e ecbd ce5b d4bd f6c6 f6bd
000000d0: 8813 02be c89b d53d ae46 1cbe 3ae0 afbd
000000e0: e163 29be 1032 8fbd b45f 2cba 408d 733d
000000f0: 83af babd 7513 003d 59f0 af3d 5da7 123e
00000100: b84f 0cbd 0ec9 f5bd 080b de3d 6460 82bd
00000110: ba33 2dbe 9a2f 8abd 74c9 e0bc b9ab 1f3d
00000120: 349a 093e e9aa e53d 16f7 9abd 72ac 123e
00000130: be4a 853d 5999 3a3d f42f 04be a2b1 f5bc
00000140: 6d4f 813d 0ae3 54bd 7663 993d 0708 a93d
00000150: 4a8d fcbd 3eac 123e 739a 953c 8bc7 40bc
00000160: f804 5bbc 8e2f 5fbc 5af1 a3bc 6962 72bd
00000170: fc0b d53c 6c3b 41bd 4790 123e efd0 77bd
00000180: fd1b 26be 6773 333e d2c1 d53d 89de 00be
00000190: 00f2 0e3e e39d 1dbe bb22 b4bd 9b96 bbbd
000001a0: d464 f03c 618e 443d 0cc2 93bd 6652 74bd
000001b0: 0430 c2bd 87b8 0a3e 4d4b b03d fa63 7f3c
000001c0: 1d70 1d3c 6030 343c 447c 26bd 30fe a3bd
000001d0: c603 233e e86e 8dbd f308 dfbd 0b79 90bc
000001e0: 2009 5f3d 84b0 1abe 8ce9 453d 6100 0abc
000001f0: 7745 a8bd b8ba b53c 7868 903c 3b8d 2ebe
00000200: 983c aa3d 04f8 893d 022a d0bd 24be 643d
00000210: 2ae1 bebd 9b9f 063e 67a3 a1bd ad9c 813d
00000220: 9bc9 693d d996 26bc 6cbc c6bd 32e0 ab3d
00000230: a49b 3b3d 5a2e a8bd 66ce c8bc 31cc 953d
00000240: e2b3 18be 8b0c d43c 1300 1a3d 896c 31be
00000250: ead5 d03c b9d1 0dbe b652 22be 07ed 1e3e
00000260: 401d ba3d 1996 013e b938 213e 9bff c2bd
00000270: cd96 9abd d5c6 b0b7 856e 913d 1efd 943c
00000280: 059c 84bc 98e1 343e e99f b0bd 535b a53d
00000290: 709c 953d 6728 afbd 6e06 ce3d 4370 f93d
000002a0: 2019 0fbd 7de9 f4bd a87e de3d bbeb 083e
000002b0: 2600 883d c8e1 b23c b4a2 b03d a48e 5e3d
000002c0: f754 5fbd 6b5a 05be 4f29 9ebd 8907 803d
000002d0: 998a 92bd b429 8a3d 5df0 bbbd 8e4b 08be
000002e0: 5b60 003e 45e8 e4bd c08f 5d3d 6563 193e
000002f0: be57 293c d13c e23d e57e 3fbd b81e 1cbe
00000300: 0323 adbd 0bd1 5ebd 707f d2bd a69f d9bd
00000310: 600b 9f3d e6ea 273e 34ea e63d c657 733d
00000320: d1e2 0fbe c86c f0bc 9b2d 853d 7936 1f3e
00000330: ab1e b1bd 8985 d63d 9dfb cf3d daf4 1dbd
00000340: e3f2 25be 9ee2 a63d df1c b93d ca9a 0fbe
00000350: 1507 0d3e 6994 2bbc 25da 07be 5458 7b3c
00000360: 952f cb3d 664b d23b e01f 0cbe 65a9 c2bd
00000370: 2c4f d53d c4c7 9a3d 7ac8 e73d 9835 853d
00000380: f37b ea3d b961 1ebd ed8a a83d e44d 4a3d
00000390: 6de4 fb3c d868 213e 9685 8dbd 4ec4 093e
000003a0: 57a1 8dbd fd31 113e 3a82 eebc 6145 083e
000003b0: 714d 6dbd ea34 6d3c 0089 1e3e 7f94 7cbc
000003c0: dff8 6dbc a45e 98bd 08be 013e 0e7d be3d
000003d0: d0ba 1fbd d412 41bd 698d 213e 1ca7 db3d
000003e0: deb1 123e 03cb bebd b4b6 88bd 874e edbd
000003f0: f691 05be 8eb9 9fbc b47a e8bb bf56 b6bd
0.083359234 0.1146531 -0.0017860781 -0.17360194 0.079491735 0.11196072 -0.019111171 0.11882901
0.06938577 0.03914909 0.16359052 -0.08479341 0.02819502 -0.13307925 0.1539209 0.056515213
0.15711468 -0.14063075 0.15382785 0.110594384 0.15392667 -0.07829674 -0.14495596 -0.031062944
0.13988385 0.17345428 -0.0163974 0.020103224 -0.016064461 -0.014112366 0.030062988 0.08275112
-0.040886067 -0.13643394 -0.0051680887 0.0975708 -0.14235193 0.1656059 0.06309735 0.08335589
0.085569695 0.12172071 0.15501688 -0.07795582 0.046375968 0.106241226 -0.17502877 0.10238637
-0.16971335 -0.11532364 -0.10369073 -0.120496675 -0.12702763 0.104301035 -0.15261337 -0.0858769
-0.16542007 -0.069919705 -0.000657554 0.05946088 -0.091155075 0.031268556 0.085907646 0.14321657
-0.034255713 -0.12001239 0.10841948 -0.06366041 -0.16914263 -0.067473605 -0.02743981 0.038982127
0.1343773 0.11214239 -0.07566659 0.14323595 0.065083966 0.0455564 -0.12908918 -0.029991928
0.063139774 -0.051974334 0.07489674 0.08253484 -0.12331636 0.14323518 0.018262124 -0.011766325
-0.013367884 -0.013622178 -0.020012546 -0.059175882 0.026006691 -0.04717581 0.1431285 -0.06050199
-0.16221614 0.17524491 0.10437359 -0.1258489 0.13959503 -0.1539226 -0.08795687 -0.09159585
0.029344954 0.047987346 -0.07214746 -0.059648894 -0.094818145 0.13546954 0.086081125 0.015587801
0.009609249 0.010997862 -0.040645853 -0.08007467 0.15919408 -0.06905919 -0.10890379 -0.017635843
0.05445206 -0.15106398 0.04831843 -0.008422942 -0.08216374 0.022183761 0.01762794 -0.17046063
0.083123386 0.06736758 -0.10164262 0.055845395 -0.093202904 0.13146822 -0.07892495 0.06328712
0.05707703 -0.010167801 -0.09703907 0.08392371 0.045802727 -0.08211966 -0.024512481 0.07314337
-0.1491237 0.025884887 0.037597727 -0.17326559 0.025492627 -0.13849534 -0.15851864 0.15520106
0.0908761 0.12654914 0.15744294 -0.09521409 -0.07548294 -2.1073423e-05 0.07101158 0.018187102
-0.016187677 0.17664182 -0.086242504 0.08074059 0.07305229 -0.08552628 0.1005982 0.12179615
-0.03493607 -0.11958597 0.108640015 0.13371174 0.06640653 0.021836177 0.08624783 0.05433525
-0.05452439 -0.13022773 -0.07722723 0.06251437 -0.07155342 0.067462355 -0.09176705 -0.13310072
0.12536757 -0.111771144 0.05409217 0.14979322 0.010335861 0.11046756 -0.046751875 -0.15246093
-0.084539436 -0.054398578 -0.10278213 -0.10626154 0.077658415 0.163982 0.112751395 0.05940988
-0.14051367 -0.029348746 0.06502839 0.15548123 -0.086484276 0.104746886 0.10155413 -0.038563587
-0.16205935 0.081486925 0.0903871 -0.14023891 0.13772233 -0.010472395 -0.1326681 0.015340883
0.09921185 0.0064176796 -0.13684034 -0.09504966 0.104154915 0.075576335 0.11317535 0.06504363
0.11449423 -0.038667414 0.08229623 0.04939069 0.03074857 0.15762651 -0.06910245 0.1345379
-0.06915539 0.14179225 -0.029114831 0.13307716 -0.057935182 0.014477948 0.15481949 -0.015416264
-0.0145246675 -0.07439926 0.12670147 0.09301196 -0.038996518 -0.047137097 0.157766 0.10725233
0.14325663 -0.09316065 -0.06675473 -0.115872435 -0.13043961 -0.019497659 -0.0070947055 -0.08903264

bias f4 [32]
00000000: 0000 0000 0000 0000 0000 0000 0000 0000
00000010: 0000 0000 0000 0000 0000 0000 0000 0000
00000020: 0000 0000 0000 0000 0000 0000 0000 0000
00000030: 0000 0000 0000 0000 0000 0000 0000 0000
00000040: 0000 0000 0000 0000 0000 0000 0000 0000
00000050: 0000 0000 0000 0000 0000 0000 0000 0000
00000060: 0000 0000 0000 0000 0000 0000 0000 0000
00000070: 0000 0000 0000 0000 0000 0000 0000 0000
0.0 0.0 0.0 0.0 0.0 0.0 0.0 0.0
0.0 0.0 0.0 0.0 0.0 0.0 0.0 0.0
0.0 0.0 0.0 0.0 0.0 0.0 0.0 0.0
0.0 0.0 0.0 0.0 0.0 0.0 0.0 0.0

weight f4 [32, 1, 4]
00000000: cdc4 10bf 5a37 6c3c 8bdf a9bc 47dc 16bc
00000010: 64a3 313c b075 083c 1d09 093f b6cf 7bbe
00000020: 454b e6bc ecb0 ac3e a1ba 80be d832 ee3d
00000030: 114a 06bf 3c9d 973e 3cb9 3d3e a867 dbbe
00000040: af64 e43e fb76 13be f560 793e ec57 0f3e
00000050: 1b81 7b3e ba6e 12be b362 1b3f b455 d2bd
00000060: bd0e 1fbf 87a9 433c b90a d1bc beba c93d
00000070: fce5 55be 0816 663d d945 0a3f e510 a9be
00000080: aa75 ba3e 5efe 033e d1da 81bd f4ff 113e
00000090: 3eac 813c 4cfa 163f 3b95 c7bb 09d7 08bd
000000a0: b491 013e fc48 21bd 3546 1dbf 563a ac3d
000000b0: 0e5c 40bf 98d5 dcba 16be 243c 56f2 b23d
000000c0: 9d03 11be ec45 073f 15ff 0a3e 23e3 8fbe
000000d0: 8f0c c8be 5975 9a3e d64d 8c3e d6ef 013f
000000e0: 1414 45bf b884 ffbc 3026 a3bd b5ab 4e3c
000000f0: 6e2b 23bc 201a 283f f7ba bd3c 2358 77bd
00000100: 7900 97bc b74b 273f 44f1 813d dd75 94be
00000110: 9736 b43c 93cd 8b3e e6d6 7dbc 345a a53e
00000120: 8144 3e3d b984 26bd fa10 1ebf 8859 303d
00000130: 4353 09bf 6e30 943c 84b0 0bbd f088 113d
00000140: 280c ebbe cf55 69bb aed7 27bd 779e 2c3d
00000150: 6754 653e 5691 48bd 21ed c13e 8dc5 99bd
00000160: 7905 dabc e54e 1f3f 01cd 1e3e 5b66 403d
00000170: 699a 083e 2895 423e 2ce9 36bf 193e 33be
00000180: f302 98bc d5e2 4f3d fbb2 693d 5b4d f33e
00000190: 7ee5 89be c2f9 6f3d 49a5 c8bd c056 093d
000001a0: 1742 253e aa62 023e e78a b2bc a47a edbd
000001b0: ff03 b73e 7c10 2fbc 450a 39bd 82a4 093d
000001c0: 9fd3 c13e 3dec b3be 9595 a6be a5c7 053d
000001d0: fe65 233f b02b ffbd 6715 84bd 5ce9 003d
000001e0: e07a 4ebf d955 913c 210d 253c b839 74bc
000001f0: a5e3 3abe 91d3 273e 38c5 19bf 7d6b d1bc
-0.56550294 0.014417494 -0.020736476 -0.009207792 0.010842178 0.00832884 0.5352953 -0.24590954
-0.028112063 0.3372873 -0.25142387 0.116307914 -0.52456766 0.29612148 0.18527693 -0.4285252
0.44608065 -0.14400856 0.24353392 0.13998383 0.24560969 -0.14300051 0.6069748 -0.10270253
-0.62131864 0.011942274 -0.025517808 0.09850071 -0.20888513 0.056173354 0.5401283 -0.33020702
0.36417896 0.12890002 -0.06340564 0.14257795 0.015829202 0.5897567 -0.0060907877 -0.0334082
0.12653238 -0.039376244 -0.6143525 0.08409564 -0.75140464 -0.0016848324 0.010055086 0.08737628
-0.14161535 0.5284107 0.13573869 -0.2810298 -0.3907208 0.30167654 0.27403134 0.50756586
-0.7698376 -0.031191215 -0.07966268 0.01261418 -0.009959085 0.65664864 0.02316044 -0.060386788
-0.018432843 0.65349907 0.06344846 -0.28996173 0.021998687 0.27305278 -0.01549313 0.32295382
0.04645205 -0.040653918 -0.61744654 0.043054134 -0.5364267 0.0180895 -0.034103885 0.035530984
-0.45907712 -0.0035604124 -0.040977173 0.04214331 0.22395478 -0.04896673 0.37876227 -0.07508383
-0.026613938 0.6222976 0.1550789 0.046972614 0.13340153 0.19002211 -0.7144954 -0.17504157
-0.018556094 0.050753433 0.057055455 0.47519955 -0.269329 0.058587797 -0.09797151 0.033529997
0.16138493 0.1273295 -0.02179475 -0.115956575 0.35745236 -0.0106850825 -0.04517581 0.033604153
0.37856767 -0.35141173 -0.32535997 0.0326611 0.638275 -0.124595046 -0.06449395 0.03147255
-0.8065624 0.01774113 0.010073931 -0.014906339 -0.18250902 0.163893 -0.60066557 -0.02556395

bias f4 [32]
00000000: 9720 58be 50a1 c4bd 8de3 3ebe c77a 68be
00000010: cd19 a13e c6b0 3cbc ed4e 853e fe57 8ebe
00000020: aab4 83bd 6ce8 acbe 32bd 7e3d ae45 233e
00000030: 1b16 05bc 4070 0d3e 6b37 96be 9e4a e3be
00000040: 3922 a6bd f5b1 063e 6f57 8fbd 6eac 883e
00000050: 0568 093e 0a5d b7bd b587 3b3d 7491 65bb
00000060: 3712 aa3e c52b dbbd 2f12 823e 3494 95bd
00000070: 69b3 dd3c c7dc 4bbe 56da f1bd 59b7 c2bb
-0.21106182 -0.096010804 -0.18641491 -0.22703086 0.31464997 -0.011516755 0.26036778 -0.27801508
-0.06430943 -0.33771074 0.06219215 0.1594455 -0.008122946 0.13812351 -0.29339156 -0.44392866
-0.08111996 0.13153823 -0.069990985 0.26694053 0.13418587 -0.08953293 0.045783717 -0.0035029324
0.33217022 -0.10701708 0.25404498 -0.07303658 0.027063088 -0.19908439 -0.118092224 -0.005942267

weight f4 [32]
00000000: 4a77 c33f ede4 803f 6c31 803f e234 853f
00000010: 41d3 8b3f b7b7 903f 12c1 b83f 34e6 613f
00000020: 6b72 863f 1594 bf3f fc83 813f 0114 ce3f
00000030: 9964 8b3f dc2f 5e3f f84b bc3f fcd1 b03f
00000040: b29b 893f 2f85 8b3f a9eb 8b3f a6a3 c93f
00000050: 86bb cf3f ffc9 893f e5ad 8c3f 22bc 833f
00000060: 56ad 753f 43bf 903f 60a2 743f 357c b73f
00000070: 93b8 813f 8b13 8d3f b749 c93f 5deb 833f
1.5270779 1.0069863 1.0015082 1.0406764 1.0923845 1.1306065 1.443392 0.8824189
1.0503668 1.4967066 1.0118403 1.6099855 1.0890075 0.8679178 1.4710684 1.3814082
1.075064 1.090002 1.0931293 1.5753067 1.6229103 1.0764769 1.0990568 1.0291789
0.95967615 1.1308368 0.95560265 1.433478 1.0134453 1.1021589 1.5725621 1.0306202

bias f4 [32]
00000000: 7764 42be a1b4 2bbe 4bff 85be 389d a9be
00000010: 459d 19be b219 2dbe 7c95 21be aa06 26be
00000020: 27be f1bc c1f7 4f3e e647 33be 8ebd 82bd
00000030: e249 bcbd b85d a1bd dc9b 29be d122 313e
00000040: 6b33 f6bc 63b1 1dbe 61af b7bd f096 39be
00000050: c05f 46be 983e 0abe aee1 813c b8f2 28be
00000060: 475c 9c3d a801 41be 6e02 f2bd 2bd5 ec3d
00000070: 2401 85be 502a 113c d6a7 1abe 9d56 36be
-0.18983637 -0.16768123 -0.26171336 -0.3312776 -0.150014 -0.16904333 -0.1577968 -0.1621348
-0.029509617 0.20309354 -0.17507896 -0.06383811 -0.091937795 -0.078792036 -0.16563362 0.17298438
-0.030053815 -0.15399699 -0.08968998 -0.18123984 -0.19372463 -0.1350044 0.015854683 -0.1649884
0.07634788 -0.18848288 -0.1181687 0.11564096 -0.25977433 0.008860186 -0.15103087 -0.17806478

running_mean f4 [32]
00000000: 9955 a8be 994d febc 44ce 18be 4861 a2be
00000010: 3756 e73e 6522 e53d 13b3 1a3e 69bb 86be
00000020: f6d9 543d 936a 5ebe 8a98 f2bc 3e81 d43c
00000030: 230d 433d c3ac 8e3e 9996 f0be 93bd a0be
00000040: e9c9 1d3c f731 823e fc72 3fbe 28e9 253e
00000050: b2b7 243d a5a2 043c 265e 5a3e 2e5b efbd
00000060: b07c e33e 1986 26be dab1 923e 6d5f aebb
00000070: d289 fcbc 761e d3bd 1dc2 8ebe c06d 0bbe
-0.32877806 -0.03104286 -0.14922434 -0.31714845 0.45182964 0.11188201 0.15107374 -0.26314858
0.051965676 -0.21720342 -0.029613752 0.025940534 0.04761995 0.27866182 -0.46989897 -0.31394634
0.009630659 0.25428745 -0.18696207 0.16202223 0.040214248 0.008095418 0.21324977 -0.11687313
0.44431067 -0.16262092 0.28651315 -0.0053214342 -0.030827437 -0.10308544 -0.27882472 -0.13616085

running_var f4 [32]
00000000: a30b 943e 00b7 8f3e ab66 0f3e b835 fa3e
00000010: b53c 7e3e 28ac b73e 0b5d b63e 0941 bd3e
00000020: e860 2c3e 397b ab3e ddff b93e 3d64 053f
00000030: 2cec bb3e f5d2 0a3f c211 0d3f 4ad4 d53e
00000040: ee38 fe3e a6e7 213e 8dd1 b53e c11e 853e
00000050: 6486 463e f4d4 263e fcc6 d53e 38f3 0c3f
00000060: 3d5b 573e c7b8 8f3d a35c 6d3d fe0f f43d
00000070: d732 b03e 8e17 be3e 2608 173f f995 b13e
0.28915128 0.28069305 0.14004008 0.4886911 0.24827845 0.35873532 0.3561786 0.3696368
0.16833842 0.3349245 0.3632802 0.52106076 0.36703622 0.54228145 0.5510522 0.41763526
0.4965281 0.15811023 0.35511437 0.26000026 0.19387203 0.16292173 0.41753376 0.5505862
0.21030898 0.07017665 0.057949673 0.11917113 0.34413788 0.37127346 0.5899681 0.34684733
