histories_pre_cls/04.29-18.50.31_64.26%_pt_LSTM_ATCNet_BcicIv2a_bs=064_lr=0.0010_ld=0.999891_nw=3/best_valid_loss.pt (torch, 300965 bytes, 88 tensors)

weight f4 [16, 1, 1, 129]
00000000: f6d5 f23b ab56 583d 27cc 9abd 2639 a8bd
00000010: 71eb 8ebd 0bd6 40bc 4506 95bc ec56 a03d
00000020: d920 1b3d 1210 b93d 0e96 333d 2e48 243d
00000030: e56e 22bd 6281 efbc 7841 2fbd cd17 2dbd
00000040: 90e2 e8bc d251 1a38 80c3 63bd d1a8 413c
00000050: 30cf bd3d a351 e03d 45ba d4bc 8e14 ca3c
00000060: 3e44 82bd 1d21 0ebd ff95 6c3d a25c 9fbd
00000070: a21e fabc 5110 f63c f70a 473d 961d 273e
00000080: 3666 7dbc e25b afbd 9873 32be 896e 58be
00000090: 8922 0ebe be9a 7e3d ecf2 f53d b5e1 4a3e
000000a0: bd60 383e 996c b83d 35c4 833d 6660 ffbd
000000b0: 47a2 35be 98b4 49be e174 bbbd 9ab7 4dbd
000000c0: 8a25 9abd 3960 f43c 512c 123e 39da 5e3e
000000d0: 1ac2 393e 1dfc f73d 2dbf 9c3d 847b 13be
000000e0: 22d9 22be e1a8 7dbe 9b24 31be d5a8 25bd
000000f0: b9af 163e adc2 4a3e e458 cf3d 63ad df3d
00000100: 948c 673d 8d16 55bd 8c55 86bd ded4 83bd
00000110: f977 21bd b7ae 473b e77e dbbd 3218 c3bc
00000120: 1560 ae3d bfb2 053e 5081 e63d 91c8 8d3d
00000130: a5bc 1ebd 6613 16be bd67 15bd a228 23bd
00000140: 8b41 e1bc db59 013e 95f7 c93d 7a4d 99bd
00000150: bd9c 57b9 5662 3abd 0eee 2bbd 765c 32bd
00000160: 268a 693d 964c bbbb e0c4 8d3d 5f18 543d
00000170: 7e24 503d 62b2 6b3c 290e eebd 4e5b d9bd
00000180: 1c58 a3bc 06e8 bdbc 406a 8cbd fcfd b4bc
00000190: 7d65 023e 428b d93d 2c14 56bb acbd 0bbc
000001a0: d23b a0bd 1691 2d3c 55e9 f4bc fd03 26bc
000001b0: 7390 663d 712f 3a3d 2603 13bd 5142 f53c
000001c0: 1a83 9abd 4492 7c3d 2e98 5c3d 068f 88bd
000001d0: 84b2 b1bc 7432 4dbb 3f29 a33c 28cb 473d
000001e0: 959d a83d bc02 383d dba7 38bd 1f0e c4bb
000001f0: 9d7b 0abe a4c0 8ebd 3d43 423c 9683 f93c
00000200: 2e0d 813d e16f 063c 86ba 383d a7a4 8c3d
00000210: 641a b6ba 3c6b 8e3d e76f 303e 9a4d 0c3e
00000220: 9bb7 2b3e 6d14 2e3e 1ffa 343e 6e2d 3a3e
00000230: d5f8 353e d2d8 063e 5395 203e 808c 7d3d
00000240: fce3 a8bc 40d5 2f3b d65f 843d b1cb 11bd
00000250: fba9 f2bd 3fef 33be d94a 56be d947 5dbe
00000260: 6306 17be aadd 62bd 5229 f5bc 2d7d 03be
00000270: 6b70 e23c 0290 cabd 2fa3 8cbd 15a1 ecbd
00000280: 02f1 d4bd 4c58 cfbd df33 2abe c3f0 2cbe
00000290: 7370 edbd 30bb b8bd a90e eabd 712c a3bc
000002a0: 1f62 efbd 525b 5abd 09d8 8f3b fb0d ffbd
000002b0: 5f28 aa39 75bf 72ba f382 8cbd d5dd b93d
000002c0: eb9b 223d eb57 2c3b 9f8f d63d 2a45 62bd
000002d0: 7dbb c83b 7890 04bd 1720 1b3d 4d4f 9d3a
000002e0: 4510 e23c 9223 003d 090e a4bb bc68 95bb
000002f0: 7a3a 6dbd ecb7 443d ab99 0a3d 4924 59bc
00000300: 728f 26be f847 c9bd 062a 0abe 7ff4 d1bd
00000310: 332b 8cbd 1bd7 3b3d 8b43 9fbc 5378 063d
00000320: 9ea2 eb3c af86 b13d a296 8ebc 0975 e43b
00000330: 7690 ab3c 770c dd3d 8ca6 02bc 6fa2 af3d
00000340: 9955 323d 889b b13c 0982 83bb fa4e 02bd
00000350: 197f c6bc d8f6 a2bd a381 8ebd 082b 6dbd
00000360: e2c3 ddbd e327 29bd adb9 d53d 1004 dfbc
00000370: 452d b63c 8279 cb3d 2faa 023d e53b 88bc
00000380: 2b6e acbd e9f4 5e3d a28a 15bd 1edf e93b
00000390: 4f07 653b 98a6 1f3d 69b4 893d 456f 113e
000003a0: 4d43 b43d 8e0c 113e c62a bd3d 5e1c 0abd
000003b0: e486 833d 0927 fabb 83ce 1f3d a553 053e
000003c0: 79f5 1e3e 8cb6 3d3e c4e4 a73d 2049 b13d
000003d0: 4835 c13d faf9 a8bd 861f ad3c 326c fcbd
000003e0: 5485 4cbd abc3 70bd b002 85bd 17bc 9b3c
000003f0: 7944 c83d 08bd 6ebb 1310 28bd 3c96 09bd
0.00741076 0.052817028 -0.0755847 -0.08214025 -0.06978501 -0.011769782 -0.018191466 0.07829079
0.037873123 0.09036268 0.043844275 0.0401079 -0.03965654 -0.0292365 -0.042787045 -0.042259026
-0.028428346 3.6792662e-05 -0.055606365 0.011820034 0.092680335 0.10953071 -0.025967726 0.024668004
-0.063606724 -0.034699548 0.057760235 -0.0778134 -0.030532185 0.030037077 0.04859444 0.1631988
-0.0154662635 -0.08562447 -0.17426908 -0.21135916 -0.13880362 0.062159292 0.12009224 0.19812663
0.18005653 0.09005088 0.06433908 -0.124695584 -0.17737685 -0.19697797 -0.09153152 -0.050223924
-0.07526691 0.029831039 0.14274718 0.21762933 0.1814045 0.12108634 0.076536514 -0.14402586
-0.15903142 -0.24771453 -0.1729912 -0.040444214 0.1471547 0.19800825 0.101243764 0.10921743
0.05653055 -0.05202346 -0.065592855 -0.064370856 -0.039421055 0.0030469128 -0.10717564 -0.023815248
0.0851442 0.13056467 0.11255133 0.06923021 -0.038754124 -0.14655837 -0.036475886 -0.039833672
-0.027497074 0.12631933 0.09861676 -0.074854806 -0.00020562387 -0.045503937 -0.041975074 -0.04354521
0.057016514 -0.005715917 0.069223166 0.051781055 0.05081605 0.0143857915 -0.116237946 -0.10613118
-0.019939475 -0.023181926 -0.06856203 -0.022093765 0.12734027 0.106222644 -0.0032665832 -0.008529108
-0.0782391 0.010593673 -0.029896418 -0.010132787 0.0562901 0.0454554 -0.035891674 0.029938849
-0.07544537 0.061662927 0.053856067 -0.066679046 -0.021691568 -0.003131059 0.019917129 0.04877773
0.082331814 0.044924483 -0.045081954 -0.0059831287 -0.13523717 -0.06970337 0.011856851 0.030458253
0.06301342 0.008205385 0.045099758 0.068673424 -0.0013893363 0.06954047 0.17230187 0.13701478
0.16769259 0.1699998 0.17673539 0.18181393 0.17770703 0.13168648 0.15681963 0.06190157
-0.020616524 0.0026829988 0.06463592 -0.035594646 -0.118488275 -0.17571734 -0.2092699 -0.21609439
-0.1474853 -0.055387177 -0.02992693 -0.1284072 0.027641496 -0.098907486 -0.06867062 -0.115541615
-0.10397531 -0.10124263 -0.1662135 -0.16888718 -0.115937136 -0.09020078 -0.114285775 -0.019918652
-0.11688637 -0.053309746 0.004389767 -0.124538384 0.00032455006 -0.00092600967 -0.06860914 0.09075514
0.039699476 0.002629752 0.10476612 -0.05524174 0.006125866 -0.03236434 0.0378724 0.0012001783
0.027595649 0.031283922 -0.005006556 -0.0045596045 -0.057917096 0.048026964 0.033837955 -0.01325328
-0.16265658 -0.0982818 -0.13492593 -0.10251712 -0.06844177 0.045859437 -0.019441387 0.032829594
0.028764065 0.08668267 -0.017405812 0.0069719595 0.020942908 0.10793393 -0.007974278 0.085759036
0.043538664 0.021680608 -0.004013304 -0.0318136 -0.024230527 -0.07957238 -0.0695832 -0.057902366
-0.10828377 -0.041297805 0.104358055 -0.027223617 0.022238383 0.09935285 0.03190058 -0.016630122
-0.0841945 0.054432783 -0.036509164 0.0071371933 0.0034946983 0.038977236 0.06723864 0.14202602
0.08801899 0.14164945 0.09236674 -0.03371846 0.06422213 -0.007634048 0.039015304 0.13020189
0.15523328 0.18526667 0.081979305 0.086565256 0.09433991 -0.08250804 0.021133196 -0.12325324
-0.04993184 -0.058780354 -0.06494653 0.019010587 0.09778685 -0.003642859 -0.041030955 -0.03359054

weight f4 [16]
00000000: 5e32 653f 67d7 843f e59b 743f 55b7 873f
00000010: 5acc 7d3f a734 7a3f 69e1 883f 7e2c 833f
00000020: 8896 7b3f bf04 783f 3011 6f3f 6a3d 7d3f
00000030: 8c0e 7a3f 4844 793f 9c76 823f 5d2a 843f
0.8952998 1.0378236 0.95550376 1.0602823 0.9913994 0.9773659 1.069379 1.0247953
0.9827657 0.9688224 0.933856 0.98921835 0.97678447 0.97369814 1.0192447 1.0325428

bias f4 [16]
00000000: 24d8 d6bc 99e0 70bd 3abf a43b 2fc4 a33d
00000010: e1b9 4b3c f0a5 21bc 1061 1fbd cfd6 34bd
00000020: 5dc5 28bd cd04 adbc f7cb 233d cbb4 b0bc
00000030: 6043 5cbd 21e2 f3bb 70fd 523c 5a09 b93b
-0.02622611 -0.058807943 0.005027679 0.079964034 0.012434454 -0.009866223 -0.038910925 -0.04415017
-0.041203845 -0.021120453 0.039989438 -0.021570584 -0.05377519 -0.007442728 0.012877807 0.0056468667

running_mean f4 [16]
00000000: d6b8 363b 7b27 adbd 93eb a23d fc19 52bb
00000010: fbc8 1c3d 7736 9f3c 4703 1b3d f588 0ebe
00000020: 3ef8 60bd 7ef3 853d 2ac9 603d 22e5 953e
00000030: b025 13bd 3557 91be 1403 833d a89b 5c3e
0.0027881167 -0.08454796 0.079550885 -0.0032058945 0.038277607 0.01943515 0.037844922 -0.13919432
-0.054924242 0.06540583 0.054879345 0.29276377 -0.035924613 -0.28386846 0.063970715 0.21543753

running_var f4 [16]
00000000: 0eda 753d 4b7d 2a3e dd9f 4d3e be81 1f3e
00000010: 4127 453d 0418 7f3d b506 ef3d 4a96 d23d
00000020: d83d 723e 5c56 293f 11f5 e63d 1e09 353e
00000030: 22a3 a73d 19ba 063e 7c65 053e 701e 223e
0.060022406 0.16649358 0.20080514 0.15576836 0.04813314 0.062278762 0.11671201 0.102825716
0.23656404 0.661474 0.112772115 0.17679259 0.08185412 0.13156928 0.13026994 0.15831923

weight f4 [32, 1, 22, 1]
00000000: 60b3 c93d 6d55 103d 6170 74be 90cf e43c
00000010: 5df5 a73d 3fd8 323e a9b4 bdba 7ca2 003e
00000020: a363 0abe 4ff7 5b3e d2c0 3a3e a43c 65be
00000030: 4571 c33d a8bc f4bc 2101 bf3d cc0f babd
00000040: b954 50be 265d b3be 22f1 0cbe b0e8 1c3e
00000050: c0c3 b33d 6c49 973d f948 15be 9488 b33a
00000060: ac42 10be cc47 d8bb 1704 283c da7b cc3d
00000070: d4b9 fbbd cd36 be3d d368 ea3d f29f 07be
00000080: 9611 2f3d a3be ae3d e286 0dbd 31e2 0f3f
00000090: 2371 0dbe 4d7c f3bd ab98 00be e883 8dbd
000000a0: 2d3b c93d 00b3 07bd 5a82 b93d 3924 b6bd
000000b0: a859 803d 8fac 353c 4488 91bd 2480 0abe
000000c0: 5761 783b 5eb9 733e 9e3a b4bd a5a9 6ebd
000000d0: 1b60 72be d6e4 23be 2b18 4a3e 2f5c fc3d
000000e0: 9de1 42bd 2342 193e b5ee 10be 287f 45bd
000000f0: c2c6 d9bc 992d 2c3e 14c7 303e 9add c63d
00000100: a246 b63d f531 8bbe 6bfb ebbd 8031 303e
00000110: 74ba b9bd 7c7a 803d 1b17 44be 1d91 093d
00000120: 0a3a 3d3e c2f7 22be 84b8 623e 7fc8 fb3d
00000130: 69f8 0dbe 4867 6d3e 47b4 e2bd d4c3 78be
00000140: 6454 18be a891 9bbb f32e 893d de87 31bc
00000150: ffef 78be 505a b0bc 8d14 453e 21ad 613e
00000160: 8ba3 153e 43ee ad3d db09 a13c 563e 81be
00000170: dd61 c23c 021e 44be e1fc 9bbd 6fda ce3c
00000180: b65e 563e 5f05 f2bc aa63 88bd a1df 0f3e
00000190: aa13 febd 7063 a7bd 2db8 a03d 5f3f 203d
000001a0: 2bd1 513d e24d 483e 075a 83be 133a 10be
000001b0: 6eb9 2c3e bbd4 983c e12f f8bd 0c5f 053e
000001c0: 6da3 153e 96d1 c5bc 28e5 adbd cd4e 63bd
000001d0: 8fc0 6fbc d39b b33b 25a5 083e 31ce 3bbe
000001e0: 7d24 adbd 45a8 723e 44b3 babc 3395 323d
000001f0: 13c7 6c3c 16e0 dfbd 663e a9bd 8267 ca3d
00000200: 9a38 83bd 9322 e5bd b12c ebba 84d6 243e
00000210: 00f2 63bd 1c52 173e 7b6c b13d 3a8b 58be
00000220: 3fad e73d c86d 0c3e 0c78 833c f9ed 493e
00000230: 850a 59be f7cd 803c e425 95be 8366 983d
00000240: ed56 3ebe 60f5 40be 262b 233d e426 16be
00000250: 297d c83d 0961 a9be 8be1 583e e833 173e
00000260: c832 c63d 32ee c4bd 1822 853c 0d6b 57be
00000270: ecfa 693e 32ca 223c 2285 243d 9367 bebc
00000280: 4eb8 093e 9455 85be 1121 453e f400 c1bd
00000290: caa9 1b3e c42a 8cbe 9cd8 323c 07cd 95bd
000002a0: 66b3 823d 80c8 f6bc 5e9c 9fbe b1c7 383d
000002b0: 4543 203e 8323 613d e8cd 853e baa8 2fbd
000002c0: 63bf 62bd 0c3a 793d 517e 46bd d80b 0ebe
000002d0: b71e 36be e7c5 c3bd 105d 0dbe fcbb ce3d
000002e0: 4abf 8d3d f18f 23be 3542 433c 179a bf3e
000002f0: edc5 db3d 37f3 203e 0c81 b8bd d180 71bd
00000300: 776c 393e ba4e dd3d 4f71 00be e2d4 1a3e
00000310: 3074 d7bd 32fb 67bd eb98 583e 3226 cabd
00000320: cee7 ab3d 0422 64be 311b f0bc 64dc cd3b
00000330: edc7 55be a7c1 9fbe 152b 1c3e 9396 2a3e
00000340: 7901 bc3d e55a 163c 3d94 70bd c5f2 c53c
00000350: edb7 663c 33d0 ccbb fb08 d83d 2219 56bc
00000360: 8cd2 0c3e a8c8 a43d 82b1 f8bd 4cb8 853a
00000370: 7547 c1bd 4206 78be 950a 9abe 919d 8f3d
00000380: 1962 2fbd ffc9 e33d 0e30 adbc ca57 493e
00000390: e992 083e 558a 86bd d940 683d a257 873d
000003a0: 8324 c8bc 8a41 a53e 1ffe 183e b481 95be
000003b0: 938a 53bd 09fd 56bd c94c 72bc 6def e03d
000003c0: 3d55 df3c 2925 41bd 5ebf 583e 82ce 3c3d
000003d0: f591 563e 1a25 463b 112c acbd 9623 8e3c
000003e0: d373 e53d bb3f 44bd 6f40 42bd 994d ebbd
000003f0: 0c9a 043d 7008 c7bd 4543 983c 32c7 b2be
0.09848666 0.03523772 -0.23870994 0.027931005 0.08201096 0.17465304 -0.0014473397 0.12561983
-0.13514571 0.2148106 0.18237618 -0.22386414 0.09543089 -0.029875115 0.09326387 -0.09085044
-0.20344819 -0.35032004 -0.1376386 0.15323138 0.08777571 0.07387051 -0.14578618 0.001369732
-0.14087933 -0.0066003557 0.010254881 0.0998456 -0.12291303 0.09287796 0.11445775 -0.13244608
0.04274138 0.08532455 -0.034552462 0.56204516 -0.1381269 -0.11888943 -0.12558238 -0.06909925
0.0982574 -0.033129692 0.09058066 -0.08893628 0.062671006 0.011088504 -0.07106069 -0.13525444
0.0037899816 0.2380118 -0.08800243 -0.058267254 -0.23669474 -0.16005263 0.19735782 0.1232227
-0.047578443 0.14966635 -0.1415356 -0.04821697 -0.026584033 0.16814269 0.17263442 0.09710236
0.08900191 -0.27186552 -0.115225635 0.17206383 -0.09068766 0.06273362 -0.19149439 0.033585656
0.18479171 -0.15914825 0.221407 0.12294101 -0.13864292 0.2318393 -0.110695414 -0.24293453
-0.14875942 -0.004747588 0.06698408 -0.010835616 -0.24310301 -0.02152744 0.19246121 0.220387
0.14613168 0.084927104 0.01965802 -0.2524287 0.023728305 -0.19152072 -0.07616592 0.025250642
0.20934567 -0.029543577 -0.066596344 0.14050151 -0.12406094 -0.08173263 0.07847629 0.039122935
0.05122487 0.1956096 -0.25654623 -0.14084654 0.16867611 0.018656125 -0.12118507 0.13024539
0.14613123 -0.02414779 -0.08490974 -0.055495072 -0.014633312 0.005481222 0.13344248 -0.18340375
-0.08454225 0.23697002 -0.022790559 0.04359932 0.01445176 -0.10931413 -0.08263855 0.09883024
-0.0640728 -0.11188235 -0.0017942396 0.16097456 -0.05565071 0.14777416 0.08663269 -0.2114686
0.11312341 0.13713753 0.016048454 0.19719686 -0.21195419 0.015723212 -0.2913047 0.074414276
-0.18587847 -0.18843603 0.03983607 -0.14663273 0.097894974 -0.33081844 0.21179788 0.14765894
0.096776545 -0.09615745 0.016251609 -0.2103693 0.22849625 0.009935902 0.040166028 -0.023242747
0.13449213 -0.26041853 0.19250895 -0.0942401 0.15201488 -0.27376378 0.0109159015 -0.073144965
0.06381874 -0.030124903 -0.31173986 0.045112316 0.15650661 0.054965507 0.26133657 -0.04288552
-0.0553583 0.060846373 -0.04846031 -0.13871706 -0.17785154 -0.09559231 -0.13805032 0.10094449
0.06921251 -0.15972878 0.01191764 0.3742225 0.10731111 0.15717779 -0.09008989 -0.05896074
0.18107782 0.108060315 -0.12543224 0.15120271 -0.10520208 -0.056636043 0.21152084 -0.098705664
0.083938226 -0.22278601 -0.02930984 0.006282376 -0.20877047 -0.31202433 0.1525081 0.16659002
0.091799684 0.009176944 -0.05873512 0.024163613 0.014081937 -0.006250405 0.10548588 -0.013067516
0.13752192 0.08046085 -0.12143232 0.001020202 -0.094374575 -0.24221137 -0.30086198 0.07012475
-0.042818163 0.11122512 -0.021141078 0.19662395 0.13337292 -0.065693535 0.05670247 0.066085115
-0.024431473 0.32276565 0.1494069 -0.29200518 -0.051645827 -0.052487407 -0.014788815 0.10983167
0.027262324 -0.04715458 0.21166751 0.04609538 0.20954116 0.0030234517 -0.084068425 0.017350953
0.11203732 -0.04791234 -0.04742473 -0.1148941 0.032373473 -0.09718406 0.018586764 -0.349176

bias f4 [32]
00000000: b81e 1e3d 30ee 57bd e2b1 13be 4b0e bb3d
00000010: c36c 2fbe 5b99 9d3c 1207 b8bd edb2 223e
00000020: d253 093e 79cd 143e 3ec0 44bc 9a18 be3d
00000030: ab34 9cbe da67 463e a3f7 9fbd 13f6 c73d
00000040: ca62 cdbc 7ddd f7bd 39a1 40be 592b 233e
00000050: 04df 01be 90fc 02be 7e5d 793d 2497 753d
00000060: a768 84be 3cf4 43be c86c 1ebe 17ea 303e
00000070: 508d 36be 49ab 0e3e 1673 2b3e 7b90 b4bd
0.038603514 -0.052717388 -0.14423326 0.091335855 -0.17131333 0.019238165 -0.089857236 0.15888567
0.13410881 0.14531507 -0.012008725 0.09282036 -0.30508932 0.19375554 -0.07810905 0.09763732
-0.02507152 -0.121027924 -0.18811502 0.15934505 -0.1268273 -0.12791657 0.060880177 0.059958592
-0.25861093 -0.19136137 -0.15471184 0.17276798 -0.17827344 0.13932528 0.1674312 -0.0881662

weight f4 [32]
00000000: dbf0 b53f 243e bc3f b0a2 843f e744 803f
00000010: e3b7 5a3f 25aa 663f c8cf 533f e719 7d3f
00000020: e199 b73f b3b6 943f c2d5 9c3f 26b0 983f
00000030: 1902 993f b49e 883f 64b3 8e3f e1f8 913f
00000040: 343e 673f 471a 503f 9e2a 643f 44f4 333f
00000050: 9e5f 8c3f 6351 b03f 6aa7 713f 6a7f 803f
00000060: c5f0 b13f 49ab 973f 1b34 8a3f 3968 923f
00000070: 72bd a13f 0e1c 8a3f 8f3e 973f 69f0 883f
1.4214128 1.4706464 1.0362148 1.0021027 0.8543684 0.9010337 0.82738924 0.9886765
1.4343835 1.1618255 1.2252734 1.1928756 1.1953765 1.0673432 1.1148496 1.1404077
0.9032929 0.81290096 0.8912753 0.70294595 1.096668 1.3774837 0.9439608 1.0038884
1.3901602 1.1849147 1.0797151 1.1438056 1.2635939 1.0789812 1.1815966 1.0698367

bias f4 [32]
00000000: deaa 8abe e329 67be a3ab 3abe fed1 0bbe
00000010: 1c3f cebd ac0a 033d 608d cfbc f7be 86be
00000020: a925 8ebe f321 50be c972 2abe d6f8 53be
00000030: 837a 70be 5f5a 8cbe 5d57 f6bd 816f 58be
00000040: 0aa9 10be 930e fcbd cdd7 a4be bf3c 1abe
00000050: 17c0 23be a270 58be 4555 19be bb16 5dbe
00000060: d2a6 7ebe 8689 8fbe b84f 2bbe 94c8 f5bd
00000070: 686d 80be 7b8e 40be 13ec 98be 5632 3dbe
-0.27083486 -0.22574572 -0.18229537 -0.13654324 -0.10070631 0.0319926 -0.025335968 -0.2631757
-0.27763107 -0.2032545 -0.1664535 -0.20700392 -0.23484235 -0.27412698 -0.12028382 -0.21136285
-0.14126983 -0.12307467 -0.32195893 -0.15062235 -0.15991245 -0.21136716 -0.14973934 -0.21590702
-0.24868324 -0.2803461 -0.16729629 -0.12001148 -0.2508347 -0.18804352 -0.2986761 -0.18476233

running_mean f4 [32]
00000000: 277d 183d a935 59bd d81e 14be 5c21 b83d
00000010: 416d 2fbe 3e12 a03c 6af5 efbd 02d0 273e
00000020: d1de 0a3e 4315 143e f4fc 31bc 1eb6 bc3d
00000030: fb5c 9bbe fcef 473e 5049 abbd 558a da3d
00000040: be02 03bd 5f36 f8bd 1ef6 3fbe 234b 283e
00000050: 85f8 03be 7bee 06be e502 793d c358 5e3d
00000060: 15e2 86be 4c49 46be bcb8 20be cd9a 2f3e
00000070: f1d5 3abe 0e2b 123e dfc8 283e 64d8 bfbd
0.03722873 -0.05302969 -0.14464891 0.08990738 -0.17131521 0.019539949 -0.11716731 0.16387942
0.1356156 0.14461236 -0.010863531 0.092144236 -0.30344376 0.1952514 -0.083635926 0.10670916
-0.031985037 -0.121197455 -0.1874623 0.16434912 -0.12887771 -0.1317691 0.060793776 0.05428387
-0.26344362 -0.19363898 -0.1569547 0.17148896 -0.18245675 0.14274237 0.16482876 -0.09367445

running_var f4 [32]
00000000: 462a 493d 96d7 ea3d 8f47 353d d74f 943c
00000010: c5de d93b 4bcd ea3b 96c4 193e c2a2 993c
00000020: e3c4 043e df0b a23d 7a07 ed3d f626 e93d
00000030: 8179 e83c 3c2e b23d b0e6 8a3c 1222 163d
00000040: 46f5 423d 67c8 d43b fd7d 0e3c 1b46 2b3c
00000050: 5f72 113d 4f1a 263d 7b0a 1d3d 8780 673d
00000060: 0506 7a3d 468b 9c3d f563 ce3d 0590 d03d
00000070: f406 a33d b147 1c3d b61b 2a3e 3987 323d
0.04911258 0.11466901 0.044257697 0.018104477 0.0066488707 0.007165586 0.15016398 0.018754367
0.12965731 0.079124205 0.11573692 0.11384384 0.02837825 0.08700225 0.016955703 0.036653586
0.047597192 0.0064936164 0.00869703 0.010453726 0.035509463 0.040552434 0.038340073 0.056519058
0.061040897 0.07643752 0.10077659 0.101837195 0.079603106 0.038154308 0.16612133 0.04358599

weight f4 [32, 32, 1, 16]
00000000: ddd9 ad3c 55b6 1b3c d04f 243d c527 40bc
00000010: 1282 2dbd 3563 ddbd 186a 49bd 1cf3 3cbd
00000020: dfd0 e6bc cd00 71bc 96b2 d2bd 9b30 8abd
00000030: 956c 05be 75ec 98bd 7a1e 39bd 11cd 4bbd
00000040: 0a56 173c f9fe 2c3d 074a 913d fe74 e63d
00000050: fe1b 28bc 5b00 863d 25cb 273e e09b ec3d
00000060: cd60 b73d b66d 11bc 42d8 e5bd a0a9 35bd
00000070: 8ee8 8abd 7477 60bc 9f98 54bc a894 7fbd
00000080: 5526 50bd 83ee 05bd 0d09 d6bc 6579 c93b
00000090: aebc ed3c 8bec 96bc 7bc6 0bbb 7ff2 a3bb
000000a0: 72ed a83d f5e5 a73d f8fa 323d 8fa6 1f3d
000000b0: 8320 60bc 7c50 3ebd 8793 833d 410d 1d3e
000000c0: 4cac 1e3e 1288 9abd 8361 04be 9f7f 6abd
000000d0: 187c 02be 43d8 06bc 2312 f73c f7c2 85bd
000000e0: 18b0 8cba 0026 babc e80f bdba 5bb4 48bd
000000f0: 6fcb e0bd b70a 973c ff60 913d 4b54 d4bc
00000100: 6f39 123c e1ea 983d 4bb2 053d ea10 b03c
00000110: 890b 453d ef7e ba3d 9b18 9a3d b732 bb3c
00000120: 1248 733d 8ca7 933d acac bebd 495a abbd
00000130: b11a 273c cc39 c83d 546c 233e 4a0b 3d3d
00000140: 0225 5b3d caea ed3d ddd1 063d 9e4f 453b
00000150: 7d5a 4d3c fd23 043d cdcf 00bd c83e 39bd
00000160: 349d 09bd 1d89 9cbd 36b9 9d3c 1813 f03c
00000170: 9dee d73c 415f fd3c daf8 afbc e19a 2f3c
00000180: 0971 6d3b 1457 303d 98cf f03d 9ba1 e23d
00000190: 2a39 c63d 727c 803d 1860 20bb d101 b73c
000001a0: bce2 cbbc 4b6f 72bd a251 abbc 5232 f6bc
000001b0: 0083 113c ce48 8dbc fd34 56bc ac24 393c
000001c0: 183b eebc f2da 87bd 110b 09bd 96d1 113d
000001d0: 6dcc ca3b 6093 ae3d e696 07bd 4cc9 943d
000001e0: 72b5 e03c 3bd8 01bd 013b 3dbb 0337 15bc
000001f0: acc2 01bd 907a fdbc e40a 643b db31 033e
00000200: 4edf c4bd 2e63 1ebc 3573 383d 16ee 4b3d
00000210: fd07 b13c cf90 b0bd 1927 fabd fc84 d2bd
00000220: 412f b73b b79c 9d3c 2b85 26bd a7ad 51bd
00000230: 2b03 05be 41e9 2abc bdcb 9fbd 936e 27bd
00000240: 660e 113e 28d2 cd3d 16be bd3d c0eb 703d
00000250: b956 d83d 4ca2 b43d d974 8abd d3cf bebc
00000260: 2126 3a3d 166b a7bc 796c e33d d072 4f3d
00000270: 6143 81bd f310 d1bd ebc0 83bd 62f9 663c
00000280: f1fd fd3d bee2 6d3c da7c 3f3d 2ac7 d43d
00000290: ee77 d73d 189e 6e3d 7cbd c4bc 64cc 6dbd
000002a0: 97a2 3a3d 251e 3d3d f065 273e 3585 383e
000002b0: efda a53d deb3 673d 4913 0bbd a57e 02be
000002c0: bc9b b03d 3abf 063e c414 c83d 9152 823d
000002d0: 5237 8d3d 969f 133d ab11 08bd adb6 5abd
000002e0: faa5 0a3a 4476 0b3e aea5 053e a77d 7e3d
000002f0: a0f3 2f3d c6d2 7d3d 14f1 a43c 99be c0bc
00000300: 28e2 473e 6906 f23c 5629 003e 8b60 ff3d
00000310: 100b 483e 589f 823d ed23 3339 7a97 973d
00000320: 8def 373c da71 4ebd ab31 93bd ea52 9fbd
00000330: 1c1c 4ebe bfea 96be 9283 8abe a465 2dbe
00000340: 9435 b63d 360a f9b9 8079 d63c e3c2 b63d
00000350: 433f 3c3c c525 033e 89b4 91bd 5796 af3b
00000360: 93c8 3cbc 47eb d7bd c365 18bd 03e2 6f3c
00000370: 87a9 11bd 5290 1ebd e2cf 3abd fba1 abbc
00000380: 8bc6 f63d e731 9b3d 3a66 4b3e 20cd 433d
00000390: b784 0e3d 2042 c7bd d625 88bc b53d e9bc
000003a0: 8773 91bd fc56 38be 9719 f3bd 308c 523c
000003b0: 3c77 983d 54b5 89bc 75e3 55bd 9dd3 a9bd
000003c0: 00b8 1ebd c5bc cf3b e66a 0d3d 64e8 3d3d
000003d0: 0732 eb3c 4a13 343d 5a70 a63d ee4c 933c
000003e0: 8961 c9bc 66f3 cfbd ce7e 75bd a384 b7bc
000003f0: e3d3 17bd 0841 b73c 5205 863d 24b6 a43c
0.02122205 0.009503921 0.040115178 -0.011728232 -0.042360373 -0.10809938 -0.049173445 -0.046130285
-0.02817577 -0.014709664 -0.10287969 -0.06747552 -0.13029702 -0.074669756 -0.04519508 -0.049756113
0.009236822 0.04223535 0.07094198 0.11252783 -0.01026058 0.065430366 0.16386087 0.11553168
0.0895401 -0.008876255 -0.112228885 -0.04435122 -0.067826375 -0.013700355 -0.012975841 -0.06239763
-0.050817806 -0.032698166 -0.026127363 0.0061485046 0.029020634 -0.01842334 -0.002132802 -0.005003273
0.08248414 0.08198158 0.043696374 0.038977202 -0.013679626 -0.046463475 0.06424623 0.15337087
0.15495414 -0.075454846 -0.12927823 -0.057250615 -0.1274265 -0.008230272 0.030160015 -0.06531327
-0.0010733632 -0.022723198 -0.0014424296 -0.049000125 -0.10976302 0.018437726 0.07098579 -0.0259191
0.008924826 0.074666746 0.032640737 0.02149244 0.048106704 0.09106242 0.07524224 0.022851331
0.059394903 0.072096914 -0.09310278 -0.0836683 0.010199235 0.09776649 0.15959293 0.046153344
0.05350209 0.11617048 0.032914985 0.003010727 0.012533781 0.032260884 -0.031448174 -0.04522589
-0.033597186 -0.0764334 0.019253355 0.02930598 0.026358897 0.03092921 -0.021480966 0.010718078
0.0036230704 0.043051794 0.11758345 0.1106598 0.09678872 0.06273736 -0.002447134 0.022339733
-0.024888389 -0.05918817 -0.020912949 -0.030053291 0.0088813305 -0.01724663 -0.013074157 0.011300247
-0.029080912 -0.066335574 -0.03345782 0.035600267 0.0061889202 0.08524203 -0.033102892 0.07264957
0.02743027 -0.031700354 -0.002887428 -0.009107354 -0.031679794 -0.030942231 0.003479653 0.12811987
-0.096129045 -0.009667201 0.045031745 0.049787603 0.021610254 -0.0862137 -0.122144885 -0.10279271
0.00559035 0.019239767 -0.040654343 -0.051191 -0.1298949 -0.010431589 -0.07802532 -0.040876936
0.14165649 0.1004985 0.09264772 0.05881858 0.10563416 0.08820018 -0.06760568 -0.023292458
0.04544652 -0.020436805 0.11104674 0.050646603 -0.0631168 -0.10208311 -0.064332806 0.014097543
0.12401951 0.014519392 0.046749927 0.1038955 0.10520922 0.05825624 -0.024016134 -0.05805625
0.045565214 0.046171326 0.1634748 0.18019564 0.08098399 0.05656802 -0.03395394 -0.12743624
0.08623454 0.13158885 0.09769586 0.063634045 0.06895317 0.036040865 -0.033219974 -0.05339687
0.00052890147 0.13619334 0.13051483 0.06213155 0.04295695 0.061968587 0.020134486 -0.023528384
0.19519866 0.029544072 0.12515768 0.12469586 0.1953547 0.06378049 0.00017084154 0.07401939
0.011226547 -0.050401546 -0.07187208 -0.077794865 -0.2012791 -0.29475972 -0.27053505 -0.16933304
0.08896938 -0.0004750059 0.026180983 0.089238904 0.011489692 0.12807377 -0.071145125 0.005358498
-0.01152243 -0.105429225 -0.037206423 0.014641288 -0.035562064 -0.038711853 -0.04560841 -0.020951262
0.12049588 0.075778775 0.19863215 0.047803044 0.034794535 -0.09729409 -0.016619604 -0.028471807
-0.07102113 -0.18001932 -0.11870115 0.012850806 0.07444617 -0.016810097 -0.052218873 -0.08292315
-0.038749695 0.0063396418 0.034525774 0.046364203 0.028710378 0.043963708 0.08126898 0.017981019
-0.024582641 -0.101538464 -0.059935383 -0.022402113 -0.037067305 0.022369877 0.065439835 0.020106383

weight f4 [32]
00000000: 110c b13f 94c3 b83f f0f7 ca3f f7b4 b73f
00000010: 4d10 c83f da88 c53f 21ac a23f 633b a73f
00000020: 11bb b73f 743c bb3f dd99 c93f 46b7 ad3f
00000030: 105c ba3f c645 b63f 04aa b83f 62fa a53f
00000040: c2cb b73f 2e59 c43f 784c a83f a414 a23f
00000050: f391 ab3f ce65 a03f 9dbf be3f e359 bd3f
00000060: bde0 c53f 50d2 ae3f d89d b33f a83e b33f
00000070: eb06 c53f 1855 bb3f 94c2 c53f a5f9 ec3f
1.3831807 1.4434686 1.5856915 1.4352101 1.5629975 1.5432389 1.270878 1.3064998
1.4353963 1.4627824 1.575008 1.3571556 1.4559345 1.4240043 1.4426885 1.2967036
1.4359057 1.5339715 1.3148336 1.2662549 1.3403915 1.2531068 1.4902226 1.4793056
1.545921 1.3657932 1.4032545 1.4003496 1.5392736 1.4635344 1.5450006 1.8513685

bias f4 [32]
00000000: a0a7 19be c3f1 17be f897 a9be cc27 98be
00000010: bcd9 9bbe 1ba7 0bbe cf97 5fbe 4b4d 83be
00000020: 3b3e 55be 56cd a1be e74e 26be 02cc 35be
00000030: d5f4 70be cdd8 4cbe 0598 75be f38c 81be
00000040: fa3c 91be 2f88 4fbe 8948 d0bd 3989 7abe
00000050: c5b6 35be ed96 e1bd c0eb 9cbe a888 62be
00000060: 473e 82be 242d 43be cd70 90be 845c 97be
00000070: 1d9b a7be e9a5 5ebe d8fb 63be a1bc 8dbe
-0.1500535 -0.14838319 -0.33123755 -0.29717863 -0.30439556 -0.13637964 -0.21835254 -0.25644907
-0.2082452 -0.3160197 -0.16241036 -0.17753604 -0.23530896 -0.20004578 -0.23983772 -0.25302848
-0.28366834 -0.20266794 -0.10170085 -0.24466409 -0.17745502 -0.11015115 -0.30648613 -0.22122443
-0.2543814 -0.19060189 -0.2821106 -0.2956277 -0.3273553 -0.21742977 -0.2226404 -0.27682975

running_mean f4 [32]
00000000: 8656 373d 3d1f d2bc 57d3 76bc 97d7 aabd
00000010: be0c 42bd 680c aa3d 2cf0 b4bd e103 47be
00000020: ffc6 bd3d 4877 bcbe 40bf ebbd 70c4 50bd
00000030: 766f 00be 24d4 bdbc b82f fe3c f91c a93e
00000040: 75ff 6f3c 3b91 b0bd 5caf 5f3c 4637 06be
00000050: 1ae2 d33d c208 b3bd b0bd 603d d7c3 27be
00000060: 90ac cfbd 190d 4bbd 79fd b3be dc07 1ebe
00000070: ff4f c5bc 230d d8bc c799 eebc b90d 84be
0.04476025 -0.025649661 -0.015065036 -0.08341902 -0.047375433 0.083031476 -0.08834872 -0.19435073
0.09266471 -0.36809754 -0.115110874 -0.050968587 -0.12542519 -0.023172446 0.031028613 0.33029917
0.014648308 -0.086214505 0.013652649 -0.13107023 0.1034586 -0.08741905 0.0548684 -0.163833
-0.101403356 -0.049573038 -0.35154322 -0.15432686 -0.024085997 -0.026373452 -0.029126061 -0.2579172

running_var f4 [32]
00000000: 8e33 d13f 6ffd d83f 4e76 ad3f 984c dd3f
00000010: ef71 ea3f 98e6 c43f 9834 f53f 1ae9 e73f
00000020: b408 e63f bb27 c63f 7b4a f33f ae62 f83f
00000030: 5e2d ca3f 1523 eb3f 8f71 f63f 9769 f83f
00000040: 3c8a b13f 9fbc d83f 2f30 de3f 707d f53f
00000050: 254c f33f da7a eb3f e9ca ab3f df53 ff3f
00000060: 2103 bd3f ba31 e93f ceaf 0d40 c357 e13f
00000070: 83c2 c53f 7409 c73f 9e2e ce3f 4ea7 d23f
1.6343858 1.6952342 1.3551729 1.7289 1.831602 1.5382872 1.9156675 1.8118012
1.7971406 1.5480875 1.9007105 1.9405115 1.5795095 1.8370081 1.9253405 1.9407223
1.3870311 1.6932563 1.7358454 1.9178905 1.9007612 1.8396866 1.3421298 1.994747
1.476658 1.82183 2.2138553 1.7604908 1.5449985 1.554976 1.6107976 1.6457307

in_proj_weight f4 [96, 32]
00000000: 792b e3bd d65e b9bd 2731 923d 5d35 273d
00000010: 804e dd3d d474 103e 5d68 14be 0567 493e
00000020: 333e 533c 974b 38be 08b1 fb3d dd0d fabd
00000030: 1b71 2a3e a5f9 d4bd 56bb bebd 7b9f b73d
00000040: ff9e 533e b7da 21be 8535 bb3d 1a91 2fbe
00000050: e28c 363e af0a e5bb 68b2 fa3d 2000 07be
00000060: 9e7b 853d 1dd6 323e c24a f33d 2c02 193e
00000070: 7cfb 1a3e 1cb6 4abd bc84 37be 6cb0 d13c
00000080: f23c 2bbe a464 58be 9753 b93d 9735 203e
00000090: 4fa0 423d 3b12 3fbe ffbc 843c c319 243e
000000a0: 09d9 e93c 0540 2fbe 6601 34bd a014 19be
000000b0: d8f4 5a3c bbfd d4bd 01e5 52be 2562 693d
000000c0: d5ef 6ebd 0948 4bbe 5d01 443e faa8 72bd
000000d0: 5cc8 3ebe e97d 9b3d f18b 373e 6322 dabd
000000e0: 9e1f 3cbe a111 ccbc 71d6 573e 5305 5b3e
000000f0: f00e b03d 34d9 4ebd 6906 063e 0a9f 623c
00000100: 34db d83c 559a 313d 8254 d0bd c117 bcbd
00000110: 9e27 eebd eec1 8dbd 8d29 223d 126d 363c
00000120: ac6a 3b3d 5e21 413e 412a 953c 8f0b f93d
00000130: 0b54 04bd 51a5 21be df38 d43d a7b7 563e
00000140: ca22 043e be7a 663c adb0 22bd 3c4c 43be
00000150: 03a5 2a3e ef7e 1f3e 8771 373d 6df5 94bc
00000160: 534b c93d 796a 09be 90b5 0c3e e333 33be
00000170: 6177 5a3e 1cb6 dfbd 78f6 e2bd dbfd b33c
00000180: b4bc 80bd dd37 6a3d 29bd 08be 992b 8cbd
00000190: ad89 f73b dbc2 8cbd 2a96 6fbd c905 d8ba
000001a0: d2da 423d 08e9 ea3d 1cbd 003e 3816 fe3d
000001b0: d109 d3bd 9653 10be bcfa 9fbd 4539 44be
000001c0: 5c48 30be ceb0 dc3d c2b7 05be 4e2e 09bc
000001d0: 6413 fb3d 2462 2f3e e8d8 883d a319 32bd
000001e0: 4184 75bd c9be 1d3e fd5c b5bd 90aa f83d
000001f0: 3698 e33d 8aa5 c6bd ea7b 1a3a 2b61 a03d
00000200: f5d9 2dbe 72b0 e83d 8c8c db3d cb4c 41be
00000210: 96cc 463e af24 4b3e a0b8 013e 8c13 c93d
00000220: 0936 133e b1cb 423c 58aa 883c 5551 92ba
00000230: 286a 40be f35c 1ebd 1818 033e 6e42 dfbb
00000240: 1cb4 5abe 5048 8e3d c434 853d 4c32 a63d
00000250: e7b5 aa3d f15a c93d 2025 e83d 75e7 933d
00000260: bca2 f4bd 9282 cbbd 1ab5 1d3e 6e04 b93d
00000270: 2b6f bebc 25b9 173e 99cd 6bbd 0478 9fbd
00000280: 5581 89bd c383 313e 5d58 13be 7eb8 9c3d
00000290: 94e3 a9bb ac88 7ebd 5698 3bbe 4ed5 083e
000002a0: 2063 a43d e2f4 033e 8737 2f3e f74d 2dbe
000002b0: d12e 003e 3bfc 233d 0e06 75bd 9223 3abe
000002c0: 83f5 1f3e 8055 c63c 781f 0b3e 16d7 69bd
000002d0: 0501 58bb 7730 2a3e aa15 99bd 833a 8fbd
000002e0: 7fa1 59bd e2fe 1abe 689d 113e 326f 343c
000002f0: a111 013d 1c47 033e cb55 36be 3b22 3bbe
00000300: 09b6 3dbe 67c8 813d 3f68 78bd a2e1 1e3e
00000310: 398f 123e 60b6 0bbe 1c7b d73c 5848 16be
00000320: 1651 a93d 0b5f ad3c ddc9 203d 8726 073d
00000330: 115a b33a 8522 3cbe 22f1 7bbc df4f c63d
00000340: 948d f3bd d7ac 573e 6d6b 843c bdb0 76bd
00000350: 0883 3bbc c2f3 cfbd e0c0 4e3c b5b8 3dbd
00000360: 0c3c 03bd f0a7 483e 0195 093e 9954 c7bb
00000370: 38b6 2fbe e77b 45be d68a 38be 3e23 22bd
00000380: afb5 56be b0e3 063e 2104 45be 513b f53c
00000390: e889 393e 3efd 1c3e 9bd4 ad3d aa29 e93c
000003a0: e130 b33d 6e37 3a3e 838b 4fbe ccd3 233d
000003b0: e4e8 06be a0c0 403e 7fe6 e13d 147d 13be
000003c0: 5628 bfbd 0846 313d abbf 53bd 26d9 3ebe
000003d0: f93d ccbd 6a2e e43d d8a9 90bc c640 9b3c
000003e0: 1c10 52be 7f72 04be cb02 d33d 7f10 993d
000003f0: a0b9 20be dd78 e1bd 6652 e2bd 4559 3c3e
-0.11092276 -0.09051292 0.07138281 0.040822376 0.10805988 0.14107066 -0.14492936 0.19668205
0.012893247 -0.17997585 0.122896254 -0.122096755 0.16644709 -0.103991784 -0.09313075 0.08965965
0.20666121 -0.1580609 0.091410674 -0.17145196 0.1782718 -0.006989799 0.122410595 -0.13183641
0.06517719 0.1746449 0.11879493 0.14942235 0.15134996 -0.04949008 -0.17921728 0.02559682
-0.16722468 -0.21132141 0.090491466 0.15645443 0.047516163 -0.18659298 0.016203402 0.16025452
0.028545873 -0.17114265 -0.043946646 -0.14949274 0.013364039 -0.10399958 -0.2059517 0.056978364
-0.05833419 -0.19851698 0.19141145 -0.05924318 -0.18631119 0.07592375 0.17924477 -0.1065109
-0.18371436 -0.02491075 0.21077897 0.2138875 0.08596599 -0.05050011 0.13088383 0.013831863
0.026471712 0.043360073 -0.101723686 -0.09184218 -0.1162865 -0.06921755 0.039590407 0.011134403
0.045756027 0.18860385 0.018208625 0.12160408 -0.032306712 -0.1578572 0.1036241 0.20968495
0.12903896 0.01406735 -0.039719272 -0.1907205 0.1666451 0.15575765 0.044786002 -0.018183434
0.0982882 -0.13419522 0.13741136 -0.17500262 0.21334602 -0.109234065 -0.110821664 0.021971634
-0.06285992 0.05718218 -0.13353409 -0.06844253 0.007554254 -0.06873103 -0.058492817 -0.0016481216
0.047571965 0.114702284 0.1257214 0.12406582 -0.10304607 -0.14094386 -0.07811496 -0.19162472
-0.17215103 0.1077591 -0.1305838 -0.008372856 0.12259558 0.17127281 0.066819966 -0.04348148
-0.05994058 0.1540481 -0.08855627 0.12141907 0.11113016 -0.09699543 0.00058930984 0.07831033
-0.16977675 0.11361779 0.107201666 -0.1887695 0.19413981 0.19838212 0.12668085 0.098181814
0.14376082 0.011889384 0.016682789 -0.0011163155 -0.18790495 -0.038662862 0.1280216 -0.006813339
-0.21357769 0.06947386 0.06504205 0.08115062 0.08335476 0.09831799 0.11335206 0.07221881
-0.119451016 -0.09937014 0.15401116 0.09034048 -0.023246368 0.14816721 -0.05756912 -0.07786563
-0.06714121 0.1733542 -0.14389177 0.076523766 -0.0051846 -0.06214206 -0.1831983 0.1336262
0.08026719 0.12886384 0.17111026 -0.16924272 0.12517859 0.040035468 -0.059820227 -0.18177631
0.15620999 0.024210691 0.13586223 -0.057089888 -0.0032959592 0.1662005 -0.07474835 -0.06993582
-0.05313253 -0.15136293 0.14220202 0.011012839 0.031510953 0.12820095 -0.17806165 -0.18274777
-0.18526472 0.06337052 -0.06064629 0.1551576 0.14312448 -0.1364379 0.02630382 -0.14676034
0.08267419 0.021163484 0.03925501 0.032995727 0.0013683458 -0.18372543 -0.015377315 0.09683203
-0.11892238 0.21062027 0.016164506 -0.060227145 -0.0114448145 -0.10153915 0.012619227 -0.04631873
-0.032039687 0.19595313 0.13435747 -0.006083083 -0.17159355 -0.19285546 -0.18021712 -0.03958439
-0.20967744 0.13172793 -0.19239856 0.02993551 0.18119013 0.15330979 0.08487817 0.02846225
0.08749557 0.18185207 -0.20268063 0.039996907 -0.13174778 0.1882348 0.11030292 -0.14403182
-0.09333865 0.043279678 -0.05169646 -0.18637523 -0.09972758 0.11141665 -0.017659113 0.018951785
-0.20513958 -0.12934302 0.10303267 0.074738495 -0.1569581 -0.11009381 -0.110508725 0.18393429

in_proj_bias f4 [96]
00000000: 0000 0000 0000 0000 0000 0000 0000 0000
00000010: 0000 0000 0000 0000 0000 0000 0000 0000
00000020: 0000 0000 0000 0000 0000 0000 0000 0000
00000030: 0000 0000 0000 0000 0000 0000 0000 0000
00000040: 0000 0000 0000 0000 0000 0000 0000 0000
00000050: 0000 0000 0000 0000 0000 0000 0000 0000
00000060: 0000 0000 0000 0000 0000 0000 0000 0000
00000070: 0000 0000 0000 0000 0000 0000 0000 0000
00000080: 0000 0000 0000 0000 0000 0000 0000 0000
00000090: 0000 0000 0000 0000 0000 0000 0000 0000
000000a0: 0000 0000 0000 0000 0000 0000 0000 0000
000000b0: 0000 0000 0000 0000 0000 0000 0000 0000
000000c0: 0000 0000 0000 0000 0000 0000 0000 0000
000000d0: 0000 0000 0000 0000 0000 0000 0000 0000
000000e0: 0000 0000 0000 0000 0000 0000 0000 0000
000000f0: 0000 0000 0000 0000 0000 0000 0000 0000
00000100: 0000 0000 0000 0000 0000 0000 0000 0000
00000110: 0000 0000 0000 0000 0000 0000 0000 0000
00000120: 0000 0000 0000 0000 0000 0000 0000 0000
00000130: 0000 0000 0000 0000 0000 0000 0000 0000
00000140: 0000 0000 0000 0000 0000 0000 0000 0000
00000150: 0000 0000 0000 0000 0000 0000 0000 0000
00000160: 0000 0000 0000 0000 0000 0000 0000 0000
00000170: 0000 0000 0000 0000 0000 0000 0000 0000
0.0 0.0 0.0 0.0 0.0 0.0 0.0 0.0
0.0 0.0 0.0 0.0 0.0 0.0 0.0 0.0
0.0 0.0 0.0 0.0 0.0 0.0 0.0 0.0
0.0 0.0 0.0 0.0 0.0 0.0 0.0 0.0
0.0 0.0 0.0 0.0 0.0 0.0 0.0 0.0
0.0 0.0 0.0 0.0 0.0 0.0 0.0 0.0
0.0 0.0 0.0 0.0 0.0 0.0 0.0 0.0
0.0 0.0 0.0 0.0 0.0 0.0 0.0 0.0
0.0 0.0 0.0 0.0 0.0 0.0 0.0 0.0
0.0 0.0 0.0 0.0 0.0 0.0 0.0 0.0
0.0 0.0 0.0 0.0 0.0 0.0 0.0 0.0
0.0 0.0 0.0 0.0 0.0 0.0 0.0 0.0

weight f4 [32, 32]
00000000: 3fb8 aa3d 3fcf ea3d d61a eaba b5c4 31be
00000010: 90cc a23d a94b e53d 088f 9cbc a05c f33d
00000020: 201a 8e3d cc5a 203d 4684 273e 2ba8 adbd
00000030: 3ef9 e63c ed45 08be 719d 1d3e 7f7c 673d
00000040: ace2 203e 8201 10be 0c85 1d3e 4f7f e23d
00000050: f49e 1d3e 0b5a a0bd 566f 14be b777 febc
00000060: b63d 0f3e 009e 313e d753 86bc 84af a43c
00000070: 9e99 83bc 8e37 67bc a846 f63c 6b79 a93d
00000080: 2678 27bd 57b5 0bbe 1259 a9bb 33d3 c73d
00000090: b4c4 11be 9894 293e 2f39 813d 7eb6 aa3d
000000a0: 2a3f af3d b548 f93d bfbc 1e3e 4da7 9fbd
000000b0: baf4 3d3d 0095 d93d be3a 33be f2af d13d
000000c0: 56c9 2dbe cd2e ecbd ce5b d4bd f6c6 f6bd
000000d0: 8813 02be c89b d53d ae46 1cbe 3ae0 afbd
000000e0: e163 29be 1032 8fbd b45f 2cba 408d 733d
000000f0: 83af babd 7513 003d 59f0 af3d 5da7 123e
00000100: b84f 0cbd 0ec9 f5bd 080b de3d 6460 82bd
00000110: ba33 2dbe 9a2f 8abd 74c9 e0bc b9ab 1f3d
00000120: 349a 093e e9aa e53d 16f7 9abd 72ac 123e
00000130: be4a 853d 5999 3a3d f42f 04be a2b1 f5bc
00000140: 6d4f 813d 0ae3 54bd 7663 993d 0708 a93d
00000150: 4a8d fcbd 3eac 123e 739a 953c 8bc7 40bc
00000160: f804 5bbc 8e2f 5fbc 5af1 a3bc 6962 72bd
00000170: fc0b d53c 6c3b 41bd 4790 123e efd0 77bd
00000180: fd1b 26be 6773 333e d2c1 d53d 89de 00be
00000190: 00f2 0e3e e39d 1dbe bb22 b4bd 9b96 bbbd
000001a0: d464 f03c 618e 443d 0cc2 93bd 6652 74bd
000001b0: 0430 c2bd 87b8 0a3e 4d4b b03d fa63 7f3c
000001c0: 1d70 1d3c 6030 343c 447c 26bd 30fe a3bd
000001d0: c603 233e e86e 8dbd f308 dfbd 0b79 90bc
000001e0: 2009 5f3d 84b0 1abe 8ce9 453d 6100 0abc
000001f0: 7745 a8bd b8ba b53c 7868 903c 3b8d 2ebe
00000200: 983c aa3d 04f8 893d 022a d0bd 24be 643d
00000210: 2ae1 bebd 9b9f 063e 67a3 a1bd ad9c 813d
00000220: 9bc9 693d d996 26bc 6cbc c6bd 32e0 ab3d
00000230: a49b 3b3d 5a2e a8bd 66ce c8bc 31cc 953d
00000240: e2b3 18be 8b0c d43c 1300 1a3d 896c 31be
00000250: ead5 d03c b9d1 0dbe b652 22be 07ed 1e3e
00000260: 401d ba3d 1996 013e b938 213e 9bff c2bd
00000270: cd96 9abd d5c6 b0b7 856e 913d 1efd 943c
00000280: 059c 84bc 98e1 343e e99f b0bd 535b a53d
00000290: 709c 953d 6728 afbd 6e06 ce3d 4370 f93d
000002a0: 2019 0fbd 7de9 f4bd a87e de3d bbeb 083e
000002b0: 2600 883d c8e1 b23c b4a2 b03d a48e 5e3d
000002c0: f754 5fbd 6b5a 05be 4f29 9ebd 8907 803d
000002d0: 998a 92bd b429 8a3d 5df0 bbbd 8e4b 08be
000002e0: 5b60 003e 45e8 e4bd c08f 5d3d 6563 193e
000002f0: be57 293c d13c e23d e57e 3fbd b81e 1cbe
00000300: 0323 adbd 0bd1 5ebd 707f d2bd a69f d9bd
00000310: 600b 9f3d e6ea 273e 34ea e63d c657 733d
00000320: d1e2 0fbe c86c f0bc 9b2d 853d 7936 1f3e
00000330: ab1e b1bd 8985 d63d 9dfb cf3d daf4 1dbd
00000340: e3f2 25be 9ee2 a63d df1c b93d ca9a 0fbe
00000350: 1507 0d3e 6994 2bbc 25da 07be 5458 7b3c
00000360: 952f cb3d 664b d23b e01f 0cbe 65a9 c2bd
00000370: 2c4f d53d c4c7 9a3d 7ac8 e73d 9835 853d
00000380: f37b ea3d b961 1ebd ed8a a83d e44d 4a3d
00000390: 6de4 fb3c d868 213e 9685 8dbd 4ec4 093e
000003a0: 57a1 8dbd fd31 113e 3a82 eebc 6145 083e
000003b0: 714d 6dbd ea34 6d3c 0089 1e3e 7f94 7cbc
000003c0: dff8 6dbc a45e 98bd 08be 013e 0e7d be3d
000003d0: d0ba 1fbd d412 41bd 698d 213e 1ca7 db3d
000003e0: deb1 123e 03cb bebd b4b6 88bd 874e edbd
000003f0: f691 05be 8eb9 9fbc b47a e8bb bf56 b6bd
0.083359234 0.1146531 -0.0017860781 -0.17360194 0.079491735 0.11196072 -0.019111171 0.11882901
0.06938577 0.03914909 0.16359052 -0.08479341 0.02819502 -0.13307925 0.1539209 0.056515213
0.15711468 -0.14063075 0.15382785 0.110594384 0.15392667 -0.07829674 -0.14495596 -0.031062944
0.13988385 0.17345428 -0.0163974 0.020103224 -0.016064461 -0.014112366 0.030062988 0.08275112
-0.040886067 -0.13643394 -0.0051680887 0.0975708 -0.14235193 0.1656059 0.06309735 0.08335589
0.085569695 0.12172071 0.15501688 -0.07795582 0.046375968 0.106241226 -0.17502877 0.10238637
-0.16971335 -0.11532364 -0.10369073 -0.120496675 -0.12702763 0.104301035 -0.15261337 -0.0858769
-0.16542007 -0.069919705 -0.000657554 0.05946088 -0.091155075 0.031268556 0.085907646 0.14321657
-0.034255713 -0.12001239 0.10841948 -0.06366041 -0.16914263 -0.067473605 -0.02743981 0.038982127
0.1343773 0.11214239 -0.07566659 0.14323595 0.065083966 0.0455564 -0.12908918 -0.029991928
0.063139774 -0.051974334 0.07489674 0.08253484 -0.12331636 0.14323518 0.018262124 -0.011766325
-0.013367884 -0.013622178 -0.020012546 -0.059175882 0.026006691 -0.04717581 0.1431285 -0.06050199
-0.16221614 0.17524491 0.10437359 -0.1258489 0.13959503 -0.1539226 -0.08795687 -0.09159585
0.029344954 0.047987346 -0.07214746 -0.059648894 -0.094818145 0.13546954 0.086081125 0.015587801
0.009609249 0.010997862 -0.040645853 -0.08007467 0.15919408 -0.06905919 -0.10890379 -0.017635843
0.05445206 -0.15106398 0.04831843 -0.008422942 -0.08216374 0.022183761 0.01762794 -0.17046063
0.083123386 0.06736758 -0.10164262 0.055845395 -0.093202904 0.13146822 -0.07892495 0.06328712
0.05707703 -0.010167801 -0.09703907 0.08392371 0.045802727 -0.08211966 -0.024512481 0.07314337
-0.1491237 0.025884887 0.037597727 -0.17326559 0.025492627 -0.13849534 -0.15851864 0.15520106
0.0908761 0.12654914 0.15744294 -0.09521409 -0.07548294 -2.1073423e-05 0.07101158 0.018187102
-0.016187677 0.17664182 -0.086242504 0.08074059 0.07305229 -0.08552628 0.1005982 0.12179615
-0.03493607 -0.11958597 0.108640015 0.13371174 0.06640653 0.021836177 0.08624783 0.05433525
-0.05452439 -0.13022773 -0.07722723 0.06251437 -0.07155342 0.067462355 -0.09176705 -0.13310072
0.12536757 -0.111771144 0.05409217 0.14979322 0.010335861 0.11046756 -0.046751875 -0.15246093
-0.084539436 -0.054398578 -0.10278213 -0.10626154 0.077658415 0.163982 0.112751395 0.05940988
-0.14051367 -0.029348746 0.06502839 0.15548123 -0.086484276 0.104746886 0.10155413 -0.038563587
-0.16205935 0.081486925 0.0903871 -0.14023891 0.13772233 -0.010472395 -0.1326681 0.015340883
0.09921185 0.0064176796 -0.13684034 -0.09504966 0.104154915 0.075576335 0.11317535 0.06504363
0.11449423 -0.038667414 0.08229623 0.04939069 0.03074857 0.15762651 -0.06910245 0.1345379
-0.06915539 0.14179225 -0.029114831 0.13307716 -0.057935182 0.014477948 0.15481949 -0.015416264
-0.0145246675 -0.07439926 0.12670147 0.09301196 -0.038996518 -0.047137097 0.157766 0.10725233
0.14325663 -0.09316065 -0.06675473 -0.115872435 -0.13043961 -0.019497659 -0.0070947055 -0.08903264

bias f4 [32]
00000000: 0000 0000 0000 0000 0000 0000 0000 0000
00000010: 0000 0000 0000 0000 0000 0000 0000 0000
00000020: 0000 0000 0000 0000 0000 0000 0000 0000
00000030: 0000 0000 0000 0000 0000 0000 0000 0000
00000040: 0000 0000 0000 0000 0000 0000 0000 0000
00000050: 0000 0000 0000 0000 0000 0000 0000 0000
00000060: 0000 0000 0000 0000 0000 0000 0000 0000
00000070: 0000 0000 0000 0000 0000 0000 0000 0000
0.0 0.0 0.0 0.0 0.0 0.0 0.0 0.0
0.0 0.0 0.0 0.0 0.0 0.0 0.0 0.0
0.0 0.0 0.0 0.0 0.0 0.0 0.0 0.0
0.0 0.0 0.0 0.0 0.0 0.0 0.0 0.0

weight f4 [32, 1, 4]
00000000: e8a6 10bf a25d 5c3c 225d b3bc c76f d2bb
00000010: 2257 203c 71a5 3e3c 7966 083f a142 7ebe
00000020: 446d bcbc 8664 aa3e 3b5e 82be cbec f53d
00000030: befc 06bf f8c8 9b3e 30c4 3e3e 3bcc d5be
00000040: 4bfd e43e 3114 14be 6fd2 773e 73a6 0e3e
00000050: 45e2 7c3e 744c 11be 62c3 1a3f 0957 dcbd
00000060: 83ef 1dbf a414 093c c9cd d6bc 8392 d23d
00000070: cb98 56be 1aa2 683d 3075 0b3f 0910 a6be
00000080: 2e20 b73e cde7 0e3e f6e6 86bd 13b9 0f3e
00000090: 56a2 b13c f3bb 163f 22d2 6bba 175f f9bc
000000a0: 30c3 013e 125e 2fbd c30f 1dbf b2f0 aa3d
000000b0: b873 3fbf a3d8 c0bb e08b 413c 3ef3 b83d
000000c0: 5b7e 10be b900 073f ea39 0d3e 96e9 8fbe
000000d0: 1694 c5be c982 9c3e 945d 8d3e 7ecf 013f
000000e0: c323 44bf a31f 05bd d977 a8bd 6b7d 863c
000000f0: 8b40 dcbb 6519 283f d164 ef3c a1d7 6bbd
00000100: ec7e 9fbc 87df 243f 562c 8c3d 087b 98be
00000110: 2f5e 013d efc7 8d3e 54b6 97bc 5194 a23e
00000120: e1b0 2f3d b6ff 29bd 3f41 1ebf c250 363d
00000130: b6ce 07bf 4042 8f3c 8ac5 f7bc d019 393d
00000140: 7d14 eabe 7d48 d5b9 62c3 1dbd 0f4a 3b3d
00000150: 6f63 6a3e 2d8c 2abd 1d34 c03e 41f6 99bd
00000160: a30a d0bc 3add 1d3f e89c 253e 84da 3d3d
00000170: 6058 083e a5e8 3d3e 7019 38bf 5612 30be
00000180: 2c10 80bc 1449 4a3d 2e92 6d3d 1fa0 f33e
00000190: abb9 8abe a2ed 5b3d 2c23 c7bd 1992 1a3d
000001a0: 527f 1e3e 7f26 033e 10d6 c6bc 5a4a f9bd
000001b0: 0f4e b63e 46f4 33bc 5864 43bd 4a24 043d
000001c0: 6ceb be3e 126a b5be 354a a9be 9b06 e43c
000001d0: 1510 223f 5553 05be 11e7 8abd 73ce e73c
000001e0: ddcf 4dbf bb44 973c 641b 833c e60b 57bc
000001f0: ea16 3ebe 889a 253e 72a6 19bf d24f babc
-0.5650468 0.013450058 -0.021894995 -0.0064220163 0.009786399 0.011636124 0.5328136 -0.24830104
-0.02300132 0.33279818 -0.25462517 0.12008055 -0.52729404 0.30426764 0.18629527 -0.41757378
0.44724497 -0.14460827 0.24201368 0.13930683 0.2469569 -0.14189321 0.6045438 -0.10758788
-0.6169359 0.0083667375 -0.026221173 0.10281851 -0.20956723 0.056795217 0.5447569 -0.3243411
0.3576674 0.13955612 -0.06587021 0.14035444 0.021683853 0.5888054 -0.0008995851 -0.03044085
0.12672114 -0.04281432 -0.61352175 0.0834669 -0.7478595 -0.0058852 0.011813134 0.0903077
-0.14110701 0.5273548 0.13791624 -0.281079 -0.38589543 0.3056853 0.27610457 0.5070723
-0.7661707 -0.032500874 -0.08225984 0.016417226 -0.0067215613 0.6566375 0.029222878 -0.057578687
-0.0194697 0.64403576 0.06844394 -0.29781365 0.03158396 0.276916 -0.018519558 0.3175378
0.042893294 -0.04150363 -0.6181831 0.04451061 -0.5304979 0.017487645 -0.030245561 0.045190632
-0.45718756 -0.00040680534 -0.03851641 0.045724925 0.22889493 -0.04163759 0.3753976 -0.07517672
-0.025395697 0.6166569 0.16173136 0.04635097 0.13314962 0.18545778 -0.71913815 -0.17194495
-0.015632711 0.0493861 0.058000736 0.475831 -0.27094778 0.05369342 -0.097235054 0.037736986
0.15478256 0.12807654 -0.024271995 -0.121723846 0.3560643 -0.010983532 -0.047703117 0.03226117
0.37288988 -0.35432488 -0.33064428 0.027835181 0.6330579 -0.1302007 -0.06782354 0.028296685
-0.803953 0.01846539 0.016004272 -0.013125395 -0.18563429 0.1617223 -0.600196 -0.02274314

bias f4 [32]
00000000: 221b 58be ae44 c4bd c4d9 3ebe 1886 68be
00000010: ee06 a13e f0d6 43bc da5b 853e 0c54 8ebe
00000020: 5adc 83bd f29a acbe 3c50 7e3d d86f 233e
00000030: 636c 04bc ef85 0d3e d341 96be db00 e3be
00000040: b42e a6bd 3098 063e 2c32 8fbd 6973 883e
00000050: 634d 0a3e e04a b7bd 37ab 3c3d f2f2 6dbb
00000060: 524a aa3e 72b7 d9bd 4326 823e ea8b 93bd
00000070: df97 db3c e7d6 4bbe 6682 f1bd 8553 bcbb
-0.211041 -0.09583412 -0.18637758 -0.22707403 0.314506 -0.011953101 0.2604664 -0.27798498
-0.06438513 -0.33711964 0.062088236 0.15960634 -0.008082482 0.13820623 -0.29347095 -0.4433659
-0.08114377 0.13143992 -0.069919914 0.2665055 0.13506083 -0.08949828 0.04606172 -0.0036308137
0.33259827 -0.106306925 0.25419816 -0.07204421 0.026805816 -0.19906197 -0.1179245 -0.005747261

weight f4 [32]
00000000: f0da c23f b199 803f c09b 7e3f dbb3 843f
00000010: 33fc 8a3f 4e90 903f ba5f b83f cf1c 613f
00000020: b73a 863f d219 be3f c825 813f 8290 cc3f
00000030: 4c1c 8b3f a8e8 5d3f 9799 bb3f 2134 af3f
00000040: 43e7 883f da9a 8b3f 595f 8c3f 6537 c93f
00000050: 7bd1 cf3f 6918 893f 3449 8b3f 5995 833f
00000060: f729 743f 5a06 903f 2fc2 723f 9d27 b63f
00000070: 13de 803f 110a 8c3f e11d c83f 8c98 833f
1.5223064 1.0046903 0.99456406 1.0367388 1.0858215 1.1294038 1.4404213 0.87934583
1.0486668 1.485163 1.0089655 1.59816 1.086801 0.8668313 1.4656247 1.3687783
1.0695575 1.0906632 1.0966598 1.572003 1.6235803 1.0710574 1.0881715 1.0279952
0.95376533 1.1251938 0.9482755 1.4230839 1.0067772 1.0940572 1.5634118 1.0280929

bias f4 [32]
00000000: fbfd 40be 2c60 25be b2dd 85be e871 aabe
00000010: 14e4 14be 922b 25be 3c8c 19be e3ff 1fbe
00000020: 61e9 16bd 381d 4e3e e1a2 2dbe 0e4b 87bd
00000030: 3561 bcbd 22de 94bd 8938 21be 453a 313e
00000040: b2bf d9bc a7cc 17be 1554 babd 8bcc 34be
00000050: cb8e 40be e4ec 07be 0251 c33c 3b7d 27be
00000060: 559b a23d 6f92 3cbe a364 fbbd 604e dc3d
00000070: 02f3 86be 2ca6 523c fc9d 20be d687 36be
-0.18846886 -0.16149968 -0.26145703 -0.3329003 -0.1454013 -0.16129902 -0.14994901 -0.15624957
-0.03684366 0.20128334 -0.16956665 -0.066061124 -0.09198228 -0.07268931 -0.15744223 0.17307384
-0.026580665 -0.14824162 -0.090980686 -0.17656152 -0.18804471 -0.1327396 0.023842338 -0.16356365
0.079397835 -0.18415235 -0.12275054 0.10757136 -0.26357275 0.012857001 -0.15685266 -0.17825255

running_mean f4 [32]
00000000: d33f a6be 61b8 09bd 97fa 19be eee6 9ebe
00000010: 129e e43e 5753 d93d 7220 1f3e 1ae3 85be
00000020: 3d0a 443d 76c1 5fbe c5c3 d9bc a936 fd3c
00000030: b063 3d3d b1ae 8c3e 8d5c edbe ad92 a1be
00000040: c183 843b 732f 803e 5661 3bbe b58a 2c3e
00000050: d7d3 3d3d fdbb d63b f2a0 543e d101 e8bd
00000060: 9ca5 e13e 0b5d 24be fbe9 903e 9611 fbbb
00000070: 4007 04bd 3e49 e0bd a0d4 8abe 707a 06be
-0.3247057 -0.033623103 -0.15036999 -0.3103556 0.44651848 0.10611599 0.1553972 -0.26149827
0.047861326 -0.21851143 -0.026582608 0.030909853 0.046237648 0.2747703 -0.46359673 -0.31557217
0.0040440266 0.250362 -0.1829885 0.16849788 0.046344604 0.0065531717 0.20764521 -0.113284715
0.44071662 -0.16051118 0.28303513 -0.0076620085 -0.032233477 -0.1095147 -0.27115345 -0.13132644

running_var f4 [32]
00000000: fc8a 933e 1709 8e3e 02b2 0d3e e75e fa3e
00000010: 4141 7f3e e963 b53e 9c4a b33e 167f bd3e
00000020: 37a5 2b3e ea74 aa3e 5c82 b83e 77d7 033f
00000030: 3a68 ba3e 68f4 083f 18b0 0b3f 8c3b d53e
00000040: 8e73 f83e 9a5e 213e a3b3 b43e 36f2 813e
00000050: 3fb3 433e 2959 263e 9fcf d23e e886 0c3f
00000060: 7432 563e bcc2 903d e889 673d 86f1 f13d
00000070: e547 b03e d4ec ba3e 37a3 153f 9f51 b03e
0.28816974 0.2774131 0.13837436 0.4890053 0.24927236 0.35427788 0.3501786 0.3701102
0.16762243 0.33292323 0.36036956 0.5150065 0.36407644 0.53497934 0.5456557 0.41646993
0.4852566 0.15758744 0.35293302 0.25380105 0.19111346 0.1624495 0.41174027 0.5489335
0.20917684 0.07068393 0.056528002 0.11813645 0.3442985 0.3650881 0.5845217 0.34437272
