histories_pre_cls/04.30-00.10.27_63.28%_pt_Transformer_ATCNet_BcicIv2a_bs=064_lr=0.0010_ld=0.999891_nw=3_cps=9/best_valid_acc.pt (torch, 300862 bytes, 88 tensors)

weight f4 [16, 1, 1, 129]
000000 de b0 b7 3b fe ba 52 3d 3d d5 7e bd c1 74 71 bd
       0.005605801 0.05144786 -0.06221508 -0.058949236
000010 10 b5 38 bd 73 72 c3 3b 99 6f 48 bc 43 e9 9e 3d
       -0.04509455 0.005964571 -0.012233638 0.07759335
000020 52 28 08 3d f1 3d ac 3d 5e 9a 0a 3d d8 c6 48 3c
       0.033241577 0.08410252 0.033838622 0.012254439
000030 7a 7c bb bd ea 57 ba bd 6c d4 93 bd 90 14 8f bc
       -0.091546014 -0.090987995 -0.07218251 -0.01746586
000040 fa 63 30 3d e6 b1 b9 3d 9e fe b2 3b d0 aa d4 3c
       0.043064095 0.090671346 0.0054624816 0.025960356
000050 60 f3 97 3d b9 c0 92 3d 0a a0 7c bd 4f 27 b1 3b
       0.07419467 0.07165665 -0.061676063 0.0054062973
000060 31 7b 83 bd 63 9f 12 bd 76 2a 70 3d 5d 79 9c bd
       -0.06419981 -0.035796534 0.058634244 -0.07640336
000070 cd 34 ee bc db 48 ef 3c 1c dc 22 3d 4a 83 1f 3e
       -0.029077912 0.029209545 0.039760694 0.15577427
000080 40 f7 65 bc a7 8f 99 bd c7 7a 22 be b1 bc 40 be
       -0.014036 -0.07498103 -0.15867148 -0.1882198
000090 4d b9 e8 bd 36 cf a6 3d 9b cf 02 3e f9 13 43 3e
       -0.11363468 0.08144991 0.12774508 0.19050588
0000a0 21 02 14 3e 37 d6 28 3d 75 73 96 3c 57 9b 10 be
       0.14453937 0.041219916 0.018365601 -0.14121757
0000b0 ad 50 24 be af 8c 18 be 80 f3 30 bd 50 b4 d1 bc
       -0.160464 -0.14897417 -0.04320097 -0.025598675
0000c0 72 1a a7 bd 4b 8c 9d 39 30 d0 eb 3d 71 de 4c 3e
       -0.08159341 0.000300499 0.11514318 0.2000673
0000d0 97 3d 2e 3e fb d4 e0 3d 26 5f 86 3d 58 65 18 be
       0.17015682 0.10978123 0.06561117 -0.1488241
0000e0 f5 de 12 be 3c b6 67 be dd 3c 13 be d5 92 a6 bc
       -0.14342864 -0.2262811 -0.14378686 -0.020333687
0000f0 1b a7 14 3e 62 5c 24 3e e0 d2 33 3d 12 90 55 3d
       0.1451687 0.16050866 0.043902278 0.05213935
000100 60 68 21 3c 75 d7 94 bd 8d 42 41 bd 22 95 99 bc
       0.009851545 -0.07267658 -0.04718261 -0.01874787
000110 c2 c0 0b 3c 06 c2 cd 3c 0a 3d fd bd 50 44 80 bd
       0.008529844 0.025116932 -0.12365158 -0.062630296
000120 11 13 09 3d 0d a0 c1 3d f6 0d ba 3d 4b f3 6a 3d
       0.03346545 0.094543554 0.09084694 0.05736093
000130 60 7e 29 bd 59 0f 14 be 6c e8 0f bd 8e 85 30 bd
       -0.041380286 -0.1445898 -0.035133764 -0.043096118
000140 7b 7f 7e bc e7 2e 1d 3e 48 b6 f9 3d d6 7e 93 bd
       -0.015533323 0.15349923 0.121929705 -0.072019264
000150 01 b2 5d bc 14 1b 8c bd 39 97 5e bd 64 cf 2c bd
       -0.013531209 -0.06841102 -0.054343436 -0.04218997
000160 21 ec 8d 3d 61 a1 da bb 6a 30 66 3d 81 3b 37 3d
       0.06929804 -0.00667207 0.056198515 0.04473448
000170 1b 98 68 3d f9 44 00 3d c4 7d b9 bd 66 d5 92 bd
       0.056785684 0.031315777 -0.09057191 -0.07169609
000180 c8 ec 68 3c 13 f6 74 ba 6c 30 81 bd 99 a1 d9 bc
       0.014216609 -0.0009344529 -0.06308064 -0.026566314
000190 2c 04 f9 3d 42 95 e3 3d f6 1f 1d 3c 36 7a bb 3a
       0.12158999 0.11112453 0.00959014 0.001430339
0001a0 f0 d9 96 bd d8 b1 37 3c 3b 85 07 bd 17 1d 9f bc
       -0.07365787 0.011211835 -0.033086043 -0.01942305
0001b0 1c 84 47 3d c1 9f 59 3d 4a 66 d3 bc e1 2f 09 3d
       0.048709974 0.05313087 -0.025805611 0.033492927
0001c0 5d ca 98 bd 51 71 8d 3d c0 e4 6a 3d 62 b1 8f bd
       -0.07460473 0.06906379 0.05734706 -0.07016255
0001d0 98 01 e9 bc a4 c4 92 bc 43 97 91 3a 0b c6 25 3d
       -0.028443143 -0.017916031 0.0011107702 0.04047207
0001e0 8d d3 91 3d c7 b1 1d 3d d1 ad 0d bd c4 ff e2 3c
       0.07120428 0.03849962 -0.034589592 0.02770985
0001f0 3e 8e db bd b0 c6 6a bd 7d 06 5a 3b 55 1a 73 3c
       -0.1072049 -0.05731839 0.0033268027 0.014837821
000200 5c 54 3a 3d 49 f3 5b bc f6 81 9a 3b 36 21 15 3c
       0.045490608 -0.013424703 0.0047151996 0.009102156
000210 f9 89 a2 bd 90 9f f3 bc 49 a8 f8 3c 13 0e 11 bd
       -0.079364724 -0.029739171 0.030353682 -0.035413813
000220 6d 5e b2 bc d2 db a4 bc 5c 37 2a 3d ff 16 01 3e
       -0.021773541 -0.02012435 0.0415567 0.12606429
000230 75 c1 34 3e de d0 0b 3e ce 59 fd 3d db 7c 2b 3b
       0.17651923 0.13653895 0.123706445 0.002616695
000240 51 d1 a9 bd 05 c2 39 bd 63 e7 85 3d 27 ba 05 3c
       -0.08291877 -0.045351047 0.06538274 0.008162058
000250 77 3e 13 bd c4 74 84 bd f8 33 85 bd 84 ea eb bc
       -0.035948243 -0.06467584 -0.06504053 -0.02879835
000260 a7 c5 68 3d 7a 5c 12 3e 44 3f 11 3e 0f c7 b0 bc
       0.05682912 0.1429309 0.1418429 -0.021579294
000270 65 dd a7 3d bd 14 8a bd ef 59 11 bd fd 34 8a bd
       0.081965245 -0.06742237 -0.035486158 -0.06748388
000280 c8 75 83 bd 8b 39 81 bd e7 2e ef bd d1 35 c4 bd
       -0.06418949 -0.063098036 -0.11678868 -0.09580577
000290 f6 60 06 bc 90 ba c3 3c ee 65 82 bb 59 99 96 3d
       -0.008201828 0.02389267 -0.003979436 0.073534675
0002a0 0f aa 5d bd 1a 88 bd 3a d8 f5 72 3d f0 9e a8 bd
       -0.05411726 0.0014460117 0.059316486 -0.0823344
0002b0 34 c8 2f 3c 0e 24 42 bd 70 60 11 be f3 96 89 3c
       0.0107288845 -0.047397666 -0.14196944 0.016795611
0002c0 ff af 85 bc 42 56 2f bc b0 58 d9 3d f5 cb 08 bd
       -0.016319273 -0.010701718 0.10612619 -0.033397634
0002d0 82 22 f1 3c ee 7c d7 bc ff f4 3c 3d 1a b7 e7 b9
       0.0294354 -0.026304688 0.046132084 -0.00044196175
0002e0 dc 5e cd 3b 6f cc 50 bb 3c 80 77 bd cb 10 44 bd
       0.0062674116 -0.0031860133 -0.06042503 -0.047867578
0002f0 9c fb b1 bd 26 95 39 3d 75 23 91 3d 97 82 31 3d
       -0.08690569 0.045308255 0.07086841 0.04333743
000300 a5 bb d7 bd 2f 65 99 bd 1b f4 1d be 68 34 e7 bd
       -0.10533837 -0.07490002 -0.1542515 -0.112892926
000310 88 d5 61 bd 45 e6 bc 3d fa c2 71 3d 16 ad fa 3d
       -0.05513528 0.09223608 0.059023835 0.12240045
000320 67 75 d5 3d 40 b8 d1 3d 11 7f 97 bd b3 22 03 be
       0.10422783 0.10240221 -0.07397283 -0.12806205
000330 a9 28 24 be 38 68 33 bd 4f fa bb bd 3a ad aa 3d
       -0.16031136 -0.043800563 -0.09178602 0.083338216
000340 d2 63 e3 3d 7a 83 0a 3e 98 79 17 3e 4b cf e7 3d
       0.111030236 0.13526717 0.14792478 0.11318835
000350 a1 c8 bf 3d e4 3e de 3b cf bf 25 bd 2a b3 95 bd
       0.09364439 0.0067823995 -0.040466126 -0.073095635
000360 3f cf 23 be c6 ce d6 bd 97 f7 a9 3d d0 75 5a 3c
       -0.15997027 -0.10488658 0.08299177 0.013333753
000370 87 14 f6 3d 6e 2f 4f 3e ec 12 c8 3d 10 e8 04 3c
       0.12015634 0.20232937 0.09769234 0.008111969
000380 21 12 fc bd 04 46 5a bd 95 b4 2e be 4d 40 e1 bd
       -0.12308145 -0.05328943 -0.17061074 -0.109985925
000390 16 c5 89 bd aa eb 2e bc de e6 e6 3c d0 96 eb 3d
       -0.06727044 -0.010676304 0.028186258 0.115033746
0003a0 3e 98 48 3d fe 26 c5 3d 1a df 1c 3d 1b b7 dc bd
       0.048973314 0.09626578 0.038298704 -0.10777112
0003b0 53 83 1d bd 01 aa fd bd 51 cb 41 bd 66 15 82 3d
       -0.03845532 -0.12385941 -0.04731304 0.06351738
0003c0 a8 14 be 3d 8a a8 06 3e 37 20 6b 3c 37 0e 3e 3c
       0.092812836 0.1315023 0.014350942 0.011600069
0003d0 2f ef 16 3d 8c 09 c9 bd 1c e1 26 3d 66 aa de bd
       0.036849197 -0.09816274 0.040742025 -0.10872345
0003e0 e0 3d fd bc 55 84 fa bb a0 8a 28 3b 1b 68 ba 3d
       -0.030913293 -0.0076451697 0.0025717393 0.09101888
0003f0 22 8e 20 3e c2 fb 26 3d b4 df 8b bc 59 33 01 bd
       0.1567922 0.04076744 -0.017074443 -0.03154311

weight f4 [16]
000000 9c 95 8d 3f c9 0e 80 3f 77 f1 7d 3f 36 80 7b 3f
       1.1061282 1.0004512 0.9919657 0.9824251
000010 61 b5 7f 3f c0 27 81 3f e6 b2 85 3f 90 c4 7c 3f
       0.9988614 1.0090256 1.044522 0.9873743
000020 96 72 7f 3f ee f1 7b 3f 81 a0 7b 3f 6f e0 79 3f
       0.9978422 0.9841603 0.98291785 0.97608083
000030 f8 94 80 3f 16 4f 82 3f 10 bc 7f 3f e4 50 84 3f
       1.0045462 1.0180385 0.99896336 1.0337186

bias f4 [16]
000000 68 02 91 3c aa fd b2 bc e7 0e ed bb 9b 05 87 3c
       0.017701343 -0.021849472 -0.0072344425 0.016482165
000010 b8 62 8d bb 1c 8a f2 bc eb b6 44 3c 42 3b 5c 3b
       -0.0043147467 -0.029606871 0.012006502 0.0033604656
000020 70 32 84 3b 7d 75 80 3d 29 8a 91 bd db aa 2f bd
       0.004034333 0.06272409 -0.0710643 -0.04288755
000030 ac 93 dd 3c e0 90 4b bb 0d bd 51 bd c2 ce 68 bc
       0.027047954 -0.0031061694 -0.051205683 -0.014209451

running_mean f4 [16]
000000 bb 05 86 3a a5 2a 39 bd 04 ee 0b bd 71 78 db 3d
       0.0010225096 -0.045206685 -0.034162536 0.10716332
000010 5e 71 16 3e f3 f3 af 3c 6e cc cf 3d 5e 36 24 bd
       0.14691684 0.021478629 0.10146414 -0.04009091
000020 1e b5 1c bd ee 65 cd 3c 3a a4 20 bc 29 96 53 3e
       -0.038258664 0.025073018 -0.00980478 0.2066275
000030 4a 3d fa 3d d5 55 77 3e b5 2f 13 3c 23 5d c3 3c
       0.12218721 0.24153836 0.008983542 0.023848122

running_var f4 [16]
000000 5e 1f 3e 3d 95 f5 61 3d 72 a9 f8 3d f7 ac d7 3d
       0.046416633 0.055165846 0.12141694 0.10531037
000010 54 07 0d 3e 26 d4 6d 3d 7e e8 25 3e 3b ce d5 3d
       0.13772327 0.05806365 0.1620197 0.10439726
000020 86 69 43 3e 0b f8 3c 3f df 93 ca 3d 01 e9 1d 3e
       0.19083223 0.73815984 0.098914854 0.15420915
000030 4a 8a f7 3d ae 2d 05 3e cb 44 22 3e 42 5a 24 3d
       0.120869234 0.13005707 0.15846555 0.04012514

weight f4 [32, 1, 22, 1]
000000 81 3f 51 3e 3e cd 29 3d 6a 2f 3f be a6 0f 03 3d
       0.20434381 0.0414555 -0.18670431 0.031997345
000010 03 8f 68 3c 7a 3f 9a 3d 36 4c a6 3b 7a 7c 65 3d
       0.014194253 0.075316384 0.005075003 0.056026913
000020 a3 c8 68 be dc a3 7f 3e e8 cb 5f 3e 5d 68 2a be
       -0.22732787 0.24964851 0.21855128 -0.16641374
000030 42 36 07 3d 9a 19 46 bb b0 bc cf 3d 2b 41 b6 bd
       0.03301073 -0.0030227662 0.10143411 -0.088991486
000040 9c 61 50 be 66 bd a5 be 05 b4 83 bd a2 1c 43 3e
       -0.20349735 -0.32371062 -0.064308204 0.19053891
000050 c1 ee 6a bc 99 42 3a 3d c1 e4 1f be d1 e7 89 bd
       -0.01433915 0.04547367 -0.15614606 -0.067336686
000060 83 73 26 be 86 b2 8c bd 48 9c ac bb c3 21 27 3d
       -0.16255002 -0.06869988 -0.0052676536 0.040803682
000070 04 a8 aa 3d 70 83 e4 bd b6 37 80 bd 99 58 66 bd
       0.08332828 -0.11157882 -0.06260626 -0.056236837
000080 5a a8 1f 3e 3c a7 45 3e c3 10 c1 bd 72 8d e9 3e
       0.15591565 0.19302076 -0.09427025 0.45615727
000090 ef 0c 0f be 36 1b 53 bd 0e 4d 1b bd ca 55 94 bd
       -0.13969778 -0.051539622 -0.037915282 -0.072429255
0000a0 5e b9 68 3e fc 6c dc 3d f7 68 96 bd dd 1a 07 be
       0.22726962 0.107629746 -0.07344239 -0.13193841
0000b0 63 af 48 3e 9f 90 a3 3d a8 83 c2 3b 08 be b1 bd
       0.19598155 0.07986569 0.005936105 -0.08678824
0000c0 81 3d 9d 3c 8d 4c 80 3e ba b8 48 bd 4e 0d b0 bd
       0.019194366 0.25058404 -0.049004294 -0.08596288
0000d0 66 34 81 be 99 8b 31 be 96 48 f4 3d 7a 34 6a 3d
       -0.2523529 -0.17338409 0.11927907 0.05717895
0000e0 87 3f 34 3d 2a da 8d 3d 66 37 41 be 8a 8b b7 bd
       0.044005897 0.06926377 -0.18868789 -0.08962162
0000f0 8d d3 af bd c2 84 f0 3d b8 6a 4e 3e 0a b7 01 3e
       -0.08585272 0.117440715 0.20157897 0.1266748
000100 d2 2b 31 3e d0 bd cb bd de eb 58 3d 3b 41 e7 3d
       0.17301872 -0.09948313 0.052959315 0.112917386
000110 eb 41 e4 bd 98 1c 05 3e d4 1a ea bd b5 80 fa 3d
       -0.11145385 0.12999189 -0.11430898 0.1223158
000120 0f c9 58 3e 54 c8 5b be d5 de 4d 3e 60 b0 18 3e
       0.21170448 -0.21463138 0.20104535 0.14911032
000130 92 81 e9 bd 3a fd 32 3e 63 97 43 be 3d 8e 84 be
       -0.11401667 0.17479411 -0.19100718 -0.2588977
000140 23 92 f5 bd 9c ea c5 3c 0c ec 0d 3d b4 3b 9a bd
       -0.11990764 0.024159722 0.03464894 -0.07530919
000150 07 3d 8d be dd 51 d2 bc 18 04 2d 3e f7 88 fa 3d
       -0.27585623 -0.025673801 0.16896093 0.12233155
000160 18 d7 04 3e 77 bc 02 3e ae 68 ab 3d 43 34 2a be
       0.12972677 0.12767206 0.083695754 -0.16621499
000170 9a d4 3d 3d cc 08 83 be 9b f8 25 bd ed eb 4c bd
       0.04634533 -0.2559265 -0.04052029 -0.050029684
000180 72 76 4a 3e dc c5 bb bc 7e 26 d2 bd f7 b2 43 3d
       0.19771746 -0.022921495 -0.10261248 0.047778096
000190 23 ff f2 bd bf 4a 1f be f1 6b 1b 3d bf 02 29 3c
       -0.1186507 -0.15555857 0.037944738 0.010315596
0001a0 5a 8a 07 3d c6 6c 58 3e 8d bd 5d be 0b bb d3 bd
       0.033090927 0.21135244 -0.21654339 -0.1033841
0001b0 1c 41 82 3e 12 4e 32 3d e3 8a 0f bd 21 eb 01 3e
       0.254403 0.043531485 -0.035044562 0.12687351
0001c0 02 40 0b 3e f6 c5 62 bd 46 f9 c6 bd fe 5d 1a bd
       0.13598636 -0.05536457 -0.09715514 -0.037687294
0001d0 82 fb 0b 3d f1 b3 88 bc 15 aa e1 3d 74 b4 76 be
       0.034175403 -0.016687365 0.11018769 -0.24092275
0001e0 45 f3 01 be 5a f6 48 3e 76 a4 e1 3c 0b 1e e8 3c
       -0.12690456 0.19625226 0.027544241 0.028334638
0001f0 59 2e 03 3d 83 1b dc bd f7 d6 ac bd 1f 88 a3 3d
       0.032026622 -0.10747435 -0.08439439 0.079849474
000200 3b 20 3d bd 67 b5 b7 bd d0 24 30 3d a7 10 11 3e
       -0.046173315 -0.089701466 0.043003857 0.14166509
000210 e9 f7 1c 3d c9 5c ed bd a7 d9 4f bd a4 51 fb bd
       0.038322363 -0.11589963 -0.05074468 -0.12271431
000220 cb b1 4b 3e 0c a7 58 3d 11 ec 23 3e b2 91 28 3b
       0.19892041 0.052893683 0.16008021 0.0025721607
000230 8b 22 b9 be 55 c6 94 bc b8 1f 89 be f4 2f d5 3d
       -0.36159167 -0.018160978 -0.26782012 0.10409537
000240 d0 78 56 bc e8 dd 77 be 21 f5 f2 bd a5 ae 84 be
       -0.013090327 -0.24205744 -0.11863161 -0.25914493
000250 35 bb c7 3d ee 70 1f be 8d 9c 2c 3e 7c fd a2 3d
       0.09752504 -0.15570423 0.16856594 0.079585046
000260 e5 a6 38 3e 4c c6 6e bc a5 7b 36 be 24 51 5f be
       0.18032415 -0.014573645 -0.17820604 -0.21808296
000270 8a 35 ef 3d be 7a 18 be 15 de 73 bd af 94 b5 bd
       0.11680134 -0.14890572 -0.059537966 -0.0886625
000280 66 67 1f 3c da 92 7f be 5e 6c 0f 3e c6 c9 18 be
       0.009729242 -0.24958363 0.14006183 -0.1492072
000290 12 e4 35 3e dc 39 04 be 82 5b c2 bd 2d 8d 31 bd
       0.17762783 -0.12912697 -0.0949011 -0.043347526
0002a0 0b e0 80 3d 67 55 03 bc b9 8a 5e be 12 d8 13 3e
       0.06292733 -0.008015967 -0.21732606 0.14437893
0002b0 49 cb 73 3e d4 88 0d 3e 8d 42 79 3e ed 97 85 3d
       0.23808016 0.13821727 0.24341793 0.06523118
0002c0 52 a4 18 3a 4f 74 32 be 4d af 25 be a5 47 ef bd
       0.00058228255 -0.1742718 -0.16180153 -0.11683587
0002d0 93 3b a3 3c 1e 62 57 3e 0c 0a d5 bd a4 77 73 3d
       0.019925868 0.21033522 -0.10402307 0.05944027
0002e0 05 b3 e9 3a 1b 51 20 be 0c 5c fa 3c f2 39 94 3e
       0.0017829841 -0.1565594 0.03056147 0.2895046
0002f0 69 d5 32 3e b1 1b 76 3e e8 9f bf bc 21 01 74 bd
       0.17464222 0.24034001 -0.023391679 -0.05957139
000300 3e 45 d9 3d 91 cf 9e bd cf 87 ab bd 93 ce fa 3d
       0.1060891 -0.07754434 -0.08375513 0.12246432
000310 35 12 8d bd af 6a 3e be 59 8f 42 3e c4 34 fb bd
       -0.06888238 -0.18595384 0.18999995 -0.122659236
000320 1a df 35 3d b1 fd 33 be bd 70 e2 3d 38 bf 3b 3e
       0.04440222 -0.17577244 0.11056659 0.18334663
000330 5f 62 9b bd e4 e8 20 be 42 77 c7 3d 98 6f 13 3e
       -0.07587122 -0.1571384 0.097395435 0.14398038
000340 fd ce 46 3d 30 c9 60 bd 5f 6b 02 be 1c bd 6c 3e
       0.048537243 -0.054879367 -0.12736271 0.23119015
000350 0f 35 9d bc 56 11 1a be b1 27 2b bd 86 dd fb bd
       -0.01919034 -0.15045676 -0.0417859 -0.122981116
000360 d7 f0 13 3e 46 07 d4 bc 7d e3 ba bd d7 ca 08 bc
       0.14447342 -0.025882374 -0.09125421 -0.008349142
000370 fc 4f 01 3c 8c 3a 65 be 42 5b 7a be 31 b9 ee 3c
       0.007892605 -0.22385615 -0.24448875 0.02914104
000380 b9 eb d4 bd 44 ae 5f 3d d5 b9 f7 3d 45 48 bb 3d
       -0.10396523 0.054609552 0.120959915 0.09144644
000390 6f f5 df 3d 1f 40 99 bc 45 c4 84 3d 91 04 a5 3d
       0.109354846 -0.018707333 0.06482748 0.080575116
0003a0 2f 03 0e 3e c7 5f 74 3e 31 50 38 3e 85 9a 7e be
       0.13868402 0.23864661 0.1799934 -0.24863632
0003b0 6c 59 8a bd cf 8c 0f be f0 c1 f4 3c 2e 07 26 3e
       -0.06755337 -0.14018558 0.029877633 0.16213676
0003c0 93 fd 10 be 50 ee a4 bd 5f 63 1d 3e 0e 69 21 be
       -0.14159231 -0.08053267 0.15369938 -0.15762731
0003d0 ac 70 0e 3e 34 fd a5 3d 79 d2 ff 3c 2e ca e6 3d
       0.13910168 0.08104935 0.03122829 0.112690315
0003e0 64 28 7f be 7c 2b 8f 3c 60 e0 2f 3d 78 5c 89 bd
       -0.24917752 0.01747679 0.04293859 -0.0670709
0003f0 bc 85 32 3d 1d f0 14 be 60 25 d0 bd 11 bf 26 be
       0.04358457 -0.14544721 -0.10163379 -0.16283824

bias f4 [32]
000000 90 18 b4 3d a3 0e 6a 3d 2e 0a dc bc 74 a1 7d 3d
       0.087937474 0.057142865 -0.026860323 0.06192155
000010 35 ef 0a be 6d e4 65 3e d2 04 af bd 8d a8 04 3e
       -0.13567813 0.22450419 -0.08545841 0.12954922
000020 dd 4c 0d 3e c3 a6 ea 3d b7 80 34 3d e9 8b 28 3e
       0.13798852 0.114575885 0.044068065 0.16459621
000030 d7 14 60 be 89 88 22 3e d2 9d 0a bd 2a 71 d6 3c
       -0.2188295 0.15872397 -0.033841915 0.026177008
000040 40 bb 6f bd 53 31 8b bd 97 72 0b be f4 35 1e 3e
       -0.058528185 -0.06796517 -0.13617931 0.15450269
000050 1d 46 b3 bd 6d 56 12 bd 81 23 c2 3d 7a f4 7a 3c
       -0.087536074 -0.035726953 0.09479428 0.015317077
000060 75 c0 55 be 80 74 20 be 71 2a 94 bd de b7 53 3e
       -0.20874198 -0.15669441 -0.072346576 0.20675609
000070 cd 8d e7 bd e9 0b 93 3d 95 11 2b 3e 0e 90 82 bd
       -0.11306343 0.07180006 0.16705926 -0.063751325

weight f4 [32]
000000 f8 56 be 3f d5 56 ba 3f 12 39 81 3f 48 72 b0 3f
       1.4870291 1.4557749 1.0095541 1.3784876
000010 84 de 76 3f a3 f2 83 3f 2c 98 64 3f 50 11 8d 3f
       0.9643328 1.0308422 0.89294696 1.1020908
000020 b5 f9 96 3f d3 11 7f 3f 05 e1 92 3f 09 6c 88 3f
       1.1794955 0.9963657 1.147492 1.065797
000030 fe 2d 80 3f c1 a1 51 3f 97 14 81 3f e3 64 9e 3f
       1.0014036 0.8188744 1.0084409 1.2374538
000040 e2 06 6b 3f 21 ff 73 3f 1f ab 72 3f a1 c7 42 3f
       0.9180738 0.9531117 0.9479236 0.7608586
000050 35 3e 8a 3f 2c d4 ab 3f 33 01 83 3f 90 a9 6d 3f
       1.0800234 1.3424125 1.0234741 0.92836857
000060 61 7f 9a 3f e4 e9 92 3f 83 e0 8a 3f df ea 51 3f
       1.2070123 1.1477628 1.0849766 0.8199901
000070 02 2e 97 3f 89 d1 8a 3f c3 ed 94 3f 1d 67 b8 3f
       1.1810915 1.0845195 1.1635059 1.4406468

bias f4 [32]
000000 c5 53 ab be 24 ed 9b be 12 54 35 be 00 81 95 be
       -0.3346235 -0.3045436 -0.17707852 -0.29199982
000010 9a 5b db bd 75 e7 e8 3a 1b 75 24 be 7a 5b ca be
       -0.10710831 0.0017769175 -0.16060297 -0.39522916
000020 9e 53 37 be f3 0d a1 bd b2 ea c6 bd bb 07 6e be
       -0.17902991 -0.07863989 -0.09712733 -0.23245136
000030 88 8c 12 be a6 91 e9 bd 90 61 14 be cd 54 99 be
       -0.14311421 -0.11404733 -0.14490342 -0.2994751
000040 59 70 25 be ad 10 25 be 85 47 aa be 95 8d 54 bd
       -0.16156138 -0.16119643 -0.3325769 -0.051892836
000050 7c 94 3f be 63 1d 3d be 86 b5 90 bd fc 2d 2a be
       -0.18708986 -0.18468241 -0.07065873 -0.16619104
000060 3f 16 7d be 82 aa 53 be 8a 5e 6c be d9 2c 7b be
       -0.24715517 -0.20670512 -0.23082939 -0.24528827
000070 c2 43 8b be 80 e0 2d be c9 54 88 be d7 c4 94 be
       -0.27200133 -0.16980171 -0.26627186 -0.29056427

running_mean f4 [32]
000000 1c 40 b0 3d 86 79 66 3d 31 db 17 bd 71 81 85 3d
       0.08605978 0.056268238 -0.03707427 0.065188296
000010 33 54 0a be 9a e8 63 3e 53 36 c7 bd c1 e4 f9 3d
       -0.13508682 0.22256699 -0.097271584 0.122018345
000020 43 08 1f 3e b5 33 e3 3d 6a 8f 3d 3d b7 4b 2a 3e
       0.15530495 0.11093847 0.04627935 0.16630445
000030 85 9d 61 be 73 f2 1c 3e fb 1f 11 bd 35 6e f7 3c
       -0.22032745 0.15326862 -0.03543089 0.030203918
000040 67 92 5e bd e2 18 8c bd a3 ec 08 be 24 12 0e 3e
       -0.05433884 -0.068406835 -0.1337152 0.13874108
000050 e4 96 a6 bd 13 d9 31 bd 71 f0 b7 3d 50 76 43 bd
       -0.08134249 -0.04341991 0.089814074 -0.047720253
000060 56 ae 50 be a7 fb 1d be 83 41 9d bd f7 9e 60 3e
       -0.20379004 -0.15428029 -0.07678511 0.2193564
000070 44 fc e3 bd 96 4f 9a 3d e9 42 46 3e df a9 82 bd
       -0.111321 0.07534711 0.19361462 -0.063800566

running_var f4 [32]
000000 c1 e7 f9 3d 1d 16 61 3e 15 da 21 3e c5 53 a7 3d
       0.12202407 0.21981092 0.15805848 0.08170275
000010 a7 5a 74 3c 1d 55 9f 3c 0a b8 01 3f 0c cc 93 3e
       0.014914191 0.019449765 0.50671446 0.28866613
000020 a6 cb 7a 3d c0 25 e0 3c 3b c3 c1 3d 0e 2f 18 3e
       0.06122937 0.02736175 0.094610654 0.148617
000030 1f fc a3 3c c9 bf 2f 3d 53 29 c4 3d 07 0c 54 3d
       0.020017682 0.04290751 0.095781945 0.051769283
000040 29 d1 12 3e 9f 08 2e 3c ed a4 25 3c 0d ab 99 3d
       0.14337601 0.010622173 0.010110122 0.075033285
000050 e7 ec 31 3e ef 35 84 3d 47 fb a2 3c b6 50 cd 3f
       0.17375527 0.064555995 0.019895209 1.6040256
000060 97 a6 4f 3d c7 f6 cd 3d 72 0a 32 3d ad 24 65 3f
       0.05069598 0.10056835 0.043466993 0.8950909
000070 b3 09 99 3d a3 8e 39 3d 64 8e 35 40 aa 23 ee 3d
       0.07472553 0.045302045 2.8368158 0.11627896

weight f4 [32, 32, 1, 16]
000000 e0 a5 87 3d 48 e3 1b 3c 64 af 86 3c dc dc a2 bd
       0.06623435 0.009514637 0.016441055 -0.07952282
000010 80 ea ec bd 99 1b 0c be 12 15 18 be a7 e7 f7 bd
       -0.11568165 -0.13682403 -0.14851788 -0.12104731
000020 79 a9 e3 bd 93 db c2 bd b1 6f 12 be 98 2a 5f be
       -0.11116309 -0.09514537 -0.1430042 -0.21793592
000030 ec 31 7b be 4a a0 ca bb e2 b3 a5 bd 0e f7 e2 bd
       -0.24530762 -0.0061836587 -0.080909505 -0.11082278
000040 98 ca 8f bd 31 77 8f bc 0b 41 39 bd d4 f0 43 3d
       -0.070210636 -0.01751289 -0.045228045 0.047837093
000050 fa 7a d7 3d 8b 72 cc 3d 6a a3 93 3d e2 b4 f6 3d
       0.10521503 0.09982785 0.07208903 0.120462194
000060 e3 ee 05 3e 95 62 8a 3d 51 f6 8f 3c fe b2 a3 3d
       0.1307941 0.06757084 0.017573508 0.079931244
000070 02 8f a6 3d 77 45 80 bd 39 de d0 3c ba 4d a7 3c
       0.08132745 -0.06263249 0.025496589 0.020422805
000080 1f ca 97 3c f0 08 a4 3d f9 a8 32 3d 75 a2 82 3c
       0.018528996 0.08009517 0.043618176 0.015946606
000090 8d 79 66 39 96 7e 51 bd e3 7a 85 bd d9 81 c0 3c
       0.0002197979 -0.051146112 -0.065175794 0.023499416
0000a0 47 92 95 3d 79 b7 e4 bc 1d 8f c5 bd f1 13 ef 3c
       0.07303291 -0.027919518 -0.09646437 0.029184313
0000b0 8c 77 9d 3d 55 49 b9 bd 51 38 18 be 12 73 49 bc
       0.076888174 -0.0904719 -0.14865233 -0.012295501
0000c0 86 13 fb bd 9e 01 23 bd 25 95 11 bd 91 10 81 bd
       -0.12259583 -0.039796464 -0.035542626 -0.06301988
0000d0 8a 64 4e 3b 81 08 8c 3c eb 34 ea 3b ec 7c c2 bc
       0.0031493031 0.017093899 0.0071474216 -0.023741208
0000e0 c3 79 a2 3d 54 f7 d5 3d 8f 7a 9e 3a 88 be b0 bc
       0.079333805 0.10447565 0.0012090969 -0.021575227
0000f0 0a e1 5e bd 5f d7 82 bd 1d 40 bd bd c6 ce 99 bd
       -0.054413833 -0.06388735 -0.09240744 -0.07510142
000100 53 ab 8f 3d 4e 7f 21 3d bb e0 3d 3d d6 73 88 bc
       0.070150994 0.039428048 0.046356898 -0.016656797
000110 62 c3 bf 3c 1f 70 03 bc 26 c5 1e be 60 13 5d be
       0.023408595 -0.008022337 -0.15504894 -0.21589422
000120 b7 b5 aa 3c bb ec 9b 3d 9b 28 ab bd 39 0c d0 bd
       0.020838602 0.07613512 -0.08357354 -0.10158581
000130 6b bc 7e 3b 0d 81 8a ba af 3e 5d bc d4 41 c3 3d
       0.003886963 -0.0010567025 -0.013503714 0.0953404
000140 4f 12 06 3d 27 19 4f 3d 5c c0 74 bd 94 0a 43 bd
       0.032732304 0.050561097 -0.05975376 -0.04761751
000150 f5 4e f4 3c 1a 00 0e 3e 6d 77 7d bd 2e 1d 1a be
       0.029822806 0.13867226 -0.06188147 -0.15050194
000160 8e 55 7c bc fa 6e 04 3d bc 46 bd 3d 18 9d 93 bd
       -0.015401257 0.032332398 0.09242007 -0.07207698
000170 7a 37 e0 bd 80 52 f8 3c e3 b9 7e bc ba ce 3b 3b
       -0.10948081 0.030312777 -0.015547249 0.0028657154
000180 1b 92 57 3d 8d 27 39 bd 81 b2 64 3d 39 6c 82 bc
       0.05262957 -0.045203734 0.055834297 -0.015920745
000190 6b 71 b1 3c d4 d4 36 3d 35 2f 47 3d f8 00 ca 3d
       0.021660527 0.044636562 0.048629005 0.09863466
0001a0 6b 25 92 bc 3e 08 54 bd 9c 6c 7f 3c a0 54 50 bc
       -0.017840108 -0.051765673 0.015589859 -0.012715489
0001b0 b6 a3 18 bd 59 ed 71 bd 34 0c 46 bd a8 f6 dd bc
       -0.037265502 -0.059064243 -0.04835148 -0.027095154
0001c0 5f 73 ca bc e7 7f b4 bd 95 3d d6 bb da 59 46 bc
       -0.024713216 -0.08813458 -0.006538103 -0.012106383
0001d0 95 84 77 bd 7a 3d 11 3d 16 e3 37 bc e9 0d 8c bd
       -0.060429174 0.03545902 -0.011223575 -0.06838591
0001e0 61 51 cd bd 53 c6 0c be 9d fc 36 bd ea 4e 53 bd
       -0.100252874 -0.1374753 -0.044674505 -0.05158893
0001f0 63 ca a8 bc 28 3e 8c bd 10 ff 8a bb be e9 fd bc
       -0.020604318 -0.06847793 -0.0042418316 -0.030995246
000200 16 44 a5 bd c0 f2 e9 bd 5e 9a b3 bd d5 e3 33 bd
       -0.08069627 -0.11423254 -0.087696776 -0.04391845
000210 4e 8a 59 3d 84 49 64 3c 45 7b 3a 3c 7e 54 1b bd
       0.053110413 0.013933543 0.011381929 -0.037922375
000220 d2 d4 dc 3d 1b 06 48 3d 66 57 d7 3d f4 d5 06 3e
       0.1078278 0.048833948 0.10514717 0.13167554
000230 3f 6a a2 3d 15 d1 08 3e 8a 33 6c 3d ad 5b d3 3d
       0.07930421 0.13361008 0.05766634 0.1032022
000240 b0 b5 0d be b4 21 2c be bd 35 83 bd cd bd 50 bd
       -0.1383884 -0.16809732 -0.06406734 -0.050962258
000250 71 95 25 bd a6 aa e1 3c 56 bf 10 3d 6a 12 a7 3b
       -0.04042572 0.027547192 0.035338722 0.0050986307
000260 c0 b7 54 3c df c8 bb 3c 06 18 13 3e 31 85 18 3e
       0.012983263 0.022922931 0.14364633 0.14894558
000270 99 17 7a 3d 9a f8 68 bd 69 e1 1f bd ec e2 0e be
       0.06105766 -0.05687771 -0.039033327 -0.13953751
000280 f0 83 63 bd a1 31 83 bd 49 41 ae bc 26 e8 08 be
       -0.055545747 -0.0640595 -0.021271365 -0.13369808
000290 d1 70 2e bc cd 25 0f 3d b0 c2 66 3d 75 0a cd 3c
       -0.010647015 0.03494816 0.056338012 0.0250294
0002a0 b4 da b7 3d 5a 1f 9e ba 1d 8e c8 bd b5 7c 14 bd
       0.08977261 -0.0012063787 -0.09792731 -0.036251742
0002b0 82 4d 96 3a 2b fd b4 3c 43 fa e4 bd 79 97 b7 bd
       0.0011467191 0.022093376 -0.11180546 -0.08964438
0002c0 20 74 7d bd 69 0f 0d be f5 07 ca bd cd 72 81 bc
       -0.061878324 -0.1377541 -0.09864799 -0.015801812
0002d0 78 ef 87 bd f6 19 f7 bd e8 f0 ba bd 96 48 5b bd
       -0.06637472 -0.120654985 -0.091279805 -0.05353602
0002e0 d2 bc 5a bd 8c 91 9c 3d 96 7a b3 3d a4 e2 9b 3a
       -0.05340273 0.07644948 0.08763616 0.0011893106
0002f0 c2 6d 20 3d 6f 38 c7 3d 72 be d4 3d f9 69 37 bd
       0.039167173 0.09727561 0.10387887 -0.044778798
000300 56 77 f2 3d cf d1 e5 3d 4c 95 2c 3e c8 a1 07 3e
       0.11839168 0.112216584 0.16853827 0.13245308
000310 5f 97 1c 3e f7 68 5c 3d c2 2d 9f bd 03 fb d6 bd
       0.15292118 0.05381104 -0.077723995 -0.104970954
000320 b0 22 fd bb c5 bc 95 bc 14 fd e6 bd d2 9a ba bd
       -0.0077250823 -0.018278489 -0.112787396 -0.09111561
000330 7b 90 66 bd 81 a9 f6 bd 6d 27 4a 3c cf 8d 58 3e
       -0.05629013 -0.12044049 0.012338501 0.21147846
000340 b2 54 59 bd 79 1c 66 bc e1 a6 22 3d 91 03 8f 3d
       -0.053059287 -0.014044874 0.03970993 0.06983102
000350 9e c2 46 3d 6d ab 6e 3d d8 61 0c bd 64 1b 09 3c
       0.048525445 0.058268953 -0.034273 0.008368347
000360 ad 36 c3 bb d5 0b 36 bc a4 8c 27 3d 07 da a3 3d
       -0.0059574456 -0.011111219 0.04090561 0.0800057
000370 4c ed e6 3c 04 d2 7b 3d 80 4f ce 3c a6 f3 a0 3c
       0.028189324 0.061479583 0.025184393 0.01964743
000380 a5 1c ae 3d db 57 05 3b 18 6e 44 3b 00 cf 90 3d
       0.08501557 0.0020346555 0.0029972848 0.07070732
000390 02 28 d0 3c bf 46 07 bd 14 36 d1 3d 6b d4 2b 3c
       0.025409702 -0.033026453 0.10215393 0.010487656
0003a0 db 1d c1 bb 69 b2 6e 3d 1d 72 9a 3c 48 b8 a3 3d
       -0.0058934516 0.058275614 0.018853242 0.07994133
0003b0 dd aa 4d bc 1a 08 83 bd 81 71 2e bb 87 3a 9a bd
       -0.012552944 -0.063980296 -0.0026617947 -0.075306945
0003c0 1a 91 49 3d da 36 8d 3d f4 cf a5 bd c3 59 74 bd
       0.049210645 0.06895228 -0.080963045 -0.059655916
0003d0 34 4c b6 bd db 02 53 bd 09 01 49 3d 55 10 c7 ba
       -0.08901253 -0.051516395 0.049073253 -0.0015187362
0003e0 9d 31 b5 bd 1e 84 65 bd 0f 98 4b bd 46 55 a9 3d
       -0.088473536 -0.0560342 -0.04970556 0.08268218
0003f0 bb 1e ab 3d 58 a7 ac 3d 06 51 a7 3d 3c d7 22 3d
       0.08355471 0.08430356 0.08169751 0.039756045

weight f4 [32]
000000 3d e1 ba 3f b3 ca 9e 3f a1 a2 9f 3f 81 9e 9f 3f
       1.4599987 1.2405609 1.2471505 1.2470247
000010 64 4b 95 3f 03 5f 9e 3f ce 0f a9 3f 85 01 96 3f
       1.1663632 1.2372745 1.3207948 1.1719214
000020 c3 86 b2 3f 6b 04 96 3f 08 7c b4 3f 2d ed aa 3f
       1.3947376 1.1720098 1.4100351 1.335363
000030 5b 04 97 3f 0c bd 99 3f bb d1 97 3f 8f a4 ac 3f
       1.1798204 1.2010818 1.186088 1.3487719
000040 5f 5a 95 3f ca 16 88 3f 69 a1 9b 3f a8 17 a3 3f
       1.1668204 1.0631955 1.2158633 1.2741594
000050 aa 3e aa 3f 1b 3f 76 3f 71 87 9e 3f 99 0f a1 3f
       1.3300374 0.9619004 1.2385083 1.2582885
000060 aa 85 a0 3f 22 49 98 3f 9f 1d ac 3f 70 3f 95 3f
       1.2540791 1.1897318 1.344654 1.1659985
000070 0e 7a 8e 3f 43 60 a3 3f 2e 70 98 3f 95 cd b8 3f
       1.1130998 1.2763752 1.1909235 1.4437739

bias f4 [32]
000000 37 6a 53 be b4 24 22 be 31 03 04 be 11 3c 23 be
       -0.20645986 -0.15834314 -0.12891842 -0.15940882
000010 70 75 bd bd 5d 63 7b be c9 78 5b be 69 98 40 be
       -0.09250915 -0.24549623 -0.21432795 -0.1880814
000020 7d 2e 0b be 77 fd cf bd ff 12 16 be 5e e0 3a be
       -0.13591953 -0.101557665 -0.14655684 -0.18249652
000030 c8 1c 63 be cd 10 68 be 1c 74 37 be 10 cd 53 be
       -0.22178948 -0.22662659 -0.17915386 -0.20683694
000040 c8 1b 23 be 6e 8d 02 be f5 3b 8f be 27 87 b6 bd
       -0.15928566 -0.12749264 -0.2797543 -0.08912497
000050 af a2 e0 bd 2e f9 0e be f8 f2 8d be ab 4f 69 be
       -0.109685294 -0.13962242 -0.27724433 -0.22784297
000060 28 27 90 be ae ae 16 be b7 03 8c be a2 36 31 be
       -0.28154874 -0.14715073 -0.27346584 -0.17305997
000070 c8 97 5f be de af 42 be ac 50 80 be 9c 52 26 be
       -0.21835244 -0.190124 -0.25061548 -0.1624245

running_mean f4 [32]
000000 f9 09 2e bd 4a d3 25 be da 6e 5d bd c2 59 ae bb
       -0.04248998 -0.16193882 -0.054060794 -0.0053207586
000010 20 d7 52 be 88 89 97 bd 1b 58 67 bd 70 1b af be
       -0.20589876 -0.07399279 -0.05648051 -0.3420062
000020 85 ff 26 bd 8f f7 8f bc 49 a8 95 3c ad d5 6c 3c
       -0.040771026 -0.0175741 0.018268721 0.014455241
000030 3b 7c aa be ad 45 cd 3d 07 2c 9b 3d 7f a7 85 be
       -0.33297905 0.10023055 0.07576757 -0.26104352
000040 57 b5 af 3d 6d 4b 8c 3d 95 67 1f 3d 0d dd fb bd
       0.0857951 0.06850324 0.038917143 -0.122980215
000050 fe e6 eb bd 8c 58 fd 3c 0c 47 02 be 23 e5 f0 bd
       -0.11518668 0.030926012 -0.12722415 -0.11762454
000060 94 06 12 be 27 bb a1 3d 88 9f 15 be 3c b5 7b be
       -0.14260322 0.078970246 -0.14611638 -0.24580854
000070 28 b5 e8 bd 25 2a 91 be 6b 69 3a be 7b 2e 08 bd
       -0.11362678 -0.28352466 -0.18204276 -0.033247452

running_var f4 [32]
000000 a2 57 e2 3f ee 98 ec 3f 20 9c c2 3f 59 c1 e6 3f
       1.7682993 1.848417 1.5203896 1.8027755
000010 4b e2 11 40 21 c7 c7 3f 10 b6 e1 3f 9c 53 f3 3f
       2.2794368 1.5607644 1.7633686 1.900989
000020 80 cf 01 40 00 8b d4 3f a1 54 fa 3f c9 76 dc 3f
       2.0282898 1.660492 1.9557077 1.722375
000030 07 e1 ec 3f ed c6 d5 3f 22 b5 ca 3f 84 6d e0 3f
       1.8506173 1.6701332 1.5836527 1.7533422
000040 bb b7 f1 3f 33 16 f2 3f a2 61 c0 3f 61 04 f9 3f
       1.8884195 1.8913025 1.5029795 1.9454461
000050 ed b3 f7 3f dc b9 f1 3f 6f 82 c2 3f ef 4e b2 3f
       1.9351784 1.8884845 1.5196055 1.3930339
000060 a2 ed ed 3f fe 64 cc 3f a2 df fa 3f b7 f2 dd 3f
       1.8588145 1.596832 1.9599497 1.7339696
000070 f2 08 00 40 a3 48 c3 3f 54 63 c6 3f 22 70 c1 3f
       2.000546 1.5256542 1.5499063 1.5112345

in_proj_weight f4 [96, 32]
000000 79 2b e3 bd d6 5e b9 bd 27 31 92 3d 5d 35 27 3d
       -0.11092276 -0.09051292 0.07138281 0.040822376
000010 80 4e dd 3d d4 74 10 3e 5d 68 14 be 05 67 49 3e
       0.10805988 0.14107066 -0.14492936 0.19668205
000020 33 3e 53 3c 97 4b 38 be 08 b1 fb 3d dd 0d fa bd
       0.012893247 -0.17997585 0.122896254 -0.122096755
000030 1b 71 2a 3e a5 f9 d4 bd 56 bb be bd 7b 9f b7 3d
       0.16644709 -0.103991784 -0.09313075 0.08965965
000040 ff 9e 53 3e b7 da 21 be 85 35 bb 3d 1a 91 2f be
       0.20666121 -0.1580609 0.091410674 -0.17145196
000050 e2 8c 36 3e af 0a e5 bb 68 b2 fa 3d 20 00 07 be
       0.1782718 -0.006989799 0.122410595 -0.13183641
000060 9e 7b 85 3d 1d d6 32 3e c2 4a f3 3d 2c 02 19 3e
       0.06517719 0.1746449 0.11879493 0.14942235
000070 7c fb 1a 3e 1c b6 4a bd bc 84 37 be 6c b0 d1 3c
       0.15134996 -0.04949008 -0.17921728 0.02559682
000080 f2 3c 2b be a4 64 58 be 97 53 b9 3d 97 35 20 3e
       -0.16722468 -0.21132141 0.090491466 0.15645443
000090 4f a0 42 3d 3b 12 3f be ff bc 84 3c c3 19 24 3e
       0.047516163 -0.18659298 0.016203402 0.16025452
0000a0 09 d9 e9 3c 05 40 2f be 66 01 34 bd a0 14 19 be
       0.028545873 -0.17114265 -0.043946646 -0.14949274
0000b0 d8 f4 5a 3c bb fd d4 bd 01 e5 52 be 25 62 69 3d
       0.013364039 -0.10399958 -0.2059517 0.056978364
0000c0 d5 ef 6e bd 09 48 4b be 5d 01 44 3e fa a8 72 bd
       -0.05833419 -0.19851698 0.19141145 -0.05924318
0000d0 5c c8 3e be e9 7d 9b 3d f1 8b 37 3e 63 22 da bd
       -0.18631119 0.07592375 0.17924477 -0.1065109
0000e0 9e 1f 3c be a1 11 cc bc 71 d6 57 3e 53 05 5b 3e
       -0.18371436 -0.02491075 0.21077897 0.2138875
0000f0 f0 0e b0 3d 34 d9 4e bd 69 06 06 3e 0a 9f 62 3c
       0.08596599 -0.05050011 0.13088383 0.013831863
000100 34 db d8 3c 55 9a 31 3d 82 54 d0 bd c1 17 bc bd
       0.026471712 0.043360073 -0.101723686 -0.09184218
000110 9e 27 ee bd ee c1 8d bd 8d 29 22 3d 12 6d 36 3c
       -0.1162865 -0.06921755 0.039590407 0.011134403
000120 ac 6a 3b 3d 5e 21 41 3e 41 2a 95 3c 8f 0b f9 3d
       0.045756027 0.18860385 0.018208625 0.12160408
000130 0b 54 04 bd 51 a5 21 be df 38 d4 3d a7 b7 56 3e
       -0.032306712 -0.1578572 0.1036241 0.20968495
000140 ca 22 04 3e be 7a 66 3c ad b0 22 bd 3c 4c 43 be
       0.12903896 0.01406735 -0.039719272 -0.1907205
000150 03 a5 2a 3e ef 7e 1f 3e 87 71 37 3d 6d f5 94 bc
       0.1666451 0.15575765 0.044786002 -0.018183434
000160 53 4b c9 3d 79 6a 09 be 90 b5 0c 3e e3 33 33 be
       0.0982882 -0.13419522 0.13741136 -0.17500262
000170 61 77 5a 3e 1c b6 df bd 78 f6 e2 bd db fd b3 3c
       0.21334602 -0.109234065 -0.110821664 0.021971634
000180 b4 bc 80 bd dd 37 6a 3d 29 bd 08 be 99 2b 8c bd
       -0.06285992 0.05718218 -0.13353409 -0.06844253
000190 ad 89 f7 3b db c2 8c bd 2a 96 6f bd c9 05 d8 ba
       0.007554254 -0.06873103 -0.058492817 -0.0016481216
0001a0 d2 da 42 3d 08 e9 ea 3d 1c bd 00 3e 38 16 fe 3d
       0.047571965 0.114702284 0.1257214 0.12406582
0001b0 d1 09 d3 bd 96 53 10 be bc fa 9f bd 45 39 44 be
       -0.10304607 -0.14094386 -0.07811496 -0.19162472
0001c0 5c 48 30 be ce b0 dc 3d c2 b7 05 be 4e 2e 09 bc
       -0.17215103 0.1077591 -0.1305838 -0.008372856
0001d0 64 13 fb 3d 24 62 2f 3e e8 d8 88 3d a3 19 32 bd
       0.12259558 0.17127281 0.066819966 -0.04348148
0001e0 41 84 75 bd c9 be 1d 3e fd 5c b5 bd 90 aa f8 3d
       -0.05994058 0.1540481 -0.08855627 0.12141907
0001f0 36 98 e3 3d 8a a5 c6 bd ea 7b 1a 3a 2b 61 a0 3d
       0.11113016 -0.09699543 0.00058930984 0.07831033
000200 f5 d9 2d be 72 b0 e8 3d 8c 8c db 3d cb 4c 41 be
       -0.16977675 0.11361779 0.107201666 -0.1887695
000210 96 cc 46 3e af 24 4b 3e a0 b8 01 3e 8c 13 c9 3d
       0.19413981 0.19838212 0.12668085 0.098181814
000220 09 36 13 3e b1 cb 42 3c 58 aa 88 3c 55 51 92 ba
       0.14376082 0.011889384 0.016682789 -0.0011163155
000230 28 6a 40 be f3 5c 1e bd 18 18 03 3e 6e 42 df bb
       -0.18790495 -0.038662862 0.1280216 -0.006813339
000240 1c b4 5a be 50 48 8e 3d c4 34 85 3d 4c 32 a6 3d
       -0.21357769 0.06947386 0.06504205 0.08115062
000250 e7 b5 aa 3d f1 5a c9 3d 20 25 e8 3d 75 e7 93 3d
       0.08335476 0.09831799 0.11335206 0.07221881
000260 bc a2 f4 bd 92 82 cb bd 1a b5 1d 3e 6e 04 b9 3d
       -0.119451016 -0.09937014 0.15401116 0.09034048
000270 2b 6f be bc 25 b9 17 3e 99 cd 6b bd 04 78 9f bd
       -0.023246368 0.14816721 -0.05756912 -0.07786563
000280 55 81 89 bd c3 83 31 3e 5d 58 13 be 7e b8 9c 3d
       -0.06714121 0.1733542 -0.14389177 0.076523766
000290 94 e3 a9 bb ac 88 7e bd 56 98 3b be 4e d5 08 3e
       -0.0051846 -0.06214206 -0.1831983 0.1336262
0002a0 20 63 a4 3d e2 f4 03 3e 87 37 2f 3e f7 4d 2d be
       0.08026719 0.12886384 0.17111026 -0.16924272
0002b0 d1 2e 00 3e 3b fc 23 3d 0e 06 75 bd 92 23 3a be
       0.12517859 0.040035468 -0.059820227 -0.18177631
0002c0 83 f5 1f 3e 80 55 c6 3c 78 1f 0b 3e 16 d7 69 bd
       0.15620999 0.024210691 0.13586223 -0.057089888
0002d0 05 01 58 bb 77 30 2a 3e aa 15 99 bd 83 3a 8f bd
       -0.0032959592 0.1662005 -0.07474835 -0.06993582
0002e0 7f a1 59 bd e2 fe 1a be 68 9d 11 3e 32 6f 34 3c
       -0.05313253 -0.15136293 0.14220202 0.011012839
0002f0 a1 11 01 3d 1c 47 03 3e cb 55 36 be 3b 22 3b be
       0.031510953 0.12820095 -0.17806165 -0.18274777
000300 09 b6 3d be 67 c8 81 3d 3f 68 78 bd a2 e1 1e 3e
       -0.18526472 0.06337052 -0.06064629 0.1551576
000310 39 8f 12 3e 60 b6 0b be 1c 7b d7 3c 58 48 16 be
       0.14312448 -0.1364379 0.02630382 -0.14676034
000320 16 51 a9 3d 0b 5f ad 3c dd c9 20 3d 87 26 07 3d
       0.08267419 0.021163484 0.03925501 0.032995727
000330 11 5a b3 3a 85 22 3c be 22 f1 7b bc df 4f c6 3d
       0.0013683458 -0.18372543 -0.015377315 0.09683203
000340 94 8d f3 bd d7 ac 57 3e 6d 6b 84 3c bd b0 76 bd
       -0.11892238 0.21062027 0.016164506 -0.060227145
000350 08 83 3b bc c2 f3 cf bd e0 c0 4e 3c b5 b8 3d bd
       -0.0114448145 -0.10153915 0.012619227 -0.04631873
000360 0c 3c 03 bd f0 a7 48 3e 01 95 09 3e 99 54 c7 bb
       -0.032039687 0.19595313 0.13435747 -0.006083083
000370 38 b6 2f be e7 7b 45 be d6 8a 38 be 3e 23 22 bd
       -0.17159355 -0.19285546 -0.18021712 -0.03958439
000380 af b5 56 be b0 e3 06 3e 21 04 45 be 51 3b f5 3c
       -0.20967744 0.13172793 -0.19239856 0.02993551
000390 e8 89 39 3e 3e fd 1c 3e 9b d4 ad 3d aa 29 e9 3c
       0.18119013 0.15330979 0.08487817 0.02846225
0003a0 e1 30 b3 3d 6e 37 3a 3e 83 8b 4f be cc d3 23 3d
       0.08749557 0.18185207 -0.20268063 0.039996907
0003b0 e4 e8 06 be a0 c0 40 3e 7f e6 e1 3d 14 7d 13 be
       -0.13174778 0.1882348 0.11030292 -0.14403182
0003c0 56 28 bf bd 08 46 31 3d ab bf 53 bd 26 d9 3e be
       -0.09333865 0.043279678 -0.05169646 -0.18637523
0003d0 f9 3d cc bd 6a 2e e4 3d d8 a9 90 bc c6 40 9b 3c
       -0.09972758 0.11141665 -0.017659113 0.018951785
0003e0 1c 10 52 be 7f 72 04 be cb 02 d3 3d 7f 10 99 3d
       -0.20513958 -0.12934302 0.10303267 0.074738495
0003f0 a0 b9 20 be dd 78 e1 bd 66 52 e2 bd 45 59 3c 3e
       -0.1569581 -0.11009381 -0.110508725 0.18393429

in_proj_bias f4 [96]
000000 00 00 00 00 00 00 00 00 00 00 00 00 00 00 00 00
       0.0 0.0 0.0 0.0
000010 00 00 00 00 00 00 00 00 00 00 00 00 00 00 00 00
       0.0 0.0 0.0 0.0
000020 00 00 00 00 00 00 00 00 00 00 00 00 00 00 00 00
       0.0 0.0 0.0 0.0
000030 00 00 00 00 00 00 00 00 00 00 00 00 00 00 00 00
       0.0 0.0 0.0 0.0
000040 00 00 00 00 00 00 00 00 00 00 00 00 00 00 00 00
       0.0 0.0 0.0 0.0
000050 00 00 00 00 00 00 00 00 00 00 00 00 00 00 00 00
       0.0 0.0 0.0 0.0
000060 00 00 00 00 00 00 00 00 00 00 00 00 00 00 00 00
       0.0 0.0 0.0 0.0
000070 00 00 00 00 00 00 00 00 00 00 00 00 00 00 00 00
       0.0 0.0 0.0 0.0
000080 00 00 00 00 00 00 00 00 00 00 00 00 00 00 00 00
       0.0 0.0 0.0 0.0
000090 00 00 00 00 00 00 00 00 00 00 00 00 00 00 00 00
       0.0 0.0 0.0 0.0
0000a0 00 00 00 00 00 00 00 00 00 00 00 00 00 00 00 00
       0.0 0.0 0.0 0.0
0000b0 00 00 00 00 00 00 00 00 00 00 00 00 00 00 00 00
       0.0 0.0 0.0 0.0
0000c0 00 00 00 00 00 00 00 00 00 00 00 00 00 00 00 00
       0.0 0.0 0.0 0.0
0000d0 00 00 00 00 00 00 00 00 00 00 00 00 00 00 00 00
       0.0 0.0 0.0 0.0
0000e0 00 00 00 00 00 00 00 00 00 00 00 00 00 00 00 00
       0.0 0.0 0.0 0.0
0000f0 00 00 00 00 00 00 00 00 00 00 00 00 00 00 00 00
       0.0 0.0 0.0 0.0
000100 00 00 00 00 00 00 00 00 00 00 00 00 00 00 00 00
       0.0 0.0 0.0 0.0
000110 00 00 00 00 00 00 00 00 00 00 00 00 00 00 00 00
       0.0 0.0 0.0 0.0
000120 00 00 00 00 00 00 00 00 00 00 00 00 00 00 00 00
       0.0 0.0 0.0 0.0
000130 00 00 00 00 00 00 00 00 00 00 00 00 00 00 00 00
       0.0 0.0 0.0 0.0
000140 00 00 00 00 00 00 00 00 00 00 00 00 00 00 00 00
       0.0 0.0 0.0 0.0
000150 00 00 00 00 00 00 00 00 00 00 00 00 00 00 00 00
       0.0 0.0 0.0 0.0
000160 00 00 00 00 00 00 00 00 00 00 00 00 00 00 00 00
       0.0 0.0 0.0 0.0
000170 00 00 00 00 00 00 00 00 00 00 00 00 00 00 00 00
       0.0 0.0 0.0 0.0

weight f4 [32, 32]
000000 3f b8 aa 3d 3f cf ea 3d d6 1a ea ba b5 c4 31 be
       0.083359234 0.1146531 -0.0017860781 -0.17360194
000010 90 cc a2 3d a9 4b e5 3d 08 8f 9c bc a0 5c f3 3d
       0.079491735 0.11196072 -0.019111171 0.11882901
000020 20 1a 8e 3d cc 5a 20 3d 46 84 27 3e 2b a8 ad bd
       0.06938577 0.03914909 0.16359052 -0.08479341
000030 3e f9 e6 3c ed 45 08 be 71 9d 1d 3e 7f 7c 67 3d
       0.02819502 -0.13307925 0.1539209 0.056515213
000040 ac e2 20 3e 82 01 10 be 0c 85 1d 3e 4f 7f e2 3d
       0.15711468 -0.14063075 0.15382785 0.110594384
000050 f4 9e 1d 3e 0b 5a a0 bd 56 6f 14 be b7 77 fe bc
       0.15392667 -0.07829674 -0.14495596 -0.031062944
000060 b6 3d 0f 3e 00 9e 31 3e d7 53 86 bc 84 af a4 3c
       0.13988385 0.17345428 -0.0163974 0.020103224
000070 9e 99 83 bc 8e 37 67 bc a8 46 f6 3c 6b 79 a9 3d
       -0.016064461 -0.014112366 0.030062988 0.08275112
000080 26 78 27 bd 57 b5 0b be 12 59 a9 bb 33 d3 c7 3d
       -0.040886067 -0.13643394 -0.0051680887 0.0975708
000090 b4 c4 11 be 98 94 29 3e 2f 39 81 3d 7e b6 aa 3d
       -0.14235193 0.1656059 0.06309735 0.08335589
0000a0 2a 3f af 3d b5 48 f9 3d bf bc 1e 3e 4d a7 9f bd
       0.085569695 0.12172071 0.15501688 -0.07795582
0000b0 ba f4 3d 3d 00 95 d9 3d be 3a 33 be f2 af d1 3d
       0.046375968 0.106241226 -0.17502877 0.10238637
0000c0 56 c9 2d be cd 2e ec bd ce 5b d4 bd f6 c6 f6 bd
       -0.16971335 -0.11532364 -0.10369073 -0.120496675
0000d0 88 13 02 be c8 9b d5 3d ae 46 1c be 3a e0 af bd
       -0.12702763 0.104301035 -0.15261337 -0.0858769
0000e0 e1 63 29 be 10 32 8f bd b4 5f 2c ba 40 8d 73 3d
       -0.16542007 -0.069919705 -0.000657554 0.05946088
0000f0 83 af ba bd 75 13 00 3d 59 f0 af 3d 5d a7 12 3e
       -0.091155075 0.031268556 0.085907646 0.14321657
000100 b8 4f 0c bd 0e c9 f5 bd 08 0b de 3d 64 60 82 bd
       -0.034255713 -0.12001239 0.10841948 -0.06366041
000110 ba 33 2d be 9a 2f 8a bd 74 c9 e0 bc b9 ab 1f 3d
       -0.16914263 -0.067473605 -0.02743981 0.038982127
000120 34 9a 09 3e e9 aa e5 3d 16 f7 9a bd 72 ac 12 3e
       0.1343773 0.11214239 -0.07566659 0.14323595
000130 be 4a 85 3d 59 99 3a 3d f4 2f 04 be a2 b1 f5 bc
       0.065083966 0.0455564 -0.12908918 -0.029991928
000140 6d 4f 81 3d 0a e3 54 bd 76 63 99 3d 07 08 a9 3d
       0.063139774 -0.051974334 0.07489674 0.08253484
000150 4a 8d fc bd 3e ac 12 3e 73 9a 95 3c 8b c7 40 bc
       -0.12331636 0.14323518 0.018262124 -0.011766325
000160 f8 04 5b bc 8e 2f 5f bc 5a f1 a3 bc 69 62 72 bd
       -0.013367884 -0.013622178 -0.020012546 -0.059175882
000170 fc 0b d5 3c 6c 3b 41 bd 47 90 12 3e ef d0 77 bd
       0.026006691 -0.04717581 0.1431285 -0.06050199
000180 fd 1b 26 be 67 73 33 3e d2 c1 d5 3d 89 de 00 be
       -0.16221614 0.17524491 0.10437359 -0.1258489
000190 00 f2 0e 3e e3 9d 1d be bb 22 b4 bd 9b 96 bb bd
       0.13959503 -0.1539226 -0.08795687 -0.09159585
0001a0 d4 64 f0 3c 61 8e 44 3d 0c c2 93 bd 66 52 74 bd
       0.029344954 0.047987346 -0.07214746 -0.059648894
0001b0 04 30 c2 bd 87 b8 0a 3e 4d 4b b0 3d fa 63 7f 3c
       -0.094818145 0.13546954 0.086081125 0.015587801
0001c0 1d 70 1d 3c 60 30 34 3c 44 7c 26 bd 30 fe a3 bd
       0.009609249 0.010997862 -0.040645853 -0.08007467
0001d0 c6 03 23 3e e8 6e 8d bd f3 08 df bd 0b 79 90 bc
       0.15919408 -0.06905919 -0.10890379 -0.017635843
0001e0 20 09 5f 3d 84 b0 1a be 8c e9 45 3d 61 00 0a bc
       0.05445206 -0.15106398 0.04831843 -0.008422942
0001f0 77 45 a8 bd b8 ba b5 3c 78 68 90 3c 3b 8d 2e be
       -0.08216374 0.022183761 0.01762794 -0.17046063
000200 98 3c aa 3d 04 f8 89 3d 02 2a d0 bd 24 be 64 3d
       0.083123386 0.06736758 -0.10164262 0.055845395
000210 2a e1 be bd 9b 9f 06 3e 67 a3 a1 bd ad 9c 81 3d
       -0.093202904 0.13146822 -0.07892495 0.06328712
000220 9b c9 69 3d d9 96 26 bc 6c bc c6 bd 32 e0 ab 3d
       0.05707703 -0.010167801 -0.09703907 0.08392371
000230 a4 9b 3b 3d 5a 2e a8 bd 66 ce c8 bc 31 cc 95 3d
       0.045802727 -0.08211966 -0.024512481 0.07314337
000240 e2 b3 18 be 8b 0c d4 3c 13 00 1a 3d 89 6c 31 be
       -0.1491237 0.025884887 0.037597727 -0.17326559
000250 ea d5 d0 3c b9 d1 0d be b6 52 22 be 07 ed 1e 3e
       0.025492627 -0.13849534 -0.15851864 0.15520106
000260 40 1d ba 3d 19 96 01 3e b9 38 21 3e 9b ff c2 bd
       0.0908761 0.12654914 0.15744294 -0.09521409
000270 cd 96 9a bd d5 c6 b0 b7 85 6e 91 3d 1e fd 94 3c
       -0.07548294 -2.1073423e-05 0.07101158 0.018187102
000280 05 9c 84 bc 98 e1 34 3e e9 9f b0 bd 53 5b a5 3d
       -0.016187677 0.17664182 -0.086242504 0.08074059
000290 70 9c 95 3d 67 28 af bd 6e 06 ce 3d 43 70 f9 3d
       0.07305229 -0.08552628 0.1005982 0.12179615
0002a0 20 19 0f bd 7d e9 f4 bd a8 7e de 3d bb eb 08 3e
       -0.03493607 -0.11958597 0.108640015 0.13371174
0002b0 26 00 88 3d c8 e1 b2 3c b4 a2 b0 3d a4 8e 5e 3d
       0.06640653 0.021836177 0.08624783 0.05433525
0002c0 f7 54 5f bd 6b 5a 05 be 4f 29 9e bd 89 07 80 3d
       -0.05452439 -0.13022773 -0.07722723 0.06251437
0002d0 99 8a 92 bd b4 29 8a 3d 5d f0 bb bd 8e 4b 08 be
       -0.07155342 0.067462355 -0.09176705 -0.13310072
0002e0 5b 60 00 3e 45 e8 e4 bd c0 8f 5d 3d 65 63 19 3e
       0.12536757 -0.111771144 0.05409217 0.14979322
0002f0 be 57 29 3c d1 3c e2 3d e5 7e 3f bd b8 1e 1c be
       0.010335861 0.11046756 -0.046751875 -0.15246093
000300 03 23 ad bd 0b d1 5e bd 70 7f d2 bd a6 9f d9 bd
       -0.084539436 -0.054398578 -0.10278213 -0.10626154
000310 60 0b 9f 3d e6 ea 27 3e 34 ea e6 3d c6 57 73 3d
       0.077658415 0.163982 0.112751395 0.05940988
000320 d1 e2 0f be c8 6c f0 bc 9b 2d 85 3d 79 36 1f 3e
       -0.14051367 -0.029348746 0.06502839 0.15548123
000330 ab 1e b1 bd 89 85 d6 3d 9d fb cf 3d da f4 1d bd
       -0.086484276 0.104746886 0.10155413 -0.038563587
000340 e3 f2 25 be 9e e2 a6 3d df 1c b9 3d ca 9a 0f be
       -0.16205935 0.081486925 0.0903871 -0.14023891
000350 15 07 0d 3e 69 94 2b bc 25 da 07 be 54 58 7b 3c
       0.13772233 -0.010472395 -0.1326681 0.015340883
000360 95 2f cb 3d 66 4b d2 3b e0 1f 0c be 65 a9 c2 bd
       0.09921185 0.0064176796 -0.13684034 -0.09504966
000370 2c 4f d5 3d c4 c7 9a 3d 7a c8 e7 3d 98 35 85 3d
       0.104154915 0.075576335 0.11317535 0.06504363
000380 f3 7b ea 3d b9 61 1e bd ed 8a a8 3d e4 4d 4a 3d
       0.11449423 -0.038667414 0.08229623 0.04939069
000390 6d e4 fb 3c d8 68 21 3e 96 85 8d bd 4e c4 09 3e
       0.03074857 0.15762651 -0.06910245 0.1345379
0003a0 57 a1 8d bd fd 31 11 3e 3a 82 ee bc 61 45 08 3e
       -0.06915539 0.14179225 -0.029114831 0.13307716
0003b0 71 4d 6d bd ea 34 6d 3c 00 89 1e 3e 7f 94 7c bc
       -0.057935182 0.014477948 0.15481949 -0.015416264
0003c0 df f8 6d bc a4 5e 98 bd 08 be 01 3e 0e 7d be 3d
       -0.0145246675 -0.07439926 0.12670147 0.09301196
0003d0 d0 ba 1f bd d4 12 41 bd 69 8d 21 3e 1c a7 db 3d
       -0.038996518 -0.047137097 0.157766 0.10725233
0003e0 de b1 12 3e 03 cb be bd b4 b6 88 bd 87 4e ed bd
       0.14325663 -0.09316065 -0.06675473 -0.115872435
0003f0 f6 91 05 be 8e b9 9f bc b4 7a e8 bb bf 56 b6 bd
       -0.13043961 -0.019497659 -0.0070947055 -0.08903264

bias f4 [32]
000000 00 00 00 00 00 00 00 00 00 00 00 00 00 00 00 00
       0.0 0.0 0.0 0.0
000010 00 00 00 00 00 00 00 00 00 00 00 00 00 00 00 00
       0.0 0.0 0.0 0.0
000020 00 00 00 00 00 00 00 00 00 00 00 00 00 00 00 00
       0.0 0.0 0.0 0.0
000030 00 00 00 00 00 00 00 00 00 00 00 00 00 00 00 00
       0.0 0.0 0.0 0.0
000040 00 00 00 00 00 00 00 00 00 00 00 00 00 00 00 00
       0.0 0.0 0.0 0.0
000050 00 00 00 00 00 00 00 00 00 00 00 00 00 00 00 00
       0.0 0.0 0.0 0.0
000060 00 00 00 00 00 00 00 00 00 00 00 00 00 00 00 00
       0.0 0.0 0.0 0.0
000070 00 00 00 00 00 00 00 00 00 00 00 00 00 00 00 00
       0.0 0.0 0.0 0.0
