histories_cls/EEGNet_BcicIv2a_pt/68.03%_bs=064_lr=0.0009_ld=0.999910_k1=32_k2=32_do=0.16/best_valid_acc.pt (torch, 20098 bytes, 17 tensors)

weight f4 [8, 1, 1, 32]
-0.13304423 -0.006586771 0.009317825 0.20355827 0.113964304 0.04194966 0.10528956 0.038683247
-0.0220898 0.064222485 0.15030642 0.4120098 0.21499206 0.24686761 0.1677305 0.17901544
-0.00014212415 -0.040360715 0.073050156 0.041509215 -0.1303575 0.07591442 0.029504133 0.12613599
-0.09517337 0.041652802 0.058770828 0.019130291 -0.04905154 -0.22374977 -0.14292675 -0.13544354
0.04379879 -0.02734167 -0.26329172 0.004833168 0.05873861 0.030813873 -0.11446532 -0.07315306
-0.02361647 -0.031018762 0.049518652 -0.00012254556 0.11636373 -0.12196256 -0.16216534 -0.14879939
0.09344726 -0.04232614 0.13520743 0.14818452 -0.18699776 -0.06486904 -0.14233701 0.034078944
0.13304445 0.12428731 -0.12549669 -0.050044063 -0.0976383 0.146146 0.02063372 -0.010737113
-0.09416011 0.018760972 -0.10998772 -0.0364599 -0.01815098 -0.13632536 0.1166521 -0.18512893
0.083925866 -0.086409405 0.13990879 0.18202254 0.17462727 -0.05324555 -0.160979 -0.092349246
0.2332325 0.15991858 0.13105609 0.2308072 0.06645343 0.10096689 -0.04322094 -0.047576956
0.21144897 -0.0053453813 0.023207307 0.093978375 -0.07439736 -0.0988702 0.07407651 0.09657556
-0.25992957 0.0022090499 -0.15430272 -0.15692154 0.14068702 -0.13139129 -0.08942729 -0.104531206
-0.16230196 0.035534486 0.11516711 0.0318589 -0.1378163 -0.07095971 0.12445801 0.045642268
-0.041160602 -0.0107564805 -0.060700655 -0.09498977 -0.031526875 -0.13370144 0.0069073015 -0.01796414
0.16528744 0.012348249 0.07056606 0.08632746 0.134879 0.15995856 0.16168253 0.13629656
0.06803422 -0.047518734 -0.109024756 -0.00354353 0.19785225 0.22249861 -0.0767399 0.2351339
0.13662755 0.05743345 -0.017579297 0.124586634 0.0037577832 0.09121032 0.0337698 0.02671906
-0.13822372 -0.09005021 0.10081982 0.17730114 0.118878886 -0.108541325 -0.01386612 0.05727244
-0.15635759 0.018917995 -0.10261497 -0.1568445 -0.22913031 -0.13909963 -0.06464755 -0.11354838
-0.076393254 0.044393193 0.125905 0.015333494 0.01619513 0.117496446 -0.025758756 -0.25574234
-0.18010594 -0.15091038 0.11729426 0.17737825 0.057094987 0.13643642 -0.09185724 0.08637876
0.016462782 0.0311838 -0.10420209 -0.07154035 -0.24023627 -0.08068585 0.11661907 0.14308567
0.11752587 -0.017078534 0.007950172 -0.08327991 -0.007441338 -0.0051687383 -0.017520618 0.05352547
0.13340703 0.16816454 -0.12996762 -0.06310686 -0.1866924 0.07157866 0.08075048 -0.13215414
-0.116481304 0.07494623 0.2037707 0.07691698 -0.0014577187 -0.07268376 0.1295852 -0.103751756
-0.13545115 0.045382477 -0.13923372 0.023092134 -0.17579561 0.17076272 0.20147872 0.17304935
-0.013426135 -0.202426 -0.084013574 -0.08722964 0.019836264 0.08756257 0.04335201 -0.06261667
0.24365643 0.16575 -0.01762765 -0.23954265 -0.108071335 0.06838757 0.04043428 -0.04992615
0.15784515 0.09093143 0.06867653 0.11977442 -0.107220106 -0.076740235 -0.12217326 -0.021906903
0.24927108 0.061679278 0.0058063255 -0.102235846 -0.07976752 0.23215717 -0.08031975 -0.021087062
-0.067952774 0.15221727 0.026563825 -0.20887998 -0.00242719 0.035270173 0.11768688 -0.079805285
00000000: bf3c 08be d7d5 d7bb caa9 183c 9471 503e
00000010: 1e66 e93d 68d3 2b3d 0ea2 d73d 5372 1e3d
00000020: abf5 b4bc 1487 833d ede9 193e f3f2 d23e
00000030: e126 5c3e ddca 7c3e 8bc1 2b3e d34f 373e
00000040: 2907 15b9 4751 25bd 529b 953d 9105 2a3d
00000050: 707c 05be 0579 9b3d a7b2 f13c cb29 013e
00000060: 41ea c2bd 219c 2a3d aeb9 703d 21b7 9c3c
00000070: 45ea 48bd a91e 65be 645b 12be b6b1 0abe
00000080: 5c66 333d a3fb dfbc 2cce 86be 8d5f 9e3b
00000090: e697 703d 606d fc3c cb6c eabd 46d1 95bd
000000a0: 5477 c1bc 0f1b febc 12d4 4a3d 937f 00b9
000000b0: 1b50 ee3d 82c7 f9bd ac0e 26be de5e 18be
000000c0: 4761 bf3d 2d5e 2dbd d173 0a3e afbd 173e
000000d0: 577c 3fbe 0fda 84bd cbc0 11be 5d96 0b3d
000000e0: ce3c 083e 588a fe3d 3482 00be 01fb 4cbd
000000f0: 97f6 c7bd 4ca7 153e 0c08 a93c b7ea 2fbc
00000100: 04d7 c0bd 9cb0 993c 3e41 e1bd fa56 15bd
00000110: 5db1 94bc e098 0bbe 4ce7 ee3d 7092 3dbe
00000120: 53e1 ab3d 6af7 b0bd 4044 0f3e 1e64 3a3e
00000130: 7ed1 323e 0118 5abd aed7 24be 9a21 bdbd
00000140: 80d4 6e3e b2c1 233e 9133 063e b958 6c3e
00000150: bc18 883d bbc7 ce3d 7108 31bd 0ee0 42bd
00000160: 1486 583e 4f28 afbb 401d be3c bc77 c03d
00000170: a55d 98bd 767c cabd 6db5 973d 68c9 c53d
00000180: 7d15 85be b5c5 103b 8801 1ebe 0ab0 20be
00000190: 4210 103e 708b 06be a825 b7bd 7514 d6bd
000001a0: 7c32 26be 9c8c 113d bcdc eb3d 7a7e 023d
000001b0: b71f 0dbe 5353 91bd d7e3 fe3d 63f3 3a3d
000001c0: 0598 28bd f33b 30bc 40a1 78bd ff89 c2bd
000001d0: 5322 01bd 08e9 08be a556 e23b 8829 93bc
000001e0: 1c41 293e 4f50 4a3c f084 903d 74cc b03d
000001f0: b81d 0a3e 2dcc 233e 1b90 253e 5391 0b3e
00000200: 8655 8b3d 01a3 42bd 5f48 dfbd 913a 68bb
00000210: c899 4a3e add6 633e cf29 9dbd f1c6 703e
00000220: 18e8 0b3e 563f 6b3d 7502 90bc 4727 ff3d
00000230: 2445 763b 7acc ba3d 3452 0a3d eee1 da3c
00000240: 858a 0dbe 3f6c b8bd 9f7a ce3d 6e8e 353e
00000250: c676 f33d ea4a debd b92e 63bc 8296 6a3d
00000260: 341c 20be e9f9 9a3c cc27 d2bd d89b 20be
00000270: 23a1 6abe 2270 0ebe ef65 84bd 0e8c e8bd
00000280: 1174 9cbd a3d5 353d 3eed 003e 5639 7b3c
00000290: a6ab 843c faa1 f03d 0704 d3bc a9f0 82be
000002a0: b16d 38be 4088 1abe f937 f03d a5a2 353e
000002b0: 6fdc 693d fdb5 0b3e a61f bcbd 59e7 b03d
000002c0: f5dc 863c 2b75 ff3c e867 d5bd bf83 92bd
000002d0: 7f00 76be 9f3e a5bd fbd5 ee3d 0d85 123e
000002e0: 67b1 f03d 48e8 8bbc 7041 023c a88e aabd
000002f0: 78d6 f3bb 855e a9bb 6687 8fbc 863d 5b3d
00000300: da9b 083e 5333 2c3e 3b16 05be 2b3e 81bd
00000310: 4b2c 3fbe d597 923d 8260 a53d 6a53 07be
00000320: c08d eebd 697d 993d 44a9 503e a686 9d3d
00000330: ec10 bfba 39db 94bd fcb1 043e cd7b d4bd
00000340: b5b3 0abe fae2 393d 4993 0ebe b72b bd3c
00000350: c403 34be 6cdc 2e3e 7050 4e3e d933 313e
00000360: 4bf9 5bbc c348 4fbe 4f0f acbd 74a5 b2bd
00000370: a97f a23c 0154 b33d e191 313d 2b3d 80bd
00000380: 1281 793e 5eba 293e dd67 90bc ab4a 75be
00000390: 8154 ddbd c80e 8c3d 6a9e 253d 5d7f 4cbd
000003a0: 29a2 213e 423a ba3d 48a6 8c3d 4b4c f53d
000003b0: 3796 dbbd fc29 9dbd f935 fabd 1b76 b3bc
000003c0: eb40 7f3e 69a3 7c3d fd42 be3b 0761 d1bd
000003d0: 275d a3bd 9cba 6d3e ae7e a4bd c6be acbc
000003e0: d32a 8bbd d8de 1b3e 619c d93c a2e4 55be
000003f0: 7e11 1fbb 7577 103d d205 f13d f470 a3bd

weight f4 [8]
1.037384 0.7486242 0.8826673 1.0626761 1.3242654 2.1336367 1.9212449 1.2752494
00000000: 00c9 843f d6a5 3f3f 7cf6 613f c505 883f
00000010: 8781 a93f 818d 0840 5aeb f53f 5f3b a33f

bias f4 [8]
-0.02468264 0.008587085 0.032697067 -0.039030783 0.012136306 0.07222699 0.05269632 -0.0006069446
00000000: 3f33 cabc d8b0 0c3c 5ced 053d bede 1fbd
00000010: 5bd7 463c beeb 933d 19d8 573d 5d1b 1fba

running_mean f4 [8]
0.7217046 -0.266919 0.44828284 -0.116024986 0.055843536 -0.011911634 -0.001509201 0.21696874
00000000: a2c1 383f 9ba9 88be 5485 e53e 829e edbd
00000010: 31bc 643d 0429 43bc 62d0 c5ba 0e2d 5e3e

running_var f4 [8]
0.08537381 0.012146523 0.030903604 0.04113557 0.04406838 0.016225545 0.013757741 0.013032913
00000000: 77d8 ae3d 3602 473c 8e29 fd3c c57d 283d
00000010: 0c81 343d 6feb 843c 2668 613c 0088 553c

weight f4 [16, 1, 22, 1]
0.081734166 0.08770158 0.10915604 -0.08596693 -0.038749456 -0.108705424 -0.16635391 0.24151593
0.13551034 -0.3299081 0.028307516 0.1591807 -0.021326669 0.06924598 -0.03913708 -0.25082487
0.12034374 0.0986959 -0.097379215 -0.11909589 0.07653091 0.14397468 -0.100113384 -0.09718385
-0.07297368 -0.031132497 0.0274001 0.25399008 -0.009430471 -0.028029773 -0.10532035 -0.04269899
0.24015668 0.20640583 -0.13001817 0.2194125 0.046613924 -0.23170714 -0.0026005355 -0.09256581
0.052947048 -0.09598082 -0.081846625 0.027383016 -0.051650237 -0.15455864 0.2578315 0.2594235
0.11927463 -0.10825618 0.058524862 -0.18280235 -0.077470124 0.077940844 0.12000317 0.05073207
-0.020680686 -0.15034094 -0.1456264 0.21051204 -0.2783421 0.049325243 0.028590363 0.18683116
-0.16938916 0.08850047 -0.17327853 0.16843203 0.0734622 0.16882193 0.07137404 -0.018960267
0.054911744 -0.03956454 0.058824763 -0.13097867 -0.18896723 0.009831529 0.15800284 -0.030351978
-0.14998613 -0.03726443 0.053779878 -0.16057287 -0.020981707 -0.23738566 0.045334224 0.3795456
0.033830073 0.08932414 -0.0040520867 -0.017184524 -0.03060687 0.05724334 -0.06785162 -0.21030582
-0.019474195 0.27711514 -0.05711569 -0.19161741 0.061374452 -0.2513477 -0.070235066 0.2929365
0.27668223 -0.08194715 0.18097237 0.016249726 -0.243311 -0.05411934 0.1805014 -0.24685799
-0.08340376 -0.062218457 0.013087434 -0.026290195 -0.0028396004 0.26894853 -0.20773065 -0.07575055
-0.098053634 -0.043475278 0.16944483 0.06714322 -0.1771996 0.0060825916 0.059476685 -0.0074609267
0.029700499 0.05424285 -0.15046176 0.30016467 -0.122006126 0.07466248 -0.05459044 0.20141421
0.13015679 -0.0148340585 -0.054504402 -0.114716254 0.20496894 -0.042120386 -0.19607638 0.1251868
-0.07150798 0.06989635 0.2534199 -0.27461842 0.19989116 0.043542538 -0.17527641 -0.07157613
-0.15936196 -0.054244246 -0.12408463 0.18618806 0.027235826 -0.16122279 0.14044695 0.031683583
-0.15211007 -0.010953554 -0.13917828 0.030986886 0.09765521 -0.07631949 -0.03219292 0.1189801
0.19602656 -0.1245592 -0.023989972 0.129628 0.11722293 -0.36615995 0.0951585 -0.061910063
0.073056184 0.14098442 0.036376078 0.083447486 -0.02648291 -0.14614658 -0.006690992 -0.042843938
0.072646394 0.31476945 -0.07078891 -0.11970925 -0.054877672 -0.08551029 0.15404339 -0.20741472
-0.21380764 0.08434454 -0.28057712 0.13043879 0.059945468 0.16930214 0.10845041 0.019757902
0.006221668 -0.00909187 -0.214926 -0.13569029 0.06426554 -0.05400206 0.20752896 -0.04661001
-0.19672841 -0.00950863 0.1325978 -0.10914254 0.07713144 0.1304872 0.24722466 0.19648571
-0.21607333 -0.18760653 0.020181306 -0.017757138 -0.0521518 0.0004581804 0.049416453 0.1830333
-0.15907352 0.07301268 -0.0520053 -0.05437168 0.075341694 -0.07066191 0.2630788 -0.10137896
-0.023701997 0.12085772 0.10207356 -0.50003386 -0.060366847 0.12036665 0.04665174 -0.13756964
0.11720695 0.04394355 0.0074305814 0.2204597 0.009150591 0.0014311379 0.007455456 -0.05862296
0.10447053 -0.28003916 0.050580923 0.2883042 -0.13491611 0.03349144 0.03271374 -0.327929
00000000: 3e64 a73d e39c b33d 348d df3d 6e0f b0bd
00000010: c0b7 1ebd f3a0 debd ae58 2abe f44f 773e
00000020: 39c3 0a3e b7e9 a8be 2ae5 e73c 4400 233e
00000030: 44b5 aebc d6d0 8d3d 344e 20bd 1e6c 80be
00000040: c776 f63d 1321 ca3d c16e c7bd 8ce8 f3bd
00000050: 3dbc 9c3d 196e 133e 3f08 cdbd 5408 c7bd
00000060: 3a73 95bd 9409 ffbc 2d76 e03c fd0a 823e
00000070: 4382 1abc b29e e5bc 32b2 d7bd 23e5 2ebd
00000080: a2eb 753e 0d5c 533e 7c23 05be acad 603e
00000090: 3eee 3e3d a344 6dbe bf6d 2abb 2593 bdbd
000000a0: 01df 583d 9891 c4bd 349f a7bd 5952 e03c
000000b0: 338f 53bd 9f44 1ebe 7e02 843e 28d3 843e
000000c0: 4246 f43d 6bb5 ddbd c4b7 6f3d 8a30 3bbe
000000d0: a8a8 9ebd 739f 9f3d 39c4 f53d 6ecc 4f3d
000000e0: 8b6a a9bc faf2 19be 161f 15be 7890 573e
000000f0: db82 8ebe 4409 4a3d 5636 ea3c ab50 3f3e
00000100: 5a74 2dbe bc3f b53d ed6f 31be 7279 2c3e
00000110: 5a73 963d a8df 2c3e 8d2c 923d 9052 9bbc
00000120: 23eb 603d 6d0e 22bd 3cf2 703d 461f 06be
00000130: a080 41be 6c14 213c 7fcb 213e b6a4 f8bc
00000140: f795 19be 96a2 18bd 4a48 5c3d 376d 24be
00000150: d4e1 abbc 3a15 73be 61b0 393d cd53 c23e
00000160: 6791 0a3d 93ef b63d 5ec7 84bb 8fc6 8cbc
00000170: 42bb fabc fe77 6a3d caf5 8abd 695a 57be
00000180: 5988 9fbc 09e2 8d3e 24f2 69bd 5b37 44be
00000190: c763 7b3d a5b0 80be 67d7 8fbd c6fb 953e
000001a0: 4ba9 8d3e e8d3 a7bd d250 393e 251e 853c
000001b0: 8526 79be 3eac 5dbd 5cd5 383e 57c8 7cbe
000001c0: 97cf aabd c8d8 7ebd ad6c 563c 895e d7bc
000001d0: 9718 3abb 9fb3 893e 58b7 54be 1b23 9bbd
000001e0: 58d0 c8bd 2213 32bd f282 2d3e 6282 893d
000001f0: d073 35be 7a50 c73b d39d 733d ca7a f4bb
00000200: 764e f33c c02d 5e3d a612 1abe 2faf 993e
00000210: 59de f9bd a4e8 983d 3a9a 5fbd 873f 4e3e
00000220: d247 053e 8d0a 73bc 0240 5fbd 5bf0 eabd
00000230: 61e3 513e 6d86 2cbd 3fc8 48be f830 003e
00000240: c772 92bd d125 8f3d 41c0 813e c99a 8cbe
00000250: 45b0 4c3e a959 323d a97b 33be 8296 92bd
00000260: c82f 23be 372f 5ebd 1520 febd 15a8 3e3e
00000270: ab1d df3c 9617 25be 53d1 0f3e a5c6 013d
00000280: bec2 1bbe 8976 33bc c084 0ebe 36d8 fd3c
00000290: 74ff c73d 654d 9cbd b9dc 03bd d7ab f33d
000002a0: 30bb 483e e518 ffbd 9e86 c4bc 34bd 043e
000002b0: 9312 f03d 5179 bbbe 76e2 c23d 6895 7dbd
000002c0: 7b9e 953d 385e 103e 15ff 143d 84e6 aa3d
000002d0: b0f2 d8bc 73a7 15be 1c40 dbbb 207d 2fbd
000002e0: a2c7 943d 7629 a13e c7f9 90bd 202a f5bd
000002f0: 69c7 60bd 0520 afbd 8dbd 1d3e 8664 54be
00000300: 64f0 5abe d5bc ac3d cea7 8fbe bf91 053e
00000310: 6189 753d 8a5d 2d3e 401b de3d 53db a13c
00000320: 22df cb3b 11f6 14bc 9015 5cbe 65f2 0abe
00000330: a79d 833d 4431 5dbd 7982 543e 23ea 3ebd
00000340: 2c73 49be 16ca 1bbc b8c7 073e 2086 dfbd
00000350: 17f7 9d3d 709e 053e 7628 7d3e 8d33 493e
00000360: 5442 5dbe ed1b 40be 4453 a53c 6b77 91bc
00000370: 209d 55bd ef37 f039 e868 4a3d 156d 3b3e
00000380: 2be4 22be ac87 953d 8203 55bd d7b4 5ebd
00000390: bf4c 9a3d 31b7 90bd 44b2 863e c69f cfbd
000003a0: b12a c2bc 4184 f73d f10b d13d 3802 00bf
000003b0: 3a43 77bd ca82 f63d e515 3f3d 0edf 0cbe
000003c0: 330a f03d 27fe 333d 3c7c f33b 30c0 613e
000003d0: 5cec 153c 0595 bb3a e64c f43b a11e 70bd
000003e0: a5f4 d53d 4b61 8fbe f12d 4f3d 9c9c 933e
000003f0: 7327 0abe 522e 093d d8fe 053d 4fe6 a7be

weight f4 [16]
1.0112425 1.011545 1.231937 0.6522067 0.79465884 1.1978087 0.90029454 1.2259748
1.1018068 1.3066905 1.8899486 1.9198606 2.0363765 1.1892776 1.1339612 1.2504148
00000000: 6570 813f 4e7a 813f 1db0 9d3f 05f7 263f
00000010: c36e 4b3f cc51 993f b479 663f beec 9c3f
00000020: 0108 8d3f a241 a73f d6e9 f13f febd f53f
00000030: fe53 0240 403a 983f a425 913f 980d a03f

bias f4 [16]
-0.23060574 -0.08846703 -0.25597036 0.04742451 -0.14156115 -0.13227071 0.035899453 -0.27258396
-0.14262788 -0.3030664 -0.82803744 -0.6751456 -0.7712515 -0.53764576 0.034966033 -0.31228858
00000000: e923 6cbe 342e b5bd 8c0e 83be 3440 423d
00000010: 68f5 10be f971 07be 4e0b 133d 2090 8bbe
00000020: 0b0d 12be 852b 9bbe 43fa 53bf 58d6 2cbf
00000030: bd70 45bf 27a3 09bf 8b38 0f3d 4ae4 9fbe

running_mean f4 [16]
0.008730444 0.008406561 0.015118606 0.0017388791 -0.01809195 0.01422043 0.0053706686 0.004118589
-0.001999171 0.0013708131 -0.00041811832 0.003916127 -0.0017333956 -0.0015739257 -0.012369182 0.018942516
00000000: 230a 0f3c acbb 093c 08b4 773c 1aeb e33a
00000010: 9235 94bc cefc 683c 6ffc af3b 3bf5 863b
00000020: 8604 03bb dbac b33a e436 dbb9 db52 803b
00000030: 1b33 e3ba 2f4c ceba 1ca8 4abc 562d 9b3c

running_var f4 [16]
0.038446367 0.031781446 0.037424296 0.021453347 0.040783763 0.060156282 0.03786243 0.017008623
0.057827316 0.03471606 0.075491846 0.3046927 0.20307918 0.14649977 0.060716696 0.08765391
00000000: f079 1d3d 432d 023d 384a 193d eebe af3c
00000010: e00c 273d 6f66 763d a315 1b3d ab55 8b3c
00000020: 56dc 6c3d 6d32 0e3d 789b 9a3d ae00 9c3e
00000030: fdf3 4f3e 0904 163e 12b2 783d e583 b33d

weight f4 [16, 1, 1, 32]
0.31850478 0.0007423383 0.19836903 -0.07552751 0.027800048 0.017936416 0.10506771 0.12011369
0.08016693 0.11352709 0.012281119 -0.057189304 0.03990261 -0.07554518 -0.06850704 -0.06468521
0.026353877 -0.09372486 0.15054327 -0.047006063 0.22974305 0.017535184 0.038245983 0.016784703
-0.0601436 -0.07641587 -0.14443706 0.19871666 -0.04105314 -0.2119219 -0.062135432 -0.31291482
0.11982308 -0.23634206 -0.046073787 -0.10461584 0.00092615414 0.11551703 -0.017640768 0.037971366
-0.08656448 0.03688385 0.2225707 0.09650646 -0.14930744 -0.14799224 -0.39838183 -0.06962133
-0.062571816 -0.246989 0.09134685 0.10127267 0.13099104 0.01411942 0.07002961 -0.056393605
-0.010820569 -0.033303604 0.07689555 -0.020293582 0.086174704 0.01971757 -0.084740184 0.29320523
0.12732331 -0.15429169 0.052886467 -0.16507564 0.026370788 0.13071689 -0.10928113 0.04299647
0.11598969 -0.012068195 0.20949155 0.097931765 0.080087386 0.023756031 -0.08806323 -0.016529275
-0.053398486 -0.078138426 0.13229397 0.16156743 0.13676937 0.15087874 0.060789138 -0.05720885
0.049560755 0.05302562 -0.16473186 -0.12157214 0.035396896 -0.15488955 0.032962266 -0.28060982
-0.31323516 -0.11320059 -0.23230715 -0.16560626 -0.02259148 -0.15876758 0.023746636 0.07895451
0.13995601 -0.18934843 -0.13511914 -0.057141267 0.05457284 -0.008326537 0.13696806 0.20314415
0.028013969 0.15556422 -0.08790796 0.1903844 0.086352654 0.18161717 0.1964016 0.10565163
-0.029114826 0.08985007 0.05478149 0.06660479 0.09896149 -0.006948994 -0.053519163 -0.12200189
0.008647354 -0.049211357 -0.028592445 -0.08458958 -0.100647636 -0.08183076 -0.2004946 0.17117332
-0.008071566 0.10945594 0.059131145 -0.051515453 0.15586895 -0.0047145104 -0.13251944 -0.13605084
-0.2382706 0.014338822 -0.10131919 0.14517967 0.20932232 -0.014599848 0.03746225 -0.15753704
0.042804632 0.08489049 -0.036751963 0.112000644 0.15278016 0.036014218 0.06201262 0.17754373
-0.0709621 0.006624581 0.034191586 -0.08415449 -0.058357086 -0.1457273 -0.08590768 0.098758094
-0.022120994 0.007794783 0.26277158 0.20407754 0.24228598 -0.0876245 -0.13779448 -0.050571743
0.011642678 -0.035333633 0.11048627 -0.013289215 0.19667357 0.122911714 0.005678952 0.025987715
-0.05016979 -0.09994995 0.02558931 0.18750823 0.20091113 0.050596267 -0.025857039 -0.20433713
-0.06844786 -0.08664917 0.1156175 0.19251744 0.101089664 0.11174574 0.041598365 -0.065736115
-0.11761473 -0.16359581 0.05837213 0.22497351 0.06905738 0.23370683 -0.09233621 -0.2006339
-0.049956515 -0.15290463 -0.061579134 -0.027843514 0.0029033916 0.18487571 0.11222708 -0.08755907
-0.0195207 -0.15603466 0.0079657845 0.060493432 0.0673202 0.15490669 0.14317292 0.013302969
-0.24696131 -0.18314846 -0.14828585 0.08950456 0.122019604 0.15630011 0.15826567 -0.1272091
0.19095202 -0.11955099 -0.10456569 0.13117719 0.062360108 0.035646994 -0.03543634 0.08497917
-0.08448856 0.13732772 0.027344735 0.08984263 0.06413602 -0.1311955 0.06823558 0.26294047
-0.12573926 -0.04179803 -0.18705718 -0.06990602 -0.07254127 0.24275509 0.097339526 0.04217859
00000000: 0f13 a33e 7b99 423a 4021 4b3e 2bae 9abd
00000010: edbc e33c 64ef 923c bd2d d73d 2bfe f53d
00000020: 8f2e a43d e480 e83d bf36 493c 553f 6abd
00000030: eb70 233d 6eb7 9abd 6b4d 8cbd ae79 84bd
00000040: 16e4 d73c d2f2 bfbd 0428 1a3e 6e89 40bd
00000050: c341 6b3e f2a5 8f3c d2a7 1c3d 1380 893c
00000060: 2359 76bd ec7f 9cbd 4fe7 13be 617c 4b3e
00000070: 5627 28bd 0e02 59be b981 7ebd 5f36 a0be
00000080: ce65 f53d a703 72be deb7 3cbd d440 d6bd
00000090: 27c9 723a 3194 ec3d 5f83 90bc dd87 1b3d
000000a0: b848 b1bd 8513 173d 93e9 633e 2ea5 c53d
000000b0: 0de4 18be 478b 17be b4f8 cbbe a195 8ebd
000000c0: a725 80bd afea 7cbe 0f14 bb3d 0c68 cf3d
000000d0: 8422 063e 2455 673c af6b 8f3d fbfc 66bd
000000e0: c148 31bc 5c69 08bd 6a7b 9d3d ba3e a6bc
000000f0: 5d7c b03d be86 a13c 438c adbd ff1e 963e
00000100: 0b61 023e a4fe 1dbe 7b9f 583d 9709 29be
00000110: 8d07 d83c a6da 053e c9ce dfbd 111d 303d
00000120: 018c ed3d aeb9 45bc f484 563e 7390 c83d
00000130: db04 a43d 029c c23c 7f5a b4bd 6768 87bc
00000140: 5fb8 5abd 0a07 a0bd 1278 073e ef71 253e
00000150: 450d 0c3e f57f 1a3e 08fe 783d d453 6abd
00000160: 3800 4b3d 6431 593d 78af 28be d0fa f8bd
00000170: 56fc 103d 5e9b 1ebe 7103 073d 17ac 8fbe
00000180: 5c60 a0be b6d5 e7bd ede1 6dbe b094 29be
00000190: c411 b9bc f893 22be 4e88 c23c e7b2 a13d
000001a0: a150 0f3e 8ee4 41be ac5c 0abe f60c 6abd
000001b0: c587 5f3d 076c 08bc 5b41 0c3e 0505 503e
000001c0: 8d7d e53c 3a4c 1f3e 1709 b4bd 21f4 423e
000001d0: a9d9 b03d daf9 393e 801d 493e e25f d83d
000001e0: 3782 eebc 5003 b83d 8e62 603d 1868 883d
000001f0: 52ac ca3d 63b4 e3bb e936 5bbd 20dc f9bd
00000200: a2ad 0d3c d991 49bd b43a eabc 4d3d adbd
00000210: 5920 cebd e396 a7bd 754e 4dbe 0f48 2f3e
00000220: 9a3e 04bc 702a e03d 8033 723d de01 53bd
00000230: 1c9c 1f3e 2e7c 9abb 2db3 07be e950 0bbe
00000240: 35fd 73be 61ed 6a3c 6f80 cfbd fba9 143e
00000250: 9758 563e 3334 6fbc 0472 193d 6451 21be
00000260: e953 2f3d 11db ad3d 3a89 16bd 9860 e53d
00000270: 6772 1c3e a583 133d f200 7e3d 06ce 353e
00000280: 9454 91bd 0313 d93b 7a0c 0c3d 3059 acbd
00000290: d707 6fbd 8a39 15be 5ef0 afbd af41 ca3d
000002a0: 1637 b5bc 616b ff3b ff89 863e b4f9 503e
000002b0: d119 783e 7974 b3bd ff19 0dbe 5124 4fbd
000002c0: eec0 3e3c 00ba 10bd a046 e23d 02bb 59bc
000002d0: cc64 493e 23b9 fb3d 8116 ba3b 30e4 d43c
000002e0: d67e 4dbd 8fb2 ccbd aca0 d13c 2802 403e
000002f0: a6bb 4d3e 083e 4f3d 24d2 d3bc c13d 51be
00000300: 642e 8cbd 1f75 b1bd dec8 ec3d 4b23 453e
00000310: 1908 cf3d f3da e43d 0c63 2a3d a8a0 86bd
00000320: fedf f0bd a985 27be 9d17 6f3d 755f 663e
00000330: f56d 8d3d d850 6f3e c41a bdbd f972 4dbe
00000340: 349f 4cbd 0893 1cbe 673a 7cbd 1518 e4bc
00000350: d446 3e3b 0f50 3d3e 50d7 e53d 2b52 b3bd
00000360: e0e9 9fbc 8dc7 1fbe ec82 023c f6c7 773d
00000370: 2cdf 893d dc9f 1e3e ec9b 123e b2f4 593c
00000380: 6de3 7cbe 458b 3bbe 3fd8 17be 2b4e b73d
00000390: 6ae5 f93d 230d 203e 6510 223e 1a43 02be
000003a0: ed88 433e 26d7 f4bd 8926 d6bd 5053 063e
000003b0: 506d 7f3d 9502 123d b225 11bd 8f09 ae3d
000003c0: 5708 adbd a39f 0c3e 1102 e03c 6aff b73d
000003d0: bf59 833d 1d58 06be 19bf 8b3d 22a0 863e
000003e0: cbc1 00be 6934 2bbd eb8b 3fbe e32a 8fbd
000003f0: 8490 94bd ca94 783e f259 c73d 75c3 2c3d

weight f4 [16, 16, 1, 1]
0.06195894 0.11533995 -0.12346613 0.06653457 0.15689899 0.020431716 -0.17883395 0.34333664
-0.022521688 -0.17797896 0.19490568 -0.066992626 -0.17526251 0.36735895 0.14647903 0.05479812
0.10351557 -0.06290029 0.28997 -0.10659007 -0.058711544 -0.1317532 0.22448191 -0.14988229
0.2665879 -0.15510675 0.09610587 -0.05683499 0.1638897 -0.07409218 -0.38243967 -0.27436405
-0.033269968 -0.08700944 0.09484632 -0.09430163 0.07720571 0.20894755 0.13674408 0.006955463
0.117596604 -0.30672505 0.15125278 0.27096847 -0.029421031 -0.0721235 -0.1482763 -0.20230564
0.2639756 0.06567296 -0.037988845 0.07685607 0.03337933 -0.29625684 0.26529 0.22209506
-0.037711255 0.026994329 0.09661711 0.09558652 0.11326516 0.1836726 0.05820645 0.17611627
0.25633702 0.086891584 0.15501873 0.14483537 0.4776526 0.16026369 0.19964214 0.13381895
0.010258923 -0.19050984 0.251169 -0.13062838 -0.021470562 0.10936098 0.056011368 0.030743059
-0.17401618 -0.030190067 -0.27471188 -0.029258588 -0.025057917 0.016447399 -0.28180438 -0.16282196
-0.010093061 0.050657596 -0.07249559 0.32081738 0.096652664 0.06121806 -0.11793282 -0.118977726
0.036771614 -0.16217047 -0.04661278 -0.1996786 -0.12643176 -0.0005646316 -0.1656053 -0.16684936
0.16792248 0.0860728 0.26493624 -0.049277302 0.06381104 0.46331632 -0.16177097 0.06894094
0.14905678 -0.17225958 0.008952955 0.106878996 -0.09822974 0.01428133 -0.16888238 -0.060556628
-0.063496135 -0.066664085 -0.036567427 0.41133472 0.12162566 -0.023482298 0.11364778 0.29704568
0.07592981 -0.027135396 0.06354199 0.10996536 -0.18308066 0.33643046 -0.12838712 0.1261898
-0.3905916 8.432128e-05 0.030323572 -0.18722737 0.04013429 -0.04461604 -0.019730633 -0.012224651
0.0010976515 0.08521186 -0.11044156 -0.3170963 0.06945743 -0.1054725 0.045138694 0.06846067
0.11680323 -0.045031942 -0.2527205 -0.12594284 0.13847102 0.07290051 0.37317598 0.31332436
0.06856336 -0.19318335 -0.010245058 -0.06932284 0.33339837 0.04940399 0.24811912 0.07155563
0.1067871 0.01909036 -0.065015934 0.026122063 -0.12052723 -0.21797381 0.108889624 0.13531744
-0.022940308 0.0060442653 -0.13607322 -0.3868839 -0.05545241 0.14578146 -0.005281116 -0.16684887
0.27478823 -0.033761177 -0.09695607 -0.010839248 -0.04087002 0.3433618 0.15904914 0.015545097
-0.111578256 0.3501567 0.34071735 -0.18969947 0.032467116 0.08957022 0.16740882 -0.07905851
-0.14868943 0.080804594 -0.12699471 -0.058540873 -0.13371098 -0.113361396 -0.014898726 0.30827045
0.23057419 -0.04957231 0.078592405 -0.060292408 -0.09919901 0.165056 -0.014338387 0.1444168
0.08729856 0.42564806 0.050419226 -0.008262136 -0.060432345 -0.12268541 0.053866576 0.00075790455
0.12415789 -0.09494978 0.03314434 0.051740393 -0.12356918 -0.14622867 -0.14881544 -0.099619016
0.0837243 0.051722612 -0.13232839 -0.099981785 -0.34287095 -0.14239426 0.008872926 -0.13701701
-0.07266108 0.4125755 -0.008442233 0.019887954 -0.01595387 -0.19292635 -0.06515448 -0.032920673
-0.15022202 -0.068013795 -0.1332571 -0.2090651 -0.3172104 -0.0063585998 -0.07942611 -0.093388915
00000000: a8c8 7d3d 5a37 ec3d cfdb fcbd 4743 883d
00000010: 21aa 203e 6a60 a73c 3f20 37be d2c9 af3e
00000020: 677f b8bc 1e40 36be 5b95 473e 6e33 89bd
00000030: 0478 33be 7916 bc3e 99fe 153e fe73 603d
00000040: f9ff d33d ded1 80bd f376 943e e54b dabd
00000050: 847b 70bd 50ea 06be 96de 653e be7a 19be
00000060: 367e 883e 4ed4 1ebe 28d3 c43d cecb 68bd
00000070: b4d2 273e a4bd 97bd 22cf c3be 7279 8cbe
00000080: 1746 08bd 0132 b2bd ca3e c23d 3721 c1bd
00000090: 071e 9e3d 59f6 553e a406 0c3e a7ea e33b
000000a0: 7dd6 f03d 110b 9dbe 02e2 1a3e 61bc 8a3e
000000b0: 6004 f1bc 7cb5 93bd bed5 17be 3629 4fbe
000000c0: cf27 873e 8b7f 863d 319a 1bbd b766 9d3d
000000d0: c4b8 083d faae 97be 17d4 873e e36c 633e
000000e0: 1e77 1abd 3623 dd3c 31df c53d dec2 c33d
000000f0: 90f7 e73d ac14 3c3e e369 6e3d d357 343e
00000100: 9b3e 833e 37f4 b13d 3bbd 1e3e b94f 143e
00000110: e28e f43e 2a1c 243e fd6e 4c3e d607 093e
00000120: 0b15 283c 0315 43be 3999 803e 72c3 05be
00000130: 08e3 afbc a6f8 df3d 2d6c 653d ded8 fb3c
00000140: 4c31 32be 2951 f7bc 09a7 8cbe b5af efbc
00000150: 4346 cdbc b2bc 863c aa48 90be cdba 26be
00000160: 5e5d 25bc 577e 4f3d 9178 94bd 2d42 a43e
00000170: d5f1 c53d cabf 7a3d c386 f1bd 98aa f3bd
00000180: d59d 163d 0410 26be 0bed 3ebd 8c78 4cbe
00000190: 5477 01be c903 14ba 7094 29be 8fda 2abe
000001a0: dff3 2b3e f046 b03d b9a5 873e ffd6 49bd
000001b0: 5daf 823d cc37 ed3e 4aa7 25be e830 8d3d
000001c0: 57a2 183e d164 30be 6aaf 123c 60e3 da3d
000001d0: ad2c c9bd 3dfc 693c 81ef 2cbe 3a0a 78bd
000001e0: 430a 82bd 2e87 88bd bac7 15bd 779a d23e
000001f0: e016 f93d f35d c0bc 2bc0 e83d 5f16 983e
00000200: 1781 9b3d 0d4b debc 4e22 823d 8535 e13d
00000210: 7f79 3bbe 9d40 ac3e ea77 03be e637 013e
00000220: 9ffb c7be a4d5 b038 2469 f83c 88b8 3fbe
00000230: da63 243d 4fbf 36bd 23a2 a1bc e749 48bc
00000240: 13df 8f3a 8e83 ae3d 2f2f e2bd 725a a2be
00000250: b23f 8e3d f701 d8bd 5ae3 383d 1c35 8c3d
00000260: 8836 ef3d 6a73 38bd 9564 81be 29f7 00be
00000270: 59cb 0d3e dd4c 953d ec10 bf3e 0d6c a03e
00000280: f26a 8c3d dbd1 45be e3da 27bc 22f9 8dbd
00000290: 31b3 aa3e d75b 4a3d f012 7e3e c28b 923d
000002a0: 32b3 da3d 6363 9c3c 1327 85bd f0fd d53c
000002b0: fbd6 f6bd 8734 5fbe 8601 df3d a890 0a3e
000002c0: 50ed bbbc f90e c63b c756 0bbe a615 c6be
000002d0: 1122 63bd bc47 153e 360d adbb 6eda 2abe
000002e0: 0bb1 8c3e 2949 0abd e790 c6bd 1a97 31bc
000002f0: 5267 27bd 1ecd af3e c7dd 223e ddb0 7e3c
00000300: 2483 e4bd bd47 b33e 8172 ae3e 9440 42be
00000310: 3dfc 043d 9770 b73d 386d 2b3e 6ee9 a1bd
00000320: 0b42 18be e17c a53d e70a 02be 8ec8 6fbd
00000330: 88eb 08be 052a e8bd c919 74bc a0d5 9d3e
00000340: a41b 6c3e 560c 4bbd 0ef5 a03d 2cf5 76bd
00000350: da28 cbbd 7104 293e 8eeb 6abc ffe1 133e
00000360: 96c9 b23d 8bee d93e 6484 4e3d e95d 07bc
00000370: e887 77bd 7d42 fbbd 33a3 5c3d 1dae 463a
00000380: 7e46 fe3d 0875 c2bd 5cc2 073d bced 533d
00000390: d711 fdbd f8bc 15be 1363 18be 0e05 ccbd
000003a0: a577 ab3d 17db 533d 1881 07be 40c3 ccbd
000003b0: c88c afbe cdcf 11be c05f 113c 304e 0cbe
000003c0: 55cf 94bd 193d d33e 4b51 0abc 10ec a23c
000003d0: b1b1 82bc 7c8e 45be b66f 85bd d4d7 06bd
000003e0: cdd3 19be d14a 8bbd 8d74 08be 2915 56be
000003f0: 6769 a2be cd5b d0bb 28aa a2bd b042 bfbd

weight f4 [16]
1.5272988 1.4816698 1.593444 1.3379132 1.3431576 1.2531098 1.4068091 1.4442773
1.2474356 1.4891518 1.493108 1.4503417 1.3314636 1.356662 1.437181 1.4407927
00000000: 877e c33f 5ba7 bd3f f9f5 cb3f bd40 ab3f
00000010: 97ec ab3f e765 a03f 5212 b43f 14de b83f
00000020: f8ab 9f3f 879c be3f 2a1e bf3f cca4 b93f
00000030: 666d aa3f 1aa7 ad3f 8cf5 b73f e56b b83f

bias f4 [16]
-0.22809406 -0.24558657 -0.37486845 -0.35132152 -0.3249798 -0.18110724 -0.29102376 -0.2812838
-0.11490125 -0.28979018 -0.4110419 -0.29340902 -0.18959293 -0.22237036 -0.36369625 -0.25943133
00000000: 7d91 69be 0c7b 7bbe c2ee bfbe 6ae0 b3be
00000010: c163 a6be 2d74 39be 1101 95be 6e04 90be
00000020: 5951 ebbd 615f 94be 1574 d2be b539 96be
00000030: a624 42be 0eb5 63be 6536 babe 2fd4 84be

running_mean f4 [16]
-0.009339249 0.008907672 0.067980394 -0.01584721 0.04194715 -0.016160376 -0.022864114 0.0010407341
0.05380815 -0.117768966 0.021163063 -0.08808035 0.008829033 0.030586967 -0.015853884 -0.027644703
00000000: a603 19bc 7cf1 113c 4e39 8b3d 02d2 81bc
00000010: c6d0 2b3d c462 84bc 864d bbbc 3e69 883a
00000020: ef65 5c3d db30 f1bd 295e ad3c 7863 b4bd
00000030: a6a7 103c 8591 fa3c 01e0 81bc 2577 e2bc

running_var f4 [16]
0.20618333 0.19465157 0.19470225 0.120408356 0.1328907 0.119724214 0.19937995 0.13719043
0.15567148 0.17051929 0.09803342 0.15454978 0.13828088 0.12685242 0.100767985 0.13591458
00000000: b921 533e be52 473e 0760 473e a898 f63d
00000010: 8014 083e f831 f53d 422a 4c3e a67b 0c3e
00000020: 5868 1f3e 9c9c 2e3e bfc5 c83d 4c42 1e3e
00000030: 8199 0d3e 9ae5 013e 725f ce3d 312d 0b3e

weight f4 [4, 128]
0.20860246 -0.07619676 0.102435075 0.06029808 0.017823147 0.03147556 -0.14149253 -0.10078033
-0.108036146 -0.5079024 -0.32216233 0.0133169275 -0.25549152 -0.031588934 -0.067988604 0.14974858
-0.09650031 -0.2560891 -0.037297443 0.07289557 0.03905286 -0.0076273093 -0.027316945 -0.13413858
-0.023232004 -0.14391229 -0.17468864 -0.2848227 -0.2477299 0.0028366975 -0.028195985 -0.067323856
-0.044986203 -0.049771853 0.12808426 0.081087746 -0.11129647 -0.012405302 0.0468814 -0.040959943
-0.21732403 0.043128908 0.0423843 0.19831127 0.14182955 -0.05113402 -0.06332037 -0.046542283
-0.021635527 0.105320096 -0.1008518 -0.09138072 0.15817718 0.16406438 -0.015291885 0.01656957
-0.45896214 -0.08484364 -0.23816676 -0.033316117 -0.09071272 0.005124183 0.09892527 0.040425066
0.0670963 -0.046347868 -0.12927991 -0.13759314 -0.11753915 -0.05041509 0.024662014 -0.15031475
0.10547521 0.07122955 -0.16334248 -0.24874666 -0.08598774 -0.097456895 -0.023002092 -0.220763
-0.02732609 0.094639756 0.12603512 0.16646466 0.2282322 0.34034112 0.28722674 0.06466172
0.07686766 0.049987696 0.117113955 -0.0025362864 0.008601449 -0.0038257279 0.02707072 -0.007749778
0.46041432 0.20180826 -0.052133698 -0.05452222 -0.17741895 -0.040748794 0.13614957 0.20442782
0.26915637 0.3307698 -0.18685725 -0.19411005 -0.05731006 0.062497478 0.05618867 0.12942255
-0.30921042 0.078812405 0.09211074 0.11566245 0.107083775 0.23891778 0.31057903 0.21767329
0.46252316 0.27017197 0.21354796 0.10520485 0.047689177 0.075431645 0.11713442 0.09184081
-0.32870063 -0.10943419 -0.39647692 -0.20220304 -0.106553644 -0.13648367 -0.12722126 -0.20922235
0.04567965 -0.022709375 -0.052685674 0.059276033 0.061107364 0.116456814 0.0126553085 -0.03211498
0.27347726 -0.08703874 0.04133649 0.08319774 0.0930838 -0.030918445 0.04185765 0.07842095
0.17168406 0.058765102 0.016360788 0.14847313 0.034638457 -0.06678759 -0.18859981 -0.2143743
-0.016512936 -0.38928854 -0.31605735 -0.184158 0.17007862 0.09195032 0.08446909 -0.0072493865
0.0502997 0.3707102 0.19045894 0.02086743 0.043543775 0.06789349 0.09004248 0.17287557
0.10124465 -0.09557328 -0.3803169 -0.06349454 -0.09112041 -0.23346208 -0.26888347 -0.02522046
0.30052337 0.15758617 0.15369642 0.17557418 0.14712663 0.21702701 0.20140131 0.14338468
-0.040337197 -0.088379554 -0.14858358 0.023795534 0.14638089 0.1210718 0.09424708 0.14320636
0.11002942 0.066170596 0.022691276 0.031483203 0.07839612 0.015561085 -0.015279046 -0.008732421
0.08430932 -0.08651592 0.010124799 -0.20338283 -0.03883619 0.12746605 -0.09495492 0.10919608
0.22578041 -0.06036855 -0.2526981 -0.11194029 -0.09674113 0.04175779 -0.057834093 -0.044340115
-0.29832515 -0.14264426 -0.011232948 0.023822777 0.04818568 0.10554612 0.16222848 0.111881
-0.2239649 0.02779328 0.1098457 -0.0015732072 0.115298554 -0.06392833 0.054679386 -0.009279973
-0.060762938 0.18138763 -0.14145862 -0.11993248 -0.36520344 -0.16379318 -0.027825743 -0.2196324
-0.42897537 0.09389262 -0.101728596 -0.009816248 0.10997873 0.032831527 -0.044349648 -0.18650225
00000000: e29b 553e 0c0d 9cbd 7bc9 d13d 1ffb 763d
00000010: d901 923c 84ec 003d 6be3 10be eb65 cebd
00000020: 0e42 ddbd e405 02bf 76f2 a4be 3e2f 5a3c
00000030: c9cf 82be 6663 01bd 9c3d 8bbd b157 193e
00000040: f4a1 c5bd 1c1e 83be 34c5 18bd 464a 953d
00000050: e4f5 1f3d 82ee f9bb c9c7 dfbc a05b 09be
00000060: 0b51 bebc be5d 13be 94e1 32be 48d4 91be
00000070: e8ac 7dbe e3e7 393b 44fb e6bc 17e1 89bd
00000080: 7443 38bd 92dd 4bbd 8528 033e 5511 a63d
00000090: 67ef e3bd 9c3f 4bbc b606 403d 9dc5 27bd
000000a0: 318a 5ebe f0a7 303d 299b 2d3d 1c12 4b3e
000000b0: c43b 113e e871 51bd 1cae 81bd 1fa3 3ebd
000000c0: fd3c b1bc 10b2 d73d 638b cebd d125 bbbd
000000d0: 33f9 213e 7e00 283e d08a 7abc e8bc 873c
000000e0: 16fd eabe 81c2 adbd fde1 73be 7b76 08bd
000000f0: 97c7 b9bd c3e8 a73b 5599 ca3d c194 253d
00000100: c969 893d 43d7 3dbd f461 04be 37e5 0cbe
00000110: 5eb8 f0bd 0e80 4ebd fe07 ca3c 1cec 19be
00000120: 6303 d83d cce0 913d 4043 27be 72b7 7ebe
00000130: 571a b0bd 7b97 c7bd e26e bcbc b20f 62be
00000140: f7da dfbc 7dd2 c13d 5a0f 013e b675 2a3e
00000150: b4b5 693e 3141 ae3e 620f 933e 5d6d 843d
00000160: cb6c 9d3d e6bf 4c3d 71d9 ef3d d337 26bb
00000170: 18ed 0c3c 10b9 7abb 6ac3 dd3c daf1 fdbb
00000180: 6dbb eb3e d3a6 4e3e 258a 55bd b152 5fbd
00000190: 50ad 35be 35e8 26bd cb6a 0b3e 8755 513e
000001a0: ddce 893e a95a a93e 8257 3fbe c9c4 46be
000001b0: f4bd 6abd 5bfd 7f3d 1726 663d 5887 043e
000001c0: d450 9ebe 6668 a13d 8ea4 bc3d 6fe0 ec3d
000001d0: bd4e db3d dda6 743e 3704 9f3e bfe5 5e3e
000001e0: d6cf ec3e fb53 8a3e 51ac 5a3e a475 d73d
000001f0: ba55 433d e87b 9a3d 2ce4 ef3d 0917 bc3d
00000200: 734b a8be 081f e0bd 06ff cabe 500e 4fbe
00000210: cc38 dabd 60c2 0bbe 4a46 02be 623e 56be
00000220: 961a 3b3d 0309 babc efcc 57bd 6dcb 723d
00000230: b74b 7a3d e980 ee3d 3658 4f3c ff8a 03bd
00000240: 3605 8c3e 5e41 b2bd 7450 293d 9463 aa3d
00000250: b8a2 be3d ae48 fdbc ed72 2b3d 2a9b a03d
00000260: f2cd 2f3e adb3 703d 0f07 863c 5709 183e
00000270: 0ee1 0d3d efc7 88bd 4f20 41be f084 5bbe
00000280: 2346 87bc d450 c7be 45d2 a1be ea93 3cbe
00000290: 1729 2e3e 7350 bc3d 21fe ac3d 438c edbb
000002a0: 0f07 4e3d bacd bd3e ab07 433e 2cf2 aa3c
000002b0: f55a 323d be0b 8b3d 3168 b83d 4b06 313e
000002c0: 5b59 cf3d ecbb c3bd e6b8 c2be 6d09 82bd
000002d0: 569d babd af10 6fbe 18ab 89be 239b cebc
000002e0: 33de 993e 455e 213e 9862 1d3e b8c9 333e
000002f0: 5da8 163e 543c 5e3e 253c 4e3e 6fd3 123e
00000300: 9e38 25bd 5700 b5bd 4b26 18be daee c23c
00000310: dfe4 153e 7ef4 f73d 9d04 c13d b0a4 123e
00000320: 1b57 e13d 7384 873d 0ee3 b93c 88f4 003d
00000330: 258e a03d ecf3 7e3c f754 7abc 6e12 0fbc
00000340: 5daa ac3d 422f b1bd 7ce2 253c 9743 50be
00000350: b212 1fbd 7686 023e ba77 c2bd 32a2 df3d
00000360: fb32 673e 0345 77bd a561 81be f340 e5bd
00000370: 3720 c6bd 370a 2b3d 71e3 6cbd fb9d 35bd
00000380: 13be 98be 5611 12be 660a 38bc fc27 c33c
00000390: 595e 453d 9028 d83d 391f 263e de21 e53d
000003a0: 0e57 65be bcae e33c c8f6 e03d 1334 ceba
000003b0: a621 ec3d dbec 82bd 7ef7 5f3d 070b 18bc
000003c0: 8fe2 78bd aebd 393e 87da 10be 299f f5bd
000003d0: f2fb babe 66b9 27be d0f2 e3bc 51e7 60be
000003e0: a9a2 dbbe c64a c03d 1557 d0bd 54d4 20bc
000003f0: 873c e13d 5a7a 063d faa7 35bd 72fa 3ebe
