histories/04.24-17.09.43_69.94%_pt_EEGNet_BcicIv2a_bs=32_lr=0.025_ld=0.99991_os/best_valid_loss.pt (torch, 19098 bytes, 17 tensors)

weight f4 [8, 1, 1, 32]
00000000: a99e 23c1 f17c 93c0 69ca 8d3f e5df af40
00000010: 41d1 db40 2d35 d640 8b49 7c40 6bcb 4c3f
00000020: 23ce 14c0 fa00 98c0 df30 c5c0 e665 e1c0
00000030: 3367 b7c0 6b05 87bf 138f 4a40 a27f cb40
00000040: ba2e e240 7833 a040 bc9c ff3f a415 8dbf
00000050: e678 16c0 b243 4bc0 cded 81c0 6ba0 3fc0
00000060: 0093 06c0 b349 f8be 5dee a33f 8361 0140
00000070: f428 4640 2d32 2740 c37a ce3f f6cf 003f
00000080: 5be1 47c0 911d 68c0 a9b6 86c0 55ff 92c0
00000090: 724c 90c0 7502 80c0 7316 64c0 33d3 40c0
000000a0: 890c 38c0 2cae 44c0 533f 3ac0 2a8c 3fc0
000000b0: 9b08 2ec0 c1b7 27c0 5124 23c0 842a 30c0
000000c0: b09b 3dc0 d1ea 0fc0 d3c8 aabf 7dc4 f2be
000000d0: 56a6 fb3d aceb 0c3f 796b 683f 6c68 423f
000000e0: 789f 5a3f 534e 4c3f ca30 a13f 9ac8 e83f
000000f0: 70df 0740 80f2 ea3f a5d9 de3f 84e3 1640
00000100: fada 0141 9bb6 9e40 4c11 4340 1b23 1b40
00000110: 9218 3240 7300 6440 9822 6640 7996 6340
00000120: b3f6 5f40 9a87 5640 f6c2 2e40 d894 ee3f
00000130: f2cf b93f c535 f63f 244e 2d40 daf9 2140
00000140: 5df7 2540 7fee 4240 1935 3540 c110 0340
00000150: 9a7f fc3f e64a d73f a9c2 bf3f bf86 ca3f
00000160: f6e3 0540 cadb 0a40 576a 1e40 ba0f 1640
00000170: 376a 0640 79f3 0640 f534 2c40 1cf2 8840
00000180: c9a2 d0c0 366e 8cc0 07dc 71c0 9d35 87c0
00000190: 8926 9bc0 a3d1 aac0 5f2a a8c0 d8e8 91c0
000001a0: 0a20 89c0 0fa8 82c0 ed66 6bc0 dd4a 22c0
000001b0: 69a0 dcbf fc18 d5bf be9c 9bbf 8f66 13be
000001c0: efd2 a1bd 5364 fc3b 181f e9be 03b5 b2bf
000001d0: 1681 16c0 c4fe 49c0 11ac 52c0 edc2 4ec0
000001e0: 0a0b 52c0 3342 68c0 c5c4 79c0 a40a 5ec0
000001f0: b36e 5ec0 fee0 60c0 6fe7 84c0 4569 b5c0
00000200: 0d09 12c1 2b44 c7c0 3fa2 8fc0 040e 78c0
00000210: 5892 82c0 e596 84c0 c81c 79c0 4582 67c0
00000220: f8bb 4fc0 86ff 4fc0 03ae 49c0 8c71 36c0
00000230: 251e 39c0 33e8 54c0 31e2 46c0 90fb 35c0
00000240: 7f3c 49c0 48f4 40c0 afd7 38c0 0253 40c0
00000250: 53d4 3dc0 a490 24c0 c1c8 00c0 0d45 dcbf
00000260: 27e9 f7bf efa3 20c0 7ad8 32c0 df1b 30c0
00000270: 414b 17c0 7894 43c0 20ab 6ac0 48fe 9ac0
00000280: 45fd 2241 219b 9840 5206 8d3f c0f3 2c3f
00000290: bccd de3f fa97 f83f 614e df3f d374 0c40
000002a0: 2796 2a40 ea04 6340 4c51 8b40 8cd6 7740
000002b0: d844 1540 6ba1 c53e 626f b4be 79ce 373e
000002c0: 2264 413d 6058 78be 15c2 753f 60fc 3240
000002d0: a64a 8340 d826 5640 50ac 0840 2938 793f
000002e0: 7184 533f 230c da3f 92a6 3740 5adc 2840
000002f0: 21de 483f c515 8b3f 7dcc 8a40 1c14 1741
00000300: af55 d0c0 8870 59c0 62bf 1dc0 8e73 2bc0
00000310: 7711 3fc0 0951 22c0 1ee0 0bc0 7727 debf
00000320: e430 e6bf 76ee fabf 98ac 05c0 6262 02c0
00000330: 39af 15c0 4feb 16c0 1d8a 27c0 c839 20c0
00000340: 5b32 20c0 fd02 03c0 a590 cbbf 840b bcbf
00000350: 8c79 b6bf 4cd6 c7bf 95ee dcbf 853f 00c0
00000360: e776 28c0 f13b 55c0 59c3 80c0 1a72 94c0
00000370: 931c 6fc0 7959 43c0 5ad0 96c0 49b8 07c1
00000380: 54c8 5b40 1c81 84c0 5974 e9c0 ce5b 90c0
00000390: c563 be3f 0174 b540 8324 cb40 0e35 9340
000003a0: 4749 5b3f c11a 0bc0 1097 93c0 2fb3 8fc0
000003b0: 1673 f2bf 1bfc 3cbf 63d6 d73e bd7a a63f
000003c0: 8b1d e43f 3993 db3f 9925 703f 8e75 0240
000003d0: 05bb 3b40 c5bf 8d3e f5d1 78c0 41d0 e4c0
000003e0: 302f 93c0 bc34 a03e 3a1e 8240 4134 be40
000003f0: 2b9f 9640 db86 af3f 3dc1 31c0 e973 efc0
-10.226235 -4.6090016 1.1077396 5.496081 6.8692937 6.693991 3.9419887 0.7999789
-2.3250816 -4.750119 -6.1622157 -7.043689 -5.7313476 -1.0548528 3.1649826 6.35933
7.068204 5.006283 1.9969707 -1.1022229 -2.351129 -3.1760068 -4.0602784 -2.9941661
-2.1027222 -0.48493728 1.2807118 2.0215766 3.0962496 2.6124375 1.6131214 0.50317323
-3.1231296 -3.6268046 -4.2097974 -4.5936685 -4.5093317 -4.0003 -3.5638702 -3.0128906
-2.875765 -3.0731306 -2.910115 -2.99293 -2.7192752 -2.6205904 -2.5490916 -2.752595
-2.9626274 -2.248707 -1.3342537 -0.47415534 0.122875854 0.55047107 0.9078899 0.75940585
0.8539958 0.79807013 1.2593014 1.8186219 2.1230125 1.8355255 1.741017 2.3576365
8.115961 4.9597907 3.0479307 2.4240177 2.7827497 3.5625274 3.5958614 3.5560591
3.4994323 3.3520265 2.7306495 1.8639174 1.4516585 1.9235159 2.7078943 2.5308747
2.5932229 3.0458066 2.8313658 2.0478976 1.9726441 1.6819732 1.498128 1.5822371
2.0920386 2.1696649 2.4752405 2.3447099 2.1002328 2.1086104 2.6907322 4.2795544
-6.519871 -4.3884535 -3.7790544 -4.2252946 -4.848454 -5.3380904 -5.2551723 -4.5596733
-4.285161 -4.083015 -3.678157 -2.5358193 -1.7236453 -1.664825 -1.2157209 -0.14394592
-0.079015605 0.0077023893 -0.45531535 -1.396149 -2.3516288 -3.1561747 -3.291752 -3.2306473
-3.2819238 -3.6290405 -3.9026349 -3.4693995 -3.4755065 -3.5137324 -4.153251 -5.6691003
-9.12721 -6.2270713 -4.4885554 -3.8758554 -4.080364 -4.1434197 -3.8923817 -3.617326
-3.2458477 -3.249971 -3.1512458 -2.8506804 -2.8924649 -3.3266723 -3.1075556 -2.8434792
-3.1443174 -3.0149097 -2.8881643 -3.0050664 -2.9660842 -2.5713282 -2.012253 -1.7208573
-1.9368027 -2.5100057 -2.7944627 -2.751701 -2.3639681 -3.0559368 -3.6666946 -4.84354
10.186833 4.7689366 1.1017554 0.67559433 1.7406535 1.942138 1.7445794 2.1946304
2.6654146 3.547175 4.353674 3.87247 2.332327 0.38599715 -0.35241228 0.17949857
0.047214635 -0.24252462 0.9599927 2.7966537 4.1028624 3.3461208 2.1355171 0.9735132
0.82623965 1.7034954 2.8695416 2.6384492 0.7846394 1.0866019 4.337462 9.4424095
-6.5104594 -3.3974934 -2.464806 -2.678928 -2.985441 -2.536196 -2.185554 -1.7355794
-1.798367 -1.9604023 -2.0886593 -2.0372548 -2.3388197 -2.358112 -2.6178048 -2.5035267
-2.5030735 -2.0470574 -1.5903517 -1.4691014 -1.4255843 -1.5612273 -1.726031 -2.003877
-2.6322572 -3.3317835 -4.023846 -4.6389284 -3.736119 -3.052336 -4.7129335 -8.4824915
3.434102 -4.1407604 -7.2954526 -4.5112066 1.4874197 5.6704106 6.348207 4.6002264
0.8565869 -2.173508 -4.6121902 -4.490623 -1.8941371 -0.7382218 0.42155752 1.3006207
1.7821516 1.7154304 0.9380737 2.038425 2.9332898 0.2768537 -3.8878148 -7.1504216
-4.59951 0.31290233 4.06619 5.9438787 4.7069297 1.371303 -2.7774193 -7.482899

weight f4 [8]
00000000: 6f7d 4041 36f2 9540 e98a b140 69f0 b440
00000010: 246b be40 52bf d240 2714 9f40 c498 5241
12.030623 4.685817 5.548207 5.654347 5.9505787 6.5858545 4.97121 13.162296

bias f4 [8]
00000000: a4fc 1f40 bcfa a33e b9c6 25bf a794 3040
00000010: 5916 1a40 db85 a8bf d22d 1940 9597 cdbf
2.499795 0.32027233 -0.6475635 2.759073 2.407614 -1.316585 2.3934216 -1.6061884

running_mean f4 [8]
00000000: 9236 4135 4237 b136 07e1 18b6 725b b535
00000010: ca86 3c36 acf4 19b5 89de faaf 0a66 b1b4
7.1977513e-07 5.281444e-06 -2.2780748e-06 1.3512165e-06 2.809264e-06 -5.7352986e-07 -4.5632856e-10 -3.3043062e-07

running_var f4 [8]
00000000: e8b3 2634 f112 0334 514f 5334 16b5 8c34
00000010: d5dc 9d34 9a03 2534 0607 5834 9cd0 8a33
1.5525404e-07 1.2207217e-07 1.9679761e-07 2.620879e-07 2.9404205e-07 1.5368133e-07 2.0119123e-07 6.4640716e-08

weight f4 [16, 1, 22, 1]
00000000: 0ad1 c5bd bc66 083d db54 c33b bacb 223e
00000010: 758c e8bd cfd0 0f3e 6ae9 e2bd 34c1 2ebe
00000020: 13c7 a73e ad23 683d ee9e 603d 6120 71bd
00000030: e08e c2bd 70c3 333e cccb 00bd 1d22 48bf
00000040: e463 443e a32a 913d 1191 2e3e a70c 09be
00000050: d966 343e 3218 12bd 3efa f23d 7b47 793e
00000060: 0a9b c5ba 7fa9 1a3d 8341 823d 1d66 23be
00000070: 91e9 1dbf b77d 55bd 263f 653d 70f8 48bc
00000080: f994 3ebd 248d e6bb 2ea8 8f3e dc59 b9be
00000090: 4c9a 6c3e de2e e93c 903d d5bd a18e 463c
000000a0: 8a44 bf3e 185a 073e fa12 45be 76f2 45be
000000b0: 69b2 1f3f 9b90 ff3d 6d01 ccbd 9c2a a73d
000000c0: 0b6b 2cbe ec8e abbd dfb6 f83c a1ee 033e
000000d0: e118 30be c2ce 30bd 3879 0d3d c545 803c
000000e0: 79f7 183c b8c4 0a3c db5b cebc 55f1 6cbd
000000f0: 8025 4cbe 1eaf 3ebe ba88 ba3d a409 09bf
00000100: 1f59 a83e e4c9 da3d f0a1 8dbe 421b f43b
00000110: 19ac 5ebb ca39 023d ed9e 823e d7df c63e
00000120: af2b 3e3d 5c5c 07be 3d8d 5bbe e109 d13d
00000130: c840 f03c 7ce3 17be 17ef e8bd 9d86 2ebe
00000140: a936 18be 8ec4 0a3d 8f9b 84be 2052 63be
00000150: af99 f23e f729 d93e 65a4 95bb 1de6 15be
00000160: ce21 cc3c 4b1e 4b3d 8890 473d 0d33 8f3e
00000170: ee37 513d 5986 413d 1ae9 9bbe f85c 15be
00000180: 79c9 79bc d74f 073d e807 f2bd 62db fc3e
00000190: 963a f3be 51db 02be 2957 09be e441 f13d
000001a0: 6b3c 743e e12e 003e 24b5 1dbe 65ac 83be
000001b0: f062 e73c b212 a23e 77da 683e 5a14 b0bc
000001c0: cfc7 38bd 6d2a 50be c956 16bd 902a 6a3c
000001d0: 2252 a0bc 9c2a 073f fd1c 483d 13d8 17bf
000001e0: 5fc0 5cbd c18f 6f3e a12b 6b3d e521 38bd
000001f0: 4315 4e3c 7918 90bd 7f02 f4bc edf5 8e3d
00000200: 4c8a 81be be1b 883d 986c cfbc fd36 b63e
00000210: d7ae b03d 4c8d d5ba 2987 84bd 1974 2dbe
00000220: 2a15 c2b8 403a 593e ddd6 53be 5b64 f93e
00000230: 4ac2 19be 6ec2 f2be dd7b 933d 93b9 273e
00000240: 295c 9ebe c1d3 383e f8d1 023d 74eb aabe
00000250: 72ac 283e 95c1 263e 918a 4f3e 1390 cb3c
00000260: 9f25 22bd 4ff4 07be f3b8 aa3c c26d a43e
00000270: d940 5fbd 05e6 9cbe 111f 703c 0e8c 6e3e
00000280: 802d 1c3f 3162 ab3e 4424 00be d87b a0be
00000290: 61c4 13be 1001 f13b 2a6f e43d 1058 b43d
000002a0: c2f0 09bc 42cd 28be 7521 5fbc 15a1 033e
000002b0: 88a5 133e e122 cb3d dee1 17be 4fef 2fbd
000002c0: 147a 793d 87a4 37be a8b4 c1bb ca90 ac3e
000002d0: 912d 4c3e 21fe 45bd dc10 c53c cd7a 47be
000002e0: a6c9 67be 4cd4 ad3d c1c7 27be 033b f3be
000002f0: 9527 333e 91fc 84bd d733 bf3e cb93 2d3e
00000300: bf1f d3be d79f 273e 310c 603e 9f1c cd3d
00000310: ba6f d7bc 6775 97bc 92a3 73be 1d4c 943c
00000320: 62d9 033e ad63 5e3d bbd9 233d 8a1f d8bd
00000330: 60c4 afbd bff9 df3e 2c3b 61bd d164 dbbe
00000340: add4 4b3d 2bf6 cf3e b553 033e 27a0 15bd
00000350: bb49 cebc 1682 39be 4792 3abe 8002 fd3d
00000360: 7775 51be 3b75 dfbd 861c 05be b6c8 dd3e
00000370: ed61 6fbe 6a2c dfbd dc6c 083d 62ce 483e
00000380: 0582 433e 831c c33d 22f2 52bb 12e3 173e
00000390: 3492 983d 1825 c5be b340 2d3e 9d63 603e
000003a0: 89af a2bc aa74 953e 3202 8cbe 0f95 88be
000003b0: 0890 11be 7864 7abe 625b 4cbd 57e8 683c
000003c0: e297 dcbd e6cf 043f 65a3 c43d 66b6 72be
000003d0: 7de9 1abe 1959 d93c 7d4e c5bd 0d5a d33d
000003e0: c9dc 23bf 26d7 b73e 2cab 183e 9acb 52be
000003f0: 834b d63d 9d24 b43e cd9b 513e a4bc bf3d
-0.09659012 0.0333011 0.0059610433 0.15898028 -0.11354915 0.14044498 -0.110796764 -0.17065889
0.3276907 0.056674648 0.054839067 -0.05886877 -0.094999075 0.17555022 -0.031444356 -0.7817705
0.1917873 0.070882104 0.17047526 -0.13383733 0.17617358 -0.035667606 0.11864136 0.24343674
-0.0015076112 0.0377593 0.063601516 -0.15956922 -0.6168452 -0.052121844 0.055968426 -0.012266263
-0.04652879 -0.0070358682 0.28057998 -0.3620137 0.23105735 0.02846473 -0.10412133 0.012118966
0.3735698 0.13217962 -0.1924552 -0.19330773 0.6238161 0.12478753 -0.099612094 0.08162424
-0.16837709 -0.083768696 0.030360637 0.12883998 -0.1719699 -0.04316593 0.03453943 0.015658269
0.009336346 0.008469753 -0.025190284 -0.05784734 -0.1993618 -0.1862149 0.0910811 -0.53530335
0.32880494 0.10683039 -0.2766261 0.0074495384 -0.003397709 0.031793393 0.25511876 0.3884265
0.04642838 -0.13218826 -0.21440597 0.102069624 0.029327765 -0.14832872 -0.11373728 -0.17043538
-0.14864601 0.033878855 -0.25899932 -0.22199297 0.47382876 0.4241483 -0.0045667165 -0.14638563
0.024918463 0.049589437 0.04872182 0.27968636 0.05107873 0.047247265 -0.3045128 -0.14586246
-0.015245789 0.033035126 -0.11817914 0.49386126 -0.47505635 -0.12778975 -0.13412155 0.11780146
0.23851173 0.12517883 -0.15401131 -0.25717464 0.02824542 0.31654888 0.22739588 -0.02149408
-0.045112427 -0.20328684 -0.03670386 0.014292374 -0.019570414 0.5279939 0.04885577 -0.5931408
-0.053894397 0.23394682 0.057414655 -0.0449542 0.012578311 -0.07035918 -0.029786346 0.069805
-0.25300825 0.066459164 -0.025320336 0.35588828 0.08627098 -0.001629272 -0.06471092 -0.16938819
-9.254583e-05 0.21213627 -0.20687433 0.48709378 -0.15015522 -0.47413963 0.072013594 0.16379385
-0.30929688 0.18049528 0.031938523 -0.3338276 0.16472033 0.16284783 0.20267703 0.024848973
-0.03958666 -0.1327679 0.020840144 0.3211499 -0.054505203 -0.3064424 0.014655844 0.23295614
0.6100693 0.33473352 -0.12513834 -0.31344485 -0.14430381 0.007354863 0.11154015 0.08805859
-0.008419218 -0.1648455 -0.013618817 0.12854417 0.14418614 0.09918762 -0.14832255 -0.04295283
0.06090744 -0.17933856 -0.0059114285 0.33704215 0.19939257 -0.04833806 0.02405589 -0.19480439
-0.22635517 0.08487758 -0.16384794 -0.4750596 0.17495568 -0.06493486 0.37344238 0.1695091
-0.41235158 0.16369568 0.2187965 0.10015225 -0.026298393 -0.018488599 -0.23792866 0.0181027
0.12875894 0.054294277 0.040002566 -0.105528906 -0.085823774 0.4374523 -0.05498807 -0.42850354
0.04976337 0.406175 0.128249 -0.036529686 -0.025181642 -0.1811603 -0.18219863 0.123539925
-0.20454966 -0.10911032 -0.12999162 0.43317193 -0.233772 -0.10897143 0.03330694 0.19609979
0.19092567 0.095269226 -0.003218778 0.14832714 0.07449761 -0.38504863 0.16919212 0.21913
-0.019859092 0.2919057 -0.27345425 -0.26676223 -0.142151 -0.24452388 -0.049891837 0.01421555
-0.10771157 0.5187973 0.096014775 -0.23702392 -0.15128131 0.026531743 -0.09634111 0.1031991
-0.64008766 0.35906333 0.14909047 -0.2058548 0.104636215 0.35184184 0.2046959 0.09362152

weight f4 [16]
00000000: bb69 0241 bc3a 8940 2d1d 3e40 a5fe 8140
00000010: 798a 3d3f 2c50 3b40 1a50 2d40 dd75 cb3f
00000020: cf33 f33f b405 2040 8093 d83f fa1b 3840
00000030: eaf3 5740 577f cb3f 8f1c 2341 bb52 0d41
8.150813 4.2884197 2.9705307 4.0623345 0.7403942 2.9267683 2.708014 1.5895344
1.9000186 2.500348 1.6920013 2.8767076 3.3742623 1.5898236 10.194472 8.832698

bias f4 [16]
00000000: bac7 1ec0 578d d4bf b714 66bf e465 97be
00000010: 4aed 49bd 3a72 4dbf f925 b1bf d1bd 20c0
00000020: 4be0 cdbe 9c00 25bf e92c 3f3d 103e 1dbf
00000030: bd99 86bf 0453 27bc 573f 9bc0 a4ac 52c0
-2.4809403 -1.6605633 -0.8987536 -0.29569924 -0.049298562 -0.8025242 -1.3839713 -2.5115855
-0.40210184 -0.64454055 0.04667369 -0.61422825 -1.0515667 -0.010212664 -4.851482 -3.2917871

running_mean f4 [16]
00000000: 10e9 24be 85d7 dbbe 450e d73a 8c68 6cbc
00000010: ec99 9dbd 7197 11be 37b8 80be 3453 0c40
00000020: d5eb 5b3e 9a2a c83d 2dc1 20be a1a7 333d
00000030: 124d bc3a 9708 873e 572d 74bc 2ce1 adbb
-0.16104531 -0.42937866 0.0016407451 -0.014429223 -0.07695374 -0.14217927 -0.25140545 2.1925783
0.21476682 0.097737506 -0.1569869 0.043861035 0.001436623 0.2637374 -0.014903388 -0.0053063836

running_var f4 [16]
00000000: c199 3e3a 1018 623b 9ac0 333a 3f60 2639
00000010: 9378 a63a b984 163a bce6 183a 62d8 5c3b
00000020: 71f5 093a 1482 4b3a d08f d239 a35f 753a
00000030: 242c 333a f65f 9339 2df6 be3a d7d3 a63a
0.0007270836 0.0034499206 0.0006857008 0.00015866848 0.0012700729 0.0005741823 0.0005832722 0.003369831
0.0005262709 0.00077632186 0.0004016147 0.0009360259 0.00068348856 0.0002810952 0.0014569216 0.0012727928

weight f4 [16, 1, 1, 16]
00000000: 0f32 9840 3b13 7840 2e4b 313f 7bb2 23c0
00000010: 5d94 d83f 2d8a fbbd 7324 75bf eab0 953f
00000020: e5f7 ad3f 9e70 88bc e302 053e f1f1 c2bd
00000030: d41b ffbd a76a 24be 062d a4bd 852d 2e3f
00000040: d461 2ec0 3d01 02c0 bca3 c2be 088b 48be
00000050: f7f4 21bf 3842 1dbe 7510 5f3e e3de 70be
00000060: b931 5d3f 400e 42be 8c26 81be 10a4 9b3e
00000070: 6e37 03bf 6075 76bf 5d66 abbe 5c88 08c0
00000080: dfaf 3c3f 609a 9a3e cbc7 8c3e 9324 0a3f
00000090: d0bb 103f d52e 0340 69f1 a43f 8e9e cd3f
000000a0: a4e8 1f3f 3329 1c3f c935 e23e 9833 e0be
000000b0: cfa1 6d3c daa0 2cbf 95f5 5f3e 7f67 513f
000000c0: 535c 17c0 2966 96bf 3a62 97bf 244c 82bf
000000d0: d5b6 1abf ec8c 503f ec25 0040 d628 db3f
000000e0: 4095 f13f d4f4 b53f aa9d 20be c8d5 14be
000000f0: 961f 83bf 973d 7bbe 5f0c 3dbe 1663 353f
00000100: 55af 5a40 4e45 f73f 1ee6 973f 5dc2 b73f
00000110: bc6a ca3f 2d10 993f c3d3 ed3f 00b8 683f
00000120: 3906 b73f d561 093f e32e 0c3f 39c7 033e
00000130: e112 283f aeab 4e3f 71db a03f e96a dc3f
00000140: a9a0 a140 1c5a 0340 ccd1 fe3e da7f d6be
00000150: 9213 9bbe ca90 4dbe 23a4 f6bd daa8 63bf
00000160: a22d 65bd d786 083e 069a 033f 352f 4c3f
00000170: be9f 13bd 42b2 533e a200 6fbf 389e c5bf
00000180: 03cc 99c0 c7f1 c9bf 2d12 09bf 3679 5b3e
00000190: b0dc 3ebe 1a20 5b3f b2a6 253e b42e 06bf
000001a0: 832e f6be f616 7fbf add7 ec3e af7b 9abe
000001b0: 83fc d83d 5e89 003f 7ca2 2e3f 86b0 12bf
000001c0: ed9d 0e40 9fcb 24c0 dcac af3e 450c 303f
000001d0: 6f5f a9bf 267b 883f 9c5b 2040 98ea aec0
000001e0: 2cd7 a140 ae39 09c0 8585 4ebf 2780 d93f
000001f0: b10f acbf e5d2 9d3f 3a49 02bf 3a9f ccbe
00000200: 5428 ca3f b270 993e 4d97 c13c 1a0f 05be
00000210: 1bbd b53f 6799 1c40 2467 0740 dfe8 d03f
00000220: d298 993f c6f2 723f f15a 353f 44ad acbd
00000230: f122 fdbe a75b cdbe 6211 83bd bd0f 043f
00000240: 9227 f23f 3237 043f c2f7 e2be ec7f 4dbf
00000250: aff0 3fbd 02f4 a73f db9a 593f 6e3a aa3f
00000260: 7c3b 0740 ea59 863f cf8c b1be 807a 663f
00000270: 361d efbd dc12 c2be ddc4 263f 7b85 c33f
00000280: cbb5 6a40 c32a 593f 129a eb3f f78b 4fbd
00000290: cb37 023e 74ea 73bd 3bca 81bf 509d 25c0
000002a0: 2b71 b3bf 1d22 a6bf e8f7 13be 44ad 20bf
000002b0: 2a5e 77bd 9a35 8ebe 7b2e a4bf 524b 2dc0
000002c0: d7ed 3040 03a9 c53f db0d 0f3f a0d7 98be
000002d0: 1a65 20bf d647 08bf cf06 743f 275c e13e
000002e0: 824b 743f af3a dabc a435 48bf 738d f13e
000002f0: 1ace 40bf 11f5 30bf b9cd d93f a420 7b40
00000300: 24eb 1840 eb83 643f 9216 273f 0eb7 8abf
00000310: a078 22bd cb57 4b3f e4d4 a73e 24cc c53e
00000320: af86 063f 9885 5fbf a8bb 2bbf bd10 d73d
00000330: a644 67bf 5f6b b33e 4007 0440 0f33 7140
00000340: c350 25c0 9584 cabe ef4e 0dbf 6313 85be
00000350: 47cf 863f 7cc5 613e 2a95 023f 756e 523f
00000360: 4b99 333f dd5c 4fbf f51b 0a3e c7b1 ad3e
00000370: 96b9 a73e f757 163f 4649 4740 4d8d 9040
00000380: 2308 8840 57f1 b53e b520 12bf c26e 3140
00000390: 500a 13bf 3bdd 8ebf a162 fd3f e875 0a3f
000003a0: 25bb 793f 30ec 1a40 2aed edbf 126f 703f
000003b0: 4e51 883f d190 9ebf 8864 62bf 53e8 1040
000003c0: ad75 ccbf 5b05 3fc0 fedb acbf ee28 f43f
000003d0: d937 babf 2917 03be 19c6 1640 6cd2 0ec0
000003e0: c6ce cbbf a349 06c0 b598 1740 f477 0ec0
000003f0: f108 283f 3926 0240 63af 23bf 42e3 d5bf
4.7561107 3.8761737 0.6925534 -2.5577686 1.6920277 -0.12282214 -0.9575874 1.1694615
1.3591276 -0.016655263 0.12989382 -0.09518803 -0.1245648 -0.1605631 -0.080164 0.6803821
-2.724721 -2.0313256 -0.38015544 -0.19584286 -0.6326441 -0.15357292 0.21783622 -0.23522525
0.86403996 -0.18950748 -0.2522472 0.30398607 -0.51256454 -0.9627285 -0.33476534 -2.1333227
0.7370586 0.30195904 0.2749618 0.5396206 0.5653658 2.0497334 1.2886173 1.6064012
0.62464356 0.61000365 0.4418166 -0.43789363 0.01450391 -0.6743294 0.21871026 0.8179855
-2.36501 -1.1749927 -1.1826851 -1.0179486 -0.6043523 0.8146503 2.0023146 1.7121837
1.8873672 1.4215341 -0.15685144 -0.14534676 -1.0244014 -0.24535213 -0.1846175 0.7085432
3.4169514 1.9318025 1.1867101 1.435619 1.5813823 1.1958061 1.858025 0.9090576
1.4298774 0.53664905 0.54759043 0.12868966 0.65653807 0.8073071 1.2566968 1.7220126
5.050862 2.0523748 0.49769437 -0.41894418 -0.30288368 -0.20074764 -0.12043025 -0.8892952
-0.055951722 0.13332687 0.51406896 0.7975953 -0.036041014 0.20673469 -0.9336034 -1.543891
-4.806154 -1.577691 -0.5354336 0.21432957 -0.18638873 0.8559586 0.1617687 -0.52415013
-0.4808236 -0.9964441 0.46258298 -0.30172488 0.10595038 0.50209606 0.6821668 -0.57300603
2.228389 -2.574928 0.3431157 0.6876872 -1.3232249 1.0662582 2.5055914 -5.466137
5.057516 -2.1441455 -0.80672485 1.6992234 -1.3442289 1.2329985 -0.50892985 -0.3996523
1.5793557 0.29968792 0.023631716 -0.12994042 1.4198335 2.446863 2.1156702 1.6321067
1.1999762 0.9490169 0.7084189 -0.08431485 -0.4944072 -0.40108988 -0.063998 0.51586515
1.8918326 0.5164672 -0.4432965 -0.8027332 -0.046860393 1.312134 0.85001916 1.3299081
2.1130056 1.049619 -0.3467774 0.9003067 -0.116754934 -0.37905014 0.6514414 1.527511
3.6673458 0.84830874 1.8406394 -0.05067059 0.12716596 -0.059549764 -1.0139841 -2.5877266
-1.4018911 -1.297916 -0.14450037 -0.6276438 -0.060392536 -0.2777527 -1.2826685 -2.7077222
2.7645166 1.5442203 0.55880517 -0.2985201 -0.6265427 -0.5323461 0.9532289 0.4401562
0.95427716 -0.02663931 -0.7820685 0.4717823 -0.75314486 -0.6912394 1.7015907 3.9238672
2.3893518 0.8926379 0.65268815 -1.0837114 -0.03966582 0.79430836 0.3277961 0.3863231
0.5254926 -0.8731322 -0.67083216 0.105012394 -0.90339124 0.35042855 2.0629425 3.7687414
-2.5830543 -0.39554277 -0.5519857 -0.25991353 1.0532006 0.2204799 0.51008856 0.82199794
0.7015578 -0.81001073 0.13487227 0.33924696 0.32758778 0.58727974 3.1138473 4.5172486
4.2509933 0.3553569 -0.57081157 2.7723851 -0.5743761 -1.1161264 1.9795724 0.5408616
0.97551185 2.4206657 -1.8588002 0.9391948 1.0649812 -1.2387944 -0.8843465 2.26418
-1.5973412 -2.9847019 -1.3504636 1.9074991 -1.4548293 -0.12801804 2.355841 -2.2315931
-1.5922477 -2.0982444 2.3686955 -2.2260714 0.65638644 2.033583 -0.63939494 -1.6709979

weight f4 [16, 16, 1, 1]
00000000: 2032 57c0 6b4f 073f 5def 1c40 1a3d dd3f
00000010: aac7 7dbe c783 e33f 9500 41bf de81 f5be
00000020: 8097 d03f 089c 573f 036c 0e40 8eb7 bcbe
00000030: 95a7 4dc0 d0da f23e f673 0e40 2f16 063e
00000040: 1279 6dbf 9db2 8fbf 1591 e43e 839e f9bf
00000050: 26ab 2040 ca86 813f b9b1 1dc0 a442 68c0
00000060: 42c3 e9bf 076b f33f fc0f 2a40 7b68 c33f
00000070: 523e 013f a90f 953f 1c00 edbe 9a08 8d3f
00000080: 592e 25c0 bdbe c3bf 71d8 a73f 5cb3 183f
00000090: 311f 4e3f cf2f 1b40 3882 57bf 907d 3140
000000a0: 4401 a33f ee78 d03f 4ae8 0f40 6bc1 353f
000000b0: f92e 83bf 48f3 e8be 1e04 633e 15e6 18bf
000000c0: d02d 1f3f f331 dd3f eb82 f8be 50c9 b5be
000000d0: 187f 8fbf be7c a8be e030 3c3f b530 ab3e
000000e0: da1c d43e 8cf8 b53d 9869 d53f 0391 93bf
000000f0: 54b6 993f 4ae4 b8bf f46d 6ec0 4ecd dbbf
00000100: 18d7 aebf ce29 303f db97 f63e 9d5b e2bf
00000110: 9ec9 1c3e 992b 3a40 c9a9 01c0 95d8 8240
00000120: a925 1bc0 615c b53f d233 933f 2a2b e9bf
00000130: eeec 19bf fcf4 d33f 0629 073f c303 bbbe
00000140: 026e e4be 45b7 a0bd c789 f9be 7ceb bbbf
00000150: e640 0040 b879 2240 c8d1 01c0 8ac1 74c0
00000160: 1c92 8fbf 2033 723f 9874 2a40 75e0 723f
00000170: 5857 46be 032e 063f 4203 24bd f2af c93f
00000180: c418 74c0 006d 9a3f 474c 9c3f 1dc3 b03f
00000190: f2c5 e3be 17bb 2cbf d651 0c3f da1c c6be
000001a0: c2ae 543f 73c7 0dc0 d04a 9cbf 7665 81bf
000001b0: 2055 25bf 06e7 19c0 ca05 8d3f 7702 c0be
000001c0: 72e9 5e40 6a2a e53f 8f7c a5bf c925 193f
000001d0: d514 a6be acd5 51c0 2684 f03f 1c81 8840
000001e0: 8900 5fbe d569 f9bf 72b6 99bf d568 49be
000001f0: 1a32 213e 6609 a9bf 2b7b c9be cb21 153f
00000200: 5bb8 953f 4692 05c0 055e a6be 6a81 a9bf
00000210: 207d 9abe 36ce 77bc 10fa 823e 594f 67bf
00000220: 5f02 acbf 00b8 50bf 64d3 86bf d49e e93f
00000230: 8e2d ad3a f398 b93f 33c6 62be 8606 4a40
00000240: 50ab 5b3f 0f39 793f 7652 503e 00c5 ba3f
00000250: 7021 e73f a8b8 9b3e 51c4 953f 46dc 3dc0
00000260: 06ed f93f 12a9 90bf 26c6 e53f 28f1 f73f
00000270: b51d 58bf ad0a 43c0 0157 bc3e 5b6c 803f
00000280: ea87 393e 3673 a33e 48e7 4dbf 59aa 01bf
00000290: 504a a0bf 7e01 8ebf 04cf f33e 6477 72be
000002a0: 184c 05be e65e dfbd 38d5 b4be a9f0 b6bf
000002b0: 40db f63f e422 c1bf 9ebb 78c0 9a25 dabf
000002c0: 3214 b1bd 1d7b 0abf 7b75 9abf e2fc 20bf
000002d0: 3f6e 5540 0e6a e63e 893a 0bc0 bb04 9c3f
000002e0: eb10 eebe f688 2e3f 5eff 4240 832d 493e
000002f0: 0143 c33f 227c 33bf 7796 16c0 93b7 3abe
00000300: da7f d3be 0c07 88bf e4ec e7bf acfa 81bf
00000310: a9f5 6a3f 5753 893f 885c 0ac0 d13d 4c40
00000320: 3f14 0dc0 0caa 9c3f 5b24 113f 36ae 8a3e
00000330: 7b36 3a40 51e0 1040 bda6 c8bf 75ff 933e
00000340: 744c 6f3e 6fc0 88bf 7d0e 983d 5d49 12c0
00000350: 77eb 00bf c6c4 443f d7ee 8d3f 3d84 6d3f
00000360: 9d21 00bf 58f9 083e abc0 8c3f 594c 2c40
00000370: 740b bfbf 5e3e c73f 41ed 083e 0711 4b40
00000380: 2051 4d3e 4d95 6cbf 761e 3abf f59f 9b3f
00000390: 40b0 f53f a889 ca3d d1ab cd3e 9a03 34c0
000003a0: 116d 913f 133d b1bf 76e8 f13e 7a6e 893f
000003b0: f919 a83f f280 3ac0 f74d ccbf 2875 333e
000003c0: e3bf 96bf be63 a93f a5af 243e fd97 8e3f
000003d0: 6fac abbe 9884 cabe ebc7 9a3d afc6 3dbe
000003e0: df61 8f3f fb2c 693f e7f6 a43f c8d1 f5bf
000003f0: c2c3 8e3d 0bdf d0bf 6888 62bf afa1 72c0
-3.3624344 0.5285556 2.4521096 1.7284272 -0.24783197 1.777459 -0.75391513 -0.47950643
1.6296234 0.8422246 2.2253425 -0.3685879 -3.2133534 0.47432566 2.2258277 0.130944
-0.92762864 -1.1226383 0.4464194 -1.9501499 2.510446 1.0119259 -2.4639723 -3.6290674
-1.8262713 1.9017037 2.6572256 1.526626 0.5048572 1.1645404 -0.46289146 1.101825
-2.5809538 -1.5292584 1.3112928 0.5964868 0.80516344 2.424793 -0.84183073 2.7732887
1.2734761 1.6286905 2.2485528 0.7099826 -1.024871 -0.4549811 0.2216954 -0.5972608
0.6217928 1.7280868 -0.48537382 -0.35505152 -1.1210661 -0.3290767 0.7351208 0.33435598
0.41428262 0.08885297 1.667285 -1.1528629 1.2008767 -1.4444668 -3.725461 -1.7172029
-1.3659391 0.6881379 0.48162732 -1.7684208 0.15311286 2.908911 -2.0259879 4.088938
-2.4241736 1.4168817 1.1500189 -1.8216298 -0.6012715 1.6559138 0.5279697 -0.36526307
-0.4461518 -0.07847456 -0.48737928 -1.4681239 2.003961 2.5386791 -2.028429 -3.8243127
-1.1216464 0.9460926 2.6633663 0.94873744 -0.19369256 0.5241396 -0.04004217 1.5756819
-3.8140116 1.2064514 1.2210778 1.3809544 -0.44486958 -0.67472976 0.5481237 -0.38693887
0.8307916 -2.2152984 -1.2210331 -1.0109088 -0.64583015 -2.4047256 1.1017392 -0.3750188
3.4829984 1.7903569 -1.2928637 0.5982328 -0.3243777 -3.2786665 1.8790329 4.2657604
-0.21777548 -1.9485422 -1.2008803 -0.19668896 0.15741768 -1.3205993 -0.39351782 0.5825469
1.1696886 -2.0870528 -0.32493606 -1.3242619 -0.30173588 -0.015124848 0.25581408 -0.9035545
-1.3438224 -0.8153076 -1.0533261 1.8251595 0.0013212429 1.4499801 -0.2214592 3.1566482
0.8580828 0.9735269 0.20343956 1.459137 1.8057079 0.3041432 1.1700536 -2.9665694
1.9525459 -1.1301596 1.7951095 1.937047 -0.8442033 -3.0475266 0.3678513 1.0033067
0.18118253 0.31923836 -0.8043103 -0.50650555 -1.2522678 -1.1094205 0.47618878 -0.23678356
-0.13017309 -0.10906772 -0.35318923 -1.4292194 1.928566 -1.5088773 -3.8864512 -1.7042725
-0.0864643 -0.54094106 -1.2067102 -0.6288587 3.334854 0.45002788 -2.1754477 1.2188944
-0.46497282 0.68177736 3.0468364 0.19646268 1.5254823 -0.70111287 -2.3529336 -0.1823409
-0.4130848 -1.062715 -1.8119168 -1.0154624 0.917811 1.0728558 -2.1618977 3.191273
-2.2043607 1.2239394 0.566961 0.27086037 2.9095752 2.2636912 -1.5675884 0.28905836
0.23369008 -1.0683726 0.074246384 -2.2857277 -0.5035929 0.7686275 1.1088513 0.92779905
-0.5005129 0.13376367 1.0996298 2.69216 -1.492537 1.5565908 0.13371755 3.1729143
0.20050478 -0.92415315 -0.7270273 1.215819 1.9194412 0.09889537 0.40170148 -2.8127198
1.136141 -1.3846763 0.47247666 1.073684 1.3132926 -2.9141202 -1.5961293 0.1752516
-1.1777309 1.3233564 0.16082628 1.1140133 -0.33529994 -0.39554286 0.075576626 -0.18532823
1.1201743 0.9108426 1.2887849 -1.9204645 0.069709316 -1.6318067 -0.8848939 -3.7911184

weight f4 [16]
00000000: 5fd0 0c3f 9b0f 4c3e 7281 c6be 5c79 423f
00000010: e773 683e b20f 8f3e 4499 503f 564b c53e
00000020: f33e 18bf 42dd 70be 75e5 303f 1a4c d33e
00000030: 164b 9b3e 901c fe3e 4211 9d3e b503 523f
0.5500545 0.19927828 -0.38770634 0.7596643 0.22700463 0.27941662 0.81483865 0.3853404
-0.5947105 -0.23521903 0.69100124 0.41268998 0.30330724 0.49631166 0.3067723 0.82036906

bias f4 [16]
00000000: 5a2a 7abd cb1c 22bc 5937 0f3d ffc8 14be
00000010: df72 0ebd ce6f bbbc f7d6 2ebe 62da 203d
00000020: 3265 c33c 0f06 57bc 9741 09be 2879 1cbd
00000030: 876c a6bc 516d 8abd a8b3 f1bc 7625 31bb
-0.061075546 -0.00989456 0.034964893 -0.14529799 -0.03477752 -0.022880461 -0.1707419 0.039270766
0.023851965 -0.013124003 -0.13403927 -0.03820148 -0.020315422 -0.06759132 -0.029504612 -0.0027030385

running_mean f4 [16]
00000000: cfa0 d9c0 1ace 47c1 54ce 20c1 2963 3cc1
00000010: 8869 d5c0 9900 3ac1 3e24 21c0 d881 2841
00000020: 21eb cbbf 5084 8dbf 104b 1cc1 7987 7ac1
00000030: 9526 1ec1 ed4d 88c0 6809 b9c0 f6ee 4e3f
-6.80088 -12.487818 -10.050373 -11.774209 -6.669132 -11.625146 -2.517837 10.5317
-1.5931131 -1.1056004 -9.768326 -15.658074 -9.884419 -4.2595124 -5.782398 0.80833375

running_var f4 [16]
00000000: 3ef7 6e46 8e25 b345 feae be45 f926 a846
00000010: 2b0d a245 50ca 9b45 f7e4 3d46 ec54 2146
00000020: 4ccd 0846 4e9a 6945 2d89 b446 9b8b 1846
00000030: c9c3 d945 24a0 0946 71b6 a845 e7ea 3846
15293.811 5732.6943 6101.874 21523.486 5185.646 4985.289 12153.241 10325.23
8755.324 3737.644 23108.588 9762.901 6968.473 8808.035 5398.805 11834.726

weight f4 [4, 128]
00000000: 189e 723e af3c a9be e89e 50be 682a 0abe
00000010: ff5b 32bd 1d73 063d 712b 42bd 4aed 87bc
00000020: edfa bfbd 86dc 7a3e de65 7d3e 9c9b 033e
00000030: efd0 6a3e b287 a63e 3038 3f3e cdfc 6f3d
00000040: 8d78 f23d 56d8 d33e ef9c 7c3e 1be5 153e
00000050: b870 873b 8be4 a0bd b389 bdbc ea22 1dbe
00000060: e852 babe 610e 05bf 645d febd 0613 95be
00000070: 3dc1 35be 5602 fcbd a905 0abe 1dd8 29be
00000080: 460f 5d3d 1c5d 963e 2823 d33d 9f1c aabe
00000090: 0c4b 6ebe 1ea1 3bbe 769d debe 5d59 84be
000000a0: d091 bebd 4563 303e 5147 6a3e f5fd 2d3d
000000b0: 59c6 163e 7417 af3e 3147 083e 7f51 243e
000000c0: 2077 4ebd 1302 92be 02f6 4bbe c5e1 e0bd
000000d0: a2ef ddbb 5313 bebd f835 b3bd 860d 20be
000000e0: fb37 70bd 0773 413d 7c02 f33d 6eb7 373e
000000f0: 9538 053e 46a8 f93d 4fad 563d a0fb 3ebd
00000100: 62a5 62be 08e3 71bf aeb9 efbe 3dfe d0be
00000110: d4aa 8bbe 1b98 07be 3c1a 6fbe 2ccf 12be
00000120: 22a4 8a3e a73a 473f b279 7c3c 7a81 e3be
00000130: 852b 08bf 1bab 51bf 8b68 e1be df0c bcbe
00000140: c72f dabe e5bc abbe ed90 41be 1224 9abe
00000150: c6e3 87be e012 adbe 3fcf 24be d379 95be
00000160: b3cd d4be 7dd6 93be 2c87 0c3e b952 8d3d
00000170: 1997 9c3d be00 aa3e 56e2 093e 22bc e03d
00000180: a29e dabc 2817 d63e 559e 893e 6fb7 873d
00000190: cc47 aebd b2f2 97bd 3e4a b3bd 8ce1 89bd
000001a0: a475 9bbd 9954 063f df08 993e 66a9 c33e
000001b0: 98d3 c03e 2e44 873e c07b b93e f363 b43e
000001c0: 1ca8 c4be 11d1 40bf fa68 cbbc 3be6 953e
000001d0: 89cf cb3e 4a9b 033f d474 853e 68f5 bd3e
000001e0: 1fa8 4fbe 5d3b 31bf d98b bfbe 84f7 a8be
000001f0: 6592 90be 1199 2abe 8c77 45be b465 0fbe
00000200: 2583 8abe b1ca bfbe 89ec 98be 178f 6abe
00000210: c81e ddbd d098 16be bda4 d4bd 22a9 65be
00000220: 08d5 4bbd a060 273e b530 313e 5256 f0bd
00000230: b848 32be 66d5 e4bd 66fa 0f3c 13e1 b5bd
00000240: 203a 5ebb 4168 203e fd1d 943e 66d0 7b3e
00000250: 72a4 bc3d 874a af3a 10ae 2ebc 8d6a 99bc
00000260: 586a dd3e b5e4 013f f256 b63e 44ba a03e
00000270: d23c f23e efa7 943e d296 823e cecf 5e3e
00000280: 8dba 3e3c 3cc3 0c3c 4e83 1a3d 418b f1bd
00000290: 44f4 91bd 7284 0ebd 086f debc 6167 9cbe
000002a0: bd1e a73d 0035 183e e49f 1d3d 23c4 86be
000002b0: c52e 5fbe 6a8d 1ebd 5b12 3bbe fe1b 86be
000002c0: 48f2 22be 977a 3cbe 493b 25be 2aeb a4bd
000002d0: 86c5 8dbd fbee 3fbe 9863 b3bd 2ff5 c1bd
000002e0: d801 353d 736f 303e 592e fe3d 3251 453e
000002f0: 227a 303e 0d7a 31bc 460a 4ebd 7a5f f23c
00000300: bcc0 313e 900b 423e 5674 013e 2572 003e
00000310: 7e34 0d3e eacc 0b3d 4e25 5f3d d5ef 61bc
00000320: 054c 43be 6b92 ddbd c1b6 d93d 1565 883e
00000330: 0275 0a3e f0ae 863d fce0 9c3e e8a8 1d3e
00000340: 3f48 743e 53a9 0e3f fc7c f33e bb0e de3e
00000350: 8883 dc3e 5d7a a73e f4ff d03e 1dd5 a93e
00000360: e580 b13e 7019 2f3f 9515 c23e 800d b83d
00000370: 461e e83c 510e 283d 29e6 44bd 2883 cb3d
00000380: b558 c53c 4de5 a63e 022b ac3e a7dc 1f3e
00000390: aef1 153e c070 353e 62d1 ac3d f5c0 0c3e
000003a0: 95f8 93be b88d 88be 5ae4 a1be 85e8 c2be
000003b0: dd5f 48be 77c6 1c3e 3494 1f3e 1421 0b3d
000003c0: 5410 c03e 0cb0 003f 7ea8 963e 20c4 303e
000003d0: 04ff 7a3e 1752 ef3d 726b 30be cf22 543e
000003e0: 7631 5d3e a9be 493e b611 143e ac8f c33d
000003f0: 1fff ed3d 6594 0a3d 6d5f 633d 4197 c03d
0.2369312 -0.3305411 -0.20373118 -0.13492739 -0.043544766 0.032824624 -0.04740471 -0.01659264
-0.09374032 0.24498186 0.2474589 0.12852329 0.22931264 0.32525402 0.18673778 0.0585907
0.118393995 0.4137599 0.2466924 0.14638178 0.00413331 -0.07856091 -0.02313695 -0.1534535
-0.36391377 -0.51975065 -0.124201566 -0.29116076 -0.17749496 -0.12305133 -0.13478722 -0.16586347
0.053969644 0.29367912 0.1030944 -0.3322496 -0.23270816 -0.1832318 -0.43479508 -0.2584943
-0.09305155 0.17225368 0.22878768 0.04247852 0.14724101 0.3419758 0.13308407 0.16046713
-0.050406575 -0.28517208 -0.19918063 -0.10980562 -0.006772951 -0.092810296 -0.08750528 -0.15630159
-0.058647137 0.04722884 0.11865708 0.17941067 0.13009866 0.12190299 0.052411374 -0.046626687
-0.22133401 -0.9448705 -0.4682135 -0.40818968 -0.2727877 -0.13241617 -0.23349851 -0.14336842
0.27078348 0.7782387 0.015409874 -0.4443472 -0.53191406 -0.8190171 -0.44025072 -0.3672857
-0.42614576 -0.33542553 -0.18902941 -0.30105644 -0.26540965 -0.33803463 -0.16094683 -0.29194507
-0.41563186 -0.2887458 0.13723439 0.06900544 0.07646007 0.3320369 0.13465247 0.109733835
-0.02668697 0.41814542 0.2687861 0.06626784 -0.08509788 -0.07419337 -0.08754395 -0.06732473
-0.075907975 0.52472836 0.2988958 0.38215178 0.37661433 0.26419204 0.36227226 0.35232505
-0.38409507 -0.7531901 -0.02483033 0.29277214 0.39806774 0.5140883 0.26065695 0.37101293
-0.20278977 -0.69231206 -0.37411383 -0.3300134 -0.2823669 -0.16659953 -0.19283885 -0.1400364
-0.2705318 -0.3745933 -0.29867962 -0.22906147 -0.10796887 -0.14706731 -0.10382984 -0.224278
-0.04976371 0.16345453 0.17303737 -0.11735214 -0.17410553 -0.11173515 0.008787727 -0.0888082
-0.0033909157 0.1566477 0.2892913 0.24591216 0.09211053 0.0013373651 -0.010661617 -0.018727565
0.43245196 0.50739604 0.3561321 0.3139211 0.47312027 0.29034373 0.25505692 0.21758959
0.011641157 0.008591469 0.03772288 -0.11794139 -0.07126668 -0.03479428 -0.027152553 -0.30547622
0.0816016 0.14863968 0.03848256 -0.26321515 -0.21795185 -0.03870908 -0.18268721 -0.2619323
-0.15912735 -0.1840614 -0.16135897 -0.080526665 -0.0692244 -0.18743508 -0.087592304 -0.09470593
0.04419121 0.17230015 0.12411184 0.19269255 0.1723409 -0.010832322 -0.050302766 0.029586542
0.17358679 0.18949723 0.12642035 0.12543543 0.13789555 0.03413097 0.054478936 -0.013790091
-0.19071968 -0.10818943 0.10630561 0.2663962 0.13521197 0.065763354 0.306404 0.15396464
0.23855685 0.5572712 0.47556293 0.43370613 0.430691 0.32710543 0.40820277 0.33170405
0.3466865 0.6839819 0.3790709 0.0898695 0.028334748 0.04102928 -0.04807106 0.099371254
0.02409015 0.32596818 0.33626562 0.15611516 0.14642975 0.17718792 0.08438374 0.13745482
-0.2890059 -0.26670623 -0.3161953 -0.38068023 -0.19567819 0.15310083 0.15583879 0.033967093
0.37512457 0.50268626 0.29425424 0.17262316 0.24511343 0.11685579 -0.17228487 0.20716403
0.21600899 0.19701637 0.14459881 0.095488876 0.11620926 0.033832926 0.055510927 0.094038494
