histories/04.24-17.09.43_69.94%_pt_EEGNet_BcicIv2a_bs=32_lr=0.025_ld=0.99991_os/best_valid_acc.pt (torch, 19074 bytes, 17 tensors)

weight f4 [8, 1, 1, 32]
000000 f9 ba 23 c1 87 af 93 c0 e0 6b 8d 3f e6 e8 af 40
       -10.233148 -4.6151767 1.1048546 5.49718
000010 b8 e5 db 40 a0 5d d6 40 4c 80 7c 40 8e 10 4d 3f
       6.871792 6.698929 3.9453306 0.80103385
000020 36 d7 14 c0 24 1e 98 c0 cc 55 c5 c0 a3 a5 e1 c0
       -2.3256354 -4.7536793 -6.1667233 -7.0514693
000030 3e a8 b7 c0 c9 5a 87 bf 18 92 4a 40 80 94 cb 40
       -5.7392874 -1.057458 3.1651669 6.3618774
000040 54 43 e2 40 2f 46 a0 40 d9 02 00 40 38 05 8d bf
       7.070719 5.0085673 2.0001738 -1.1017218
000050 e5 73 16 c0 cc 37 4b c0 ca f2 81 c0 b7 a4 3f c0
       -2.3508236 -3.1752806 -4.0608873 -2.9944284
000060 f0 ae 06 c0 02 0a f9 be 3c d3 a3 3f a8 3c 01 40
       -2.1044273 -0.48640448 1.2798839 2.0193272
000070 6e 0b 46 40 40 fd 26 40 3d 1c ce 3f 2d 8b 00 3f
       3.0944476 2.6092072 1.6102368 0.50212365
000080 bf 82 48 c0 0e c9 68 c0 68 0d 87 c0 d0 53 93 c0
       -3.13298 -3.6372714 -4.2203865 -4.603981
000090 d8 9a 90 c0 fc 48 80 c0 75 90 64 c0 1e 43 41 c0
       -4.518902 -4.008909 -3.571317 -3.0197215
0000a0 74 80 38 c0 90 27 45 c0 ad c4 3a c0 ed 22 40 c0
       -2.8828402 -3.0805397 -2.9182541 -3.0021317
0000b0 4a a6 2e c0 e0 47 28 c0 c5 9d 23 c0 af 93 30 c0
       -2.7288995 -2.629387 -2.5565045 -2.759014
0000c0 42 fc 3d c0 e3 40 10 c0 33 6c ab bf 93 2c f5 be
       -2.9685216 -2.2539604 -1.3392395 -0.4788557
0000d0 0c e5 f2 3d b1 eb 0b 3f 89 69 67 3f 57 4c 41 3f
       0.118600935 0.5465651 0.9039541 0.7550711
0000e0 fc 69 59 3f 28 f3 4a 3f 94 72 a0 3f 16 0d e8 3f
       0.84927344 0.79277277 1.2534966 1.8128994
0000f0 a3 82 07 40 35 2d ea 3f 76 13 de 3f 1e 91 16 40
       2.1173484 1.8295046 1.7349689 2.3526073
000100 32 e5 01 41 29 b1 9e 40 a9 fa 42 40 dc 0e 1b 40
       8.118456 4.959126 3.046549 2.422782
000110 b4 09 32 40 bb fb 63 40 80 1b 66 40 b4 81 63 40
       2.7818422 3.5622394 3.5954285 3.5547915
000120 e0 d4 5f 40 39 62 56 40 3e a2 2e 40 52 77 ee 3f
       3.4973679 3.349745 2.7286525 1.8630164
000130 d6 f6 b9 3f ba 91 f6 3f 71 7c 2d 40 ca 1f 22 40
       1.4528453 1.9263222 2.7107203 2.5331903
000140 af 24 26 40 d5 30 43 40 9e 85 35 40 b0 4f 03 40
       2.595989 3.0498555 2.8362803 2.0517387
000150 ce b6 fc 3f cc 48 d7 3f 1d a7 bf 3f 81 68 ca 3f
       1.9743288 1.6819091 1.4972874 1.5813142
000160 42 dd 05 40 57 e9 0a 40 5a 85 1e 40 56 1a 16 40
       2.0916295 2.170492 2.4768891 2.3453574
000170 79 53 06 40 bc c9 06 40 54 1c 2c 40 49 01 89 40
       2.0988448 2.106063 2.689229 4.281407
000180 eb af d0 c0 03 64 8c c0 aa c5 71 c0 93 3b 87 c0
       -6.5214744 -4.3872085 -3.7776895 -4.2260222
000190 27 41 9b c0 02 fb aa c0 92 57 a8 c0 ad 19 92 c0
       -4.851703 -5.3431406 -5.2606897 -4.5656343
0001a0 a8 50 89 c0 65 c9 82 c0 83 80 6b c0 08 3f 22 c0
       -4.2910957 -4.0870843 -3.6797187 -2.5350971
0001b0 65 65 dc bf b0 d5 d4 bf 59 3b 9b bf 12 0e 10 be
       -1.7218443 -1.6627712 -1.2127486 -0.14067867
0001c0 db 67 9d bd b0 94 07 3c 4d 51 e9 be ff b8 b2 bf
       -0.076858245 0.008275196 -0.4556984 -1.3962706
0001d0 36 84 16 c0 83 10 4a c0 2a cf 52 c0 d5 f3 4e c0
       -2.3518195 -3.1572578 -3.2938943 -3.2336323
0001e0 f8 38 52 c0 f5 68 68 c0 aa db 79 c0 7a 02 5e c0
       -3.284727 -3.631406 -3.9040322 -3.4689012
0001f0 d4 50 5e c0 e5 bf 60 c0 08 e6 84 c0 e4 85 b5 c0
       -3.4736834 -3.5117123 -4.15308 -5.672594
000200 30 21 12 c1 13 5e c7 c0 44 ac 8f c0 e5 11 78 c0
       -9.133102 -6.2302337 -4.4897785 -3.8760922
000210 da 94 82 c0 55 99 84 c0 60 13 79 c0 b6 66 67 c0
       -4.0806704 -4.1437173 -3.8918076 -3.615644
000220 53 93 4f c0 14 cd 4f c0 a9 76 49 c0 28 44 36 c0
       -3.243367 -3.246892 -3.1478674 -2.84791
000230 29 0d 39 c0 e1 f5 54 c0 a0 f6 46 c0 c5 04 36 c0
       -2.8914282 -3.3275073 -3.1088028 -2.844041
000240 5f 3f 49 c0 c8 f8 40 c0 e1 d6 38 c0 2d 40 40 c0
       -3.1444929 -3.0151844 -2.8881152 -3.003917
000250 d0 b1 3d c0 77 6a 24 c0 79 aa 00 c0 9a 2d dc bf
       -2.9639778 -2.568998 -2.0104048 -1.7201416
000260 31 11 f8 bf 23 de 20 c0 3f 24 33 c0 93 58 30 c0
       -1.9380246 -2.5135581 -2.7990873 -2.7554061
000270 a4 72 17 c0 f3 b7 43 c0 ac d6 6a c0 88 1e 9b c0
       -2.366372 -3.0581024 -3.6693525 -4.847477
000280 2a 18 23 41 84 a2 98 40 75 e7 8c 3f 3c cb 2c 3f
       10.193399 4.7698383 1.1008135 0.6749761
000290 f8 b3 de 3f dc 48 f8 3f bf d4 de 3f f5 3d 0c 40
       1.7398672 1.9397235 1.7408675 2.1912816
0002a0 87 74 2a 40 e7 f6 62 40 d3 5a 8b 40 ef 09 78 40
       2.6633623 3.5463197 4.354837 3.8756063
0002b0 84 73 15 40 0e 5d c6 3e e0 cc b3 be c2 2f 39 3e
       2.3351755 0.3874287 -0.35117245 0.18084624
0002c0 42 1b 44 3d 4e a5 78 be 07 96 75 3f 11 e8 32 40
       0.047877558 -0.24281809 0.9593205 2.7954142
0002d0 93 3a 83 40 64 13 56 40 32 ae 08 40 9d 21 79 3f
       4.1009 3.3449335 2.135632 0.97316915
0002e0 4c 0d 53 3f 8f c8 d9 3f 77 9a 37 40 51 e4 28 40
       0.82442164 1.7014331 2.8688028 2.6389353
0002f0 2b d5 48 3f 6f d2 8a 3f 2f bb 8a 40 66 1c 17 41
       0.7845027 1.0845469 4.3353496 9.444433
000300 76 86 d0 c0 db 86 59 c0 d5 bd 1d c0 63 79 2b c0
       -6.5164137 -3.398856 -2.4647114 -2.6792839
000310 52 24 3f c0 29 6e 22 c0 60 08 0c c0 94 83 de bf
       -2.9865918 -2.5379736 -2.1880112 -1.7383904
000320 0a 8a e6 bf c9 35 fb bf af bc 05 c0 13 57 02 c0
       -1.8010876 -1.9625789 -2.0896413 -2.0365646
000330 0e 8c 15 c0 b1 b9 16 c0 95 57 27 c0 37 1a 20 c0
       -2.3366733 -2.3550837 -2.6147206 -2.5016
000340 73 34 20 c0 67 23 03 c0 dc 06 cc bf c4 af bc bf
       -2.5032012 -2.0490358 -1.5939593 -1.474114
000350 03 28 b7 bf 4e 62 c8 bf 16 3d dd bf b4 42 00 c0
       -1.4309086 -1.5655 -1.7284267 -2.0040712
000360 93 56 28 c0 ae 07 55 c0 70 ae 80 c0 ee 69 94 c0
       -2.630284 -3.3285937 -4.0212936 -4.637931
000370 51 15 6f c0 6f 4c 43 c0 27 d2 96 c0 b8 ca 07 c1
       -3.735676 -3.0515401 -4.7131534 -8.486992
000380 31 e1 5b 40 c9 8e 84 c0 32 8c e9 c0 b9 64 90 c0
       3.4356196 -4.14243 -7.2983637 -4.5122952
000390 69 b5 be 3f 3a 88 b5 40 71 2a cb 40 42 3d 93 40
       1.4899112 5.672879 6.348931 4.6012278
0003a0 7e 9b 5b 3f cf 09 0b c0 e3 a5 93 c0 09 cf 8f c0
       0.8578414 -2.1724737 -4.614 -4.494023
0003b0 d2 dc f2 bf ee 1b 3e bf cf 33 d6 3e cf 6c a6 3f
       -1.8973639 -0.7426137 0.41836402 1.3001956
0003c0 34 4b e4 3f 04 b8 db 3f 4b c0 6f 3f 6c 58 02 40
       1.783545 1.7165532 0.9365279 2.0366468
0003d0 d1 bb 3b 40 f2 a9 8d 3e 07 f3 78 c0 87 ef e4 c0
       2.9333384 0.2766872 -3.8898332 -7.154239
0003e0 3a 3a 93 c0 b5 10 a1 3e d9 30 82 40 f0 4a be 40
       -4.6008577 0.3145806 4.068463 5.9466476
0003f0 a7 aa 96 40 de 8b af 3f 63 c0 31 c0 14 70 ef c0
       4.7083316 1.3714559 -2.7773674 -7.4824314

weight f4 [8]
000000 e1 a6 40 41 33 41 96 40 65 91 b1 40 6d 03 b5 40
       12.040742 4.695459 5.5489984 5.656668
000010 3a 75 be 40 84 c8 d2 40 c7 20 9f 40 98 b6 52 41
       5.95181 6.586977 4.972751 13.169579

bias f4 [8]
000000 0d 4d 20 40 88 9d a2 3e 5e f8 25 bf 6c 8c 30 40
       2.5047028 0.31760812 -0.64832103 2.7585707
000010 aa 0b 1a 40 b8 b2 a8 bf 5c 1e 19 40 fc 8a cd bf
       2.406962 -1.3179541 2.392478 -1.605804

running_mean f4 [8]
000000 4d 84 3e 35 ed 74 b0 36 83 f7 13 b6 68 d9 ab 35
       7.097304e-07 5.2588207e-06 -2.2048778e-06 1.2803766e-06
000010 6a 49 36 36 b8 db 08 b5 db 21 a4 b3 d1 5f b5 b4
       2.7162846e-06 -5.098368e-07 -7.6430034e-08 -3.3783593e-07

running_var f4 [8]
000000 43 69 27 34 94 a9 02 34 90 f0 50 34 f6 48 8b 34
       1.5591381e-07 1.2168886e-07 1.9459026e-07 2.5943854e-07
000010 8c 16 9c 34 d3 3a 23 34 b0 b8 55 34 09 87 8b 33
       2.907367e-07 1.5201958e-07 1.990436e-07 6.497255e-08

weight f4 [16, 1, 22, 1]
000000 7b c8 c3 bd c8 62 09 3d 90 7d a8 3b 29 49 23 3e
       -0.09559723 0.03354147 0.0051419213 0.15945877
000010 11 b9 e9 bd ab 6f 10 3e 0c 81 e1 bd 9d f2 2e be
       -0.11412252 0.14105098 -0.11010942 -0.17084737
000020 52 30 a8 3e f5 8e 6b 3d f8 9f 5f 3d 18 37 72 bd
       0.32849365 0.05750938 0.054595917 -0.059134573
000030 71 52 c2 bd 10 02 34 3e 60 ae fd bc 7f 16 48 bf
       -0.09488381 0.17578912 -0.030966938 -0.78159326
000040 68 98 44 3e 23 62 8e 3d 97 c3 2e 3e 33 39 08 be
       0.19198763 0.06952312 0.17066799 -0.1330307
000050 ce c5 33 3e c8 c8 11 bd be b4 f1 3d d5 0f 7a 3e
       0.17555925 -0.03559187 0.11802052 0.24420102
000060 7b 0b 44 bb f3 e4 15 3d cf 5b 80 3d b9 e6 25 be
       -0.002991407 0.036595296 0.06267511 -0.16201295
000070 32 7a 1d bf a7 ea 52 bd 84 32 5f 3d 6b 91 6b bc
       -0.6151458 -0.051493313 0.054491535 -0.014377932
000080 f9 7d 45 bd f2 8e 1b bc 63 8a 8f 3e d3 e3 b9 be
       -0.04821584 -0.00949453 0.28035268 -0.3630663
000090 75 e6 6b 3e 06 2b db 3c a9 a4 d7 bd 89 05 37 3c
       0.23037131 0.026753914 -0.10529453 0.011170753
0000a0 54 a0 bf 3e 50 56 07 3e 17 c0 45 be bd 7c 47 be
       0.37427008 0.1321652 -0.19311558 -0.19481178
0000b0 71 e1 1f 3f 9b c9 00 3e c3 cc c9 bd 5d 0c a7 3d
       0.6245337 0.12576906 -0.09853508 0.08156655
0000c0 28 1e 2d be bf 45 ac bd ca 33 ed 3c 57 24 05 3e
       -0.16906035 -0.084117405 0.028955359 0.13002144
0000d0 8f 11 30 be 0b 8c 29 bd 62 f0 13 3d 38 3e 92 3c
       -0.17194198 -0.04139332 0.03611792 0.017851934
0000e0 fe 44 2e 3c 71 12 03 3c fc 4f cd bc 1b 1b 63 bd
       0.010636566 0.008000002 -0.025062554 -0.05544577
0000f0 81 65 4b be 0a 4f 3f be 44 78 b9 3d 0c 49 08 bf
       -0.1986294 -0.18682495 0.09056142 -0.5323646
000100 80 09 aa 3e 84 d5 d9 3d 6a c6 8d be 70 91 00 3c
       0.33210373 0.10636428 -0.2769044 0.007847175
000110 a7 ea 61 bb e2 77 f4 3c 0a f1 81 3e 31 cf c6 3e
       -0.003447214 0.02984232 0.2537921 0.3882995
000120 b3 31 36 3d ff 53 07 be f0 a8 5c be e4 b4 cf 3d
       0.04448099 -0.13215636 -0.2154882 0.10141924
000130 62 6f f4 3c c3 d5 17 be d1 fe ec bd e4 29 2e be
       0.029838268 -0.14827637 -0.1157204 -0.17008168
000140 a0 bc 19 be 11 0e 08 3d ac a9 84 be e2 87 62 be
       -0.15013361 0.03321654 -0.259107 -0.22122148
000150 14 9e f2 3e 6f d2 d8 3e df ad 80 bb db 7e 18 be
       0.4738623 0.42348048 -0.003926977 -0.14892142
000160 78 7d c3 3c 04 ae 49 3d d9 e7 49 3d 33 33 8f 3e
       0.02386354 0.04923822 0.049293373 0.2796875
000170 a9 58 53 3d 08 f6 40 3d 4a 76 9b be a3 34 15 be
       0.051598225 0.047109634 -0.30363685 -0.1457086
000180 a4 4d 82 bc 42 3d fa 3c 2e 24 f3 bd b0 38 fd 3e
       -0.015906163 0.030546788 -0.11872135 0.49457312
000190 40 a4 f3 be 35 a7 01 be da 6b 09 be 3f f3 ef 3d
       -0.4758625 -0.1266144 -0.13420048 0.117163174
0001a0 bf da 73 3e 29 45 fe 3d 37 75 1d be 05 76 83 be
       0.23813914 0.12415535 -0.15376745 -0.2567598
0001b0 9d c1 d9 3c 25 ee a1 3e 14 80 68 3e d7 2a ac bc
       0.02658158 0.31627002 0.22705108 -0.021016521
0001c0 d4 14 37 bd f9 e7 50 be 67 c3 15 bd f1 b8 71 3c
       -0.044697598 -0.2040099 -0.036563303 0.014753566
0001d0 65 4c a6 bc 36 7f 07 3f b0 8f 49 3d 70 b8 17 bf
       -0.0203001 0.52928483 0.049209297 -0.59265804
0001e0 2e 14 55 bd c8 0d 70 3e 05 29 64 3d e5 b0 3a bd
       -0.052021198 0.23442757 0.05570318 -0.045578856
0001f0 10 32 55 3c e7 ed 8f bd a5 3b ee bc 62 9e 8d 3d
       0.013012424 -0.07027798 -0.029081175 0.06914975
000200 5d 84 81 be be f0 87 3d ab 46 d8 bc ea 91 b5 3e
       -0.25296298 0.06637715 -0.026400885 0.35462886
000210 3c 34 b3 3d 46 50 18 bb 58 7d 86 bd 3a 20 2d be
       0.08750197 -0.0023241206 -0.06566876 -0.16906825
000220 f1 7c 8d ba 5a 3c 59 3e 43 fd 54 be 21 00 f9 3e
       -0.0010794682 0.21214429 -0.20799737 0.4863291
000230 d1 a5 19 be b2 4b f2 be 88 24 93 3d bc 9d 26 3e
       -0.1500466 -0.47323376 0.07184702 0.16271108
000240 1d 17 9f be 63 11 39 3e 35 1e 04 3d 22 f4 aa be
       -0.31072322 0.18073039 0.03225537 -0.33389384
000250 bd 5b 29 3e 7b 63 26 3e a0 a5 4f 3e e4 a5 c6 3c
       0.16538902 0.16248886 0.20278025 0.024249025
000260 a2 5a 21 bd 8b 91 08 be 30 0b a3 3c 64 1d a4 3e
       -0.039393075 -0.1333677 0.019902796 0.32053673
000270 31 be 60 bd 66 b7 9d be 1d 93 60 3c 40 dd 6d 3e
       -0.05486888 -0.30803984 0.01370695 0.23228931
000280 c2 08 1c 3f d8 33 aa 3e 85 1b 03 be a5 21 a2 be
       0.60950863 0.3324268 -0.12803467 -0.31666294
000290 89 d1 15 be 7c 5d b3 3b dd c7 e1 3d 9f 24 ae 3d
       -0.14630713 0.0054737907 0.11024449 0.08503079
0002a0 83 f9 3e bc 08 0c 2c be 8e 2f 7c bc dc db 01 3e
       -0.011656168 -0.16801465 -0.015392197 0.12681526
0002b0 d6 06 11 3e cc 3e cd 3d 4f 7d 1a be 2c 48 3d bd
       0.14162764 0.10021743 -0.15086864 -0.046211407
0002c0 61 b7 76 3d 7b 8b 37 be 43 36 be bb c3 5a ac 3e
       0.060233478 -0.17924301 -0.0058048083 0.33662996
0002d0 af f3 4b 3e f5 95 45 bd 95 93 cb 3c b8 17 46 be
       0.19917177 -0.048238713 0.024850646 -0.19344985
0002e0 64 e5 66 be 5d 8f af 3d 8a 7b 27 be d8 4f f3 be
       -0.22548443 0.08572266 -0.1635572 -0.47521853
0002f0 d9 cc 34 3e 28 36 85 bd 18 b2 bf 3e e9 0c 2e 3e
       0.17656268 -0.0650447 0.37440562 0.16997112
000300 98 9b d2 be d4 f6 29 3e 3c d7 5f 3e 6e 8b cd 3d
       -0.41134334 0.16598064 0.21859449 0.1003636
000310 e9 7f d0 bc bc 1f 92 bc 78 2b 73 be 84 6f 94 3c
       -0.025451617 -0.017837398 -0.23747051 0.018119581
000320 f9 da 04 3e f3 f4 60 3d 1e 1d 27 3d 1c 46 d8 bd
       0.12974156 0.0549211 0.040799253 -0.10560247
000330 66 9d ae bd 7b bd df 3e 21 a3 5e bd 99 14 db be
       -0.08526115 0.4369925 -0.05435479 -0.42789152
000340 2d 23 4d 3d fb ff cf 3e b9 98 03 3e 49 ea 15 bd
       0.050082374 0.40624985 0.12851228 -0.036600385
000350 ba 80 c2 bc 28 57 38 be a6 37 3b be aa f0 fd 3d
       -0.023743022 -0.18001997 -0.18282947 0.12399419
000360 f4 67 51 be c5 b0 dd bd 34 7c 05 be b4 2a de 3e
       -0.20449811 -0.10824732 -0.13035661 0.43391955
000370 ac ac 70 be e3 ab e0 bd 4b 6a 06 3d ea 47 48 3e
       -0.23503369 -0.10970285 0.032816213 0.19558683
000380 61 05 43 3e d1 49 c3 3d be 40 81 bb 2d bd 16 3e
       0.1904502 0.09535564 -0.0039444854 0.14720602
000390 fd c7 97 3d f3 f8 c4 be 7f ae 2d 3e a0 a6 60 3e
       0.074111916 -0.38471183 0.16961096 0.21938562
0003a0 99 ff 9e bc 33 b1 95 3e 46 40 8c be 49 6c 88 be
       -0.019408988 0.29236755 -0.27392787 -0.26645115
0003b0 c4 ec 10 be a1 19 7a be d5 6d 47 bd 8f d6 77 3c
       -0.14152819 -0.24423839 -0.04868873 0.015126838
0003c0 25 b7 da bd da f4 04 3f 8a 91 c4 3d 3f 38 74 be
       -0.10679463 0.51936114 0.09598072 -0.23849581
0003d0 53 18 1b be f2 c3 d8 3c 38 c7 c7 bd bb 65 d1 3d
       -0.15145998 0.026460622 -0.09754795 0.10224482
0003e0 da 1e 24 bf 13 86 b7 3e bb 95 18 3e 78 da 52 be
       -0.64109576 0.35844478 0.14900868 -0.20591152
0003f0 5f 93 d4 3d 5a 52 b3 3e 17 64 50 3e f5 dc bc 3d
       0.10379671 0.35023767 0.20350681 0.09221832

weight f4 [16]
000000 71 92 02 41 6c 4b 89 40 db 95 3e 40 8a 2f 82 40
       8.160752 4.290457 2.9778965 4.068303
000010 70 46 3d 3f 50 73 3b 40 33 88 2d 40 17 49 cc 3f
       0.73935604 2.928913 2.711438 1.5959805
000020 a0 72 f3 3f 27 23 20 40 83 b0 d8 3f 26 39 38 40
       1.9019356 2.5021455 1.6928867 2.878488
000030 03 1e 58 40 94 76 cb 3f 99 36 23 41 29 66 0d 41
       3.3768318 1.5895562 10.2008295 8.837441

bias f4 [16]
000000 50 c5 1e c0 59 f7 d4 bf 90 13 67 bf d9 91 95 be
       -2.480793 -1.6637985 -0.90264225 -0.29212835
000010 40 a1 4b bd 77 f6 4d bf de 0c b1 bf 74 55 20 c0
       -0.049714327 -0.804542 -1.3832052 -2.5052156
000020 7b 2c cf be 56 f4 24 bf 5c d5 40 3d 8c 95 1d bf
       -0.40463623 -0.6443533 0.047078475 -0.61556315
000030 9e f5 86 bf f4 a6 25 bc 75 2f 9b c0 8a 8d 52 c0
       -1.0543706 -0.0101106055 -4.849543 -3.2898889

running_mean f4 [16]
000000 05 65 1f be e1 e5 f1 be 20 57 e5 3b c3 52 96 bc
       -0.1556588 -0.47245696 0.0069989115 -0.01835001
000010 26 93 97 bd 54 26 14 be 6b 1e 89 be ea d4 04 40
       -0.07401113 -0.14467746 -0.2678102 2.0754952
000020 ab 6a 7a 3e 4f f1 eb 3d 35 1f 20 be 85 3b 88 3d
       0.24454753 0.11520635 -0.15636905 0.066519774
000030 78 43 12 3c aa 40 88 3e 78 16 5a bc d7 02 1b bc
       0.008927219 0.26611835 -0.013311021 -0.009461126

running_var f4 [16]
000000 7f 25 3c 3a b9 a0 5c 3b 53 ee 31 3a 40 4a 25 39
       0.0007177218 0.0033665134 0.0006787527 0.00015763287
000010 c3 f5 a2 3a 5a 81 15 3a 59 cb 1a 3a 1d b9 4b 3b
       0.0012432862 0.0005703174 0.0005904935 0.0031085678
000020 f4 94 0f 3a 86 48 46 3a d7 b6 d2 39 d6 1c 71 3a
       0.0005477213 0.00075639074 0.00040190548 0.00091977173
000030 00 dc 30 3a 5b 88 92 39 97 88 be 3a ef 20 a7 3a
       0.000674665 0.00027948883 0.0014536557 0.0012750904

weight f4 [16, 1, 1, 16]
000000 04 32 98 40 e6 eb 77 40 93 19 31 3f f8 0f 24 c0
       4.7561054 3.873773 0.6917965 -2.5634747
000010 ad b5 d8 3f bf 96 fa bd 56 49 75 bf 8d cd 95 3f
       1.6930443 -0.12235784 -0.95815027 1.1703354
000020 1d 49 ae 3f 6d 44 76 bc 86 e3 04 3e e9 88 c4 bd
       1.3616062 -0.015030962 0.12977418 -0.09596426
000030 f9 8f ff bd 45 8f 24 be fc 42 a7 bd e7 2f 2e 3f
       -0.124786325 -0.16070278 -0.08167073 0.68041843
000040 b1 3b 2e c0 de ef 01 c0 da d2 c2 be b0 87 46 be
       -2.7223933 -2.0302653 -0.38051492 -0.19387698
000050 c1 6f 21 bf db c8 1c be 71 82 60 3e 2d 49 6e be
       -0.6306115 -0.15310995 0.2192476 -0.23270102
000060 a2 88 5d 3f 46 73 41 be 35 1b 80 be ff 98 9c 3e
       0.8653661 -0.1889163 -0.25020757 0.30585477
000070 e8 42 03 bf 1d 21 76 bf 94 bf a9 be d0 84 08 c0
       -0.51273966 -0.96144277 -0.33153975 -2.1331062
000080 dc 01 3c 3f a5 f8 98 3e ac 62 8b 3e 1e c5 09 3f
       0.7344034 0.298772 0.27223718 0.538164
000090 f3 69 10 3f fd 10 03 40 1f ac a4 3f d9 5e cd 3f
       0.56411666 2.047912 1.2865027 1.604457
0000a0 07 64 1f 3f 49 b6 1b 3f 38 b9 e1 3e c8 ae e0 be
       0.62262005 0.6082502 0.44086623 -0.43883348
0000b0 74 95 61 3c 5e 4d 2c bf 28 2f 63 3e 8c 66 52 3f
       0.013768543 -0.6730555 0.22185957 0.82187724
0000c0 75 ba 17 c0 eb 21 97 bf cc 0d 98 bf ce d6 82 bf
       -2.3707554 -1.1807226 -1.187921 -1.0221803
0000d0 d8 66 1b bf 5b 83 50 3f 90 33 00 40 26 2c db 3f
       -0.607038 0.8145043 2.0031471 1.7122848
0000e0 ad 96 f1 3f 61 e3 b5 3f b2 36 22 be 89 3f 15 be
       1.8874108 1.4210016 -0.15841177 -0.14575018
0000f0 29 e8 82 bf 93 97 79 be f0 23 3b be a2 e0 35 3f
       -1.02271 -0.24374227 -0.18275428 0.7104589
000100 49 d9 5a 40 5a 73 f7 3f 91 fe 97 3f 7c e0 b7 3f
       3.419512 1.9332078 1.1874563 1.4365382
000110 33 79 ca 3f a8 fb 98 3f 78 c2 ed 3f 5c 69 68 3f
       1.5818237 1.1951799 1.8574972 0.90785766
000120 9b b3 b6 3f 3c e7 08 3f d0 a3 0b 3f 4c 23 01 3e
       1.4273561 0.53477836 0.54546833 0.12611121
000130 55 af 27 3f 13 aa 4e 3f 4e fe a0 3f d9 cf dc 3f
       0.6550191 0.8072826 1.2577608 1.725093
000140 fa ae a1 40 9a 50 03 40 2e 49 fe 3e 7a 0b d7 be
       5.0526094 2.0517945 0.49665207 -0.42000943
000150 6a c9 9b be 21 cb 4e be 6d b6 f9 bd 6f 28 64 bf
       -0.30427104 -0.20194675 -0.12192998 -0.89124197
000160 3d 0a 6b bd 84 06 07 3e eb 16 03 3f 6c cb 4b 3f
       -0.05738281 0.1318608 0.51206845 0.7960727
000170 e1 f6 16 bd 1c b1 53 3e 05 94 6e bf 9f 53 c5 bf
       -0.036856536 0.2067303 -0.9319461 -1.5416144
000180 92 d3 99 c0 6f 0b ca bf 44 45 09 bf 9c f6 59 3e
       -4.8070765 -1.5784739 -0.53621316 0.2128548
000190 a3 ea 3f be 48 ac 5a 3f b2 27 24 3e ee 39 06 bf
       -0.1874185 0.8541913 0.16030768 -0.52432144
0001a0 fc 96 f5 be 19 e8 7e bf 7c 31 ed 3e 12 17 9a be
       -0.47966754 -0.995729 0.46326816 -0.30095726
0001b0 f7 1e dc 3d aa 58 01 3f d6 7e 2f 3f b8 48 12 bf
       0.107480936 0.50525916 0.6855291 -0.5714221
0001c0 11 03 0f 40 d4 6d 24 c0 1c 52 b2 3e 45 66 31 3f
       2.2345622 -2.5692034 0.3482827 0.69296676
0001d0 95 dc a8 bf 0e c4 88 3f 5c 78 20 40 97 d7 ae c0
       -1.3192316 1.0684831 2.5073462 -5.463817
0001e0 42 d0 a1 40 6f 36 09 c0 10 21 4e bf a7 9a d9 3f
       5.056672 -2.1439474 -0.805192 1.7000321
0001f0 27 e6 ab bf 28 b6 9d 3f 63 c1 02 bf b8 59 ce be
       -1.3429612 1.2321215 -0.51076335 -0.40302825
000200 ec 13 cb 3f ff c9 9b 3e 83 40 d8 3c 4b a0 04 be
       1.5865455 0.30427548 0.02639795 -0.12951772
000210 df 9a b5 3f b4 7e 1c 40 28 38 07 40 69 86 d0 3f
       1.4187888 2.4452333 2.1128025 1.6291019
000220 e8 44 99 3f 62 ad 72 3f b1 6d 35 3f 85 66 ab bd
       1.1974154 0.9479581 0.708705 -0.083691634
000230 98 a9 fc be e0 38 cd be 4b 5b 83 bd aa 14 04 3f
       -0.4934814 -0.40082455 -0.06413897 0.5159403
000240 7b c6 f1 3f d5 e3 03 3f 0a 40 e3 be 39 e6 4d bf
       1.8888696 0.5151952 -0.44384795 -0.80429417
000250 fc 5b 42 bd c8 09 a8 3f 13 b8 59 3f bc 3d aa 3f
       -0.047451004 1.3127985 0.850465 1.330009
000260 90 3c 07 40 11 1d 86 3f 52 d3 b2 be 52 fe 65 3f
       2.1130714 1.047762 -0.3492685 0.89841187
000270 a0 5b f2 bd 07 b5 c2 be 2f ba 26 3f 3e c6 c3 3f
       -0.11833882 -0.38028738 0.65127844 1.5294874
000280 e3 e8 6a 40 dc 20 59 3f 6b 66 eb 3f 4b c0 5a bd
       3.6704643 0.84815764 1.839063 -0.05340604
000290 c0 8f 00 3e 29 d3 7e bd 25 00 82 bf 65 9e 25 c0
       0.12554836 -0.062213097 -1.0156294 -2.5877926
0002a0 1a 75 b3 bf a5 2e a6 bf bb 41 13 be 4b a6 20 bf
       -1.4020112 -1.2982985 -0.14380543 -0.6275374
0002b0 ad b9 76 bd 38 1a 8e be ed 41 a4 bf f6 76 2d c0
       -0.060235668 -0.27754378 -1.2832619 -2.7103858
0002c0 5d f2 30 40 4b 99 c5 3f 79 bb 0e 3f a3 18 99 be
       2.7647927 1.5437406 0.5575481 -0.2990161
0002d0 51 9c 20 bf 25 24 08 bf 2d 26 74 3f e2 c8 e1 3e
       -0.6273852 -0.5318015 0.9537075 0.44098574
0002e0 96 fa 74 3f 7d 3e c7 bc 28 9b 47 bf f6 f9 f2 3e
       0.95694864 -0.024321789 -0.77971125 0.4745633
0002f0 d1 91 40 bf 23 92 30 bf 6f df d9 3f 40 12 7b 40
       -0.752225 -0.68972987 1.7021312 3.922989
000300 bc d3 18 40 1b 15 64 3f b5 b9 26 3f eb f6 8a bf
       2.3879232 0.89094704 0.65127116 -1.0856603
000310 44 4d 24 bd ad 3b 4b 3f 79 6f a7 3e ea 0f c6 3e
       -0.04011275 0.79387933 0.32702234 0.38684016
000320 02 6f 06 3f aa e0 5f bf 5a ab 2b bf 8c 6e d6 3d
       0.52513134 -0.87452185 -0.67058337 0.10470304
000330 70 c4 67 bf 84 f6 b2 3e 24 00 04 40 5b 3b 71 40
       -0.90534115 0.34953701 2.0625086 3.7692478
000340 4a 76 25 c0 8e 0e cb be b3 8d 0d bf 43 e9 85 be
       -2.5853448 -0.39659542 -0.5529434 -0.26154527
000350 1a a4 86 3f d0 b8 61 3e 90 9e 02 3f cb 7d 52 3f
       1.051883 0.22043157 0.510232 0.82223195
000360 4e 78 33 3f a3 60 4f bf 68 1c 0b 3e aa c8 ae 3e
       0.70105445 -0.8100683 0.13585055 0.3413747
000370 82 a8 a8 3e 08 d8 16 3f ea 5b 47 40 c5 9b 90 40
       0.3294106 0.5892339 3.114985 4.519015
000380 82 f3 87 40 2d 74 b5 3e f6 fd 11 bf f9 55 31 40
       4.248475 0.35440198 -0.5702814 2.7708724
000390 92 33 13 bf d0 c1 8e bf 15 50 fd 3f 1f 78 0a 3f
       -0.57500565 -1.1152897 1.9790064 0.5408954
0003a0 22 93 79 3f 01 dd 1a 40 6c da ed bf d3 41 70 3f
       0.9749013 2.419739 -1.8582282 0.9385044
0003b0 3d 5b 88 3f 89 75 9e bf 3e b3 62 bf 63 da 10 40
       1.0652844 -1.2379619 -0.8855475 2.2633293
0003c0 21 80 cc bf fc fc 3e c0 33 b2 ac bf 5a 2e f4 3f
       -1.5976602 -2.984191 -1.3491882 1.9076645
0003d0 21 45 ba bf 53 d8 01 be aa bd 16 40 50 e1 0e c0
       -1.4552346 -0.12680177 2.3553262 -2.232502
0003e0 ea 9e cb bf 96 5d 06 c0 aa 9c 17 40 8c 64 0e c0
       -1.5907872 -2.099462 2.368937 -2.224887
0003f0 52 06 28 3f 92 28 02 40 4d 7a 23 bf e9 0f d6 bf
       0.65634644 2.0337262 -0.6385849 -1.6723605

weight f4 [16, 16, 1, 1]
000000 fa 48 57 c0 46 b7 07 3f 6d f4 1c 40 a4 a4 dd 3f
       -3.3638291 0.5301403 2.4524186 1.7315869
000010 e9 15 7d be 10 ba e3 3f ae 7a 41 bf e4 49 f6 be
       -0.2471539 1.7791157 -0.7557782 -0.4810325
000020 f4 6a d0 3f 25 83 58 3f 56 7e 0e 40 fb 6f bc be
       1.628264 0.8457511 2.226461 -0.36804184
000030 bc 8c 4d c0 8b 54 f2 3e c8 57 0e 40 50 61 03 3e
       -3.2117147 0.47330126 2.2241077 0.1283009
000040 34 5d 6d bf fc 50 8f bf 83 35 df 3e 3c 9b f9 bf
       -0.9272034 -1.119659 0.43595514 -1.9500499
000050 5d 92 20 40 6a 51 81 3f 14 b7 1d c0 bd 43 68 c0
       2.5089333 1.0102971 -2.4642992 -3.6291344
000060 b0 c4 e9 bf 11 96 f3 3f 19 4f 2a 40 ba 0b c3 3f
       -1.8263149 1.9030172 2.6610777 1.5237954
000070 82 10 01 3f 02 7a 95 3f 18 2d ee be e2 23 8d 3f
       0.50415814 1.1677859 -0.4651878 1.1026576
000080 b5 5d 25 c0 97 cf c3 bf 9a 38 a7 3f 3a 90 17 3f
       -2.5838444 -1.5297726 1.3064148 0.5920445
000090 81 c2 4d 3f 11 73 1b 40 42 79 58 bf 1f 7c 31 40
       0.80374914 2.428898 -0.84560025 2.7732008
0000a0 62 4f a2 3f b7 aa d0 3f 98 d3 0f 40 d1 cf 35 3f
       1.2680476 1.6302098 2.2472897 0.7102023
0000b0 61 aa 82 bf d8 c0 e5 be bf 56 61 3e a1 b7 18 bf
       -1.0208246 -0.4487369 0.22005747 -0.59655195
0000c0 59 0c 1f 3f 18 06 dd 3f 27 6e f8 be bf 52 b4 be
       0.62128216 1.7267485 -0.4852154 -0.3521938
0000d0 17 c6 8f bf bd 9e a7 be 46 ee 3c 3f 92 25 a9 3e
       -1.1232327 -0.32738295 0.73801076 0.33036476
0000e0 b8 bb d4 3e 50 fe b6 3d bb 4f d5 3f 9d d2 93 bf
       0.41549468 0.08935225 1.6664957 -1.1548649
0000f0 db fc 99 3f f8 15 b9 bf 12 54 6e c0 cc e2 db bf
       1.203029 -1.4459829 -3.7238812 -1.7178588
000100 24 d8 ae bf 21 52 30 3f 01 04 f4 3e a3 24 e2 bf
       -1.3659711 0.6887532 0.47659305 -1.7667431
000110 2e d6 1a 3e b4 30 3a 40 fa a6 01 c0 f4 cb 82 40
       0.15120766 2.9092226 -2.0258164 4.0873966
000120 0b 1c 1b c0 a1 56 b5 3f be 84 93 3f a4 e9 e8 bf
       -2.4235866 1.4167062 1.1524885 -1.8196301
000130 ba 67 19 bf 81 19 d5 3f 81 cd 06 3f ae 1e bb be
       -0.599239 1.6648408 0.52657324 -0.36546844
000140 64 0e e4 be 3b 89 99 bd 27 85 fc be 08 80 bb bf
       -0.4454223 -0.07496878 -0.49320337 -1.4648447
000150 01 64 00 40 06 4d 22 40 1a b0 01 c0 34 ac 74 c0
       2.0061038 2.5359511 -2.0263734 -3.8230104
000160 43 be 8f bf a7 3e 72 3f c3 9c 2a 40 4f 14 73 3f
       -1.1229938 0.9462685 2.665818 0.94952863
000170 8f ad 44 be fd be 06 3f 28 f9 29 bd 04 9f c9 3f
       -0.19206832 0.52635175 -0.04149738 1.5751653
000180 95 2f 74 c0 94 7e 9a 3f 03 6f 9c 3f 28 30 b1 3f
       -3.8154042 1.2069879 1.2221378 1.3842821
000190 4f de e2 be 89 ba 2c bf 81 d0 0b 3f ed 8a c5 be
       -0.44310233 -0.6747213 0.54615027 -0.38582554
0001a0 c9 6f 54 3f 38 b5 0d c0 ff 21 9c bf fe 5d 82 bf
       0.8298307 -2.2141857 -1.2197875 -1.0184934
0001b0 b0 a6 25 bf ca f2 19 c0 c7 a8 8c 3f dc b4 bf be
       -0.6470747 -2.4054437 1.0989007 -0.37442672
0001c0 a3 04 5f 40 c5 20 e5 3f 8e b9 a4 bf 96 4d 19 3f
       3.484658 1.7900625 -1.2869127 0.5988401
0001d0 01 23 a4 be 76 e6 51 c0 00 34 f0 3f 33 8d 88 40
       -0.32057956 -3.2796912 1.8765869 4.267236
0001e0 5b 7a 60 be d4 50 f9 bf c7 da 99 bf 0f 90 49 be
       -0.21921675 -1.9477792 -1.201989 -0.1968386
0001f0 51 cf 21 3e fc 3c a9 bf 65 0a c8 be 72 09 15 3f
       0.15801741 -1.3221736 -0.3907043 0.5821754
000200 8c c6 95 3f ae 85 05 c0 b4 19 a6 be 1d d8 a9 bf
       1.1701217 -2.0862842 -0.32441485 -1.3269078
000210 9a 07 99 be 2b e2 92 bc 0d 72 82 3e 1c 89 64 bf
       -0.29888612 -0.01793011 0.2547764 -0.8927171
000220 86 0c ac bf 3f c8 50 bf 9c 37 86 bf de e1 e9 3f
       -1.3441322 -0.8155555 -1.0485721 1.8272054
000230 c4 7c f2 3a 6c a5 b9 3f 8c b5 61 be 7f 0b 4a 40
       0.0018500318 1.4503608 -0.22041911 3.1569517
000240 9d 15 5b 3f 38 ad 78 3f 41 36 52 3e 41 7f bb 3f
       0.85579854 0.9713931 0.20528509 1.464821
000250 b6 6d e7 3f 77 33 9b 3e 7b e7 95 3f 37 d1 3d c0
       1.8080356 0.30312702 1.1711267 -2.9658945
000260 95 4f f9 3f 92 2d 90 bf 57 06 e6 3f 36 83 f7 3f
       1.9477412 -1.1263907 1.7970685 1.9336917
000270 75 32 58 bf e4 61 43 c0 c0 ab bb 3e 8f a7 80 3f
       -0.8445199 -3.0528498 0.36654472 1.0051135
000280 31 ac 3a 3e 8a 5a a2 3e a5 ca 4d bf 83 7e 03 bf
       0.18229748 0.317097 -0.80387336 -0.51364917
000290 b3 67 a0 bf 83 f3 8d bf 0e cd f4 3e ca ab 74 be
       -1.2531646 -1.1089939 0.47812694 -0.23893657
0002a0 d0 66 02 be b5 42 e3 bd c9 41 b6 be b3 d1 b6 bf
       -0.12734532 -0.11096708 -0.35597065 -1.4282745
0002b0 16 11 f7 3f de 9c c0 bf 4d a8 78 c0 6c 45 da bf
       1.9302089 -1.5047872 -3.8852723 -1.7052436
0002c0 e8 fa ab bd 1d 07 0b bf 7b bc 9a bf df 93 1f bf
       -0.08397466 -0.5430773 -1.208877 -0.6233501
0002d0 84 6d 55 40 0a bf e5 3e d3 55 0b c0 f0 99 9b 3f
       3.3348093 0.44872314 -2.1771133 1.2156353
0002e0 14 1f ed be f3 c9 2e 3f 9e 33 43 40 49 d8 44 3e
       -0.46312773 0.682769 3.0500255 0.19223131
0002f0 77 61 c3 3f de 22 33 bf 44 73 16 c0 4a e5 3c be
       1.5264119 -0.6997508 -2.3507853 -0.18446842
000300 de bc d1 be f9 ed 87 bf f8 6e e8 bf e8 ad 81 bf
       -0.40964407 -1.0619498 -1.8158865 -1.0131197
000310 e1 d7 6a 3f 19 3c 89 3f 08 64 0a c0 dc 43 4c 40
       0.91735655 1.0721465 -2.1623554 3.1916418
000320 6b 2d 0d c0 9b 8c 9c 3f 0a 74 11 3f 33 58 8b 3e
       -2.205897 1.2230409 0.56817687 0.27215728
000330 ed 2d 3a 40 9d 39 11 40 82 65 c8 bf fa f2 91 3e
       2.909053 2.2691414 -1.5655978 0.2850569
000340 89 72 6f 3e f2 8c 88 bf ef 03 9b 3d 79 18 13 c0
       0.23383535 -1.0668013 0.0756911 -2.2983687
000350 30 84 00 bf 85 95 43 3f 75 63 8e 3f 63 62 6c 3f
       -0.502017 0.76400024 1.1124102 0.92337626
000360 2f 98 ff be 22 9c 09 3e 33 f1 8c 3f d5 4d 2c 40
       -0.49920794 0.13438466 1.1011108 2.6922505
000370 b6 07 bf bf e3 bb c6 3f 08 43 06 3e 49 f2 4a 40
       -1.4924228 1.5526088 0.13111508 3.171038
000380 36 d3 4e 3e 85 46 6c bf 32 74 39 bf 90 5a 9c 3f
       0.20197758 -0.92295104 -0.72442925 1.2215137
000390 c2 ae f5 3f 59 f7 d2 3d be d4 cd 3e b1 e3 33 c0
       1.9193957 0.10301084 0.40201372 -2.8107722
0003a0 30 d2 91 3f 03 28 b1 bf c6 aa f3 3e 9b ea 88 3f
       1.1392269 -1.3840336 0.47591227 1.0696596
0003b0 56 32 a8 3f 9f 67 3a c0 77 5e cc bf 3b d5 33 3e
       1.3140361 -2.9125745 -1.5966328 0.1756181
0003c0 69 d2 96 bf 23 5d a9 3f 3d a2 21 3e ee ec 8e 3f
       -1.1782962 1.3231548 0.15784545 1.1166055
0003d0 c2 04 ad be e7 ca c8 be 2e da 99 3d 60 ed 40 be
       -0.33792692 -0.39217302 0.075123176 -0.18840551
0003e0 06 05 90 3f 4e 5c 69 3f 96 66 a4 3f 5b 15 f6 bf
       1.1251533 0.9115647 1.2843807 -1.9225267
0003f0 27 81 91 3d 82 7b d0 bf 3a 68 62 bf 61 99 72 c0
       0.07104712 -1.6287692 -0.8844029 -3.7906115

weight f4 [16]
000000 53 fc 0c 3f a6 48 4b 3e e7 35 c7 be 8f 85 42 3f
       0.55072516 0.19851932 -0.38908312 0.75985044
000010 04 ce 68 3e 7d 88 8f 3e 81 92 50 3f f9 72 c5 3e
       0.22734839 0.2803382 0.8147355 0.3856428
000020 bc e7 18 bf fd 18 70 be 32 13 31 3f 17 e0 d2 3e
       -0.597286 -0.23447032 0.69169915 0.41186592
000030 ed 38 9b 3e 03 56 fd 3e 10 ff 9c 3e 7b c6 52 3f
       0.30316868 0.49479684 0.30663347 0.8233411

bias f4 [16]
000000 15 c0 7c bd 78 d8 20 bc 5c 37 0e 3d 08 fc 14 be
       -0.06170662 -0.009817235 0.034720764 -0.14549267
000010 ba 73 0e bd a0 ba bb bc ec fb 30 be 02 88 22 3d
       -0.034778334 -0.022916138 -0.172836 0.03968049
000020 c3 d4 c5 3c 17 2c 64 bc ba a7 08 be a7 42 20 bd
       0.024149304 -0.013926527 -0.13345233 -0.039126065
000030 c7 26 a0 bc 1d ac 8c bd 15 84 e5 bc f8 2e 4c bb
       -0.01954974 -0.068687655 -0.028017083 -0.0031155925

running_mean f4 [16]
000000 4b 82 d2 c0 6c 86 4c c1 ee 7d 20 c1 14 af 35 c1
       -6.578405 -12.782818 -10.030745 -11.355244
000010 e4 f4 da c0 79 8e 3c c1 77 90 fa bf 2e 63 26 41
       -6.842394 -11.784783 -1.9575337 10.399214
000020 f1 28 04 c0 bb 83 81 bf ad c2 15 c1 34 13 7b c1
       -2.0649989 -1.0118326 -9.360028 -15.692188
000030 ad cc 21 c1 bc 89 95 c0 71 cb b3 c0 24 62 aa 3f
       -10.11247 -4.6730633 -5.618584 1.33112

running_var f4 [16]
000000 99 f6 6a 46 2a ee b1 45 13 fc bc 45 60 95 a5 46
       15037.649 5693.7705 6047.5093 21194.688
000010 32 88 a0 45 e7 26 9b 45 b1 d1 3a 46 53 84 1f 46
       5137.0244 4964.863 11956.423 10209.081
000020 dc 24 08 46 47 12 68 45 bd e4 b1 46 d8 ce 16 46
       8713.215 3713.1423 22770.37 9651.711
000030 2f 25 d8 45 53 e6 08 46 46 cd a6 45 e6 26 38 46
       6916.648 8761.581 5337.659 11785.725

weight f4 [4, 128]
000000 2f 54 73 3e 3a 81 aa be 0e 0e 50 be af 1c 0b be
       0.23762582 -0.33301717 -0.20317861 -0.1358516
000010 0b 97 2c bd 77 db 04 3d 6e 8a 3f bd 05 67 8d bc
       -0.042136233 0.03243586 -0.046762876 -0.017261038
000020 5c 18 c5 bd dd cc 79 3e 07 5a 7d 3e 08 20 04 3e
       -0.09623787 0.24394555 0.24741374 0.12902844
000030 f2 1c 6d 3e 78 b8 a4 3e 38 f3 3b 3e eb a2 77 3d
       0.23155573 0.32171988 0.183545 0.060458105
000040 99 8f f4 3d a6 e7 d3 3e 55 ec 7c 3e 99 42 12 3e
       0.119414516 0.4138767 0.24699529 0.14283217
000050 01 29 84 3b bd 92 a0 bd 55 9b b3 bc d2 42 1b be
       0.0040332084 -0.07840488 -0.021924654 -0.15162209
000060 6c f1 bb be b0 d4 04 bf 33 5f fe bd ce 6c 94 be
       -0.36707628 -0.51887035 -0.124205016 -0.2898926
000070 65 46 33 be 13 49 fb bd 51 50 08 be 4f e1 27 be
       -0.17507322 -0.12269797 -0.13311888 -0.16394542
000080 b8 79 5c 3d 00 8c 97 3e e3 7e d0 3d 90 30 aa be
       0.053827018 0.29599 0.10180452 -0.33240175
000090 b5 4f 6f be e6 81 3d be 13 e1 df be ea 2b 83 be
       -0.2337025 -0.18506584 -0.43726406 -0.2561944
0000a0 dd 6c be bd 45 8b 30 3e e0 e8 69 3e ab 4b 2d 3d
       -0.09298108 0.17240627 0.22842741 0.04230849
0000b0 ee da 16 3e 68 63 af 3e fa 5d 09 3e 14 9c 25 3e
       0.14731953 0.34255528 0.13414755 0.1617282
0000c0 6c d8 4a bd f2 9c 91 be a4 a6 49 be 55 f6 dd bd
       -0.049522802 -0.28440052 -0.19692475 -0.10838
0000d0 c0 a6 c1 bb 50 d0 b5 bd ec 4b b1 bd 1c c7 20 be
       -0.0059097707 -0.08877623 -0.08657059 -0.15700954
0000e0 2b e2 6c bd dc c4 42 3d e6 20 f2 3d 01 f2 36 3e
       -0.057832878 0.04755102 0.11822681 0.17865755
0000f0 4d d8 03 3e 66 5c f4 3d 20 98 58 3d 18 e7 3f bd
       0.12875481 0.11931686 0.052879453 -0.046851248
000100 39 8d 63 be aa 9e 71 bf 52 f4 ef be 63 2d d0 be
       -0.22221841 -0.9438273 -0.4686609 -0.40659627
000110 78 82 8b be d1 f9 03 be 01 1b 70 be 41 ce 16 be
       -0.27247977 -0.12888266 -0.23447801 -0.14727117
000120 40 bb 89 3e dc 34 47 3f 04 fd 7f 3c 57 79 e3 be
       0.26900673 0.7781503 0.0156242885 -0.44428512
000130 41 f5 07 bf b0 9d 51 bf bf 9d e1 be ba 8e bc be
       -0.531086 -0.8188124 -0.44065663 -0.36827642
000140 59 50 db be 27 35 ab be e3 1b 42 be 43 96 99 be
       -0.42834738 -0.3343899 -0.1895595 -0.29997453
000150 38 c6 87 be 8f 76 ad be 18 e5 22 be 4e cf 94 be
       -0.26518416 -0.33879516 -0.15907705 -0.2906441
000160 b6 3a d4 be d5 c6 93 be 3d d4 0b 3e 42 8c 8b 3d
       -0.41451043 -0.28862634 0.13655181 0.068138614
000170 35 75 9b 3d eb 18 a9 3e 41 23 08 3e f5 15 dc 3d
       0.07590715 0.33026823 0.13294698 0.107463755
000180 73 b1 d9 bc 12 7c d6 3e b5 b9 88 3e 22 3c 89 3d
       -0.026573872 0.41891533 0.26704183 0.067009225
000190 94 24 b1 bd 7b 5d 9b bd 7a 34 b2 bd 62 4c 88 bd
       -0.08649555 -0.07586189 -0.08701415 -0.06655194
0001a0 30 3a 9a bd 32 ea 05 3f 2f 36 98 3e ab d0 c3 3e
       -0.0753063 0.5231048 0.2972884 0.3824514
0001b0 12 1f bf 3e 3f 58 86 3e 35 24 ba 3e 03 b1 b4 3e
       0.37328392 0.262392 0.3635575 0.352913
0001c0 3f 60 c5 be d7 c1 40 bf bc ae ce bc 31 b7 95 3e
       -0.38549992 -0.75295776 -0.025229804 0.29241326
0001d0 d3 f4 cb 3e 02 f6 02 3f f7 9a 85 3e 38 79 bd 3e
       0.39835224 0.5115663 0.2609479 0.37006545
0001e0 ce 9c 50 be 50 c3 31 bf b3 d4 be be c3 9c a8 be
       -0.20372316 -0.6943865 -0.37271652 -0.329321
0001f0 e6 c5 8e be 88 c6 2a be b0 0d 48 be cd 6d 0f be
       -0.2788536 -0.16677296 -0.19536471 -0.1400673
000200 e7 9f 89 be 72 2f be be fc d9 98 be 35 7f 69 be
       -0.26879808 -0.37145573 -0.2985381 -0.22802432
000210 07 07 df bd c7 22 17 be 0b d9 d7 bd 7c f8 63 be
       -0.10890012 -0.1475936 -0.105394445 -0.22262758
000220 4a c1 41 bd b9 77 28 3e 91 31 33 3e 1b 34 ef bd
       -0.047303475 0.1645192 0.17499377 -0.1167986
000230 d2 59 34 be 52 3e de bd 7d 26 2f 3c ce 7f b4 bd
       -0.17612389 -0.108517304 0.010690329 -0.08813439
000240 b5 dc 8e bb 8c fd 1d 3e a2 49 94 3e 4d 91 7c 3e
       -0.0043598064 0.15428752 0.28962427 0.24664803
000250 35 38 b8 3d b6 6d d8 38 2f 8a 23 bc 3f 98 b2 bc
       0.08995096 0.00010320118 -0.009981676 -0.021801112
000260 db 35 dc 3e c4 d4 01 3f 8e 07 b7 3e 1e 22 a0 3e
       0.43009838 0.5071528 0.3574795 0.3127603
000270 b9 42 f1 3e a5 4d 95 3e 80 51 82 3e 98 03 5f 3e
       0.47121218 0.291608 0.25452805 0.21778715
000280 b4 20 24 3c 57 75 10 3c f6 a2 1b 3d bf 20 f1 bd
       0.010017563 0.0088170385 0.03799721 -0.11773824
000290 53 21 91 bd b6 8b 01 bd a4 ec f1 bc 49 84 9c be
       -0.07086434 -0.03162738 -0.029531784 -0.30569676
0002a0 e0 f8 a9 3d 4b 4d 1a 3e 55 5f 1a 3d ff dd 87 be
       0.08299422 0.15068547 0.037688572 -0.26536557
0002b0 94 f4 60 be b1 f8 19 bd b5 42 38 be 08 d8 85 be
       -0.21968299 -0.037590686 -0.17994197 -0.2614138
0002c0 e7 ba 23 be 52 9d 3a be 74 f6 24 be 3c 0a a2 bd
       -0.15989266 -0.18224075 -0.1610964 -0.07912108
0002d0 b9 bd 8d bd d0 03 3f be d2 c2 b4 bd f2 0f c5 bd
       -0.06920952 -0.18653798 -0.088262215 -0.09622182
0002e0 a7 26 37 3d b8 e2 2e 3e fb f3 01 3e 16 04 45 3e
       0.044714596 0.17078674 0.12690727 0.1923984
0002f0 60 0b 30 3e eb d2 17 bc 0e 7b 57 bd de 2f e9 3c
       0.17191839 -0.009266595 -0.05260759 0.028465208
000300 9f ae 33 3e 30 38 41 3e bd 5e 03 3e e0 74 00 3e
       0.17547081 0.1886909 0.12829109 0.12544584
000310 e1 90 0d 3e 3d b6 0b 3d cd 7a 58 3d 9e e0 60 bc
       0.13824798 0.034109343 0.052851487 -0.013725428
000320 10 89 42 be a2 52 e0 bd 26 5e da 3d 0c 6b 8a 3e
       -0.18997598 -0.10953261 0.10662489 0.27034795
000330 d5 d7 0b 3e 99 ca 88 3d 00 15 9c 3e 4e a4 1f 3e
       0.13656552 0.066792674 0.30484772 0.15590021
000340 82 d6 75 3e 22 d9 0e 3f 33 22 f4 3e c7 73 dd 3e
       0.2400761 0.5580007 0.47682342 0.43252394
000350 54 b0 da 3e 21 9a a8 3e c6 30 d0 3e f4 c8 a9 3e
       0.42712653 0.3293009 0.4066221 0.33161128
000360 fa b5 b0 3e b6 aa 2e 3f b5 94 c2 3e e5 b3 b8 3d
       0.34513837 0.68229234 0.3800408 0.09018687
000370 46 54 cf 3c d8 a4 30 3d 90 c1 46 bd 14 73 cb 3d
       0.02530874 0.043125957 -0.04852444 0.09934059
000380 4d b5 cf 3c 7c 31 a6 3e c4 1a ac 3e 83 e3 1f 3e
       0.025355006 0.3245963 0.3361417 0.15614133
000390 6f a5 15 3e 51 ff 35 3e c8 b2 ad 3d 89 0b 0d 3e
       0.14613889 0.17773177 0.084813654 0.13773932
0003a0 53 5c 94 be f1 42 87 be 1b 0d a1 be 3a 4d c3 be
       -0.28976688 -0.2641826 -0.3145531 -0.38144857
0003b0 f6 d7 44 be ee 49 1d 3e 8c 8f 1d 3e e3 62 04 3d
       -0.19223008 0.15360233 0.1538679 0.03232087
0003c0 e2 4d bf 3e 2e 41 00 3f 76 3e 95 3e e2 21 31 3e
       0.37364107 0.50099456 0.29149216 0.17298082
0003d0 5b 8d 7a 3e fa ff f2 3d e8 59 2d be a2 e7 5a 3e
       0.24467985 0.1186523 -0.16928828 0.21377423
0003e0 24 a2 5c 3e b2 4d 4a 3e fa d4 0f 3e 2c e9 bd 3d
       0.21546227 0.19756201 0.14046088 0.0927299
0003f0 c7 0d f2 3d 2c e8 09 3d 32 b9 5c 3d b0 df bf 3d
       0.11819034 0.033668682 0.053887554 0.09368837
