histories_cls/EEGNet_BcicIv2a_pt/67.39%_bs=032_lr=0.0061_ld=0.999895_k1=64_k2=32_do=0.32/best_valid_acc.pt (torch, 21122 bytes, 17 tensors)

weight f4 [8, 1, 1, 64]
0	0x3e468b3a	0.19389048
1	0xbd955895	-0.07292286
2	0xbdedf0c2	-0.116181865
3	0xbe0042b3	-0.12525444
4	0xbe648653	-0.22316866
5	0x3d61a3ca	0.055087842
6	0x3e3c3a5c	0.18381637
7	0x3f06395f	0.5243129
8	0x3eae4151	0.34034207
9	0x3e9502e3	0.29103765
10	0xbdd96359	-0.10614652
11	0xbed2808d	-0.411137
12	0xbeb8b62d	-0.3607649
13	0xbedb1409	-0.42788723
14	0xbe88c0d6	-0.26709622
15	0xbd84d009	-0.06484992
16	0x3eb176b7	0.34660885
17	0x3ecf8710	0.40532732
18	0x3f42f53d	0.76155454
19	0x3f64329c	0.89139724
20	0x3f16f543	0.5896799
21	0x3e3f672c	0.186917
22	0xbe93614b	-0.28785166
23	0xbf0e8795	-0.5567563
24	0xbee4f4c1	-0.44717982
25	0xbec33c2a	-0.3813184
26	0x3de76ab5	0.112996496
27	0x3d12df66	0.03585758
28	0x3ea80414	0.3281561
29	0x3e8f5a68	0.27998662
30	0x3e15b7d8	0.14620912
31	0xbe3a786d	-0.18210001
32	0xbec15550	-0.377604
33	0xbf27f93d	-0.6561468
34	0xbf50f35c	-0.81621337
35	0xbf6117d4	-0.87926984
36	0xbf49347c	-0.7859571
37	0xbf4853b5	-0.78252727
38	0xbe66b9c4	-0.22531801
39	0x3d737a58	0.059442848
40	0x3e77d89f	0.24203728
41	0xbdf901b0	-0.12158525
42	0xbf270ec3	-0.652569
43	0xbf3ea0d4	-0.74464154
44	0xbf0ce4b6	-0.55036485
45	0xbefae336	-0.49001473
46	0xbef914f2	-0.48648793
47	0xbed2c5ed	-0.4116663
48	0xbecd6035	-0.40112463
49	0xbeb4c4f4	-0.35306513
50	0xbe1bd2da	-0.15217152
51	0xbe6f3027	-0.23358212
52	0xbd1dd7e9	-0.038535986
53	0xbe547e54	-0.20751315
54	0xbea5be08	-0.32371545
55	0xbf022799	-0.5084167
56	0xbedce04e	-0.4313988
57	0xbe890696	-0.26762837
58	0x3d87e2cc	0.06635055
59	0x3e6ee332	0.23328856
60	0x3edb14ed	0.42789403
61	0x3ece9172	0.4034534
62	0x3eadd75e	0.33953375
63	0x3eb42271	0.35182527
64	0x3f7a801c	0.9785173
65	0x3f3a246f	0.72711843
66	0x3f5a0597	0.8516478
67	0x3f21dd57	0.6322836
68	0x3f0000d4	0.50001264
69	0x3edb6bec	0.42855775
70	0x3d409804	0.047019973
71	0xbe02b0cf	-0.1276276
72	0x3c6fa676	0.01462709
73	0xbcbdd8af	-0.023174612
74	0xbe695bd8	-0.22788942
75	0xbecfdd1e	-0.40598387
76	0xbeb85dac	-0.36008966
77	0xbed84dbe	-0.42246813
78	0xbe902e12	-0.2816015
79	0xbea11889	-0.3146403
80	0xbdea0e27	-0.114284806
81	0xbe19e403	-0.15028386
82	0xbd726160	-0.059174895
83	0x3dbf3f92	0.09338297
84	0x3dcdc617	0.10047548
85	0xbcaa61b0	-0.020798534
86	0xbe4ddba5	-0.20103319
87	0xbee937a1	-0.45550254
88	0xbeca34fb	-0.39493546
89	0xbed7e50f	-0.42166945
90	0xbf447d63	-0.76753825
91	0xbf3e157b	-0.74251527
92	0xbf068594	-0.52547574
93	0xbf05327c	-0.5203016
94	0xbf0b9d04	-0.5453646
95	0xbf259005	-0.6467288
96	0xbf83ba02	-1.029114
97	0xbf09c797	-0.53820175
98	0xbe94a482	-0.2903176
99	0xbeb02dd9	-0.3440998
100	0xbf024ee4	-0.5090163
101	0xbf28dcbe	-0.65961826
102	0xbf0d2b38	-0.5514407
103	0xbf182197	-0.59426254
104	0xbe9363f0	-0.28787184
105	0xbeaa714e	-0.3328957
106	0xbe1e71a1	-0.15473033
107	0x3e2c449b	0.16823046
108	0x3e8eef00	0.27916718
109	0x3d86b4a4	0.06577423
110	0xbc04cd41	-0.008105577
111	0xbd775fec	-0.060394213
112	0xbd09dd21	-0.03365815
113	0xbaa58e5e	-0.001263093
114	0xbcae97a6	-0.021312546
115	0xbd426db6	-0.04746791
116	0x3d492d03	0.049115192
117	0x3cd1e229	0.025620537
118	0xbd757046	-0.059921525
119	0x3e1300d6	0.14355788
120	0xbe0bd262	-0.13654473
121	0x3cc64eaf	0.024207441
122	0x3bf6cd0e	0.0075317686
123	0x3e5d1f65	0.21594007
124	0x3eb1aacc	0.3470062
125	0x3e97faa8	0.29683423
126	0x3ec215f3	0.3790737
127	0x3ee001c2	0.4375134
128	0x3cde2e65	0.027121732
129	0xbdc57c06	-0.09642796
130	0xbe2e2e19	-0.17009772
131	0x3d9eef86	0.07760529
132	0x3e8857d2	0.26629502
133	0xbd529498	-0.05141124
134	0xbf0658d1	-0.52479273
135	0xbf3812f9	-0.7190395
136	0xbec3d028	-0.38244748
137	0x3e9cca2b	0.30622992
138	0x3f7c7dde	0.9862956
139	0x3f934685	1.1505896
140	0x3f1ededf	0.62058824
141	0xbebb55f4	-0.36589015
142	0xbf4e3b14	-0.80558896
143	0xbf67975a	-0.9046532
144	0xbed1d598	-0.40983272
145	0xbe79ef62	-0.24407724
146	0x3dd0536b	0.10172161
147	0x3e18ffa4	0.14941269
148	0x3e5f4c7e	0.21806523
149	0x3e3b1b76	0.18272194
150	0x3ef1a37f	0.4719505
151	0x3f1652b4	0.58719945
152	0x3f3d2309	0.73881584
153	0x3d52410d	0.05133157
154	0xbf3279e7	-0.6971726
155	0xbf8dce32	-1.1078551
156	0xbf59fdef	-0.85153097
157	0xbe30c97c	-0.1726436
158	0x3f06d7da	0.52673113
159	0x3f31ba23	0.6942465
160	0x3ece160b	0.40251192
161	0x3e5c2c22	0.2150121
162	0xbc88c07d	-0.016693348
163	0x3e75723a	0.23969355
164	0xbdbd0f34	-0.092314154
165	0xbecdef4d	-0.40221635
166	0xbf078205	-0.5293277
167	0xbeaf0b9f	-0.34188554
168	0x3e9c976b	0.30584273
169	0x3f1a0b61	0.6017361
170	0x3f01bbeb	0.50677365
171	0xbd97ea35	-0.07417718
172	0xbeeb702f	-0.45984027
173	0xbec425fe	-0.38310236
174	0xbe17b63a	-0.14815608
175	0x3d7c783e	0.06163811
176	0x3de8f3e4	0.113746434
177	0x3e6deb05	0.23234184
178	0x3e0793fd	0.13240047
179	0x3e66222d	0.22473975
180	0x3da1b0ef	0.078950755
181	0xbd1e508d	-0.038651038
182	0xbe6a9ea9	-0.22912087
183	0xbe9424ad	-0.2893423
184	0xbdaa6a5f	-0.0832107
185	0xbd5e64aa	-0.05429522
186	0x3d3c68e7	0.04599848
187	0x3e3f1b73	0.18662815
188	0x3e86d67d	0.26335517
189	0x3ea6a4e2	0.3254767
190	0xbc36604d	-0.011131358
191	0xbed78333	-0.42092285
192	0xbeddfe20	-0.43357944
193	0xbedcbed3	-0.43114337
194	0xbe816f6f	-0.2528033
195	0x3e37b260	0.17939138
196	0x3dc1fbb0	0.09471834
197	0xbd816d88	-0.063197196
198	0xbe724b44	-0.23661524
199	0xbe16ea55	-0.14737828
200	0xbd645af6	-0.05575081
201	0x3e38d516	0.18050036
202	0x3d856fdd	0.06515477
203	0xbdc49c78	-0.096001565
204	0xbe3b5f1a	-0.18297997
205	0xbed0fe06	-0.40818805
206	0xbe8fde5e	-0.2809934
207	0x3d4ea923	0.05045427
208	0x3dca06b2	0.09864558
209	0x3f0ce43a	0.55035746
210	0x3f05f524	0.5232718
211	0x3d506b21	0.050883416
212	0xbe99af97	-0.30016777
213	0xbeb1907b	-0.34680542
214	0xbe6b4dca	-0.22978893
215	0xbc9d736c	-0.019220077
216	0xbe171185	-0.14752777
217	0xbe13e367	-0.14442216
218	0x3b39842b	0.0028307538
219	0x3e980d3c	0.29697597
220	0x3ecb6b07	0.39730093
221	0x3f099e5e	0.53757274
222	0x3ed0a737	0.40752575
223	0x3eaeb881	0.3412514
224	0x3c43c596	0.011948964
225	0xbdbeab36	-0.0931
226	0xbed68f89	-0.41906384
227	0xbf51ae8b	-0.81906956
228	0xbf793431	-0.9734526
229	0xbeb36aec	-0.35042512
230	0x3f118257	0.5683951
231	0x3fa15522	1.2604105
232	0x3fabb2e8	1.3413973
233	0x3f4f52b7	0.8098559
234	0xbd2e1bd5	-0.04250701
235	0xbf0e7366	-0.55644834
236	0xbef6c5c3	-0.48197755
237	0xbdd5ff31	-0.104490645
238	0x3d8817a7	0.06645136
239	0xbe68188b	-0.22665612
240	0xbea2f9f6	-0.3183133
241	0xbe9fcbc3	-0.31210145
242	0x3c94ce88	0.018164888
243	0x3e42aee3	0.19012026
244	0x3ed7a0fb	0.42115006
245	0x3f04f125	0.5193046
246	0x3ed5902b	0.41711554
247	0x3e136812	0.14395168
248	0xbe06f2a0	-0.13178492
249	0xbeaf4c30	-0.34237814
250	0xbefe8413	-0.4971014
251	0xbeff145f	-0.4982023
252	0xbe6e4f39	-0.23272409
253	0x3e54b406	0.20771798
254	0x3ee2d133	0.4430023
255	0x3eb82db3	0.35972366

weight f4 [8]
0	0x3fd0c208	1.6309214
1	0x3fb64bb4	1.4241853
2	0x4074bfd7	3.824209
3	0x400ddd90	2.216648
4	0x3fd169a8	1.6360369
5	0x4025e6ea	2.5922189
6	0x3ebadcb5	0.3649651
7	0x404176fa	3.0228868

bias f4 [8]
0	0x3e396393	0.18104391
1	0x3e511b9f	0.20420693
2	0x3eb6e38b	0.35720477
3	0x3d1e5f26	0.03866496
4	0xbe2579c2	-0.16159728
5	0x3e4729de	0.19449565
6	0x3e9e50fd	0.30921164
7	0x3e547613	0.20748167

running_mean f4 [8]
0	0xc05ed142	-3.481522
1	0xc05dd41b	-3.466071
2	0xbc6499f2	-0.013952719
3	0x3e9868ef	0.29767558
4	0x401cc626	2.449594
5	0x3db4092d	0.08790813
6	0xc019d383	-2.4035347
7	0x3e8564f2	0.26053578

running_var f4 [8]
0	0x3ffecc33	1.9906067
1	0x40000482	2.0002751
2	0x3f27e9cf	0.6559114
3	0x3f6923f9	0.91070515
4	0x3faed56e	1.3658884
5	0x3f8c6d6f	1.0970896
6	0x40a886b6	5.266444
7	0x3ef82c28	0.4847119

weight f4 [16, 1, 22, 1]
0	0xbe68cdf1	-0.2273481
1	0x3d7e4bae	0.062083893
2	0xbd8425aa	-0.06452496
3	0xbddf4ac8	-0.10902935
4	0x3d75efe5	0.060043234
5	0x3dd441f6	0.103641436
6	0x3d7656dd	0.060141433
7	0xbea3a01b	-0.31958088
8	0xbe5de051	-0.21667601
9	0x3f007287	0.50174755
10	0xbda58d43	-0.08083584
11	0x3cbe6a0c	0.023243926
12	0x3e315193	0.17316274
13	0x3c57408d	0.013137949
14	0xbc6b9e1b	-0.014380957
15	0xbd8e5956	-0.06950633
16	0x3e751f4a	0.23937717
17	0xbde69388	-0.11258608
18	0x3edb1b7a	0.427944
19	0xbe0df781	-0.13863946
20	0xbe1b17ae	-0.15145752
21	0xbed45ce9	-0.41477135
22	0xbe1776c3	-0.14791398
23	0x3e4ab424	0.1979528
24	0xbc190ed0	-0.0093419105
25	0x3da9db39	0.082937665
26	0x3e22e6bb	0.15908329
27	0x3d94e57e	0.07270335
28	0xbde2641f	-0.11054253
29	0xbd81623c	-0.06317565
30	0x3eddaf73	0.4329792
31	0xbec23636	-0.37931985
32	0x3dea86bd	0.114514805
33	0x3dceedf7	0.10103982
34	0xbeeef74b	-0.46673045
35	0xbd3910f3	-0.04518218
36	0x3eb4d1d9	0.3531635
37	0x3db94b1b	0.09047528
38	0xbc2babb3	-0.010477948
39	0x3db15b28	0.08659965
40	0xbe325859	-0.17416514
41	0x3e0513f6	0.12995896
42	0xbdf0cbf4	-0.11757651
43	0xbea90ef4	-0.3301922
44	0xbda5a1d1	-0.08087505
45	0xbe4a87f5	-0.19778426
46	0xbd660237	-0.056154456
47	0xbd9eea4f	-0.077595346
48	0x3e9c5949	0.3053687
49	0x3e3f9335	0.18708499
50	0xbe2c20b9	-0.16809358
51	0x3e24ccbc	0.16093725
52	0xbe804153	-0.25049838
53	0xbe8fab9e	-0.2806062
54	0x3ee23786	0.44182986
55	0x3e86c785	0.26324096
56	0xbe5cdc9e	-0.21568534
57	0x3e92039c	0.2851838
58	0x3d01b763	0.03166903
59	0xbe6e22df	-0.2325549
60	0xbdd80d48	-0.10549408
61	0xbe496807	-0.1966859
62	0x3e617bae	0.22019836
63	0x3e208850	0.15676999
64	0xbe668f07	-0.22515498
65	0x3c8225d9	0.015887188
66	0x3e081e4e	0.1329281
67	0x3de79319	0.113073535
68	0x3d86ded9	0.065854736
69	0xbe970238	-0.2949388
70	0xbe9c3cdb	-0.3051518
71	0x3da86461	0.08222271
72	0xbe0175a8	-0.12642539
73	0x3e30624e	0.17225
74	0x3debce1e	0.11513923
75	0xbd81ce42	-0.06338169
76	0x3e1a82cc	0.15088958
77	0x3e2252e5	0.15851934
78	0xbecdcbbc	-0.401945
79	0xbeb98724	-0.36235917
80	0xbd8d5a46	-0.06901984
81	0x3e2f28ed	0.17105456
82	0x3f023d44	0.50874734
83	0x3e31c826	0.17361507
84	0xbd8d984e	-0.069138154
85	0xbd99e9d4	-0.07515302
86	0x3dd82d0d	0.10555468
87	0xbe3177f5	-0.17330916
88	0x3e3fc6a9	0.18728127
89	0xbd442052	-0.047882386
90	0x3dfa0cc5	0.12209467
91	0xbe35c8fa	-0.17752448
92	0xbe8b6e18	-0.27232432
93	0xbe84faa7	-0.25972483
94	0xbd37e21b	-0.044893365
95	0x3d303ec1	0.043028597
96	0x3e1a36a9	0.15059914
97	0xbe3c6624	-0.18398339
98	0xbd5f5420	-0.054523587
99	0x3f03b9a9	0.5145517
100	0xbe469103	-0.19391255
101	0xbcd5002b	-0.026001057
102	0xbe00b964	-0.12570721
103	0xbe0ddda1	-0.13854076
104	0x3e77ad7e	0.24187276
105	0x3eba401a	0.3637703
106	0x3dec3656	0.11533801
107	0x3e17b97a	0.14816847
108	0xbec3ab21	-0.38216498
109	0xbd04623c	-0.032320246
110	0xbb38c838	-0.0028195512
111	0xbde05bb7	-0.10954993
112	0x3d55dad1	0.052210633
113	0x3e96be52	0.29442078
114	0xbe29a9a3	-0.16568618
115	0x3dbe330c	0.0928708
116	0xbcd87506	-0.026422989
117	0xbdd32c7e	-0.103112206
118	0x3e90b580	0.28263474
119	0xbe01f449	-0.12690844
120	0x3e081841	0.13290502
121	0xbe15d751	-0.14632918
122	0x3c727680	0.01479876
123	0x3e0b9c9d	0.13633962
124	0x3d546833	0.051857185
125	0xbf48d327	-0.7844719
126	0x3b75354a	0.0037415796
127	0x3e26c768	0.16287005
128	0x3e18b416	0.14912447
129	0xbd8bf92b	-0.068346344
130	0x3e21135b	0.1573004
131	0xbd030c77	-0.03199431
132	0x3e31271f	0.1730008
133	0xbe968fdc	-0.2940663
134	0x3e149aa9	0.14512123
135	0xbc6196ad	-0.013768834
136	0x3623c850	2.440549e-06
137	0xbcb2f671	-0.021846028
138	0x3e4330f1	0.19061638
139	0xbdb79891	-0.089646466
140	0x3e829be7	0.2550957
141	0x3e73f917	0.23825489
142	0xbe5b918a	-0.21442237
143	0x3d87b814	0.06626907
144	0x3d99e2c8	0.07513958
145	0x3d5f49e6	0.054513834
146	0xbc89384c	-0.016750477
147	0xbcb8940d	-0.022531534
148	0xbe60ba2f	-0.21946023
149	0xbd20c9fd	-0.03925513
150	0xbf318831	-0.69348437
151	0x3e401d98	0.18761289
152	0x3e704091	0.2346213
153	0x3dfaf1de	0.12253164
154	0xbe60de59	-0.21959819
155	0x3b95fda8	0.0045773573
156	0xbde7acdf	-0.113122694
157	0x3e46554f	0.1936848
158	0x3eb71fca	0.3576644
159	0x3f11976f	0.56871694
160	0x3be6914e	0.0070363646
161	0xbccaafd9	-0.024742054
162	0x3dba6a08	0.09102255
163	0xbbf159fc	-0.0073654633
164	0x3d56f41c	0.052478895
165	0xbeac6f3c	-0.33678615
166	0xbe44b101	-0.19208147
167	0xbb4820ac	-0.0030537052
168	0x3e5e5afe	0.21714398
169	0xbd637668	-0.055532843
170	0xbecb6102	-0.3972245
171	0xbe847035	-0.25866857
172	0x3db804fe	0.08985327
173	0xbcdad081	-0.02671075
174	0x3d74f197	0.05980071
175	0x3cd91338	0.026498422
176	0xbdefcd48	-0.11709076
177	0xbe3fb8f6	-0.18722901
178	0x3e1d6ee6	0.15374336
179	0xbdc5e037	-0.09661906
180	0xbe541eaa	-0.20714822
181	0x3ec5d9f0	0.38642836
182	0x3cbcdf2d	0.023055637
183	0x3d0a14c6	0.033711217
184	0xbe033f7a	-0.12817183
185	0xbead0cbe	-0.33798784
186	0x3dd86db2	0.10567798
187	0x3cff32be	0.031152125
188	0x3dc6f19f	0.09714054
189	0x3e8735b5	0.26408163
190	0x3ea17324	0.31533158
191	0x3dd47114	0.103731304
192	0x3e42d66a	0.19027105
193	0xbe2f96e9	-0.17147411
194	0xbe58fb73	-0.2118967
195	0xbeffae1b	-0.4993752
196	0x3e32368f	0.17403625
197	0xbd34e1c0	-0.044160604
198	0xbd6d09c9	-0.05787066
199	0x3d872935	0.065996565
200	0xba295da0	-0.00064607896
201	0x3e0ea0d5	0.1392854
202	0xbeb387b9	-0.35064486
203	0xbe83eea5	-0.2576801
204	0xbae3f310	-0.0017391164
205	0x3e702e17	0.23455082
206	0x3e957140	0.29187965
207	0xbd229e10	-0.03970152
208	0xbe99ad59	-0.30015066
209	0x3e1a61b8	0.15076339
210	0xbc7d1afa	-0.015448326
211	0x3a39cd36	0.0007087769
212	0x3e23a506	0.1598092
213	0xbe6dfc44	-0.23240763
214	0xbd2fd5de	-0.04292857
215	0x3e680dcf	0.22661518
216	0xbeef441d	-0.46731654
217	0x3e90bab9	0.28267458
218	0x3e278613	0.16359739
219	0xbe883889	-0.26605633
220	0xbe8d6004	-0.27612317
221	0xbe756390	-0.23963761
222	0xbd51cd65	-0.05122127
223	0x3e635647	0.22200881
224	0x3d7b20b8	0.0613105
225	0xbe34c079	-0.17651547
226	0xbe042b24	-0.12907082
227	0xbdd10e95	-0.102078594
228	0x3e9a6faa	0.30163318
229	0x3efc4426	0.49270743
230	0x3d775007	0.060379054
231	0x3d59670f	0.0530768
232	0xbdf17f84	-0.117919
233	0x3e9ea827	0.30987665
234	0x3d7501b6	0.059816085
235	0xbe4b8e0e	-0.19878408
236	0x3d9926f9	0.074781366
237	0x3de020b2	0.10943736
238	0x3d8c16cc	0.06840286
239	0xbeef5c8d	-0.46750298
240	0x3d2b14cf	0.04176789
241	0x3df7968f	0.12089264
242	0xbe592062	-0.2120376
243	0x3c137bbd	0.0090016695
244	0x3db1c125	0.086794175
245	0x3cdc7746	0.026912343
246	0x3b2eb4fa	0.0026658163
247	0x3e8492bf	0.25893208
248	0xbdfc15d4	-0.12308851
249	0xbd8b242a	-0.06794007
250	0x3e5d8722	0.2163358
251	0xbe816494	-0.25272048
252	0x3e9ac8b3	0.30231246
253	0x3e1a0819	0.15042152
254	0xbeaec689	-0.34135845
255	0x3e8618ba	0.2619074

weight f4 [16]
0	0x3f4699d7	0.7757849
1	0x3fef83b2	1.8712065
2	0x3f16d983	0.58925647
3	0x3f6b4b32	0.91911614
4	0x4089fd70	4.312187
5	0x40530d17	3.297674
6	0x3fd7b3bd	1.6851727
7	0x4032ad9e	2.7918468
8	0x3fde2556	1.7355144
9	0x3f4a5ecb	0.7905089
10	0x3fc0d87f	1.5066069
11	0x404693b1	3.1027644
12	0x3ee2339a	0.44179994
13	0x3f0b3a7a	0.54386103
14	0x402f47be	2.7387538
15	0x4055e3d2	3.34203

bias f4 [16]
0	0xbe56380c	-0.20919818
1	0xbf2ff9ba	-0.6874043
2	0xbd8fe43d	-0.07025955
3	0xbe238ebd	-0.15972419
4	0xc0045b57	-2.068075
5	0xbff48df2	-1.9105818
6	0xbee32ea2	-0.44371516
7	0xbfba7049	-1.4565517
8	0xbf09de72	-0.5385505
9	0xbda22393	-0.079169415
10	0xbe8b636d	-0.27224293
11	0xbf997afe	-1.1990659
12	0xbb469607	-0.0030301826
13	0xbdbad198	-0.09122008
14	0xbfa726fb	-1.3058771
15	0xbfbffbbd	-1.49987

running_mean f4 [16]
0	0xbd48bad9	-0.049006317
1	0x3cabf1a6	0.02098925
2	0xbcc1ec5b	-0.023672273
3	0x3b857164	0.004072355
4	0xbc9e040c	-0.01928904
5	0xbab46648	-0.0013763392
6	0xba2e8735	-0.00066577207
7	0xbc0b84e7	-0.008515573
8	0x3d53c58d	0.05170207
9	0x3d8da64d	0.06916485
10	0x3d56e7d4	0.052467182
11	0xbc5636da	-0.013074601
12	0x3ccec7d6	0.025241774
13	0xbc26a4c1	-0.010171116
14	0x3b8c2230	0.0042765364
15	0xbb6d3070	-0.00361922

running_var f4 [16]
0	0x3e8aab9c	0.27084053
1	0x3ec72a95	0.38899675
2	0x3e08297e	0.13297078
3	0x3e3120b1	0.17297627
4	0x3fae869c	1.363483
5	0x3f0d7584	0.5525744
6	0x3ea4b2d4	0.32167685
7	0x3f9e5143	1.2368549
8	0x3e588c6a	0.21147314
9	0x3ec87a92	0.39156014
10	0x3f864a48	1.0491419
11	0x3ed67e3d	0.41893187
12	0x3bd9fb55	0.0066522756
13	0x3bc9684d	0.006146467
14	0x3f89d81c	1.0769076
15	0x3fc130fd	1.5093075

weight f4 [16, 1, 1, 32]
0	0xbf2cca44	-0.6749613
1	0xbe34ae95	-0.17644723
2	0xbf0ad78d	-0.54235154
3	0xbf33d0bf	-0.70240396
4	0xbeb1c506	-0.3472063
5	0xbd48b107	-0.04899695
6	0xbeb166ea	-0.3464883
7	0xbd862493	-0.06549945
8	0xbe1ed8ea	-0.15512434
9	0xbf309531	-0.6897765
10	0x3bf3f83b	0.007445363
11	0x3e55675f	0.20840214
12	0xbd635674	-0.05550237
13	0x3ee72e5b	0.45152554
14	0x3ecf13f8	0.40444922
15	0xbf050490	-0.51960087
16	0x3eb8787e	0.36029428
17	0x3ed56b01	0.416832
18	0x3ce7223e	0.02821457
19	0x3f1fa285	0.6235736
20	0x3e43e555	0.19130452
21	0xbe39b2b2	-0.18134573
22	0x3ef98688	0.48735452
23	0x3d43ba99	0.047785375
24	0x3f210ca3	0.6290991
25	0x3dde5724	0.108564645
26	0xbdf58da1	-0.11989904
27	0x3cd8f63c	0.026484601
28	0xbdfa8c75	-0.12233821
29	0x3f08b3f6	0.533996
30	0x3dcd9875	0.100388445
31	0x3e47c4a8	0.19508612
32	0x3f4768cc	0.7789428
33	0x3f187907	0.59559673
34	0x3ef350c9	0.47522572
35	0xbd15fedf	-0.036620017
36	0x3e0257d5	0.12728818
37	0x3ed8261b	0.42216572
38	0xbe9b55aa	-0.30338794
39	0xbd82731a	-0.0636961
40	0xbec5a2de	-0.3860082
41	0xbefe7cdc	-0.49704635
42	0x3e2532ec	0.16132706
43	0x3e694d5b	0.22783415
44	0xbe6cb56e	-0.23116085
45	0x3e3c6f86	0.18401918
46	0xbe1c38ee	-0.15256092
47	0xbdeccb87	-0.11562257
48	0x3f0afaae	0.54288757
49	0xbd9780fd	-0.073976494
50	0x3dd7ffe4	0.10546854
51	0x3a60a21f	0.000856908
52	0xbf03a6ae	-0.5142621
53	0x3e807bf4	0.2509457
54	0xbe58eec9	-0.2118484
55	0xbe1207ec	-0.14260834
56	0x3e4d9738	0.20077217
57	0xbe3fbfac	-0.18725461
58	0x3cbda61a	0.023150492
59	0x3e970a75	0.29500166
60	0xbe02a3fe	-0.1275787
61	0xbcd35507	-0.02579738
62	0xbea31cb3	-0.31857833
63	0xbf9bc72b	-1.2170156
64	0x3da273f2	0.07932271
65	0x3d918abc	0.071065396
66	0x3bc445b5	0.005989755
67	0x3d800b53	0.0625216
68	0x3ef88627	0.4853985
69	0x3eb2fb71	0.3495746
70	0x3e50ec20	0.20402575
71	0xbc90d2f4	-0.017678715
72	0xbf1742b1	-0.5908614
73	0xbc27d793	-0.010244268
74	0x3ea9bf6a	0.3315385
75	0x3e8e4239	0.277849
76	0x3cdfe1b5	0.027329305
77	0x3ed2fd07	0.4120867
78	0x3f0dac2e	0.5534085
79	0x3f60fab7	0.8788256
80	0x3f780d91	0.968957
81	0x3f151c04	0.58245873
82	0x3dd8e6a9	0.1059087
83	0xbe8abdaf	-0.27097842
84	0xbe94ea2b	-0.29084906
85	0xbe84f1c2	-0.25965697
86	0xbe88849c	-0.26663673
87	0xbef7b6f5	-0.48381773
88	0xbef99ab3	-0.4875084
89	0xbd92d84e	-0.07170163
90	0x3dcebcd8	0.10094613
91	0x3ea2c8e1	0.31793883
92	0xbc585833	-0.013204622
93	0xbe405399	-0.1878189
94	0xbf3145dc	-0.6924722
95	0xbf580690	-0.84385014
96	0x3f212a49	0.6295515
97	0x3ef757d5	0.48309198
98	0x3e9f470e	0.31108898
99	0x3f00d23a	0.5032078
100	0x3e75dbec	0.24009675
101	0x3e525cd6	0.20543227
102	0x3e673d69	0.2258202
103	0xbe28ed24	-0.16496712
104	0xbdaac72c	-0.0833877
105	0xbdae9a86	-0.08525567
106	0xbd01127a	-0.03151176
107	0xbe0dce7f	-0.13848303
108	0x3d903415	0.07041184
109	0xbde9b2e4	-0.11411074
110	0xbdb40b98	-0.08791274
111	0xbd484d32	-0.048901744
112	0x3ea6d04e	0.325808
113	0x3e12ac87	0.14323626
114	0xbebeb496	-0.3724715
115	0xbe87dc40	-0.26535225
116	0xbebb40ae	-0.36572784
117	0xbf189755	-0.59605914
118	0xbec4e7cb	-0.38458094
119	0xbf1fbfdf	-0.6240215
120	0xbe61bb67	-0.22044145
121	0x3db80950	0.08986151
122	0xbd2ff041	-0.042953733
123	0x3e3c1e22	0.1837087
124	0x3d4a3ca8	0.049374253
125	0xbcf4d991	-0.0298889
126	0xbefb3cc6	-0.49069804
127	0xbf4d458b	-0.8018424
128	0x3c1d6ff7	0.009609214
129	0xbdb709d6	-0.08937423
130	0xbe5c56cc	-0.21517485
131	0xbe2df663	-0.1698852
132	0xbe8b11b6	-0.2716195
133	0xbe27213d	-0.16321273
134	0xbcf5c015	-0.029998818
135	0xbf251b08	-0.6449437
136	0xbe0bdae5	-0.1365772
137	0xbe340e08	-0.17583477
138	0xbf733e56	-0.9501699
139	0x3e808644	0.25102437
140	0xbf14c374	-0.5811074
141	0xbdbac117	-0.0911886
142	0x3eb8c39b	0.36086735
143	0xbf41ff22	-0.75779927
144	0x3ecb9f55	0.39769998
145	0xbe944bf2	-0.28964192
146	0xbf1324a2	-0.5747777
147	0x3eee467e	0.46538156
148	0xbead8243	-0.33888444
149	0x3e9e9eac	0.30980432
150	0x3ef4a875	0.47784773
151	0xbe8d65d4	-0.2761675
152	0xbd5228ce	-0.051308446
153	0x3d8e7491	0.06955827
154	0xbf12e4ad	-0.5738018
155	0x3eda4d51	0.42637113
156	0xbe7dcf6f	-0.24786161
157	0x3d62039c	0.055179223
158	0x3e4973d4	0.19673091
159	0xbe887bba	-0.26656896
160	0x3f620897	0.8829436
161	0x3eacb3ed	0.33731022
162	0xbf05b065	-0.5222228
163	0x3e552d56	0.20818076
164	0x3f33b248	0.7019391
165	0xbecfa0b4	-0.40552294
166	0xbd960fa5	-0.07327203
167	0x3f136a80	0.5758438
168	0x3e0fad3c	0.14030927
169	0x3f0ab408	0.54180956
170	0x3f01d0dd	0.50709325
171	0x3ee77d61	0.45212844
172	0xbefe3705	-0.49651352
173	0x3e1c7ebf	0.15282725
174	0x3ef807c1	0.48443416
175	0x3a87d536	0.0010363224
176	0x3e1a8fbb	0.15093891
177	0x3e96a5f0	0.29423475
178	0x3d2b5f1c	0.04183875
179	0xbe91e36f	-0.2849383
180	0x3e7bc80c	0.2458803
181	0x3d182398	0.03714332
182	0xbe9fd394	-0.3121611
183	0x3df3327f	0.11874866
184	0x3da7fa1e	0.08202003
185	0x3db413a6	0.0879281
186	0x3eaddb35	0.33956304
187	0x3ede0032	0.43359524
188	0xbdac4b4d	-0.084128
189	0xbe81b28a	-0.25331527
190	0xbea703e0	-0.32620144
191	0xbe515e13	-0.20446043
192	0xbf1597cf	-0.58434767
193	0xbeffe210	-0.4997716
194	0x3dba0794	0.09083477
195	0xbc8f104a	-0.017463822
196	0xbef30d87	-0.47471258
197	0x3f8c029f	1.09383
198	0xbebb0c63	-0.36532888
199	0xbf1c56cc	-0.6106994
200	0x3f96b1b3	1.177298
201	0x3eeb4d6c	0.45957506
202	0xbf8e46a8	-1.1115313
203	0x3f7c5499	0.98566586
204	0xbe5225e1	-0.20522262
205	0xbf25c5bd	-0.6475485
206	0x3f120f2a	0.5705439
207	0xbe720c25	-0.23637445
208	0x3e01be42	0.12670234
209	0x3ebe3186	0.37147158
210	0xbf022463	-0.5083677
211	0x3eff8a23	0.49910077
212	0x3cd208a6	0.02563889
213	0xbef31c87	-0.47482702
214	0x3e8cc759	0.2749584
215	0x3e2cf5f8	0.16890705
216	0xbe8a3916	-0.26996678
217	0x3f04ac99	0.51825863
218	0xbd16b75a	-0.03679595
219	0x3e492f38	0.19646919
220	0xbe061190	-0.13092637
221	0x3e0b7fde	0.13622996
222	0x3e63db4a	0.22251621
223	0xbe60d4d9	-0.21956195
224	0x3e2add97	0.16686092
225	0x3f681edf	0.90672106
226	0xbe6172bc	-0.22016424
227	0xbd5b9739	-0.053611014
228	0x3e99825c	0.2998227
229	0xbea8fd9f	-0.33005998
230	0x3eed9b23	0.46407422
231	0xbd524d8e	-0.051343493
232	0xbebdd9e2	-0.37080294
233	0x3f108529	0.56453186
234	0xbe63ad7d	-0.2223415
235	0xbc90484d	-0.0176126
236	0x3f01e48f	0.5073938
237	0xbefd2b54	-0.4944712
238	0x3de3dd9f	0.11126255
239	0xbd3a799a	-0.045526125
240	0xbedb3d32	-0.42820126
241	0x3f48e49c	0.7847383
242	0xbe40ac16	-0.18815646
243	0xbed4fc44	-0.41598713
244	0x3f0dcde4	0.5539229
245	0xbe5d564a	-0.21614948
246	0x3e3f4bc8	0.18681252
247	0x3e9d6660	0.30742168
248	0xbdc7d614	-0.09757629
249	0x3ef083a0	0.46975422
250	0xbeac4bdd	-0.3365163
251	0x3e5f11eb	0.21784179
252	0x3ea0f458	0.3143642
253	0xbe3479bb	-0.17624561
254	0x3eeba384	0.4602319
255	0x3f2dac8e	0.6784142

weight f4 [16, 16, 1, 1]
0	0xbd377442	-0.044788606
1	0x3f00e445	0.5034831
2	0xbdd279cd	-0.10277138
3	0x3f0bd50a	0.54621947
4	0x3e0d9a10	0.13828301
5	0xbe6df5ed	-0.23238344
6	0x3e6b690f	0.22989295
7	0x3e90eb0b	0.28304324
8	0xbee7be39	-0.45262316
9	0xbe7c78cd	-0.24655457
10	0x3d03253a	0.032017924
11	0xbd2cb7ee	-0.042167597
12	0xbfbac773	-1.4592117
13	0x3f540221	0.8281575
14	0xbdb96e17	-0.09054201
15	0x3e06217b	0.1309871
16	0xbe793db4	-0.24339944
17	0x3eff22eb	0.49831328
18	0x3df1bebc	0.11803958
19	0xbdc89cb6	-0.09795515
20	0x3e7b37c5	0.24532993
21	0xbe942617	-0.2893531
22	0xbc07c907	-0.008287675
23	0x3eb6a7d6	0.35674924
24	0xbc98e080	-0.018661737
25	0x3d5818e8	0.052758127
26	0xbe357c94	-0.17723304
27	0xbdb366b5	-0.08759824
28	0xbfc6eb39	-1.5540534
29	0x3f771f44	0.9653208
30	0xbb2d6cde	-0.0026462595
31	0x3d8bfc13	0.06835189
32	0xbe7ee608	-0.24892437
33	0xbeb6102c	-0.35559213
34	0xbe2f0c15	-0.17094453
35	0x3f39358c	0.7234733
36	0x3f8fb5a9	1.1227313
37	0x3b42034f	0.0029604023
38	0xbdb0a9ac	-0.08626112
39	0xbe71c7b8	-0.23611343
40	0x3e92b8d0	0.28656626
41	0x3e404091	0.1877463
42	0x3ecf715b	0.4051617
43	0xbed4f5f1	-0.41593888
44	0x3e66d102	0.22540668
45	0xbf3b4a7f	-0.73160547
46	0xbd27770b	-0.040885013
47	0xbe94b0ab	-0.29041037
48	0xbf0899b1	-0.53359514
49	0x3dad365a	0.08457632
50	0xbf40ebac	-0.75359607
51	0xbd3c85e8	-0.04602614
52	0x3f06cb45	0.52653915
53	0x3e2edf62	0.17077401
54	0x3e8d2615	0.27568117
55	0xbe95cb39	-0.2925661
56	0xbef0acdd	-0.47006884
57	0x3f3dc037	0.7412142
58	0xbec03f14	-0.37548125
59	0xbe06088b	-0.13089196
60	0x3e751087	0.23932086
61	0x3f163510	0.58674717
62	0x3f4e15d0	0.80502033
63	0x3ec7e6df	0.39043328
64	0xbe154798	-0.14578092
65	0x3e0f5c09	0.13999952
66	0xbea392bc	-0.31947887
67	0xbec30dfd	-0.3809661
68	0xbe294825	-0.16531427
69	0xbecd9375	-0.40151563
70	0x3f944547	1.1583642
71	0x3db9c4bc	0.09070727
72	0xbe813d5f	-0.25242135
73	0xbf277532	-0.654132
74	0xbf70e870	-0.9410467
75	0x3f772e32	0.96554863
76	0xbd7cb5fc	-0.06169699
77	0xbe3bbdae	-0.18334076
78	0x3dc74a33	0.09730949
79	0xbe99c303	-0.30031595
80	0x3d92a548	0.07160431
81	0xbe35b62c	-0.17745274
82	0x3eeae8ad	0.45880643
83	0xbeec829c	-0.46193397
84	0x3e358f64	0.1773048
85	0x3f534364	0.82524705
86	0x3f8c0215	1.0938135
87	0xbee5987b	-0.44842896
88	0xbdbe544f	-0.09293424
89	0xbebafa4a	-0.3651908
90	0xbf5d4748	-0.8643689
91	0xbdb46360	-0.08808017
92	0x3f19a656	0.60019433
93	0x3e9d89c5	0.30769172
94	0xbdf69d67	-0.12041741
95	0xbdcbb3a1	-0.09946371
96	0x3c315309	0.01082302
97	0x3e77b583	0.24190335
98	0xbeccf36c	-0.40029466
99	0xbd87044c	-0.065926164
100	0x3e2acd1c	0.16679806
101	0xbf2591a4	-0.64675355
102	0xbf1f74fd	-0.62287885
103	0xbe8e7298	-0.27821803
104	0xbedacab2	-0.4273277
105	0x3dd42dd5	0.10360304
106	0x3f5f8de6	0.87325895
107	0x3ee245aa	0.44193774
108	0x3efa7379	0.48916224
109	0xbf4a70a6	-0.7907814
110	0x3e8e258f	0.2776303
111	0x3eed3482	0.46329123
112	0xbe9d0f96	-0.30675954
113	0xbf140225	-0.5781577
114	0x3f6d860e	0.92782676
115	0xbf00e305	-0.50346404
116	0xbdb6a5bf	-0.08918332
117	0x3ed3af4e	0.41344684
118	0x3e25195c	0.16122955
119	0x3cd6d5fb	0.02622508
120	0x3f282c7c	0.6569288
121	0x3db64e78	0.089016855
122	0xbe8fa329	-0.2805417
123	0x3de6cb34	0.11269227
124	0x3e0f0e21	0.13970234
125	0x3ecdab8b	0.4016994
126	0xbe8a97d8	-0.27068973
127	0x3f5ead1c	0.86982894
128	0xbf1f9c66	-0.6234802
129	0xbf21209b	-0.62940377
130	0xbf2e47fa	-0.6807858
131	0x3e592dd7	0.21208893
132	0xbe9ed691	-0.31023076
133	0xbce219f5	-0.027600268
134	0x3ed58da0	0.41709614
135	0x3d24b466	0.040211104
136	0x3f4da934	0.8033631
137	0xbe9dcdbd	-0.30821028
138	0xbecd2c1c	-0.40072715
139	0x3e4da03e	0.20080659
140	0xbeff5661	-0.4987059
141	0xbe157517	-0.14595447
142	0xbf0a4009	-0.5400396
143	0x3f2bdd27	0.67134327
144	0xbf3e7ce6	-0.7440933
145	0xbe3403f9	-0.1757964
146	0xbe821909	-0.25409725
147	0x3ef74e61	0.48301986
148	0x3f561f30	0.8364134
149	0xbeca98d6	-0.3956973
150	0xbf55e606	-0.8355411
151	0x3d4b7a19	0.04967699
152	0x3ef094a5	0.46988407
153	0x3d3d3a40	0.04619813
154	0x3d9d449a	0.076791
155	0xbeb7a681	-0.3586922
156	0xbeb97feb	-0.36230406
157	0xbe939573	-0.28824958
158	0x3e24edd3	0.16106348
159	0xbec6fc66	-0.3886444
160	0xbd3c3c4c	-0.04595594
161	0xbee23a30	-0.4418502
162	0xbf24b254	-0.6433461
163	0x3da6472d	0.081190445
164	0xbf01bdeb	-0.50680417
165	0xbec502d9	-0.38478735
166	0x3e829230	0.25502157
167	0x3fa983dd	1.3243366
168	0xbeadf785	-0.33977905
169	0x3d32b65e	0.04363095
170	0xbc861d5e	-0.016371425
171	0x3ea9008d	0.33008233
172	0xbe868ff9	-0.26281717
173	0xbea2fdf4	-0.31834376
174	0xbf3da872	-0.7408515
175	0xbd48d9e9	-0.04903594
176	0x3e1f04d4	0.15529186
177	0xbf103658	-0.5633292
178	0xbf48aef0	-0.78391933
179	0x3eb30e65	0.3497192
180	0xbcbebaa4	-0.023282357
181	0x3ec1c743	0.37847337
182	0x3f3bb7bc	0.7332723
183	0xbeb75154	-0.35804236
184	0x3e5f6b1b	0.21818201
185	0xbe7345ed	-0.23757143
186	0xbf38c284	-0.7217181
187	0xbe69c0b7	-0.22827421
188	0x3ee66409	0.44998196
189	0xbf5c706d	-0.8610905
190	0xbecb2538	-0.39676833
191	0xbdc57330	-0.09641111
192	0x3e2324fe	0.1593208
193	0xbe988595	-0.29789415
194	0xbc9c3ad2	-0.019071016
195	0x3d643071	0.05571026
196	0xbdf0d89c	-0.11760065
197	0x3f08eeef	0.53489584
198	0x3e9458f7	0.28974125
199	0xbe645cdb	-0.22301047
200	0x3e42d7a1	0.19027568
201	0x3c87bcc0	0.016569495
202	0xbf3c7b44	-0.7362559
203	0xbe61ab54	-0.22038013
204	0x3f57ab94	0.8424618
205	0xbeb9821b	-0.36232075
206	0xbe72518c	-0.2366392
207	0x3f8a7bda	1.0819046
208	0xbf4b0b1d	-0.7931383
209	0x3e225275	0.15851767
210	0xbe48aa81	-0.19596292
211	0xbd7a38a4	-0.061089173
212	0x3e6c5359	0.2307867
213	0xbee4a357	-0.44655868
214	0xbedeef6a	-0.43542033
215	0xbf0f4ac1	-0.5597344
216	0x3e214772	0.1574991
217	0xbf107361	-0.56426054
218	0xbeaf8242	-0.34279066
219	0x3c3e4936	0.011614135
220	0xbe04ecba	-0.12980929
221	0xbdf306ce	-0.11866532
222	0x3f0ccd36	0.5500063
223	0xbf8c1c9b	-1.094623
224	0xbf4db37b	-0.8035199
225	0xbec6c2ff	-0.38820645
226	0x3de73a54	0.11290422
227	0x3ea44854	0.32086432
228	0xbde065c9	-0.10956914
229	0xbdba3ff0	-0.09094226
230	0xbf23d302	-0.6399385
231	0xbc133529	-0.008984842
232	0x3e763d81	0.240469
233	0x3f2b971e	0.6702746
234	0xbf852af1	-1.040373
235	0x3d88c540	0.066782475
236	0xbed5f413	-0.41787776
237	0x3ef4f05e	0.47839636
238	0xbd9ec990	-0.07753289
239	0x3f015d29	0.50532776
240	0xbeae5e75	-0.3405644
241	0x3d6d8371	0.05798668
242	0x3e665728	0.22494185
243	0xbe8f7f87	-0.28026983
244	0x3d4123f5	0.047153432
245	0x3d60dd43	0.05489851
246	0x3f61064f	0.8790025
247	0xbedd21f6	-0.43189973
248	0x3dcc2f6e	0.09969984
249	0xbf39aa6b	-0.7252566
250	0xbf8167c4	-1.0109792
251	0x3ecd426c	0.40089738
252	0x3d5288fa	0.051400162
253	0x3e0be868	0.13662875
254	0x3f0047cd	0.5010956
255	0xbf214f84	-0.63011956

weight f4 [16]
0	0x3f77ddb1	0.9682265
1	0x3f3a1944	0.726948
2	0x3f4e1cd0	0.80512714
3	0x3f381d66	0.7191986
4	0x3f8a53f2	1.0806868
5	0x3f5ed71e	0.8704699
6	0x3fb6fffc	1.429687
7	0x3f3b8b34	0.7325928
8	0x3f1fcd5e	0.6242274
9	0x3f380322	0.7187978
10	0x3f6c87a0	0.9239445
11	0x3f13d623	0.5774862
12	0x3f60278b	0.8756034
13	0x3f2c6bf6	0.67352235
14	0x3f639e1a	0.8891312
15	0x3f3ba729	0.7330194

bias f4 [16]
0	0xbeb13857	-0.34613296
1	0xbe4e0062	-0.20117334
2	0xbe358fdc	-0.17730659
3	0xbdd04a4b	-0.1017042
4	0xbe8b8054	-0.27246344
5	0xbe07fa0e	-0.13278982
6	0xbedda746	-0.43291682
7	0xbde048d0	-0.10951388
8	0xbd99a12e	-0.07501446
9	0xbde9cc8f	-0.114159696
10	0xbd16d828	-0.036827236
11	0xbd470331	-0.048587028
12	0xbdbf037d	-0.09326837
13	0xbc146e1d	-0.009059456
14	0xbe0c5efb	-0.13708107
15	0xbd714333	-0.058901977

running_mean f4 [16]
0	0xbd5ce32e	-0.053927593
1	0xbdc00a98	-0.093770206
2	0xbd692071	-0.056915704
3	0xbedebb58	-0.43502307
4	0xbe8c43e3	-0.27395543
5	0xbec1fa50	-0.37886286
6	0x3da370b7	0.07980483
7	0xbe9bd35d	-0.30434695
8	0x3d8912a8	0.066930115
9	0x3d5138be	0.051079504
10	0x3ced7204	0.028985031
11	0x3de9832a	0.11401971
12	0xbe88791f	-0.26654908
13	0x3ea26006	0.31713885
14	0xbd127b28	-0.035761982
15	0xbe420262	-0.18946221

running_var f4 [16]
0	0x4171755a	15.09115
1	0x4168c02a	14.546915
2	0x427835ff	62.05273
3	0x42224b5e	40.5736
4	0x42a8180d	84.046974
5	0x42800706	64.01372
6	0x428b4ae0	69.64624
7	0x4223c69a	40.943947
8	0x420e6e1f	35.60754
9	0x42418f43	48.389904
10	0x428c22f7	70.06829
11	0x4228e48d	42.223194
12	0x42730264	60.752335
13	0x42817059	64.71943
14	0x4231cada	44.448097
15	0x428bd111	69.90833

weight f4 [4, 128]
0	0x3cfc83ca	0.03082456
1	0x3dd67a67	0.10472565
2	0x3cedc66e	0.029025283
3	0x3c875075	0.016517857
4	0xbd3fce9b	-0.046827894
5	0x3cf94900	0.030430317
6	0xbd0bcd28	-0.0341312
7	0xbc1d2385	-0.009590988
8	0x3d82afd4	0.06381193
9	0x3e082e9f	0.13299035
10	0x3d1bfe09	0.038084064
11	0xbe300127	-0.1718794
12	0xbdf83e46	-0.12121253
13	0xbdbf1a4d	-0.09331188
14	0xbd868ef7	-0.06570237
15	0x3dcbf365	0.09958533
16	0xbefccf2d	-0.49376813
17	0x3d4fc0a6	0.050720833
18	0x3f29db81	0.6635056
19	0x3f244938	0.6417422
20	0x3f144689	0.5792013
21	0x3e8669e6	0.2625267
22	0x3ebbf853	0.36712894
23	0x3e87cda4	0.2652408
24	0xbf2ab68e	-0.66684806
25	0x3ec99d34	0.3937775
26	0x3e07f8cc	0.13278502
27	0xbe163f7d	-0.14672656
28	0x3e649ebf	0.22326182
29	0x3eb1acba	0.34702092
30	0x3e00393b	0.12521832
31	0x3db13aad	0.0865377
32	0x3da3b2f5	0.07993118
33	0xbce49359	-0.027902292
34	0xbe9be29f	-0.30446336
35	0xbd852f78	-0.065031946
36	0xbe660a8d	-0.22464962
37	0xbd3d6515	-0.046238977
38	0xbe33ce6e	-0.17559215
39	0xbe9a97c6	-0.3019392
40	0x3f437747	0.7635388
41	0x3ed2dea7	0.41185495
42	0xbcc21436	-0.023691278
43	0x3d50c815	0.050972063
44	0xbe9c9739	-0.30584124
45	0xbd6e2ef2	-0.05815024
46	0x3cea2e5f	0.028586565
47	0x3da83ecf	0.08215105
48	0xbe930596	-0.287152
49	0x3d945bc3	0.07244065
50	0xbdca248a	-0.098702505
51	0xbdc34326	-0.09534292
52	0xbc7c76d0	-0.0154091865
53	0xbe53f313	-0.20698194
54	0xbbd4e22b	-0.006496688
55	0xbea18c86	-0.31552523
56	0x3ee2b12c	0.44275796
57	0x3d1b7e78	0.037962407
58	0xbe25d676	-0.16195092
59	0xbe8ce19b	-0.27515873
60	0xbe918b51	-0.28426602
61	0xbd860858	-0.0654456
62	0x3e00e7f9	0.1258849
63	0x3e663a1e	0.22483107
64	0xbf00a320	-0.5024891
65	0xbddce52d	-0.10785899
66	0xbe409e30	-0.18810344
67	0x3df488f1	0.11940182
68	0x3d8ea1da	0.069644645
69	0x3d99a0b7	0.07501357
70	0xbe05b17f	-0.1305599
71	0xbe69bc75	-0.22825797
72	0xbebedcbe	-0.37277788
73	0x3e9c8391	0.30569127
74	0x3ef99d4b	0.48752818
75	0x3e34f7b5	0.17672618
76	0x3eea174d	0.45720902
77	0x3e4c8c75	0.19975455
78	0x3e5a664c	0.21328086
79	0x3e93dde2	0.2888022
80	0xbf75751b	-0.95881814
81	0xbf2089b1	-0.627101
82	0xbedc8fe5	-0.43078533
83	0xbdb2fa74	-0.087391764
84	0xbe78003f	-0.24218844
85	0xbe5b8645	-0.21437939
86	0xbf033216	-0.512483
87	0xbed04eb9	-0.4068506
88	0xbf1435ac	-0.57894397
89	0xbd236e0f	-0.039899882
90	0x3d9c311f	0.076265566
91	0x3ecbd4df	0.39810845
92	0x3e50163d	0.20320983
93	0xbaf6fa95	-0.001884299
94	0x3daccb34	0.084371954
95	0xbea5d050	-0.32385492
96	0xbea1cbf5	-0.3160092
97	0x3e0785cd	0.13234635
98	0x3dc0691a	0.093950465
99	0x3e303cde	0.17210719
100	0x3deb8665	0.11500243
101	0x3d8eaa7a	0.069661096
102	0x3e22a71b	0.15884058
103	0x3d9990d5	0.07498328
104	0x3eb2608f	0.34839293
105	0x3e1cd708	0.15316403
106	0x3e198038	0.14990318
107	0xbc20892b	-0.009798328
108	0x3de0d118	0.109773815
109	0x3e471a0c	0.1944353
110	0x3e0aada3	0.135428
111	0x3c97a9e0	0.01851362
112	0xbe9b7952	-0.30365998
113	0x3da9ddff	0.082942955
114	0x3c14ac28	0.009074248
115	0xbe419f68	-0.18908465
116	0x3e378870	0.1792314
117	0x3e8b34c6	0.271887
118	0xbd263202	-0.040575035
119	0x3d71c3ad	0.0590245
120	0x3f7c73ae	0.98614013
121	0x3e5c3d22	0.21507695
122	0xbd368907	-0.044564273
123	0xbe076647	-0.1322261
124	0xbdf24012	-0.11828627
125	0x3c2eca54	0.010668356
126	0x3d836cde	0.06417249
127	0xbd7451e3	-0.059648406
128	0x3dc6b78b	0.09702977
129	0x3d3df6ea	0.046378054
130	0x3d9ac798	0.07557601
131	0xbd684531	-0.05670661
132	0xbdd532e7	-0.104100995
133	0x3d148d7c	0.036267743
134	0x3c8607c7	0.01636113
135	0x3cbe57ad	0.023235166
136	0x3d3da2d6	0.04629787
137	0xbd50de71	-0.050993387
138	0x3d365fa8	0.04452482
139	0xbd668da3	-0.05628742
140	0xbde70d80	-0.11281872
141	0x3d6bbe12	0.057554312
142	0x3dce004b	0.1005865
143	0x3d3b5a93	0.045740675
144	0x3c4de152	0.012565928
145	0xbda04062	-0.0782478
146	0xbe200bad	-0.15629454
147	0x3dd34d89	0.10317523
148	0xbe064a0b	-0.13114183
149	0xbc18e53a	-0.009331996
150	0xbdcf0224	-0.1010783
151	0xbdd15484	-0.10221198
152	0x3ebad5ac	0.36491144
153	0xbe4a862a	-0.19777742
154	0xbe16e648	-0.14736283
155	0xbe7888f6	-0.24270996
156	0xbe98e4dd	-0.2986211
157	0xbe606771	-0.2191446
158	0xbcc1a8e7	-0.02364011
159	0x3e2f5ff3	0.17126445
160	0xbd9aacca	-0.07552488
161	0xbecae53d	-0.3962802
162	0xbf15e522	-0.58552754
163	0xbd613352	-0.054980583
164	0xbe3de295	-0.18543465
165	0xbe84f01e	-0.25964445
166	0xbe3f922f	-0.18708108
167	0xbeabfb2d	-0.3359007
168	0xbe744637	-0.2385491
169	0xbd1e38cb	-0.03862838
170	0xbe97a6de	-0.29619497
171	0xbdad492a	-0.084612206
172	0x3ddb2a1b	0.1070139
173	0x3cb9b082	0.022667173
174	0xbbc9b4b8	-0.0061555766
175	0xbda1f95a	-0.07908888
176	0xbc8f18cd	-0.01746788
177	0xbe98dae9	-0.29854515
178	0x3da5151d	0.08060668
179	0x3cc3cf70	0.023902625
180	0xbde30e63	-0.110867284
181	0xbe0f4910	-0.13992715
182	0xbe59972d	-0.21249075
183	0xbe0453e5	-0.12922628
184	0xbeb17ae7	-0.3466408
185	0x3e9e14bd	0.30875197
186	0x3d617eae	0.05505245
187	0x3e9b07ae	0.30279297
188	0x3ebe1c1e	0.37130827
189	0x3e76bc40	0.24095249
190	0x3e92a8e7	0.28644487
191	0xbd2a5c28	-0.041591793
192	0xbd8bcc97	-0.06826132
193	0x3d72a99a	0.059243776
194	0xbe831acd	-0.25606385
195	0x3e034839	0.1282052
196	0x3ef59b2a	0.47969943
197	0x3ea2a7b2	0.31768566
198	0x3e70bcb1	0.2350948
199	0x3eab40f4	0.33447993
200	0x3cccc655	0.024996916
201	0xbf337fef	-0.70117086
202	0xbea13714	-0.31487334
203	0x3e204109	0.15649809
204	0xbe17d5b9	-0.14827622
205	0xbd3f22f5	-0.046664197
206	0xbe5e1410	-0.2168734
207	0xbe0b1722	-0.13583043
208	0x3e510494	0.20411903
209	0x3e2a7028	0.16644347
210	0x3d8c612b	0.06854471
211	0xbbf3f776	-0.007445271
212	0x3dac428c	0.0841113
213	0x3d6d91d2	0.058000393
214	0x3d20ab49	0.03922585
215	0x3e384961	0.17996742
216	0xbd13bf39	-0.036071036
217	0xbdeeb0c6	-0.116548106
218	0xbea45eff	-0.32103726
219	0xbe57bb84	-0.21067625
220	0x3db5105c	0.08841011
221	0x3c2f0e5e	0.010684578
222	0xbde1603b	-0.11004683
223	0x3e866940	0.26252174
224	0x3da581c2	0.0808139
225	0x3ed220b0	0.41040564
226	0x3d8a7251	0.067600854
227	0x3e982d29	0.29721954
228	0x3e909eb2	0.28246075
229	0x3dfb2622	0.12263133
230	0x3e8be77c	0.27325046
231	0x3e34036b	0.17579429
232	0xbe9eb012	-0.30993706
233	0xbf951d4f	-1.1649569
234	0xbf2374e0	-0.6385021
235	0xbdbc610b	-0.09198197
236	0xbd686790	-0.05673939
237	0xbd83766f	-0.06419074
238	0xbe23f18d	-0.16010113
239	0xbe5ad5af	-0.21370576
240	0x3dfcda5d	0.12346337
241	0x3e948582	0.29008108
242	0xbda834af	-0.082131736
243	0x3dc7bda4	0.09752968
244	0x3e63bde2	0.22240403
245	0x3e11a64d	0.14223595
246	0xbe222fae	-0.15838501
247	0xbde3b0e9	-0.11117727
248	0xbf0e7461	-0.5564633
249	0xbf20a86f	-0.6275701
250	0xbf4506d9	-0.76963574
251	0xbc7b874c	-0.0153520815
252	0x3d1d384e	0.038383774
253	0xbd58ad33	-0.05289955
254	0xbe88af52	-0.2669626
255	0xbebdb18b	-0.37049517
