histories_pre_cls/04.30-11.15.13_64.65%_pt_LSTM_EEGNet_BcicIv2a_bs=032_lr=0.0800_ld=0.999870_k1=32_k2=16_do=0.50/best_valid_acc.pt (torch, 19778 bytes, 17 tensors)

weight f4 [8, 1, 1, 32]
0	0xc0a13e49	-5.038853
1	0xc080c4af	-4.024009
2	0xc055a3b7	-3.3381174
3	0xbffa17af	-1.9538478
4	0xbe99778b	-0.29974017
5	0x3fb51a37	1.4148625
6	0x4015e3a9	2.3420203
7	0x3fec2b0f	1.845064
8	0x3f455994	0.7708981
9	0xbc1eeb7a	-0.009699697
10	0xbf9ab1ff	-1.208557
11	0xc0025cd5	-2.036916
12	0xbfc3a0f5	-1.5283495
13	0x3e039ed0	0.12853551
14	0x3fd17e64	1.6366696
15	0x405a66b2	3.412518
16	0x40eabc71	7.335503
17	0x40a6ba73	5.21026
18	0x3fd81f18	1.6884489
19	0xbd91a37c	-0.0711126
20	0xbec3e079	-0.38257197
21	0x3eeca565	0.46219936
22	0x3fa4d3c9	1.2877132
23	0x401d1a30	2.4547234
24	0x40500673	3.2503936
25	0x405906e9	3.3910468
26	0x402f7d82	2.7420354
27	0x3feb082b	1.8361868
28	0x3f9c48c4	1.2209706
29	0x3f266b18	0.6500716
30	0xbf388f6d	-0.7209385
31	0xc01ac250	-2.41811
32	0xc0aac7b6	-5.336879
33	0xc0834d62	-4.103196
34	0xc04b06c8	-3.172289
35	0xbfe30f3a	-1.7739022
36	0xbf2c281a	-0.6724869
37	0xbdd46f46	-0.10372786
38	0x3e022a0a	0.12711349
39	0x3ed1b69a	0.40959626
40	0x3f5c35c2	0.8601953
41	0x3fcccb11	1.5999471
42	0x402802ff	2.6251829
43	0x404032ef	3.0031087
44	0x403b0208	2.921999
45	0x3ffd00b4	1.976584
46	0x3fdd8c9c	1.7308536
47	0x40224a15	2.5357716
48	0x40a46046	5.136752
49	0x407957ff	3.8959959
50	0x402d7098	2.7099972
51	0x3febe58c	1.8429427
52	0x3f8977a1	1.0739633
53	0x3fa8c1f6	1.3184192
54	0x3fb739e6	1.4314544
55	0x3fbf390b	1.4939283
56	0x3f37f6f1	0.7186118
57	0xbe863c9a	-0.2621811
58	0xbf87b87b	-1.0603174
59	0xbf8b5dc8	-1.0887995
60	0xbf84ad64	-1.0365415
61	0xbedda8b4	-0.43292773
62	0xbd680aa3	-0.05665077
63	0x3f32ac0a	0.6979376
64	0x403311e2	2.7979665
65	0x3f54673f	0.8297004
66	0xbebafc53	-0.36520633
67	0xbeb827ab	-0.35967764
68	0xbed3a719	-0.41338423
69	0xbe833e3a	-0.25633413
70	0x3d9652db	0.07340022
71	0xbf94568f	-1.1588916
72	0xc0319c31	-2.7751582
73	0xc05672b2	-3.3507504
74	0xc0528d27	-3.2898653
75	0xc06cd16f	-3.7002828
76	0xc06a0113	-3.6563156
77	0xbfb84cd3	-1.4398445
78	0x3ff94441	1.9473954
79	0x4096f2ae	4.717124
80	0x40b9c03a	5.804715
81	0x40759fa6	3.8378692
82	0x4041a350	3.0255928
83	0x409ac1e1	4.836167
84	0x40c8973c	6.268461
85	0x40c7956d	6.2369905
86	0x4075023e	3.8282619
87	0x3fb10145	1.3828512
88	0x3ed2ceac	0.41173303
89	0xbf733793	-0.95006675
90	0xc01ee7ce	-2.4828982
91	0xc066adb2	-3.6043515
92	0xc08357f0	-4.1044846
93	0xc0579bf1	-3.368893
94	0xbfe253de	-1.7681844
95	0xbfa32a34	-1.2747254
96	0x40c8c637	6.274196
97	0x4084023a	4.125272
98	0x3fae4a4a	1.3616421
99	0xbfbd3635	-1.4782168
100	0xc05bd80f	-3.4350622
101	0xc08b49de	-4.352767
102	0xc0491dec	-3.1424513
103	0xbfa694c2	-1.3014147
104	0xbbad4067	-0.0052872184
105	0x3faf2972	1.3684523
106	0x4036c726	2.855905
107	0x4069a389	3.6506064
108	0x4030e08b	2.763705
109	0x3fec9933	1.8484253
110	0x3e838805	0.25689712
111	0xc09d7fbe	-4.9218435
112	0xc18d0481	-17.6272
113	0xc0ead09a	-7.337964
114	0x3f98443c	1.1895823
115	0x404ff04d	3.2490418
116	0x404fcc1f	3.2468336
117	0x402654be	2.5989223
118	0x40081d4c	2.1267881
119	0x3fb1527b	1.3853296
120	0x3f82f4f5	1.0231005
121	0x3f278178	0.6543193
122	0x3f3c50cd	0.7356079
123	0x3f09c38a	0.53813994
124	0x3e013530	0.12617946
125	0xbeb45159	-0.35218313
126	0xbe4a5c00	-0.19761658
127	0x3fb579ac	1.4177756
128	0xc08ca902	-4.395631
129	0xc048c1bb	-3.1368244
130	0xbffd4c3a	-1.9788888
131	0xbf6ba752	-0.92052186
132	0x3ea47d7b	0.32126984
133	0x3f9499b3	1.1609405
134	0x3f808bb5	1.0042635
135	0x3f8666ab	1.0500082
136	0x3f823313	1.0171837
137	0x3fc206d4	1.5158334
138	0x400dc299	2.2150023
139	0x404338f4	3.0503511
140	0x405ef179	3.4834883
141	0x40598d98	3.3992672
142	0x40417c2e	3.0232043
143	0x408bc6c3	4.368013
144	0x412e1eeb	10.882548
145	0x40be5ec2	5.949067
146	0x403c4d64	2.9422235
147	0x405e3390	3.4718971
148	0x40640184	3.5625925
149	0x401845e8	2.3792667
150	0x3fa52054	1.2900491
151	0x3f9061c9	1.1279842
152	0x3facd7d9	1.3503371
153	0x4010be7b	2.261626
154	0x3fe11a72	1.7586195
155	0x3f2548c9	0.64564186
156	0xbe2e2a74	-0.17008382
157	0xbe7664b8	-0.24061859
158	0xbe62c1fd	-0.22144313
159	0xbd9b0662	-0.07569577
160	0xbf08020e	-0.53128135
161	0xbf233d76	-0.63765657
162	0x3fc49138	1.5356817
163	0x4063e8d2	3.5610852
164	0x400458da	2.067923
165	0xbfb1f75e	-1.3903615
166	0xc0b89c3f	-5.769073
167	0xc0def400	-6.967285
168	0xc03b86e3	-2.9301078
169	0x4087bfec	4.242178
170	0x411061b0	9.0238495
171	0x40ef8e66	7.4861326
172	0x3efbba68	0.49165654
173	0xc083934b	-4.11173
174	0xc097ed10	-4.7476883
175	0xbf849a58	-1.0359602
176	0x3ebf3e72	0.3735233
177	0xc00b95cb	-2.1810176
178	0xc06aff20	-3.6718216
179	0xc02c3188	-2.6905231
180	0x3d0716fd	0.032980908
181	0x40560fc7	3.344713
182	0x408dd927	4.432758
183	0x408672a9	4.2014966
184	0x3fe0c28d	1.7559372
185	0xbf2cc181	-0.67482764
186	0xbffca9b0	-1.9739285
187	0xc03a1ff1	-2.9081995
188	0xc01c4d5c	-2.4422216
189	0xbfc0562b	-1.5026296
190	0xbe8062de	-0.2507543
191	0x4061ba74	3.5270052
192	0xc0842ecd	-4.130713
193	0xc04018bf	-3.0015104
194	0xc01de27b	-2.4669483
195	0xbfe321d1	-1.7744695
196	0xbf8404a7	-1.031392
197	0x3d605c13	0.05477531
198	0x3ea1959e	0.3155946
199	0x3e11ccba	0.14238253
200	0x3e97bb71	0.29635194
201	0x3f8b8e6e	1.0902841
202	0x3fce20a8	1.6103716
203	0x3fbc0309	1.4688426
204	0x3f8accad	1.0843712
205	0x3f900f87	1.1254739
206	0x4016e477	2.3576944
207	0x406ae153	3.6700027
208	0x40bdfb25	5.9369073
209	0x40b05a22	5.5110025
210	0x4080f22b	4.0295615
211	0x403f83c6	2.9924178
212	0x3fa2d50c	1.2721267
213	0x3f390a39	0.72281224
214	0x3f0d9e2f	0.55319494
215	0x3f425202	0.75906384
216	0x3f82f93a	1.0232308
217	0x3fb20ced	1.3910195
218	0x3fbb1bbd	1.461784
219	0x3f8e3df8	1.1112661
220	0x3fb86b39	1.4407722
221	0x40205585	2.5052197
222	0x4020cbfa	2.5124497
223	0x3ff5828c	1.9180465
224	0xc0871949	-4.2218366
225	0xc06f1276	-3.7355018
226	0xc04004a0	-3.0002823
227	0xc024ac23	-2.5730064
228	0xbff6bf75	-1.9277178
229	0xbfe5963f	-1.7936476
230	0xbfeb0354	-1.8360391
231	0xbfb42a8f	-1.4075488
232	0x3e08f243	0.13373666
233	0x40057707	2.0853899
234	0x40841198	4.1271477
235	0x40acff5f	5.406173
236	0x40963777	4.6942706
237	0x4068615a	3.6309419
238	0x402a6ad3	2.66277
239	0x402c641f	2.693611
240	0x40b7c13e	5.742339
241	0x40189c9d	2.384559
242	0xbd63e0dd	-0.05563437
243	0xbee39d18	-0.4445579
244	0xbe62e88b	-0.2215902
245	0x3e15d08a	0.14630333
246	0x3ea0eb84	0.31429684
247	0x3f8fa28c	1.122148
248	0x400cbefd	2.199157
249	0x406c2cb5	3.6902287
250	0x4063afe3	3.5576103
251	0x3fe819ad	1.8132836
252	0x3ef087fe	0.46978754
253	0x3eeb5628	0.4596417
254	0x3fa2d79d	1.272205
255	0x3ff4fb7d	1.9139248

weight f4 [8]
0	0x40c697dc	6.2060375
1	0x40a58c5c	5.1733837
2	0x407b78b4	3.9292421
3	0x415cb94a	13.795237
4	0x40abf795	5.3739724
5	0x3dcd36f4	0.10020247
6	0x4111c024	9.109409
7	0x4125ed87	10.37049

bias f4 [8]
0	0x3e4e9e92	0.20177677
1	0x3fc4fd98	1.5389891
2	0x3eddac78	0.43295646
3	0x3edf01d9	0.43556097
4	0x3f85b877	1.0446919
5	0x3ee7450d	0.4516987
6	0xbec3b6ea	-0.3822549
7	0x3c35ac2f	0.011088415

running_mean f4 [8]
0	0x412298ca	10.162302
1	0x411c7a14	9.779804
2	0x40838612	4.110116
3	0xbf814776	-1.0099933
4	0x41cffcb6	25.998394
5	0xbe639348	-0.22224152
6	0x418f51ee	17.915005
7	0x416b4fe8	14.707008

running_var f4 [8]
0	0x41cd5fab	25.671713
1	0x41aec6af	21.847013
2	0x41fe73ba	31.806507
3	0x42091f37	34.280483
4	0x4273df4b	60.96806
5	0x41a5a4c7	20.705458
6	0x421263dc	36.59752
7	0x421195af	36.396175

weight f4 [16, 1, 22, 1]
0	0x3e7a987c	0.2447223
1	0x3d6db3ef	0.058032926
2	0x3d89581a	0.06706257
3	0xbdc4e8d7	-0.09614723
4	0xbe5fc345	-0.21851833
5	0xbe472f54	-0.19451648
6	0x3d4004c0	0.04687953
7	0x3e9534f9	0.29141977
8	0x3d9431cf	0.07236063
9	0xbe86a50c	-0.26297796
10	0xbe9a3265	-0.30116573
11	0xbea63e17	-0.32469246
12	0x3e8ead9c	0.27866828
13	0x3e3bde70	0.18346572
14	0x3d7edef9	0.062224362
15	0xbdb76f6f	-0.08956801
16	0x3d0c769c	0.034292802
17	0x3de219bb	0.11040064
18	0xbe6e6b51	-0.23283125
19	0xbe9490dc	-0.2901677
20	0x3ebc1cc2	0.3674069
21	0x3e87454a	0.2642005
22	0x3c57a017	0.013160727
23	0xbcf8f7b2	-0.030391548
24	0xbe58ae1b	-0.21160166
25	0xbd0c9d91	-0.034329955
26	0x3d56d515	0.052449305
27	0x3e4011c9	0.18756784
28	0x3d91efcf	0.07125818
29	0x3e480ab0	0.19535327
30	0xbe880232	-0.26564175
31	0x3b4b375a	0.0031008334
32	0xbd6e1ba2	-0.05813182
33	0x3ba344e7	0.004982579
34	0x3e48ecad	0.19621535
35	0xbdc1b0a8	-0.09457523
36	0xbeaf2fcd	-0.34216157
37	0x3da7c2b0	0.081914306
38	0xbc74b4a9	-0.014935651
39	0xbe7d3824	-0.24728447
40	0xbb72b49d	-0.0037033923
41	0xbe3fdae2	-0.18735841
42	0xbadf62b5	-0.0017042967
43	0x3f3a624b	0.72806233
44	0x3eac8e08	0.3370211
45	0x3b0c57d2	0.002141465
46	0x3dba82a2	0.091069475
47	0x3d7c2132	0.061555095
48	0x3d3a9841	0.045555357
49	0xbe09df0a	-0.13463989
50	0xbe1b6622	-0.1517568
51	0x3e710523	0.23537116
52	0xbc53ea93	-0.012934345
53	0xbe765347	-0.24055205
54	0xbe11af7d	-0.142271
55	0x3ea64dd9	0.32481268
56	0xbe71b8c5	-0.2360564
57	0xbe8e026a	-0.27736217
58	0xbe6d777a	-0.23190108
59	0x3d8aaace	0.0677086
60	0x3e0c850e	0.13722631
61	0xbb8a80c1	-0.0042267744
62	0xbe9513d9	-0.29116705
63	0x3e1b215f	0.15149449
64	0x3d23c142	0.039979227
65	0x3f05a283	0.522011
66	0xbe253f8e	-0.16137525
67	0x3cd7d076	0.02634452
68	0xbd62769c	-0.055288896
69	0xbdbe94c4	-0.093057185
70	0x3e3836a5	0.17989595
71	0x3ea56519	0.32303694
72	0xbe3740f2	-0.17895868
73	0x3e0bee49	0.13665117
74	0xbe205390	-0.15656877
75	0xbe831f4c	-0.25609815
76	0x3e325595	0.1741546
77	0x3edad5f8	0.4274137
78	0xbeaddaea	-0.3395608
79	0x3eb589cd	0.35456696
80	0xbd33c10f	-0.043885287
81	0xbe97b567	-0.29630587
82	0xbc0fbd2f	-0.008773132
83	0x3d4f93cf	0.05067807
84	0x3e3a9398	0.18220365
85	0xbe82eb51	-0.25570157
86	0xbde0caee	-0.10976206
87	0x3e27f970	0.16403747
88	0x3e644306	0.22291192
89	0xbe9f4abb	-0.31111702
90	0xbe5566e9	-0.20840038
91	0xbd29e172	-0.041474767
92	0x3d89435e	0.067023024
93	0x3e48b575	0.1960047
94	0x3d4d370a	0.050101317
95	0x3e851ceb	0.25998625
96	0xbde051d0	-0.109531045
97	0xbd9de58f	-0.077098005
98	0x3db05ae2	0.086110845
99	0x3e389aa1	0.18027736
100	0xbeac218c	-0.33619344
101	0x3ea4e5c8	0.3220656
102	0xbd033114	-0.032029226
103	0xbc4a3d0e	-0.012343658
104	0x3d490d9a	0.049085237
105	0xbe691cca	-0.22764888
106	0xbcaa6c12	-0.020803485
107	0xbdf28708	-0.118421614
108	0xbe1dd7af	-0.15414308
109	0x3f1231e7	0.57107395
110	0x3e0b6d2f	0.13615869
111	0x3e32ca3b	0.17459957
112	0x3de4455a	0.1114604
113	0xbb0db686	-0.0021623685
114	0xbeb0c368	-0.34524083
115	0xbeb335ed	-0.3500208
116	0xbe1b91da	-0.15192357
117	0xbdaed486	-0.085366294
118	0x3e13a85c	0.14419693
119	0x3da42ee6	0.08016758
120	0xbda58cfa	-0.0808353
121	0x3ce04b3b	0.027379623
122	0x3c9d2731	0.019183727
123	0xbedb6d8e	-0.4285702
124	0xbddd5de7	-0.10808926
125	0x3d0be405	0.034153003
126	0x3e1dac8b	0.15397851
127	0x3eaa1bff	0.33224484
128	0xbe7c42ae	-0.24634811
129	0x3e83eb6d	0.25765553
130	0x3e8d8e7c	0.2764777
131	0x3e9be6ae	0.30449432
132	0xbe680d7e	-0.22661397
133	0xbd216fb7	-0.03941318
134	0x3da1ba0c	0.07896814
135	0x3e4a40aa	0.1975123
136	0x3e04520a	0.1292192
137	0x3e45e827	0.1932684
138	0x3bab9c46	0.005237135
139	0xbeb230e3	-0.34802923
140	0xbdf5421e	-0.119755015
141	0xbe360a05	-0.1777726
142	0x3e1ce4ca	0.15321651
143	0x3d80a507	0.062814765
144	0xbdf5c3db	-0.12000247
145	0x3dae12ce	0.084996805
146	0xbd11f505	-0.03563406
147	0xbed9be31	-0.42527917
148	0xbe8afd70	-0.27146482
149	0xbce11af3	-0.02747867
150	0x3eef5b48	0.4674933
151	0x3ec8d4a4	0.39224732
152	0x3d2f0f12	0.04273898
153	0xbce9962d	-0.028513992
154	0x3df2f63e	0.11863373
155	0x3d031434	0.03200169
156	0xbde24b67	-0.11049538
157	0xbe53b9ad	-0.20676298
158	0x3e07fa75	0.13279136
159	0xbd947653	-0.07249131
160	0x3d22744a	0.039661683
161	0x3e3ac601	0.18239595
162	0xbe14e386	-0.14539918
163	0x3cc9a799	0.02461605
164	0xbe999c14	-0.3000189
165	0x3d1ba2d5	0.037997086
166	0x3dbbe0c4	0.0917373
167	0xbe801ed7	-0.2502353
168	0xbdddcc13	-0.1082994
169	0x3f3ae835	0.7301057
170	0x3da200ce	0.0791031
171	0xbe09753b	-0.13423626
172	0xbd25639d	-0.0403782
173	0x3e7317f3	0.23739605
174	0xbe69d365	-0.22834547
175	0xbdbed3cd	-0.093177415
176	0x3eaf8971	0.34284547
177	0xbdf3956c	-0.11893734
178	0x3c8fcef8	0.017554745
179	0x3e483e47	0.19555007
180	0xbe4ff7a0	-0.20309305
181	0xbe5a8f91	-0.21343829
182	0x3e3bbcbf	0.1833372
183	0xbeba99f6	-0.36445588
184	0x3bc2d7cb	0.0059461347
185	0x3e933ce9	0.28757408
186	0x3db142a7	0.08655291
187	0xbea2fa63	-0.31831655
188	0xbd776bad	-0.060405422
189	0xbe5c35ce	-0.215049
190	0x3df60820	0.120132685
191	0x3e2ce6e7	0.16884957
192	0x3e466145	0.19373043
193	0x3e0a1e82	0.134882
194	0xbd75e612	-0.060033865
195	0x3e7dd994	0.2479003
196	0x3e32c4a4	0.17457825
197	0xbebfefcc	-0.37487638
198	0x3d3e6253	0.046480488
199	0xbd547048	-0.051864892
200	0x3e17600c	0.14782733
201	0x3d92efe5	0.071746625
202	0xbd8519ac	-0.06499037
203	0xbe3d0fb2	-0.18463019
204	0xbe25fe06	-0.16210184
205	0x3eb50631	0.35356286
206	0x3e218cf5	0.15776427
207	0xbe87f83f	-0.26556584
208	0x3d252c07	0.04032519
209	0x3ef10f8a	0.47082168
210	0xbe2488be	-0.16067788
211	0x3e309c6a	0.17247167
212	0xbd9fb008	-0.07797247
213	0xbee9e22e	-0.45680374
214	0xbcf9bdbc	-0.03048598
215	0x3e97c94e	0.2964577
216	0xbe6bc2f4	-0.23023587
217	0xbc676aa5	-0.014124547
218	0x3ba4f869	0.0050344956
219	0x3e5df78c	0.21676463
220	0x3c5d8b5d	0.013521996
221	0xbeb07213	-0.34462032
222	0xbd90f4d2	-0.07077946
223	0xbdbba5a1	-0.091624506
224	0x3e2e6016	0.17028841
225	0x3cbf4d37	0.023352249
226	0xbe2aa320	-0.1666379
227	0x3ebe2f6e	0.3714556
228	0xbdf0e85b	-0.11763068
229	0xbea8a7e3	-0.32940587
230	0x3ceee664	0.029162593
231	0xbda7c6ee	-0.0819224
232	0xbdc322f8	-0.09528154
233	0x3f1389fc	0.5763242
234	0x3e609453	0.21931581
235	0xbe460726	-0.19338664
236	0x3d707a0b	0.05871014
237	0x3dc79ac7	0.09746318
238	0xbd1c3996	-0.038140856
239	0xbe06ce89	-0.13164724
240	0x3e5f5557	0.21809898
241	0xbe296694	-0.16543037
242	0xbe6c5f09	-0.23083128
243	0x3d7641f8	0.060121506
244	0xbe079747	-0.13241301
245	0x3e3855c7	0.18001471
246	0x3e713562	0.2355552
247	0x3ee7f831	0.45306543
248	0x3d9becce	0.07613526
249	0xbe016b77	-0.12638651
250	0xbcfd15ff	-0.030894278
251	0x3e806d66	0.25083464
252	0x3c2d57d7	0.010580025
253	0xbeda53c3	-0.4264203
254	0x3c8f1dd5	0.01747028
255	0x3d344c9c	0.044018373

weight f4 [16]
0	0x3fdc9258	1.723216
1	0x402553ac	2.583232
2	0xc082bc44	-4.0854816
3	0x3fcb8356	1.5899456
4	0x408cc960	4.399582
5	0x410b30de	8.69943
6	0x409a6521	4.824845
7	0x404dc940	3.2154083
8	0x3fc7fc4d	1.5623871
9	0x3f9768f1	1.18289
10	0x4111a43f	9.102599
11	0x41024160	8.140961
12	0x3fb29f5b	1.3954881
13	0x40340b65	2.8131955
14	0x3fcabe0f	1.5839251
15	0x3fdc6f34	1.7221437

bias f4 [16]
0	0xbf241d1d	-0.64106923
1	0xbeed2122	-0.4631434
2	0xbf6c3415	-0.9226697
3	0xbed0555b	-0.4069012
4	0xc072753e	-3.788406
5	0x3ec512de	0.38490957
6	0xbf9a2868	-1.2043581
7	0xbfd00056	-1.6250103
8	0xbe1ffcc2	-0.15623763
9	0xbe4dc8fd	-0.20096202
10	0xc0af6f45	-5.4823327
11	0xc0891e6e	-4.2849646
12	0x3d6816b8	0.05666229
13	0xbf75020a	-0.95706236
14	0xbd58d083	-0.052933227
15	0x3e8cfec7	0.2753813

running_mean f4 [16]
0	0xbe010b27	-0.1260191
1	0x3d984f5c	0.074370116
2	0x3e3dd8f6	0.18539795
3	0x3f05582c	0.52087665
4	0x3e2f7deb	0.17137878
5	0x3d1962b3	0.037447643
6	0xbd48cd02	-0.049023636
7	0x3d092e80	0.03349161
8	0xbee6de85	-0.45091644
9	0x3ee0fe3d	0.43943968
10	0xbcbda25b	-0.023148706
11	0x3bd3c2c1	0.0064624255
12	0x3e3b83c5	0.18311985
13	0x3f696111	0.91163737
14	0xbd9e7ce8	-0.07738668
15	0xbda8aca6	-0.08236055

running_var f4 [16]
0	0x4100abd2	8.041948
1	0x40f7f6d0	7.7488785
2	0x408453da	4.135236
3	0x4026e68e	2.607822
4	0x402a52d0	2.6613045
5	0x40798c13	3.8991745
6	0x41dd6ee9	27.679155
7	0x4117c188	9.484749
8	0x40ccdafd	6.401732
9	0x408c1a4f	4.3782115
10	0x3b390800	0.0028233528
11	0x3ae05711	0.0017115792
12	0x417d9730	15.849411
13	0x41d08a62	26.06757
14	0x4144d0eb	12.301005
15	0x41edd1b8	29.727402

weight f4 [16, 1, 1, 32]
0	0x40d9c6bf	6.805511
1	0x40528003	3.2890632
2	0x3e8aece3	0.27133855
3	0xc07a6d9e	-3.9129405
4	0xc0a8ed5d	-5.278975
5	0xc06cb1d3	-3.6983535
6	0xc00b4f68	-2.1767216
7	0xc028c56b	-2.6370494
8	0xc06b4aef	-3.6764486
9	0xc084454d	-4.1334596
10	0xc02742bf	-2.6134489
11	0xbf8e4314	-1.1114221
12	0xbe4e4aa4	-0.2014566
13	0xbfad8d24	-1.3558698
14	0xc084af96	-4.146434
15	0xc09d3b26	-4.9134703
16	0xc08b2270	-4.347954
17	0xc03387aa	-2.8051553
18	0x3f5fba74	0.8739388
19	0x3f4709b4	0.7774918
20	0x408bebfc	4.3725567
21	0x3fc78754	1.5588174
22	0x3f83aed7	1.0287732
23	0xbfac2d0d	-1.3451248
24	0xc073c6c0	-3.8090057
25	0xc0465f5a	-3.0995698
26	0xc0081c77	-2.1267374
27	0x3f90463c	1.1271434
28	0x3fa5228b	1.2901167
29	0x400f1826	2.235849
30	0x3ff5cec3	1.9203724
31	0x400807fc	2.1254873
32	0xc07f1b9f	-3.9860609
33	0xbf3918ad	-0.7230328
34	0x4055e1b4	3.3419008
35	0x3f94d0b7	1.1626195
36	0xbfd28245	-1.6446005
37	0xc0496078	-3.146513
38	0xc08c55bb	-4.385465
39	0xbf19355e	-0.59847057
40	0x408b6573	4.356134
41	0x4108f092	8.558733
42	0x410138c6	8.076361
43	0x40ce9cf8	6.456661
44	0x403c398c	2.9410124
45	0xbfd9c1d8	-1.7012281
46	0xbfbfe875	-1.4992815
47	0xbf7cfc2b	-0.9882228
48	0x3fa2f814	1.2731957
49	0x3ff69420	1.9263954
50	0x3fa0eb09	1.2571727
51	0x3f0a9da5	0.54146796
52	0x3ebffd0a	0.3749774
53	0xbf0a61a7	-0.54055256
54	0xbfcc9a5c	-1.5984607
55	0x3f6503b6	0.8945879
56	0x3e9ebcae	0.31003326
57	0x3f876f7a	1.0580895
58	0x3f7709ef	0.9649953
59	0xbe010534	-0.12599641
60	0xbfe6c8b4	-1.803
61	0xc06125f3	-3.5179412
62	0xbccdd7f4	-0.025127389
63	0x3c0f6555	0.008752187
64	0x406568b4	3.5845156
65	0x3f2a9f2f	0.66649145
66	0x3e6e256a	0.2325646
67	0xbf0afa54	-0.5428822
68	0xbda86ff6	-0.0822448
69	0xbef8e488	-0.48611856
70	0xbffb09a4	-1.9612317
71	0xbf8ec634	-1.1154237
72	0x3f8a48f9	1.080352
73	0x409bc8db	4.8682685
74	0x40a33eac	5.1014004
75	0x3f8e65db	1.1124834
76	0xc029e232	-2.6544309
77	0xc003bb54	-2.0583086
78	0xbd7c19de	-0.061548106
79	0x3fbeef5b	1.4916795
80	0x406bd281	3.6847231
81	0x3fb4f7a4	1.4138074
82	0xbf303480	-0.6883011
83	0x400129b9	2.0181715
84	0x401374df	2.3040082
85	0x400c50d0	2.1924324
86	0x3fa160bf	1.260765
87	0xc00a9732	-2.1654782
88	0xc05b2f3d	-3.4247582
89	0x3e09f370	0.1347177
90	0x3f64ed47	0.89424556
91	0xbf30c422	-0.69049275
92	0xbf839823	-1.0280803
93	0xc099bdac	-4.8044033
94	0xc081ed6e	-4.060233
95	0xc04bd714	-3.1850023
96	0x40d16536	6.543605
97	0x401ec4b7	2.4807565
98	0xbfcdd634	-1.6080995
99	0xc0aeeb31	-5.46621
100	0xc0e9d967	-7.3077884
101	0xc08f3a03	-4.4758315
102	0xc0589628	-3.3841648
103	0xc0539535	-3.3059819
104	0xc0949d4f	-4.6442027
105	0xc05a1712	-3.407658
106	0xbfc40802	-1.5314944
107	0x3ee9b7cb	0.45648035
108	0x4001050a	2.0159326
109	0xbe3b5286	-0.18293199
110	0xbe405777	-0.18783365
111	0xbf034087	-0.51270336
112	0xbfb18354	-1.3868203
113	0xbf233899	-0.63758236
114	0x3fe2eaa4	1.7727857
115	0x40533bb8	3.30052
116	0x40819cde	4.050399
117	0x406282d0	3.5392342
118	0x40077b35	2.116895
119	0x3e73d03e	0.23809907
120	0xbfafa094	-1.372088
121	0xbf2065ac	-0.6265514
122	0xbe385fdb	-0.18005316
123	0xbf75d691	-0.9603053
124	0xc04a49d6	-3.1607566
125	0xbf59a756	-0.8502096
126	0x3f99f1fd	1.2026974
127	0x401e0ed7	2.4696558
128	0x40fe4afb	7.946653
129	0x41071056	8.441488
130	0x403b71cf	2.9288213
131	0xbe935630	-0.28776693
132	0x3f5a2da0	0.8522587
133	0x405769dd	3.3658364
134	0x405636ed	3.3471024
135	0xbfa3478e	-1.2756212
136	0xc0a456af	-5.1355815
137	0xc0a9f3fe	-5.311034
138	0x3ea1d62b	0.3160871
139	0x3fcc2cb9	1.5951148
140	0x408e5d14	4.448862
141	0x3fbff93b	1.4997934
142	0xbfbc2b66	-1.4700744
143	0xbeecd684	-0.46257412
144	0xc08eb857	-4.4600024
145	0xbfe72872	-1.8059218
146	0x3ff3fed5	1.9062144
147	0x3f11e73d	0.56993467
148	0x3f1935f3	0.59847945
149	0x3ff0cb04	1.8811955
150	0xbfd50199	-1.6641113
151	0xc0632358	-3.5490322
152	0x40123127	2.28425
153	0x40071ca2	2.1111226
154	0xc0125615	-2.286504
155	0x407b4936	3.9263434
156	0x3f847f35	1.035132
157	0x3e6e81b2	0.23291662
158	0x3dee60a7	0.11639529
159	0xc106ae86	-8.417608
160	0xc068280c	-3.6274443
161	0xbfe9dd85	-1.8270727
162	0x40599ddb	3.4002597
163	0x40803397	4.0062976
164	0x40458c85	3.0867016
165	0xbca57636	-0.020197969
166	0xc00cc103	-2.1992805
167	0xc0a9697d	-5.294127
168	0xc021bc98	-2.5271358
169	0xc07c1b41	-3.9391634
170	0x3f83d7f9	1.0300285
171	0x40f408dc	7.6260815
172	0x40ce5acb	6.448583
173	0x3ec0f410	0.37686205
174	0xc08a9924	-4.331194
175	0xc04cf2ef	-3.2023275
176	0xc0412f33	-3.0185058
177	0xc0853313	-4.1624846
178	0x406699d6	3.6031394
179	0x40bf7d39	5.984036
180	0x40e8074a	7.25089
181	0xc0677eea	-3.6171212
182	0xc0b49df1	-5.64428
183	0x3e91f583	0.28507623
184	0x3f9098c1	1.1296617
185	0x3eb7c5c3	0.35893068
186	0xbf5d846e	-0.86530197
187	0x405c5a65	3.4430172
188	0x4086cc6e	4.212455
189	0xbf0126e0	-0.50449944
190	0xc08f5d47	-4.4801364
191	0x3e655863	0.22396998
192	0x416bda05	14.740727
193	0x4099ffaa	4.812459
194	0xbebdcab9	-0.37068728
195	0xc043930d	-3.0558503
196	0xc00ea6b1	-2.228924
197	0xc05792ea	-3.368342
198	0xc07b8ce0	-3.9304733
199	0xc03bacc8	-2.9324207
200	0xc031c9ac	-2.777934
201	0x3f836734	1.026587
202	0x404f5c4a	3.2400079
203	0x3f98a9c8	1.1926813
204	0x3f866039	1.0498115
205	0x3f5b829a	0.8574616
206	0xc058ab2a	-3.385447
207	0xbfacc855	-1.3498636
208	0xc05f05c0	-3.484726
209	0xbfe9e59e	-1.8273199
210	0x40827f6f	4.078056
211	0x4069b37c	3.6515799
212	0xbf7734ac	-0.96564746
213	0x3fee1653	1.8600563
214	0xbf8548a9	-1.0412799
215	0xbf5ad8b2	-0.854869
216	0xbd15dd67	-0.0365881
217	0xbfd8fd3e	-1.6952283
218	0xbf71bfc3	-0.9443323
219	0xbe5511ba	-0.20807543
220	0x3f511c01	0.81683356
221	0x3f80be2e	1.0058038
222	0x4036aa57	2.8541467
223	0x3f373ca5	0.7157691
224	0x3ddbb69d	0.1072819
225	0x402f479d	2.738746
226	0x404f93e0	3.2434006
227	0x40ede772	7.4345026
228	0x413c9005	11.785161
229	0x411caf4c	9.792797
230	0x40bc971a	5.893445
231	0x40a7caef	5.243522
232	0x406fde09	3.747927
233	0x3fe11f5c	1.7587695
234	0x3fed9ec8	1.8564081
235	0xbf4beaac	-0.79654956
236	0xc00cd9a2	-2.2007833
237	0xc03efae4	-2.9840631
238	0x3ffeb5d3	1.9899238
239	0x3f9129a1	1.1340829
240	0x40111873	2.2671173
241	0x40098853	2.1489456
242	0xbec28d2d	-0.37998334
243	0xbf09ccfd	-0.5382841
244	0xc0011379	-2.0168135
245	0xbf4afb00	-0.79289246
246	0xbfb6e851	-1.4289647
247	0x3f6017a6	0.87536085
248	0xbed401b4	-0.4140755
249	0x3f54866f	0.8301763
250	0x3fdfd3f3	1.7486557
251	0x3faa3d20	1.3299904
252	0x4075d665	3.8412106
253	0x3f9f9eaa	1.2470295
254	0xbff57090	-1.9174976
255	0xc03fb8c4	-2.9956522

weight f4 [16, 16, 1, 1]
0	0x3eff643e	0.49881166
1	0x406d9ee3	3.7128227
2	0x3fabd0eb	1.3423132
3	0xc00434e7	-2.065729
4	0x3e6f86cd	0.23391266
5	0xc0b68e86	-5.704898
6	0xc055fe35	-3.3436406
7	0xbfe89d01	-1.8172914
8	0x4023554e	2.5520816
9	0xbfa18a48	-1.2620325
10	0x404fe1dd	3.2481606
11	0xbf84e736	-1.038306
12	0xbb40e430	-0.0029432885
13	0x411c33b5	9.762624
14	0x40239146	2.5557418
15	0xbe6447a9	-0.22292961
16	0xbe866c3f	-0.2625446
17	0x3f1d57c4	0.61462045
18	0xbf5cae89	-0.8620382
19	0xc00b485e	-2.176292
20	0x40608069	3.5078375
21	0xbec76e95	-0.38951555
22	0x401ac48c	2.4182463
23	0x40856b17	4.1693225
24	0xbf25c32b	-0.6475093
25	0x3fffe768	1.9992495
26	0xc14b78de	-12.717009
27	0x408bfca2	4.374589
28	0xbf061427	-0.523745
29	0xbfaf1b98	-1.3680296
30	0x3f517ef7	0.8183436
31	0xbedd47f2	-0.43218952
32	0xc05d8952	-3.4615064
33	0x409ea19a	4.9572268
34	0xc0a2a167	-5.0822024
35	0x3f6273c1	0.88457876
36	0xc08ccf4a	-4.400304
37	0x4085fe68	4.1873055
38	0xc1179747	-9.474433
39	0xbfe74f1d	-1.8071018
40	0x3fdc8174	1.7227006
41	0xc07b35a6	-3.9251494
42	0x3e5e106c	0.21685952
43	0x3fc8a518	1.5675383
44	0xbf96abb0	-1.1771145
45	0x4043fdaf	3.0623586
46	0x3e946b4d	0.28988114
47	0x40541b40	3.3141632
48	0xc02f2f31	-2.7372553
49	0x3fd83cb0	1.689352
50	0xbd78038f	-0.06055027
51	0x3f89cefc	1.0766292
52	0xc0931aec	-4.5970364
53	0xc0485ae1	-3.1305468
54	0xc0eb1cdf	-7.3472743
55	0x3fba1ea3	1.45406
56	0x3f96bf64	1.1777158
57	0x3e20c5ad	0.15700407
58	0xbfe10d04	-1.7582097
59	0x40dbc760	6.868088
60	0xc035e93d	-2.8423607
61	0xbffabfb9	-1.9589759
62	0xc02864ec	-2.6311598
63	0x405fb150	3.4951973
64	0x409dd0a5	4.9317193
65	0x3f1b4498	0.6065154
66	0x3f767213	0.96267813
67	0x4040617b	3.0059497
68	0x3f89c594	1.0763421
69	0x4062f934	3.5464602
70	0xc054b832	-3.3237424
71	0xc0523f45	-3.2851117
72	0xc085da3d	-4.1828904
73	0x3ec8e80c	0.39239538
74	0xbed75a7d	-0.42061225
75	0x40b8a5bd	5.7702317
76	0x3fe9da2f	1.8269709
77	0x404041ba	3.0040116
78	0xc06d53e3	-3.708245
79	0xbf9208a9	-1.1408893
80	0x3ec48245	0.38380638
81	0x3e8b0176	0.27149552
82	0x3fd849a4	1.6897473
83	0xc0c44256	-6.1330976
84	0x3e89cfad	0.26916257
85	0x4079398b	3.8941371
86	0x4080ff86	4.031192
87	0xc0c38ca3	-6.1109176
88	0x40142a30	2.315075
89	0xc0aab596	-5.3346663
90	0xbee60061	-0.44922164
91	0x3f7b8fbf	0.98266214
92	0x3f8c53f1	1.0963117
93	0x40aab186	5.3341703
94	0x404190e8	3.0244694
95	0x3f340968	0.7032685
96	0x405ed5a5	3.4817898
97	0xbed25c71	-0.41086152
98	0x3fd72eda	1.6811173
99	0x40aa21e8	5.316639
100	0x4091ba90	4.5540237
101	0xc087fda5	-4.2497125
102	0xc0842c35	-4.1303964
103	0xc0c375b5	-6.1081185
104	0xc087a9fa	-4.239499
105	0x3f392a1a	0.72329867
106	0xbecf2dca	-0.40464622
107	0x40636a1d	3.5533516
108	0x3f797afe	0.97453296
109	0x4096af54	4.7089024
110	0xc09c9f48	-4.8944435
111	0xbf713b92	-0.9423152
112	0xc08e0712	-4.438363
113	0x4058427c	3.379058
114	0xc0391d4d	-2.8924134
115	0xc04c3930	-3.1909904
116	0xc0b2f34d	-5.5922
117	0xc081e6fd	-4.059447
118	0x3f5014e6	0.8128189
119	0x3f908b62	1.1292536
120	0x40a5cbca	5.1811266
121	0xc07858be	-3.8804164
122	0xbfd124d6	-1.6339366
123	0xbf9a4149	-1.2051173
124	0xbf2e1589	-0.6800161
125	0x3ee539e5	0.44770733
126	0x400f5b6e	2.2399554
127	0x40cd45c0	6.4147644
128	0x3db24c05	0.08705906
129	0x41072d79	8.448602
130	0x400b2bc5	2.1745465
131	0xbf7171f8	-0.9431453
132	0xc059882c	-3.3989363
133	0x4028960d	2.6341584
134	0x40846f47	4.1385837
135	0x40514e6f	3.2704122
136	0xbf924f76	-1.14305
137	0x40813a77	4.038387
138	0xbe9e8fb7	-0.3096902
139	0xbf0976f7	-0.5369715
140	0xbe37e168	-0.1795708
141	0xbe3b445e	-0.18287799
142	0xbf132f77	-0.574943
143	0xbe91fe55	-0.28514352
144	0x3f65f41d	0.8982561
145	0x3e302970	0.17203307
146	0xc038b3ab	-2.885966
147	0xc093c599	-4.617871
148	0xc045035c	-3.07833
149	0xc07a968f	-3.9154394
150	0x407afe7b	3.9217823
151	0x4089b8d6	4.303813
152	0xbe6c4180	-0.23071861
153	0x3f0016f1	0.50035006
154	0xbf9d6abc	-1.2298198
155	0x3da32205	0.07965473
156	0x40c9ac77	6.302303
157	0x40d0a6ce	6.520362
158	0x401c544e	2.4426455
159	0xbf00708c	-0.5017173
160	0xbf33b6c2	-0.7020074
161	0xc08ec6f7	-4.4617877
162	0x4070235e	3.7521586
163	0x3fb4bd3a	1.4120247
164	0x4046ba61	3.1051257
165	0x4083dc69	4.1206555
166	0x3f00c1c6	0.50295675
167	0xc059f391	-3.405491
168	0xbef69c0e	-0.48165935
169	0xbffdc873	-1.9826797
170	0xc0cc7a36	-6.3899183
171	0x40c79a5f	6.237594
172	0xc0404b2d	-3.0045884
173	0xbf21e8e2	-0.63245976
174	0xc03564f5	-2.834287
175	0x3f2041a3	0.62600154
176	0xbfef4a44	-1.8694539
177	0x3fe09894	1.7546563
178	0x3eb14a8d	0.3462719
179	0xc0993b3d	-4.788481
180	0xc0251730	-2.5795403
181	0x406bfb3a	3.6872087
182	0x40c7ec3f	6.2475886
183	0xbe92851e	-0.28617185
184	0x407bc0b4	3.9336367
185	0xc0a227ae	-5.0673437
186	0xbfd99773	-1.6999344
187	0xbf73d407	-0.95245403
188	0xc05c4bcd	-3.4421265
189	0x3ff1f9e2	1.8904383
190	0x400544c2	2.0823216
191	0x4028c5b7	2.6370676
192	0xc09b71e9	-4.857655
193	0x40474fe9	3.1142523
194	0xbf035b53	-0.51311225
195	0xbff2b186	-1.8960426
196	0xc0b8da08	-5.776615
197	0xc07411a6	-3.8135772
198	0xc08b7153	-4.3575835
199	0x3f7c78f6	0.9862207
200	0x3f909e27	1.1298264
201	0xc0739e99	-3.806555
202	0xbfbc86e1	-1.4728662
203	0x40d711c8	6.7209206
204	0xc0225827	-2.5366304
205	0x3f9650a5	1.1743361
206	0xbee39470	-0.44449186
207	0x40a067f6	5.0126905
208	0xc05a382c	-3.4096785
209	0x4046bc54	3.1052446
210	0xbec69102	-0.38782507
211	0x3ffec868	1.9904909
212	0xc05907af	-3.391094
213	0x40c806fb	6.250852
214	0xc10e6bfa	-8.901361
215	0xc065e2cc	-3.5919676
216	0x3f3f15f8	0.74642897
217	0xc07798d7	-3.8687036
218	0x3fe3c108	1.7793283
219	0x40aaf4fe	5.3424063
220	0xc0802666	-4.0046873
221	0x3fcf18c3	1.6179432
222	0xbff0ec04	-1.8822026
223	0x3fa7aea0	1.3100166
224	0x3fbe86cf	1.488489
225	0xc08873fe	-4.264159
226	0x3f3afe02	0.73043835
227	0xc034ff2b	-2.8280742
228	0xbfd062d3	-1.6280159
229	0x4091f16a	4.5607195
230	0xc00d2b92	-2.2057843
231	0x40613512	3.5188642
232	0xc059323f	-3.3936918
233	0x3f11df7e	0.56981647
234	0x3ed4800a	0.41503936
235	0xbd4bcee7	-0.049757864
236	0xbecfcbfc	-0.40585315
237	0xbf533e99	-0.8251739
238	0x40dba8d7	6.8643603
239	0xc0866507	-4.1998324
240	0x4035e0a4	2.841836
241	0x3f8d93ca	1.1060727
242	0x40244d14	2.5672045
243	0xc0039792	-2.056126
244	0xc0be0584	-5.9381733
245	0x406f09be	3.7349696
246	0x3ece20df	0.40259454
247	0x40af96f3	5.4871764
248	0x408619ba	4.1906404
249	0x40b9c697	5.805492
250	0xbece7d2c	-0.40329874
251	0x3df46495	0.11933247
252	0x40432bbe	3.0495448
253	0x40000cc4	2.0007792
254	0xc012dbd0	-2.2946663
255	0x40206510	2.5061684

weight f4 [16]
0	0x3ed24aa3	0.41072568
1	0x3f99db9d	1.2020146
2	0xbee41e75	-0.44554487
3	0xbf0d41be	-0.5517844
4	0xbf228b38	-0.6349368
5	0xbec43a06	-0.38325518
6	0x3ef50f2c	0.47863138
7	0x3ea8f3fb	0.32998642
8	0xbec1c420	-0.37844944
9	0xbeb2db8e	-0.34933132
10	0x3ef0b70e	0.4701466
11	0x3f232f12	0.637437
12	0xbede3d96	-0.4340636
13	0x3e959e26	0.2922222
14	0x3ed59f10	0.41722918
15	0x3ea1e169	0.31617287

bias f4 [16]
0	0xbc86114c	-0.01636567
1	0xbe9684ab	-0.29398093
2	0xbd25ec23	-0.0405084
3	0xbdf8430a	-0.12122162
4	0xbe04b8b2	-0.1296108
5	0xbc0ec5c2	-0.008714141
6	0xbd5aeb2d	-0.053446937
7	0xbc441bce	-0.01196952
8	0xbd42c238	-0.047548503
9	0xbd20a595	-0.03922041
10	0xbda30083	-0.07959082
11	0xbdde0bc0	-0.10842085
12	0xbdd5a1ea	-0.10431273
13	0x3b86a401	0.0041089063
14	0xbcc4a427	-0.024004055
15	0xbc2d68ea	-0.0105840955

running_mean f4 [16]
0	0xc196177a	-18.761463
1	0xc31e129e	-158.07272
2	0x4262a1ff	56.6582
3	0x422d4ac2	43.323006
4	0x42837eb8	65.7475
5	0x42082fb7	34.046597
6	0xc1d67c3b	-26.81066
7	0xc19187b3	-18.19126
8	0x42d0995d	104.29954
9	0xc2a32214	-81.56656
10	0xc0aedc5d	-5.4644
11	0x42576f37	53.85861
12	0x42492d84	50.29445
13	0x4311c8b6	145.78403
14	0xc20fe06b	-35.96916
15	0x428f331f	71.599846

running_var f4 [16]
0	0x493e4540	779348.0
1	0x4992c87a	1.2024472e+06
2	0x490d20f3	578063.2
3	0x48f7f8cc	507846.38
4	0x48c5064b	403506.34
5	0x48d23dc5	430574.16
6	0x48fcbd09	517608.28
7	0x48f8d7b8	509629.75
8	0x4885a23b	273681.84
9	0x48dc1bd7	450782.72
10	0x49377646	751460.4
11	0x48cde029	421633.28
12	0x491120b8	594443.5
13	0x4977ea3d	1.0154598e+06
14	0x48e7a126	474377.2
15	0x48bf92b8	392341.75

weight f4 [4, 128]
0	0x3e40e249	0.18836321
1	0xbd019df3	-0.031644773
2	0x3ea1f0fe	0.31629175
3	0xbe5060c8	-0.20349419
4	0xbe0a8010	-0.13525414
5	0x3ba19ba4	0.004931884
6	0x3ebedf98	0.37279963
7	0xbddeee18	-0.108852565
8	0xbeb34a76	-0.35017747
9	0xbf82737f	-1.0191497
10	0xbe9ad7ea	-0.30242854
11	0x3e963a21	0.29341224
12	0xbc995a99	-0.018719958
13	0x3e04bccd	0.12962647
14	0x3dfa8930	0.12233198
15	0xbd91e2ea	-0.071233585
16	0xbf127173	-0.5720436
17	0xbf49b500	-0.7879181
18	0x3faa200b	1.3291029
19	0xbd827c63	-0.06371381
20	0xbd72979f	-0.05922663
21	0x3ef6db28	0.48214078
22	0xbe3930e2	-0.18085054
23	0xbdb30be8	-0.08742505
24	0xbf0c9916	-0.5492109
25	0xbf977899	-1.1833678
26	0x3f36c0af	0.7138776
27	0x3f4dbef3	0.8036949
28	0x3f16746a	0.58771384
29	0x3ee5d382	0.4488793
30	0x3e2f830e	0.17139837
31	0x3ec20360	0.378932
32	0xbebf1c40	-0.3732624
33	0xbd83a926	-0.06428747
34	0x3f40bb7b	0.7528607
35	0x3f3e2031	0.7426787
36	0x3f3d9555	0.7405599
37	0x3f1fe84e	0.62463844
38	0x3f3c8f66	0.7365631
39	0x3f21a42c	0.6314113
40	0xbf79e78d	-0.97618943
41	0x3fe1ef13	1.7651085
42	0x3e149389	0.14509405
43	0x3b095144	0.002095298
44	0xbf4cbb6d	-0.7997349
45	0xbe815054	-0.25256598
46	0xbd4166cd	-0.04721718
47	0x3eb73e26	0.35789603
48	0x3f4c27ce	0.7974824
49	0x3f315273	0.6926643
50	0xbe9fb27d	-0.31190863
51	0xbf892ee5	-1.0717436
52	0xbf3a3a7c	-0.7274549
53	0xbee23882	-0.44183737
54	0xbea7e5f6	-0.32792634
55	0xbee461a8	-0.44605756
56	0xbeb5649b	-0.35428318
57	0xbe6b23e8	-0.22962916
58	0xbe504143	-0.20337395
59	0x3daa84e8	0.08326131
60	0x3f0d5593	0.552087
61	0x3ede7c56	0.43454236
62	0x3f234e37	0.6379122
63	0x3e7fb8d6	0.24972853
64	0x3f0d4561	0.5518399
65	0xbe706969	-0.23477711
66	0xbde7ec3d	-0.11324356
67	0x3db5b55f	0.088724844
68	0xbdaf6d58	-0.085657775
69	0x3f175f30	0.5912962
70	0x3e9160f0	0.2839427
71	0xbeaacffe	-0.3336181
72	0x3e82fc89	0.25583294
73	0x3fabe6b2	1.3429778
74	0xbe128b6e	-0.14311
75	0x3e986716	0.29766148
76	0xbedf640f	-0.43631026
77	0xbf3840e4	-0.71974015
78	0xbf221f92	-0.6332942
79	0x3e2458f2	0.16049555
80	0x401f8178	2.4922771
81	0xbeeea8e0	-0.46613216
82	0xbedcab2d	-0.43099347
83	0x3d885d01	0.06658364
84	0xbed56463	-0.4167815
85	0xbf0a4856	-0.54016626
86	0xbefb1340	-0.49038124
87	0xbd4b9991	-0.049707
88	0x3f19e48b	0.60114354
89	0xbf507a4a	-0.814366
90	0x3e085d9f	0.13316964
91	0x3e9042ae	0.28175873
92	0xbda4aac2	-0.08040382
93	0x3ea32d13	0.31870326
94	0xbe06fc21	-0.13182117
95	0x3e95118c	0.2911495
96	0xbf8b06af	-1.0861415
97	0xbf00d64b	-0.50326985
98	0x3f4de5a0	0.80428505
99	0x3f54c7a4	0.8311713
100	0x3eaaebca	0.33383018
101	0xbd672744	-0.05643393
102	0xbda0d4a6	-0.078530595
103	0x3e64dbec	0.22349519
104	0x400db85c	2.2143774
105	0x3fa864f4	1.3155808
106	0xbfad9b09	-1.3562938
107	0xbe1e83f2	-0.1548002
108	0xbf1d04c4	-0.61335397
109	0xbf364833	-0.7120392
110	0xbe488689	-0.19582571
111	0xbf13fec7	-0.57810634
112	0xbc7dafd4	-0.015483815
113	0xbef8c407	-0.48587057
114	0x3ec39bab	0.38204703
115	0x3f4c5f1c	0.79832625
116	0xbda04c7a	-0.07827087
117	0x3e56a19a	0.20960084
118	0x3e99ce47	0.3004019
119	0xbf170a81	-0.590004
120	0x3e3195af	0.17342256
121	0xbe84d6e0	-0.25945187
122	0x3f2faecb	0.6862609
123	0xbd8cac04	-0.06868747
124	0x3e0f2019	0.13977088
125	0xbe28f11b	-0.16498224
126	0xbea9cc94	-0.33163893
127	0x3e248c62	0.16069177
128	0x3f9e78d7	1.2380627
129	0xbe66e0c8	-0.22546685
130	0xbfa0996c	-1.2546821
131	0xbf556db3	-0.8337051
132	0x3e573ca9	0.21019234
133	0xbe8abd8a	-0.27097732
134	0xbe885634	-0.26628268
135	0x3e9799e8	0.2960961
136	0xc031451b	-2.7698429
137	0x3f547be4	0.8300154
138	0x3f16b657	0.5887198
139	0x3f3281db	0.69729394
140	0x3ebe461e	0.3716287
141	0x3ec38b51	0.38192227
142	0x3ec9018b	0.3925899
143	0x3f2f467c	0.68466926
144	0xbeadc3c8	-0.33938432
145	0xbe14f481	-0.14546396
146	0x3f269498	0.65070486
147	0xbd322fe4	-0.043502703
148	0xbd98d77a	-0.07462974
149	0xbe74a08f	-0.23889373
150	0x3cb9be1b	0.022673657
151	0x3e093b08	0.13401425
152	0x3f62fcca	0.88666975
153	0x3d4177ac	0.04723327
154	0xbe81b2c9	-0.25331715
155	0xbea7be1d	-0.32762232
156	0xbf1771b6	-0.59157884
157	0xbe737f00	-0.23778915
158	0xbe1368db	-0.14395468
159	0xbd90eafd	-0.070760705
160	0xbebcd87a	-0.3688391
161	0xbf05fccf	-0.5233888
162	0xbe92a35c	-0.28640258
163	0x3e1773af	0.14790224
164	0x3bf4d142	0.0074712345
165	0x3db1b1e2	0.086765066
166	0xbcf2c5b2	-0.029635284
167	0xbd853234	-0.06503716
168	0xbf8b1a07	-1.0867318
169	0x3e7cfcc9	0.24705805
170	0x3ecdc623	0.4019023
171	0x3f13ff72	0.57811654
172	0x3eadf825	0.33978382
173	0x3d0cd9fd	0.034387577
174	0x3e734863	0.23758082
175	0x3def6d96	0.11690824
176	0xbdbedbef	-0.09319293
177	0x3cc5a311	0.024125608
178	0x3e295b47	0.16538726
179	0xbe67994d	-0.22617073
180	0xbdb11391	-0.0864631
181	0xbeaf2ada	-0.3421238
182	0xbddf0313	-0.10889258
183	0x3d4d9a03	0.050195705
184	0xbe131040	-0.14361668
185	0x3f076ae2	0.52897465
186	0x3dffb955	0.12486521
187	0xbdaddeb4	-0.08489743
188	0x3cdffb57	0.027341528
189	0x3e34b95f	0.17648838
190	0xbda2fe71	-0.07958687
191	0xbd9350b7	-0.071931295
192	0xbe55b85c	-0.20871109
193	0xbf059274	-0.52176595
194	0xbe3ca200	-0.18421173
195	0x3f4f8cc6	0.8107418
196	0xbebbe0f9	-0.36695078
197	0xbec630b4	-0.38709033
198	0xbebc17ae	-0.36736816
199	0xbf8bf7d9	-1.0935012
200	0xbf379330	-0.71708965
201	0xbf9e5a35	-1.2371279
202	0xbedacac4	-0.42732823
203	0xbec0abed	-0.3763117
204	0x3f1f98eb	0.6234271
205	0x3f2319fd	0.6371153
206	0x3f2d2e9f	0.67649263
207	0x3d819bd5	0.06328551
208	0xbfd9fbd1	-1.7029973
209	0xbd838862	-0.06422497
210	0x3f4436a9	0.76645905
211	0x3e49629a	0.1966652
212	0x3e87f728	0.26555753
213	0x3e934dea	0.2877038
214	0x3e54458e	0.20729658
215	0xbcca340d	-0.024683023
216	0x3ecac37b	0.39602265
217	0x3e286a48	0.16446793
218	0x3d9255d4	0.07145277
219	0xbe83f106	-0.25769824
220	0x3ece0773	0.40240058
221	0x3db16e62	0.08663632
222	0x3ef5f7fd	0.48040763
223	0xbdcdf9b9	-0.100573964
224	0x3eeead99	0.4661682
225	0x3e02f261	0.12787773
226	0xbe582477	-0.2110766
227	0xbe06ff12	-0.13183239
228	0xbf545785	-0.82946044
229	0xbee538e9	-0.44769982
230	0xbd989b66	-0.07451515
231	0xbcc22bde	-0.023702558
232	0xbd84838f	-0.06470405
233	0xbf2cfb66	-0.67571104
234	0xbf19eb67	-0.6012482
235	0xbe94d58c	-0.29069173
236	0x3ef28e20	0.47374058
237	0x3f055e4d	0.52097017
238	0x3d82bae1	0.063833006
239	0xbf0550ef	-0.5207662
240	0x3ef3db9a	0.4762848
241	0x3ea4afe5	0.32165447
242	0xbf097117	-0.53688186
243	0x3eef6ad3	0.46761188
244	0x3e16c6d3	0.14724283
245	0x3f7beca4	0.9840796
246	0xbe9e8de0	-0.30967617
247	0xbece6569	-0.40311745
248	0x3ea821f3	0.328384
249	0x3fc49bb1	1.5360013
250	0xbec0f130	-0.3768401
251	0xbe255855	-0.16146977
252	0xbf31e4d2	-0.6948978
253	0x3ccaa228	0.024735525
254	0xbeaf218f	-0.3420529
255	0x3e062660	0.13100576
