histories_pre_cls/04.29-23.26.10_68.07%_pt_LSTM_ATCNet_BcicIv2a_bs=064_lr=0.0010_ld=0.999891_nw=3_cps=9/best_valid_acc.pt (torch, 300862 bytes, 88 tensors)

weight f4 [16, 1, 1, 129]
00000000: af41 873d 0289 e43d 81ee cebc ea9d 37bd
00000010: 25da 30bd 842d 41bc ec3b 4fbd 66b8 c63c
00000020: 8b3f b6bc d5b9 293d d1f5 bf3c 8b8e 483d
00000030: 8cfb 7bbc 0839 03bc f054 99bc 309e 57bc
00000040: 446c 34bc 1c37 c9bb 63c1 d3bd cdc4 85bd
00000050: a51a 8e3c 90d0 863d 1192 96bc 049c 813d
00000060: 312d ddbc 18a7 35bc 2516 833d e79e bcbd
00000070: 12f9 89bd 0163 97bc c658 123b 300a 003e
00000080: fec2 b6bc 2322 18bd 0ef8 abbd 21ce f9bd
00000090: 674b b5bd ea19 7d3d bffc 9d3d 50b5 fa3d
000000a0: cbca c83d 2f0a 443d 4c41 b63d eb3a 1dbd
000000b0: 893f 97bd 0549 e5bd e507 50bd 5ebd 7abd
000000c0: c558 ebbd e052 babb 408f 123e 1408 813e
000000d0: 483b 663e 84f1 1d3e b7b7 d73d d4d6 e8bd
000000e0: 63b0 06be 624f 70be 57eb 3abe a311 b4bd
000000f0: 49cf a33d cb14 203e 576a 013e 996f 4d3e
00000100: fcd2 2e3e 9d51 b73c 0e4b 73bd 0215 e8bd
00000110: 1dd6 d4bd 376a 29bd 0ba7 f3bd 5b88 24bc
00000120: 2293 dd3d 6949 293e d51a 203e 65e2 de3d
00000130: 625f 9fbc bd76 28be bb5b bcbd 7dac f8bd
00000140: f137 d2bd b74d b53d 30ab e23d 2f70 31bc
00000150: 207c bc3d 9584 f73c ec79 5bbc 7067 8bbd
00000160: 8405 74bb c4f1 9cbd eca3 9b3c bf8e 2e3d
00000170: 14e0 9a3d 5e5d 533d fc9b a6bd 485c 9fbd
00000180: da05 913b 6f9b 90bc ade8 b6bd 7653 64bd
00000190: ed37 bf3d 52e0 a03d fe09 d6bc 8083 c4bc
000001a0: 00ce b7bd 173d 383b f5f2 26bd 3985 03bd
000001b0: ca07 b33c dfb4 583c fb47 78bd fa86 843c
000001c0: 9d0e b3bd 460a 173d b54b 123c 69d4 ebbd
000001d0: f46a 31bd 6669 2b3c 3840 353d 90c8 613d
000001e0: 9cc5 6c3d 9b9c 4c3c c411 79bd c12e 8dba
000001f0: f251 ffbd 183a 82bd ff26 a73c b2c3 613d
00000200: 98cf c53d d47a 04be 1f2c 90bd bd18 cdbc
00000210: fc80 b5bd 9340 9dbc 756a 823d f4d4 1b3c
00000220: 4d28 253d b4f8 473d 80d3 bb3d ecdb 153e
00000230: 31b1 3a3e 23ce 193e b2bc 263e ec2b 7c3d
00000240: a89b 78bc 283e 8d3c 272f e33d 8e72 2f3d
00000250: 9634 2bbc 8283 4abd e4d5 9abd e068 96bd
00000260: be09 a7bc ea08 2c3d c77d 103d a08c d2bd
00000270: a949 de3c 4cb0 d3bd 976c 53bd bdbc 7abd
00000280: 292c 07bd fcae a3bc ad34 94bd aa47 84bd
00000290: 1902 beba 3768 833c 730d 42bc b134 a83d
000002a0: c333 95b6 c2cf ce3d 5c5d 443e 4b6c 923d
000002b0: 8417 253e 5ea0 b93d 03a1 1abd 4379 b03d
000002c0: 0d9a a33c fdfa 82bc b6e8 913d c555 c0bd
000002d0: 3585 27bd 186e bbbd d758 bfbc cd0f 80bd
000002e0: f894 50bd 89a6 a3bd 830a 1fbe 890a 2abe
000002f0: c123 6cbe 0406 00be 246b e5bd 3fa1 e3bd
00000300: 8ac1 64be dfcc 23be da75 5abe c539 36be
00000310: d784 19be c644 f7bc aaf6 93bd f8ae 943b
00000320: 6b55 1a3c 3b0f 4a3d be90 b0bd 8f9c a9bd
00000330: 9b79 7ebd 2593 963d 198c 793c 9e08 153e
00000340: 9ba0 f23d 9770 d93d 51b6 b93d 91a6 753d
00000350: 3f82 963d c174 ca3c 7b21 d63c c8a2 b83c
00000360: 47c9 6fbd ec30 d3bc 2beb e83d 3cbb 2a3c
00000370: d867 df3d 1a25 5e3e a814 1b3e e035 aa3d
00000380: e7e4 2bbd d72a 4c3d 9854 7ebd eb45 99bc
00000390: aa85 6cbc 5b46 3a3c b6b8 f73c 50ad cc3d
000003a0: 7c97 243d 6c83 cb3d 0e7e 653d 4887 9abd
000003b0: b119 0ebc 05a4 06be db3c e3bd 7093 15bd
000003c0: 01d8 45bc fb6e 1e3d 9045 28bd 0cc9 15bb
000003d0: 0d7f 1d3d 1b47 d9bd 4a9a 1e3d dad1 93bd
000003e0: 573f 233d 7579 6f3d 1b52 423d ee0a c43d
000003f0: 06ad f93d 4d1c 73bc 92d7 86bd f1dd 72bd
0.06604325 0.11158945 -0.025260212 -0.044828333 -0.04317679 -0.011790637 -0.050594255 0.02425785
-0.022247097 0.04143699 0.023432644 0.048964065 -0.015379798 -0.008009203 -0.01871726 -0.013160273
-0.011012141 -0.0061406028 -0.1033962 -0.065316774 0.01734669 0.06582749 -0.018380197 0.06328586
-0.026999088 -0.011087202 0.06400708 -0.09209996 -0.067369595 -0.018479826 0.0022330745 0.12503886
-0.022309776 -0.03714193 -0.08396922 -0.12197519 -0.088522725 0.06179229 0.07714223 0.12241614
0.09804305 0.047861274 0.08899173 -0.038386267 -0.07385165 -0.11195568 -0.05078878 -0.06121575
-0.11491541 -0.005686149 0.14312458 0.25201476 0.22483552 0.15424162 0.10533088 -0.113691
-0.13153224 -0.23467782 -0.18253838 -0.087924264 0.07998521 0.15632932 0.12638222 0.20062102
0.17072672 0.022377783 -0.05939775 -0.11332132 -0.10392401 -0.04136106 -0.11897095 -0.010042275
0.10819079 0.1653191 0.15635236 0.10883025 -0.019454662 -0.16451545 -0.09197184 -0.121422745
-0.10264576 0.088527136 0.11067808 -0.010829969 0.092033625 0.030214587 -0.013395768 -0.068068385
-0.0037234733 -0.07663301 0.018999062 0.042616602 0.07562271 0.051602714 -0.081352204 -0.07781273
0.0044257464 -0.017652242 -0.08931098 -0.055743657 0.09336839 0.07855286 -0.026127812 -0.023988485
-0.08974838 0.0028112584 -0.040759046 -0.032109473 0.0218543 0.013226717 -0.06061552 0.016177643
-0.08743022 0.036875032 0.008929183 -0.115151234 -0.04331489 0.010462141 0.044250697 0.055122912
0.057805642 0.0124885095 -0.06080796 -0.001077138 -0.12466802 -0.06358737 0.020404337 0.05511827
0.09658736 -0.1293748 -0.070396654 -0.02503621 -0.088624924 -0.01919583 0.06367961 0.009511221
0.040321637 0.048821166 0.091712 0.14634675 0.18231656 0.15020041 0.16282919 0.061565325
-0.01517383 0.017241552 0.11092978 0.042833857 -0.010449549 -0.049441822 -0.07560328 -0.07344222
-0.020390388 0.04200069 0.0352762 -0.10280728 0.027134733 -0.1033636 -0.05161723 -0.06121515
-0.0330011 -0.0199809 -0.072366096 -0.06458981 -0.0014496475 0.016040904 -0.011844027 0.08213175
-4.446572e-06 0.100982204 0.19176239 0.071495615 0.16122252 0.09063791 -0.03775121 0.08616879
0.019970918 -0.015988821 0.07124464 -0.09391359 -0.04089852 -0.09151858 -0.023357792 -0.06253014
-0.050923318 -0.079907484 -0.15531354 -0.16605581 -0.23060514 -0.12502295 -0.11202076 -0.111147396
-0.22339454 -0.15996121 -0.2133402 -0.17795475 -0.1499208 -0.03018416 -0.07224782 0.0045374595
0.009419779 0.04933093 -0.086213574 -0.08281814 -0.06212769 0.07352284 0.015231156 0.14554068
0.11847039 0.10617178 0.09067977 0.059973303 0.07349061 0.024713876 0.026139012 0.022538558
-0.058541562 -0.025780164 0.1137298 0.010420617 0.109084785 0.2169384 0.15144598 0.08311057
-0.041966345 0.049845543 -0.062092394 -0.018710097 -0.014436165 0.011369313 0.030239444 0.09993994
0.04018353 0.09937176 0.05602842 -0.07545334 -0.0086731175 -0.13148506 -0.11095592 -0.03651756
-0.012075425 0.038680058 -0.041081965 -0.002285543 0.038451243 -0.106092654 0.03872136 -0.072177604
0.039855327 0.05846544 0.047441583 0.09572397 0.12191205 -0.01483829 -0.065840855 -0.05929369

weight f4 [16]
00000000: 4a69 7e3f 00de 813f 79e5 6a3f b5b2 823f
00000010: aaee 843f 1c70 7c3f 7737 713f 4fd0 793f
00000020: 9330 843f 5839 7c3f 202b 803f 8811 803f
00000030: cd3d 833f 73b3 7c3f 5886 833f a754 773f
0.9937941 1.0145874 0.917564 1.0210787 1.0385334 0.98608565 0.9422526 0.9758348
1.0327324 0.98525 1.0013161 1.000535 1.0253235 0.9871132 1.0275373 0.96613544

bias f4 [16]
00000000: 1cde a73c 8b05 3a3d 846e f53b 9a86 11bb
00000010: 3d36 51bc fa5c 64bc f3ca 733d c277 a6bb
00000020: f8e7 7cba bdc2 c03c 8393 d8bc 4fb8 39bc
00000030: 5c4e 0b3c cf97 bf3b 1b37 d6bd 69cd c03c
0.020491652 0.045415442 0.007489981 -0.0022205473 -0.012769279 -0.013938183 0.05951972 -0.005080194
-0.0009647603 0.023530358 -0.026437527 -0.0113354465 0.008502569 0.0058469544 -0.10459729 0.023535447

running_mean f4 [16]
00000000: 84f8 5d3d aaab 72be c16b 3e3e d0bc edbb
00000010: 5fe2 3d3e f7cd 543c 3814 92bc 203d 633c
00000020: 6ecc 1e3d 04fc 23be 543b a13d 9022 723e
00000030: a7d3 8ebd 2df5 5a3e 589f e63d 0fbd 853e
0.05419208 -0.23698297 0.18595792 -0.007255174 0.18543385 0.012988559 -0.017831907 0.013869554
0.038769178 -0.16014105 0.07872644 0.23645997 -0.06973963 0.2138259 0.11260861 0.26120803

running_var f4 [16]
00000000: 5078 833d 0153 043e ed41 3e3e 841c 643d
00000010: f0fc fb3d 4307 2d3e 1477 2d3e b600 1d3d
00000020: 7441 2d3e 4ab1 ff3e 2526 d73d f7f2 653e
00000030: e8c0 e33d 52c0 423e 987b 0b3e fbd1 043e
0.06419432 0.12922288 0.18579836 0.055691257 0.123041034 0.16897301 0.16939956 0.038330756
0.169195 0.49939948 0.10505322 0.22455965 0.11120778 0.19018677 0.13621366 0.12970726

weight f4 [32, 1, 22, 1]
00000000: 2203 c4bc e8fa 973e b0aa 38be 27ab fdbd
00000010: b400 41be 45f0 f6bd 164e e83d fde8 2b3e
00000020: 0dc5 3ebe 3a59 b73d 4bc0 413e 75a6 ea3c
00000030: b612 013e 65e8 07be 62f7 26bd 7f1b 28be
00000040: 4312 1bbd 0b75 7bbc ce90 1ebe 347f 493e
00000050: d136 933c 45f7 273e de8a b0bd 4423 9d3c
00000060: 5d6b 32be fd0c b7bd c8a1 9cbd 8b1b a73c
00000070: 0762 1c3d 0194 ae3d 3e17 ae3d 7adc 3bbe
00000080: c67b 273d e032 0a3e 5725 5fbc f5d9 0d3f
00000090: b835 f1bd 84d9 c9bd 7635 c2bd 6631 b1bc
000000a0: 8dfb d13d 99e9 20bc 6771 3f3c 7d58 02be
000000b0: 7dd5 8fbd e1e0 5f3e 9e6c 143e 6c94 55bd
000000c0: 39a0 2c3d 0ccb 873e af6c c2bd 4fda f5bd
000000d0: b511 2cbe ee03 6cbc 11b5 f83d 24a5 3dbe
000000e0: ffea 00bd da40 1ebb 9781 a5bd c609 563d
000000f0: 04d6 07be 6b2a c4bd 63b8 653e 9a18 493e
00000100: a6f8 2a3e 8650 65be 6dec 08be 1183 1e3e
00000110: 66cb c2bd ef12 603d 1615 26be 3c6f b53d
00000120: 5baf b73d 5167 bfbd 07ee 863e 0da5 083e
00000130: 3c1f debd a407 8c3e 1b76 2fbe 3362 52be
00000140: 850f 07be d301 98bb 7eaf 813d 3131 64bd
00000150: 4652 86be e89b 52bd bdac e63d 7288 733e
00000160: 55a9 073e 7aac 903d fbf9 2a3d 084b 52be
00000170: 25a7 1f3d 1383 74be 718b 49bd c645 1d3c
00000180: d6ec 503e 43cf 89bb 128b 83bd 7e2b db3d
00000190: 9df5 21be bc12 a7bd 3933 7f3d cbad c23c
000001a0: 8944 633d 24f9 6a3e 7d2f 83be 04f8 11be
000001b0: 853e 513e fd9a 193c 7881 99bd 7c1a 093e
000001c0: 9877 033e 0eed 27bd 6efe abbd dc18 12bd
000001d0: 0e18 27bd cac4 aa3c 083d 043e f533 50be
000001e0: 6030 96bd 3bb1 863e cba9 95bd c134 2e3d
000001f0: 462d 263c 2b16 dcbd 1b3c 81bd 2d40 e43d
00000200: c04f adbd 032d f8bd f4a3 66bc a356 2e3e
00000210: b435 f7bc c685 83be 0bd7 f2bd 9712 20be
00000220: 65be 563e 3a62 ca3d 2840 103d 2d81 a73d
00000230: 84e5 7bbe fdfe ba3d 6269 3dbe 8c45 bb3d
00000240: af20 29bd 6904 8ebc 0f30 e13d 7f69 fbbd
00000250: 96cf 113e 85ff 3abe 7826 953e d921 133e
00000260: 4024 133e 71c1 3dbe eb58 48be 3e18 5cbe
00000270: a1c3 163e 5749 dfbd 556c d63c 6d77 a33d
00000280: f963 8fbd a595 edba 45b1 703e 2c96 67be
00000290: fbd2 473e 35d8 99bc 8d2e 47bd ca95 813e
000002a0: 97f4 f93d 7ffb 20be 2d4c 95be 4cfb 043e
000002b0: 73c2 333e 0892 89bd 4b48 a53d 6aab debd
000002c0: 2724 953c c782 14be ca20 4abe cb69 f3bd
000002d0: 8c73 9e3c 80c7 523e 541a 91bd c1b9 073d
000002e0: 69ea f9bc 3c68 0fbe f8e6 793d e285 9f3e
000002f0: 579a 783d 22b0 683e a401 12bd 6d3f 13bd
00000300: 1538 103e d7e6 51bd 553d bebd fa0b 163e
00000310: 2b4c dfbd e0de 7bbe 4594 903e 2caa 0fbe
00000320: d111 5b3a c57d 6ebe 7fbb 293c 5f8d 9e3d
00000330: 9593 8abd 6535 76be e0e3 163e 9ff0 0f3e
00000340: dd6a ea3d 57ff 9e3d 9335 fbbc 53a0 b73d
00000350: 098b f6bc 563d 7abd eebf d83d 6a19 3e3d
00000360: 39e2 0a3d 8200 36bd 8bd9 0ebe 623e 28bd
00000370: f66a 1abc 2ad3 2fbe 60a8 61be a297 ae3d
00000380: 5bcf 73bd 8363 a33d aba6 883d 024c 073e
00000390: 087e 2a3e ebae 2f3d 0f4b cc3d abb8 253d
000003a0: e046 863d cdcd 643e 6e8d 683e dc13 3fbe
000003b0: ab3d 09bd 4fd0 05be b2f3 68bd 6535 ee3d
000003c0: 1070 05be b676 c3be 1010 533e 2b27 88bb
000003d0: 532f 403e 61d1 a2bc 4e1b 15be bd4d 37bd
000003e0: 93aa 47bd 6827 1e3e c88a b43d a9b1 2dbe
000003f0: fe8c febb 55c9 0bbe 5875 17be d9bf f4bd
-0.023927275 0.29683614 -0.18033862 -0.1238616 -0.18847924 -0.120575465 0.11343019 0.16788097
-0.18629856 0.089525655 0.1892101 0.028643826 0.12604794 -0.13272245 -0.040763266 -0.16416739
-0.037859213 -0.015347729 -0.15484926 0.1967743 0.017970474 0.1640292 -0.08620237 0.019181855
-0.17423768 -0.08938024 -0.07648045 0.020398876 0.038179424 0.08524323 0.08500527 -0.18345824
0.040889524 0.1349597 -0.013619742 0.554107 -0.11777824 -0.09855941 -0.09482853 -0.02163
0.10253058 -0.009821319 0.011684752 -0.12729068 -0.070231415 0.21863128 0.14494559 -0.0521435
0.042144988 0.265221 -0.09493386 -0.1200453 -0.1680363 -0.014405234 0.12143911 -0.18520027
-0.03147411 -0.0024147541 -0.08081358 0.052255414 -0.13265234 -0.09578403 0.22433619 0.19638291
0.16696414 -0.22393999 -0.1337144 0.15479685 -0.095114514 0.054705556 -0.16218981 0.08859107
0.08968993 -0.09345878 0.26353475 0.13344212 -0.10845801 0.2734958 -0.17134897 -0.20545273
-0.13189514 -0.0046388893 0.063323006 -0.055710975 -0.26234645 -0.051418215 0.11263416 0.23782519
0.13248189 0.07064147 0.041742306 -0.20536435 0.03897776 -0.23878126 -0.049205247 0.009599155
0.20402846 -0.0042056157 -0.0642301 0.10701655 -0.1581635 -0.0815787 0.06230471 0.023764512
0.055485282 0.22946602 -0.25622168 -0.14254767 0.20434006 0.009375331 -0.07495397 0.13389009
0.1283859 -0.040997557 -0.08398138 -0.03566824 -0.040794425 0.02084579 0.12913907 -0.2033232
-0.073334455 0.2630709 -0.07307776 0.04253078 0.01014263 -0.10746416 -0.06310292 0.11145053
-0.08462477 -0.1211796 -0.014077175 0.17025237 -0.030176975 -0.25688 -0.118574224 -0.15632091
0.20971067 0.098820165 0.035217434 0.08178935 -0.24599272 0.091306664 -0.18497232 0.091441244
-0.041290935 -0.017336087 0.109954946 -0.12275981 0.14239344 -0.18261535 0.29130912 0.1436838
0.14369297 -0.18530823 -0.1956517 -0.21493623 0.14723064 -0.1090266 0.026174704 0.07981763
-0.0700149 -0.0018126263 0.23505123 -0.2261588 0.19514076 -0.018779853 -0.04862838 0.25309592
0.12204855 -0.15720938 -0.2915968 0.12986487 0.17554645 -0.067173064 0.080704294 -0.108725384
0.018205715 -0.14503013 -0.1973907 -0.11885413 0.019342206 0.20583916 -0.070851 0.033136133
-0.030507283 -0.14004606 0.061011285 0.31156832 0.060694065 0.2272344 -0.035646096 -0.03594916
0.14083894 -0.051245537 -0.09289042 0.14653006 -0.109032 -0.24596739 0.2823812 -0.14029759
0.0008356842 -0.23290165 0.010359644 0.07741808 -0.0676643 -0.24043806 0.14735365 0.14056633
0.11446164 0.07763546 -0.030665195 0.08966126 -0.030095594 -0.06109365 0.10583483 0.046410955
0.03390715 -0.044434078 -0.13950174 -0.041075118 -0.009424916 -0.17170396 -0.22036886 0.085250154
-0.05952392 0.07977965 0.066724144 0.13212588 0.1664964 0.042891424 0.09975254 0.040459316
0.06556487 0.22344132 0.22710201 -0.1865992 -0.033506077 -0.13067745 -0.05687303 0.11631278
-0.1303103 -0.38176507 0.20611596 -0.00415506 0.18768053 -0.01987523 -0.14561197 -0.04475187
-0.048746657 0.1544472 0.08815533 -0.16962303 -0.0077682724 -0.13651021 -0.14790857 -0.119506545

bias f4 [32]
00000000: 1890 b93a 6c6b 7f3d 9715 c3bd 629c 8e3d
00000010: 224d 15be 1f03 aa3d 6460 97bc 7845 0f3e
00000020: 40b5 2c3e f785 f83d 6378 22bd 8ec6 b63d
00000030: cab5 30be f122 243e 5e66 93bd d0a1 933d
00000040: 529f d139 7d1d babd 7b10 69bd 2efe 143e
00000050: 08a8 02be 1f08 08be 4957 fe3d b662 fd3c
00000060: a05f 63be 9f99 3ebe 5e43 b7bd 9b30 503e
00000070: 28a7 ecbd d4a1 f63d ec3b 1a3e e038 f1bd
0.0014157323 0.062358305 -0.09525602 0.069634214 -0.14580205 0.083013766 -0.01847858 0.13991344
0.16866016 0.12134927 -0.03966559 0.0892459 -0.17256847 0.16028954 -0.07197259 0.07208598
0.0003998229 -0.09087656 -0.056900483 0.14550087 -0.12759411 -0.13284348 0.12418992 0.030930858
-0.22204447 -0.1861329 -0.08948396 0.20331042 -0.1155532 0.12042585 0.15061921 -0.11778426

weight f4 [32]
00000000: 70ef 863f 887c b73f 8724 863f 09b0 863f
00000010: 1a03 463f cfe8 713f 3123 9f3f a4ed bc3f
00000020: d3d8 923f 9109 763f 0c8e 9b3f 1f56 863f
00000030: ef5f 843f a071 5c3f fd36 a33f 283e ac3f
00000040: 80c4 673f bd22 703f 5855 773f 64e9 273f
00000050: 1402 9d3f 4d0f a93f 706e 883f 1618 593f
00000060: 9abf 933f 4423 843f 8bb4 893f 51d2 6f3f
00000070: 2c99 993f cabe 8e3f d860 793f 664e 8d3f
1.054182 1.4334879 1.0479897 1.0522472 0.7734848 0.9449586 1.2432615 1.4760022
1.147242 0.9610835 1.2152724 1.0495032 1.0341777 0.8611088 1.2751156 1.3456469
0.9053421 0.93803006 0.966146 0.655905 1.2266259 1.3207794 1.0658703 0.8480238
1.1542847 1.0323262 1.0758222 0.9368029 1.1999869 1.1151974 0.97413397 1.103955

bias f4 [32]
00000000: 2f25 5bbe 4922 6bbe 9f07 75be 7e17 efbd
00000010: 50c9 9ebd 9a1e b63d bffb 98be 6c99 9abe
00000020: 42f4 64be 1079 5bbe 7a68 25be dfa2 54be
00000030: fcee 1fbe 4f51 40be 6c70 82be 2707 85be
00000040: a4a8 51be a37d 4cbe 7333 92be 987d 0fbe
00000050: 2185 57be 1f2f 83be f9ec 4dbe a247 dcbd
00000060: ae99 20be a221 5dbe 7e4d 6abe 43c2 95be
00000070: 88b9 93be b8a2 6bbe 9eee a8bd 5e4a 7ebe
-0.21400903 -0.22962297 -0.23928688 -0.11674403 -0.07753241 0.088925555 -0.29879567 -0.30195177
-0.22358802 -0.214329 -0.16153136 -0.20765255 -0.15618509 -0.18781017 -0.25476396 -0.2598202
-0.20474488 -0.19969802 -0.28554878 -0.14012754 -0.21046878 -0.25621888 -0.20109929 -0.107558504
-0.15683624 -0.21594861 -0.22881123 -0.29249772 -0.28852487 -0.23011291 -0.082486376 -0.24833056

running_mean f4 [32]
00000000: 0814 633b fbe5 843d da88 9dbd f1ec 893d
00000010: 753c 15be 3e95 ae3d c884 a7bc 0cd3 0d3e
00000020: 0fd5 333e 3f6f f13d c15e 1cbd 3f90 b03d
00000030: 1807 2ebe 32a4 233e 6c10 92bd c483 933d
00000040: 4b1f 26bb 70aa b8bd c177 67bd 2952 183e
00000050: 3ed5 03be f9df 07be 2fad f83d 096d cf3c
00000060: bf87 61be 0978 42be f592 b2bd 7beb 503e
00000070: 93e0 d3bd 6bdf f73d 1468 193e df8a 02be
0.003464939 0.06489178 -0.07692118 0.06734646 -0.14573844 0.085245594 -0.020449057 0.13850039
0.17561744 0.11788797 -0.038176302 0.08621263 -0.16994894 0.15980604 -0.071320385 0.07202867
-0.0025348242 -0.090168834 -0.05651069 0.14875092 -0.12874314 -0.13269033 0.12142407 0.025320547
-0.2202444 -0.18991102 -0.08719436 0.20402329 -0.103455685 0.121031605 0.14981109 -0.12748288

running_var f4 [32]
00000000: fb46 313d 037d 513e f4cc 073d c7c9 803c
00000010: 77e1 0b3c 6589 fc3b 88ae d43d 35a1 a73d
00000020: 6296 8f3d 17cd 453d 8164 613d 264a 953d
00000030: ec4f 2c3c e271 193c 4374 0a3e 8833 eb3d
00000040: 22b6 cb3d 4292 323c 51fd 433c ab4a 7a3c
00000050: 1869 693d 2753 3d3d 43df f93c 1f6b af3d
00000060: 32ce 2c3d c095 ee3d 22cb c13c fb5f 913d
00000070: aab6 b43d 87aa 2f3d 0807 a33c 7076 323d
0.043280583 0.20457844 0.033154443 0.015721215 0.008537642 0.0077068084 0.10384852 0.08185045
0.07011105 0.048291292 0.05502749 0.07289533 0.010517102 0.009365531 0.13520913 0.11484438
0.099468485 0.010899128 0.011962251 0.015276591 0.05698499 0.04622188 0.030501967 0.085653536
0.04218883 0.11649656 0.023656432 0.07098385 0.08823903 0.042887237 0.019900814 0.043569982

weight f4 [32, 32, 1, 16]
00000000: d7f1 cf3d beee f63c ea14 a5bc 7976 8bbd
00000010: db20 e93c dfd8 963b 64db 953d be50 b13d
00000020: 47f3 1f3d b0a1 133e 7623 d63c 1b59 bc3c
00000030: 90e8 893d f00b 7d3d e803 f23c 453b 9bbc
00000040: 7734 bfbc ac47 623d c3b3 14bd 8728 a73c
00000050: ad3d 8b3d ca6f cbbb 01ff e73d dd51 e53d
00000060: f507 483c 60d0 613d bad9 6fbd 5fa3 e0bc
00000070: 7862 b33c eaaf 8dbc 4dc5 373d c0c2 d2bc
00000080: 7b7f f5bd 8400 d2bc 4e81 2ebc ceb3 05bd
00000090: b7cf 58bd ad77 fabc eadf e9bc 3769 533c
000000a0: cc87 aebb 86de 81bc 0989 4ebd 0529 863a
000000b0: 8319 b8bc 8dde 6fbd 39a7 11be 094d 0cbd
000000c0: 3cbd 94bd af27 b0bc f0e7 ba3d f459 963d
000000d0: a0b5 30bd 9d94 17bc a454 9739 9bdb 56bd
000000e0: 3e54 fdbc 64e5 83bd 50e3 57bd ac8d b6bd
000000f0: 5f58 dfbc fc40 283e 2c6b 343e ebdd b53d
00000100: 5fed 643d 00e5 963c d9fc 3d3d 7c6f b63c
00000110: 19f1 803d c312 383d 03ab 293d 54e2 173d
00000120: dbc8 ea3c ff77 be3d 93eb 253d 972b b73c
00000130: 0635 df3d d49e ba3c b6ee 653c 5287 4d3c
00000140: 620e babd 0742 a2bd 8f2e b8bd 682d 0bbb
00000150: f446 e539 5caa 953d b4ce af3c ffc9 4a3d
00000160: e2f4 fc3c 4271 e5bc 71a3 363c 1797 c23c
00000170: 7ef2 04bd 2466 17bc ed57 20bc 6d15 5b3c
00000180: 7ed8 663c 824f b33d d380 863d 0342 ae3d
00000190: e35f 933d 19a7 4e3d 2084 a63c 041a 363d
000001a0: b00d d83d 7824 72bd f2d3 38bd 8ae2 29bd
000001b0: 8517 03be df85 e8bd 6682 debd 0488 d6bd
000001c0: 64e8 5b3d f36e 8e3d 4c2a ff3d 847f 0f3e
000001d0: e2db 5cbc 37ba ac3d 63e3 e6bc 89eb 02bc
000001e0: 66b7 083e 92d4 80bd 40df c7bb bad1 95bd
000001f0: fbe1 f4bd a4df 14be d1b7 10bd a191 083d
00000200: 2a83 12bc 290f adbd 2481 d2bd 0b4e 45bd
00000210: 0d58 363d 98f1 c13c a55e 113c b849 28bd
00000220: 093b a23d 2ef3 4d3d 80fb eb3d 51ff fe3d
00000230: a11b 6b3d a9a7 3f3d ec68 ab3c 9a47 e73d
00000240: 03f6 00be 380b b9bd aa95 543d 3f6b 0b3d
00000250: a58d df36 49f6 8bbc 6b10 85bd a2ed 513a
00000260: 8391 f63c fe2c 1cbd 511d b93d 9714 b33c
00000270: 553f 1a3c a689 d83c a7c7 ee3d da75 dc3d
00000280: 180d aebc 823c 173d 9436 afbc 1e8b 98bd
00000290: d0e9 793c d138 893d 2cab c43d b3c5 7e3d
000002a0: e1f1 b73d b4ec 2bbd 536c 983a 0509 e93d
000002b0: 7bfa 463d 22bf a63d 7f55 063d 992f 5fbc
000002c0: 45b9 913b 8851 44bd ab4f 633d 2549 973d
000002d0: cdc8 c93d 7e14 fb3d 8327 e6bb 626b bfbb
000002e0: 2040 43bc 1f43 d13d 4e38 dd3d 4922 3dbd
000002f0: d441 343c 8a98 2c3d 8a33 253d da5e 163d
00000300: 2735 3b3d 3aa8 2cbc 749e 033e dea8 083e
00000310: 87cf 613e 52e7 233e 2e73 dc3d 5f40 a93d
00000320: 28bc 2c3d 283a 4ebd 9515 dfbd 93bb 4f3b
00000330: b9d7 6e3d 01d0 c1bb 1177 2a3d 5bd2 273d
00000340: 90c3 593d 8aec 893d 53b6 ef3d 6632 9a3d
00000350: 2318 d93d a1b3 163e 485f b73d c54c 883d
00000360: 7052 2a3d 8804 0ebd c68d 87bd c78c a4bc
00000370: 4d75 603c 39ca 043d 53f9 55bd 8cb7 e9bd
00000380: 5b2d 363d 1bc6 49bd 5c4c d8bd eb2c 0abe
00000390: d84b 1bbe 8be3 1ebd 8e06 a53c 6c1d c1ba
000003a0: 892c 6fbd 775c 31be 2f95 4dbe 7675 75bc
000003b0: caec 0cbe 2834 043d 5f0f 2a3d 4db4 a03c
000003c0: a840 903d 5033 863b 91c9 4fbd b70c 28be
000003d0: 5fe7 e7bd b806 d6bd d694 97bc 6a38 91bd
000003e0: dc78 82bd c7b8 a1bd deca 92bd 1f8e d5bd
000003f0: 3b21 4d3d 7dc2 8ebd a0dd 223d 524e 9d3a
0.10153549 0.030143138 -0.020151574 -0.06809706 0.02845805 0.00460349 0.07317236 0.086579785
0.039050367 0.14417148 0.026139956 0.022991708 0.06733811 0.061778963 0.029542878 -0.01894916
-0.023340447 0.055244133 -0.036304247 0.020405067 0.06798873 -0.0062083947 0.11327935 0.11197255
0.012208928 0.055130363 -0.05855725 -0.027421651 0.02189754 -0.017295796 0.044865895 -0.02572763
-0.119872056 -0.025635011 -0.010650946 -0.03264218 -0.052932467 -0.030574644 -0.028549153 0.012903503
-0.005326247 -0.015853178 -0.050423656 0.0010235613 -0.022473102 -0.05856185 -0.14223947 -0.034253154
-0.07262656 -0.021503298 0.0912627 0.07341376 -0.04314196 -0.009251741 0.00028864027 -0.052455526
-0.030923959 -0.06440237 -0.052707016 -0.089137405 -0.027263818 0.1643104 0.17619008 0.08880218
0.055890437 0.018419743 0.046383712 0.022269957 0.06295986 0.044939768 0.041422855 0.037081078
0.028660228 0.09300231 0.040507864 0.022359652 0.10898785 0.022780813 0.014033964 0.01254447
-0.090847746 -0.0792275 -0.08993255 -0.002123678 0.00043731148 0.07307884 0.021460868 0.049509045
0.030878488 -0.028008107 0.011147366 0.023753686 -0.03245782 -0.009240661 -0.009786588 0.0133718075
0.014089702 0.08755399 0.0656754 0.085086845 0.07196023 0.050452325 0.020326674 0.044458404
0.10549486 -0.05911681 -0.045124 -0.04147581 -0.1280194 -0.11353659 -0.10864715 -0.10475162
0.05368842 0.06954756 0.12459239 0.14013487 -0.0134801585 0.08433955 -0.028184598 -0.007990726
0.13351211 -0.062905446 -0.0060996115 -0.07315393 -0.11957165 -0.14538437 -0.03533155 0.033342008
-0.008942405 -0.08450157 -0.10278538 -0.04817013 0.044517566 0.023674771 0.008872663 -0.04108593
0.07921416 0.050280742 0.11522579 0.124510415 0.057399396 0.046790753 0.020924054 0.11292954
-0.12593846 -0.09035343 0.051900543 0.034037825 6.6624075e-06 -0.017085211 -0.06497272 0.00080081273
0.030098682 -0.038128845 0.09038795 0.021860404 0.009414514 0.026432823 0.116591744 0.10764666
-0.021246478 0.03692294 -0.02138833 -0.074484095 0.015253499 0.0670029 0.09602961 0.06220026
0.089816816 -0.041973785 0.0011628963 0.113786735 0.04857872 0.081419244 0.03279638 -0.013622188
0.0044471347 -0.047929317 0.0554959 0.07386998 0.09852753 0.12259768 -0.007023753 -0.0058416585
-0.011917144 0.102178805 0.10801755 -0.046175275 0.011002023 0.04213766 0.040332355 0.03671155
0.045704987 -0.010538155 0.12853414 0.13345668 0.22051822 0.1600621 0.10764156 0.08264231
0.042171627 -0.05034843 -0.10892788 0.0031697496 0.058311198 -0.0059146886 0.041617457 0.040972095
0.05316502 0.06734569 0.117046975 0.07529144 0.10600307 0.1471696 0.0895372 0.066552676
0.041582525 -0.03467229 -0.06618838 -0.02008666 0.013699842 0.032419417 -0.052239727 -0.11411962
0.044476848 -0.049261194 -0.105614394 -0.13493697 -0.15165651 -0.03879122 0.020144727 -0.00147335
-0.05839208 -0.17320429 -0.2007644 -0.014981618 -0.13762203 0.032276303 0.041518565 0.019617224
0.07043582 0.0040954724 -0.050729338 -0.164111 -0.113234274 -0.104505 -0.018503588 -0.07090838
-0.06370708 -0.078965716 -0.071676 -0.10427498 0.05008052 -0.069706894 0.03976214 0.0012001491

weight f4 [32]
00000000: a1a6 b53f d93e ae3f 3d45 a13f c1b2 a93f
00000010: 084d 943f 3746 8f3f 0614 943f bf57 a53f
00000020: 3051 a63f 7472 903f aab9 af3f beab 963f
00000030: c4f4 a73f 30b2 9c3f aab7 a93f 3df1 953f
00000040: 2f0d 973f a733 a33f e3e4 893f 685c 9e3f
00000050: 8b3b 9c3f 50a5 a33f d336 863f be82 983f
00000060: 9151 953f ecfa a73f ce21 ac3f 713b 963f
00000070: 3a8f a33f fa31 8f3f 2e88 b83f 51f1 c23f
1.4191476 1.361293 1.2599255 1.3257676 1.1586008 1.1193303 1.1568611 1.2917403
1.2993526 1.1284928 1.3728535 1.1771162 1.3121572 1.2241879 1.3259175 1.1714245
1.1800898 1.2750138 1.0772976 1.237195 1.2205671 1.2784824 1.0485481 1.1914899
1.1665517 1.312345 1.3447816 1.173689 1.2778084 1.1187127 1.4416559 1.5229894

bias f4 [32]
00000000: 4d45 09be 409c 2cbe 473d 27be 06ef 3cbe
00000010: 5366 3cbe 2180 43be 4135 8ebe 5aed 50be
00000020: 5c6a 73be 0bc4 9abe 67e7 1ebe ae6d 75be
00000030: f0b1 85be 9422 73be ad86 96be 6662 74be
00000040: e06b 80be 2f8a 59be 9d63 8ebe 6323 7ebe
00000050: b7aa 69be 9c85 04be 89a8 81be f9e4 7dbe
00000060: c00e 1ebe ea3a 47be 133e 7fbe 0378 b2be
00000070: cdf9 2fbe 6703 83be 152f 89be 0324 21be
-0.13405342 -0.1685648 -0.16331969 -0.18450555 -0.18398409 -0.19091846 -0.27775005 -0.20403042
-0.23771042 -0.30227694 -0.1551796 -0.2396762 -0.26112318 -0.2374366 -0.29399624 -0.23865661
-0.25082302 -0.21244119 -0.27810374 -0.24818186 -0.22819029 -0.12941593 -0.25323895 -0.24794377
-0.15435314 -0.19456068 -0.24926023 -0.34857187 -0.17185135 -0.25588533 -0.26793733 -0.15736394

running_mean f4 [32]
00000000: 3e2b 8fbc 5f9e c1bd 0d00 e93d 9e20 313d
00000010: e9ca 2b3d 740c 96be 4ad0 91bd dc9d 66bd
00000020: 0ccc 01be 6cd4 e4bd e115 e13c 60b7 a9bc
00000030: d495 843d 3bf5 7c3c 16c5 ef3d 6acc 593e
00000040: 3183 9a3c c749 8cbd 265b f7bd 7f6f 8bbd
00000050: 3c77 bbbd 59fa e53a 9a0e ad3d 18c1 da3d
00000060: 49cb 16be dceb 1dbd 1ab8 4abe 3f2c 99be
00000070: fa7c 20be 4f13 c83d 1bad 09be 5079 cf3c
-0.017476674 -0.09454035 0.11376963 0.043243997 0.041941557 -0.29306376 -0.07119806 -0.05630289
-0.12675494 -0.11173329 0.027476253 -0.020717323 0.0647389 0.015439327 0.11707513 0.21269384
0.018861385 -0.068500094 -0.12077932 -0.068083756 -0.091536015 0.0017545923 0.08450051 0.10681361
-0.14725985 -0.03855501 -0.19796792 -0.2991657 -0.15672675 0.09769308 -0.13444941 0.025326401

running_var f4 [32]
00000000: 3df6 d73f df0c 0140 0a22 fe3f cb97 0c40
00000010: a807 ea3f 8404 0840 2c9f 0a40 af95 fa3f
00000020: 78f1 e53f ac3a 0640 7d11 d63f 1e8b 1940
00000030: 6f00 f53f 5dc3 0e40 7ba5 1340 2956 db3f
00000040: cc09 0940 caf7 b73f f988 e83f e1ed 0940
00000050: 150d f73f 7dd5 0340 0ebd 1f40 e471 e13f
00000060: 8d7d d43f d774 f43f 49a4 2540 268f 0f40
00000070: 5beb 0e40 eb70 d93f d8af df3f 575c f93f
1.6872021 2.0164106 1.9854138 2.1967647 1.8283587 2.1252756 2.165965 1.957693
1.7964315 2.097331 1.6724087 2.399116 1.9140757 2.230674 2.3069751 1.7135669
2.141223 1.4372494 1.8166801 2.155144 1.9300867 2.0599053 2.495914 1.7612882
1.6600815 1.9098157 2.5881522 2.243112 2.233115 1.6987585 1.7475538 1.9481305

in_proj_weight f4 [96, 32]
00000000: 792b e3bd d65e b9bd 2731 923d 5d35 273d
00000010: 804e dd3d d474 103e 5d68 14be 0567 493e
00000020: 333e 533c 974b 38be 08b1 fb3d dd0d fabd
00000030: 1b71 2a3e a5f9 d4bd 56bb bebd 7b9f b73d
00000040: ff9e 533e b7da 21be 8535 bb3d 1a91 2fbe
00000050: e28c 363e af0a e5bb 68b2 fa3d 2000 07be
00000060: 9e7b 853d 1dd6 323e c24a f33d 2c02 193e
00000070: 7cfb 1a3e 1cb6 4abd bc84 37be 6cb0 d13c
00000080: f23c 2bbe a464 58be 9753 b93d 9735 203e
00000090: 4fa0 423d 3b12 3fbe ffbc 843c c319 243e
000000a0: 09d9 e93c 0540 2fbe 6601 34bd a014 19be
000000b0: d8f4 5a3c bbfd d4bd 01e5 52be 2562 693d
000000c0: d5ef 6ebd 0948 4bbe 5d01 443e faa8 72bd
000000d0: 5cc8 3ebe e97d 9b3d f18b 373e 6322 dabd
000000e0: 9e1f 3cbe a111 ccbc 71d6 573e 5305 5b3e
000000f0: f00e b03d 34d9 4ebd 6906 063e 0a9f 623c
00000100: 34db d83c 559a 313d 8254 d0bd c117 bcbd
00000110: 9e27 eebd eec1 8dbd 8d29 223d 126d 363c
00000120: ac6a 3b3d 5e21 413e 412a 953c 8f0b f93d
00000130: 0b54 04bd 51a5 21be df38 d43d a7b7 563e
00000140: ca22 043e be7a 663c adb0 22bd 3c4c 43be
00000150: 03a5 2a3e ef7e 1f3e 8771 373d 6df5 94bc
00000160: 534b c93d 796a 09be 90b5 0c3e e333 33be
00000170: 6177 5a3e 1cb6 dfbd 78f6 e2bd dbfd b33c
00000180: b4bc 80bd dd37 6a3d 29bd 08be 992b 8cbd
00000190: ad89 f73b dbc2 8cbd 2a96 6fbd c905 d8ba
000001a0: d2da 423d 08e9 ea3d 1cbd 003e 3816 fe3d
000001b0: d109 d3bd 9653 10be bcfa 9fbd 4539 44be
000001c0: 5c48 30be ceb0 dc3d c2b7 05be 4e2e 09bc
000001d0: 6413 fb3d 2462 2f3e e8d8 883d a319 32bd
000001e0: 4184 75bd c9be 1d3e fd5c b5bd 90aa f83d
000001f0: 3698 e33d 8aa5 c6bd ea7b 1a3a 2b61 a03d
00000200: f5d9 2dbe 72b0 e83d 8c8c db3d cb4c 41be
00000210: 96cc 463e af24 4b3e a0b8 013e 8c13 c93d
00000220: 0936 133e b1cb 423c 58aa 883c 5551 92ba
00000230: 286a 40be f35c 1ebd 1818 033e 6e42 dfbb
00000240: 1cb4 5abe 5048 8e3d c434 853d 4c32 a63d
00000250: e7b5 aa3d f15a c93d 2025 e83d 75e7 933d
00000260: bca2 f4bd 9282 cbbd 1ab5 1d3e 6e04 b93d
00000270: 2b6f bebc 25b9 173e 99cd 6bbd 0478 9fbd
00000280: 5581 89bd c383 313e 5d58 13be 7eb8 9c3d
00000290: 94e3 a9bb ac88 7ebd 5698 3bbe 4ed5 083e
000002a0: 2063 a43d e2f4 033e 8737 2f3e f74d 2dbe
000002b0: d12e 003e 3bfc 233d 0e06 75bd 9223 3abe
000002c0: 83f5 1f3e 8055 c63c 781f 0b3e 16d7 69bd
000002d0: 0501 58bb 7730 2a3e aa15 99bd 833a 8fbd
000002e0: 7fa1 59bd e2fe 1abe 689d 113e 326f 343c
000002f0: a111 013d 1c47 033e cb55 36be 3b22 3bbe
00000300: 09b6 3dbe 67c8 813d 3f68 78bd a2e1 1e3e
00000310: 398f 123e 60b6 0bbe 1c7b d73c 5848 16be
00000320: 1651 a93d 0b5f ad3c ddc9 203d 8726 073d
00000330: 115a b33a 8522 3cbe 22f1 7bbc df4f c63d
00000340: 948d f3bd d7ac 573e 6d6b 843c bdb0 76bd
00000350: 0883 3bbc c2f3 cfbd e0c0 4e3c b5b8 3dbd
00000360: 0c3c 03bd f0a7 483e 0195 093e 9954 c7bb
00000370: 38b6 2fbe e77b 45be d68a 38be 3e23 22bd
00000380: afb5 56be b0e3 063e 2104 45be 513b f53c
00000390: e889 393e 3efd 1c3e 9bd4 ad3d aa29 e93c
000003a0: e130 b33d 6e37 3a3e 838b 4fbe ccd3 233d
000003b0: e4e8 06be a0c0 403e 7fe6 e13d 147d 13be
000003c0: 5628 bfbd 0846 313d abbf 53bd 26d9 3ebe
000003d0: f93d ccbd 6a2e e43d d8a9 90bc c640 9b3c
000003e0: 1c10 52be 7f72 04be cb02 d33d 7f10 993d
000003f0: a0b9 20be dd78 e1bd 6652 e2bd 4559 3c3e
-0.11092276 -0.09051292 0.07138281 0.040822376 0.10805988 0.14107066 -0.14492936 0.19668205
0.012893247 -0.17997585 0.122896254 -0.122096755 0.16644709 -0.103991784 -0.09313075 0.08965965
0.20666121 -0.1580609 0.091410674 -0.17145196 0.1782718 -0.006989799 0.122410595 -0.13183641
0.06517719 0.1746449 0.11879493 0.14942235 0.15134996 -0.04949008 -0.17921728 0.02559682
-0.16722468 -0.21132141 0.090491466 0.15645443 0.047516163 -0.18659298 0.016203402 0.16025452
0.028545873 -0.17114265 -0.043946646 -0.14949274 0.013364039 -0.10399958 -0.2059517 0.056978364
-0.05833419 -0.19851698 0.19141145 -0.05924318 -0.18631119 0.07592375 0.17924477 -0.1065109
-0.18371436 -0.02491075 0.21077897 0.2138875 0.08596599 -0.05050011 0.13088383 0.013831863
0.026471712 0.043360073 -0.101723686 -0.09184218 -0.1162865 -0.06921755 0.039590407 0.011134403
0.045756027 0.18860385 0.018208625 0.12160408 -0.032306712 -0.1578572 0.1036241 0.20968495
0.12903896 0.01406735 -0.039719272 -0.1907205 0.1666451 0.15575765 0.044786002 -0.018183434
0.0982882 -0.13419522 0.13741136 -0.17500262 0.21334602 -0.109234065 -0.110821664 0.021971634
-0.06285992 0.05718218 -0.13353409 -0.06844253 0.007554254 -0.06873103 -0.058492817 -0.0016481216
0.047571965 0.114702284 0.1257214 0.12406582 -0.10304607 -0.14094386 -0.07811496 -0.19162472
-0.17215103 0.1077591 -0.1305838 -0.008372856 0.12259558 0.17127281 0.066819966 -0.04348148
-0.05994058 0.1540481 -0.08855627 0.12141907 0.11113016 -0.09699543 0.00058930984 0.07831033
-0.16977675 0.11361779 0.107201666 -0.1887695 0.19413981 0.19838212 0.12668085 0.098181814
0.14376082 0.011889384 0.016682789 -0.0011163155 -0.18790495 -0.038662862 0.1280216 -0.006813339
-0.21357769 0.06947386 0.06504205 0.08115062 0.08335476 0.09831799 0.11335206 0.07221881
-0.119451016 -0.09937014 0.15401116 0.09034048 -0.023246368 0.14816721 -0.05756912 -0.07786563
-0.06714121 0.1733542 -0.14389177 0.076523766 -0.0051846 -0.06214206 -0.1831983 0.1336262
0.08026719 0.12886384 0.17111026 -0.16924272 0.12517859 0.040035468 -0.059820227 -0.18177631
0.15620999 0.024210691 0.13586223 -0.057089888 -0.0032959592 0.1662005 -0.07474835 -0.06993582
-0.05313253 -0.15136293 0.14220202 0.011012839 0.031510953 0.12820095 -0.17806165 -0.18274777
-0.18526472 0.06337052 -0.06064629 0.1551576 0.14312448 -0.1364379 0.02630382 -0.14676034
0.08267419 0.021163484 0.03925501 0.032995727 0.0013683458 -0.18372543 -0.015377315 0.09683203
-0.11892238 0.21062027 0.016164506 -0.060227145 -0.0114448145 -0.10153915 0.012619227 -0.04631873
-0.032039687 0.19595313 0.13435747 -0.006083083 -0.17159355 -0.19285546 -0.18021712 -0.03958439
-0.20967744 0.13172793 -0.19239856 0.02993551 0.18119013 0.15330979 0.08487817 0.02846225
0.08749557 0.18185207 -0.20268063 0.039996907 -0.13174778 0.1882348 0.11030292 -0.14403182
-0.09333865 0.043279678 -0.05169646 -0.18637523 -0.09972758 0.11141665 -0.017659113 0.018951785
-0.20513958 -0.12934302 0.10303267 0.074738495 -0.1569581 -0.11009381 -0.110508725 0.18393429

in_proj_bias f4 [96]
00000000: 0000 0000 0000 0000 0000 0000 0000 0000
00000010: 0000 0000 0000 0000 0000 0000 0000 0000
00000020: 0000 0000 0000 0000 0000 0000 0000 0000
00000030: 0000 0000 0000 0000 0000 0000 0000 0000
00000040: 0000 0000 0000 0000 0000 0000 0000 0000
00000050: 0000 0000 0000 0000 0000 0000 0000 0000
00000060: 0000 0000 0000 0000 0000 0000 0000 0000
00000070: 0000 0000 0000 0000 0000 0000 0000 0000
00000080: 0000 0000 0000 0000 0000 0000 0000 0000
00000090: 0000 0000 0000 0000 0000 0000 0000 0000
000000a0: 0000 0000 0000 0000 0000 0000 0000 0000
000000b0: 0000 0000 0000 0000 0000 0000 0000 0000
000000c0: 0000 0000 0000 0000 0000 0000 0000 0000
000000d0: 0000 0000 0000 0000 0000 0000 0000 0000
000000e0: 0000 0000 0000 0000 0000 0000 0000 0000
000000f0: 0000 0000 0000 0000 0000 0000 0000 0000
00000100: 0000 0000 0000 0000 0000 0000 0000 0000
00000110: 0000 0000 0000 0000 0000 0000 0000 0000
00000120: 0000 0000 0000 0000 0000 0000 0000 0000
00000130: 0000 0000 0000 0000 0000 0000 0000 0000
00000140: 0000 0000 0000 0000 0000 0000 0000 0000
00000150: 0000 0000 0000 0000 0000 0000 0000 0000
00000160: 0000 0000 0000 0000 0000 0000 0000 0000
00000170: 0000 0000 0000 0000 0000 0000 0000 0000
0.0 0.0 0.0 0.0 0.0 0.0 0.0 0.0
0.0 0.0 0.0 0.0 0.0 0.0 0.0 0.0
0.0 0.0 0.0 0.0 0.0 0.0 0.0 0.0
0.0 0.0 0.0 0.0 0.0 0.0 0.0 0.0
0.0 0.0 0.0 0.0 0.0 0.0 0.0 0.0
0.0 0.0 0.0 0.0 0.0 0.0 0.0 0.0
0.0 0.0 0.0 0.0 0.0 0.0 0.0 0.0
0.0 0.0 0.0 0.0 0.0 0.0 0.0 0.0
0.0 0.0 0.0 0.0 0.0 0.0 0.0 0.0
0.0 0.0 0.0 0.0 0.0 0.0 0.0 0.0
0.0 0.0 0.0 0.0 0.0 0.0 0.0 0.0
0.0 0.0 0.0 0.0 0.0 0.0 0.0 0.0

weight f4 [32, 32]
00000000: 3fb8 aa3d 3fcf ea3d d61a eaba b5c4 31be
00000010: 90cc a23d a94b e53d 088f 9cbc a05c f33d
00000020: 201a 8e3d cc5a 203d 4684 273e 2ba8 adbd
00000030: 3ef9 e63c ed45 08be 719d 1d3e 7f7c 673d
00000040: ace2 203e 8201 10be 0c85 1d3e 4f7f e23d
00000050: f49e 1d3e 0b5a a0bd 566f 14be b777 febc
00000060: b63d 0f3e 009e 313e d753 86bc 84af a43c
00000070: 9e99 83bc 8e37 67bc a846 f63c 6b79 a93d
00000080: 2678 27bd 57b5 0bbe 1259 a9bb 33d3 c73d
00000090: b4c4 11be 9894 293e 2f39 813d 7eb6 aa3d
000000a0: 2a3f af3d b548 f93d bfbc 1e3e 4da7 9fbd
000000b0: baf4 3d3d 0095 d93d be3a 33be f2af d13d
000000c0: 56c9 2dbe cd2e ecbd ce5b d4bd f6c6 f6bd
000000d0: 8813 02be c89b d53d ae46 1cbe 3ae0 afbd
000000e0: e163 29be 1032 8fbd b45f 2cba 408d 733d
000000f0: 83af babd 7513 003d 59f0 af3d 5da7 123e
00000100: b84f 0cbd 0ec9 f5bd 080b de3d 6460 82bd
00000110: ba33 2dbe 9a2f 8abd 74c9 e0bc b9ab 1f3d
00000120: 349a 093e e9aa e53d 16f7 9abd 72ac 123e
00000130: be4a 853d 5999 3a3d f42f 04be a2b1 f5bc
00000140: 6d4f 813d 0ae3 54bd 7663 993d 0708 a93d
00000150: 4a8d fcbd 3eac 123e 739a 953c 8bc7 40bc
00000160: f804 5bbc 8e2f 5fbc 5af1 a3bc 6962 72bd
00000170: fc0b d53c 6c3b 41bd 4790 123e efd0 77bd
00000180: fd1b 26be 6773 333e d2c1 d53d 89de 00be
00000190: 00f2 0e3e e39d 1dbe bb22 b4bd 9b96 bbbd
000001a0: d464 f03c 618e 443d 0cc2 93bd 6652 74bd
000001b0: 0430 c2bd 87b8 0a3e 4d4b b03d fa63 7f3c
000001c0: 1d70 1d3c 6030 343c 447c 26bd 30fe a3bd
000001d0: c603 233e e86e 8dbd f308 dfbd 0b79 90bc
000001e0: 2009 5f3d 84b0 1abe 8ce9 453d 6100 0abc
000001f0: 7745 a8bd b8ba b53c 7868 903c 3b8d 2ebe
00000200: 983c aa3d 04f8 893d 022a d0bd 24be 643d
00000210: 2ae1 bebd 9b9f 063e 67a3 a1bd ad9c 813d
00000220: 9bc9 693d d996 26bc 6cbc c6bd 32e0 ab3d
00000230: a49b 3b3d 5a2e a8bd 66ce c8bc 31cc 953d
00000240: e2b3 18be 8b0c d43c 1300 1a3d 896c 31be
00000250: ead5 d03c b9d1 0dbe b652 22be 07ed 1e3e
00000260: 401d ba3d 1996 013e b938 213e 9bff c2bd
00000270: cd96 9abd d5c6 b0b7 856e 913d 1efd 943c
00000280: 059c 84bc 98e1 343e e99f b0bd 535b a53d
00000290: 709c 953d 6728 afbd 6e06 ce3d 4370 f93d
000002a0: 2019 0fbd 7de9 f4bd a87e de3d bbeb 083e
000002b0: 2600 883d c8e1 b23c b4a2 b03d a48e 5e3d
000002c0: f754 5fbd 6b5a 05be 4f29 9ebd 8907 803d
000002d0: 998a 92bd b429 8a3d 5df0 bbbd 8e4b 08be
000002e0: 5b60 003e 45e8 e4bd c08f 5d3d 6563 193e
000002f0: be57 293c d13c e23d e57e 3fbd b81e 1cbe
00000300: 0323 adbd 0bd1 5ebd 707f d2bd a69f d9bd
00000310: 600b 9f3d e6ea 273e 34ea e63d c657 733d
00000320: d1e2 0fbe c86c f0bc 9b2d 853d 7936 1f3e
00000330: ab1e b1bd 8985 d63d 9dfb cf3d daf4 1dbd
00000340: e3f2 25be 9ee2 a63d df1c b93d ca9a 0fbe
00000350: 1507 0d3e 6994 2bbc 25da 07be 5458 7b3c
00000360: 952f cb3d 664b d23b e01f 0cbe 65a9 c2bd
00000370: 2c4f d53d c4c7 9a3d 7ac8 e73d 9835 853d
00000380: f37b ea3d b961 1ebd ed8a a83d e44d 4a3d
00000390: 6de4 fb3c d868 213e 9685 8dbd 4ec4 093e
000003a0: 57a1 8dbd fd31 113e 3a82 eebc 6145 083e
000003b0: 714d 6dbd ea34 6d3c 0089 1e3e 7f94 7cbc
000003c0: dff8 6dbc a45e 98bd 08be 013e 0e7d be3d
000003d0: d0ba 1fbd d412 41bd 698d 213e 1ca7 db3d
000003e0: deb1 123e 03cb bebd b4b6 88bd 874e edbd
000003f0: f691 05be 8eb9 9fbc b47a e8bb bf56 b6bd
0.083359234 0.1146531 -0.0017860781 -0.17360194 0.079491735 0.11196072 -0.019111171 0.11882901
0.06938577 0.03914909 0.16359052 -0.08479341 0.02819502 -0.13307925 0.1539209 0.056515213
0.15711468 -0.14063075 0.15382785 0.110594384 0.15392667 -0.07829674 -0.14495596 -0.031062944
0.13988385 0.17345428 -0.0163974 0.020103224 -0.016064461 -0.014112366 0.030062988 0.08275112
-0.040886067 -0.13643394 -0.0051680887 0.0975708 -0.14235193 0.1656059 0.06309735 0.08335589
0.085569695 0.12172071 0.15501688 -0.07795582 0.046375968 0.106241226 -0.17502877 0.10238637
-0.16971335 -0.11532364 -0.10369073 -0.120496675 -0.12702763 0.104301035 -0.15261337 -0.0858769
-0.16542007 -0.069919705 -0.000657554 0.05946088 -0.091155075 0.031268556 0.085907646 0.14321657
-0.034255713 -0.12001239 0.10841948 -0.06366041 -0.16914263 -0.067473605 -0.02743981 0.038982127
0.1343773 0.11214239 -0.07566659 0.14323595 0.065083966 0.0455564 -0.12908918 -0.029991928
0.063139774 -0.051974334 0.07489674 0.08253484 -0.12331636 0.14323518 0.018262124 -0.011766325
-0.013367884 -0.013622178 -0.020012546 -0.059175882 0.026006691 -0.04717581 0.1431285 -0.06050199
-0.16221614 0.17524491 0.10437359 -0.1258489 0.13959503 -0.1539226 -0.08795687 -0.09159585
0.029344954 0.047987346 -0.07214746 -0.059648894 -0.094818145 0.13546954 0.086081125 0.015587801
0.009609249 0.010997862 -0.040645853 -0.08007467 0.15919408 -0.06905919 -0.10890379 -0.017635843
0.05445206 -0.15106398 0.04831843 -0.008422942 -0.08216374 0.022183761 0.01762794 -0.17046063
0.083123386 0.06736758 -0.10164262 0.055845395 -0.093202904 0.13146822 -0.07892495 0.06328712
0.05707703 -0.010167801 -0.09703907 0.08392371 0.045802727 -0.08211966 -0.024512481 0.07314337
-0.1491237 0.025884887 0.037597727 -0.17326559 0.025492627 -0.13849534 -0.15851864 0.15520106
0.0908761 0.12654914 0.15744294 -0.09521409 -0.07548294 -2.1073423e-05 0.07101158 0.018187102
-0.016187677 0.17664182 -0.086242504 0.08074059 0.07305229 -0.08552628 0.1005982 0.12179615
-0.03493607 -0.11958597 0.108640015 0.13371174 0.06640653 0.021836177 0.08624783 0.05433525
-0.05452439 -0.13022773 -0.07722723 0.06251437 -0.07155342 0.067462355 -0.09176705 -0.13310072
0.12536757 -0.111771144 0.05409217 0.14979322 0.010335861 0.11046756 -0.046751875 -0.15246093
-0.084539436 -0.054398578 -0.10278213 -0.10626154 0.077658415 0.163982 0.112751395 0.05940988
-0.14051367 -0.029348746 0.06502839 0.15548123 -0.086484276 0.104746886 0.10155413 -0.038563587
-0.16205935 0.081486925 0.0903871 -0.14023891 0.13772233 -0.010472395 -0.1326681 0.015340883
0.09921185 0.0064176796 -0.13684034 -0.09504966 0.104154915 0.075576335 0.11317535 0.06504363
0.11449423 -0.038667414 0.08229623 0.04939069 0.03074857 0.15762651 -0.06910245 0.1345379
-0.06915539 0.14179225 -0.029114831 0.13307716 -0.057935182 0.014477948 0.15481949 -0.015416264
-0.0145246675 -0.07439926 0.12670147 0.09301196 -0.038996518 -0.047137097 0.157766 0.10725233
0.14325663 -0.09316065 -0.06675473 -0.115872435 -0.13043961 -0.019497659 -0.0070947055 -0.08903264

bias f4 [32]
00000000: 0000 0000 0000 0000 0000 0000 0000 0000
00000010: 0000 0000 0000 0000 0000 0000 0000 0000
00000020: 0000 0000 0000 0000 0000 0000 0000 0000
00000030: 0000 0000 0000 0000 0000 0000 0000 0000
00000040: 0000 0000 0000 0000 0000 0000 0000 0000
00000050: 0000 0000 0000 0000 0000 0000 0000 0000
00000060: 0000 0000 0000 0000 0000 0000 0000 0000
00000070: 0000 0000 0000 0000 0000 0000 0000 0000
0.0 0.0 0.0 0.0 0.0 0.0 0.0 0.0
0.0 0.0 0.0 0.0 0.0 0.0 0.0 0.0
0.0 0.0 0.0 0.0 0.0 0.0 0.0 0.0
0.0 0.0 0.0 0.0 0.0 0.0 0.0 0.0

weight f4 [32, 1, 4]
00000000: e353 e33b e1f5 d2be fb28 073b 9a7d 18be
00000010: 0fdb a5bc c79d 983d aac7 173f c1f7 21be
00000020: c372 2b3d 8fb1 e43e ff15 18be 8ebf 4b3d
00000030: b2ce 91be 48aa 0e3f c9d8 703e 1a40 afbe
00000040: 2571 4f3e 31ea 11bd d84e 0f3f 100c 19bc
00000050: 75b4 093e 0001 e2be 3a72 cd3e 862b 1cbe
00000060: 080d ebbe bd17 37be a255 163e 9384 2b3e
00000070: c2b4 0dbf 8991 3c3d d302 7c3e 3c93 9ebe
00000080: 4eec 2a3e 29ee 973e aa04 c6bc 863f 2b3e
00000090: c905 913d 42d0 073f 9095 ad3b 3f1f 1ebd
000000a0: 2f30 b93e ccae 61ba 6392 b5be 12e4 2a3e
000000b0: 7cf6 16bf 4a63 c8bd b206 313e 7e09 253c
000000c0: 5ca5 e6bd 3781 1f3f 12b4 a43d 0a02 37be
000000d0: 37fe 91be d3fd 223e 59f1 c13d ebeb 3c3f
000000e0: f4c9 10bf 98e8 3ebe 0f8a 45be 607e 30be
000000f0: 3898 afbd 4834 f63e 909c 3c3e 202f 123e
00000100: 41da abbd 1493 f23e 2d7c 9d3c a2ab ebbe
00000110: f1c8 213d 8bf4 683e a0cc a43d 19b8 ab3e
00000120: cf51 bb3d fefc 0dbc ebf1 00bf 2966 103e
00000130: 24ec cfbd 48af 243d cc84 f5be 55ed a3bc
00000140: bac9 52be e80c e3bd 2b4a 9cbe 3ee4 3b3d
00000150: 13c4 8c3d 78c4 a83d e0a9 fe3e 168b 52bd
00000160: cf89 98be 7d67 ab3e 51c0 b13e 0c37 fb3d
00000170: d051 abba a159 913e e3d2 28bf 1f26 81be
00000180: 2463 e5bd 8f5a 96be af1a e13d b340 1d3e
00000190: 6283 eb3b fd7a aa3e fd53 233c 3426 d8bc
000001a0: 93ac 383e 1ca3 ca3d 689a 4f3c aa01 00be
000001b0: 4fcb c03e d66b c6bc ccc8 0cbd 3e9c 953c
000001c0: 89ac 953e c206 ecbe 62ba 97be 12cc d8bd
000001d0: 640b 153f 5a79 92bd b652 15bd f77b 16be
000001e0: 8020 fdbe 70bb f63d 7278 473e cc44 7ebe
000001f0: 8e24 bdbe aef8 013e 0526 cdbe 52f3 57be
0.0069374903 -0.41203216 0.0020623791 -0.14891663 -0.020246057 0.07451969 0.5928904 -0.15817167
0.041857492 0.44666716 -0.14852141 0.049743228 -0.28478009 0.5572858 0.23520197 -0.34228593
0.20258005 -0.035623733 0.5597968 -0.009341255 0.13447745 -0.44141388 0.4012621 -0.15250978
-0.4590838 -0.17880149 0.14681104 0.16749792 -0.5535394 0.04603723 0.24610452 -0.30971706
0.16691706 0.2967389 -0.024172146 0.16723451 0.070811816 0.5305215 0.0052973703 -0.038604017
0.36169574 -0.00086091156 -0.35463247 0.16688564 -0.58969855 -0.09784563 0.1728771 0.010073064
-0.112620085 0.6230654 0.08042158 -0.17871872 -0.28514263 0.15917139 0.094698615 0.7379748
-0.56558156 -0.18643415 -0.19290946 -0.17235708 -0.08573955 0.48086762 0.18419099 0.1427579
-0.08391238 0.47377837 0.01922425 -0.46029383 0.039498273 0.22749536 0.080468416 0.33538893
0.09146463 -0.008666275 -0.5036914 0.14101471 -0.10152462 0.040206224 -0.47952878 -0.02001063
-0.20584765 -0.11086446 -0.30525336 0.045871966 0.06873336 0.082405984 0.4973898 -0.051402174
-0.2979264 0.33477393 0.34717038 0.12266359 -0.0013070647 0.28388694 -0.6594679 -0.25224397
-0.1120055 -0.29365966 0.109914176 0.15356712 0.007187293 0.33296958 0.009968755 -0.026385404
0.18034582 0.09894392 0.012671091 -0.12500635 0.37655112 -0.024221342 -0.034371182 0.018262979
0.29233196 -0.46098906 -0.29634386 -0.10585798 0.58220506 -0.07152052 -0.036455832 -0.14695726
-0.49438858 0.120474696 0.1947954 -0.24830931 -0.36941952 0.1269252 -0.4006807 -0.21088913

bias f4 [32]
00000000: c08c 58be c2af c4bd 7cfd 41be c682 69be
00000010: 659a a23e f843 8bbc aa91 883e c2f1 8fbe
00000020: 79f7 7ebd ad8d b0be 8b91 673d 81c4 263e
00000030: d2a0 6bbc 64ef 0f3e 1fe2 95be f3b6 e7be
00000040: 7515 a3bd 9cf4 063e a6a8 90bd 67f4 883e
00000050: 3324 0a3e 1dee b6bd 8eef 4c3d 112b 83bb
00000060: 99bb ac3e b032 dcbd 28fc 813e 2896 99bd
00000070: 17b9 c23c f30b 4dbe 45a0 f8bd 9555 1dbc
-0.21147442 -0.09603836 -0.18944353 -0.22803792 0.3175842 -0.017000183 0.26673633 -0.28114134
-0.062247727 -0.3448309 0.056535285 0.16285898 -0.014381604 0.14056164 -0.2927408 -0.45256767
-0.07963077 0.13179249 -0.07063417 0.26748964 0.13490371 -0.08932135 0.050033145 -0.0040029367
0.33736876 -0.107518554 0.25387692 -0.07499343 0.023769898 -0.2002409 -0.12139944 -0.009602924

weight f4 [32]
00000000: 7ce1 873f 5669 923f f63c 7b3f c1b9 803f
00000010: 3c2d 8a3f 1cae 843f 2c18 873f 4dcf 6b3f
00000020: 73b3 863f b835 ad3f ec87 873f 2b1d 723f
00000030: 758d 8f3f 216f 753f 64c7 973f b416 7f3f
00000040: 6a2a 8d3f 8ba5 863f d6d8 923f bf54 a43f
00000050: 4e1d 9e3f d4d0 8e3f 2083 893f 6561 923f
00000060: 2898 8b3f f259 a03f 3ceb 783f a6b8 9d3f
00000070: f87f 883f 62af 8a3f 3468 843f 7772 913f
1.0615687 1.1438396 0.98139894 1.0056688 1.0795054 1.0365634 1.0554252 0.9211319
1.0523514 1.3532019 1.0588355 0.94575757 1.1215044 0.95872694 1.1857724 0.9964402
1.1028569 1.051927 1.1472423 1.2838362 1.2352693 1.1157479 1.0743141 1.1435972
1.0905809 1.2527449 0.9723394 1.2321975 1.0664053 1.0834773 1.03443 1.1363057

bias f4 [32]
00000000: 89bb 5dbd 65ef 20bd 940b 9cbd 0e32 8bbe
00000010: 7f9c be3b f2fd f33a bab6 bfbd 73b6 5cbd
00000020: ae9a 66be f3e8 6fbc 488a aebe 3c86 6d3d
00000030: d147 5dbc f447 9a3b 62fb 17be 8ef0 cdbd
00000040: 9366 82be 194a e9bc b302 3cbe 3a3d 613d
00000050: 3c68 ba3b 93ce bdbd 690f 53be bbb8 04be
00000060: 5382 7bbe 44fc 883a 6106 aebd bb8c 31bd
00000070: e150 b5bd 6e46 4ebd d577 a7bd fe91 adbd
-0.054133926 -0.039290804 -0.07619396 -0.27186626 0.0058169956 0.001861511 -0.09361024 -0.053884935
-0.22519943 -0.014642942 -0.34089875 0.057989344 -0.013505892 0.0047082845 -0.14841989 -0.10055648
-0.25468883 -0.028477715 -0.18360405 0.05499003 0.0056886952 -0.092679165 -0.20611347 -0.12961094
-0.24561433 0.0010451158 -0.084973104 -0.0433471 -0.08853317 -0.050360136 -0.08177153 -0.084751114

running_mean f4 [32]
00000000: 4b38 83be 93e1 6abd 8d79 20be 1dd2 56be
00000010: 87a8 be3e 2ec4 c5bc 1b46 763e 9358 a5be
00000020: 8017 6cbc 983d 98be b1b0 8c3d 37e8 fd3d
00000030: 2f4e b73c 765c 463e 6ce8 c1be 88d0 c9be
00000040: 05ac a0bd 84fd 3c3e cc61 bebd 1d2c 663e
00000050: ece4 b73d 53aa 2ebd 7de4 ba3d 4819 4bbd
00000060: f1d5 a53e 2b4d a4bd 5d12 893e cbff 4bbd
00000070: 2bf2 bebc 4cf3 33be d272 1bbe b3e4 95bd
-0.25628886 -0.05734403 -0.15671368 -0.2097859 0.3723795 -0.024141397 0.2405018 -0.3229414
-0.0144099 -0.29734492 0.06869639 0.12397807 0.022376148 0.19371209 -0.37872636 -0.3941691
-0.0784531 0.18456084 -0.09295997 0.22477765 0.0897921 -0.042642903 0.09125612 -0.049584657
0.32389787 -0.08022531 0.26771823 -0.04980449 -0.023308834 -0.17573279 -0.15180519 -0.073190115

running_var f4 [32]
00000000: 2ddf 373e d55b 9b3e 3d05 463e 970f d13e
00000010: f4cd a23e d8e7 ac3e 35e0 613e 650e b33e
00000020: f32c 0e3e 1e7c 7d3e ae40 4e3e 5aca 993e
00000030: ddea b03e 747a 0a3f c3dd d03e a58c 893e
00000040: 486d a03e a21c 2a3e 26b3 5b3e d5dd 563e
00000050: 6037 113e 8975 653e 743e 893e b05f e93e
00000060: 680b cc3d ec8c c23d 141f 3b3d 742f ee3d
00000070: 4f57 a73e 293f 963e fb0d 883e 3d2a a83e
0.17956229 0.303435 0.19337936 0.40832207 0.31797755 0.33770633 0.22058184 0.3497192
0.13884334 0.24754378 0.20141861 0.30037194 0.34554186 0.540931 0.4079419 0.26865116
0.31333375 0.16612485 0.21455058 0.2098306 0.1418128 0.22408117 0.2680546 0.45580816
0.09963113 0.09499535 0.045683935 0.11630145 0.326838 0.29345062 0.26573166 0.32844725
