histories_pre/Transformer_EEGNet_BcicIv2a_pt/66.05%_slf=010_bs=064_lr=0.0016_ld=0.999911_nl=1_nh=06_fd=128_do=0.89/best_valid_acc.pt (torch, 74550 bytes, 17 tensors)

positional_encoding f4 [1, 257, 24]
-0.937115 -0.4720399 0.2585503 0.16768867 0.07485268 0.88617414 -1.8667723 -0.20600234
-0.31638893 0.94378024 -1.2287709 -0.19913636 -0.27914247 -0.32519108 0.9427118 0.19258581
-0.6930701 -0.5803139 -0.23168957 -1.1274014 -0.23125367 -1.3576826 -0.06922264 0.9105762
1.2006135 -0.43886572 0.19709197 0.06504516 0.07228975 -0.036104765 -0.5413735 -0.30056018
-0.5843637 1.3606852 -0.6894135 1.5148172 -1.0785722 -0.62486297 1.8203213 -0.14139965
-0.77635133 -0.8532119 -0.33845907 0.18961278 1.0551381 -0.45771113 -1.407982 0.2657184
-0.24939637 -1.179149 0.7405301 1.4866371 -0.9682449 0.5312398 0.5554035 -0.38430902
-0.034113824 -0.20149802 0.5075209 0.2288196 -0.27303007 -0.27616403 0.075975955 -0.72716963
0.4592281 0.18299933 2.3050628 0.89675885 -0.37530127 1.0396998 0.8777535 2.3985934
-0.50122476 -1.201615 -0.36557287 0.42097172 -0.76562613 -0.5013563 0.5295051 1.5970724
1.4007242 0.8806082 -1.6264497 -0.31277522 -0.93704796 1.0568832 -0.003072622 -0.5034653
-0.91008407 0.06938233 0.0075066173 0.7908551 1.1525359 0.3353153 -1.626238 -1.2516874
0.10509276 0.9048226 2.5650012 0.7398334 -0.68248993 -0.122551374 0.49154752 -0.2218539
1.5703245 0.15816051 1.2857939 0.18089576 -0.4112496 -2.0558681 -0.40794373 0.8112431
0.06798436 0.3473437 0.4491708 -0.13023567 0.67016405 -0.5177624 -0.19894299 -0.97630155
-1.6733072 -1.089105 0.2487305 0.6776585 -0.9762079 -0.04510249 -0.61087203 -1.8506707
-0.2849673 -0.484392 -1.1633124 -0.55186236 1.4265908 -0.928655 0.4632844 -0.955056
0.95332736 0.541862 -0.5155846 0.3375894 -2.23642 -0.97197497 -0.7186972 -1.4107165
-0.337335 -0.544872 -0.093538806 0.85941863 -0.36386397 0.44305152 0.06268812 -0.7570546
-0.29648006 0.4129762 -1.6227255 0.66524327 -0.82345426 -0.48636615 -0.89940614 -0.9992685
-1.2352355 0.7422128 1.4293613 0.67525715 -0.43376473 -0.22447428 0.26164752 0.84369737
-0.4011329 -0.7719708 -0.6721771 -0.01952416 0.21110098 -0.621912 -1.8113544 0.33221883
-0.58790493 1.2101742 -0.719096 -1.2989653 -0.34609765 0.8192102 -0.5473191 -0.19065325
-0.83865744 0.06950715 -0.92798865 -0.32910326 1.0414727 -0.6994717 -0.73354113 -0.17760383
-0.16867293 -1.2035105 -0.45924827 0.23483804 0.14677943 -1.4827776 -0.2875445 -0.10092143
0.5473673 0.96690625 2.030073 1.1201966 -0.8075598 -0.10805009 -0.40133527 -0.4586626
-0.822214 -0.16379006 -0.6924599 -0.16274033 1.5305367 0.97269624 -1.4933083 0.51450044
1.3077908 0.83327305 0.5382935 0.15587185 -0.61163944 -1.0507191 0.4116479 -1.0996225
0.7684035 1.1043893 -0.9972707 1.6043133 1.1143905 0.24646814 1.2708927 0.5555677
0.09109862 0.25640902 1.964992 0.36184466 1.0507458 0.42885286 -0.05756867 -1.2329689
-0.88282007 1.1519551 -0.7012397 -0.26077017 0.6176341 -1.0292279 1.41769 -0.082600355
-0.37413692 -0.21821113 -1.1602169 -0.21143094 -0.6914483 -0.99675924 0.38208413 -0.17637391
00000000: c5e6 6fbf 37af f1be b460 843e 94b6 2b3e
00000010: 5d4c 993d 4fdc 623f 65f2 eebf 47f2 52be
00000020: bbfd a1be 959b 713f 5d48 9dbf 67ea 4bbe
00000030: c3eb 8ebe 727f a6be 8f55 713f 3735 453e
00000040: 0b6d 31bf 748f 14bf 0840 6dbe b04e 90bf
00000050: c3cd 6cbe 8bc8 adbf 99c4 8dbd 861b 693f
00000060: b4ad 993f 02b3 e0be 7ad2 493e 6636 853d
00000070: a60c 943d 97e2 13bd 7497 0abf 06e3 99be
00000080: dc98 15bf ef2a ae3f 677d 30bf 88e5 c13f
00000090: a70e 8abf 05f7 1fbf 4a00 e93f 12cb 10be
000000a0: f6be 46bf 186c 5abf 824a adbe da29 423e
000000b0: c40e 873f 1d59 eabe c138 b4bf 3e0c 883e
000000c0: c361 7fbe 5bee 96bf 6193 3d3f 204a be3f
000000d0: e6de 77bf 55ff 073f ec2e 0e3f 27c4 c4be
000000e0: f0ba 0bbd 7f55 4ebe e4ec 013f af4f 6a3e
000000f0: 99ca 8bbe 5f65 8dbe 4899 9b3d ca27 3abf
00000100: f21f eb3e 2d64 3b3e 2686 1340 fd91 653f
00000110: 7d27 c0be e214 853f 74b4 603f 8e82 1940
00000120: 4450 00bf 85ce 99bf 5e2c bbbe 9b89 d73e
00000130: 1300 44bf e358 00bf a58d 073f de6c cc3f
00000140: ee4a b33f 8a6f 613f 812f d0bf 1324 a0be
00000150: 60e2 6fbf f347 873f 0b5e 49bb 1ae3 00bf
00000160: 45fb 68bf 5318 8e3d 12fa f53b 7b75 4a3f
00000170: 4c86 933f 72ae ab3e 9128 d0bf 4b37 a0bf
00000180: df3a d73d 74a2 673f fb28 2440 b965 3d3f
00000190: a9b7 2ebf 37fc fabd 1eac fb3e ab2d 63be
000001a0: 6500 c93f d4f4 213e e594 a43f bd3c 393e
000001b0: 4f8f d2be 5893 03c0 00de d0be a1ad 4f3f
000001c0: 623b 8b3d 09d7 b13e b7f9 e53e 805c 05be
000001d0: df8f 2b3f 148c 04bf b6b7 4bbe e6ee 79bf
000001e0: ee2e d6bf cb67 8bbf 35b3 7e3e 077b 2d3f
000001f0: c3e8 79bf 63bd 38bd 1c62 1cbf c7e2 ecbf
00000200: 3ce7 91be 3a02 f8be 6ce7 94bf da46 0dbf
00000210: 879a b63f 56bc 6dbf 9d33 ed3e 8d7e 74bf
00000220: 430d 743f 78b7 0a3f 5afd 03bf 85d8 ac3e
00000230: 8121 0fc0 5ad3 78bf 8afc 37bf 5c92 b4bf
00000240: 2cb7 acbe bb7c 0bbf 4691 bfbd dc02 5c3f
00000250: 614c babe a6d7 e23e a162 803d 55ce 41bf
00000260: 3ccc 97be 9e71 d33e 78b5 cfbf 624d 2a3f
00000270: e6cd 52bf fc04 f9be 7b3f 66bf 0fd0 7fbf
00000280: 321c 9ebf a801 3e3f 50f5 b63f a7dd 2c3f
00000290: 6916 debe 96dc 65be aaf6 853e 8dfc 573f
000002a0: 4b61 cdbe e19f 45bf cc13 2cbf 22f1 9fbc
000002b0: db2a 583e a035 1fbf 76da e7bf 9618 aa3e
000002c0: f080 16bf fde6 9a3f ad16 38bf 7f44 a6bf
000002d0: b633 b1be c2b7 513f 1b1d 0cbf 9b3a 43be
000002e0: 41b2 56bf c459 8e3d aa90 6dbf 3980 a8be
000002f0: fa4e 853f 9410 33bf 5ac9 3bbf c7dd 35be
00000300: 99b8 2cbe a20c 9abf 9722 ebbe 6279 703e
00000310: 594d 163e a8cb bdbf 0839 93be e5af cebd
00000320: 4320 0c3f 2b87 773f b7ec 0140 9a62 8f3f
00000330: 3dbc 4ebf 5e49 ddbd d17b cdbe d3d5 eabe
00000340: 9e7c 52bf 95b8 27be 0d45 31bf 67a5 26be
00000350: a0e8 c33f 9f02 793f ba24 bfbf 4db6 033f
00000360: b065 a73f 6251 553f 9acd 093f df9c 1f3e
00000370: 6794 1cbf f77d 86bf 83c3 d23e 6ec0 8cbf
00000380: 17b6 443f a15c 8d3f 224d 7fbf 235a cd3f
00000390: 59a4 8e3f 2562 7c3e 9dac a23f af39 0e3f
000003a0: ea91 ba3d 0b48 833e dc84 fb3f b443 b93e
000003b0: d77e 863f 9a92 db3e 20cd 6bbd edd1 9dbf
000003c0: 7f00 62bf 4473 933f 7284 33bf ab83 85be
000003d0: 451d 1e3f bdbd 83bf de76 b53f 602a a9bd
000003e0: e08e bfbe bd72 5fbe fd81 94bf 5a81 58be
000003f0: c102 31bf 9d2b 7fbf 88a0 c33e 5d9b 34be

weight f4 [24, 22]
-0.17239517 -0.05384442 0.10554608 0.25721613 0.16925138 -0.18371129 -0.015249376 -0.64022374
-0.34401843 0.11983152 -0.49755186 0.019731872 0.27194205 -0.91055346 -0.53579456 -0.04447821
-0.31885415 0.18964367 0.24812609 0.33729133 0.48693857 1.8218877 0.3601595 -0.118812256
0.10768359 -0.35497144 -0.5781804 -0.5423848 -0.28285557 0.41418675 0.0034617172 -1.0505456
-0.53072965 0.16738814 -0.053440854 0.44153866 -0.09921416 -0.18627858 0.30720124 0.17450987
-0.29288003 0.08965271 0.10708673 0.20282385 0.35194242 0.24695991 -0.022756923 -0.5512208
-0.83298093 -0.974366 0.13027357 -0.09901434 0.37179878 0.46544614 -0.29748416 0.21225023
-0.18299805 -0.58368117 0.36292398 1.1340507 0.56728095 0.49502409 -0.24107626 0.46287143
-0.3010978 -1.349977 -0.62978804 -1.2361606 -0.6648054 -0.56046844 0.18069348 0.7481503
-0.6921287 -1.442135 -1.4702147 0.090265766 0.10610385 -0.19297314 0.18438664 -0.38469753
-0.24899386 0.22718705 -0.12625709 -0.29298273 0.8159344 0.47787273 -0.023762934 0.53177994
0.060380846 0.2525468 -0.04528846 0.29908174 0.097817995 0.48857364 0.594506 -0.69854194
-0.20679975 0.79712796 0.14148907 0.21836254 0.4062118 -0.62047136 -0.42686275 0.593625
-0.075369306 -0.17883042 -0.12455256 0.25105023 -0.32344884 -0.004488218 0.17021298 0.90399146
0.40813163 0.081747696 -0.009400497 -0.74675333 -0.11546942 0.076211005 0.40870747 -0.074752025
-0.19381659 0.95351046 -0.14899634 -0.5594334 -0.3925867 0.0036125078 0.09386831 0.21449961
-0.26632896 -0.47481242 -0.57789165 -0.2621684 -0.101452336 0.26982367 0.068133704 -0.4344276
-0.21349886 0.110951774 -0.54377973 0.20881267 -0.05871108 -0.70894957 0.4509141 1.5618032
0.20132853 -0.4987019 -0.49808273 -0.68779933 0.53540397 0.6751701 -0.13300842 -0.6233526
-0.61338735 0.27100134 -0.38372117 -0.27769247 0.057814937 0.2568038 0.48905277 0.5033618
0.037251484 0.14545698 0.09014 0.26768303 0.73946047 -0.21162613 -0.06588903 0.59392273
0.44880214 -0.7238534 -0.12634125 -0.21028489 -0.12805751 -0.695042 -0.14135526 -0.19021982
-0.1641463 0.4445497 0.046095148 0.33607638 0.10751332 -0.12622008 0.6370042 0.021130256
0.012163257 0.10826585 -0.426695 -0.4270721 0.1865073 -0.20851265 -0.0026098741 0.5746607
-0.5833331 -0.26617548 0.3756278 0.46196803 0.07317707 1.2111548 -0.24262424 0.48076728
0.056337487 -0.5116434 -0.45690033 -0.48803785 0.2544524 1.1638812 0.17779255 -1.0736054
-0.4629704 0.5458559 -0.06546926 0.8223686 -0.25349358 -1.0345422 -0.049472675 0.29568356
-0.617159 -0.86907357 0.12235641 0.0060297363 -0.36218253 0.06223557 0.111209884 0.29027572
0.357535 -0.055753373 -0.18139441 0.8505622 0.29556584 -0.43642944 -0.085215755 -0.36112258
-0.17903921 0.3563456 -0.048287034 -0.8566389 -0.17968273 -0.22158475 -0.4264152 0.010417767
0.28735423 0.8852277 -0.26293805 -0.49521586 -0.36742184 -0.13817747 0.25258192 0.42717856
0.093870476 0.15208595 -0.035507564 0.2089742 0.27049807 -0.5733462 0.08256469 0.8766717
00000000: 5c88 30be f78b 5cbd 8b28 d83d d5b1 833e
00000010: 3c50 2d3e d01e 3cbe 85d8 79bc b4e5 23bf
00000020: 2f23 b0be 3a6a f53d 1ebf febe bca4 a13c
00000030: fd3b 8b3e 081a 69bf d529 09bf c92e 36bd
00000040: da40 a3be f331 423e c414 7e3e 73b1 ac3e
00000050: 0350 f93e 9e33 e93f d366 b83e d753 f3bd
00000060: 3789 dc3d d1be b5be a103 14bf bbd9 0abf
00000070: 72d2 90be 4910 d43e fadd 623b 4778 86bf
00000080: e6dd 07bf cc67 2b3e cce4 5abd 5b11 e23e
00000090: cb30 cbbd d0bf 3ebe 7b49 9d3e b7b2 323e
000000a0: 5ff4 95be d79b b73d 4a50 db3d 0eb1 4f3e
000000b0: cc31 b43e 0fe3 7c3e ba6c babc ce1c 0dbf
000000c0: 3d3e 55bf 0d70 79bf 6f66 053e 08c8 cabd
000000d0: 695c be3e f54e ee3e d84f 98be 2058 593e
000000e0: d763 3bbe 216c 15bf 2cd1 b93e 9328 913f
000000f0: 5339 113f cc73 fd3e b2dc 76be 7cfd ec3e
00000100: 7e29 9abe 0ccc acbf ca39 21bf 833a 9ebf
00000110: b030 2abf dc7a 0fbf b607 393e c786 3f3f
00000120: 592f 31bf e197 b8bf ff2f bcbf 42dd b83d
00000130: fa4c d93d c09a 45be dacf 3c3e 13f7 c4be
00000140: 3ff8 7ebe b9a3 683e 8a49 01be d501 96be
00000150: 14e1 503f bcab f43e 7caa c2bc bb22 083f
00000160: e851 773d d04d 813e 6480 39bd 3e21 993e
00000170: cd54 c83d 5326 fa3e 8c31 183f a5d3 32bf
00000180: 50c3 53be 9410 4c3f 83e2 103e 6e9a 5f3e
00000190: fefa cf3e 36d7 1ebf c18d dabe cff7 173f
000001a0: 395b 9abd 521f 37be 6a15 ffbd a889 803e
000001b0: 169b a5be e711 93bb 504c 2e3e fc6b 673f
000001c0: a1f6 d03e 566b a73d 8b04 1abc 3a2b 3fbf
000001d0: 3b7b ecbd 8414 9c3d 1b42 d13e 9717 99bd
000001e0: db77 46be 4319 743f 7f92 18be 0737 0fbf
000001f0: 2001 c9be d3bf 6c3b 073e c03d c9a5 5b3e
00000200: 455c 88be 9d1a f3be b5f0 13bf f03a 86be
00000210: 3ec6 cfbd 5426 8a3e af89 8b3d 4b6d debe
00000220: 729f 5abe af3a e33d 2635 0bbf fdd2 553e
00000230: 087b 70bd b87d 35bf 37de e63e 2be9 c73f
00000240: 1129 4e3e db55 ffbe b304 ffbe 9e13 30bf
00000250: 3c10 093f f3d7 2c3f 5c33 08be 0994 1fbf
00000260: f406 1dbf b0c0 8a3e 1a77 c4be b52d 8ebe
00000270: 5bcf 6c3d ca7b 833e 2065 fa3e 52dc 003f
00000280: 0395 183d adf2 143e 529b b83d c00d 893e
00000290: 484d 3d3f 85b4 58be d4f0 86bd 520b 183f
000002a0: 65c9 e53e 754e 39bf 9a5f 01be ec54 57be
000002b0: 8221 03be 46ee 31bf 6fbf 10be fcc8 42be
000002c0: f815 28be 059c e33e 44ce 3c3d 3412 ac3e
000002d0: f22f dc3d d63f 01be b512 233f 5c19 ad3c
000002e0: 6648 473c 7cba dd3d c477 dabe 32a9 dabe
000002f0: c5fb 3e3e 5784 55be 6c0a 2bbb f71c 133f
00000300: 5155 15bf 2748 88be 4952 c03e 1387 ec3e
00000310: dcdd 953d 1f07 9b3f 7d72 78be 2127 f63e
00000320: 23c2 663d 10fb 02bf d7ee e9be 19e0 f9be
00000330: 9647 823e 0ffa 943f 400f 363e e76b 89bf
00000340: 750a edbe 36bd 0b3f bf14 86bd c086 523f
00000350: e9c9 81be e16b 84bf dca3 4abd d663 973e
00000360: 22fe 1dbf 9b7b 5ebf ff95 fa3d 1895 c53b
00000370: fd6f b9be baea 7e3d 02c2 e33d 059f 943e
00000380: d40e b73e a65d 64bd 75bf 39be 72be 593f
00000390: 6854 973e ae73 dfbe 9985 aebd 0fe5 b8be
000003a0: 0e56 37be ee72 b63e a0c8 45bd b04c 5bbf
000003b0: c0fe 37be 1de7 62be 1853 dabe 48af 2a3c
000003c0: 1820 933e 489e 623f d19f 86be ef8c fdbe
000003d0: b71e bcbe 657e 0dbe 6b52 813e 26b7 da3e
000003e0: 2a3f c03d 6bbc 1b3e 6170 11bd 55fd 553e
000003f0: b97e 8a3e d1c6 12bf ad17 a93d 8e6d 603f

bias f4 [24]
-0.25956717 1.3030748 0.29768088 1.2257315 -0.60875756 0.3922843 -0.019990182 -1.0681589
-0.3066457 0.53802574 -0.6384544 0.8377372 0.10431129 -0.23103309 -0.9381306 0.30862254
-0.3283883 0.76974124 -0.85010314 0.055847287 -0.0470642 -0.5583856 0.6261574 -1.0670397
00000000: fde5 84be 28cb a63f a169 983e c5e4 9c3f
00000010: 89d7 1bbf 7dd9 c83e 73c2 a3bc 6eb9 88bf
00000020: aa00 9dbe 0ebc 093f bf71 23bf f275 563f
00000030: 28a1 d53d f093 6cbe 5429 70bf c603 9e3e
00000040: 8322 a8be c30d 453f 5ca0 59bf 20c0 643d
00000050: 64c6 40bd 5cf2 0ebf da4b 203f c294 88bf

in_proj_weight f4 [72, 24]
0.25715843 0.103513815 0.36322784 0.12294149 -0.5178291 0.0011951372 -0.10412809 -0.31974393
-0.072920896 -0.058467254 0.24271418 -0.15940684 0.0050113066 0.16147439 -0.07487749 0.3381472
-0.097600415 -0.28492448 -0.1885258 0.066163555 -0.34062907 0.27419606 0.14147028 -0.11234228
-0.075807095 -0.11900057 0.059974432 0.38334444 0.019320915 -0.0007647468 0.22172749 -0.028856896
-0.27655762 -0.13468872 -0.26732802 0.07812713 0.16363458 -0.33071017 -0.07708913 -0.0052749035
-0.033839192 0.33927104 -0.041250423 -0.39038658 0.3431751 0.013703451 -0.10154089 -0.118588485
-0.015721275 -0.081359096 0.0063546747 0.22832102 0.12153046 -0.29663864 -0.09314466 -0.1553444
0.18176049 -0.17298627 -0.3682742 0.05117115 -0.055114176 -0.047949873 0.14652695 0.04231801
-0.30626813 -0.213128 -0.22850855 -0.123588055 0.08344352 0.32051757 0.06843718 -0.04094631
-0.19911444 -0.25459674 0.12754501 0.25908267 0.17962722 -0.093371645 0.002386954 0.10484714
-0.015771823 0.12784328 -0.3227061 0.05460903 0.24072726 -0.49848068 0.041312575 -0.3618618
-0.30065244 0.29955015 0.059720416 -0.3114436 0.10507462 -0.2430782 -0.28723165 0.038233813
0.27769586 0.3693807 0.13874613 0.10086077 -0.04966619 0.05319013 -0.08775308 -0.1298926
0.4536736 -0.06612087 0.30833212 -0.11921217 -0.124881364 0.024820667 0.29438326 -0.0007909549
-0.01839796 0.20098248 -0.24533916 0.24193901 -0.15734905 -0.027886536 0.68934196 0.013208323
-0.36471692 -0.09912976 0.019467095 -0.23607306 0.07013997 0.108108036 -0.1161062 0.27994174
0.01642541 0.13154694 -0.0871298 0.19299829 -0.22669621 -0.0625005 -0.07821211 -0.087768234
0.19938193 0.23614797 0.40984827 -0.14768822 0.26486385 -0.31659105 -0.03707434 -0.019781055
-0.3454003 0.04087086 0.022794621 0.4038781 -0.01747369 -0.25075814 0.009830334 -0.123149924
-0.25864086 0.40242818 -0.4234228 0.03679904 0.099989444 -0.3600783 -0.09912615 -0.33202603
-0.19259742 0.059129227 -0.0047841566 -0.29393053 0.5695715 0.22131102 0.06511022 0.060199272
0.21799023 0.25518233 -0.1580131 0.25938475 -0.2830156 0.23655029 0.07935641 0.14292462
-0.10847337 0.20728602 0.11015671 -0.027766503 0.0111503955 -0.13300142 -0.042349864 -0.21801737
-0.29935145 0.11051318 -0.37973896 0.063578 -0.022181125 -0.2404131 0.39307714 -0.11326874
-0.096236885 -0.34275272 0.21323876 0.29899237 0.020417606 -0.12700547 0.087254584 -0.18143839
0.14090922 -0.18906048 -0.27271885 -0.16129617 -0.032028604 -0.26744035 0.13132313 -0.002775626
-0.40147927 -0.10423233 0.055902462 -0.3681513 0.21745038 0.34871337 0.014816544 0.10918014
0.039980188 0.14023186 -0.2282611 -0.33621827 0.009413504 0.13177246 0.101576656 0.09579588
0.016390773 0.11640253 0.4966386 0.06949777 0.18975717 0.08895491 0.013551181 -0.05249992
-0.03613864 0.108729936 0.28792614 0.14139856 -0.28991127 -0.46239108 0.09286455 -0.02005336
0.05041546 -0.10578791 0.25948995 -0.122967705 -0.10915887 -0.056939654 -0.25834215 -0.28408968
0.041354578 -0.18854235 0.11840164 -0.06832711 -0.3668026 0.17338915 0.0033353814 -0.008500114
00000000: 45aa 833e 0dff d33d 00f9 b93e bfc8 fb3d
00000010: 7390 04bf 26a6 9c3a 1c41 d5bd 7ab5 a3be
00000020: 8d57 95bd 5c7b 6fbd 118a 783e 8c3b 23be
00000030: e335 a43b 8b59 253e 5f59 99bd a121 ad3e
00000040: bae2 c7bd 9fe1 91be e80c 41be c280 873d
00000050: ef66 aebe 6d63 8c3e 96dd 103e b613 e6bd
00000060: c040 9bbd 92b6 f3bd c0a7 753d b945 c43e
00000070: e546 9e3c 4a79 48ba 880c 633e 4c65 ecbc
00000080: f698 8dbe d7eb 09be 38df 88be 1e01 a03d
00000090: d38f 273e d852 a9be e8e0 9dbd 19d9 acbb
000000a0: f79a 0abd efb4 ad3e 34f6 28bd c0e0 c7be
000000b0: a6b4 af3e 7084 603c acf4 cfbd 85de f2bd
000000c0: e7c9 80bc 999f a6bd e03a d03b fccc 693e
000000d0: f6e4 f83d 05e1 97be a1c2 bebd 9a12 1fbe
000000e0: 6c1f 3a3e 5023 31be 708e bcbe d798 513d
000000f0: 67bf 61bd 1667 44bd 290b 163e a655 2d3d
00000100: 2dcf 9cbe 3a3e 5abe 25fe 69be bc1b fdbd
00000110: 70e4 aa3d e11a a43e cb28 8c3d 51b7 27bd
00000120: a8e4 4bbe 815a 82be 299b 023e 7ca6 843e
00000130: 33f0 373e a239 bfbd 716e 1c3b 19ba d63d
00000140: e933 81bc 59e9 023e bc39 a5be b8ad 5f3d
00000150: 3581 763e dc38 ffbe 6037 293d f345 b9be
00000160: 1eef 99be a35e 993e 659d 743d 8975 9fbe
00000170: 5d31 d73d 7ee9 78be 0710 93be 0f9b 1c3d
00000180: 272e 8e3e 781f bd3e 7713 0e3e 1790 ce3d
00000190: c66e 4bbd e5dd 593d e3b7 b3bd 9102 05be
000001a0: e847 e83e 616a 87bd b5dd 9d3e 8325 f4bd
000001b0: cdc1 ffbd b654 cb3c 67b9 963e 1658 4fba
000001c0: 52b7 96bc 5ace 4d3e 303a 7bbe dcbe 773e
000001d0: 1c20 21be 4e72 e4bc b778 303f b967 583c
000001e0: 2dbc babe 8b04 cbbd 7579 9f3c 23bd 71be
000001f0: 8ba5 8f3d bf67 dd3d 16c9 edbd 8654 8f3e
00000200: 958e 863c 3eb4 063e 1c71 b2bd 58a1 453e
00000210: 0d23 68be 4300 80bd ac2d a0bd d5bf b3bd
00000220: c72a 4c3e c6d0 713e a2d7 d13e 953b 17be
00000230: 3c9c 873e 3918 a2be 43db 17bd e10b a2bc
00000240: 4fd8 b0be 3468 273d c9bb ba3c 1cc9 ce3e
00000250: fc24 8fbc 5f63 80be 690f 213c 0736 fcbd
00000260: 936c 84be 110b ce3e e0ca d8be 97ba 163d
00000270: 44c7 cc3d 2f5c b8be a702 cbbd 51ff a9be
00000280: 4238 45be 7d31 723d 6ac4 9cbb 107e 96be
00000290: 70cf 113f 5b9f 623e 8258 853d 8393 763d
000002a0: d538 5f3e 42a7 823e 30ce 21be 14ce 843e
000002b0: 6ce7 90be 3d3a 723e 9d85 a23d d55a 123e
000002c0: 4927 debd c942 543e d799 e13d 9476 e3bc
000002d0: 26b0 363c 8631 08be 0d77 2dbd f23f 5fbe
000002e0: 9844 99be bc54 e23d 256d c2be 2f35 823d
000002f0: 31b5 b5bc da2e 76be 6841 c93e 71f9 e7bd
00000300: d817 c5bd 497d afbe 435b 5a3e 8715 993e
00000310: d342 a73c b90d 02be 88b2 b23d fcca 39be
00000320: 824a 103e 1299 41be cea1 8bbe d32a 25be
00000330: 6d30 03bd f1ed 88be 9279 063e 47e7 35bb
00000340: b18e cdbe c377 d5bd fbf9 643d 547e bcbe
00000350: 50ab 5e3e 8f8a b23e 17c1 723c d699 df3d
00000360: 44c2 233d f198 0f3e 47bd 69be cd24 acbe
00000370: 193b 1a3c 5cef 063e 6c07 d03d a130 c43d
00000380: f145 863c 7364 ee3d 6a47 fe3e d954 8e3d
00000390: b44f 423e fe2d b63d c605 5e3c 280a 57bd
000003a0: 1c06 14bd cdad de3d 0e6b 933e c9ca 103e
000003b0: 406f 94be 86be ecbe c52f be3d f246 a4bc
000003c0: 7180 4e3d 55a7 d8bd dedb 843e 7ed6 fbbd
000003d0: b08e dfbd 8e39 69bd 6c45 84be 3474 91be
000003e0: 6b63 293d 3f11 41be 8f7c f23d 15ef 8bbd
000003f0: 8dcd bbbe ed8c 313e 6a96 5a3b 1044 0bbc

in_proj_bias f4 [72]
-0.103774205 0.29691768 -0.115564965 -0.028227959 -0.026609356 -0.18012337 -0.0034456872 0.21588929
-0.14814001 0.07862175 -0.13154267 -0.012075244 -0.20386349 -0.113560565 -0.15430485 -0.13537587
-0.05676891 -0.08546726 0.060033143 0.014776373 0.1365557 0.15251084 -0.23947966 -0.21903309
-0.23635696 0.20749667 -0.264643 -0.18616624 0.114794016 -0.24511923 0.26140705 0.29164854
0.057315204 -0.18051416 0.21114512 -0.13253236 -0.107731275 -0.2585193 -0.022122754 0.18399335
-0.08166846 -0.0511274 0.15472084 -0.0824268 -0.019618005 -0.06601267 -0.056317907 0.010458808
0.048185024 0.04884997 -0.02700801 0.05749766 -0.046711843 -0.018349541 0.09281229 -0.03697301
-0.061744712 -0.038873687 -0.09435489 -0.004558917 -0.054594234 -0.04286283 0.034812983 0.03567813
-0.013991838 -0.061533824 -0.0021515926 0.032077808 -0.016806463 -0.017287796 -0.046039324 -0.038696274
00000000: 9287 d4bd 9805 983e 53ad ecbd 523e e7bc
00000010: ddfb d9bc 4372 38be 0ad1 61bb 1512 5d3e
00000020: 04b2 17be 7104 a13d 1fb3 06be 3fd7 45bc
00000030: 97c1 50be 7192 e8bd 1702 1ebe f99f 0abe
00000040: 8486 68bd 7509 afbd 50e5 753d 9a18 723c
00000050: 42d5 0b3e cd2b 1c3e 283a 75be 364a 60be
00000060: 8f07 72be 027a 543e 4a7f 87be 5da2 3ebe
00000070: 2019 eb3d 8900 7bbe 25d7 853e f552 953e
00000080: 59c3 6a3d b4d8 38be 6d36 583e 90b6 07be
00000090: 37a2 dcbd a45c 84be c73a b5bc c168 3c3e
000000a0: cb41 a7bd f76a 51bd 246f 1e3e 62cf a8bd
000000b0: f0b5 a0bc a731 87bd 9bad 66bd 6c5b 2b3c
000000c0: a95d 453d e816 483d e73f ddbc ab82 6b3d
000000d0: eb54 3fbd c751 96bc 5f14 be3d 0371 17bd
000000e0: 06e8 7cbd 043a 1fbd 233d c1bd f862 95bb
000000f0: 349e 5fbd ef90 2fbd 0f98 0e3d 3b23 123d
00000100: 063e 65bc e40a 7cbd bc01 0dbb 0564 033d
00000110: b5ad 89bc 239f 8dbc bb93 3cbd fc7f 1ebd

weight f4 [24, 24]
-0.025428366 -0.014314699 0.019256316 0.015716976 0.05698564 -0.021842226 -0.05560125 0.03191179
0.00067118363 0.01357924 -0.042987134 -0.02777803 -0.020714624 0.029188568 -0.0037575809 0.010605791
-0.009098209 -0.026921537 0.049418613 -0.0004414997 0.012005277 -0.03969095 0.007311911 -0.015350657
0.01538417 0.013464704 0.014739507 0.009881711 0.02404264 0.03621797 -0.02771483 0.010485757
0.00032186075 -0.04599064 -0.005231195 -0.01562867 -0.003395724 -0.014520172 -0.025662353 -0.012677318
-0.00023778058 -0.047625575 0.023577144 0.04418266 -0.014288856 0.011331686 0.018482728 -0.017047687
-0.007816718 -0.004723065 -0.05261312 -0.032786652 -0.01705963 0.0040209494 0.05010614 -0.011940809
-0.034882642 0.0063923853 -0.036945257 0.0047043716 0.017633172 -0.02817219 0.018766666 0.013328369
0.0039480184 -0.019614376 -0.0029968896 0.008965786 0.0007075643 0.011718981 -0.0073370747 0.023543956
0.00014441971 0.0042475485 0.020648275 0.0043988735 -0.024483312 -0.0010388059 0.022931486 -0.0102426885
0.014553454 0.012896679 0.04789735 0.02488395 -0.008329107 -0.008292549 0.012092311 0.007913226
0.0003903065 0.04359177 -0.032952346 -0.038644947 -0.01319062 0.016345775 -0.0050028423 0.003555224
-0.032828085 -0.022875289 -0.034456696 -0.019345783 -0.0034258475 -0.034179308 0.022876188 0.0009701538
-0.019940572 0.053928573 -0.028881494 0.013373514 0.029581245 -0.023118228 0.035110768 0.024300314
-0.006863424 0.017951325 -0.0068375603 -0.015953463 0.023587355 0.0014809927 -0.0025117549 0.030157033
-0.014461646 -0.017970264 -0.050091304 -0.04768684 0.020124422 0.0051276935 -0.015218518 0.02064596
-0.0445572 0.007050314 -0.08670688 -0.05009254 0.019845922 -0.006559 0.0013030889 0.01822478
0.020370737 -0.06975498 0.04608551 0.05278726 0.007505583 -0.014576837 -0.0041584126 0.0020957491
0.009239383 0.0017365576 0.045336235 0.010984717 0.034514938 0.032401267 -0.06825125 0.021050816
0.01531689 -0.020900266 -0.015871229 -0.044305377 -0.005794482 0.027385019 -0.029468585 0.0006822867
-0.00704843 -0.06678795 0.041656006 0.062240273 -0.023284853 -0.011734155 0.027017156 -0.044060618
0.05016888 0.014957435 0.07213595 0.056910798 0.017930478 0.027774984 -0.044019774 0.0013644863
0.04177075 -0.0400182 0.04241555 -0.014798716 -0.025892142 0.0548863 -0.037660386 -0.03544216
0.009566734 0.0030832898 -0.001936167 0.003913446 -0.011448024 0.014871729 0.0010736989 -0.046555407
-0.0052717924 -0.021695267 -0.014358477 0.0034942115 0.020335192 -0.032238856 -0.0125751225 0.0020310646
-0.0029784073 0.056734487 -0.038450934 0.009647566 0.006898021 -0.0020918625 0.028214972 0.021045526
0.005268765 0.013097677 0.01656555 -0.018505143 0.037946943 -0.018612036 0.008596897 0.013147419
0.03566177 0.0066791433 0.034620456 0.027751593 0.03939655 0.022432085 -0.06275676 0.017081762
0.015779251 -0.035934087 -0.013941825 -0.040659875 -0.012935971 0.032566607 -0.020052353 -0.019477366
0.00090338057 -0.045139797 0.031146713 0.03304191 -0.012207001 -0.0010505 0.0179838 -0.0298975
0.0401747 -0.0028761334 0.06175577 0.052158035 0.038160767 0.012839105 -0.064464934 0.018610366
0.045401685 -0.030973006 0.016159575 -0.028670501 -0.012232667 0.06700478 -0.045463827 -0.011499097
00000000: 264f d0bc 3388 6abc 6cbf 9d3c e3c0 803c
00000010: c669 693d 78ee b2bc 23be 63bd f0b5 023d
00000020: 5ff2 2f3a 767b 5e3c 4713 30bd c08e e3bc
00000030: b7b1 a9bc dd1c ef3c bf41 76bb e9c3 2d3c
00000040: a810 15bc 8e8a dcbc 2c6b 4a3d 1679 e7b9
00000050: c8b1 443c fa92 22bd c198 ef3b 5281 7bbc
00000060: e30d 7c3c 109b 5c3c f97d 713c e6e6 213c
00000070: 12f5 c43c 4b59 143d 360a e3bc 74cc 2b3c
00000080: 6bbf a839 ae60 3cbd 726a abbb b207 80bc
00000090: cc8a 5ebb 04e6 6dbc db39 d2bc 87b4 4fbc
000000a0: bd54 79b9 0913 43bd db24 c13c e0f8 343d
000000b0: ce1b 6abc 89a8 393c 1769 973c 97a7 8bbc
000000c0: b111 00bc f1c3 9abb db80 57bd 4c4b 06bd
000000d0: a3c0 8bbc 2bc2 833b 193c 4d3d 62a3 43bc
000000e0: 1ae1 0ebd 3777 d13b e953 17bd 2127 9a3b
000000f0: 7173 903c 5dc9 e6bc 8dbc 993c 3b5f 5a3c
00000100: 615e 813b 54ae a0bc 7767 44bb 3be5 123c
00000110: d67b 393a f800 403c d86b f0bb 41df c03c
00000120: 5f6f 1739 052f 8b3b 9226 a93c 6d24 903b
00000130: 3a91 c8bc 8b28 88ba d0da bb3c f3d0 27bc
00000140: 9c71 6e3c 984c 533c 0330 443d 6dd9 cb3c
00000150: cf76 08bc 79dd 07bc d41e 463c 7aa6 013c
00000160: 0da2 cc39 498d 323d 0af9 06bd 2a4a 1ebd
00000170: 781d 58bc 93e7 853c e2ee a3bb c3fe 683b
00000180: be76 06bd f564 bbbc 7722 0dbd 0c7b 9ebc
00000190: 2f84 60bb 9aff 0bbd d866 bb3c eb51 7e3a
000001a0: 695a a3bc 35e4 5c3d e298 ecbc 951c 5b3c
000001b0: 5e54 f23c 7062 bdbc 4fd0 0f3d 7411 c73c
000001c0: 93e6 e0bb a80e 933c 9d0d e0bb d6b0 82bc
000001d0: 453a c13c de1d c23a 419c 24bb e20b f73c
000001e0: 8af0 6cbc 6036 93bc 8a2c 4dbd 4753 43bd
000001f0: f9db a43c 3606 a83b 1757 79bc b721 a93c
00000200: 9c81 36bd 5206 e73b 6093 b1bd d62d 4dbd
00000210: ea93 a23c e1ec d6bb 68cc aa3a 224c 953c
00000220: 88e0 a63c b3db 8ebd 29c4 3c3d 7437 583d
00000230: 65f1 f53b b0d3 6ebc 4b43 88bb d658 093b
00000240: c860 173c 349d e33a 7db2 393d 3ef9 333c
00000250: 895f 0d3d 31b7 043d 50c7 8bbd c372 ac3c
00000260: b1f3 7a3c 0937 abbc 6104 82bc 8e79 35bd
00000270: a3df bdbb 8c56 e03c 1a68 f1bc 7cdb 323a
00000280: 84f6 e6bb 1fc8 88bd 7d9f 2a3d a8ef 7e3d
00000290: e0bf bebc 9d40 40bc 1553 dd3c e878 34bd
000002a0: e27d 4d3d 0810 753c 03bc 933d 4c1b 693d
000002b0: f0e2 923c 5d88 e33c 144e 34bd 90d8 b23a
000002c0: ce17 2b3d 20ea 23bd eebb 2d3d 5076 72bc
000002d0: c21b d4bc 75d0 603d c741 1abd cc2b 11bd
000002e0: cabd 1c3c 0511 4a3b fcc6 fdba 5d3c 803b
000002f0: 7e90 3bbc 8da8 733c 5bbb 8c3a e2b0 3ebd
00000300: 00bf acbb 46ba b1bc d13f 6bbc 24ff 643b
00000310: fd95 a63c e40c 04bd e307 4ebc 9c1b 053b
00000320: 6231 43bb 6c62 683d ba7e 1dbd d310 1e3c
00000330: cb08 e23b a117 09bb 1623 e73c ab67 ac3c
00000340: 9ba5 ac3b a497 563c 7ab4 873c 1998 97bc
00000350: 416e 1b3d 4578 98bc 00da 0c3c 4668 573c
00000360: 1312 123d b7dc da3b 2ece 0d3d 4f57 e33c
00000370: 475e 213d 7ec3 b73c 9e86 80bd 0def 8b3c
00000380: 7d43 813c 9f2f 13bd 416c 64bc f88a 26bd
00000390: 65f1 53bc 9064 053d d544 a4bc ff8e 9fbc
000003a0: d8d0 6c3a 82e4 38bd 6427 ff3c f456 073d
000003b0: e0ff 47bc eeb0 89ba c352 933c 9aeb f4bc
000003c0: 3a8e 243d 837d 3cbb 9ef3 7c3d aaa3 553d
000003d0: 774e 1c3d 1c5b 523c 3106 84bd c474 983c
000003e0: 1ef7 393d 1abb fdbc 1661 843c 66de eabc
000003f0: 866b 48bc cd39 893d 4738 3abd b566 3cbc

bias f4 [24]
0.007779245 0.0024101562 -1.0077758e-05 -0.002074805 -0.0032795833 0.011128277 0.00601065 -0.0015910203
-0.0049258093 0.004118801 0.005270274 -0.0033652862 0.00044193832 -0.002900146 -0.0122286575 -0.004764943
-0.0034452348 -0.0060328697 0.0031638024 0.006221753 -0.0059446166 -0.0004360137 -0.001557367 0.0013667941
00000000: 09e9 fe3b b6f3 1d3b a413 29b7 74f9 07bb
00000010: 47ee 56bb 6053 363c fdf4 c43b c889 d0ba
00000020: af68 a1bb 02f7 863b 43b2 ac3b 228c 5cbb
00000030: f5b3 e739 6010 3ebb b55a 48bc 3d23 9cbb
00000040: 73c9 61bb 61af c5bb cc57 4f3b d9df cb3b
00000050: 0fcb c2bb c598 e4b9 9120 ccba 0026 b33a

weight f4 [128, 24]
0.030799111 -0.05461381 -0.038017467 -0.13154404 -0.032397732 0.066524744 0.17264955 0.04176232
-0.2562173 -0.14415058 -0.083759345 -0.047281712 0.08324682 0.035834465 0.16786687 -0.18149045
-0.18304801 -0.06602055 0.0031521593 -0.109359846 0.0006089576 0.1271521 -0.031027915 0.08862623
-0.107173674 0.010983954 -0.019599847 0.054867063 -0.039372932 -0.03466249 -0.11632494 -0.034602415
-0.20607196 -0.04327731 0.1130512 0.031099265 -0.007818144 -0.013558582 0.13383546 -0.022002112
-0.0017022727 -0.2968829 0.007039866 -0.019277703 -0.010645856 0.054448836 0.025403103 0.063547865
0.09248225 0.02920991 -0.1868689 0.046193495 0.08406059 0.06697804 0.10960882 0.06428603
0.022456933 0.09713032 -0.026929913 -0.057127066 -0.08868194 -0.06928029 0.19658534 -0.059009522
0.024562834 -0.099428885 0.17984125 0.032194246 0.10236702 0.10225071 0.09623725 0.10499045
-0.029171605 -0.15467624 -0.10875694 -0.057435665 -0.18240185 -0.15455844 0.067427374 -0.014621209
-0.09710568 -0.052918494 0.101987965 -0.039098535 0.07863053 -0.15631217 0.12628566 -0.19350713
-0.011114366 -0.14219765 0.06494141 -0.21896152 0.13064224 0.0024124777 -0.006594943 0.06602564
0.031221215 -0.13788955 -0.05458592 -0.09894967 0.052138187 0.13997307 0.19290127 0.10444934
-0.14557411 0.052229352 0.037634447 0.046781447 0.1566113 -0.13245016 0.23887064 0.075839475
0.13474219 -0.10767656 0.11236447 -0.21813947 0.0917822 0.017774336 0.0707737 0.033637412
-0.049730238 0.10302948 0.02825453 0.18526275 -0.13111699 -0.09888024 0.07912364 0.18705471
-0.118738286 -0.09228757 0.08786405 -0.10697783 0.07110026 0.19195922 0.18023062 0.050577477
0.07788063 -0.08283368 0.09888791 -0.0530363 0.06585144 0.16563891 -0.10426375 0.055833425
0.05432841 0.025892505 -0.047335673 0.09659325 -0.111479 -0.048595175 0.088613465 0.09374957
-0.15108179 0.0061017754 0.16183524 -0.18452758 0.011544088 0.005202745 0.21045274 -0.13867794
-0.17864573 -0.06295663 0.045305293 -0.050546855 0.0011618355 0.25220627 0.12905751 0.09105936
0.074850135 -0.099727996 0.052840315 0.071434654 0.12585466 0.13168158 0.045391444 0.14000626
-0.32327512 0.13631761 0.122242466 -0.27114835 0.20299831 -0.0936904 0.077833556 -0.033831168
-0.21828675 -0.07705941 -0.030722415 -0.15454848 0.24579468 -0.02870351 -0.091679834 -0.036267452
0.10142577 -0.12237665 -0.16876 0.093891434 -0.07438775 -0.014465155 0.28101954 0.066666275
-0.10691637 0.16957305 0.022942303 -0.09279766 0.07600909 -0.04493868 -0.016863214 -0.05827965
0.071158245 -0.009590741 0.0313571 -0.2688066 0.04418551 0.15715128 -0.07077765 0.12302091
-0.1854286 -0.037631895 0.009310097 0.06869944 -0.21239407 0.22313218 -0.00146245 0.1480542
-0.07492392 0.044774313 0.017257929 -0.12938981 0.030760031 0.0024659326 0.16839345 -0.18497916
-0.10656269 -0.12090029 -0.008831896 -0.16255476 0.21711278 0.09159724 0.010171732 -0.09810102
0.050732832 -0.0066644223 -0.15967692 0.06532079 0.08455063 -0.08180388 0.20403151 0.21844774
0.036976997 -0.110781856 -0.026556285 -0.28029734 0.13649347 -0.08893837 -0.06806625 -0.24508853
00000000: 6b4e fc3c bbb2 5fbd 34b8 1bbd 7bb3 06be
00000010: 7cb3 04bd 203e 883d 0bcb 303e f70e 2b3d
00000020: ea2e 83be 369c 13be 058a abbd 78aa 41bd
00000030: 4f7d aa3d 29c7 123d 4be5 2b3e a2d8 39be
00000040: f070 3bbe c835 87bd 7594 4e3b 0ef8 dfbd
00000050: 74a2 1f3a 2934 023e 412e febc ab81 b53d
00000060: df7d dbbd 0bf6 333c dc8f a0bc 49bc 603d
00000070: 8345 21bd 41fa 0dbd c53b eebd 43bb 0dbd
00000080: 8704 53be 8c43 31bd 6387 e73d e3c3 fe3c
00000090: ac17 00bc d124 5ebc 2a0c 093e c63d b4bc
000000a0: cb1e dfba 0901 98be adae e63b 46ec 9dbc
000000b0: f56b 2ebc be05 5f3d 2b1a d03c 6225 823d
000000c0: 5567 bd3d 9f49 ef3c 905a 3fbe 6435 3d3d
000000d0: f527 ac3d c82b 893d 977a e03d 65a8 833d
000000e0: 9af7 b73c 43ec c63d 1f9c dcbc 12fe 69bd
000000f0: e19e b5bd d3e2 8dbd ab4d 493e f8b3 71bd
00000100: ff37 c93c 5fa1 cbbd 4e28 383e 1dde 033d
00000110: cda5 d13d d268 d13d 0918 c53d 3c05 d73d
00000120: 4af9 eebc 7363 1ebe f5bb debd a941 6bbd
00000130: 8dc7 3abe 9144 1ebe 5d17 8a3d cc8d 6fbc
00000140: 58df c6bd 10c1 58bd 11df d03d c925 20bd
00000150: 0b09 a13d 4c10 20be 0751 013e bc26 46be
00000160: 0819 36bc 439c 11be 0100 853d 7337 60be
00000170: 14c7 053e a91a 1e3b 641a d8bb 7338 873d
00000180: a2c3 ff3c eb32 0dbe 7c95 5fbd 20a6 cabd
00000190: da8e 553d 1a55 0f3e e987 453e 89e9 d53d
000001a0: 6111 15be 72ee 553d 9426 1a3d e79d 3f3d
000001b0: b65e 203e 04a1 07be 819a 743e ba51 9b3d
000001c0: dbf9 093e 8785 dcbd 581f e63d f45f 5fbe
000001d0: 4ef8 bb3d 7c9b 913c cdf1 903d 62c7 093d
000001e0: efb1 4bbd 1f01 d33d 0b76 e73c 85b5 3d3e
000001f0: 8843 06be b981 cabd 930b a23d 458b 3f3e
00000200: 0f2d f3bd 4401 bdbd 11f2 b33d 3117 dbbd
00000210: 039d 913d f590 443e 608e 383e 542a 4f3d
00000220: e17f 9f3d b4a4 a9bd bf85 ca3d 973c 59bd
00000230: 1fdd 863d 3f9d 293e 3c88 d5bd 97b1 643d
00000240: 7887 5e3d 851c d43c 0de3 41bd afd2 c53d
00000250: 1a4f e4bd bc0b 47bd fa7a b53d c6ff bf3d
00000260: 2fb5 1abe 67f1 c73b 23b8 253e ccf4 3cbe
00000270: 6a23 3d3c ca7b aa3b ec80 573e 9701 0ebe
00000280: e8ee 36be 68ef 80bd 0b92 393d 380a 4fbd
00000290: bb48 983a 2e21 813e a727 043e 547d ba3d
000002a0: 074b 993d 313e ccbd 166f 583d 554c 923d
000002b0: 0be0 003e 89d7 063e 61ec 393d cd5d 0f3e
000002c0: 5184 a5be d896 0b3e 425a fa3d f5d3 8abe
000002d0: cade 4f3e c1e0 bfbd 3367 9f3d 8d92 0abd
000002e0: 9086 5fbe 53d1 9dbd 93ad fbbc f541 1ebe
000002f0: 9ab1 7b3e a023 ebbc a3c2 bbbd 2e8d 14bd
00000300: 50b8 cf3d 9ca0 fabd 6ccf 2cbe 274a c03d
00000310: 9b58 98bd 42ff 6cbc cbe1 8f3e 5488 883d
00000320: f8f6 dabd 8fa4 2d3e 7ff1 bb3c b30c bebd
00000330: a7aa 9b3d 9f11 38bd b924 8abc a4b6 6ebd
00000340: 6abb 913d 7c22 1dbc 4d70 003d 05a1 89be
00000350: defb 343d 44ec 203e dff3 90bd 63f2 fb3d
00000360: ffe0 3dbe e723 1abd 6189 183c 4bb2 8c3d
00000370: d57d 59be c37c 643e aeaf bfba 859b 173e
00000380: b671 99bd 4565 373d 8060 8d3c c37e 04be
00000390: 76fc fb3c 7c9b 213b 556f 2c3e 2d6b 3dbe
000003a0: 8a3d dabd 929a f7bd a8b3 10bc c174 26be
000003b0: d052 5e3e 5597 bb3d 56a7 263c 30e9 c8bd
000003c0: 3bcd 4f3d 3a61 dabb 5982 23be e8c6 853d
000003d0: e128 ad3d cb88 a7bd a3ed 503e c4b0 5f3e
000003e0: 3175 173d 99e1 e2bd 918c d9bc 2283 8fbe
000003f0: f2c4 0b3e 5225 b6bd 5166 8bbd 7df8 7abe

bias f4 [128]
-0.0078407675 -0.21680458 -0.29979068 -0.24603815 -0.24564634 -0.25488037 -0.12773308 -0.118724644
-0.19360925 -0.012416058 -0.30728313 -0.081625514 -0.21436232 -0.19633472 0.049013495 -0.019938987
-0.06306674 -0.29382244 -0.2770686 -0.26050314 -0.23957919 -0.25856367 -0.2079291 -0.028664205
-0.09345348 -0.06616109 -0.28733674 -0.24191467 -0.24942851 -0.014309906 -0.1724216 0.010047376
0.02523558 -0.09554729 -0.24792078 0.0062858122 -0.3530063 -0.35326377 -0.21239616 -0.025596987
-0.32418463 -0.1656457 0.027871866 -0.2841394 -0.20209369 -0.08646932 -0.16407952 -0.2040216
-0.30957365 -0.13851923 -0.10076469 -0.17675437 -0.0041591665 -0.31964266 -0.2693472 -0.044457983
-0.17357023 -0.22275819 -0.009868529 -0.17676814 -0.23011436 -0.21969551 -0.049197275 -0.048540972
-0.14528225 -0.2979025 -0.38485393 -0.14948833 -0.095859684 0.02268596 -0.04546142 -0.18532206
-0.057155296 -0.3221901 -0.20461506 -0.26713577 -0.21386428 -0.1429293 -0.14691617 0.006229474
-0.18154337 -0.35089183 -0.34867847 -0.14862041 0.009178348 -0.23274411 -0.29829553 -0.010675704
-0.28701922 -0.12061009 -0.09799032 -0.1663054 -0.35230947 -0.13999106 -0.1565363 -0.2587565
-0.27252954 -0.05065341 -0.24871881 -0.34772182 -0.042146668 -0.33872274 -0.021850172 -0.06466416
-0.31491497 -0.040364858 -0.1142494 -0.22834398 -0.14316522 -0.17579918 -0.101278216 -0.22505425
-0.2872491 -0.2146191 -0.027652884 -0.29301617 -0.15634473 -0.024340527 0.057396073 -0.32716504
-0.055429373 -0.05009899 -0.32926112 0.054168407 -0.14071655 -0.10930675 -0.049248174 -0.21398944
00000000: 9076 00bc 0502 5ebe 2a7e 99be 6df1 7bbe
00000010: b78a 7bbe ae7f 82be 76cc 02be e825 f3bd
00000020: 8141 46be b96c 4bbc 3754 9dbe 472b a7bd
00000030: cc81 5bbe f80b 49be 60c2 483d 1657 a3bc
00000040: 2329 81bd e56f 96be efdb 8dbe ab60 85be
00000050: 3f54 75be 7562 84be 5eeb 54be 32d1 eabc
00000060: 8a64 bfbd 777f 87bd cd1d 93be 7bb8 77be
00000070: 306a 7fbe 1974 6abc 4a8f 30be c09d 243c
00000080: d9ba ce3c 4cae c3bd f2de 7dbe 37f9 cd3b
00000090: 3ebd b4be fdde b4be 617e 59be c6b0 d1bc
000000a0: 87fb a5be 079f 29be 8a53 e43c b87a 91be
000000b0: a6f1 4ebe d416 b1bd 7604 28be 0aeb 50be
000000c0: 7080 9ebe fcd7 0dbe b85d cebd 19ff 34be
000000d0: 9e49 88bb 34a8 a3be e0e7 89be 9319 36bd
000000e0: 65bc 31be b91a 64be 9caf 21bc b502 35be
000000f0: 19a3 6bbe dcf7 60be 1583 49bd e6d2 46bd
00000100: dfc4 14be ad86 98be 930b c5be 7813 19be
00000110: 1552 c4bd e8d7 b93c c135 3abd 11c5 3dbe
00000120: ac1b 6abd 1af6 a4be 9c86 51be 05c6 88be
00000130: 3dff 5abe 0f5c 12be 3171 16be 9e20 cc3b
00000140: 81e6 39be 18a8 b3be fc85 b2be f32f 18be
00000150: c860 163c 7954 6ebe 31ba 98be 26e9 2ebc
00000160: 2ff4 92be 6c02 f7bd 26af c8bd f64b 2abe
00000170: e861 b4be d159 0fbe 0d4b 20be bb7b 84be
00000180: fe88 8bbe f379 4fbd 25b0 7ebe 9808 b2be
00000190: fca1 2cbd 116d adbe 22ff b2bc a56e 84bd
000001a0: 893c a1be 9f55 25bd 97fb e9bd 01d3 69be
000001b0: e799 12be b304 34be f46a cfbd 9f74 66be
000001c0: 5012 93be 1cc5 5bbe 4d88 e2bc 3706 96be
000001d0: d518 20be c965 c7bc 2518 6b3d 2d82 a7be
000001e0: e909 63bd 9934 4dbd ea94 a8be b1df 5d3d
000001f0: 0018 10be 38dc dfbd 74b8 49bd 0c20 5bbe

weight f4 [24, 128]
0.070640266 -0.046232574 -0.002936131 -0.06975485 -0.029184965 -0.07482122 -0.08193872 -0.1303918
0.02663947 0.006199924 -0.033058353 -0.047379732 0.019928768 -0.009229863 -0.019262463 0.01527473
0.0022162257 0.052904446 0.023722297 0.015243363 0.027854957 0.084141806 0.011083064 -0.0032221675
-0.062340967 -0.05813734 0.069647886 -0.06127963 0.095355086 0.06839767 -0.093131706 0.046772163
-0.005082622 -0.07573306 -0.08790425 0.0038962192 -0.01425789 -2.4113331e-05 0.05895289 -0.115850836
-0.055240437 0.05274714 -0.049935706 -0.0038995403 0.047334157 -0.010660626 -0.034464397 -0.017369302
0.0039773257 -0.10478915 0.06295307 0.035904758 0.014413983 -0.019988786 0.059569217 0.012645116
-0.077117816 -0.025713336 0.08976811 -0.069806024 -0.0074384813 -0.07094517 -0.01037127 0.029532604
0.0014233489 0.06246171 -0.029212417 -0.00021764851 -0.09626696 0.10126063 -0.048420392 0.07841004
-0.08410139 0.0026252663 0.08611487 -0.070781276 -0.0033141817 -0.055153545 0.023661334 -0.10765172
-0.044033933 0.023761032 0.10224094 0.09099085 -0.11620295 0.03254853 -0.0022816812 0.03336344
0.09202324 -0.06835676 -0.0106295785 -0.06088523 -0.017629018 0.03025294 0.02946455 0.062166367
-0.0073367716 -0.016095528 0.092327766 0.047528744 -0.044075135 -0.04537493 -0.034253206 0.007887986
-0.0502197 0.07693932 0.015418076 -0.0029242996 -0.05193984 -0.09140848 0.028333839 0.013689199
0.07849249 0.09314333 -0.05510669 -0.1017039 0.007085964 0.09412896 0.08584952 -0.04560025
0.03171981 0.025765155 0.047877528 0.14946665 0.059279483 0.034986436 0.025683286 -0.024672829
0.093043536 -0.0968474 0.1038689 0.013843794 0.06978113 0.089981526 0.05461015 0.0033910396
-0.020682596 0.05016821 -0.014839512 -0.018460985 0.045788337 -0.04487652 -0.07539899 0.026431425
0.10708546 -0.13656245 0.038709946 0.0847612 0.021052925 0.037600655 -0.09692242 -0.069294766
0.035302863 0.039396305 -0.04257792 -0.034904756 -0.04912244 0.064324036 0.02672924 0.045852564
0.070287384 -0.018334096 0.085521065 0.0038614934 0.072358534 0.013178299 -0.081260346 0.06981339
0.010572439 -0.13219619 -0.01311886 -0.09353342 -0.066170074 -0.043561805 -0.030735623 0.083567075
0.12329439 0.06826264 0.059785463 -0.05199457 -0.05918619 0.016568318 -0.0343196 -0.009522833
0.00573026 0.01981948 0.038570922 -0.01097884 0.0048139575 0.03320372 -0.048379045 0.08369383
0.08607073 -0.00017675471 0.09313873 0.0049507767 0.22921653 -0.080373906 -0.011207221 0.038046077
0.04076925 -0.013794205 -0.044966258 0.027596664 0.0815309 0.06324592 -0.056873433 0.0597601
-0.004262584 -0.004761031 -0.14946572 0.10157704 0.035374258 0.065744005 -0.08639197 0.18900998
0.009745729 -0.09218521 0.031033035 0.023868877 0.056495495 0.02442105 0.023264812 -0.074583665
0.058248617 -0.0750208 -0.027538158 -0.0056003216 0.039392255 -0.041812845 0.06647029 -0.025309231
0.017803058 0.0089913085 0.020634362 0.062439855 -0.043190338 0.17241329 0.079416424 0.08456003
-0.037965514 -0.07189076 0.15305412 0.14919043 0.07532533 0.03317788 0.030405052 -0.061466478
-0.2004443 -0.11810023 0.02488027 0.00093262 -0.05227861 -0.04625172 0.007990207 -0.002522027
00000000: d8ab 903d 5e5e 3dbd 1b6c 40bb a1db 8ebd
00000010: 4f15 efbc de3b 99bd 7dcf a7bd 6e85 05be
00000020: 053b da3c bb28 cb3b 3268 07bd 4011 42bd
00000030: a841 a33c da38 17bc 50cc 9dbc dc42 7a3c
00000040: 193e 113b 55b2 583d 4355 c23c 4cbf 793c
00000050: 1430 e43c 8a52 ac3d bd95 353c 002b 53bb
00000060: 3e59 7fbd 6b21 6ebd 8da3 8e3d 5900 7bbd
00000070: 8749 c33d 1414 8c3d d6bb bebd 2b94 3f3d
00000080: 208c a6bb ef19 9bbd 2507 b4bd b657 7f3b
00000090: ed99 69bc fc46 cab7 9678 713d 3443 edbd
000000a0: cc43 62bd 630d 583d 6289 4cbd 6e8f 7fbb
000000b0: 76e1 413d e8a9 2ebc 8a2a 0dbd 114a 8ebc
000000c0: 3a54 823b b29b d6bd 8aed 803d de10 133d
000000d0: a028 6c3c 86bf a3bc dafe 733d 762d 4f3c
000000e0: f2ef 9dbd c6a4 d2bc 58d8 b73d 76f6 8ebd
000000f0: 81be f3bb b44b 91bd 42ec 29bc 5cee f13c
00000100: aa8f ba3a dad7 7f3d e14e efbc 9438 64b9
00000110: 9d27 c5bd bc61 cf3d 7654 46bd 7195 a03d
00000120: 593d acbd a90c 2c3b fe5c b03d c6f5 90bd
00000130: be32 59bb afe8 61bd 6ad5 c13c 8178 dcbd
00000140: ed5c 34bd 7fa6 c23c b363 d13d 6959 ba3d
00000150: d0fb edbd 9b51 053d 4288 15bb 1aa8 083d
00000160: ae76 bc3d a1fe 8bbd af27 2ebc ca62 79bd
00000170: bb6a 90bc 03d5 f73c a45f f13c 29a2 7e3d
00000180: 4d69 f0bb c5da 83bc 5716 bd3d 80ad 423d
00000190: 2188 34bd 10db 39bd 174d 0cbd 9c3c 013c
000001a0: 2cb3 4dbd 5d92 9d3d 199c 7c3c 9ba5 3fbb
000001b0: dfbe 54bd 5f34 bbbd 5e1c e83c aa48 603c
000001c0: acc0 a03d eec1 be3d 8db7 61bd 224a d0bd
000001d0: 6031 e83b afc6 c03d e0d1 af3d 54c7 3abd
000001e0: a2ec 013d 7211 d33c 3a1b 443d c90d 193e
000001f0: 0bcf 723d f04d 0f3d c165 d23c ac1e cabc
00000200: 9c8d be3d ee57 c6bd 38b9 d43d 15d1 623c
00000210: 69e9 8e3d 3c48 b83d e5ae 5f3d 343c 5e3b
00000220: 8c6e a9bc 2e7d 4d3d 6d21 73bc 7e3b 97bc
00000230: 8d8c 3b3d 71d0 37bd c96a 9abd b786 d83c
00000240: 9f4f db3d 07d7 0bbe 528e 1e3d 4897 ad3d
00000250: 2f77 ac3c 2503 1a3d 437f c6bd 6aea 8dbd
00000260: bc99 103d 055e 213d 2f66 2ebd 4af8 0ebd
00000270: 9d34 49bd 52bc 833d 47f7 da3c e6cf 3b3d
00000280: d5f2 8f3d 6331 96bc ab25 af3d 1c11 7d3b
00000290: b630 943d cbe9 573c d36b a6bd 53fa 8e3d
000002a0: 0638 2d3c 705e 07be 7df0 56bc 738e bfbd
000002b0: 2d84 87bd dd6d 32bd 46c9 fbbc 3725 ab3d
000002c0: c581 fc3d 48cd 8b3d 9ae1 743d 42f8 54bd
000002d0: 386d 72bd 48ba 873c b592 0cbd a805 1cbc
000002e0: e8c4 bb3b 765c a23c 8bfc 1d3d 98e0 33bc
000002f0: 67be 9d3b a000 083d 1b29 46bd ac67 ab3d
00000300: da45 b03d 3b57 39b9 85bf be3d 203a a23b
00000310: bdb7 6a3e 139b a4bd 7e9e 37bc 34d6 1b3d
00000320: a8fd 263d 1701 62bc 8a2e 38bd 6612 e23c
00000330: acf9 a63d 1487 813d 1ef4 68bd 02c7 743d
00000340: 25ad 8bbb 6c02 9cbb 8b0d 19be a007 d03d
00000350: 99e4 103d cba4 863d 46ee b0bd d58b 413e
00000360: 8dac 1f3c 99cb bcbd fe38 fe3c aa88 c33c
00000370: d267 673d a70e c83c d995 be3c 52bf 98bd
00000380: 1a96 6e3d 81a4 99bd b497 e1bc e782 b7bb
00000390: c659 213d f243 2bbd 9321 883d 4e55 cfbc
000003a0: b8d7 913c 4850 133c 6509 a93c efc0 7f3d
000003b0: 5ae8 30bd 1c8d 303e 14a5 a23d cf2d ad3d
000003c0: ba81 1bbd 763b 93bd 38ba 1c3e 60c5 183e
000003d0: 2b44 9a3d 87e5 073d 0414 f93c 46c4 7bbd
000003e0: 4541 4dbe 89de f1bd b5d1 cb3c 127b 743a
000003f0: 1922 56bd 7272 3dbd 5be9 023c 9748 25bb

bias f4 [24]
-0.004134277 -0.0006645817 0.0007647441 0.00020691275 -0.0035186019 -0.0029706545 -0.0020220506 0.0011354152
0.0006149243 0.001999929 0.0006477169 0.0015335319 0.0005689984 0.001319879 -0.0030652506 -0.0011857086
-0.001432303 -0.0010123686 -0.002636867 0.0025993264 -0.0012744401 0.0020353205 -0.0026395344 0.0011671765
00000000: d478 87bb 5337 2eba 1c79 483a b8f6 5839
00000010: 5898 66bb 50af 42bb 6184 04bb 36d2 943a
00000020: df32 213a 3e11 033b 8ccb 293a cb00 c93a
00000030: d628 153a caff ac3a 5fe2 48bb c769 9bba
00000040: 1dbc bbba 74b1 84ba 4acf 2cbb 7659 2a3b
00000050: 1d0b a7ba 0363 053b 0afc 2cbb f2fb 983a

weight f4 [24]
0.96644044 1.6543833 0.845779 0.7736941 1.0699794 0.8005261 0.8447013 1.5134689
0.7741737 1.0240269 1.2016349 1.2971272 1.0365411 0.9437919 1.1753409 0.9607068
0.8560118 1.112149 0.8797085 1.0046339 1.0697726 0.8297116 0.79000694 1.2830138
00000000: a468 773f d5c2 d33f f984 583f d110 463f
00000010: 16f5 883f 47ef 4c3f 583e 583f 59b9 c13f
00000020: 3f30 463f 5013 833f 2ccf 993f 4408 a63f
00000030: 61ad 843f 599c 713f 9271 963f e1f0 753f
00000040: 9723 5b3f e65a 8e3f 9434 613f d897 803f
00000050: 4fee 883f fb67 543f e53d 4a3f cc39 a43f

bias f4 [24]
0.100181095 0.6982721 0.18162894 0.15735897 0.017145118 0.1781655 -0.05784639 -0.6531392
0.26559174 0.34715796 -0.31701884 0.27514505 0.065572456 -0.17601164 -0.43213835 0.03272251
-0.21778305 0.6940387 -0.31245443 0.30009627 -0.09924104 -0.2749939 0.10991026 -0.35613847
00000000: bf2b cd3d f6c1 323f f0fc 393e b622 213e
00000010: eb73 8c3c 0471 363e 56f0 6cbd 2134 27bf
00000020: a4fb 873e b0be b13e 4b50 a2be d0df 8c3e
00000030: da4a 863d 653c 34be 3d41 ddbe 0a08 063d
00000040: 8502 5fbe 85ac 313f 07fa 9fbe 38a6 993e
00000050: e33e cbbd 00cc 8cbe a118 e13d c857 b6be

weight f4 [24]
0.6754406 0.3968001 0.7909751 1.0596206 0.73475355 0.43078572 0.75128937 0.52081317
0.8381785 0.7810241 0.6057596 0.5144399 0.7364192 0.7471982 0.49088895 0.74923986
0.7464257 0.5957268 0.70643264 0.699808 0.6601986 0.81907344 0.87760013 0.38825598
00000000: ade9 2c3f 6229 cb3e 587d 4a3f a6a1 873f
00000010: cf18 3c3f f28f dc3e 8054 403f 0354 053f
00000020: de92 563f 32f1 473f 1013 1b3f 55b2 033f
00000030: f885 3c3f 6248 3f3f cc55 fb3e 2fce 3f3f
00000040: c115 3f3f 8d81 183f c5d8 343f 9e26 333f
00000050: c702 293f ccae 513f 67aa 603f 7dc9 c63e

bias f4 [24]
-0.064268 -0.28851917 -0.031263765 -0.2859834 0.12737226 0.012240839 -0.035613474 -0.054613523
-0.0058285804 -0.09983765 0.0074255867 -0.2039298 -0.0432783 -0.055359125 -0.015897112 -0.017484266
0.012834016 0.03618851 0.241083 -0.18188903 -0.0026714865 0.027094211 -0.13965233 0.032031827
00000000: f19e 83bd c9b8 93be 6f0e 00bd 6b6c 92be
00000010: e06d 023e cd8d 483c 6fdf 11bd 6eb2 5fbd
00000020: adfd bebb af77 ccbd 5652 f33b f9d2 50be
00000030: 9644 31bd 40c0 62bd a93a 82bc 2a3b 8fbc
00000040: c445 523c 673a 143d 76de 763e 1e41 3abe
00000050: 1b14 2fbb aef4 dd3c 0501 0fbe ce33 033d
