histories_pre/Transformer_EEGNet_BcicIv2a_pt/66.05%_slf=010_bs=064_lr=0.0016_ld=0.999911_nl=1_nh=06_fd=128_do=0.89/best_valid_loss.pt (torch, 74571 bytes, 17 tensors)

positional_encoding f4 [1, 257, 24]
0	0xbf6b9a23	-0.9203207
1	0xbef3b765	-0.47600856
2	0x3e7ee4e5	0.24892004
3	0x3e3a2dd0	0.18181539
4	0x3d984e15	0.07436768
5	0x3f6078d4	0.8768437
6	0xbfefba46	-1.8728721
7	0xbe511f60	-0.20422125
8	0xbea082cb	-0.31349787
9	0x3f714456	0.942449
10	0xbf9cfadc	-1.2264056
11	0xbe4babfc	-0.19889826
12	0xbe8f0131	-0.27930596
13	0xbea8dd91	-0.32981542
14	0x3f7114d9	0.94172436
15	0x3e44cd56	0.19218954
16	0xbf31aa27	-0.69400257
17	0xbf131bb0	-0.5746412
18	0xbe6ba898	-0.23013532
19	0xbf8f6c5d	-1.1204945
20	0xbe6ffd6e	-0.2343652
21	0xbfae590c	-1.3620925
22	0xbd8fd7b1	-0.07023562
23	0x3f68c31f	0.9092273
24	0x3f994a3b	1.1975778
25	0xbedf9821	-0.43670753
26	0x3e4b5ddd	0.19860025
27	0x3d88afff	0.066741936
28	0x3d916a73	0.07100382
29	0xbd170248	-0.03686741
30	0xbf09c88a	-0.53821623
31	0xbe990fca	-0.2989486
32	0xbf177eab	-0.59177655
33	0x3fae2f0f	1.3608111
34	0xbf31d841	-0.694706
35	0x3fc17d75	1.5116411
36	0xbf894567	-1.0724305
37	0xbf1fad24	-0.62373567
38	0x3fe852de	1.8150289
39	0xbe0e3ba2	-0.13889936
40	0xbf46b88a	-0.77625334
41	0xbf5ae504	-0.855057
42	0xbeab6a5b	-0.3347958
43	0x3e3de188	0.18543065
44	0x3f86df00	1.0536804
45	0xbee91283	-0.45521936
46	0xbfb557d0	-1.4167423
47	0x3e8ab4ab	0.27090964
48	0xbe7fced9	-0.2498125
49	0xbf976891	-1.1828786
50	0x3f3ca170	0.73683834
51	0x3fbef8c1	1.4919664
52	0xbf77451e	-0.9658984
53	0x3f06cf75	0.52660304
54	0x3f0c8fa8	0.549067
55	0xbec596a1	-0.38591483
56	0xbcff52e5	-0.031167457
57	0xbe4f20f7	-0.20227419
58	0x3f016ced	0.5055683
59	0x3e6e63f1	0.23280312
60	0xbe8dc905	-0.27692428
61	0xbe8f3c7a	-0.27975827
62	0x3d9fd518	0.07804316
63	0xbf3b19c3	-0.73086184
64	0x3eeb1d5d	0.4592084
65	0x3e433f8d	0.19067211
66	0x401398de	2.3062053
67	0x3f65920d	0.8967598
68	0xbebe9162	-0.37220293
69	0x3f849782	1.0358737
70	0x3f61eff0	0.8825674
71	0x40195b6e	2.3962054
72	0xbf001352	-0.5002948
73	0xbf9910bd	-1.1958233
74	0xbeb95f0d	-0.3620533
75	0x3ed65b2a	0.41866428
76	0xbf42fdd7	-0.7616858
77	0xbf003baa	-0.5009104
78	0x3f05e8c2	0.52308285
79	0x3fcb170b	1.5866407
80	0x3fb38798	1.4025755
81	0x3f615441	0.88019186
82	0xbfd04710	-1.6271687
83	0xbea012a5	-0.31264225
84	0xbf6fc102	-0.9365388
85	0x3f868236	1.0508487
86	0x3aa86fa9	0.001285066
87	0xbf026631	-0.5093718
88	0xbf69e425	-0.91363746
89	0x3d97b62e	0.07407795
90	0x3b285926	0.0025687902
91	0x3f4ac979	0.7921367
92	0x3f9378d0	1.1521244
93	0x3eac5eb7	0.33666012
94	0xbfcf4ecb	-1.6195921
95	0xbf9fccbf	-1.2484359
96	0x3dd3b0cf	0.10336458
97	0x3f6569fe	0.89614856
98	0x4023cb7e	2.5592952
99	0x3f3ef841	0.74597555
100	0xbf2ecf51	-0.6828509
101	0xbe039f5d	-0.12853761
102	0x3efdc3f1	0.49563554
103	0xbe5ddec0	-0.21667004
104	0x3fc7c0dd	1.5605732
105	0x3e268db2	0.1626499
106	0x3fa48c12	1.2855246
107	0x3e3b214a	0.18274418
108	0xbed10dad	-0.40830746
109	0xc003b76b	-2.05807
110	0xbed10b2e	-0.40828842
111	0x3f4ebae3	0.80753917
112	0x3d8dade9	0.06917936
113	0x3eb12b7a	0.34603482
114	0x3ee95aad	0.45576993
115	0xbe0a11ff	-0.13483427
116	0x3f2b8d6a	0.67012656
117	0xbf055486	-0.520821
118	0xbe532d57	-0.20622765
119	0xbf78aafa	-0.9713589
120	0xbfd6a154	-1.6767983
121	0xbf8ada9d	-1.0847965
122	0x3e80b127	0.25135157
123	0x3f2ed5f7	0.68295234
124	0xbf7a1be8	-0.9769883
125	0xbd513d69	-0.051083956
126	0xbf1dba64	-0.61612535
127	0xbfecb653	-1.8493141
128	0xbe94a50c	-0.2903217
129	0xbef83e66	-0.48485106
130	0xbf95c17d	-1.1699673
131	0xbf0d41a6	-0.55178297
132	0x3fb5b111	1.4194661
133	0xbf6d6609	-0.9273382
134	0x3eec8191	0.461926
135	0xbf74b5f2	-0.95590127
136	0x3f72edf6	0.9489435
137	0x3f08318b	0.53200597
138	0xbf049860	-0.51795006
139	0x3eaa5c5d	0.33273593
140	0xc00e9e55	-2.2284138
141	0xbf777993	-0.9666988
142	0xbf3827c3	-0.7193567
143	0xbfb3af29	-1.403783
144	0xbeac5800	-0.3366089
145	0xbf0c01cc	-0.5469024
146	0xbdbdf36a	-0.09274943
147	0x3f5bb4f0	0.85822964
148	0xbebb9601	-0.3663788
149	0x3ee0c0ee	0.43897194
150	0x3d63148a	0.05543951
151	0xbf41fbca	-0.75774825
152	0xbe960d9f	-0.29307267
153	0x3ed34b6b	0.41268477
154	0xbfcf9284	-1.6216588
155	0x3f29ac4e	0.6627854
156	0xbf53887a	-0.8263012
157	0xbefa9d5e	-0.48948187
158	0xbf656353	-0.8960468
159	0xbf80a3c1	-1.0049974
160	0xbf9dc99f	-1.2327155
161	0x3f3cf195	0.73806125
162	0x3fb66733	1.4250244
163	0x3f2d9ec3	0.67820376
164	0xbedcc6c8	-0.43120408
165	0xbe622e50	-0.2208798
166	0x3e859134	0.26087344
167	0x3f582481	0.844307
168	0xbece68d1	-0.40314344
169	0xbf484a92	-0.78238785
170	0xbf2bf378	-0.6716838
171	0xbc9d9167	-0.019234372
172	0x3e58cf5b	0.2117285
173	0xbf1f27b7	-0.62169975
174	0xbfe7bb28	-1.810399
175	0x3eac8c68	0.3370087
176	0xbf1808cf	-0.5938844
177	0x3f9a970b	1.2077345
178	0xbf37d980	-0.71816254
179	0xbfa66433	-1.2999328
180	0xbeb0a7b1	-0.34502938
181	0x3f519c39	0.81879
182	0xbf0bf3a4	-0.5466864
183	0xbe42b02f	-0.19012521
184	0xbf562df4	-0.8366387
185	0x3d8afc11	0.06786359
186	0xbf6d92fd	-0.9280241
187	0xbea9375b	-0.33050045
188	0x3f85d267	1.0454835
189	0xbf32c0a5	-0.698252
190	0xbf3d3239	-0.7390476
191	0xbe35678c	-0.17715281
192	0xbe3193de	-0.17341563
193	0xbf9ac3a0	-1.209095
194	0xbeea8d47	-0.4581091
195	0x3e70cd3c	0.2351579
196	0x3e17befd	0.1481895
197	0xbfbd376d	-1.478254
198	0xbe9193e6	-0.2843315
199	0xbdbb2981	-0.091387756
200	0x3f0b82a7	0.54496235
201	0x3f76224e	0.96146095
202	0x4001482f	2.0200307
203	0x3f8e9579	1.1139365
204	0xbf4e7f7c	-0.80663276
205	0xbdd634d4	-0.10459295
206	0xbec89ae6	-0.39180678
207	0xbeeb9e65	-0.46019283
208	0xbf51d424	-0.81964326
209	0xbe2b9a48	-0.16758072
210	0xbf30d575	-0.6907571
211	0xbe296f03	-0.16546254
212	0x3fc405f0	1.5314312
213	0x3f79033e	0.9727057
214	0xbfbecf13	-1.4906944
215	0x3f041336	0.51591814
216	0x3fa791ea	1.3091404
217	0x3f528ae2	0.8224317
218	0x3f08ab10	0.5338602
219	0x3e25270d	0.16128178
220	0xbf1ad876	-0.60486543
221	0xbf86ba79	-1.0525657
222	0x3ed3dac2	0.41377836
223	0xbf8bd16e	-1.0923288
224	0x3f462d56	0.7741293
225	0x3f8d6bf9	1.1048576
226	0xbf7f95b2	-0.9983779
227	0x3fccf957	1.6013592
228	0x3f8f35c7	1.1188287
229	0x3e7465ec	0.23867005
230	0x3fa2f375	1.2730547
231	0x3f0c0f82	0.54711163
232	0x3da97492	0.08274187
233	0x3e85eab2	0.2615562
234	0x3ffab318	1.9585905
235	0x3eb8aebe	0.36070818
236	0x3f86cb33	1.0530761
237	0x3eda3c62	0.42624193
238	0xbd5f4381	-0.054507736
239	0xbf9cc176	-1.224654
240	0xbf61af21	-0.8815785
241	0x3f937a6a	1.1521733
242	0xbf337aa8	-0.70109034
243	0xbe83e4d7	-0.25760528
244	0x3f1e44fa	0.61824
245	0xbf83f638	-1.0309515
246	0x3fb579ee	1.4177835
247	0xbdac52c4	-0.08414224
248	0xbec01bd2	-0.37521225
249	0xbe5f273a	-0.21792307
250	0xbf94f426	-1.1637008
251	0xbe58bc4e	-0.21165583
252	0xbf313488	-0.6922078
253	0xbf7f6322	-0.9976064
254	0x3ec23ebf	0.37938496
255	0xbe346617	-0.17617069

weight f4 [24, 22]
0	0xbe337c97	-0.17527996
1	0xbd6d5db5	-0.057950694
2	0x3dd8953f	0.105753414
3	0x3e85ac0a	0.26107818
4	0x3e308cf5	0.17241271
5	0xbe3e8df8	-0.18608844
6	0xbca5b40e	-0.020227458
7	0xbf24ddcb	-0.6440093
8	0xbeaf4f79	-0.3424032
9	0x3dfcb7d2	0.123397484
10	0xbeffbe8f	-0.49950072
11	0x3c8fbc52	0.017545853
12	0x3e8984f0	0.26859236
13	0xbf69d00d	-0.91333085
14	0xbf09e42c	-0.5386379
15	0xbd37d47a	-0.044880368
16	0xbea3ef13	-0.32018337
17	0x3e44089d	0.1914391
18	0x3e8048c1	0.25055507
19	0x3eadbf2a	0.3393491
20	0x3ef91e2d	0.48655835
21	0x3fe9e9f2	1.827452
22	0x3ebd737a	0.37002164
23	0xbdf6f78b	-0.12058934
24	0x3ddd607a	0.10809417
25	0xbeb5d3ef	-0.35513255
26	0xbf142714	-0.5787213
27	0xbf0afd7f	-0.54293054
28	0xbe92ba01	-0.28657535
29	0x3ed37ff5	0.4130856
30	0x3b96ea48	0.004605565
31	0xbf86fe80	-1.0546417
32	0xbf0912ef	-0.53544515
33	0x3e2a7236	0.1664513
34	0xbd4be8b2	-0.049782462
35	0x3ee13167	0.43983003
36	0xbdc8b5f6	-0.09800331
37	0xbe3dafc4	-0.1852408
38	0x3e9e0a04	0.30867016
39	0x3e2e6332	0.17030028
40	0xbe96b8a6	-0.2943775
41	0x3db40d26	0.0879157
42	0x3ddb7f08	0.10717589
43	0x3e4e6f41	0.20159627
44	0x3eb7380b	0.35784945
45	0x3e7c0297	0.24610363
46	0xbcc4a309	-0.024003522
47	0xbf0df858	-0.5545707
48	0xbf552fd2	-0.83276093
49	0xbf798795	-0.97472507
50	0x3e04ab9b	0.12956087
51	0xbdc64c81	-0.09682561
52	0x3ebff127	0.37488672
53	0x3eecf2c9	0.4627898
54	0xbe9a74f5	-0.30167356
55	0x3e5ef7ac	0.21774167
56	0xbe3e0ae0	-0.18558836
57	0xbf150576	-0.5821146
58	0x3eba3f0f	0.36376235
59	0x3f917bf1	1.1365949
60	0x3f107fc2	0.5644494
61	0x3efcb03c	0.49353206
62	0xbe73c9e1	-0.2380748
63	0x3eebe99e	0.46076673
64	0xbe9bd9be	-0.30439562
65	0xbfad353c	-1.3531871
66	0xbf2137dc	-0.6297586
67	0xbf9df315	-1.2339808
68	0xbf29a8f0	-0.66273403
69	0xbf0fa507	-0.56111187
70	0x3e371b7c	0.17881578
71	0x3f3ffe7d	0.74997693
72	0xbf307185	-0.6892322
73	0xbfb92575	-1.4464556
74	0xbfbd5a66	-1.4793212
75	0x3dbaa678	0.09113783
76	0x3de112ff	0.10989951
77	0xbe46a667	-0.19399415
78	0x3e3d17d1	0.18466116
79	0xbec647ee	-0.38726753
80	0xbe817fd2	-0.25292832
81	0x3e68504f	0.22686885
82	0xbdfeecad	-0.12447486
83	0xbe95eb65	-0.29281154
84	0x3f51e91c	0.8199632
85	0x3ef5198a	0.47871047
86	0xbcce22e8	-0.025163129
87	0x3f091c50	0.53558826
88	0x3d739bad	0.059474636
89	0x3e81b540	0.25333595
90	0xbd41bc06	-0.047298454
91	0x3e991e80	0.29906082
92	0x3dcd36f4	0.10020247
93	0x3efc15ef	0.49235484
94	0x3f1a6b50	0.60319996
95	0xbf323844	-0.69617105
96	0xbe54ea18	-0.20792425
97	0x3f4c5f87	0.79833263
98	0x3e0f65f9	0.14003743
99	0x3e6617c2	0.2247
100	0x3ecf5dbb	0.40501198
101	0xbf1dfa6b	-0.6171023
102	0xbedd0318	-0.43166423
103	0x3f191a63	0.5980589
104	0xbda4a6cf	-0.08039629
105	0xbe37b8e3	-0.17941622
106	0xbdf4fcae	-0.11962257
107	0x3e80405d	0.25049105
108	0xbea883d3	-0.32913074
109	0xbb799cd7	-0.0038087869
110	0x3e2df3c1	0.16987516
111	0x3f67b7e1	0.9051495
112	0x3ed15b84	0.40890133
113	0x3daa33b7	0.08310645
114	0xbbbd92d7	-0.005785327
115	0xbf3f87b0	-0.7481642
116	0xbdefd485	-0.11710457
117	0x3d9c92a1	0.07645155
118	0x3ed5257f	0.4163017
119	0xbd94cac1	-0.07265235
120	0xbe465cdb	-0.19371359
121	0x3f762ee3	0.96165293
122	0xbe226591	-0.15859057
123	0xbf0f21f4	-0.55911183
124	0xbec89849	-0.39178684
125	0x3b445590	0.0029958226
126	0x3dbc4c48	0.09194237
127	0x3e59cd2e	0.21269676
128	0xbe85c60e	-0.26127666
129	0xbef3ef37	-0.47643444
130	0xbf15cbf0	-0.5851431
131	0xbe862ce6	-0.2620613
132	0xbdcdfe9f	-0.10058331
133	0x3e8be5ce	0.27323765
134	0x3d8bbc38	0.06823009
135	0xbedf3a72	-0.43599278
136	0xbe59ada8	-0.21257651
137	0x3de650d4	0.112458855
138	0xbf093b37	-0.5360598
139	0x3e552a69	0.2081696
140	0xbd71c1e7	-0.05902281
141	0xbf35848e	-0.7090539
142	0x3ee9f4d8	0.45694613
143	0x3fc93e90	1.5722218
144	0x3e452bc5	0.19254978
145	0xbeffcd79	-0.4996145
146	0xbf00482f	-0.50110143
147	0xbf30279f	-0.68810457
148	0x3f09a9c8	0.5377469
149	0x3f2af56c	0.66780734
150	0xbdfda136	-0.12384264
151	0xbf200e26	-0.6252159
152	0xbf20ac72	-0.6276313
153	0x3e8bb60e	0.27287334
154	0xbec7f22d	-0.39051953
155	0xbe8ca630	-0.2747054
156	0x3d711368	0.058856398
157	0x3e836b6d	0.25667897
158	0x3ef8cb21	0.48592475
159	0x3f008003	0.5019533
160	0x3d244ece	0.040114217
161	0x3e14e48b	0.14540307
162	0x3db7702d	0.08956943
163	0x3e8a5d12	0.27024132
164	0x3f3f0762	0.7462064
165	0xbe5e95bc	-0.21736807
166	0xbd8611ba	-0.0654635
167	0x3f181b7f	0.59416956
168	0x3ee77997	0.45209953
169	0xbf39cf74	-0.72582173
170	0xbdf78848	-0.120865405
171	0xbe580bd4	-0.21098262
172	0xbe07778a	-0.13229194
173	0xbf327e2c	-0.69723773
174	0xbe0c1ef4	-0.13683683
175	0xbe43ee43	-0.19133858
176	0xbe2ee29a	-0.17078629
177	0x3ee1d3ad	0.44106808
178	0x3d2a353e	0.041554682
179	0x3eab8248	0.33497834
180	0x3de1198c	0.10991201
181	0xbe0195f0	-0.12654853
182	0x3f2427f9	0.64123493
183	0x3cd1c35b	0.025605848
184	0x3c2b028d	0.01043762
185	0x3dddcb39	0.10829777
186	0xbedd7f8f	-0.43261382
187	0xbed9fcd7	-0.42575714
188	0x3e422911	0.18960978
189	0xbe537056	-0.20648322
190	0xbb9de079	-0.004818019
191	0x3f14cebc	0.5812795
192	0xbf1747be	-0.59093845
193	0xbe896c5c	-0.26840484
194	0x3ec076de	0.37590688
195	0x3eedfd46	0.46482295
196	0x3d8fbafd	0.07018087
197	0x3f9b376e	1.2126291
198	0xbe77808d	-0.24170132
199	0x3ef5c9a4	0.48005402
200	0x3d5e0f2b	0.054213684
201	0xbf035d72	-0.5131446
202	0xbee9c059	-0.45654562
203	0xbef9fd51	-0.48826078
204	0x3e8376b5	0.25676504
205	0x3f955341	1.1666032
206	0x3e377af9	0.17918004
207	0xbf89afa4	-1.0756726
208	0xbeed673d	-0.46367827
209	0x3f0bb8d1	0.5457888
210	0xbd81601a	-0.06317158
211	0x3f523c2b	0.8212306
212	0xbe80fd71	-0.2519336
213	0xbf847337	-1.0347661
214	0xbd462af1	-0.048380796
215	0x3e951b93	0.291226
216	0xbf1eb594	-0.61995816
217	0xbf5e70a6	-0.8689064
218	0x3df63770	0.120222926
219	0x3b89f597	0.004210185
220	0xbebd0ad2	-0.36922318
221	0x3d7cd519	0.061726663
222	0x3de438f3	0.11143675
223	0x3e960824	0.29303086
224	0x3eb7a6e0	0.35869503
225	0xbd68d863	-0.056846987
226	0xbe3e98c6	-0.18612966
227	0x3f5a0e4f	0.85178083
228	0x3e983a29	0.29731873
229	0xbeddc34d	-0.43313065
230	0xbda56ee5	-0.08077792
231	0xbebb3c44	-0.36569417
232	0xbe36af5f	-0.17840336
233	0x3eb4dc26	0.3532421
234	0xbd40522f	-0.046953376
235	0xbf5c534f	-0.8606462
236	0xbe35a986	-0.1774045
237	0xbe610209	-0.21973433
238	0xbedd2636	-0.43193215
239	0x3c6ba955	0.014383634
240	0x3e9521c2	0.29127318
241	0x3f6306ca	0.88682234
242	0xbe877f66	-0.26464385
243	0xbefc3814	-0.49261534
244	0xbebad694	-0.36491835
245	0xbe0ce963	-0.13760905
246	0x3e8000ee	0.2500071
247	0x3edb27e5	0.42803875
248	0x3dc0ae81	0.09408284
249	0x3e1a28cc	0.15054625
250	0xbd207cc0	-0.03918147
251	0x3e55e6ab	0.20888774
252	0x3e8c823a	0.27443105
253	0xbf13d441	-0.5774575
254	0x3db0d5ee	0.08634554
255	0x3f60bdf2	0.87789834

bias f4 [24]
0	0xbe859a43	-0.26094255
1	0x3fa6e5a8	1.3038836
2	0x3e989126	0.2979824
3	0x3f9d9cb6	1.2313449
4	0xbf1d57ce	-0.61462104
5	0x3ecb314b	0.39686045
6	0xbc85a8f8	-0.016315922
7	0xbf8903a5	-1.0704237
8	0xbe9fda10	-0.31221056
9	0x3f0a530d	0.54032975
10	0xbf23f1ca	-0.64040816
11	0x3f5653d5	0.8372167
12	0x3dd91b8f	0.106009595
13	0xbe6e6dad	-0.23284025
14	0xbf705221	-0.9387532
15	0x3e9e33f4	0.30899012
16	0xbea94c66	-0.330661
17	0x3f44f352	0.7693378
18	0xbf5af61f	-0.855318
19	0x3d5bfecc	0.05370979
20	0xbd3e30f6	-0.04643341
21	0xbf0f0b79	-0.5587688
22	0x3f2080c6	0.6269649
23	0xbf88e6f1	-1.0695478

in_proj_weight f4 [72, 24]
0	0x3e831d31	0.2560821
1	0x3ddaf4f3	0.106912516
2	0x3ebca9a9	0.3684819
3	0x3dfa4147	0.12219482
4	0xbf052bfd	-0.52020246
5	0x3acf1378	0.0015798649
6	0xbde27b9c	-0.11058733
7	0xbea62887	-0.32452795
8	0xbd912d1e	-0.070886835
9	0xbd8ead89	-0.06966693
10	0x3e814841	0.25250438
11	0xbe250cce	-0.16118166
12	0xbb562c18	-0.003268009
13	0x3e2eae06	0.17058572
14	0xbda64a6f	-0.08119666
15	0x3eae7463	0.3407317
16	0xbddf409c	-0.10900995
17	0xbe94e5de	-0.29081625
18	0xbe3fc9ef	-0.18729375
19	0x3d9982ab	0.07495626
20	0xbeb3d164	-0.3512069
21	0x3e8fafd3	0.2806383
22	0x3e0af6b4	0.13570672
23	0xbde08e98	-0.109646976
24	0xbda3fdc4	-0.08007386
25	0xbde8ff56	-0.113768265
26	0x3d3ce7e5	0.04611959
27	0x3ec66642	0.38749892
28	0x3c2db60c	0.010602485
29	0x3b63dc0f	0.0034768616
30	0x3e66dca1	0.22545101
31	0xbd3db7ea	-0.046317972
32	0xbe8c8628	-0.27446103
33	0xbe0437e0	-0.1291194
34	0xbe88c137	-0.2670991
35	0x3db1a58b	0.08674153
36	0x3e2d510a	0.16925445
37	0xbeae2b9d	-0.3401765
38	0xbd9ac208	-0.0755654
39	0x3afe617b	0.0019407714
40	0xbd3fbe1b	-0.046812158
41	0x3eb42cb2	0.3519035
42	0xbd428ffc	-0.047500595
43	0xbecc7bd6	-0.3993823
44	0x3eb6dab2	0.35713726
45	0x3b95f555	0.004576365
46	0xbdd23c99	-0.10265464
47	0xbdf45f48	-0.11932236
48	0xbccf5ce8	-0.025312856
49	0xbdb7b696	-0.089703724
50	0x3aac01e0	0.0013123117
51	0x3e6f4059	0.2336439
52	0x3df45b73	0.11931505
53	0xbe9986b5	-0.29985586
54	0xbdd35ea2	-0.10320784
55	0xbe203c26	-0.15647945
56	0x3e45f589	0.19331945
57	0xbe363d15	-0.17796738
58	0xbebf18c7	-0.3732359
59	0x3d418c77	0.0472531
60	0xbd830d09	-0.06398971
61	0xbd4687ab	-0.048469227
62	0x3e1b3c1c	0.15159649
63	0x3d506185	0.050874252
64	0xbea31278	-0.31850028
65	0xbe59b93c	-0.21262068
66	0xbe77ffe8	-0.24218714
67	0xbe090def	-0.13384221
68	0x3db2d9d2	0.08732952
69	0x3ea70228	0.32618833
70	0x3d862aaf	0.0655111
71	0xbd13924f	-0.036028203
72	0xbe4bbd55	-0.19896443
73	0xbe80575b	-0.25066647
74	0x3de90020	0.11376977
75	0x3e881e80	0.2658577
76	0x3e271b86	0.16319093
77	0xbdbe15a2	-0.0928147
78	0x3c7e8f64	0.015537117
79	0x3dbd022e	0.09228931
80	0xbc63b310	-0.013897672
81	0x3e034a32	0.12821272
82	0xbea8ad94	-0.3294493
83	0x3d5656a6	0.05232873
84	0x3e8126b8	0.25224853
85	0xbf0147f5	-0.5050042
86	0x3d44eb6a	0.04807607
87	0xbeb60228	-0.3554852
88	0xbe9e740e	-0.30947918
89	0x3e9ff7be	0.312437
90	0x3d6bc90a	0.057564773
91	0xbea656a6	-0.32487983
92	0x3de78107	0.11303907
93	0xbe82602d	-0.25464
94	0xbe92c415	-0.28665224
95	0x3d07b26c	0.03312914
96	0x3e9704aa	0.29495746
97	0x3ebddcc2	0.37082487
98	0x3e09c37e	0.1345348
99	0x3dca09d4	0.09865156
100	0xbd312b8e	-0.043254428
101	0x3d3c599c	0.045983896
102	0xbdab95db	-0.08378192
103	0xbe0705d7	-0.13185821
104	0x3eeb0d6e	0.45908684
105	0xbd999a44	-0.07500127
106	0x3e9e7c44	0.30954182
107	0xbde1e20f	-0.110294454
108	0xbdf7b2c8	-0.12094647
109	0x3cfe9fab	0.031081995
110	0x3e976621	0.29570106
111	0xbae73a99	-0.0017641365
112	0xbcb72768	-0.022357658
113	0x3e4a7a44	0.19773203
114	0xbe7eb291	-0.24872805
115	0x3e7fdb6b	0.24986045
116	0xbe25ac29	-0.16178955
117	0xbcf65105	-0.03006793
118	0x3f3125f9	0.69198567
119	0x3c8beb8c	0.017080091
120	0xbec06d1e	-0.3758325
121	0xbdd8dac9	-0.10588605
122	0x3c9c3308	0.019067302
123	0xbe7d82c4	-0.24756914
124	0x3d82c482	0.06385137
125	0x3dce5a61	0.10075832
126	0xbdeb93c0	-0.115027905
127	0x3e8fd04a	0.280886
128	0x3c7dd43e	0.015492497
129	0x3e0ac231	0.1355064
130	0xbdb0391f	-0.08604645
131	0x3e46921a	0.19391671
132	0xbe696c3a	-0.22795191
133	0xbd8e3f9d	-0.06945727
134	0xbd9a2b5b	-0.07527801
135	0xbdb048cb	-0.08607634
136	0x3e5a9b2f	0.2134826
137	0x3e76349f	0.24043511
138	0x3ed5639c	0.41677558
139	0xbe1414e3	-0.14461093
140	0x3e8b722c	0.27235544
141	0xbea65e82	-0.3249398
142	0xbd2bbe08	-0.041929275
143	0xbce78d27	-0.028265549
144	0xbeb2ac7e	-0.34897226
145	0x3d18d599	0.037313078
146	0x3c2db94e	0.010603262
147	0x3ed05aa7	0.40694162
148	0xbd07cff8	-0.03315732
149	0xbe7b8dbd	-0.24565788
150	0x3bddc581	0.006767929
151	0xbdf5e79b	-0.12007066
152	0xbe893638	-0.26799178
153	0x3ecfb5a9	0.40568283
154	0xbedb3964	-0.42817223
155	0x3d26875d	0.040656436
156	0x3dcd7d29	0.10033638
157	0xbebdffa0	-0.3710909
158	0xbdc221b7	-0.09479087
159	0xbea9930b	-0.33119997
160	0xbe4872e5	-0.19575079
161	0x3d83ee35	0.06441919
162	0xbbbe40ad	-0.00580605
163	0xbe9b8044	-0.30371296
164	0x3f157af4	0.58390737
165	0x3e64fcc7	0.22362052
166	0x3d9342cd	0.071904756
167	0x3d7d9010	0.061904967
168	0x3e61d3f3	0.22053508
169	0x3e856898	0.2605636
170	0xbe2cf1fe	-0.16889188
171	0x3e8992aa	0.26869708
172	0xbe90e67d	-0.2830085
173	0x3e6fe88f	0.23428558
174	0x3db836c4	0.08994821
175	0x3e1eeca8	0.15519965
176	0xbdf4a063	-0.11944654
177	0x3e532f4b	0.2062351
178	0x3de5aae9	0.11214239
179	0xbccd249a	-0.025041867
180	0x3c65cad0	0.014025405
181	0xbe110008	-0.14160168
182	0xbd15fa81	-0.036615852
183	0xbe625ea2	-0.22106412
184	0xbe9c38c8	-0.3051207
185	0x3de3176f	0.11088454
186	0xbebff5ff	-0.37492368
187	0x3d5f3920	0.054497838
188	0xbc8605ce	-0.01636019
189	0xbe7bb12f	-0.24579309
190	0x3ec8309d	0.3909959
191	0xbdef0575	-0.11670963
192	0xbdbfaee7	-0.09359532
193	0xbeb1e0c6	-0.347418
194	0x3e5b18cc	0.21396178
195	0x3e98e161	0.2985945
196	0x3c8cee74	0.017203547
197	0xbe0134cb	-0.12617795
198	0x3dbaf19e	0.09128116
199	0xbe3f0497	-0.18654095
200	0x3e0fb54b	0.14034002
201	0xbe398573	-0.18117313
202	0xbe8dbed5	-0.27684656
203	0xbe280371	-0.16407563
204	0xbd03a5db	-0.032140594
205	0xbe8d8a38	-0.27644515
206	0x3e0c7525	0.13716562
207	0xbb5b2b2f	-0.0033442487
208	0xbecf2e27	-0.404649
209	0xbdd6944e	-0.104775056
210	0x3d606aa3	0.054789197
211	0xbebb9fce	-0.3664536
212	0x3e65e7ad	0.22451659
213	0x3eb23575	0.3480641
214	0x3caac0f4	0.02084396
215	0x3de5455b	0.11194869
216	0x3d25227a	0.040316083
217	0x3e13f516	0.14448962
218	0xbe70cc83	-0.23515515
219	0xbeac1d20	-0.3361597
220	0x3c02284f	0.007944181
221	0x3e048725	0.12942179
222	0x3dcc0e76	0.09963696
223	0x3dcff8b4	0.10154858
224	0x3c1d1789	0.009588131
225	0x3df2de9c	0.118588656
226	0x3f012c89	0.5045858
227	0x3d8bb43a	0.06821485
228	0x3e45c572	0.193136
229	0x3dc09484	0.09403327
230	0x3c494a1b	0.0122857345
231	0xbd6eafe1	-0.0582732
232	0xbd0751ba	-0.033036925
233	0x3ddbe2a7	0.1073659
234	0x3e928df7	0.28623936
235	0x3e0936c2	0.13399795
236	0xbe94a8d6	-0.29035062
237	0xbeedc05f	-0.4643583
238	0x3db174be	0.08664845
239	0xbcc26bf3	-0.023733115
240	0x3d1be25b	0.038057666
241	0xbdc826d9	-0.097730346
242	0x3e886ace	0.26643986
243	0xbe04b989	-0.12961401
244	0xbdded936	-0.108812734
245	0xbd874316	-0.066045925
246	0xbe8871e3	-0.2664939
247	0xbe949e61	-0.29027084
248	0x3d4ec5df	0.050481673
249	0xbe3f0623	-0.18654685
250	0x3df1be0e	0.11803828
251	0xbd8e4423	-0.0694659
252	0xbebf9e53	-0.3742548
253	0x3e33d20b	0.17560594
254	0x3aa4ee39	0.0012583203
255	0xbb6c43cc	-0.0036051152

in_proj_bias f4 [72]
0	0xbdce175e	-0.10063051
1	0x3e9ebf54	0.31005347
2	0xbde634fd	-0.112405755
3	0xbc8e2ee6	-0.017356347
4	0xbd059a8d	-0.032618094
5	0xbe370b9b	-0.17875521
6	0xba3c5eac	-0.0007185738
7	0x3e5812f2	0.21100977
8	0xbe1a6469	-0.15077366
9	0x3d9e0a3e	0.07716797
10	0xbe054b5e	-0.13017032
11	0xbb5cbcda	-0.00336819
12	0xbe4da492	-0.2008231
13	0xbde0e2b2	-0.10980739
14	0xbe29c96d	-0.16580744
15	0xbe1cc39e	-0.15308997
16	0xbd567b66	-0.052363776
17	0xbdc03918	-0.0938589
18	0x3d7c39f1	0.061578695
19	0x3c7c6c34	0.015406657
20	0x3e0585ac	0.13039273
21	0x3e237c40	0.15965366
22	0xbe7467bc	-0.23867697
23	0xbe63a530	-0.22230983
24	0xbe6bf160	-0.23041296
25	0x3e4e5cf8	0.20152652
26	0xbe879ec5	-0.2648832
27	0xbe44a859	-0.19204845
28	0x3def32bf	0.11679601
29	0xbe79a9fb	-0.24381249
30	0x3e8882e0	0.2666235
31	0x3e9a3066	0.3011505
32	0x3d75ab99	0.0599781
33	0xbe3bfad1	-0.18357398
34	0x3e5f0204	0.21778113
35	0xbe0bc92f	-0.13650964
36	0xbddbe891	-0.10737718
37	0xbe8361bb	-0.256605
38	0xbcac8e6c	-0.021064006
39	0x3e3f67ce	0.18691942
40	0xbdb4edaa	-0.08834393
41	0xbd5712a8	-0.052508026
42	0x3e21c5eb	0.15798156
43	0xbda5048c	-0.08057508
44	0xbc8499f9	-0.016186701
45	0xbd9856db	-0.07438441
46	0xbd74d5a5	-0.05977406
47	0x3b3a61d4	0.0028439658
48	0x3d49ee52	0.049299546
49	0x3d50a697	0.050940122
50	0xbcc51959	-0.024059938
51	0x3d72cbd5	0.05927642
52	0xbd412a56	-0.047159515
53	0xbc9e064d	-0.019290114
54	0x3dc04661	0.09388424
55	0xbd1da2a6	-0.03848519
56	0xbd80fe9b	-0.06298562
57	0xbd274fbb	-0.04084752
58	0xbdc604a7	-0.09668856
59	0xbbddeb1e	-0.006772413
60	0xbd596bd9	-0.053081367
61	0xbd2e9535	-0.042622764
62	0x3d14a203	0.03628732
63	0x3d0c9a57	0.034326877
64	0xbc4c0907	-0.012453324
65	0xbd8164d4	-0.063180596
66	0xba5e11d1	-0.0008471283
67	0x3d0b681f	0.034034844
68	0xbc867c62	-0.016416732
69	0xbc871f6f	-0.01649448
70	0xbd4b73ff	-0.04967117
71	0xbd14e9d7	-0.03635582

weight f4 [24, 24]
0	0xbca34eb5	-0.019934991
1	0xbc397dd3	-0.011321503
2	0x3ce5d16c	0.028053962
3	0x3b9ed68e	0.0048473543
4	0x3d5e45d8	0.054265827
5	0xbcc4dc10	-0.024030715
6	0xbd685be0	-0.056728244
7	0x3cd60c48	0.026128903
8	0x3c521a33	0.012823629
9	0x3c7212c2	0.01477498
10	0xbd214df9	-0.039381
11	0xbd039447	-0.03212383
12	0xbca1deb2	-0.01975951
13	0x3ce0fa15	0.027462998
14	0xbbd33588	-0.0064455904
15	0x3bf13642	0.0073612044
16	0xbac413d5	-0.0014959524
17	0xbd0b8f51	-0.034072224
18	0x3d3358d7	0.043785896
19	0x3a998e1d	0.0011715327
20	0x3ca2a829	0.019855576
21	0xbd0e44e0	-0.034733653
22	0xba8cc283	-0.0010739121
23	0xbbccc428	-0.0062489696
24	0x3c477fc3	0.012176457
25	0x3c4c00a1	0.012451322
26	0x3c8549cc	0.01627054
27	0x3c61ef6c	0.013789993
28	0x3cbd79ec	0.023129426
29	0x3d0e6e27	0.03477302
30	0xbcdbaa13	-0.026814496
31	0x3c870559	0.016482042
32	0xbb8623de	-0.004093631
33	0xbd3ca6c4	-0.046057478
34	0xbb535953	-0.0032249286
35	0xbc583fd6	-0.013198813
36	0x3b2871c0	0.0025702566
37	0xbc1ef144	-0.009701077
38	0xbca6c3a8	-0.020356968
39	0xbc83d133	-0.016090965
40	0x3bcd6527	0.006268162
41	0xbd541ab4	-0.05178328
42	0x3cacc456	0.021089714
43	0x3d131f5e	0.035918586
44	0xbc5f564e	-0.0136314165
45	0x3c06a1ff	0.008217334
46	0x3cc0d68d	0.023539806
47	0xbcd99e24	-0.026564665
48	0xbc8b5352	-0.017007504
49	0xbc30ea24	-0.010798011
50	0xbd6c9edc	-0.057768688
51	0xbd0ac7c9	-0.033881936
52	0xbc1d857d	-0.009614346
53	0x3c3199f2	0.010839926
54	0x3d307355	0.04307874
55	0x3a9469f4	0.001132308
56	0xbd04fe71	-0.032469217
57	0x3c095302	0.008381607
58	0xbd152152	-0.03640873
59	0x3ba9be7f	0.0051801796
60	0x3c5dccbf	0.013537585
61	0xbce7bbd5	-0.028287807
62	0x3c135047	0.008991308
63	0x3afe1a2a	0.001938646
64	0x3b908604	0.004410507
65	0xbc4f3ebf	-0.012649237
66	0xbbf55308	-0.0074867047
67	0x3c7c5c48	0.015402861
68	0xba48cc82	-0.00076598686
69	0x3c8bd32d	0.01706847
70	0xbc0e7b26	-0.008696353
71	0x3cd4df72	0.025985453
72	0xbac3e74a	-0.0014946249
73	0x3bf483ba	0.007461992
74	0x3cb62717	0.022235436
75	0x3bea82a3	0.0071566864
76	0xbcb86cd1	-0.022512825
77	0xbb998784	-0.004685344
78	0x3cc64bab	0.024206003
79	0xbc372e13	-0.011180419
80	0x3ca0bc31	0.019620987
81	0x3c5b87ed	0.013399106
82	0x3d415782	0.047202595
83	0x3cc072a5	0.023492167
84	0xbc3311e6	-0.01092956
85	0xbbd73816	-0.0065679653
86	0x3c3bc1d6	0.011459788
87	0x3c0b6a24	0.008509193
88	0xbbaa0ef4	-0.005189771
89	0x3d2de0d2	0.042450733
90	0xbd175fac	-0.036956474
91	0xbd1d843c	-0.038456187
92	0xbc24c454	-0.010056574
93	0x3bb5e54e	0.005551017
94	0xbc0f7971	-0.008756981
95	0x3c21e995	0.00988235
96	0xbce90d0f	-0.02844861
97	0xbc9e57c4	-0.01932896
98	0xbd29f325	-0.041491646
99	0xbcb41d35	-0.021986583
100	0xbb0579fb	-0.0020366895
101	0xbd1e3af0	-0.038630426
102	0x3caba055	0.020950476
103	0x3b8fb3dc	0.0043854546
104	0xbcafb407	-0.021448148
105	0x3d68140f	0.056659754
106	0xbc8bb93c	-0.0170561
107	0x3c3297c6	0.010900443
108	0x3d00648e	0.031345896
109	0xbcb4cb07	-0.022069467
110	0x3d19baec	0.03753178
111	0x3ccfe742	0.025378827
112	0xbb8ea037	-0.004352595
113	0x3c98b940	0.018643022
114	0xbb045beb	-0.002019639
115	0xbc45cc8f	-0.012072696
116	0x3cb27cc7	0.021788014
117	0x3a208ce9	0.0006124513
118	0xbb652e09	-0.0034970066
119	0x3d03254a	0.032017983
120	0xbb6dea13	-0.003630285
121	0xbc498fbf	-0.012302338
122	0xbd2d4758	-0.042304367
123	0xbd3f6472	-0.04672665
124	0x3cc5329e	0.024071988
125	0x3a938889	0.0011255901
126	0xbcad6e99	-0.021170901
127	0x3cdbe317	0.026841683
128	0xbd3b7ba8	-0.045772225
129	0x3c20a805	0.009805684
130	0xbdaebbae	-0.08531891
131	0xbd3c9142	-0.046036966
132	0x3cbb0627	0.022830082
133	0xbb97d374	-0.0046333615
134	0xba43dbfe	-0.0007471441
135	0x3c1a24ac	0.009408157
136	0x3cb988e6	0.022648286
137	0xbd945e4c	-0.07244548
138	0x3d2dbf4e	0.04241877
139	0x3d64b7cd	0.05583935
140	0xb8dfad40	-0.00010665739
141	0xbc2bea12	-0.010492818
142	0xbb17893b	-0.0023122567
143	0xbb97eb8e	-0.0046362346
144	0x3beb87d8	0.0071878247
145	0x3c14bbc5	0.009077971
146	0x3d23ffb0	0.040038764
147	0x3b6d212b	0.00361831
148	0x3d085d6d	0.033292223
149	0x3cf762c3	0.03019846
150	0xbd91c336	-0.07117312
151	0x3cca41cc	0.024689578
152	0x3ca827bf	0.020526765
153	0xbc88e44e	-0.016710427
154	0xbc8cc5ff	-0.017184256
155	0xbd5c62f4	-0.053805307
156	0xbb019ec8	-0.001977848
157	0x3d152704	0.03641416
158	0xbd08aa6c	-0.033365652
159	0xbb497568	-0.0030740146
160	0x38f08220	0.000114683295
161	0xbd85ad68	-0.06527215
162	0x3d526096	0.051361643
163	0x3d7b7c7b	0.06139801
164	0xbc83bfd2	-0.016082678
165	0xbc59ee79	-0.013301485
166	0x3cc1cae9	0.023656325
167	0xbd2d8db9	-0.042371485
168	0x3d6ba0d1	0.057526413
169	0x3bf56c1c	0.0074896943
170	0x3d989172	0.074496165
171	0x3d58944f	0.052875813
172	0x3c5f23c7	0.01361937
173	0x3cd9b55d	0.026575739
174	0xbd4d03bf	-0.0500524
175	0x3c027b4c	0.007963967
176	0x3d286df9	0.041120503
177	0xbd1c8736	-0.038214885
178	0x3d26d476	0.040729962
179	0xbbdec503	-0.006798388
180	0xbcdd787f	-0.027034996
181	0x3d58f016	0.05296334
182	0xbd22b4bf	-0.039723154
183	0xbcd43f7f	-0.025909184
184	0x3c440e54	0.011966307
185	0x3b2d483b	0.0026440758
186	0x39b69590	0.00034825178
187	0x3b75debd	0.0037516796
188	0xbca66bfb	-0.020315161
189	0x3c855dd6	0.016280096
190	0x3babf60c	0.005247837
191	0xbd32ceb0	-0.043654144
192	0xbbf68a34	-0.0075237993
193	0xbca06a66	-0.019581985
194	0xbbb1b1b2	-0.0054227943
195	0xb9db4bb2	-0.00041827332
196	0x3cef66f9	0.029223906
197	0xbcdb9d73	-0.026808476
198	0xbc4c5920	-0.012472421
199	0x3ba806fd	0.005127786
200	0xbc04cfc0	-0.008106172
201	0x3d6f4dfe	0.05842399
202	0xbd2b59b5	-0.0418336
203	0x3c6be8bd	0.014398751
204	0x3c943463	0.018091386
205	0xbbf9351f	-0.0076052095
206	0x3cfcb338	0.030847177
207	0x3cae9516	0.021311324
208	0xbb765b9e	-0.003759123
209	0x3c3413d3	0.010991055
210	0x3c2d59cc	0.010580491
211	0xbc8129b3	-0.015766954
212	0x3cfe1af6	0.031018715
213	0xbca06c7b	-0.019582978
214	0x3bab170f	0.0052212547
215	0x3c9c8d2f	0.01911029
216	0x3d2c4ca9	0.042065296
217	0x3a167a02	0.00057402265
218	0x3d237869	0.039909754
219	0x3cc53ddd	0.02407735
220	0x3d014c4e	0.03156691
221	0x3ca223f1	0.019792529
222	0xbd586c64	-0.052837744
223	0x3c7dff8d	0.015502823
224	0x3c743a9a	0.01490655
225	0xbd2a0052	-0.04150421
226	0xbc17cf39	-0.009265714
227	0xbd1d73d6	-0.038440548
228	0xbc4a1eeb	-0.012336473
229	0x3d0f93c5	0.035053033
230	0xbcbd428b	-0.02310302
231	0xbc8c0c16	-0.017095607
232	0x3a0a44e5	0.00052745483
233	0xbd3d4e85	-0.04621746
234	0x3d16e29b	0.0368372
235	0x3d05e386	0.032687686
236	0xbca1133b	-0.01966249
237	0x3a7f0ee3	0.00097296963
238	0x3c9ef893	0.019405639
239	0xbd1f2e24	-0.038862363
240	0x3d326a21	0.043558244
241	0x3b1d7ea9	0.0024031794
242	0x3d8dd127	0.06924658
243	0x3d55c5f7	0.052190747
244	0x3d0cd803	0.034385692
245	0x3bece56d	0.007229498
246	0xbd8feaa2	-0.070271745
247	0x3c8c61d6	0.017136496
248	0x3d2c8294	0.042116717
249	0xbcfae8cc	-0.030628584
250	0x3c47f00b	0.012203227
251	0xbcc648cb	-0.024204632
252	0xbc52e381	-0.012871624
253	0x3d8c391c	0.0684683
254	0xbd2a125f	-0.041521426
255	0xbbfce712	-0.0077179754

bias f4 [24]
0	0x3bc6f9e5	0.00607227
1	0x3b3fac47	0.0029246972
2	0xb8c1bd88	-9.23826e-05
3	0xbb90b6f9	-0.0044163433
4	0xbbb994eb	-0.0056635044
5	0x3c0b5b3b	0.008505638
6	0x3c0b4433	0.008500147
7	0xba88dc2b	-0.0010441592
8	0xbaa026df	-0.0012218616
9	0x3b8b6f79	0.004255232
10	0x3b3f4503	0.0029185421
11	0xb95e56dc	-0.00021203927
12	0x3b8d4d4c	0.004312193
13	0xb9802fc5	-0.00024449654
14	0xbc00a1b9	-0.007851058
15	0xbb3a98c2	-0.0028472398
16	0xba199908	-0.000585929
17	0xbb024400	-0.0019876957
18	0xbb9f932b	-0.0048698387
19	0x3bc337f2	0.005957597
20	0xbbd1b0a4	-0.006399231
21	0x3a23bf1f	0.0006246436
22	0xbbbd6372	-0.005779677
23	0x3be21802	0.0068998346

weight f4 [128, 24]
0	0x3d00a4df	0.031407233
1	0xbd66b86c	-0.056328222
2	0xbd19ece9	-0.03757945
3	0xbe0d6362	-0.13807443
4	0xbce248c5	-0.02762259
5	0x3d8ba432	0.06818427
6	0x3e32d9a7	0.1746584
7	0x3d462aeb	0.048380774
8	0xbe800b4e	-0.25008625
9	0xbe144553	-0.1447957
10	0xbdac324c	-0.08408031
11	0xbd35970f	-0.044333514
12	0x3da95612	0.0826837
13	0x3d1f245c	0.038853034
14	0x3e26e402	0.16297916
15	0xbe3af8dd	-0.18258996
16	0xbe3a4ec3	-0.18194108
17	0xbd85cf1b	-0.06533643
18	0x3be4ef92	0.006986567
19	0xbddcc0d2	-0.10778965
20	0xbb432c5f	-0.0029781086
21	0x3e01dcae	0.12681839
22	0xbd182df2	-0.037153192
23	0x3db4c7fe	0.08827208
24	0xbdd0dd45	-0.10198454
25	0x3c575ee9	0.013145187
26	0xbc299b70	-0.010352001
27	0x3d66d0b9	0.056351397
28	0xbd2e3483	-0.042530548
29	0xbd1fb25c	-0.038988456
30	0xbde73f5d	-0.112913825
31	0xbd13ac3b	-0.036052924
32	0xbe58d8f0	-0.21176505
33	0xbd3ae2cc	-0.045626447
34	0x3de6a9a1	0.11262823
35	0x3d0b8bff	0.034069058
36	0xbb949fd0	-0.0045356527
37	0xbc6d58c0	-0.014486492
38	0x3e0b5823	0.1360784
39	0xbcaa79b8	-0.020809993
40	0xbb14fcde	-0.0022733728
41	0xbe9a4805	-0.30133072
42	0x3b6803ab	0.0035402577
43	0xbc981b07	-0.018567575
44	0xbc882c76	-0.016622763
45	0x3d679638	0.056539744
46	0x3ca762f2	0.020432923
47	0x3d7907a4	0.060798302
48	0x3dc04014	0.09387222
49	0x3d035ba5	0.03206982
50	0xbe435417	-0.19075046
51	0x3d421c9a	0.047390558
52	0x3dab5dd3	0.08367505
53	0x3d8afce8	0.06786519
54	0x3de480d6	0.11157386
55	0x3d802699	0.06257362
56	0x3cbb27a5	0.022846052
57	0x3dc4c91e	0.096086726
58	0xbceb4743	-0.028720504
59	0xbd61ea98	-0.055155367
60	0xbdba2e94	-0.09090915
61	0xbd91c4c2	-0.07117607
62	0x3e497292	0.19672611
63	0xbd80a606	-0.062816665
64	0x3cca5479	0.024698483
65	0xbdca06e1	-0.09864593
66	0x3e37a437	0.17933737
67	0x3d17aef1	0.03703207
68	0x3dced1d1	0.10098613
69	0x3dd08579	0.10181708
70	0x3dc902d9	0.09814996
71	0x3dd28e78	0.1028108
72	0xbcecf6f4	-0.02892635
73	0xbe1e6196	-0.15466914
74	0xbdde85fb	-0.108653985
75	0xbd6b1e99	-0.057402227
76	0xbe3ab83f	-0.18234347
77	0xbe1e3651	-0.15450408
78	0x3d8a21bf	0.06744718
79	0xbc6e8d6a	-0.014560083
80	0xbdc6dc20	-0.09709954
81	0xbd588dff	-0.052869793
82	0x3dd0ec11	0.10201276
83	0xbd20400e	-0.039123587
84	0x3da0e574	0.07856265
85	0xbe200f91	-0.15630938
86	0x3e014710	0.12624764
87	0xbe4624de	-0.19350001
88	0xbc360a76	-0.0111108925
89	0xbe119ce4	-0.14220005
90	0x3d850a8b	0.064961515
91	0xbe603a23	-0.21897177
92	0x3e05c94d	0.13065071
93	0x3b1d83bd	0.002403482
94	0xbbd9c79a	-0.006646109
95	0x3d8713d2	0.06595577
96	0x3ce63c94	0.028105058
97	0xbe0700e6	-0.13183936
98	0xbd359e96	-0.044340692
99	0xbdd4364b	-0.10361918
100	0x3d75c0ca	0.05999831
101	0x3e0f32f1	0.13984276
102	0x3e50c4a8	0.20387518
103	0x3ddb4513	0.10706534
104	0xbe0e2d1b	-0.13884394
105	0x3d4dfb1f	0.050288316
106	0x3d3e674b	0.046485227
107	0x3d45db40	0.048304796
108	0x3e188f25	0.14898355
109	0xbe04f3c2	-0.12983611
110	0x3e79f633	0.24410324
111	0x3da6cdee	0.08144747
112	0x3e0ea514	0.1393016
113	0xbdf58338	-0.119879186
114	0x3dcdc619	0.1004755
115	0xbe5d2bcb	-0.21598737
116	0x3dcd4901	0.1002369
117	0x3c31d8bd	0.010854897
118	0x3d7950ea	0.06086818
119	0x3ce516ab	0.02796491
120	0xbd526ab8	-0.051371306
121	0x3dcfc73c	0.10145423
122	0x3cf7ed9f	0.030264674
123	0x3e445987	0.19174777
124	0xbe01d1e8	-0.12677729
125	0xbdd2a66f	-0.10285651
126	0x3d981b51	0.07427085
127	0x3e3c15bd	0.18367667
128	0xbdef6566	-0.11689262
129	0xbdbd56b4	-0.09245053
130	0x3dbbbc74	0.09166804
131	0xbdcc9249	-0.09988839
132	0x3d8cf116	0.06881921
133	0x3e43c941	0.19119741
134	0x3e375a01	0.17905428
135	0x3d41e674	0.047338918
136	0x3d98a8f0	0.07454097
137	0xbdbb3995	-0.09141842
138	0x3dcc1b89	0.099661894
139	0xbd565980	-0.052331448
140	0x3d898691	0.0671512
141	0x3e2f0f05	0.17095573
142	0xbdcb608b	-0.099305235
143	0x3d6b28ca	0.057411946
144	0x3d48dfb0	0.04904145
145	0x3cdc7c94	0.026914872
146	0xbd5a2b92	-0.05326421
147	0x3dcbf37a	0.09958549
148	0xbde79451	-0.11307586
149	0xbd4b400c	-0.049621627
150	0x3db6d7d1	0.089278825
151	0x3dc70a51	0.097187646
152	0xbe191a25	-0.1495138
153	0x3afea3c5	0.0019427469
154	0x3e2af0bb	0.16693394
155	0xbe3ea2cb	-0.18616788
156	0x3c3192c9	0.010838219
157	0x3b759744	0.0037474195
158	0x3e530cec	0.20610398
159	0xbe0b9b6b	-0.13633506
160	0xbe373b5c	-0.17893738
161	0xbd7cd4ce	-0.061726384
162	0x3d33b104	0.043869987
163	0xbd4c30c9	-0.049851213
164	0xba89d630	-0.0010516103
165	0x3e80b8cf	0.25140998
166	0x3e0249dc	0.12723488
167	0x3db694f5	0.0891513
168	0x3d885a84	0.066578895
169	0xbdc10562	-0.09424855
170	0x3d630bad	0.055431057
171	0x3d93b6c4	0.07212594
172	0x3e02d406	0.12776193
173	0x3e0e23b0	0.13880801
174	0x3d0ccedd	0.034376968
175	0x3e05a73e	0.13052079
176	0xbea3e82d	-0.32013074
177	0x3e13c82b	0.14431827
178	0x3df508d9	0.11964578
179	0xbe8f3b18	-0.27974772
180	0x3e4a3a3e	0.1974878
181	0xbdc5ba42	-0.096546665
182	0x3d940d3d	0.072290875
183	0xbd0e377d	-0.034720886
184	0xbe6745a1	-0.22585155
185	0xbd8ffdd9	-0.070308395
186	0xbcfa59dd	-0.030560428
187	0xbe15fdb8	-0.14647567
188	0x3e81bc41	0.2533894
189	0xbd0d829c	-0.034548387
190	0xbdbb5e94	-0.09148899
191	0xbd08663c	-0.033300623
192	0x3dcd3c45	0.10021261
193	0xbdf4cdc4	-0.11953309
194	0xbe2b3bde	-0.16722056
195	0x3dc9ddd8	0.098567665
196	0xbd9dbf4a	-0.07702501
197	0xbc72f21d	-0.014828232
198	0x3e91713d	0.28406706
199	0x3d815f9e	0.06317066
200	0xbddeb0d0	-0.10873568
201	0x3e3a2493	0.18178014
202	0x3c9d98df	0.019237934
203	0xbdc0fddc	-0.0942342
204	0x3d997e33	0.07494774
205	0xbd2bdf4a	-0.041960992
206	0xbcad8b52	-0.021184597
207	0xbd6e8b9e	-0.058238618
208	0x3d948759	0.07252378
209	0xbbc26fc0	-0.005933732
210	0x3ce46859	0.027881788
211	0xbe886711	-0.26641133
212	0x3d31ef93	0.043441366
213	0x3e212b88	0.15739262
214	0xbd9aef33	-0.07565155
215	0x3debddcc	0.11516914
216	0xbe3fd641	-0.18734075
217	0xbd0c2a18	-0.03421983
218	0x3c3b0db5	0.011416842
219	0x3d8d1abc	0.06889865
220	0xbe5a22eb	-0.21302383
221	0x3e664120	0.2248578
222	0xbace3786	-0.00157331
223	0x3e1a9c1d	0.15098615
224	0xbd9a6a49	-0.075398035
225	0x3d306a20	0.04306996
226	0x3c7cf1e8	0.015438534
227	0xbdfa321c	-0.12216589
228	0x3ced23f7	0.028947813
229	0x3b043b75	0.002017704
230	0x3e2c98e7	0.16855203
231	0xbe382f0d	-0.17986698
232	0xbdde6bc6	-0.108604
233	0xbdf5c663	-0.1200073
234	0xbc0ab971	-0.008467064
235	0xbe287023	-0.16449027
236	0x3e5f6f8b	0.21819894
237	0x3dc09a78	0.094044626
238	0x3c207e35	0.009795715
239	0xbdcf4d01	-0.10122109
240	0x3d3d9c5a	0.046291687
241	0xbc243073	-0.010021317
242	0xbe1e04b0	-0.15431476
243	0x3d8fbe9a	0.07018776
244	0x3dad8cdb	0.08474132
245	0xbdaec262	-0.08533169
246	0x3e4eae65	0.20183714
247	0x3e5f681d	0.2181706
248	0x3d1011c1	0.03517318
249	0xbde48e47	-0.1115995
250	0xbcba3fc3	-0.022735482
251	0xbe920a62	-0.28523546
252	0x3e09f50f	0.13472389
253	0xbdbfdb20	-0.09367967
254	0xbd8c6a6b	-0.06856235
255	0xbe71f4a9	-0.23628487

bias f4 [128]
0	0xbbc36329	-0.0059627485
1	0xbe5c8e58	-0.21538675
2	0xbe984dd1	-0.2974687
3	0xbe7bfa4f	-0.24607204
4	0xbe7505b4	-0.23927957
5	0xbe835001	-0.25646976
6	0xbe01eb6d	-0.12687464
7	0xbdea31c4	-0.11435273
8	0xbe42d22e	-0.1902549
9	0xbc319dd9	-0.0108408565
10	0xbe9eebec	-0.3103937
11	0xbda9f29b	-0.082982264
12	0xbe585b66	-0.21128616
13	0xbe42514b	-0.18976323
14	0x3d4ca440	0.04996133
15	0xbcc47561	-0.023981752
16	0xbd7eba06	-0.062189125
17	0xbe973a07	-0.2953646
18	0xbe8c7190	-0.2743039
19	0xbe871131	-0.26380304
20	0xbe75afa6	-0.23992786
21	0xbe84d1fc	-0.25941455
22	0xbe51fd8b	-0.20506875
23	0xbd15b8c1	-0.03655315
24	0xbdc850bc	-0.09781024
25	0xbd902798	-0.07038802
26	0xbe957d22	-0.2919703
27	0xbe7272cc	-0.23676604
28	0xbe7fe3dc	-0.24989265
29	0xbc834476	-0.016023856
30	0xbe37d6b0	-0.1795299
31	0x3bea7055	0.0071545043
32	0x3ce605f7	0.028079016
33	0xbda9c4e4	-0.08289507
34	0xbe80eac0	-0.251791
35	0x3bd1b503	0.006399752
36	0xbeb22447	-0.34793302
37	0xbeb34feb	-0.3502191
38	0xbe591592	-0.21199635
39	0xbd088611	-0.03333098
40	0xbea7172d	-0.3263487
41	0xbe2b097a	-0.16702834
42	0x3cea7043	0.028617984
43	0xbe92e39a	-0.2868927
44	0xbe4e7465	-0.20161588
45	0xbdad9b05	-0.08476833
46	0xbe23a751	-0.15981795
47	0xbe4fae2c	-0.20281285
48	0xbe9b428e	-0.30324215
49	0xbe0df223	-0.13861899
50	0xbdb9c473	-0.09070673
51	0xbe350a72	-0.17679766
52	0xbc17c34c	-0.009262871
53	0xbea11301	-0.3145981
54	0xbe8c01e1	-0.27345183
55	0xbd255abc	-0.040369734
56	0xbe318e89	-0.17339529
57	0xbe603304	-0.21894461
58	0xbc45a48d	-0.012063158
59	0xbe377efe	-0.17919537
60	0xbe6d3a8b	-0.23166864
61	0xbe5b3c3a	-0.21409693
62	0xbd5076bf	-0.050894495
63	0xbd415e85	-0.04720928
64	0xbe130c2c	-0.14360112
65	0xbe95c1ed	-0.29249516
66	0xbec808ba	-0.39069158
67	0xbe198b7a	-0.14994612
68	0xbdc1d0b4	-0.09463635
69	0x3cab4433	0.020906543
70	0xbd5aba9d	-0.053400625
71	0xbe3d4034	-0.18481523
72	0xbd83219c	-0.06402895
73	0xbea6c8b3	-0.32574996
74	0xbe4e494b	-0.20145147
75	0xbe89c0f2	-0.26905018
76	0xbe5ec865	-0.21756132
77	0xbe10d264	-0.14142758
78	0xbe13ccf5	-0.14433654
79	0x3c44550e	0.011983169
80	0xbe35ff03	-0.1777306
81	0xbeb3a818	-0.35089183
82	0xbeb39557	-0.35074875
83	0xbe1c01a0	-0.15234995
84	0x3bd4e68a	0.006497209
85	0xbe71191d	-0.23544736
86	0xbe95ac82	-0.29233176
87	0xbc7bcec0	-0.015369117
88	0xbe953f5f	-0.2914991
89	0xbde93a54	-0.11388078
90	0xbdd486b9	-0.10377259
91	0xbe2a963f	-0.16658877
92	0xbeb61e3b	-0.3556994
93	0xbe0bf151	-0.13666274
94	0xbe26b302	-0.16279224
95	0xbe847bbb	-0.2587565
96	0xbe8bffd7	-0.27343628
97	0xbd3afb90	-0.045650065
98	0xbe809a27	-0.2511761
99	0xbeaddf42	-0.33959395
100	0xbd4d0479	-0.050053094
101	0xbeae07dd	-0.33990374
102	0xbc854d42	-0.016272191
103	0xbd81bf9d	-0.063353755
104	0xbea28ace	-0.31746525
105	0xbd0dc6c7	-0.034613397
106	0xbde6ff10	-0.11279118
107	0xbe6a9138	-0.22906959
108	0xbe12290b	-0.14273469
109	0xbe3607fa	-0.1777648
110	0xbdd349d4	-0.10316816
111	0xbe656c16	-0.22404513
112	0xbe8f061a	-0.27934343
113	0xbe5a4469	-0.21315159
114	0xbd0ac806	-0.033882163
115	0xbe98ae00	-0.2982025
116	0xbe149cab	-0.14512889
117	0xbc69f1f6	-0.014278879
118	0x3d755184	0.059892192
119	0xbea93fde	-0.3305654
120	0xbd506ca8	-0.050884873
121	0xbd40a9f9	-0.0470371
122	0xbea91011	-0.3302007
123	0x3d71ad00	0.059002876
124	0xbe0c7a66	-0.13718566
125	0xbdd8b5a0	-0.10581517
126	0xbd301d24	-0.04299654
127	0xbe5b200c	-0.21398944

weight f4 [24, 128]
0	0x3d843091	0.06454576
1	0xbd5f1264	-0.054460898
2	0xbc12e1ba	-0.00896495
3	0xbd8edba1	-0.06975485
4	0xbcce1092	-0.025154386
5	0xbd9f0f8b	-0.077666365
6	0xbdaba716	-0.083814785
7	0xbe00e5a7	-0.12587605
8	0x3cc67fd9	0.024230884
9	0x3bb60039	0.0055542258
10	0xbcdcea25	-0.026967118
11	0xbd5bcc65	-0.053661723
12	0x3ca341a8	0.019928768
13	0xbbc8fd35	-0.0061337003
14	0xbc979bbc	-0.018506877
15	0x3c266ea9	0.010158219
16	0x3aad4d64	0.0013221917
17	0x3d64a952	0.05582554
18	0x3cb7fe96	0.022460263
19	0x3c408895	0.011751314
20	0x3d053507	0.032521274
21	0x3d9653e0	0.07340217
22	0x3c6bc477	0.014390103
23	0xbb4acbe3	-0.003094428
24	0xbd88acc2	-0.06673576
25	0xbd6adf73	-0.057342004
26	0x3d91d07b	0.071198426
27	0xbd83bd9e	-0.06432651
28	0x3dcbc9fb	0.09950634
29	0x3d881b38	0.066458166
30	0xbdb4232d	-0.08795772
31	0x3d4d27b4	0.050086692
32	0xbbe67d17	-0.007033955
33	0xbda5d0fb	-0.080965005
34	0xbdaa189b	-0.08305474
35	0x3b440bb8	0.0029914211
36	0xbc8ba049	-0.017044203
37	0xb7ca46fc	-2.4113331e-05
38	0x3d7454c9	0.05965117
39	0xbdef2329	-0.11676628
40	0xbd440472	-0.047855802
41	0x3d4eee2c	0.050520107
42	0xbd4da4f9	-0.05020616
43	0xbb7f8f6e	-0.0038995403
44	0x3d5baaa9	0.05362955
45	0xbbd934d8	-0.006628614
46	0xbd2e261a	-0.042516805
47	0xbcecce14	-0.02890686
48	0x3a4721f6	0.0007596308
49	0xbde08f04	-0.10964778
50	0x3d8e93d9	0.069617935
51	0x3d1310de	0.035904758
52	0x3c33ec50	0.010981634
53	0xbc94d0d6	-0.018165987
54	0x3d70dc55	0.058803875
55	0x3c70575b	0.014669265
56	0xbda319d1	-0.079639085
57	0xbcb3c15d	-0.021942789
58	0x3dc6b1b3	0.09701862
59	0xbd8ef676	-0.069806024
60	0xbc03c3bf	-0.008042275
61	0xbd8a14d3	-0.06742253
62	0xbc0b1d1a	-0.008490825
63	0x3d0dd8e2	0.034630664
64	0x3c07c2bd	0.008286175
65	0x3d7fd7da	0.06246171
66	0xbd0cd234	-0.034380153
67	0xb9643894	-0.00021764851
68	0xbdbe111d	-0.09280608
69	0x3dc09f71	0.09405411
70	0xbd4840f6	-0.048890077
71	0x3d9d2cac	0.07674536
72	0xbda42fc7	-0.08016925
73	0x3b2c0ca9	0.0026252663
74	0x3daef2e8	0.085424244
75	0xbd831f7e	-0.06402491
76	0xbc28410c	-0.010269415
77	0xbd625773	-0.05525918
78	0x3cb29955	0.02180163
79	0xbdc4bd5b	-0.09606429
80	0xbd345ced	-0.044033933
81	0x3cc2a67f	0.023761032
82	0x3dd26252	0.10272659
83	0x3db2fc5a	0.087395385
84	0xbdf71375	-0.12064258
85	0x3cc5d9a4	0.02415163
86	0xbbfab025	-0.0076503926
87	0x3d0205fa	0.03174398
88	0x3db57fcf	0.08862268
89	0xbd90183a	-0.07035871
90	0xbc833918	-0.016018435
91	0xbd6d81a7	-0.057984974
92	0xbca57534	-0.020197488
93	0x3d06504c	0.03279142
94	0x3cd72bd4	0.026266016
95	0x3d7ea229	0.062166367
96	0xbc1f4a93	-0.00972237
97	0xbb70245b	-0.0036642763
98	0x3db28102	0.087160125
99	0x3d3b7b72	0.045772023
100	0xbd32c191	-0.04364163
101	0xbd2d6b50	-0.04233867
102	0xbce346f0	-0.027743787
103	0x3bb654de	0.005564316
104	0xbd38e3fb	-0.045139294
105	0x3d9c1a10	0.076221585
106	0x3c23ef63	0.010005805
107	0xbbc618b5	-0.006045426
108	0xbd2ca958	-0.042153686
109	0xbdb0fd8a	-0.08642109
110	0x3d0b81bf	0.034059282
111	0x3c361ca2	0.011115225
112	0x3db33df2	0.087520495
113	0x3dbb6147	0.091494136
114	0xbd675cb4	-0.056484893
115	0xbdd4a4a2	-0.10382964
116	0x3a99fe20	0.0011748709
117	0x3db41a49	0.08794076
118	0x3da9cf94	0.082915455
119	0xbd3ac754	-0.04560025
120	0x3d0c023d	0.034181822
121	0x3cff3606	0.03115369
122	0x3d28655c	0.04111229
123	0x3e19e3f5	0.15028365
124	0x3d843f72	0.06457414
125	0x3d01ff68	0.031737715
126	0x3cadbea8	0.021209076
127	0xbcca1eac	-0.024672829
128	0x3dd0812b	0.10180887
129	0xbdc136dc	-0.09434292
130	0x3dd713e4	0.10501841
131	0x3c359321	0.011082442
132	0x3d9a7118	0.07541102
133	0x3dbb3044	0.09140065
134	0x3d5faee5	0.05461015
135	0x3c2b4e11	0.010455624
136	0xbcab8ba1	-0.020940604
137	0x3d647c00	0.055782318
138	0xbc57a2e8	-0.0131613985
139	0xbc49a6de	-0.012307851
140	0x3d3b8c8d	0.045788337
141	0xbd4270ae	-0.04747074
142	0xbd9f62e3	-0.07782533
143	0x3cd476d0	0.02593556
144	0x3ddd759d	0.108134486
145	0xbe06c95d	-0.13162751
146	0x3d03782e	0.032097034
147	0x3da83ffa	0.082153276
148	0x3ca4f68f	0.0201371
149	0x3cf845d9	0.030306743
150	0xbdc887a8	-0.097914994
151	0xbd948604	-0.07252124
152	0x3d0bdd26	0.03414645
153	0x3d0c715a	0.034287788
154	0xbd410e24	-0.047132626
155	0xbd0ef84a	-0.034904756
156	0xbd3ad29f	-0.04561102
157	0x3d830a3e	0.06398438
158	0x3ce434fa	0.027857292
159	0x3d34e164	0.04416026
160	0x3d87df34	0.066343695
161	0xbca19db7	-0.019728525
162	0x3db50c44	0.0884023
163	0x3b69c889	0.0035672507
164	0x3d94bc5e	0.07262491
165	0x3c85adb3	0.016318178
166	0xbdb6af13	-0.089201115
167	0x3d90b787	0.07066255
168	0x3c5dff8b	0.013549696
169	0xbe0fcf36	-0.14043888
170	0xbc814f66	-0.01578493
171	0xbdb922f6	-0.090398714
172	0xbd84b222	-0.06479289
173	0xbd3887aa	-0.045051254
174	0xbcfbc946	-0.030735623
175	0x3da0ecc4	0.078576595
176	0x3dfdf19d	0.123996
177	0x3d8f1903	0.069871925
178	0x3d87b1ae	0.066256866
179	0xbd54f842	-0.05199457
180	0xbd77f364	-0.06053485
181	0x3cb7f1e1	0.022454204
182	0xbd06bfbc	-0.032897696
183	0xbc633353	-0.013867217
184	0x3bb1a621	0.0054214154
185	0x3c85932c	0.016305529
186	0x3d228d58	0.039685577
187	0xbc33e098	-0.01097884
188	0x3ac5b9cd	0.001508528
189	0x3d09889e	0.033577554
190	0xbd3d27ab	-0.04618041
191	0x3dad861d	0.08472846
192	0x3db93ff3	0.090454005
193	0x3b5a86f2	0.0033344594
194	0x3dce3314	0.10068336
195	0x3c03c455	0.008042415
196	0x3e73555b	0.2376303
197	0xbdb8aa5f	-0.09016871
198	0xbbb1ab4c	-0.0054220315
199	0x3d0de309	0.034640346
200	0x3d3034ce	0.04301911
201	0xbc620117	-0.013794205
202	0xbd32c0c6	-0.043640874
203	0x3cd4946f	0.025949685
204	0x3da60506	0.08106427
205	0x3d954c28	0.07289916
206	0xbd4e9ffd	-0.050445545
207	0x3d80d4a4	0.06290558
208	0xbb8bad25	-0.004262584
209	0xbb9c026c	-0.004761031
210	0xbe1b67e3	-0.15176348
211	0x3dc8d8dd	0.098069884
212	0x3cbf1e5e	0.02332991
213	0x3d85b8a2	0.065293565
214	0xbda476cf	-0.080304734
215	0x3e451dad	0.19249602
216	0x3c53b941	0.012922586
217	0xbdbdca1f	-0.09267067
218	0x3d04b457	0.032398548
219	0x3ce92ee5	0.028464744
220	0x3d67c163	0.056580912
221	0x3ce464b7	0.027880056
222	0x3ccc931e	0.024972495
223	0xbd98bf52	-0.074583665
224	0x3d75a7a5	0.05997433
225	0xbda67491	-0.08127702
226	0xbcf5ff87	-0.030029071
227	0x3aedb708	0.0018136213
228	0x3d2052c5	0.039141435
229	0xbd26cde2	-0.04072369
230	0x3d8cef79	0.06881613
231	0xbcf3734f	-0.02971807
232	0x3c06b403	0.008221629
233	0x3c4a4077	0.012344471
234	0x3cb0a107	0.021561159
235	0x3d866355	0.06561915
236	0xbd2cade7	-0.042158034
237	0x3e2db71f	0.16964386
238	0x3d9ec843	0.07753041
239	0x3db045b2	0.08607043
240	0xbd13f3da	-0.036121227
241	0xbdab0a11	-0.083515294
242	0x3e1e273a	0.15444651
243	0x3e158c5f	0.14604329
244	0x3da4433c	0.080206364
245	0x3d10bdcf	0.035337266
246	0x3d0dc8da	0.034615375
247	0xbd7bc446	-0.061466478
248	0xbe4683e6	-0.19386253
249	0xbe08a42c	-0.13343877
250	0x3d000e90	0.031263888
251	0xbba9434a	-0.005165492
252	0xbd61964f	-0.055074986
253	0xbd349f5c	-0.04409729
254	0x3b8c1bf1	0.004275792
255	0xbb254897	-0.002522027

bias f4 [24]
0	0xbb275a46	-0.0025535985
1	0x3ab48a0c	0.0013774051
2	0xba6c51d9	-0.0009014882
3	0x39a3b65b	0.00031225648
4	0xb8bcd112	-9.003481e-05
5	0x3b2bdbab	0.0026223462
6	0x3b5fa467	0.003412509
7	0xba8bd516	-0.0010668363
8	0xbab36037	-0.001368529
9	0x38c47aad	9.3688584e-05
10	0xbb3c971e	-0.0028776596
11	0xb988838a	-0.00026037946
12	0xbac0afc4	-0.001470082
13	0x3ab2740d	0.0013614908
14	0x399d96c6	0.00030057708
15	0xbae50d9e	-0.0017475372
16	0x3ad5999e	0.0016296392
17	0xbb74abc9	-0.0037333837
18	0x3b235990	0.002492521
19	0x3aed085c	0.0018084156
20	0x3ace337a	0.0015731894
21	0xba65db9f	-0.0008768383
22	0x3a67b421	0.0008838792
23	0xb94bebb6	-0.00019447398

weight f4 [24]
0	0x3f776301	0.9663544
1	0x3fd38b4a	1.6526883
2	0x3f5859c1	0.84511954
3	0x3f465d23	0.77485865
4	0x3f8908aa	1.0705769
5	0x3f4d5d4c	0.80220485
6	0x3f586388	0.8452687
7	0x3fc1a9b2	1.5129912
8	0x3f462210	0.77395725
9	0x3f83094c	1.0237212
10	0x3f99cd07	1.2015694
11	0x3fa5ffad	1.2968651
12	0x3f8479ed	1.0349709
13	0x3f71a54e	0.9439286
14	0x3f96344b	1.1734709
15	0x3f764f90	0.9621515
16	0x3f5b7a42	0.85733426
17	0x3f8dfc71	1.1092664
18	0x3f60f0c8	0.87867403
19	0x3f807453	1.0035499
20	0x3f88e226	1.0694015
21	0x3f54cb66	0.8312286
22	0x3f4a613e	0.7905463
23	0x3fa46ca1	1.2845651

bias f4 [24]
0	0x3dcf0d2c	0.10109934
1	0x3f32e71b	0.6988389
2	0x3e3ab673	0.18233661
3	0x3e1dd6ca	0.15413967
4	0x3c95eda0	0.018301785
5	0x3e3800f3	0.17969112
6	0xbd6eee6b	-0.05833284
7	0xbf2816c4	-0.6565974
8	0x3e895311	0.26821187
9	0x3eb21f6a	0.34789592
10	0xbea21a12	-0.31660515
11	0x3e8c9820	0.27459812
12	0x3d8343e9	0.06409437
13	0xbe324ff9	-0.1741332
14	0xbedd3642	-0.43205458
15	0x3d0d99fb	0.034570675
16	0xbe5d5aa5	-0.2161661
17	0x3f313666	0.6922363
18	0xbe9f7bd9	-0.31149176
19	0x3e9b891f	0.30378053
20	0xbdcfdcd5	-0.10149542
21	0xbe8d09e5	-0.2754661
22	0x3de03fe9	0.1094969
23	0xbeb593d8	-0.35464358

weight f4 [24]
0	0x3f2d11f5	0.67605525
1	0x3ecb7023	0.3973399
2	0x3f4a6670	0.7906256
3	0x3f87cb10	1.0608845
4	0x3f3bf354	0.73418164
5	0x3edcdd64	0.43137658
6	0x3f403c8b	0.7509238
7	0x3f05265f	0.52011675
8	0x3f56a729	0.83848816
9	0x3f47ed34	0.7809632
10	0x3f1b0989	0.60561424
11	0x3f03ca3b	0.51480454
12	0x3f3ca40d	0.7368782
13	0x3f3f2cf0	0.74677944
14	0x3efb3900	0.49066925
15	0x3f3ff3fc	0.74981666
16	0x3f3f76dd	0.74790746
17	0x3f1885d4	0.59579206
18	0x3f34e2b6	0.70658433
19	0x3f332350	0.6997576
20	0x3f28e153	0.6596882
21	0x3f51d697	0.81968063
22	0x3f60924b	0.87723225
23	0x3ec7085f	0.38873574

bias f4 [24]
0	0xbd832814	-0.06404129
1	0xbe9413d8	-0.2892139
2	0xbd0446b5	-0.032293994
3	0xbe937df9	-0.28807047
4	0x3e02ced7	0.12774216
5	0x3c46843a	0.012116486
6	0xbd138a3a	-0.036020495
7	0xbd5e9e01	-0.054349903
8	0xbbb39567	-0.0054804566
9	0xbdcc694f	-0.099810235
10	0x3c0ad63f	0.008473932
11	0xbe50932d	-0.20368643
12	0xbd32b49a	-0.043629266
13	0xbd61c6a4	-0.05512108
14	0xbc85a4fa	-0.016314019
15	0xbc8eb30a	-0.017419357
16	0x3c6fc8c4	0.014635269
17	0x3d161478	0.036640614
18	0x3e78c7e9	0.2429501
19	0xbe3915ba	-0.18074694
20	0xbb6c2411	-0.003603224
21	0x3cd5a80e	0.026081111
22	0xbe100e0e	-0.14067861
23	0x3d024198	0.031800836
