histories/03.12-01.06.39_69.00%_pt_EEGNet_BCIC-IV-2a_bs=32_lr=0.008_ld=0.9999/best_valid_loss.pt (torch, 19167 bytes, 18 tensors)

weight f4 [8, 1, 1, 32]
00000000: 379a b73f 97e8 283f 97b5 d93e 0d01 983e
00000010: cc23 343f b0b7 1e3f 352d 8bbd 247e 5b3d
00000020: b62b 8e3e d082 a33e 8d0d d13e ba8f 7d3d
00000030: aca8 033e d2b1 ff3d 83ab 943e 9e3f 4f3e
00000040: 49a7 903a 05fa 6b3e 5489 103e 6825 a93e
00000050: dfbd ec3d 7917 dd3c e6b1 183e ae05 e93e
00000060: 68f5 ee3e e256 843e 13de 0f3f dead 013f
00000070: 6111 173f 2d63 3a3e cfb2 1a3f 1800 dd3f
00000080: 8664 5e3f b82d 3dbf 2338 bdbf 422f 26bf
00000090: b4df 923d da81 33bd 2b52 1fbe 6705 953e
000000a0: ef4a 563f 313f 7a3f 76eb 643e 6684 82bd
000000b0: 0242 083e 6c2a 723e d752 0fbf 1c6a 5cbf
000000c0: de4f a7bd d541 793e e28b 1bbe 82b0 c7be
000000d0: 98b0 27bd d4ad 0e3f e94e 313f 2973 38be
000000e0: cf72 44bf 5fa2 97be 371f db3e fb10 113f
000000f0: 4322 e1be f019 b7bf 15d3 cebe b87c 353f
00000100: 2b54 0c3f 181b 0fbe 317e 23bf 4a87 36bf
00000110: 7d4d 64bf afc3 81bf 8b2f 4abf 45be abbe
00000120: a728 6a3d b0f5 7f3e 76fe 1e3e 72f7 1f3e
00000130: f3c8 0dbe 7f6d a9be 8d63 1cbf 895f 44bf
00000140: d580 82bf cc81 58bf e86e ccbe 8f51 d239
00000150: 5fe5 5c3e 5f0a 8d3e af86 19bd eb6d 00be
00000160: e904 dabe fdc8 0abf 24e9 89bf 796d 79bf
00000170: 63dd 71bf 5e8a 13bf ff07 6ebe f1c3 b0be
00000180: ac79 bc3f 42d7 ee3e 9b4f 1a3e 6431 113f
00000190: 7244 263f cca9 1f3f e341 163f a8e4 0a3f
000001a0: 732b 393f e7e6 053f 35ab d33e 6ab0 0a3f
000001b0: 1705 ad3e af21 3b3e 8de7 043f 95e6 273f
000001c0: 697c ba3e 0254 6b3e bb3e 563e d2d9 a53e
000001d0: 75c5 9b3e 3c16 a83e 368d bf3e 123c c93e
000001e0: a0df c73e 7305 a43e 788d fd3e d5ac c63e
000001f0: 8e4b e43d ce04 bc3c c97c b73e 3f5f 393f
00000200: 58e0 9ebf 2dea 39be 193d 053e fbe6 863f
00000210: c31d 913f 2fbc 233f 0f63 d8be 2b79 9fbf
00000220: 40ea 7bbf d741 43be 3d33 e53e 571f 413f
00000230: d807 d33e b8af 08be 7cac eebd f180 25be
00000240: eb2a c43e d6d1 b63e 39a9 863e e8a6 b0be
00000250: b714 56bf d500 ffbe 7aee 113d 766e 283f
00000260: 5fe4 7b3f 86c7 c13e 265b 38be 65a7 26bf
00000270: 93b5 07bf e20a a5be fe1b 213d d36b 5b3f
00000280: fed3 a5bf a84e 45bf b656 f2be 551b 15bf
00000290: eb91 dfbe 1f98 e8be 4e35 0fbf b492 33bf
000002a0: 97f8 3abf 80e0 b9be 809b bebe 4719 c1be
000002b0: 56bc d1be 6748 43be 7e0d debe 2c60 4ebe
000002c0: 649e adbe c6f0 e5be 1216 00bf 53de d3be
000002d0: 5f71 02bd 59f8 96bd 4620 2ebe 3efb c0be
000002e0: 2b7d 11bf cc93 b0be 8895 c3be 75fe 18be
000002f0: e594 a6bd c283 94bd 1b60 cebe c260 65bf
00000300: 5c14 4c3f 8b84 5c3f 65e6 853f 3642 533f
00000310: 8371 513f f3e6 ba3e 8db5 8bbd dc7f 93be
00000320: b7f7 2ebf 862b 32bf 6928 d0be fb26 c8bd
00000330: f8e4 c23e ca44 343f d68e 7f3f 1b03 583f
00000340: 90d1 5c3f 255f ca3e 4c3b 883e e09f dcbc
00000350: 25dd 9abe 97c7 f4be 54bf b9be 1bc3 2fbe
00000360: 36ff d13d 88cf b23e 35e8 653f c544 303f
00000370: 05b5 123f 8fe2 ed3e 8288 d83e ad20 73be
00000380: e5b6 fdbe 1e55 383f 833b 683f 723c 6c3e
00000390: 0a52 83be 872d 77bf 7105 59bf befb 50be
000003a0: 9aaa b13e fc28 de3e ba9d 453e 33f1 11be
000003b0: 5e8c eb3c 9ea5 d93e 2a86 3f3f 914c 023f
000003c0: 7397 b9be e0f8 19bf 6371 79bf 5f3f 32bf
000003d0: 0477 7dbe 8dfe 8e3e 9f87 263f 0ccf 613f
000003e0: a1a8 1c3f 3821 ff3e ccc9 e0be 8e16 8abf
000003f0: 714e 85bf 5193 98be 75bc e33e 7b86 423f
1.4343938 0.65979904 0.42521355 0.29688302 0.7036712 0.61999035 -0.06795732 0.053587094
0.27767724 0.3193574 0.4083065 0.061904646 0.12857312 0.124850884 0.29037103 0.20239112
0.0011036183 0.23044594 0.14114887 0.3303635 0.115596525 0.026988732 0.14911613 0.45512146
0.46671605 0.25847536 0.56198233 0.50655925 0.59010893 0.18201895 0.6042909 1.7265654
0.86872137 -0.73897886 -1.4782757 -0.6491586 0.07171574 -0.043825008 -0.15558688 0.29105684
0.8370809 0.9775267 0.22355446 -0.06372909 0.1330643 0.23648995 -0.5598578 -0.8609941
-0.0816953 0.24341519 -0.1519008 -0.39001852 -0.040939897 0.5573399 0.6926103 -0.1801268
-0.76737684 -0.29616067 0.42797253 0.56666535 -0.43971452 -1.430479 -0.40395418 0.7089343
0.5481593 -0.13975179 -0.6386443 -0.71300185 -0.8918074 -1.0137843 -0.78978795 -0.33543602
0.057167675 0.24996066 0.15526757 0.15621737 -0.13846187 -0.3309135 -0.610894 -0.76708275
-1.0195566 -0.84573054 -0.39928365 0.00040115087 0.21571873 0.27546975 -0.03748196 -0.1254193
-0.4258187 -0.54212934 -1.0774274 -0.97432667 -0.94478434 -0.57633007 -0.23245238 -0.3452449
1.4724631 0.46648604 0.1506943 0.5671599 0.6494819 0.62368464 0.58694285 0.5425515
0.72331923 0.52305454 0.41341558 0.54175436 0.33792946 0.18274568 0.5191582 0.65586215
0.36423042 0.22981265 0.20922367 0.32392746 0.30424085 0.32829463 0.37412423 0.39303643
0.390378 0.32035407 0.49521995 0.38803735 0.111472234 0.02295151 0.3583739 0.7241096
-1.2412214 -0.18155737 0.13011588 1.053924 1.1337208 0.6395902 -0.42263076 -1.2458853
-0.9840431 -0.19068085 0.44765654 0.75438446 0.41216922 -0.13348281 -0.116539925 -0.16162468
0.38313994 0.35706967 0.26300982 -0.3450234 -0.8362536 -0.49805322 0.03562782 0.6579355
0.9839534 0.37847537 -0.1800352 -0.65099174 -0.53011435 -0.32234865 0.039333336 0.857114
-1.295532 -0.77073145 -0.4733178 -0.5824483 -0.43666014 -0.4542856 -0.5594071 -0.70145726
-0.7303557 -0.36304092 -0.37228012 -0.37714598 -0.40964 -0.19070588 -0.4336967 -0.20153874
-0.33909905 -0.44910258 -0.50033677 -0.41380557 -0.0318464 -0.07371587 -0.17004499 -0.37691683
-0.56831616 -0.3448776 -0.3820002 -0.14940818 -0.08133868 -0.07251693 -0.40307698 -0.89600766
0.79718566 0.86139745 1.0460936 0.82522905 0.8181383 0.36504325 -0.068217374 -0.28808486
-0.6834673 -0.6959766 -0.4065583 -0.0977306 0.38065314 0.70417464 0.99827325 0.8437974
0.86257267 0.39525715 0.2660774 -0.026931703 -0.30246845 -0.47808525 -0.36278784 -0.1716427
0.10253756 0.3492396 0.89807445 0.68854934 0.57307464 0.46461913 0.42291647 -0.23742934
-0.495536 0.7200488 0.9071581 0.23069933 -0.25648528 -0.96553844 -0.8477393 -0.20408532
0.3470047 0.43390644 0.19298449 -0.14252166 0.028753456 0.42509168 0.74814093 0.5089808
-0.3624836 -0.6014538 -0.9743864 -0.69627947 -0.24752432 0.27928582 0.6505069 0.88206553
0.6119481 0.4983003 -0.4390396 -1.0788133 -1.0414563 -0.29799893 0.4447972 0.7598645

weight f4 [8]
00000000: e756 9c3f f194 0e40 3585 f73f a51d 583f
00000010: ee57 6340 6105 b93f 70f4 1a40 79ce 7f40
1.221402 2.2278407 1.9337527 0.84420234 3.5522418 1.4454767 2.4211693 3.996977

bias f4 [8]
00000000: 4301 a53e 7bd7 9b3e 7f09 74bc ebb6 293e
00000010: f136 663d 001b c43e 4df5 35be 22d4 17be
0.32227525 0.30437836 -0.014894842 0.16573684 0.05620474 0.3830185 -0.17769356 -0.14827016

running_mean f4 [8]
00000000: 8253 1f35 5945 fcb3 69a0 03b5 9d04 5534
00000010: 20ab 4c33 37a0 54b4 56bb 3034 1224 38b2
5.9353636e-07 -1.1747279e-07 -4.903473e-07 1.9838849e-07 4.765309e-08 -1.9802324e-07 1.645943e-07 -1.0718411e-08

running_var f4 [8]
00000000: 489c 8031 a645 d630 9038 bb31 8c36 b031
00000010: c697 9e30 580e a031 de2e a331 fde6 e530
3.7430574e-09 1.5590345e-09 5.4488467e-09 5.1284754e-09 1.153915e-09 4.6582436e-09 4.7492525e-09 1.6727594e-09

weight f4 [16, 1, 22, 1]
00000000: dbfa f6bd 2d2a 73bf c7de a6be 1923 a2bf
00000010: f7ec 223e 7b94 b13e 3222 593d 4142 d13b
00000020: 4efd babe 6cbe 923e 565a 283f 5974 d5be
00000030: f9bf 993f 7e6c 673e fb8f f63e fd4e 743e
00000040: 081f 633f 9108 3f3e 769b 8a3e dbfa 19bf
00000050: 78da c8be 1134 99bf 967d f03b 81fe ebbe
00000060: 2bc2 98be 3720 28be 56d9 213f 7b0f 8b3f
00000070: 21d7 063d 400f 88bf 1ea1 a6be 9ea5 d23e
00000080: 4c25 c33e d2ee 0bbf 365a b9bd 98c6 b23d
00000090: 2636 0f3f 7475 153f 81d5 b9be 2c7f 15bf
000000a0: 0bec 8e3f 04c7 453e 01fa 13bf 9e81 3ebf
000000b0: 6f68 173f b8e9 06be 43ea e7bd 734f cebf
000000c0: eb6d f5be 924b 17bf aeb9 8d3f a09c 423e
000000d0: 6248 52bf fcba 9a3e 72e9 ae3e b232 163d
000000e0: 0547 16be 3a7c 203f 84df 39bd 3115 993e
000000f0: 8da4 4a3f 232f df3c a22b 55be 79f0 413e
00000100: 104f 683e 8aea a8bf 4fc3 1abe 5a03 163f
00000110: c05f 0c3f 097e 1cbd f5b2 bfbe 3769 b8be
00000120: a6b2 2ebf e8a9 463f 48db 5f3f e7ad dd3e
00000130: 7524 163d cfff 8b3d e867 e03e cb52 08bf
00000140: 58ca 82bf 3e1e 35bf af20 063f 4372 103f
00000150: 5c7b 2abd e155 32bf 8a34 f23e 0146 76bf
00000160: 87b3 c2bd edc6 493f d363 113f f4b7 95be
00000170: fbb2 3cbf e98e 2ebf e9ad f23f 3357 be3e
00000180: 1134 ffbe 2225 1c3d c103 15bf e6f7 00bf
00000190: d5ae dfbe b25e 07bd 28b8 72be af38 30bf
000001a0: 59d5 933b 9b75 633e df52 40be c02d 803d
000001b0: ba4e 413f f9ef db3e 89cc 28bf 6268 063f
000001c0: a1a8 44bd c37d 823f 1824 0fbe 9b5e 5fbe
000001d0: cfd0 b7bf e8e9 1cbe af42 563f a09d 8abe
000001e0: b913 22be 6f4a 683f edef 8dbf 7ae0 1bbe
000001f0: d06d 343f dabe 0a3e d6ff 6fbe 8df9 443f
00000200: 0c16 6d3e 8ac2 043f 8452 babe 8c91 00bd
00000210: 3d09 8a3e 6210 c63d c336 20bf ccd6 62bd
00000220: 9c94 a3be e552 ddbd 7a44 97be d897 953f
00000230: 1e9b eb3e c1b0 79bf 23ba 023e 68a8 923f
00000240: 56ee 1e3e c2e7 813e 72ab 1fbf 460b 1dbf
00000250: 3155 fe3d b289 d33e ecfd 52bf 9d82 a4be
00000260: aeb3 c33d f841 7b3f 5778 713f bb35 93bd
00000270: d4fb 60be 2dbc 673e dd87 a6be 65e9 29bf
00000280: 8106 e63e 8410 a5bf cb19 d8bd f4a1 953f
00000290: 9851 a0be a2b5 48bf e9f8 aa3e dad3 05bf
000002a0: 6531 1ebe 2a9b 843f e35f 703e 9768 0e3e
000002b0: 0b6c 733e 75ee 59be dc47 0d3f 6259 21bf
000002c0: cdd2 463e ced9 623f a2db 5abd c44b 673e
000002d0: cd52 56be 1d71 d33c 2a4e 903f 3e2f e3bf
000002e0: 5bee 40bc 7f21 863f da4a 03bf bd75 8b3e
000002f0: f186 a73d 5473 c3bf e50f 3bbf 7219 be3e
00000300: 79ee 23bd 65d7 09be 4ac2 003f 9ecd 023f
00000310: 9783 bebe d333 533e 2021 173e cab9 8c3e
00000320: ddcb a1bc 0afc 7dbf 0e8b 27be 1eed f3bd
00000330: 2d49 133d bfca 443d 1310 a9be 0ede a2be
00000340: deae f53e 27ef a53d bbc4 11bf eb3a 51bf
00000350: 80d5 923d 6ca6 0140 95a4 833f fd36 acbe
00000360: 4e2c 263c 9070 f73e 9663 44be b7f3 4ebf
00000370: 7a7c 083d 4dce 063f 7073 3b3e e54f 2f3f
00000380: 6d8a 90bd 96c4 b23c d581 8abf 9705 50bf
00000390: 2fd6 c23d fdb1 d8be 97f7 c6be 9f58 9b3e
000003a0: 2934 1fbf 0df2 23bf 9b3f 743c ec33 0ebe
000003b0: 9c49 52bf 2a0a c33d 89c4 803f 8068 913f
000003c0: a133 1dbe b5a0 453f 9d08 833f 9a83 3bbf
000003d0: c07a 4dbf d003 b83e e68a 423f 3564 5a3f
000003e0: 6ea6 83bf b116 51bf aecb 28be 4681 99be
000003f0: 6ec8 7ebe 55b9 0dbf 4926 1d3f e6e9 07bd
-0.12059566 -0.9498623 -0.3259184 -1.2666961 0.15910707 0.34683594 0.053011127 0.006386072
-0.3652138 0.28660905 0.6576284 -0.4169033 1.201171 0.2259998 0.48156723 0.23858257
0.88719225 0.18655612 0.27071732 -0.601484 -0.39229178 -1.1969014 0.0073391898 -0.4609261
-0.29835638 -0.16418539 0.63222253 1.0864099 0.032920007 -1.0629654 -0.32544798 0.4114198
0.38114393 -0.54661286 -0.090504095 0.08729285 0.55942 0.58382344 -0.36295703 -0.58397174
1.1165785 0.193142 -0.5780335 -0.7441653 0.5914373 -0.13175094 -0.11323979 -1.6117996
-0.47935423 -0.59099686 1.107229 0.1900506 -0.821417 0.30220783 0.3416248 0.03666944
-0.1467553 0.62689555 -0.045379177 0.2989898 0.79157335 0.027244156 -0.20817426 0.1893939
0.2268641 -1.3196576 -0.15113567 0.58598864 0.548336 -0.038206134 -0.3744122 -0.36017773
-0.68241346 0.77603006 0.8744397 0.4329674 0.036655862 0.06835901 0.43829274 -0.5325133
-1.0218 -0.7074927 0.5239362 0.5642435 -0.04162155 -0.6966229 0.4730571 -0.9620057
-0.095068984 0.7881916 0.56792945 -0.29241908 -0.737106 -0.68186814 1.8959323 0.37175903
-0.4984441 0.03812135 -0.58208853 -0.50378263 -0.43688074 -0.033049293 -0.23703063 -0.6883649
0.004511517 0.22212832 -0.18781613 0.06258726 0.7551075 0.42956522 -0.65937096 0.52503026
-0.04801238 1.019463 -0.13978612 -0.21813433 -1.4360598 -0.15323603 0.836955 -0.27073383
-0.15827836 0.90738577 -1.1088845 -0.1522235 0.7048006 0.13549367 -0.23437437 0.76943284
0.23152941 0.51859343 -0.3639108 -0.031388804 0.26960173 0.096710935 -0.6258356 -0.055380628
-0.31949317 -0.108068265 -0.2954443 1.1686964 0.46016783 -0.9753533 0.12766318 1.1457644
0.15520605 0.2537213 -0.6237098 -0.61345327 0.12418593 0.4131599 -0.82418704 -0.321309
0.095557556 0.98147535 0.9432425 -0.07187983 -0.21971065 0.22630377 -0.3252553 -0.66371757
0.44926837 -1.2895665 -0.105517946 1.1690049 -0.3131225 -0.7840215 0.33393028 -0.52276385
-0.1544853 1.0359852 0.23474078 0.13907085 0.23771684 -0.2128237 0.55187774 -0.6302701
0.19416352 0.88613594 -0.053432114 0.22587496 -0.20930023 0.025810773 1.1273854 -1.7748792
-0.011775578 1.0478972 -0.5128609 0.27238265 0.08180035 -1.526957 -0.7307113 0.37128788
-0.040022347 -0.13461073 0.5029646 0.51094997 -0.3720977 0.20625238 0.1475873 0.27485496
-0.01975053 -0.99212706 -0.16361639 -0.11910461 0.035958458 0.048044916 -0.33020076 -0.3181004
0.47984976 0.08102255 -0.5694081 -0.81730527 0.07169628 2.0257826 1.0284601 -0.33635703
0.010142399 0.48328066 -0.19178614 -0.8084063 0.033321835 0.5265854 0.18305755 0.68481284
-0.070576526 0.021822255 -1.0820872 -0.8125853 0.095135085 -0.42323294 -0.3886077 0.3034105
-0.62188965 -0.64041215 0.014907743 -0.13886994 -0.8214357 0.09523423 1.0059978 1.1360016
-0.15351726 0.77198344 1.0237004 -0.73247683 -0.80265427 0.3594041 0.7599319 0.85309154
-1.0285165 -0.8167525 -0.16483948 -0.2998144 -0.24881145 -0.5536092 0.61386544 -0.033182047

weight f4 [16]
00000000: 35a2 863f 0504 8f3f 33d0 1e40 c05f 2240
00000010: d9fc 1640 27ee 873f 7e74 a73f fe95 903f
00000020: a37c 8e40 4798 3c40 9380 bb3f 2094 8f3f
00000030: 4b3c 1840 90a4 1e40 af99 3a40 0461 9640
1.0518252 1.1173102 2.4814575 2.537094 2.3591826 1.0619553 1.3082426 1.1295774
4.4527144 2.9467943 1.4648613 1.1217079 2.37868 2.478794 2.91563 4.6993427

bias f4 [16]
00000000: 85b1 783d ceb0 4cbe f4e4 86bf ab1e 75bf
00000010: a999 6abf 12e1 abbd 81e6 b3be 1cdf eabe
00000020: 96e4 f8bf 04db dfbf 40c1 a6be 413e 7fbe
00000030: 1919 33bf 9530 0bbf 10ff fabf 64b1 d1bf
0.06071617 -0.1998932 -1.0538621 -0.9574992 -0.91640717 -0.08392538 -0.35136798 -0.45873344
-1.9444759 -1.7488713 -0.32569313 -0.24926092 -0.6996017 -0.54371005 -1.9609089 -1.638226

running_mean f4 [16]
00000000: 8b83 57be 651b 27bd f228 66be c83d 99bd
00000010: 205b dcb9 b197 03bc 0d4e ab3d 3978 c73b
00000020: 9b34 a43b 4971 4237 3b85 e4bd f2d6 c03c
00000030: 825b a03b aea4 563d 6019 94bc 0e06 97b8
-0.21046273 -0.04079761 -0.22476557 -0.07482487 -0.00042029563 -0.0080317715 0.083644964 0.0060873297
0.005011154 1.1589677e-05 -0.11158224 0.023539994 0.004893721 0.052403145 -0.018078506 -7.201369e-05

running_var f4 [16]
00000000: a57d 8c3a 38de a439 2cac c63a cd4f 093b
00000010: 010b cf3b 71ee a93b 9c35 7039 3cc8 3d39
00000020: 9191 1e3b 9bbc b73a a671 a93a 9232 e13a
00000030: 8300 1c3c 1de8 5a3b 5173 543b 382e 983b
0.0010718597 0.00031446083 0.0015157512 0.0020952106 0.0063184504 0.005185895 0.00022908155 0.00018099038
0.002419565 0.0014018001 0.0012927547 0.0017181209 0.009521606 0.003340251 0.0032417367 0.0046441816

weight f4 [16, 1, 1, 16]
00000000: 46ac 9abf 84e9 06bf 58f2 abbe 5c01 94bd
00000010: 121d 133e 6de2 11bf c876 58be ff15 913b
00000020: 2993 1c3e 43f0 843e fc02 893e 9055 383c
00000030: b5f1 a2be 907b 22bf acff 9fbf 233f fcbf
00000040: b72c 753e c468 b13e ae8c 3b3c 453d 52bd
00000050: 5dbf 82be 1131 65be fe76 03bf 2412 c4be
00000060: 5940 2dbf 3d2d 50bf a4a4 10bf b957 28bf
00000070: 42e0 6cbe d5d3 32bf 34f6 2dbf fd98 7ebf
00000080: 31fa adbf 5c1b f8be 6f0b 56be 5e2f f6be
00000090: 438b ce3e 0945 98be 4f9c b0be e656 86bc
000000a0: 1d5f 3bbf a527 f6be 4b19 4c3e b7ed e5be
000000b0: bb71 f23d 1522 de3d fc1f cabe f83b a0be
000000c0: 1d4f 94bf 3ae0 33bf c7f8 32bf 266a 03be
000000d0: ec00 43bd 5b4b 02bf e1e1 393e d349 d1be
000000e0: 15e3 233d df5c 8dbe 7340 69bf fc5d b9bd
000000f0: 39cf febd fec0 c2be f7af d73e 83ba 44be
00000100: a0e7 8d3f 89e3 533e 6092 da3e b1b6 143f
00000110: 3344 09be f9c3 de3d a67f 573e 163e a1be
00000120: 4af3 0b3e 2d1f 44be 7024 c3bd b5ed 6b3d
00000130: c17b 813e 03f0 0b3f 8b23 673f c240 c83f
00000140: 0636 843e cc4e 8cbd e021 3f3f b1b8 e83d
00000150: d497 1abc ea6a a43e e8bb eebe fb9a 5abe
00000160: 9085 803e c20c 0fbf cde1 85be 3c5b ae3e
00000170: 3c52 333d 438f 413f e993 6b3f 8194 d63f
00000180: bedb 443d 6a47 20be 8587 4f3d 9e80 7e3d
00000190: 488c 61be b4d2 e2be 42e3 dcbe cdd0 eabe
000001a0: 6093 eebe c2a0 eabe d084 41be 931f 27be
000001b0: aee1 97be b143 2ebf 28f9 65bf 3040 68bf
000001c0: aac8 d03f be3b a63f 5e81 2f3f 4a3c 8f3e
000001d0: 6baa 683e 6284 d43e dfd4 043f 3d26 183f
000001e0: 02e1 b43e e98e 3a3e 07d6 c13e bb77 3fbd
000001f0: 58ee 70be 9be9 cabd 0777 89be 6d2e 7abe
00000200: a85e c23f 15f0 253f 0035 6a3f 454d 573f
00000210: af93 07bf 05fe dc3e c319 5ebe 9341 2a3d
00000220: cbae 113f 3e1b 833d 0b87 0d3f 4ff8 633e
00000230: 64bf d8be 9a8f 953f 6511 853e 0c74 ae3e
00000240: 4c81 8ebf d5ea 8fbf f596 2dbf 0e89 fabe
00000250: 298c d6be 60dd 88be 21b0 cbbe 7251 05bf
00000260: 8cfb 2dbe dbb7 75bd 78e8 83bd 4b8d 7fbd
00000270: 9532 07bf eb48 2bbe 65eb 4ebe b9d4 3fbf
00000280: b85a b93f f694 783f 299a 473f 8876 023e
00000290: d979 0ebe 4a7d bbbe 7e8d 3cbf 030c 3ebf
000002a0: 1f9b 36bf d26f 62be b009 d4bc 97c1 9c3d
000002b0: bf45 763e 26e1 873e cf92 013f bd11 df3e
000002c0: c47a 85bf 3425 6cbf 4a74 09bf ff32 81be
000002d0: 5def 29bf e80c 04bf 104c 9dbe dba8 7dbe
000002e0: e795 883d db66 08bd 5e75 563d 731d 2abe
000002f0: 01bc 063d be2f 9ebe 5fbb 47be af75 44bf
00000300: c701 abbf ae36 1cbf 61e5 febe ebfe ccbe
00000310: e325 7fbe 296b b23d 8fbd 16bd 4533 c7be
00000320: 875e f5be 0c74 193e b696 9dbe 7ed0 a4be
00000330: aa3e 453e 5260 cabe 121d 26bf 9366 82be
00000340: 2616 87bf 142e 60bf f67e 93be cba3 9ebe
00000350: 037f 2abf 6dc0 e4be 49bd b6be 9f0f 35bf
00000360: 5666 6fbe e04d 51be 9b44 06bf 0a38 0bbe
00000370: 5f99 7fbe 50ab 46be 8655 983a b7cb 37be
00000380: b4c7 0240 07f4 b6be 9bb3 123e 3186 663f
00000390: b178 bbbf f009 043f d0c9 483f 3667 fdbe
000003a0: 10ae 333f 974f 5e3d 9fc3 19bf d50d 8b3f
000003b0: bdc1 a2bf bd28 ed3e 7ce7 8f3f ad62 2bbf
000003c0: 0061 b0bf f159 66bf 23eb 27be aa89 5dbf
000003d0: 6c3f babd 4017 0abf 4207 2abf a6f4 acbd
000003e0: 4fdf 2ebf a34c 9cbc 6f00 25be 7b6c 2ebf
000003f0: 2d29 c13e c935 38bf 9eb1 13bf fe11 b5be
-1.2083824 -0.52700067 -0.3358333 -0.07226822 0.14366558 -0.56986123 -0.21139061 0.004427671
0.15290512 0.25964555 0.2676009 0.011250868 -0.31825033 -0.6346979 -1.24999 -1.9706768
0.23942839 0.34650242 0.011447115 -0.051327962 -0.25536624 -0.22381999 -0.5135344 -0.3829509
-0.6767631 -0.8131903 -0.5650122 -0.65758854 -0.23132423 -0.6985448 -0.679538 -0.9945219
-1.3591977 -0.48458374 -0.20902799 -0.48083013 0.40340623 -0.2974017 -0.34494254 -0.016398858
-0.73192006 -0.4807712 0.19931524 -0.44907925 0.118380986 0.108463444 -0.39477527 -0.31295753
-1.1586643 -0.7026402 -0.69910854 -0.12833461 -0.0476083 -0.50896233 0.18152572 -0.40876636
0.040011484 -0.27609918 -0.91113967 -0.09051129 -0.12441868 -0.38037866 0.42126438 -0.19211774
1.1086311 0.20692267 0.426898 0.58091265 -0.13404922 0.108772226 0.21044788 -0.3149268
0.13667026 -0.19152518 -0.09528434 0.057599742 0.2528973 0.54663104 0.9028861 1.5644763
0.25822467 -0.06850967 0.74661064 0.11363352 -0.009435613 0.3211282 -0.46627736 -0.21348183
0.251019 -0.5587884 -0.26148835 0.3405398 0.043779597 0.75609225 0.9202257 1.676407
0.048061125 -0.15652242 0.05066635 0.062134378 -0.2202617 -0.4430138 -0.43142134 -0.45862427
-0.46596813 -0.45825773 -0.1889832 -0.16320638 -0.29664367 -0.6807204 -0.8983331 -0.9072294
1.6311238 1.2986982 0.68556774 0.27975684 0.2272126 0.4150725 0.51887316 0.59433347
0.35327917 0.18218578 0.37858602 -0.046745043 -0.23528421 -0.09907838 -0.26848623 -0.24431773
1.5185137 0.6481946 0.9148712 0.8410228 -0.5295972 0.43162552 -0.21689515 0.041566443
0.5690734 0.064016804 0.55284184 0.22262691 -0.4233352 1.1684449 0.25989833 0.34072912
-1.1133208 -1.124354 -0.6780847 -0.4893269 -0.4190381 -0.26731396 -0.39782813 -0.520774
-0.16990489 -0.05998979 -0.06440824 -0.062390607 -0.5281156 -0.16727035 -0.20206983 -0.74933964
1.448081 0.97102296 0.77969605 0.12740529 -0.13913669 -0.36619025 -0.736534 -0.7423708
-0.71330446 -0.22112969 -0.025883526 0.07654112 0.24050044 0.26538962 0.5061464 0.4356822
-1.042809 -0.9224427 -0.5369307 -0.2523422 -0.66380864 -0.51582193 -0.30722094 -0.24771444
0.066692166 -0.033301216 0.052358024 -0.16612796 0.03289414 -0.308958 -0.1950507 -0.7674207
-1.3359917 -0.61020935 -0.49784377 -0.40038237 -0.24916796 0.087118454 -0.03680187 -0.38906303
-0.4792368 0.14985675 -0.30779046 -0.32190317 0.19262186 -0.39526612 -0.6488811 -0.25468883
-1.0553634 -0.8757031 -0.288078 -0.3098434 -0.66600055 -0.4467806 -0.35691288 -0.7072696
-0.23378882 -0.20439863 -0.52448434 -0.13595596 -0.2496085 -0.19401288 0.0011622168 -0.17948805
2.043439 -0.35733053 0.14326327 0.9004851 -1.4646207 0.51577663 0.7843294 -0.49492806
0.70187473 0.05427512 -0.6006412 1.0863596 -1.2715374 0.46320143 1.1242518 -0.6694744
-1.3779602 -0.8998099 -0.16398291 -0.86538184 -0.09094128 -0.53941727 -0.66417325 -0.084451005
-0.6830949 -0.019079512 -0.16113447 -0.6813428 0.37726727 -0.7195707 -0.576929 -0.3536529

weight f4 [16, 16, 1, 1]
00000000: b244 f03e a5a2 dcbd f741 123f 85b7 84be
00000010: 32f2 56bf 8b9d 2a3f 7b88 0ebe 1116 b0bf
00000020: 227a 353f 7032 763e ea90 bb3e b8ee ee3d
00000030: 0209 243f c3b1 75be c4d3 8e3f a83c 83bd
00000040: ad6e 2d3f b42d 913f 99ff 5d3f c6c9 913f
00000050: 558e 6abf 520a 823e 317a 9abe eac3 74be
00000060: 9f54 f83d d4f4 873e 51e6 9e3d f0f6 72bd
00000070: 0d0b 6a3f 2eb3 5e3d 87e1 dcbe 5c00 b8be
00000080: 01c6 99be 95fe 41be 9035 883e fb1e bf3d
00000090: 4365 6cbf ed65 ee3e ecbf 813f af17 ce3e
000000a0: 3ec4 28be 2159 c8be c724 fe3e 46d6 993d
000000b0: b541 5e3d bb97 503f c79e db3d 2d61 96bf
000000c0: ed20 253e 50da cf3d 34db 29bf 725e 16bf
000000d0: 8b09 e83e 1c43 b9bd bad6 d6be 4edd 86bf
000000e0: d5cd 03be 3694 113e 3094 6bbf fba2 4e3f
000000f0: 287a e83e 7357 48bf 6b04 a53e 429f 893f
00000100: a482 e53f 639a 4b3e aafd 03be 325a f23e
00000110: 22ca 403e 24e1 93bf 3571 a53b f28d 583f
00000120: fba0 e8be f560 003f 4f49 f7be a649 2dbf
00000130: 5aed d2be d6aa 753f 6a88 45bc 980c 07bf
00000140: 3d85 01bf 01da dbbe 710f 89be 6bb6 efbe
00000150: b6f8 2a3f 2088 d8bd 90e8 a3bc c6f6 053f
00000160: 1eff f23d 1705 8dbe 86a8 6a3f c74e 273f
00000170: a89e 733e ed20 003c d409 1f3f 1592 b13f
00000180: 9d82 f63f 0bc8 6bbf c6f1 a1be 2993 123e
00000190: df24 b7bd 6840 a8bf 1067 c13e 4609 113f
000001a0: 41e0 fbbb 756f 663f 5a36 01bd 2766 c1be
000001b0: e539 f5be f58e 243e 57bf d73d 71de fd3c
000001c0: f8ed d1be 37f2 5cbe c7c1 493f 6677 393e
000001d0: 854a e4be 7ddc 5f3f f61e e53e f908 a8be
000001e0: 72ce 263f 0643 58bf ae55 323f 78bf 783e
000001f0: 1ed6 2b3f ff64 623e 38a3 e63f 2ae4 09bc
00000200: 92b4 86be b27b 00bf 420e 5c3f 34be 423f
00000210: 8e7c 4cbe c02c b23e 631e 83be 684b c4ba
00000220: 618e 9c3f 5393 f23e 18c0 103f 9955 cb3e
00000230: 8581 093f d6ce 033f 0468 d13f 3c95 d63d
00000240: 6e62 e2be 6eda 02bf 8189 e13d b536 a8bc
00000250: 396b 503e 6abf ad3e 2c09 b73e 1d3e 763f
00000260: 0340 423f e676 e8be 5959 ca3e 42ac 113f
00000270: b2d0 fd3e 10e7 9d3e 381b b53f dba3 383f
00000280: 6e28 463e 2fdc 113f 4a2e 703e 7be4 663f
00000290: 0fb4 c83e 1740 b43e da21 7fbf 8d57 1bbf
000002a0: 9a95 333f 018a 713f 01f6 12bf 7ad5 6ebd
000002b0: cf41 483f 34e6 a63e b600 5fbf e28c 55bd
000002c0: d4fe b8be d5c7 edbe aaf3 c43e 10ba 733e
000002d0: 80e1 0fbf a8ef 083f bfbc 473f 5deb 743e
000002e0: 2e62 96bf fc59 3cbf 594b 373f 0352 29bf
000002f0: a5ed 5dbf f31b cebd 3bc1 fabe b455 59be
00000300: 5205 553e 7e7a 743f 0c66 5d3f 7e26 4e3f
00000310: 91df 7dbf beaf df3d 5a25 a93e 0f44 cc3d
00000320: 4e1a 68bf bb3b 2abf 8b62 9a3e 9c21 0bbf
00000330: 3e2b 953e d19f 94be 64d0 65bf 2edc ffbe
00000340: e638 07bd 64ed 24bf 8afc da3e ba65 023f
00000350: 4df9 9fbd c2f2 253f 9ad8 053f f1b2 663f
00000360: b914 ea3e 0fb5 783f 01bc b03f a545 2e3f
00000370: ebdd c6bd e16e 9f3f 85f7 d3be cf5e cbbe
00000380: 00ca 553f 590b 653f 3b03 823f 3dcd 4f3f
00000390: fcd0 1bbf 78f6 c43d 4305 d1be 2b94 fbbe
000003a0: aff8 6fbe c3aa bcbe 3599 f83e 3f44 9abf
000003b0: e008 b13e 759b f5be 25b8 80bf 8e57 12bf
000003c0: 99ec 8bbe aeca 883e bd51 153f 8320 0b3f
000003d0: b22f 43bf 69b0 503f eac2 4e3f 382c 393e
000003e0: 12ea 6dbd ff2f 28bf 2d1c b93e 83ad c33c
000003f0: a11e aa3e 9ef5 4e3f c5e9 20bf 561e a4bf
0.4692741 -0.107732095 0.57131904 -0.25921264 -0.8396331 0.6664664 -0.1391925 -1.3756734
0.70889485 0.24042678 0.36633998 0.11666626 0.64076245 -0.23993592 1.1158376 -0.06408054
0.67747 1.1342072 0.86718136 1.1389701 -0.9162343 0.253985 -0.3017135 -0.2390286
0.12125515 0.26553977 0.07758773 -0.05931753 0.9142311 0.054370098 -0.43140814 -0.35937774
-0.30033877 -0.18944772 0.26603365 0.09332081 -0.92342013 0.46562138 1.0136695 0.40252444
-0.1648111 -0.391305 0.49637434 0.075115725 0.05426188 0.8148152 0.10723644 -1.1748406
0.16125841 0.10149062 -0.663501 -0.5873786 0.4531978 -0.09046003 -0.41960698 -1.0536287
-0.12871487 0.14216694 -0.9202299 0.8071744 0.45405698 -0.78258437 0.32229933 1.0751727
1.7930493 0.19883113 -0.12889734 0.4733444 0.18827108 -1.1553082 0.0050488957 0.8459159
-0.45435318 0.50147945 -0.48298118 -0.67690504 -0.4119671 0.959638 -0.012056449 -0.5275359
-0.5059393 -0.4293976 -0.26769593 -0.4681886 0.6678575 -0.10572839 -0.020008355 0.5232967
0.11865066 -0.27542946 0.91663396 0.6535458 0.23790991 0.00782035 0.6212437 1.3872706
1.925861 -0.92102116 -0.3162977 0.1431395 -0.089425795 -1.3144655 0.37773943 0.56654775
-0.0076866453 0.9001382 -0.031545974 -0.3777325 -0.47895733 0.16070159 0.10534542 0.030989857
-0.41001868 -0.21576773 0.78811306 0.18111953 -0.44588104 0.87445813 0.44750184 -0.32819346
0.6515876 -0.8447727 0.69661987 0.2429179 0.6712359 0.2210884 1.801856 -0.008416215
-0.2630964 -0.50188744 0.85959256 0.76071477 -0.19969389 0.34799767 -0.2560912 -0.0014976086
1.223095 0.47378024 0.5654311 0.39713743 0.53713256 0.5148748 1.6359868 0.10477683
-0.4421572 -0.5111455 0.11012555 -0.020533899 0.20353402 0.339351 0.35749185 0.9618853
0.75878924 -0.45403212 0.39521292 0.5690347 0.49573284 0.3084035 1.4148932 0.72125024
0.1935136 0.569766 0.23455158 0.90192384 0.39199874 0.35205147 -0.9966103 -0.60680467
0.7015015 0.943512 -0.5740662 -0.058309056 0.78225416 0.32597506 -0.8711046 -0.05213631
-0.36131918 -0.46441522 0.3846715 0.23801446 -0.5620346 0.53490686 0.7802238 0.23917909
-1.1748712 -0.73574805 0.71599346 -0.66140765 -0.8669074 -0.10063925 -0.48975548 -0.212241
0.20802811 0.9549941 0.86483836 0.80527484 -0.9916926 0.10922192 0.3303631 0.09973919
-0.9066514 -0.6649739 0.30153307 -0.5434816 0.29134554 -0.2902818 -0.89771104 -0.4997267
-0.033013247 -0.6442473 0.42770797 0.5093647 -0.07811222 0.64823544 0.5228363 0.9011679
0.45718935 0.97151273 1.3807374 0.6807502 -0.09710296 1.2455713 -0.4139978 -0.3972077
0.8351135 0.8947044 1.0157236 0.81172544 -0.6086576 0.09617323 -0.40824327 -0.4913648
-0.23434709 -0.3684903 0.48554388 -1.2052077 0.34577084 -0.47970167 -1.0056196 -0.5716485
-0.27328947 0.26717132 0.5832785 0.54346484 -0.7624465 0.8151918 0.80766165 0.18083274
-0.058084555 -0.65698236 0.3615431 0.023886448 0.33226493 0.8084353 -0.62856704 -1.2821758

weight f4 [16]
00000000: 790c 5c3f c3c0 873f 7d1f 3b3f b43f 683f
00000010: 9c92 863f 9993 8f3f 0f22 803f 2fa7 a43f
00000020: 74f5 d93f b802 933f 1fb2 9f3f d2c1 723f
00000030: b20f 8f3f fe30 913f 2339 393f c0d3 603f
0.8595653 1.0605701 0.7309492 0.90722203 1.0513492 1.1216918 1.0010394 1.286352
1.7028031 1.1485205 1.2476233 0.94826996 1.1176665 1.1343076 0.7235281 0.87823105

bias f4 [16]
00000000: 0b1a 0dbe bd4c 9abe f9cf 063e 4627 36be
00000010: 7000 c9be 46ea a8be 3c93 93be 3d14 6ebe
00000020: 42fd d1bd b136 18be 3b7a 08bf 4bdf fcbd
00000030: 6e4c 9bbe 9d1b febe b279 69bd ed76 a33d
-0.13779466 -0.30136672 0.13165273 -0.17788419 -0.39258146 -0.32991236 -0.28823268 -0.23249908
-0.10253383 -0.14864613 -0.5331151 -0.12347277 -0.3033175 -0.49630442 -0.057000823 0.07981668

running_mean f4 [16]
00000000: c287 6c3f 70ce 033e 1ea3 b13f ac6b f5bf
00000010: 419b 15c0 520a 7bc0 6924 c4bf 041e 88bf
00000020: ddae 4d3e 3c43 3ec0 82be f13f 0cba 93be
00000030: 06fc abbe a583 9c3f 0ee7 953f d857 0040
0.9239465 0.12871718 1.3877904 -1.9173484 -2.337601 -3.922505 -1.5323611 -1.063416
0.20086236 -2.9728537 1.8886263 -0.2885288 -0.33590716 1.2227675 1.1711137 2.0053616

running_var f4 [16]
00000000: fb84 4843 3577 1b43 bb36 3443 c4d4 5443
00000010: 7c09 3143 3e1f 6343 03ea 0643 9cfb 8a43
00000020: 7480 9543 f331 6443 26c0 1243 f92c 2443
00000030: 9e3b 4f43 d243 2843 5e65 4043 5022 4443
200.51945 155.46565 180.21379 212.83112 177.03705 227.12204 134.91411 277.9657
299.00354 228.19511 146.75058 164.17567 207.23288 168.26492 192.39597 196.13403

weight f4 [4, 128]
00000000: 5871 60be c9a5 9d3e b14c 04be 0e90 48be
00000010: c64d 38be 6bb4 0abf 2a10 00bf d6b1 b1be
00000020: 16ed cfbe 40cb 6cbf 8667 eabe 4203 6bbe
00000030: 6dc1 2cbd e7b8 073d 26db fe3c 6a00 9bbe
00000040: 1a9a eabe 6206 febe 7de8 59bf 83ae 9ebf
00000050: 8188 6fbf 3131 81bf 04b8 10bf 96bd 02bf
00000060: 2f4e f03d ec27 a33e 94cb 573f 7245 243f
00000070: a7e7 063f 58e6 e23e 768e 8d3e 2dd2 6f3e
00000080: 66a3 9c3d f21a 9bbe 0866 c3be 6197 5bbe
00000090: 854d c6be 50d7 1ebe bc75 4dbe c804 003d
000000a0: 2dd6 703e 5694 4c3f d440 203e ac76 c43e
000000b0: 18cc 453f b340 333f 50fa 513f ff85 f93e
000000c0: e565 cc3e e75a 013f 08f8 2d3e b223 69be
000000d0: f76a c0be 8ae7 7fbe 6cdb 8fbe 8fc1 4ebe
000000e0: e4cc 273e 7404 963e 8ba7 90be 3ff4 7fbe
000000f0: edae 9cbc baf4 35be 35ce 21be 2142 adbe
00000100: be68 583e df68 d93e 5fd6 d3bd d2f5 03be
00000110: 157d 523e 9fbd a2bc faaf ef3d 8baa a8bd
00000120: 9492 553f 1036 2a3f dbce 79be 12bc 80bd
00000130: 54f5 3e3e e832 983e fe15 ef3e fb74 973e
00000140: 1892 80be 918a 78bf 6188 7cbe ee63 ef3e
00000150: c7a7 803e 678d 503e c041 6cbd a6be 34bd
00000160: 7945 40be a0eb f93e 6d7d 95bd 59f3 e0be
00000170: 1695 f4be e183 40bf a4c4 8c3c cba8 02bd
00000180: 868b 04bf 0999 5dbf 58cf 3bbf c4ac 04bf
00000190: d3f9 31be 9572 33be 4acb c03d 29f4 d2bd
000001a0: 50d1 a8be 5720 f53c 716f c5be 6566 0abf
000001b0: 874d 4bbe 5b8f adbe 496a 633d 39e9 49bd
000001c0: 9859 1fbf cc49 45bf 30ad 5ebf 9337 87be
000001d0: 35f8 49be 8078 febe a416 edbd f31e 2cbe
000001e0: 7005 2bbf 39c3 95bf c4af 8bbf d43e 89bf
000001f0: 610d 59bf e86e 36bf c453 0ebf 6af3 9fbe
00000200: 4166 2ebf b381 3dbf 5906 47bf 7306 adbd
00000210: da42 8e3e a212 48be 408e 66bd 5a2c ddbd
00000220: abc9 57bd 4d45 6d3d 865a f03c 6bfd 9c3e
00000230: 4134 2b3e 599b a5bd 17e7 d5bc 9a2f bcbd
00000240: f094 993e 5731 bf3e 5ed7 613e 431c 2a3e
00000250: 1408 083e 5d9f 883e 1dd5 d73d c209 7dbc
00000260: 3412 433e 627b d4be 28b8 02bf b17e 73be
00000270: 48e0 29be 168a 4abe e077 d7bd 51e5 a0bd
00000280: 8f3d 9d3e 9fac f53e 794e 333f 8441 b23e
00000290: 7a4d ba3d 64b6 debd 9bd6 793d a5fc 4cbe
000002a0: 52ce f7be 557c 89be 5846 dfbe a979 56bf
000002b0: 0057 34bf e549 3ebe d6c7 8abe b830 acbc
000002c0: 1cd3 973b 768e 8a3e b9f0 9e3e 18be 733e
000002d0: 6917 a6bd eaa7 02be cf89 84bd ad89 9bbd
000002e0: dd28 85bf 27cd 21bf a708 66bf c34e c5be
000002f0: 316e 67be a069 65be ff8c 90be 9839 95be
00000300: d8bc b9bf c2e8 93bf 0e20 8ebf 2d9d 59bf
00000310: 47a2 f9be 9f10 aebe 8bff cabe c63b b5be
00000320: 6869 85bf 1432 f8be 88b0 b0be 6de2 5cbf
00000330: 9042 32bf b784 79be 4aa8 bdbe 5833 64be
00000340: 0f54 e3be a196 41bf 3c49 ebbe 3a9c 2abe
00000350: 51d4 d6bd 43be 9bbe ba83 e0bd edc9 81be
00000360: 2906 6d3e 2e35 9f3e 7034 823e 09cd 863e
00000370: fd06 943e 7869 2b3f 9305 063f bfe9 0e3f
00000380: bc9b aa3e c6f4 123f 398a 053f 8276 2b3f
00000390: 7b3c aa3e 7075 9d3e def9 703e 0741 b53e
000003a0: f780 9dbe 9624 803d 7aa0 8ebc 5a19 0abe
000003b0: 3314 dabe 2d82 3dbb 5581 f5bd c58d 4ebb
000003c0: 4990 de3d acc6 623e 7455 bd3e 0081 733f
000003d0: 39fb 0b3f 0f7e 143e 103c 903e 7948 b03e
000003e0: 8d8b 843e 2a9b f23e 0541 173e 6a1b 3c3e
000003f0: df88 ab3d 7c3f 243e aac6 e33d 553f 373d
-0.21918237 0.30790547 -0.1291988 -0.19586203 -0.17998418 -0.54181546 -0.50024664 -0.3470599
-0.4061057 -0.92497635 -0.45782107 -0.22950462 -0.042176653 0.03313532 0.031110357 -0.30273753
-0.45820695 -0.49614245 -0.85120374 -1.2397007 -0.93567663 -1.0093137 -0.56530786 -0.51070535
0.11733662 0.31866395 0.8429501 0.64168465 0.52697223 0.44316363 0.27647752 0.2342002
0.07648353 -0.30293995 -0.3816378 -0.21444465 -0.38731018 -0.15511823 -0.20064443 0.03125456
0.23519202 0.7991384 0.1564973 0.3837179 0.7726455 0.700206 0.8202257 0.48735043
0.3992149 0.5052933 0.16989148 -0.22767523 -0.37581608 -0.24990669 -0.28097093 -0.20191024
0.16386753 0.29300272 -0.28252825 -0.24995516 -0.01912638 -0.17769137 -0.15801318 -0.33839515
0.21133706 0.42462823 -0.103436224 -0.12886742 0.20555528 -0.019865809 0.11703487 -0.082356535
0.83426785 0.6648874 -0.24395315 -0.062858716 0.18648273 0.29726338 0.46696466 0.29581437
-0.2511146 -0.97086436 -0.246614 0.46755928 0.25128004 0.2036644 -0.05767989 -0.04412713
-0.18776502 0.4881258 -0.07299314 -0.4393566 -0.47769994 -0.7520123 0.01718361 -0.031899255
-0.51775396 -0.8656164 -0.73363256 -0.5182612 -0.17380457 -0.17524178 0.09413774 -0.10300476
-0.32972193 0.029922647 -0.38561586 -0.5406249 -0.19853793 -0.33898434 0.055521283 -0.049294684
-0.62246084 -0.7706573 -0.86983013 -0.26409587 -0.1972359 -0.4970131 -0.11576584 -0.16808681
-0.6680517 -1.1700202 -1.0913014 -1.0722299 -0.8478604 -0.7126298 -0.55596566 -0.31240398
-0.6812478 -0.7402603 -0.7774406 -0.08448496 0.2778538 -0.19538358 -0.056288004 -0.10799475
-0.05268256 0.05792742 0.02934004 0.30662093 0.16719152 -0.08086271 -0.026111169 -0.09188767
0.29996443 0.3734233 0.22054812 0.16612343 0.13284332 0.26684085 0.10538695 -0.015444221
0.19049913 -0.41500384 -0.5106225 -0.23778798 -0.16589463 -0.19779238 -0.10520911 -0.07856239
0.30711028 0.47983262 0.70041615 0.3481561 0.09096809 -0.10874632 0.06099568 -0.20018251
-0.48399597 -0.2685267 -0.43608356 -0.8377939 -0.7044525 -0.18582876 -0.27105588 -0.021019325
0.0046333205 0.27061814 0.31043032 0.23802984 -0.08109934 -0.12759367 -0.064715974 -0.07594619
-1.0403095 -0.6320366 -0.8985695 -0.38536653 -0.22600628 -0.22403574 -0.2823257 -0.29145503
-1.4510756 -1.1555407 -1.1103532 -0.85005456 -0.4875662 -0.33997056 -0.3964809 -0.35397166
-1.0422792 -0.48475707 -0.34509683 -0.86283 -0.69632816 -0.24367033 -0.37042457 -0.22285211
-0.4440007 -0.75620466 -0.4595431 -0.16661158 -0.10489715 -0.30418596 -0.10962625 -0.2534937
0.23146881 0.3109526 0.25430632 0.26328304 0.28911582 0.6695781 0.52352256 0.5582542
0.3332194 0.57404745 0.52164036 0.66977704 0.33249268 0.3075366 0.23532817 0.35401174
-0.30762455 0.06256978 -0.017410506 -0.13486233 -0.42593536 -0.0028916702 -0.11987559 -0.0031517607
0.10867364 0.221461 0.36979258 0.95118713 0.5468021 0.14501213 0.28170824 0.34430292
0.2588772 0.47384006 0.14770897 0.18369833 0.083757155 0.16039842 0.111218765 0.044738133

bias f4 [4]
00000000: d33a 373f d30b 153e f331 adbf 522a 073f
0.71574134 0.14555292 -1.3530868 0.5279895
