histories_pre/LSTM_ATCNet_BcicIv2a_pt/65.94%_slf=100_bs=064_lr=0.0051_ld=0.999894_nl=3_hs=032_do=0.15/best_valid_loss.pt (torch, 103436 bytes, 14 tensors)

weight_ih_l0 f4 [128, 22]
0	0x3eb694c7	0.35660383
1	0x3e84dc95	0.2594954
2	0x3e196e9e	0.14983603
3	0x3e24608f	0.16052459
4	0x3dfbb1e5	0.1228979
5	0x3dd2de34	0.10296288
6	0x3f3e431c	0.7432115
7	0x3ebc795e	0.36811346
8	0x3ebe4a10	0.3716588
9	0x3cead1f2	0.028664563
10	0x3dc5ca8e	0.09657775
11	0x3dcc33a4	0.09970787
12	0x3d0fbb22	0.035090573
13	0x3ea256a1	0.31706718
14	0x3e83cc48	0.25741792
15	0x3c5ebef9	0.013595336
16	0x3e72ef6c	0.23724145
17	0x3ea80029	0.32812622
18	0xbe31275b	-0.17300169
19	0x3e17df86	0.14831361
20	0x3e89f600	0.26945496
21	0x3ea193f4	0.31558192
22	0x3f1cf3b8	0.61309385
23	0x3ee6bb2e	0.45064682
24	0x3eb8144a	0.3595298
25	0x3f07af9e	0.53002346
26	0x3ef2c1d6	0.4741351
27	0x3ee54220	0.44777012
28	0x3edef31b	0.4354485
29	0x3e8ca034	0.27465975
30	0x3f0b75b9	0.54476506
31	0x3f1066eb	0.5640704
32	0x3ec9c898	0.39410853
33	0x3efa5767	0.48894808
34	0x3e978fcb	0.29601893
35	0x3e6df54e	0.23238108
36	0x3f185f1e	0.5952014
37	0x3f15ff9e	0.58593166
38	0x3f0d1c47	0.5512127
39	0x3f2cc8d7	0.6749396
40	0x3f1faefe	0.6237639
41	0x3ee92f41	0.45543864
42	0x3e34ede9	0.1766888
43	0x3f148458	0.5801444
44	0xbc08d5c6	-0.008351749
45	0x3ec23246	0.3792898
46	0x3e260356	0.1621221
47	0xbd9929af	-0.07478654
48	0xbe63b364	-0.22236401
49	0xbf2e063e	-0.67978275
50	0xbdc5089a	-0.09620781
51	0x3dd37537	0.10325091
52	0x3f009174	0.50221944
53	0xbe5f536d	-0.21809168
54	0xbe7c1733	-0.24618225
55	0xbec7e389	-0.39040783
56	0xbeafba76	-0.34321946
57	0xbee6be0c	-0.4506687
58	0x3e000e1b	0.12505381
59	0xbd5139f1	-0.051080648
60	0x3c5ea3ca	0.013588855
61	0x3eafcddb	0.34336743
62	0xbece5ee5	-0.40306774
63	0x3e2726e1	0.16323425
64	0x3ee49ab1	0.4464927
65	0xbefc9c77	-0.49338123
66	0xbd115bb3	-0.03548784
67	0xbdb8af58	-0.09017819
68	0x3e831efe	0.25609583
69	0xbd3270e6	-0.0435647
70	0x3be800d3	0.0070801764
71	0xbd898b30	-0.06716001
72	0x3d41f8c9	0.0473564
73	0xbcb16900	-0.021656513
74	0x3d87e701	0.066358574
75	0xbe0fadeb	-0.14031188
76	0x3e0270aa	0.1273829
77	0x3d464ed3	0.048415016
78	0xbecff2d1	-0.40614942
79	0xbed751f1	-0.42054704
80	0x3e3e5de7	0.18590508
81	0x3e44d072	0.1922014
82	0x3e2efa0c	0.17087573
83	0xbdac3c5e	-0.084099516
84	0x3e899568	0.268718
85	0x3e25a992	0.16177967
86	0x3e381d1b	0.17979853
87	0xbe704055	-0.2346204
88	0x3eb44a62	0.35213
89	0x3ebe80a7	0.3720753
90	0x3c4dc15d	0.012558308
91	0x3e4d5dbe	0.20055291
92	0x3df0df67	0.117613606
93	0x3db78ba1	0.08962179
94	0x3e7140a6	0.23559818
95	0x3e3af40c	0.18257159
96	0x3e2d763b	0.16939633
97	0x3d026843	0.031837713
98	0x3d800fbf	0.06253003
99	0x3e8a7d7b	0.2704886
100	0x3e7eeae3	0.2489429
101	0x3e74eca5	0.23918398
102	0x3e559f5e	0.20861575
103	0x3eefa3d6	0.46804684
104	0x3e602a7d	0.21891208
105	0x3e768f91	0.24078204
106	0x3f20b3ce	0.6277436
107	0x3dead80b	0.11466988
108	0x3d89b94e	0.06724797
109	0xbd687824	-0.0567552
110	0x3e85d0db	0.26135907
111	0xbe3eea1f	-0.18643998
112	0xbd6cf3df	-0.05784976
113	0x3e920f3f	0.28527257
114	0xbe4200dc	-0.1894564
115	0xbe91339c	-0.28359687
116	0xbe8d091e	-0.27546018
117	0x3bc7763a	0.0060870918
118	0xbd589957	-0.05288061
119	0x3acfb5ff	0.0015847086
120	0xbddf2fb7	-0.10897773
121	0xbe542f37	-0.20721136
122	0x3e47e4fe	0.19520947
123	0x3e1696ae	0.14705917
124	0xbe20dad1	-0.15708472
125	0x3e301cb7	0.17198454
126	0x3d231d79	0.03982303
127	0xbda73dc6	-0.08166079
128	0x3d908f28	0.07058555
129	0x3f0ac4e7	0.542067
130	0x3e9b140f	0.3028874
131	0x3e7322bf	0.23743723
132	0x3eca5f2e	0.3952574
133	0x3e6ec179	0.23315991
134	0x3e656ce9	0.22404827
135	0x3d8c7624	0.06858471
136	0x3e38c2b1	0.18043019
137	0x3f062474	0.52399373
138	0x3da2653f	0.079294674
139	0x3e1d307b	0.15350525
140	0x3dfde38c	0.12396917
141	0xbeca7b08	-0.3954699
142	0x3d3e8f51	0.046523396
143	0x3cc93951	0.024563463
144	0x3e0f6e74	0.14006978
145	0xbcf6ef35	-0.03014336
146	0xbde5339e	-0.11191486
147	0x3c73901e	0.014865903
148	0x3e908c65	0.28232113
149	0xbce41ebc	-0.027846687
150	0x3d4f6d0c	0.050641105
151	0x3d96f07d	0.07370088
152	0x3f0df631	0.55453783
153	0x3f0e7b42	0.55656826
154	0x3f170295	0.58988315
155	0x3f505425	0.81378394
156	0x3f559fc9	0.8344694
157	0x3eb38fdd	0.35070696
158	0x3eeed2a7	0.4664509
159	0x3f06e71c	0.52696395
160	0x3f136c79	0.5758739
161	0x3f4dcc86	0.80390203
162	0x3f3e17b9	0.7425495
163	0x3e84d7a1	0.25945762
164	0x3b2824b5	0.0025656645
165	0x3ef162dd	0.4714574
166	0x3d98ebc1	0.074668415
167	0x3e7076c4	0.23482805
168	0x3e9e4782	0.3091393
169	0x3e11f0bf	0.14251994
170	0xbccd3f37	-0.025054557
171	0x3e3cafce	0.18426439
172	0x3ed5006f	0.41601893
173	0x3c97677b	0.01848196
174	0x3cf56b3d	0.029958362
175	0x3ec425b1	0.38310006
176	0xbe2f7bb9	-0.1713704
177	0x3d83fa93	0.064442776
178	0xbeb08e5f	-0.3448362
179	0x3e147547	0.14497863
180	0x3e11170a	0.14168945
181	0x3e476f2b	0.19476001
182	0x3e4a55cd	0.19759293
183	0xbbb6ee01	-0.0055825715
184	0xbd955f0f	-0.072935216
185	0xbd14801a	-0.03625498
186	0x3d8c1273	0.068394564
187	0xbcb69f1a	-0.022292662
188	0xbcc6a22e	-0.024247255
189	0x3e042375	0.12904151
190	0x3c2b7073	0.010463822
191	0x3e719fff	0.2359619
192	0xbd295bc5	-0.041347284
193	0x3e7a5bc1	0.24449064
194	0xbb334068	-0.0027351622
195	0x3ce16876	0.027515631
196	0x3d54ce10	0.05195433
197	0x3ed533a3	0.41640958
198	0xbeca577c	-0.3951987
199	0x3da779f2	0.08177556
200	0xbe9939d1	-0.29926923
201	0xbef47e35	-0.47752538
202	0xbe753036	-0.23944172
203	0x3e9dc495	0.30814043
204	0x3f4d566d	0.8021
205	0x3e66d001	0.22540285
206	0xbdde78ba	-0.108628705
207	0x3e9fe6dd	0.31230822
208	0xbe4a9a7e	-0.19785497
209	0x3e515f44	0.20446497
210	0x3f505b58	0.8138938
211	0x3da5878d	0.08082495
212	0x3eb919a0	0.36152363
213	0x3eb94958	0.3618877
214	0xbc098c88	-0.008395322
215	0x3f420d1c	0.75801253
216	0x3ea73491	0.32657292
217	0x3d9a0ebc	0.075223416
218	0x3e78590e	0.24252722
219	0x3f0e2d55	0.5553792
220	0x3e29edff	0.16594695
221	0x3e32e6f0	0.17470908
222	0xbd80ebc8	-0.06294972
223	0x3ca42934	0.020039178
224	0x3d93c0b6	0.07214491
225	0x3df8b92b	0.12144693
226	0x3ef29b45	0.47384086
227	0x3dae0434	0.084968954
228	0x3e84c4de	0.25931448
229	0x3e413e42	0.18871406
230	0x3dfcd0ad	0.12344489
231	0x3e2acbce	0.16679308
232	0x3df5bf6b	0.11999401
233	0x3d920c89	0.07131297
234	0x3e0ca7ee	0.13735935
235	0x3d82dfe9	0.06390364
236	0x3e9f1f0f	0.31078383
237	0x3ed677c1	0.4188824
238	0x3eaec357	0.34133407
239	0x3f2a187c	0.6644361
240	0x3ed3cbd6	0.41366452
241	0x3f2d185a	0.6761528
242	0x3e547174	0.20746404
243	0x3eea950e	0.45816845
244	0x3f1de7ba	0.6168171
245	0x3f24be70	0.64353085
246	0x3ea34b03	0.31893167
247	0x3e86528c	0.26234853
248	0x3e346705	0.17617424
249	0x3f29b2a7	0.66288227
250	0x3ee506e7	0.4473183
251	0x3ed0ab72	0.40755802
252	0x3e2b4ec9	0.16729273
253	0x3ee7b08c	0.45251882
254	0xbcb62179	-0.022232758
255	0x3dfb0d55	0.12258402

weight_hh_l0 f4 [128, 32]
0	0xbe5b0f86	-0.2139264
1	0xbe90b488	-0.28262734
2	0xbe88edf5	-0.26744047
3	0x3d7cec2b	0.061748665
4	0xbf3e9e4c	-0.7446029
5	0xbe965088	-0.29358315
6	0xbcd35942	-0.025799397
7	0x3f73a21e	0.95169246
8	0xbd82d7a9	-0.0638879
9	0x3efcd83c	0.49383724
10	0x3eb61c12	0.3556829
11	0x3eac2b53	0.33626804
12	0xbeaf8dab	-0.34287772
13	0xbf536b50	-0.8258562
14	0x3d96dc9d	0.073662974
15	0x3ea126d3	0.31474933
16	0x3f3f23c7	0.74663967
17	0xbe9c6069	-0.30542305
18	0xbdb8a805	-0.09016422
19	0xbeba5e02	-0.36399847
20	0x3ed531cd	0.41639557
21	0x3efed4ab	0.49771628
22	0x3f38224e	0.71927345
23	0xbf63ec53	-0.8903248
24	0xbf178929	-0.59193665
25	0x3d89d227	0.067295365
26	0x3eee40c8	0.465338
27	0x3d4afd97	0.04955825
28	0xbe44ce9d	-0.19219442
29	0x3eb048bb	0.3443049
30	0x3ea0541b	0.31314167
31	0xbf47e70c	-0.78086925
32	0x3eb04554	0.34427893
33	0xbf824c4f	-1.0179538
34	0x3e75fcaf	0.24022172
35	0x3d1edc5f	0.03878438
36	0x3f10e185	0.56594115
37	0x3f13de53	0.57761115
38	0x3ec3c489	0.38235882
39	0xbdb00bb6	-0.08595984
40	0xbecc25c2	-0.39872557
41	0x3eedac5d	0.46420565
42	0x3f0b080a	0.5430914
43	0x3f4cebc0	0.80047226
44	0x3f430bcf	0.76189893
45	0x3f218554	0.6309407
46	0xbf0bb3fc	-0.5457151
47	0x3f7f2fad	0.9968212
48	0xbf16c54d	-0.5889481
49	0x3eec3e55	0.46141306
50	0x3e086033	0.13317947
51	0xbed9e0a4	-0.425542
52	0x3f66ddba	0.9018208
53	0x3f121516	0.57063425
54	0x3ecc401f	0.3989267
55	0x3f10c3d6	0.5654882
56	0x3e8b7579	0.27238062
57	0xbe75e638	-0.24013603
58	0xbd855053	-0.06509461
59	0x3f01cd42	0.50703824
60	0xbf80a708	-1.0050974
61	0xbf44e74d	-0.76915437
62	0x3dfe7c9b	0.1242611
63	0xbe66d35e	-0.22541568
64	0xbe437fd6	-0.19091734
65	0xbf40ecd1	-0.75361353
66	0x3e2c091d	0.16800351
67	0xbec39af1	-0.38204148
68	0x3eb55ce7	0.3542244
69	0xbf1dd02a	-0.6164576
70	0xbdbaaf61	-0.09115482
71	0x3bd27499	0.006422591
72	0xbecae6db	-0.39629254
73	0xbe79efd7	-0.24407898
74	0x3efabf7e	0.48974222
75	0xbe9d9a18	-0.30781627
76	0x3e64df84	0.2235089
77	0x3e11425e	0.14185473
78	0xbe90219e	-0.28150648
79	0x3d90c67b	0.07069107
80	0x3e3e9297	0.18610607
81	0x3eba0fe2	0.36340243
82	0xbe9a192d	-0.30097333
83	0xbf5d4794	-0.86437345
84	0x3e0adbed	0.13560458
85	0x3b5ad40b	0.0033390548
86	0xbec69605	-0.3878633
87	0x3cb7002d	0.022338951
88	0xbeb9bfff	-0.36279294
89	0x3d6cbb78	0.05779597
90	0x3e88c5c3	0.2671338
91	0x3dadf9c3	0.08494904
92	0xbe030668	-0.12795413
93	0x3ed071cd	0.40711823
94	0x3f048663	0.5176756
95	0xbf964a25	-1.1741377
96	0x3eb5e536	0.35526437
97	0x3e18a5f7	0.1490706
98	0xbe043fea	-0.12915006
99	0xbdf4f642	-0.119610325
100	0xbdfcd993	-0.123461865
101	0x3ebed1c9	0.37269428
102	0xbdfdf3f9	-0.1240005
103	0x3f542e8b	0.8288352
104	0x3edde760	0.43340588
105	0x3ebb9aa8	0.3664143
106	0xbf2250ea	-0.63404715
107	0x3f035b61	0.5131131
108	0x3eab0c1e	0.33407682
109	0x3f63cd83	0.8898546
110	0xbfa5d837	-1.2956609
111	0xbc701469	-0.014653304
112	0xbe200a57	-0.15628944
113	0xbf98b61f	-1.1930579
114	0x3ea8bec2	0.32958037
115	0x3eefdf40	0.46850014
116	0xbd1bbe76	-0.038023435
117	0x3e639102	0.22223285
118	0x3e8f62e6	0.2800514
119	0xbdffe0b0	-0.124940276
120	0xbe6d2484	-0.23158461
121	0x3e728da8	0.2368685
122	0x3f96dbc6	1.178582
123	0xbefab23c	-0.48964107
124	0x3e849ee4	0.25902474
125	0xbf7c8f92	-0.9865657
126	0xbea4187c	-0.3204993
127	0xbe6b2383	-0.22962765
128	0x3f8cfa28	1.1013842
129	0x3f1b8c19	0.6076065
130	0xbd29b130	-0.041428745
131	0x3f4ae0c1	0.792492
132	0xbef1c70e	-0.4722218
133	0x3f05d7e8	0.5228257
134	0xbed7eb66	-0.42171782
135	0x3f010e9a	0.50412905
136	0x3e0aaf85	0.13543518
137	0x3e06ab8d	0.13151379
138	0xbeb3c3ed	-0.35110417
139	0x3fcd8fb4	1.605948
140	0x3d879e9f	0.066220514
141	0x3e88fed9	0.26756933
142	0x3eb50062	0.35351855
143	0x3ec6a2bd	0.38796034
144	0x3f3faa11	0.74868876
145	0x3f157991	0.5838862
146	0xbcaf4a42	-0.021397714
147	0x3f31d64d	0.6946762
148	0x3e9df21b	0.30848774
149	0x3ed36d96	0.41294545
150	0xbf1062da	-0.56400836
151	0xbe59b149	-0.21259035
152	0x3e5be5b2	0.2147434
153	0xbe802f44	-0.2503606
154	0xbee2e22f	-0.4431319
155	0xbcd5e2a7	-0.026109053
156	0xbf0bf67e	-0.5467299
157	0xbf234980	-0.6378403
158	0x3df7793a	0.12083669
159	0x3f949c68	1.1610231
160	0x3e6c0b32	0.23051146
161	0x3f195f63	0.59911174
162	0xbf099069	-0.5373598
163	0x3f284a75	0.6573861
164	0x3f08d6fa	0.5345303
165	0x3eaba913	0.3352743
166	0x3f9a60cc	1.206079
167	0xbf6a3116	-0.9148115
168	0xbe066334	-0.1312378
169	0xbeb6d3d8	-0.357085
170	0x3d62023a	0.055177905
171	0xbec81a78	-0.39082694
172	0x3feba49d	1.8409611
173	0xbe88baed	-0.26705113
174	0x3dafba03	0.08580401
175	0x3f09493a	0.5362736
176	0x3dbefa5b	0.09325095
177	0xbe3fc626	-0.18727931
178	0xbe455973	-0.19272403
179	0xbf3836ea	-0.7195879
180	0x3f5aa832	0.85412896
181	0x3f13edfb	0.57785004
182	0x3d19a4b8	0.037510604
183	0x3f21027d	0.6289442
184	0x3f70ddd7	0.940885
185	0x3db12b91	0.08650888
186	0x3ee8dea4	0.4548236
187	0xbda61966	-0.08110313
188	0xbf6a2df5	-0.91476375
189	0xbde3bb49	-0.11119706
190	0xbf0623ef	-0.5239858
191	0xbf4d7081	-0.8024979
192	0xbf19a4bf	-0.6001701
193	0x3ea5432f	0.3227782
194	0x3f00cd38	0.5031314
195	0x3e183e03	0.14867406
196	0x3f518799	0.8184753
197	0xbf4a1083	-0.78931445
198	0x3f103abd	0.5633963
199	0xbea0eeb6	-0.31432122
200	0xbf3b23f4	-0.73101735
201	0xbe4559ca	-0.19272533
202	0xbecdf052	-0.40222412
203	0x3ea79fc1	0.3273907
204	0x3ea01d0b	0.31272158
205	0xbd74aa97	-0.059733
206	0x3f14c4db	0.5811288
207	0x3ed00bf2	0.40634114
208	0x3f8ce6aa	1.1007893
209	0x3e5a70dd	0.21332116
210	0x3e407c6e	0.18797466
211	0xbc8b81dc	-0.017029695
212	0x3ef1addf	0.47202966
213	0x3f05cc33	0.5226471
214	0xbf175092	-0.59107316
215	0x3e5bd517	0.21468006
216	0x3e6a9546	0.22908506
217	0x3f32287f	0.6959304
218	0x3eaa0f78	0.33214927
219	0x3dd76662	0.10517575
220	0xbf0b9c90	-0.5453577
221	0xbf17217c	-0.5903547
222	0x3cf1d11f	0.029518662
223	0xbdd2f7b1	-0.1030115
224	0xbf18334b	-0.59453267
225	0x3f8cfcaa	1.1014607
226	0xbfbf6f60	-1.4955864
227	0xbf159e05	-0.58444244
228	0xbf56355d	-0.83675176
229	0x3fe3d52c	1.779943
230	0x3c3c0c02	0.011477472
231	0xbd3b735d	-0.045764316
232	0xbf9b060f	-1.2111224
233	0x3f2a86c7	0.66611904
234	0x3e376feb	0.17913787
235	0x3ff1d37d	1.8892666
236	0xbe6adcc4	-0.22935778
237	0x3f31560a	0.6927191
238	0xbf76280e	-0.9615487
239	0x3ed6c9bc	0.41950786
240	0x3f25e03a	0.6479527
241	0xbf38e4ff	-0.7222442
242	0xbe2f0acf	-0.17093967
243	0xbf5c89a6	-0.86147535
244	0x3e6a181f	0.22860764
245	0xbfab0296	-1.3360164
246	0xbe91283d	-0.28351012
247	0x3d23a559	0.03995261
248	0xbf2b3c79	-0.6688915
249	0xbe9e4ceb	-0.3091806
250	0x3efd949c	0.49527442
251	0xbf1df367	-0.6169953
252	0xbf038ded	-0.51388437
253	0x3f091581	0.5354844
254	0x3f959576	1.1686237
255	0x3fd87cdf	1.6913108

bias_ih_l0 f4 [128]
0	0x3f128295	0.572305
1	0x3f7a0bcb	0.97674245
2	0xbe356caf	-0.17717241
3	0xbd296623	-0.04135717
4	0x3e556a35	0.20841296
5	0x3e8e4c3d	0.2779254
6	0x3e1e9d0a	0.15489593
7	0x3eeb5d29	0.45969513
8	0x3ede16db	0.43376812
9	0x3f050483	0.5196001
10	0x3f872597	1.0558347
11	0x3dea84cb	0.114511095
12	0x3cf3376b	0.029689511
13	0x3f086422	0.5327779
14	0x3e458d0c	0.19292086
15	0x3e05af78	0.13055217
16	0x3e8efe98	0.27928615
17	0x3e083439	0.13301171
18	0xbdedc32d	-0.116094925
19	0x3edf431e	0.43605894
20	0x3ea6a010	0.32543993
21	0xbe527c17	-0.20555149
22	0x3ecdc2d0	0.40187693
23	0x3ebdd22b	0.37074408
24	0xbe030395	-0.12794335
25	0xbe085dc6	-0.13317022
26	0x3e10c6b4	0.14138299
27	0xbd97deda	-0.074155524
28	0xbd4da0a8	-0.050202042
29	0x3ef976b1	0.48723367
30	0x3e4addb6	0.19811139
31	0x3e83d99d	0.25751963
32	0xbe119170	-0.14215636
33	0xbea82e90	-0.32848024
34	0xbe37d93d	-0.17953964
35	0xbd7c34b4	-0.0615737
36	0x3d8d1b9a	0.0689003
37	0xbe330cc8	-0.17485344
38	0xbddcc99b	-0.10780641
39	0xbe8b7b18	-0.2724235
40	0xbbf78f17	-0.0075548994
41	0xbe0af52a	-0.13570085
42	0xbeb9ca24	-0.36287034
43	0xbda46a57	-0.08028095
44	0xbc17f60f	-0.0092749735
45	0x3de6c8ab	0.11268743
46	0x3cfecf3b	0.031104675
47	0xbd787b1c	-0.06066428
48	0xbe5696f9	-0.20956029
49	0xbe9d5a05	-0.30732742
50	0xbe133840	-0.14376926
51	0xbd829431	-0.063759215
52	0xbdcac756	-0.099013016
53	0xbda7c548	-0.08191925
54	0xbe04bc4c	-0.12962455
55	0xbdbc3e26	-0.091915414
56	0x3e6a61f4	0.22888929
57	0xbe68a1c6	-0.22717962
58	0x3e1ffb55	0.1562322
59	0x3dc3aa67	0.09553986
60	0xbe6b7423	-0.22993521
61	0xbe40f7ce	-0.1884453
62	0xbefacdbe	-0.48985094
63	0xbe0eadc1	-0.1393347
64	0xbe12f807	-0.14352427
65	0xbcaf6d44	-0.021414407
66	0x3e5c6478	0.21522701
67	0x3e2e1c14	0.17002898
68	0x3de64d03	0.112451576
69	0x3e672b38	0.2257508
70	0x3d5cbaa6	0.05388894
71	0x3d033521	0.03203309
72	0x3e7e5305	0.24836357
73	0x3d7916de	0.060812823
74	0x3d8847d8	0.06654328
75	0x3e7443ae	0.23853943
76	0x3efff522	0.4999171
77	0xbd75e28e	-0.060030513
78	0xbe27d8f5	-0.16391356
79	0x3ef27941	0.47358134
80	0xbdebe272	-0.115178004
81	0xbd92a3a0	-0.07160115
82	0x3e93f917	0.28900978
83	0xbd959edf	-0.07305693
84	0x3f27a912	0.65492356
85	0x3e164819	0.1467594
86	0x3e59a361	0.2125373
87	0x3cda3601	0.02663708
88	0xbd073c5b	-0.033016544
89	0x3e9da3da	0.3078907
90	0x3da4558b	0.080241285
91	0xbb11da45	-0.0022255343
92	0xbf05de05	-0.522919
93	0xbdc787e3	-0.09742715
94	0xbe154f5e	-0.14581057
95	0xbe42646f	-0.18983625
96	0x3f351105	0.70729095
97	0x3f7385a9	0.95125824
98	0xbdf35a1d	-0.11882422
99	0xbdb18b43	-0.0866914
100	0x3e0a753c	0.13521284
101	0x3eed5c75	0.46359602
102	0x3e5c851c	0.21535152
103	0x3f5dd376	0.8665079
104	0x3f378bb6	0.71697557
105	0xbe5d2126	-0.21594676
106	0x3f5626d9	0.83653027
107	0x3e5879c1	0.21140195
108	0x3d9bec17	0.0761339
109	0x3edf8b03	0.43660745
110	0x3ef1b9fc	0.47212207
111	0x3b9e6ce2	0.004834757
112	0x3e6cd780	0.23129082
113	0x3e8f483f	0.27984807
114	0xbda5d52a	-0.080972984
115	0x3f32b6bf	0.698101
116	0x3c42b6a3	0.011884364
117	0x3e4509db	0.19242041
118	0x3f1ad0f2	0.60475075
119	0x3d383b09	0.044978175
120	0x3d825fc0	0.06365919
121	0xbe69aec1	-0.2282057
122	0x3ea2b72d	0.31780377
123	0xbbba5d91	-0.0056874235
124	0xbd7b9e19	-0.06143007
125	0x3f1867e4	0.59533525
126	0x3edad93c	0.42743862
127	0x3e79ddde	0.24401042

bias_hh_l0 f4 [128]
0	0x3eb77a25	0.35835376
1	0x3f84edad	1.0385033
2	0x3c6277d1	0.013822512
3	0x3d4ddfda	0.05026231
4	0x3ec666de	0.38750356
5	0x3e87d8a1	0.26532462
6	0x3e1f4115	0.1555217
7	0x3eb20b8e	0.3477444
8	0x3ed03569	0.4066575
9	0x3eb1c3fc	0.34719837
10	0x3f664bb0	0.8995924
11	0x3e5cdf08	0.21569455
12	0xbc173b05	-0.00923038
13	0x3ea38f92	0.31945473
14	0x3eee7909	0.46576717
15	0x3dd60431	0.10450018
16	0x3ef6ef94	0.4822966
17	0x3e832b1d	0.2561883
18	0xbd7b8afd	-0.061411846
19	0x3ee101ce	0.4394669
20	0xbc48d2eb	-0.012257318
21	0x3db7df88	0.08978182
22	0x3ed8e4e1	0.4236212
23	0x3e871230	0.26381063
24	0xbd477618	-0.048696607
25	0xbee8eef3	-0.45494804
26	0x3e84da2c	0.25947702
27	0x3e7d7f97	0.24755703
28	0x3dad467d	0.0846071
29	0x3eb12597	0.3459899
30	0x3ead7bd9	0.3388355
31	0x3eac7def	0.3368983
32	0xbea663ed	-0.32498112
33	0xbd06e976	-0.03293749
34	0x3a94984c	0.0011336892
35	0xbddea22f	-0.10870778
36	0x3e67179d	0.22567602
37	0xbea402b1	-0.32033303
38	0xbe512d3c	-0.20427412
39	0xbe6fd215	-0.23419984
40	0xbd966d6b	-0.073450886
41	0xbaf492b9	-0.0018659449
42	0xbec2ca6b	-0.38045058
43	0xbdf5f226	-0.12009077
44	0x3de6c926	0.11268835
45	0xbdf659e3	-0.12028863
46	0x3cc31a19	0.023816155
47	0xbe0dceaa	-0.13848367
48	0xbe3f9d59	-0.18712367
49	0xbe278401	-0.16358949
50	0xbea4a586	-0.32157534
51	0x3e56b7fa	0.20968619
52	0xbeb5cc1c	-0.35507286
53	0xbe1ffd74	-0.15624028
54	0xbd971b8d	-0.07378302
55	0xbd02d289	-0.031939063
56	0x3e74138c	0.23835582
57	0xbd2a51fd	-0.041582096
58	0x3e81f8ea	0.2538522
59	0xbdc44503	-0.095834754
60	0xbe91fd25	-0.28513446
61	0xbeb32d8f	-0.34995696
62	0xbefc1e0c	-0.49241674
63	0xbe2c48a6	-0.16824588
64	0x3bf15602	0.0073649893
65	0xbd57e60b	-0.05270962
66	0x3e3432ca	0.175975
67	0xbd4d970f	-0.05019289
68	0x3e0cd127	0.1375166
69	0x3e433ce9	0.19066204
70	0x3e485b2f	0.19566034
71	0x3db15974	0.0865964
72	0x3bc4538d	0.0059914053
73	0x3e037758	0.12838495
74	0x3dad9272	0.08475198
75	0xbb989626	-0.004656571
76	0x3eb952ae	0.36195892
77	0xbe5173ee	-0.2045438
78	0xbe84e1c7	-0.25953504
79	0x3f0add22	0.5424367
80	0xbd074130	-0.033021152
81	0xbbf4c790	-0.0074700788
82	0x3e62ff31	0.2216766
83	0x3d377de2	0.044797786
84	0x3ea3d21e	0.31996244
85	0x3e70d25b	0.23517744
86	0x3dc12b66	0.09432106
87	0xbd1e8d9e	-0.038709275
88	0x3dce104b	0.100617014
89	0x3ead7dbd	0.33884993
90	0x3dadad9a	0.084803775
91	0x3d305c48	0.043056756
92	0xbec41f5b	-0.38305172
93	0xbe4ff0d6	-0.20306715
94	0x3d011a0d	0.031518985
95	0x3da9d2a3	0.08292129
96	0x3f31e93e	0.69496524
97	0x3f40e8f2	0.75355446
98	0xbdc1188d	-0.09428511
99	0x3dd88da5	0.105738916
100	0x3e57c2ae	0.21070358
101	0x3e8aa728	0.27080655
102	0x3eac610c	0.3366779
103	0x3f069699	0.52573544
104	0x3f0b0675	0.5430673
105	0xbe7e2a9c	-0.24820942
106	0x3f6a47a7	0.9151558
107	0x3e818211	0.25294545
108	0x3d5672ad	0.052355457
109	0x3ef9025a	0.48634607
110	0x3e7323b1	0.23744084
111	0xbe0743a7	-0.13209401
112	0x3e8a9b3b	0.27071556
113	0x3eafbf34	0.34325564
114	0xbda9220f	-0.08258449
115	0x3f32d242	0.6985208
116	0xbdc36487	-0.095406584
117	0x3d8663b7	0.06561988
118	0x3f14335a	0.57890856
119	0x3dbe956d	0.093058445
120	0xbe12aba8	-0.14323294
121	0xbeb9c38d	-0.36282006
122	0x3eb9b58f	0.3627133
123	0x3cba4d12	0.022741828
124	0xbdd17bfe	-0.10228728
125	0x3f100bbe	0.5626792
126	0x3ed7ac88	0.42123818
127	0x3e72427f	0.23658179

weight_ih_l1 f4 [128, 32]
0	0xbf0da75f	-0.55333513
1	0x3c68fad6	0.01421996
2	0xbe36453c	-0.17799848
3	0x3dd7b54e	0.10532628
4	0x3e9c33eb	0.3050836
5	0xbbfbbaaf	-0.0076821665
6	0x3d398fa1	0.04530299
7	0x3e457316	0.19282183
8	0xbe3dbf6e	-0.18530056
9	0xbde22b44	-0.110434085
10	0x3eb3ecfe	0.35141748
11	0xbf400312	-0.75004685
12	0x3f76555f	0.96224016
13	0x3ec786b7	0.38969967
14	0xbef6709b	-0.48132786
15	0x3efdf58e	0.49601406
16	0x3f0387bf	0.5137901
17	0xbdb58071	-0.08862389
18	0xbd2a5586	-0.041585468
19	0xbee1b40b	-0.44082674
20	0x3ed7eea3	0.42174253
21	0x3e8e8c25	0.27841297
22	0xbec5fa40	-0.38667488
23	0x3ea979b4	0.33100665
24	0xbe96b022	-0.29431254
25	0x3db402f2	0.08789624
26	0xbca7d884	-0.020488985
27	0xbe4c4bf9	-0.19950856
28	0xbf36a2f7	-0.71342415
29	0xbe901822	-0.28143412
30	0xbb49d6d3	-0.0030798211
31	0x3ed1c760	0.40972424
32	0xbf6c776b	-0.9236972
33	0x3dadf074	0.084931284
34	0x3ecfbabd	0.40572158
35	0x3f92512a	1.1431019
36	0xbed028d7	-0.40656158
37	0x3f5c23fd	0.85992414
38	0x3e90ba5d	0.28267184
39	0x3f91b53d	1.1383435
40	0xbe69d6b8	-0.22835815
41	0xbe0dcf09	-0.13848509
42	0x3f019e10	0.5063181
43	0xbdbbce80	-0.09170246
44	0xbeb3368e	-0.3500256
45	0x3a876fef	0.0010333041
46	0xbf4a7336	-0.7908205
47	0x3da9ec32	0.08297004
48	0xbeee9eea	-0.46605617
49	0x3c820044	0.015869267
50	0x3f260b3d	0.648609
51	0x3f1ecd19	0.62031704
52	0x3edaa9bc	0.42707622
53	0x3f110b44	0.56657815
54	0xbe4eeca5	-0.2020746
55	0xbe9f9cb4	-0.31174242
56	0x3eb8b452	0.36075073
57	0x3ef13000	0.47106934
58	0xbe818de5	-0.2530357
59	0x3d8af969	0.067858525
60	0xbd261be4	-0.040553942
61	0xbf1521b4	-0.5825455
62	0x3f905510	1.1275959
63	0x3df465b6	0.11933462
64	0x3e274b59	0.16337337
65	0xbefe9469	-0.49722603
66	0xbe46f7c5	-0.19430454
67	0xbe0d181a	-0.13778725
68	0xbf12d54e	-0.5735673
69	0xbeffb1fd	-0.49940482
70	0xbea42c6d	-0.32065144
71	0x3e62da41	0.2215357
72	0xbd1d49ec	-0.038400576
73	0x3eb8aa6b	0.3606752
74	0xbd1492df	-0.03627288
75	0xbed6fdea	-0.41990596
76	0x3f2429b9	0.64126164
77	0xbdb60f97	-0.08889692
78	0xbcef9e79	-0.02925037
79	0x3e21398d	0.1574461
80	0x3ec8958c	0.39176595
81	0x3e5495ac	0.2076022
82	0xbe7432bd	-0.2384748
83	0xbd40f79f	-0.04711115
84	0x3ea65652	0.32487732
85	0xbe39d4c7	-0.18147574
86	0xbe2fb55a	-0.17159024
87	0x3c60436d	0.013687951
88	0x3cc274cf	0.02373734
89	0xbe45390c	-0.19260043
90	0xbd676c2a	-0.056499638
91	0xbed98ff9	-0.42492655
92	0xbeaac701	-0.33354953
93	0xbee213d5	-0.44155756
94	0x3d9279f6	0.071521685
95	0xbbc8e851	-0.00613121
96	0x3bb6daf6	0.0055803014
97	0xbf18e7af	-0.5972852
98	0x3f09e2b0	0.5386152
99	0x3c02e5aa	0.0079893265
100	0x3ea2eab8	0.318197
101	0x3e789d4b	0.24278753
102	0x3f93bf5e	1.1542776
103	0xbe4b042c	-0.1982581
104	0xbdb6f559	-0.08933515
105	0x3d89713f	0.06711053
106	0x3f0ff669	0.5623537
107	0xbef57057	-0.4793727
108	0x3efeba3e	0.49751467
109	0x3ec1a0fd	0.37818137
110	0xbf686920	-0.9078541
111	0x3f1da142	0.61574185
112	0xbf153774	-0.5828774
113	0xbef23991	-0.47309545
114	0x3e664a91	0.22489382
115	0xbeb28b24	-0.3487178
116	0x3f50cec1	0.8156548
117	0x3f3bdef1	0.73387057
118	0x3efa52a4	0.48891175
119	0xbf109464	-0.56476426
120	0x3de3f7d8	0.11131257
121	0x3dfd9918	0.12382716
122	0x3f09eca0	0.53876686
123	0x3e77dfff	0.24206541
124	0xbefb00eb	-0.49024138
125	0x3ea3154c	0.31852186
126	0x3f1ae5c0	0.6050682
127	0xbe9bb9d2	-0.30415207
128	0xbda81616	-0.082073376
129	0xbf004b01	-0.50114447
130	0x3e3ed001	0.18634035
131	0x3e8ac555	0.27103677
132	0x3ea871cb	0.32899317
133	0x3ea19925	0.31562153
134	0x3f0868e1	0.5328503
135	0x3dc57bc2	0.096427456
136	0x3ebdf7e5	0.3710319
137	0x3e02a51d	0.12758298
138	0x3e99e755	0.30059305
139	0x3f8a2ea1	1.079548
140	0x3e85656d	0.26053944
141	0xbf2eb81f	-0.68249696
142	0x3dd2cc01	0.10292817
143	0x3ea7efd0	0.3280015
144	0x3ed359dd	0.41279498
145	0x3e26eb75	0.16300757
146	0x3f1789c2	0.59194577
147	0x3ebba5cd	0.36649933
148	0x3eeff47e	0.4686622
149	0x3ea54659	0.32280234
150	0x3ebadd9e	0.36497205
151	0xbd04f8ba	-0.032463767
152	0x3e04a8d8	0.12955034
153	0x3ec7a9e3	0.389968
154	0x3dd6655a	0.1046855
155	0x3e523799	0.20529021
156	0xbf01f9d6	-0.50771844
157	0xbdeabe2f	-0.11462056
158	0xbf0b5b39	-0.5443607
159	0x3f02879e	0.50988185
160	0xbe7787c0	-0.24172878
161	0x3e1d62be	0.15369698
162	0x3ea95672	0.33073765
163	0x3dd0db13	0.10198035
164	0x3e3f408c	0.18676966
165	0x3d0b7d47	0.03405502
166	0x3da542a6	0.08069353
167	0xbd93e3b9	-0.07221169
168	0x3df3837c	0.11890313
169	0x3e429053	0.19000368
170	0x3f4c9ab8	0.7992358
171	0x3da0208c	0.07818708
172	0x3f0fa862	0.56116307
173	0xbdc45d78	-0.0958814
174	0xbebf077b	-0.37310395
175	0x3f15edea	0.58566153
176	0xbe1185d3	-0.14211206
177	0xbe613475	-0.21992667
178	0xbe887762	-0.26653582
179	0xbf0cf83f	-0.55066293
180	0x3ed7df04	0.42162335
181	0xbf2db679	-0.67856556
182	0xbefd6ccf	-0.49497077
183	0x3e82d9c5	0.2555677
184	0xbd4b9052	-0.04969818
185	0x3ea3742e	0.31924576
186	0x3ea9cae4	0.33162606
187	0xbeb0fcf9	-0.34568003
188	0xbf3b92e7	-0.7327103
189	0xbf292d6a	-0.6608492
190	0x3f405f85	0.7514575
191	0xbdb07c50	-0.08617461
192	0xbe80488e	-0.25055355
193	0x3d6f87c7	0.058479097
194	0x3e059b71	0.13047577
195	0xbe96f10d	-0.29480782
196	0x3eae5ed2	0.34056717
197	0x3e918ccf	0.2842774
198	0x3e3cb280	0.18427467
199	0xbf24e7d9	-0.6441627
200	0x3f29669d	0.661722
201	0xbe6f2fa7	-0.23358022
202	0x3ea439ae	0.32075256
203	0x3f2ba4d0	0.6704836
204	0x3e459c4c	0.19297904
205	0xbf0dadda	-0.553434
206	0x3ec75b36	0.38936776
207	0x3f06845d	0.5254572
208	0xbe51a197	-0.20471798
209	0xbf251032	-0.6447784
210	0x3ebf1612	0.37321526
211	0xbd470970	-0.048592985
212	0x3e9b19bc	0.3029307
213	0xbe360bd2	-0.17777947
214	0x3edcb4c2	0.43106657
215	0xbe13f2e0	-0.14448118
216	0x3e5fec2b	0.21867435
217	0x3ef293ed	0.47378483
218	0x3dd515d2	0.104045525
219	0x3e9343f0	0.2876277
220	0xbe61ed68	-0.2206322
221	0xbe9466d8	-0.28984714
222	0xbebdcf69	-0.37072304
223	0xbefa6d95	-0.4891173
224	0xbc80881b	-0.0156899
225	0xbdfe4cc6	-0.12416987
226	0x3d5a9aaf	0.053370174
227	0xbf2d2012	-0.6762706
228	0xbe1920f8	-0.14953983
229	0x3e01721a	0.12641183
230	0xbebd7cff	-0.37009427
231	0xbea64341	-0.32473186
232	0x3e1ae4da	0.15126362
233	0x3c0c63b1	0.00856869
234	0x3df98292	0.121831074
235	0x3c3f656c	0.011681896
236	0x3b62b7a7	0.0034594329
237	0x3c53600e	0.012901319
238	0x3e125e98	0.14293897
239	0x3ef49acb	0.47774348
240	0x3dd95c6d	0.10613332
241	0x3e0992ed	0.13434954
242	0xbdfb9efb	-0.122861825
243	0xbbeaea81	-0.0071690683
244	0x3e9cab9c	0.30599678
245	0x3d533478	0.05156371
246	0xbe6958e4	-0.22787815
247	0x3e7cfb8f	0.24705337
248	0x3e392616	0.18080935
249	0xbd67b3ae	-0.05656784
250	0xbe97ef3e	-0.29674715
251	0x3dfa213e	0.12213372
252	0xbf4942a2	-0.786173
253	0xbf2d1cdf	-0.6762218
254	0x3ee5f83c	0.4491595
255	0xbe837735	-0.25676885

weight_hh_l1 f4 [128, 32]
0	0xbe30ae87	-0.17254077
1	0xbea29c7d	-0.31760016
2	0xbeabd577	-0.33561298
3	0x3f243f65	0.6415923
4	0x3ed76be5	0.42074504
5	0x3f9aad25	1.208409
6	0x3eec591d	0.46161738
7	0xbe212441	-0.15736486
8	0xbe281c2b	-0.16416995
9	0x3f045d0c	0.5170448
10	0xbdd31e51	-0.10308517
11	0xbf2598bb	-0.64686173
12	0xbecefefc	-0.40428913
13	0xbec975df	-0.3934774
14	0xbea8851d	-0.32914057
15	0x3dac3f8f	0.0841056
16	0xbf1d621a	-0.61477816
17	0x3e0ee145	0.13953121
18	0xbe3ac0e4	-0.18237644
19	0xbe43ff00	-0.19140244
20	0xbf0bd20b	-0.54617375
21	0xbeb75560	-0.35807323
22	0xbebea532	-0.3723541
23	0xbeda3aba	-0.4262293
24	0x3e2569be	0.16153619
25	0xbf15073f	-0.5821418
26	0xbf0111ba	-0.50417674
27	0x3ead6bed	0.33871403
28	0xbeb8fef9	-0.3613203
29	0xbedc63a0	-0.43044758
30	0xbead0bfe	-0.33798212
31	0xbcaa5a10	-0.020794898
32	0xbea1e9cf	-0.31623694
33	0xbe7fe1da	-0.249885
34	0xbd43e4e8	-0.047825724
35	0x3f32f95e	0.69911754
36	0xbed5845b	-0.41702542
37	0xbe200d1e	-0.15630004
38	0x3de656ff	0.11247062
39	0x3d469da7	0.048490193
40	0x3e608bb7	0.21928297
41	0x3dc4feef	0.09618937
42	0xbea4a6e9	-0.32158592
43	0xbe221746	-0.1582919
44	0x3e9079b5	0.28217855
45	0x3e9833d4	0.29727042
46	0xbec86494	-0.39139235
47	0x3e716b1c	0.23576015
48	0xbca8a679	-0.020587193
49	0xbebd6a5d	-0.3699521
50	0x3f0801c4	0.53127694
51	0x3d8c8423	0.068611406
52	0x3ebf87cc	0.37408292
53	0xbea827c3	-0.32842836
54	0x3da6c609	0.08143241
55	0x3f00de75	0.5033944
56	0x3e210f51	0.15728499
57	0x3ef00922	0.46881968
58	0xbe1376c2	-0.14400771
59	0x3e55927c	0.2085666
60	0xbed220a9	-0.41040543
61	0xbe13e96c	-0.14444512
62	0x3f9753e6	1.1822479
63	0xbab65b68	-0.0013912739
64	0xbe5de201	-0.21668245
65	0x3f20445c	0.6260431
66	0xbea52555	-0.32255045
67	0xbf3c2e48	-0.7350812
68	0xbede19a8	-0.4337895
69	0xbd98571d	-0.074384905
70	0xbe60bdad	-0.21947356
71	0x3edd63a4	0.43240082
72	0x3e4b8813	0.19876127
73	0xba53fd30	-0.0008086739
74	0xbe7c3186	-0.24628267
75	0xbe9fd62e	-0.31218094
76	0x3e8e8b72	0.27840763
77	0x3ea00e25	0.3126079
78	0xbd819bc6	-0.063285396
79	0x3f1c356e	0.6101903
80	0xbf83b73d	-1.0290295
81	0x3e096c1f	0.13420151
82	0x3dbda565	0.09260062
83	0xbcb0ceb2	-0.021582935
84	0xbe2f634c	-0.17127723
85	0xbd978deb	-0.074001156
86	0x3e90727b	0.28212342
87	0x3e88c8dd	0.26715747
88	0xbe25cad9	-0.16190661
89	0xbeb4c511	-0.353066
90	0x3eb440fd	0.35205832
91	0xbec7d7e9	-0.39031914
92	0xbf3cacee	-0.7370137
93	0xbe7b6c74	-0.2455309
94	0xbf356223	-0.7085287
95	0xbcb696f5	-0.022288779
96	0xbeb2c617	-0.34916756
97	0xbf4ba5d8	-0.7954993
98	0xbec8876f	-0.39165828
99	0x3f0dcb2d	0.55388147
100	0xbebc71c2	-0.3680554
101	0xbe685fc5	-0.22692783
102	0x3c34b252	0.011028843
103	0x3db9cd40	0.090723515
104	0x3ef4c4b6	0.4780633
105	0xbd6787bc	-0.05652593
106	0x3d7fc376	0.062442265
107	0xbf2ce73d	-0.6754034
108	0x3f062ca7	0.52411884
109	0xbdc26f40	-0.094938755
110	0x3eb2623d	0.34840575
111	0xbec085ab	-0.3760198
112	0xbf18c6c9	-0.5967832
113	0x3c7b83fc	0.015351292
114	0x3f23e68e	0.64023674
115	0xbf6b245d	-0.9185236
116	0x3ed02509	0.40653256
117	0xbe0106e0	-0.12600279
118	0xbf450150	-0.7695513
119	0xbe349afe	-0.1763725
120	0x3e97f278	0.29677176
121	0x3e9c5a68	0.30537724
122	0x3f2bbf13	0.6708843
123	0x3f494745	0.78624374
124	0x3d97eeb0	0.07418573
125	0x3e768b8c	0.2407667
126	0xbf36c3fe	-0.7139281
127	0xbed40ab6	-0.41414422
128	0x3e6fdffc	0.23425287
129	0xbe0c7058	-0.1371473
130	0x3be7b1fb	0.0070707775
131	0xbdd2d544	-0.102945834
132	0xbeb1ac78	-0.34701896
133	0x3e465c78	0.19371212
134	0xbe60bdd7	-0.21947418
135	0xbedeeb3c	-0.43538845
136	0x3eac2293	0.33620128
137	0x3e268a80	0.16263771
138	0x3eeb9479	0.46011713
139	0xbe13a3ad	-0.14417906
140	0x3e663b12	0.22483471
141	0x3ef650bd	0.48108473
142	0x3e7181c9	0.23584665
143	0x3c015f8b	0.007896314
144	0x3e5c5535	0.21516879
145	0xbe6ae3a0	-0.22938395
146	0xbdb99dae	-0.09063278
147	0x3ef52305	0.4787828
148	0xbd5142c5	-0.051089067
149	0x3e4d3445	0.2003947
150	0xbea3384d	-0.31878892
151	0x3e3524ac	0.1768977
152	0xbe5b06fc	-0.21389383
153	0xbe721b98	-0.23643339
154	0x3e8e31ab	0.2777227
155	0x3e2589cb	0.16165845
156	0xbe302758	-0.17202508
157	0xbd864526	-0.06556158
158	0xbd600297	-0.05468997
159	0x3bbfd810	0.005854614
160	0xbefa755a	-0.48917657
161	0xbcb9cc91	-0.022680553
162	0x3e262545	0.16225155
163	0xbe84cd26	-0.25937766
164	0xbe3cb546	-0.18428525
165	0x3e6a2d97	0.22868954
166	0xbf16bab7	-0.58878654
167	0x3e6911bb	0.2276067
168	0x3dc7d1ff	0.097568505
169	0x3eccaeee	0.3997721
170	0x3f2f35ed	0.6844166
171	0xbdbd977a	-0.092574075
172	0x3f086d71	0.53291994
173	0xbe6c01f5	-0.23047622
174	0x3ed95462	0.4244719
175	0xbe2b3692	-0.16720036
176	0xbe5fbda6	-0.21849689
177	0x3e5a23b7	0.21302687
178	0x3e9907fc	0.29888904
179	0x3f4e7d7a	0.8066021
180	0xbebbdf76	-0.36693925
181	0x3d9ef51a	0.07761593
182	0x3f16ccb7	0.5890612
183	0x3ec52e48	0.38511872
184	0x3e8a0692	0.26958138
185	0x3fa8ad85	1.3177954
186	0x3eba10b9	0.36340883
187	0x3ee330b3	0.44373092
188	0xbde1176d	-0.10990796
189	0xbf1f9cce	-0.6234864
190	0x3f1ee93a	0.62074625
191	0x3eceb00a	0.40368682
192	0xbe257805	-0.16159065
193	0xbed2e489	-0.41189983
194	0xbf08e8ac	-0.5348003
195	0xbea3dbdb	-0.32003674
196	0xbecfa6ce	-0.4055695
197	0x3ced910d	0.02899983
198	0xbee46fb4	-0.44616473
199	0xbec1027e	-0.37697214
200	0x3eb95fb7	0.36205837
201	0x3d828ee3	0.0637491
202	0xbe51455a	-0.20436612
203	0xbdd97814	-0.10618606
204	0xbef58ccb	-0.4795898
205	0x3e2e733a	0.17036143
206	0x3e4c4705	0.19948967
207	0x3e8b02c2	0.27150542
208	0x3d95b538	0.07309955
209	0x3c52c59a	0.012864495
210	0xbf265128	-0.64967585
211	0xbe232e19	-0.15935554
212	0x3e89f8e8	0.26947713
213	0xbecd455b	-0.40091977
214	0xbf49f551	-0.7888995
215	0x3f47eda3	0.7809698
216	0xbd821890	-0.06352341
217	0xbe6ab5a2	-0.2292085
218	0xbf173a78	-0.5907359
219	0xbe0494ea	-0.12947431
220	0x3e9fa86f	0.31183192
221	0x3e0bef50	0.13665509
222	0x3f2df4ad	0.6795147
223	0xbede4cb4	-0.43417895
224	0xbeb1d81a	-0.34735185
225	0xbd0623a3	-0.03274883
226	0x3dbf86e0	0.09351897
227	0x3d87dbe3	0.06633737
228	0x3e8d7d51	0.2763467
229	0x3edbc4da	0.42923623
230	0x3ea6456b	0.32474837
231	0x3cea714a	0.028618474
232	0xbe3facb8	-0.1871823
233	0xbdc8cad8	-0.098043144
234	0xbcaad4b4	-0.020853378
235	0xbec233d4	-0.37930167
236	0x3eb49c17	0.35275337
237	0xbe2f0ac9	-0.17093958
238	0x3f280e2c	0.65646625
239	0x394218f4	0.00018510578
240	0xbbc97623	-0.006148116
241	0x3cab28d5	0.020893494
242	0xbd07d390	-0.033160746
243	0x3e85595e	0.26044744
244	0x3dafddc8	0.08587223
245	0xbdeda3bb	-0.11603495
246	0x3eaa1e67	0.3322632
247	0x3e3cdb1f	0.18442963
248	0x3e41a2b8	0.18909729
249	0x3f2601f0	0.64846706
250	0x3e344452	0.17604187
251	0x3e2af162	0.16693643
252	0xbec38e0c	-0.3819431
253	0x3df86a14	0.12129608
254	0xbb3aa161	-0.0028477537
255	0xbe0dd8b5	-0.13852198

bias_ih_l1 f4 [128]
0	0x3d41c650	0.047308266
1	0xbd0ee40f	-0.034885462
2	0x3d898a8d	0.067158796
3	0x3a394a79	0.0007068287
4	0xbdfc6907	-0.1232472
5	0xbcf87cc0	-0.030332923
6	0xbe503d46	-0.20335874
7	0x3d85d8f0	0.06535518
8	0xbdd0cbe3	-0.10195138
9	0xbdfac942	-0.12245418
10	0x3ca6ff83	0.02038551
11	0x3e790dd0	0.24321675
12	0xbde632ae	-0.11240135
13	0xbe45de67	-0.19323121
14	0xbecd555c	-0.40104187
15	0xbda36d62	-0.079798475
16	0xbe13dec4	-0.14440447
17	0xbd8266be	-0.06367253
18	0xbbeee852	-0.0072908783
19	0x3de873f0	0.11350238
20	0xbcd721af	-0.026261179
21	0x3e02a69c	0.12758869
22	0x3ed6ebd6	0.41976804
23	0x3dfa078c	0.12208471
24	0x3d11f2c8	0.035631925
25	0xbde71bfc	-0.112846345
26	0xbd875d2e	-0.066095695
27	0x3e261a48	0.16220963
28	0xbec2dff4	-0.38061488
29	0x3d1678c5	0.03673627
30	0x3ead249b	0.3381699
31	0x3dd6d0b7	0.10489028
32	0xbe487c9a	-0.19578782
33	0xbebaef19	-0.36510542
34	0xbe4653ca	-0.193679
35	0xbdcb8e1c	-0.099392146
36	0xbdf89727	-0.12138205
37	0xbd8a423f	-0.06750917
38	0xbe225bd8	-0.15855348
39	0xbd9f33e2	-0.07773568
40	0xbe18653f	-0.14882372
41	0xbddfd250	-0.10928786
42	0x3afcfe18	0.00193018
43	0xbdf784f8	-0.12085909
44	0xbc552227	-0.013008631
45	0xbcd2ea41	-0.025746467
46	0x3d191c0e	0.03738027
47	0xbe537756	-0.20650992
48	0xbe6caa2e	-0.23111793
49	0xbee01695	-0.4376723
50	0x3d1e135d	0.038592685
51	0xbd94d956	-0.07268016
52	0xbd7a9dc2	-0.061185606
53	0x3cec6a0d	0.028859163
54	0xbeae3cb2	-0.34030682
55	0xbd669460	-0.056293845
56	0xbdad8993	-0.08473506
57	0x3e078b52	0.1323674
58	0xb9a2264d	-0.00030927584
59	0xbe01953b	-0.12654583
60	0x3eaa5757	0.3326976
61	0xbe3537bc	-0.17697042
62	0xbe8f3a97	-0.27974388
63	0xbe6ace72	-0.22930315
64	0xbdc93086	-0.09823708
65	0x3d1873a3	0.037219655
66	0xbcdc44a7	-0.026888205
67	0x3daa3072	0.083100215
68	0x3e68d6b1	0.22738148
69	0xbdee5c38	-0.11638683
70	0x3d827ad6	0.06371085
71	0x3d8fddff	0.07024764
72	0xbe03c968	-0.12869799
73	0x3b8dba6f	0.004325203
74	0xbdc0adaa	-0.09408124
75	0xba7de454	-0.00096852076
76	0x3d1330fd	0.03593539
77	0xbcf267de	-0.029590543
78	0xbcdf636d	-0.02726909
79	0x3d216110	0.039399207
80	0xbe031acb	-0.1280319
81	0x3e77d173	0.24200992
82	0xbd9dbb11	-0.07701696
83	0xbe2394b7	-0.15974699
84	0xbd378185	-0.044801254
85	0x3d2b7888	0.041862994
86	0x3de80a9a	0.11330147
87	0x3d4d4873	0.05011792
88	0xbc4c0810	-0.012453094
89	0xbcb191f9	-0.02167605
90	0xbd0a4e6d	-0.0337662
91	0xbb27e622	-0.0025619348
92	0x3ce27793	0.027644908
93	0x3d31a2c7	0.043368127
94	0x3c9c7884	0.019100435
95	0x3c9db2d8	0.019250318
96	0x3eb9ea9f	0.36311814
97	0xbdf317ef	-0.11869799
98	0x3e5671f7	0.20941912
99	0x3dc885fd	0.09791181
100	0xbd314671	-0.04328007
101	0x3dfc2a30	0.12312734
102	0xbe12182d	-0.14267035
103	0x3eb043a6	0.34426612
104	0xbd9f54fb	-0.077798806
105	0x3dae5450	0.08512175
106	0xbd64e7b8	-0.055885047
107	0x3e058310	0.13038278
108	0xbd50f266	-0.05101242
109	0x3d95129c	0.0727894
110	0xbe8a8f79	-0.27062586
111	0x3e20c9cc	0.1570198
112	0x3e1dd38a	0.15412727
113	0xbd559536	-0.05214425
114	0x3e025ca7	0.12730657
115	0x3cf9c812	0.030490909
116	0xbde16648	-0.11005837
117	0x3e4566d0	0.19277501
118	0x3f076cac	0.52900195
119	0x3f2a7d92	0.66597855
120	0x3e57d9f3	0.21079235
121	0xbe4affe1	-0.19824173
122	0xbe6bd601	-0.23030855
123	0x3ec5b890	0.38617373
124	0xbcaaa45d	-0.020830328
125	0x3e8034c5	0.2504026
126	0x3e79fd2b	0.24412982
127	0x3ede6cf2	0.43442494

bias_hh_l1 f4 [128]
0	0x3d50974a	0.05092553
1	0xbe67bd4d	-0.22630806
2	0x3d8554f0	0.06510341
3	0x3d8c9104	0.06863597
4	0xbd9bbcee	-0.07604395
5	0x3e7fa114	0.2496379
6	0x3d9429ab	0.0723451
7	0xbd9960f3	-0.07489195
8	0xbdee6ad0	-0.116414666
9	0xbbe82d5f	-0.007085487
10	0xbe597e22	-0.21239522
11	0x3e821899	0.25409392
12	0xbe04256c	-0.129049
13	0x3d791416	0.06081017
14	0xbde8c8b8	-0.11366409
15	0x3d26894a	0.040658273
16	0x3e01c95b	0.12674467
17	0xbe219491	-0.1577933
18	0xbe94d6c1	-0.29070094
19	0x3cb28eb0	0.021796554
20	0x3dd868c4	0.105668575
21	0x3dc7a863	0.09748914
22	0x3f04eede	0.5192698
23	0x3e4c2d2a	0.19939104
24	0x3c823b10	0.015897304
25	0xbe3035fa	-0.1720809
26	0xbe1887e7	-0.14895593
27	0x3e310305	0.17286308
28	0xbe84bbe6	-0.25924605
29	0x3dfc8b22	0.12331225
30	0x3e907f80	0.28222275
31	0xbdc02feb	-0.093841396
32	0xbd3afd29	-0.04565159
33	0xbe9258ab	-0.28583273
34	0xbddbd3b7	-0.10733741
35	0xbe97cc19	-0.29647902
36	0xbe46e382	-0.19422725
37	0xbd8648d2	-0.06556858
38	0xbe34eee2	-0.17669252
39	0x3d3f341d	0.04668056
40	0xbe79c569	-0.24391712
41	0xbdc18cd5	-0.0945069
42	0x3a36c78c	0.0006972484
43	0xbe25a10b	-0.16174714
44	0x3dd7e938	0.1054253
45	0xbe47b505	-0.19502647
46	0x3d5021c8	0.050813466
47	0xbe5d9cef	-0.21641897
48	0x3d2e8d12	0.042615004
49	0xbeaf80c2	-0.34277922
50	0xbdd5c874	-0.10438624
51	0xbe182ebc	-0.14861578
52	0x3e1d4b65	0.15360792
53	0xbdb37c2d	-0.08763919
54	0xbeb780fc	-0.35840595
55	0xbe746a12	-0.23868588
56	0xbde8ab31	-0.11360777
57	0x3db0d33a	0.08634038
58	0x3da37cda	0.07982798
59	0xbdc378b1	-0.095445044
60	0x3dd889f7	0.1057319
61	0xbe930440	-0.2871418
62	0xbecfc6e1	-0.4058142
63	0x3d3170ef	0.043320592
64	0x3e4ede59	0.20202006
65	0xbe01ecac	-0.1268794
66	0xbbbd9a96	-0.0057862503
67	0xbdbe245c	-0.09284279
68	0x3eaf5e5b	0.34251675
69	0x3e0c47e4	0.13699299
70	0xbb995a46	-0.004679951
71	0x3d37e763	0.044898402
72	0xbd60c1e4	-0.05487241
73	0xbdcf59a4	-0.101245195
74	0x3dc8c0bd	0.09802387
75	0x3ca13fa2	0.019683663
76	0x3d7ba175	0.061433274
77	0xbcfe88a1	-0.03107101
78	0x3c21de87	0.009879715
79	0xbd8ce26b	-0.06879123
80	0x3e007755	0.12545522
81	0x3e51b354	0.20478565
82	0xbd961064	-0.07327345
83	0x3dc57c8d	0.09642897
84	0x3e261d81	0.16222192
85	0xbd968949	-0.07350404
86	0xbde87eb9	-0.113522954
87	0x3cc26d66	0.023733806
88	0x3cf3ea2b	0.029774746
89	0x3d8c4d67	0.06850701
90	0xbe164039	-0.14672936
91	0xbcc6e5c6	-0.024279486
92	0x3df532f3	0.119726084
93	0x3d16a9d9	0.036783073
94	0xbe2bcc0f	-0.16777061
95	0xbe072fd9	-0.13201846
96	0x3e819e0f	0.25315902
97	0xbea1fd63	-0.3163863
98	0x3e02d0ff	0.12775038
99	0xbd00cd7e	-0.031445973
100	0xbda69b17	-0.0813505
101	0x3dc1d0d3	0.09463658
102	0xbd1d25fe	-0.03836631
103	0x3ea49fc8	0.32153153
104	0x3c74b3cc	0.014935445
105	0x3e42fd9d	0.19042058
106	0xbdb97fd0	-0.090575814
107	0x3d1f6bc0	0.038921118
108	0x3c325dbe	0.010886608
109	0x3d9dabd8	0.07698792
110	0xbe0a6fd5	-0.13519223
111	0x3d0d3170	0.034470975
112	0x3e1f6f4c	0.155698
113	0xbea1a878	-0.31573844
114	0x3d22f8d4	0.039788082
115	0x3e3d6130	0.18494105
116	0xbdfda542	-0.12385036
117	0x3de22421	0.11042047
118	0x3ed8e4cf	0.42362067
119	0x3f00f69c	0.50376296
120	0x3e3f7259	0.18695964
121	0xbdef627f	-0.116887085
122	0xbce40af2	-0.02783725
123	0x3ea7f2a0	0.32802296
124	0xbe19fbda	-0.1503748
125	0x3f00894a	0.50209486
126	0x3eb13bf8	0.34616065
127	0x3eebceec	0.46056306

weight_ih_l2 f4 [128, 32]
0	0xbed596b3	-0.41716537
1	0xbe1fd71a	-0.15609398
2	0xbebb3bc8	-0.36569047
3	0xbe0cf383	-0.13764767
4	0x3dbd6aba	0.09248872
5	0x3d5dd13f	0.05415463
6	0xbeae5d4c	-0.34055555
7	0x3e84270d	0.25811043
8	0xbe3790cb	-0.17926328
9	0x3ed2ac34	0.41147006
10	0xbef72b82	-0.4827538
11	0xbe5c5aaa	-0.2151896
12	0x3f1264b9	0.5718494
13	0x3ca14df8	0.019690499
14	0x3db729c1	0.08943511
15	0x3f0108f9	0.50404316
16	0xb9487c76	-0.00019119852
17	0xbe4207a1	-0.18948223
18	0xbe1469d6	-0.14493498
19	0xbaf992c2	-0.001904093
20	0xbe1cd496	-0.1531547
21	0xbe7a2630	-0.2442863
22	0xbe2aa658	-0.16665018
23	0x3c5fd053	0.013660508
24	0x3d45319f	0.048143025
25	0xbe472f23	-0.19451575
26	0x3e192d98	0.14958799
27	0x3e7139f9	0.23557271
28	0xbeaafd92	-0.33396584
29	0x3e17615b	0.14783232
30	0xbe97c34e	-0.29641193
31	0x3f0b9660	0.5452633
32	0xbf23fe68	-0.6406007
33	0x3f0dfa72	0.55460274
34	0xbe3c3ff9	-0.18383779
35	0x3ec9fbf2	0.39450032
36	0x3deef1d8	0.11667222
37	0x3dad0d79	0.08449835
38	0x3e3ebb79	0.18626203
39	0xbe4d1211	-0.20026423
40	0xbe39c8b8	-0.18142974
41	0x3efc3d8e	0.49265712
42	0xbe77088d	-0.24124356
43	0x3ea9d901	0.33173373
44	0x3cb78abf	0.022405026
45	0xbedbab50	-0.4290414
46	0x3d4ba063	0.049713504
47	0x3e6de899	0.2323326
48	0xbf032447	-0.5122723
49	0xbc97b062	-0.018516723
50	0xbf1ff5e8	-0.624846
51	0x3e7c671b	0.24648707
52	0xbe8e1157	-0.27747604
53	0x3e0f26a1	0.1397958
54	0x3f19ad0a	0.6002966
55	0xbe57ee5c	-0.2108702
56	0x3f07c60f	0.5303659
57	0xbf25a001	-0.6469727
58	0x3f3b1f11	0.7309428
59	0xbcae3981	-0.021267654
60	0xbeb59b62	-0.3547011
61	0x3e0c4d35	0.13701327
62	0xbda52397	-0.08063429
63	0xbea0b7c4	-0.31390202
64	0x3ec90f0b	0.3926929
65	0x3f10f298	0.5662017
66	0xbd499ccb	-0.049221795
67	0x3e10c3ce	0.14137194
68	0xbd7c549d	-0.06160413
69	0x3c9c945d	0.019113714
70	0x3e701f8e	0.23449537
71	0x3e994097	0.2993209
72	0x3b9f5ed0	0.0048635975
73	0x3f02cc18	0.5109267
74	0x3ac089ae	0.0014689469
75	0xbcfdbfab	-0.030975183
76	0xbe562171	-0.20911194
77	0xbeade5db	-0.33964428
78	0x3cc11b12	0.023572478
79	0xbc9791bc	-0.018502109
80	0xbd8e68d4	-0.06953588
81	0xbe80f49e	-0.25186628
82	0x3e91968c	0.2843517
83	0x3cb894ee	0.022531953
84	0x3d5221ee	0.05130189
85	0xbe211122	-0.15729192
86	0x3d816a07	0.06319051
87	0xbe24fb99	-0.16111602
88	0x3dbd3fa7	0.09240656
89	0xbeb9968b	-0.36247668
90	0x3ca1890c	0.01971867
91	0x3e2116a5	0.15731294
92	0xbf44fc77	-0.7694773
93	0xbe4197e5	-0.189056
94	0xbe73d5c3	-0.23812012
95	0xbeb16423	-0.3464671
96	0xbe284f45	-0.16436489
97	0x3f202e50	0.6257067
98	0xbe0fb511	-0.14033915
99	0xbf18ed31	-0.59736925
100	0x3d8c6e88	0.0685702
101	0x3da189f5	0.07887641
102	0x3e06965e	0.13143298
103	0x3e87c9f2	0.2652126
104	0x3ea16efb	0.31529984
105	0x3ebdf01e	0.37097257
106	0xbecaa375	-0.39577833
107	0x3e8f798d	0.28022423
108	0xbd2a3c2b	-0.041561287
109	0xbe6a626c	-0.22889107
110	0xbe4a20fa	-0.19739142
111	0xbe891448	-0.26773286
112	0x3eac732a	0.33681613
113	0xbe018da2	-0.12651685
114	0xbf0e9e6e	-0.55710495
115	0x3d8f43c5	0.06995348
116	0x3e0b5c80	0.13609505
117	0xbea5c4ef	-0.3237681
118	0xbf3c4a33	-0.7355072
119	0xbe829db4	-0.25510943
120	0x3e16f88f	0.14743255
121	0xbe62db0e	-0.22153875
122	0xbd3dd366	-0.046344183
123	0x3ea9cafd	0.3316268
124	0xbfc335ef	-1.5250834
125	0x3e9265ad	0.28593197
126	0xbebab44e	-0.36465687
127	0xbd3286bd	-0.043585528
128	0x3c2d64ce	0.010583116
129	0x3dedf606	0.11619191
130	0x3e932793	0.2874113
131	0xbec648f0	-0.38727522
132	0xbe8387a4	-0.25689423
133	0xbed0b503	-0.407631
134	0x3e0a9d18	0.13536489
135	0x3dd377fa	0.10325618
136	0xbef0ccd9	-0.47031286
137	0x3f05427c	0.5205457
138	0x3ef96453	0.48709354
139	0x3e9bd762	0.30437762
140	0x3d537609	0.05162624
141	0xbf0923d2	-0.5357028
142	0xbe547248	-0.2074672
143	0xbed3843d	-0.41311827
144	0x3d33dd21	0.043912057
145	0xbe1dd2a0	-0.15412378
146	0x3e65867e	0.22414586
147	0xbf577838	-0.84167814
148	0xbe92ca70	-0.28670073
149	0x3e03a593	0.1285613
150	0xbf60eb2e	-0.87858856
151	0x3ea611fa	0.3243559
152	0x3d2cd9bb	0.04219983
153	0xbd90d017	-0.0707094
154	0x3cba88bb	0.022770276
155	0xbebe0104	-0.3711015
156	0xbca7de6a	-0.020491797
157	0x3f01418e	0.50490654
158	0xbf3e9b05	-0.7445529
159	0x3ed9ffe3	0.4257804
160	0x3e47d6b7	0.19515501
161	0x3e81efb6	0.25378197
162	0xbc908607	-0.017642034
163	0xbe1986ce	-0.1499283
164	0xbcfd4c12	-0.030920062
165	0xbe17a017	-0.14807163
166	0xbde8f4c1	-0.11374808
167	0xbe9379fb	-0.28804
168	0x3f4232c0	0.7585869
169	0xbe22f6de	-0.15914485
170	0xbe6f0a65	-0.23343809
171	0x3e21455f	0.15749119
172	0xbe5dba99	-0.21653213
173	0x3cc634c0	0.024195075
174	0x3dfe1ec3	0.12408211
175	0x3e8291b2	0.25501782
176	0xbe96e689	-0.2947276
177	0xbe24cd42	-0.16093925
178	0x3def42a0	0.116826296
179	0x3e1b79f8	0.15183246
180	0xba87db74	-0.0010365085
181	0x3d1830df	0.037155982
182	0x3e89ed4a	0.2693885
183	0xbdf98d5e	-0.12185167
184	0x3e32ba6d	0.17453928
185	0x3d712e37	0.058881965
186	0x3ddf3d63	0.109003805
187	0xbd9e0b29	-0.077169724
188	0xbedd37dc	-0.4320668
189	0xbc226cc9	-0.009913632
190	0xbe526442	-0.20546058
191	0x3ca24103	0.01980639
192	0xbe529938	-0.20566261
193	0x3e187f18	0.14892232
194	0xbeba953f	-0.3644199
195	0xbe5a405d	-0.21313615
196	0x3dc3366a	0.09531863
197	0x3e1db074	0.15399343
198	0x3d904314	0.07044044
199	0xbe3dc31c	-0.1853146
200	0x3ed6c89a	0.41949922
201	0x3ecbe59e	0.39823622
202	0xbe85ee64	-0.2615844
203	0x3e130f99	0.14361419
204	0x3e773977	0.24143015
205	0xbe034bfe	-0.12821957
206	0x3f325b25	0.69670326
207	0xbce6021d	-0.02807718
208	0xbed4dae2	-0.41573244
209	0x3d865162	0.06558491
210	0xbed4c483	-0.41556177
211	0xbece817c	-0.40333164
212	0xbd701209	-0.05861095
213	0xbe695bac	-0.22788876
214	0x3ce195ec	0.027537309
215	0x3dc2aebb	0.095059834
216	0x3e893108	0.2679522
217	0xbf124ee7	-0.57151645
218	0xbdb1f521	-0.08689333
219	0xbe036576	-0.12831673
220	0xbe4202b9	-0.18946351
221	0x3e809fb0	0.25121832
222	0xbe31b952	-0.1735585
223	0x3eac4cea	0.3365243
224	0xbd3f0e7d	-0.046644676
225	0x3e314018	0.17309606
226	0x3e6655ff	0.22493742
227	0xbe38f05b	-0.18060438
228	0x3d8f4346	0.06995253
229	0xbe5187a7	-0.20461904
230	0x3f59e3ff	0.8511352
231	0xbdd8874e	-0.10572682
232	0x3dddcc77	0.10830014
233	0x3efdf4ec	0.49600923
234	0xbd7154a5	-0.058918614
235	0x3e781b37	0.24229132
236	0xbe24088c	-0.16018885
237	0x3dc40cf0	0.0957278
238	0xbd7583ea	-0.059940256
239	0x3f6c03f0	0.9219351
240	0xbf1b5e29	-0.6069055
241	0xbe94c54b	-0.29056773
242	0x3f2a484f	0.66516584
243	0x3e349569	0.1763512
244	0xbd6fbd04	-0.05852987
245	0x3de08c0c	0.10964212
246	0x3ea5ce73	0.3238407
247	0x3e1461ff	0.14490508
248	0x3c8578e4	0.016292997
249	0x3e43ce49	0.1912166
250	0x3e1d2076	0.15344414
251	0x3c7bdaa3	0.015371951
252	0xbf4c980a	-0.79919493
253	0x3e64a6ac	0.22329205
254	0xbe1e478b	-0.15456979
255	0x3d91116b	0.070834
