histories_pre/Transformer_ATCNet_BcicIv2a_pt/65.09%_slf=020_bs=064_lr=0.0019_ld=0.999928_nl=3_nh=03_fd=128_do=0.65/best_valid_acc.pt (torch, 156502 bytes, 41 tensors)

positional_encoding f4 [1, 257, 24]
000000 33 2d 4f 3f 46 b4 ae be e2 2e 55 3f cf 29 31 3d
       0.80928344 -0.34121913 0.8327466 0.043252762
000010 21 da 61 bf d4 78 9c bf 8f 41 2f 3f 3a a5 fd 3c
       -0.88223463 -1.2224374 0.6845941 0.030962575
000020 ec 96 5b 3f cb 13 76 bf ef f9 29 be 16 9a 83 3f
       0.85777164 -0.9612395 -0.16599248 1.0281398
000030 63 90 55 be e0 c8 a2 be 4c 54 61 3e 1d 12 92 bf
       -0.2085586 -0.3179388 0.22004813 -1.1411778
000040 a1 c5 6d 3c 5e e5 8b 3f f4 66 f7 be 6a c2 8a 3f
       0.01451245 1.0929372 -0.48320735 1.084058
000050 69 b7 03 c0 22 0b 39 3f 2d bf 5c bf 1f 9f a9 3e
       -2.0580695 0.7228261 -0.8622921 0.33129212
000060 9c a0 3d 3e ab ea ae 3f 9c 39 d1 3f 6b a6 39 3f
       0.18518299 1.3665365 1.6345706 0.7251956
000070 5c 5a 92 be a7 9d 4f 3e 79 75 1f 3f cf cc 4d 3f
       -0.28584564 0.20274983 0.62288624 0.8039064
000080 04 d5 9d bf 47 42 d1 3e 74 ec 0f bf f8 8d 4a 3e
       -1.2330632 0.40870878 -0.56220174 0.1978072
000090 bb 9e a0 be a1 71 ca bf 0e ca ee 3d 04 7b 60 3d
       -0.31371102 -1.5815927 0.116596326 0.054804817
0000a0 04 f1 9a 3e e1 05 cb be 1c 70 ce 3f bc 99 29 3f
       0.30262005 -0.39652923 1.6127963 0.66250205
0000b0 37 01 d4 3d 54 db 28 bf c9 2b d0 3e 13 5e df 3e
       0.10351794 -0.6595967 0.40658405 0.4362646
0000c0 68 49 7c be 6c 26 0f 3c 1c a4 99 3f 94 16 1a be
       -0.24637377 0.008737188 1.2003207 -0.15047675
0000d0 58 a9 92 bf 3f 51 b3 be e2 52 97 bf 85 d3 9f 3d
       -1.145793 -0.35022923 -1.1822169 0.07804016
0000e0 e0 39 e5 be bc 4c 04 3f 29 66 e2 3c 4d 23 8c bf
       -0.44770718 0.5167959 0.027636604 -1.0948273
0000f0 c5 16 2e 3d 77 41 26 3e 96 f6 54 bf a2 9a 9f 3e
       0.042502183 0.1623591 -0.8318876 0.31172663
000100 e7 c8 78 3e d6 93 46 bf d2 db 4a 3f 8e c6 17 bf
       0.24295388 -0.7756933 0.7924167 -0.59287345
000110 4d 3b e5 3e 0f 48 92 be c7 54 a0 3f e3 ab 43 bf
       0.44771805 -0.285706 1.2525872 -0.76434153
000120 7b f3 52 bf 70 6c 18 be 41 31 c3 3e 84 56 f8 3e
       -0.8240277 -0.14885116 0.38123515 0.48503506
000130 65 3e 39 bf 4a eb b9 bf 1b 63 00 bf e6 d1 26 bf
       -0.7236083 -1.452493 -0.5015122 -0.6516403
000140 9f f7 fd 3f 68 3a 05 be 42 15 8e bd b7 67 8c be
       1.9841193 -0.13010561 -0.06937648 -0.27422878
000150 94 5f 60 3f d4 15 1d 3f 94 e4 56 3e 12 0e e9 be
       0.8764584 0.6136143 0.20985633 -0.45518547
000160 05 f6 16 3f 6b 31 cd be bf 24 72 bf 1e 6a bd 3e
       0.58969146 -0.40076765 -0.9458732 0.36995023
000170 88 be d5 bc a3 29 ce bf 53 f3 5d bf b4 1c a4 bf
       -0.026091829 -1.6106457 -0.8669941 -1.282126
000180 92 59 e8 3d fb c1 62 3f 4a 6c 49 bf f7 48 2d bf
       0.11345209 0.8857724 -0.7868086 -0.6768946
000190 2a f9 82 3f 29 4b 4e be cb 0f 02 3e cf d7 bb bd
       1.0232289 -0.20145859 0.12701337 -0.091720216
0001a0 0d 51 21 bf ab b7 04 3f fb de ea 3d 1f 15 39 be
       -0.630143 0.51842755 0.114683114 -0.18074463
0001b0 d3 79 99 bf 37 ff 2e 3f c1 92 8a bf cc ef 59 bf
       -1.1990303 0.68358177 -1.0826036 -0.85131526
0001c0 7a d7 d5 be 52 c6 82 bf d1 ce 0b bf 7c c5 15 bf
       -0.41765958 -1.0216773 -0.5461245 -0.5850446
0001d0 e9 0d 5a bc 2e 1b 74 bd 9b a3 fd 3d 40 75 e1 be
       -0.0133089805 -0.059596233 0.12384721 -0.44034767
0001e0 c4 83 bb be 00 2b 15 c0 d2 bd 5c bd c6 eb 8b 3f
       -0.36623967 -2.3307495 -0.053891964 1.0931327
0001f0 f4 d0 a8 bf 9e 50 e6 be 98 e1 0f 3f a5 61 e4 bd
       -1.3188767 -0.4498338 0.56203604 -0.11151437
000200 d3 e1 92 bf 9c 17 57 bf c9 e8 9b bf 30 63 82 bf
       -1.1475166 -0.840204 -1.2180415 -1.018652
000210 7e d2 cb 3f 9f 5d 0c bf c9 b0 8a be 2f 3e 82 be
       1.5923612 -0.54830354 -0.27088 -0.25438067
000220 39 89 36 bf a8 6c f3 be f0 64 6f 3f 8d e4 dd be
       -0.71303135 -0.47543836 0.93513393 -0.43338433
000230 a2 96 25 3f 49 1c 25 bf 7e 63 56 bd 99 e7 c0 be
       0.6468297 -0.64496285 -0.052340977 -0.37676695
000240 41 13 09 3e 49 74 80 3e 5b 14 cb 3e c5 a3 d5 be
       0.13386251 0.2508872 0.39663967 -0.4172651
000250 cf 37 ab bf c5 0e 81 3f ab 93 d1 bf 18 18 23 bf
       -1.3376406 1.0082632 -1.637319 -0.6370864
000260 91 d8 ea 3d ff 82 7c 3f a9 c2 80 3f 1d 15 ae bf
       0.11467088 0.98637384 1.0059406 -1.3600193
000270 c7 dc 4d bf d3 cb 05 c0 52 60 0b bf 4d 93 b9 be
       -0.80415004 -2.0905654 -0.5444385 -0.36245194
000280 e9 3f fc bf df 75 9d bf 51 47 bc 3e 41 b4 fe 3d
       -1.9707004 -1.2301596 0.3677316 0.124367245
000290 cc a6 58 3e 7c 9c 30 bf 26 19 a4 bd 85 59 9f 3f
       0.21157378 -0.68988776 -0.08012609 1.2449194
0002a0 3e 14 d3 be c2 ed 88 bf 43 0f eb 3b 5c b9 61 3e
       -0.4122638 -1.0697558 0.00717345 0.22043365
0002b0 44 07 1a be d1 b0 50 bf 77 ba 93 3f a9 0b a8 be
       -0.15041834 -0.815198 1.154128 -0.32821396
0002c0 e6 44 cf 3e d7 9f d1 3d 9b 51 bc be 60 54 75 bf
       0.40482253 0.10235565 -0.3678101 -0.9583187
0002d0 7c 4f ff 3d 9c f5 88 3f f6 89 a7 bf 51 9d 43 bf
       0.12466332 1.0699954 -1.3088977 -0.7641192
0002e0 6b 1d 0f bf 4e 34 1b be 03 be 21 3f 07 87 a7 3e
       -0.55904263 -0.15156671 0.6318056 0.32720205
0002f0 77 95 10 3f 2f d9 ff bf df b9 d5 bf 1d 61 26 be
       0.56478065 -1.9988154 -1.6697348 -0.16247983
000300 74 d4 2c 3f d8 49 cc bf 85 31 fd bf 79 33 8c bf
       0.6751168 -1.5960035 -1.9780737 -1.0953208
000310 d9 af f5 3d 1a f7 9f bc 1c 6e 09 40 e3 d7 81 bf
       0.11996431 -0.019527007 2.1473455 -1.0144008
000320 8d 49 d5 be ae 6e e9 3d 0d 84 e5 3f 72 45 68 bf
       -0.41657677 0.113980636 1.7930924 -0.90730965
000330 1d ae d6 bf eb c0 cf 3f a7 1c 1d 3f 06 76 cc bf
       -1.6771885 1.6230749 0.61371845 -1.5973518
000340 48 9f 8a be 8b e3 af bf ea 68 b5 bf cd ea 3b bf
       -0.27074647 -1.3741316 -1.4172642 -0.7340515
000350 a9 1d 76 bf fa 8d c0 3f 5c 28 ba bd 4a 25 ad 3f
       -0.9613901 1.5043328 -0.09089729 1.3527005
000360 c3 aa d4 3f 51 f0 88 3e b3 92 9c 3d 49 d7 67 3e
       1.6614612 0.26745847 0.07645168 0.22640719
000370 01 b3 4c bf 4b 08 ed 3e 20 4c f3 bd 19 ba 2f be
       -0.7996064 0.4629539 -0.11879754 -0.17160834
000380 a6 60 81 3f 86 31 69 bf 75 90 e8 bd 2a 03 9c 3e
       1.010762 -0.9109119 -0.11355678 0.30471164
000390 72 45 15 be 66 f2 be bf 57 56 36 3e 07 2f f9 be
       -0.14577273 -1.4917724 0.17806374 -0.48668692
0003a0 3b 0c b0 bc f7 88 ea bf 04 fd 82 bf 2d cd 26 3f
       -0.021490207 -1.8323048 -1.0233464 0.65156823
0003b0 e8 f1 1d 3e 99 a6 ca 3f 72 26 53 3f ce 7d 06 3f
       0.15424311 1.5832092 0.8248054 0.5253571
0003c0 57 8c d3 bf 34 0d 20 3f d6 17 54 bd d2 b7 c2 3e
       -1.6527203 0.62520146 -0.051780544 0.3803087
0003d0 bc f3 7f bf dc a4 c7 bf bc 51 c0 3e 37 94 ee be
       -0.99981284 -1.5597186 0.37562358 -0.46597454
0003e0 59 73 24 bf 52 c1 8d 3e b1 6b ed 3d 61 e4 38 bf
       -0.64238507 0.27686554 0.11592806 -0.7222348
0003f0 03 a7 e6 be 68 54 23 be 9c 6c 86 3f 55 ea 7b bf
       -0.45049295 -0.15950167 1.0501895 -0.9840444

weight f4 [24, 22]
000000 fe f9 69 3e c7 b2 02 3f 05 ee ee 3d ba 81 01 be
       0.2284927 0.5105404 0.116664924 -0.12647143
000010 f1 1d ff be 26 0e 4a bf 34 c1 2e bd 9d a3 aa 3e
       -0.4982753 -0.7892784 -0.04266472 0.33327952
000020 9e 4a 9d 3e a6 83 05 bf 3c 74 c2 be a9 4d dd 3e
       0.3072099 -0.52154005 -0.37979305 0.43223312
000030 a7 96 ac ba c7 8c 21 bf ae 4b 8f be e2 c1 83 be
       -0.0013167456 -0.63105434 -0.27987427 -0.25733858
000040 68 fd a6 3e 1f 0d 49 3f d2 9d df be 9d 8b e1 3d
       0.3261521 0.78535646 -0.43675095 0.11012957
000050 6b bc a9 3e 8e 87 06 3f a3 6c 30 be a5 c6 3b 3f
       0.33151564 0.5255059 -0.17228942 0.7334998
000060 b4 52 88 bb 6f eb fd be 99 e4 4e bf 88 68 0f bf
       -0.0041602496 -0.49593684 -0.8081756 -0.5601888
000070 8d 18 67 3e 37 74 c0 3e 3d c8 a2 3e 28 ab 28 bf
       0.22567959 0.37588665 0.31793395 -0.65886164
000080 66 b0 8b be f6 10 15 3f 89 b5 80 3f a7 f1 8b bd
       -0.2728302 0.58229005 1.00554 -0.06833201
000090 c3 d5 d2 be 8a d2 02 be 84 60 db 3e c9 4d 25 3f
       -0.41178712 -0.12775627 0.42847073 0.64571816
0000a0 5a 6b f3 be c7 cd 04 bf 0d 0f 58 3e ea 78 fb 3d
       -0.4754284 -0.5187649 0.21099491 0.12278922
0000b0 67 72 84 bb a2 3a 38 bf db 13 47 be 87 db 83 be
       -0.004041958 -0.71964467 -0.19441168 -0.25753424
0000c0 42 1b b7 bd 9f 2d e2 3d ff 02 46 bf 74 82 b7 bf
       -0.08940746 0.11043858 -0.7734832 -1.4336686
0000d0 e5 e5 26 bf ef 23 31 3f 58 15 92 3e e9 f9 46 be
       -0.6519454 0.69195455 0.2853191 -0.1943127
0000e0 d6 61 8d 3e b1 c4 a8 bf 5a ad 45 be 3b 90 3b 3f
       0.27613705 -1.3185025 -0.1930441 0.73266953
0000f0 96 d9 d1 3e 1e 8b c2 3d 89 46 88 bc 9a 9f e1 3d
       0.40986317 0.09499191 -0.016635196 0.1101677
000100 d4 80 1a 3e bf fc 87 bf 95 7f 32 be 7c 20 70 bf
       0.15088207 -1.0624007 -0.17431481 -0.9379957
000110 75 d0 1a bf 9b 94 e5 bd 86 e7 91 bd d9 f7 ca 3e
       -0.6047433 -0.11209985 -0.07124238 0.39642218
000120 39 46 74 bf d1 9e 82 be e5 60 15 bf 29 ad da be
       -0.9541965 -0.25511792 -0.58350974 -0.42710236
000130 9e 3c 90 3e 48 aa 87 3f 60 bf 04 3f 9d cd a7 3e
       0.28171247 1.0598841 0.51854515 0.32774058
000140 d6 be e8 be e6 41 f4 be 18 1c 4f 3e ba ff 94 3e
       -0.45458096 -0.47706527 0.2022556 0.29101354
000150 7f 86 b8 bd d6 01 34 be a8 ad 51 be 7c 6a 8d 3f
       -0.09010028 -0.17578825 -0.20476401 1.1048121
000160 a7 8b 00 be a8 26 89 bf 90 cb 52 be e8 3c 2f bd
       -0.12553273 -1.0714922 -0.20585465 -0.042782694
000170 cc d0 6f 3e 61 e1 9e 3e 69 db 0f bf fe 61 81 bf
       0.23419493 0.31031325 -0.5619417 -1.010803
000180 09 e9 1c bf 7d 84 d2 3e f2 fd 87 3e b6 d8 24 bf
       -0.61293083 0.41116706 0.26560932 -0.64393175
000190 cb 7e 5f be f5 b0 7b be 18 94 88 3e b0 c8 4e 3f
       -0.21825711 -0.24579223 0.26675487 0.80774975
0001a0 1e 21 8a bc 7c 51 31 be 7c b9 70 3f 03 0f 21 3f
       -0.016861495 -0.1731624 0.94033027 0.6291353
0001b0 eb c0 25 3e a2 4e 40 be af 50 b0 3e 5d e4 7f 3e
       0.16186874 -0.18779996 0.34436557 0.24989457
0001c0 a7 01 b4 3e 47 14 96 3e 88 07 bd 3e c4 5e 39 3f
       0.3515751 0.29312345 0.36919808 0.72410226
0001d0 96 f8 2d be cb 29 18 3e 00 02 27 3e 3e be 07 3e
       -0.1698936 0.14859693 0.16309357 0.13256165
0001e0 10 37 d8 3d 6d 35 05 3e 3f d7 4a be b5 26 da bd
       0.10557377 0.13008662 -0.19808672 -0.10651914
0001f0 f8 5d f8 be b9 2d 39 bf a8 fa 2c be 4f 41 f3 be
       -0.48509192 -0.7233539 -0.16892493 -0.47510764
000200 97 53 43 bf ee e0 42 bf f3 ea e7 be 2c 44 c5 be
       -0.7629942 -0.76124465 -0.4529644 -0.38528574
000210 bb 74 21 3d 2e 9e 6a 3f 8f 42 56 3d ec 1a 52 be
       0.039417963 0.91647613 0.05230957 -0.20518082
000220 27 f8 be be f2 e7 df be 86 64 0d 3f 00 13 71 be
       -0.372987 -0.43731648 0.5523151 -0.23542404
000230 aa 1a ce 3e cd 8f 10 3e 59 4f 05 3e c9 97 01 3f
       0.40254718 0.14117356 0.1301855 0.5062223
000240 15 84 bc 3e 62 8f 83 bf 58 e6 91 be a1 14 0f 3e
       0.3681952 -1.0278132 -0.2849605 0.13972713
000250 a7 cc 05 3f 45 6e 1b 3f 3f 57 34 bf f8 6c c0 be
       0.522654 0.6071513 -0.70445627 -0.37583137
000260 b0 f7 3f be cc 81 65 bf bd 20 bc 3e ab bf 10 3f
       -0.18746829 -0.8965118 0.36743727 0.5654246
000270 dc d7 0a 3f 29 e7 58 3f d3 f9 2a 3f fa 58 ac 3e
       0.54235625 0.8472772 0.6678745 0.33661634
000280 5a ee 16 3f fb 49 4f 3e db ac 4d 3e 70 b1 fd 3d
       0.58957446 0.20243065 0.2008547 0.12387359
000290 7b 26 47 be 53 13 87 bf 9d 15 6a bf 9d 14 2a be
       -0.19448273 -1.0552772 -0.9143923 -0.16609426
0002a0 09 01 96 be 52 58 bf be 10 22 24 bf 7f 54 69 bf
       -0.29297665 -0.3737207 -0.64114475 -0.91144556
0002b0 1d 6c d0 bb 91 f3 09 be 7f 37 84 3e bf df 49 3f
       -0.0063605444 -0.1347182 0.2582359 0.78857034
0002c0 b7 f8 9c 3e 8e 4e fe be 97 8f 8a 3d 63 5b 38 be
       0.30658504 -0.49669307 0.06765669 -0.18003611
0002d0 27 1d 7d bd 28 a2 19 3f ba 6b 15 3f ed 58 44 be
       -0.06179538 0.60013056 0.583675 -0.19174547
0002e0 64 94 f4 bd 9b ed 0c 3f 8d b5 e4 3e 28 e6 2f bb
       -0.11942366 0.5505006 0.44669762 -0.0026840065
0002f0 e5 51 86 3e eb ae 8d 3e cf e1 e9 3e 2e c5 c2 3e
       0.26234356 0.27672514 0.4568009 0.3804106
000300 0b a9 d7 3d c5 c4 83 3d 1d cd 29 3e 6d 45 ca bc
       0.10530289 0.06434015 0.16582151 -0.024691308
000310 f9 c7 db be ae b3 b7 bf 33 2d 2c 3f 28 36 3b 3f
       -0.42926005 -1.4351709 0.6725647 0.7312951
000320 cc 06 20 3f 42 5c f7 3e a4 e7 ae 3e b0 4b df 3e
       0.6251037 0.48312575 0.34161103 0.43612432
000330 69 ee 00 3e f9 29 01 bf 29 71 b8 3d 03 28 39 bd
       0.12590946 -0.5045467 0.090059586 -0.045204174
000340 14 a8 29 be 6c 5b 62 3d 37 33 4c 3f e0 09 6e bf
       -0.16568023 0.055262968 0.7976565 -0.9298382
000350 cd ff 19 bf 8c bf b2 be 0c 91 94 be 4f 89 0b 3e
       -0.60155946 -0.34911764 -0.29016912 0.13626598
000360 2e 11 11 bf cb 43 d3 be e7 e1 09 3e 4e 51 61 3f
       -0.5666684 -0.4126266 0.13465081 0.88014686
000370 42 80 00 bf 8d 70 25 be b7 86 dd be c9 32 80 be
       -0.50195706 -0.16156216 -0.43266842 -0.25038746
000380 4c 30 6e be a0 10 1a bf 78 ac c8 bc 40 89 14 3f
       -0.23260611 -0.6018162 -0.024496302 0.58021927
000390 40 d5 a0 be 13 00 90 bf b2 1a 1c bf 77 e1 f2 be
       -0.31412697 -1.1250023 -0.60978234 -0.4743764
0003a0 cc 25 c6 be 21 0b 69 3f cb 42 8f 3d d7 2f 33 bf
       -0.38700712 0.91032606 0.069951616 -0.6999487
0003b0 f2 66 db be da 34 00 be 8b 35 cc 3e 44 58 68 3e
       -0.4285198 -0.12520161 0.398846 0.2268992
0003c0 6f aa 51 3d e9 5b c2 3f 3e 84 43 bd b3 d2 03 bf
       0.05118793 1.5184299 -0.047733538 -0.51493376
0003d0 0c 3e d0 be 87 c0 d5 be d2 38 e9 be 60 44 f0 be
       -0.40672338 -0.4174845 -0.45551163 -0.46927166
0003e0 51 05 94 3e d2 4e 18 3e 4f 81 ad 3d 73 d9 d6 3d
       0.28910306 0.14873818 0.08471929 0.10490694
0003f0 73 b3 af be 24 7a 18 bf 7a ab ba 3e f5 3a 14 3f
       -0.34316596 -0.5956137 0.3645895 0.5790246

bias f4 [24]
000000 ab 56 50 bf 3f 1e 81 3f 86 0d 91 3f 27 e8 a8 3e
       -0.81382245 1.0087355 1.1332252 0.32989618
000010 6f 7a 8e 3e 78 9b 31 3f bd 0a 15 3f 90 c0 18 bf
       0.27827784 0.6937785 0.5821951 -0.5966883
000020 6c e3 ef bd f7 40 7f bf fc 29 9b 3f 45 99 ab be
       -0.11713299 -0.99708503 1.2122188 -0.33515373
000030 58 9e 2c 3f d7 d3 e2 3d d8 54 b0 bf 83 79 ae bf
       0.67429113 0.110755615 -1.3775892 -1.3630832
000040 b3 82 ff be de 1f 03 3f 55 d9 a5 be f1 11 31 3e
       -0.49904403 0.512205 -0.32392374 0.17292
000050 cc e1 b7 3e fc 70 1a 3f d3 bd 00 3f ae ea 7a bf
       0.35914457 0.6032865 0.5028965 -0.9801434

in_proj_weight f4 [72, 24]
000000 b4 cd 06 be 93 8d b4 3d 8a e7 8b bc 5a 3f c9 bd
       -0.13164407 0.08816066 -0.01707818 -0.098265365
000010 a1 a0 b4 be 68 c4 c2 3e cc 0f a5 3d 70 95 f9 3e
       -0.352788 0.3804047 0.08059654 0.48746824
000020 6e c5 94 3e cb cf c0 3d 9c a8 e3 bd a7 69 92 bd
       0.29056877 0.09414633 -0.11116144 -0.07149058
000030 92 5b 97 be 92 3c 8d be 4a 3d d1 3d ef 9f ca be
       -0.2956205 -0.27585274 0.10216768 -0.39575145
000040 81 07 34 3c 0a 77 df bd d3 74 51 be fe f6 b3 3d
       0.010988117 -0.10911377 -0.20454721 0.087873444
000050 19 b8 c9 3e 28 4c 62 be d1 2e 61 be 79 aa 20 3c
       0.39398268 -0.22099364 -0.21990515 0.009806269
000060 63 94 f0 be 45 95 cc be fb ac 10 3e 39 2a 7e be
       -0.4698821 -0.39957634 0.14128487 -0.24820794
000070 11 1a 88 3c c3 a3 d8 3d a9 5b 0c be c8 d9 2c 3f
       0.016613992 0.1057811 -0.1370684 0.6751981
000080 76 5e aa 3d d6 8d 7f be 7c 63 91 3d 3a cc 39 3e
       0.08318798 -0.2495645 0.07099053 0.18144313
000090 d3 e7 27 bd 3b 95 c9 bd 20 b7 cb bd de ce 85 be
       -0.04099257 -0.098429166 -0.09947038 -0.2613439
0000a0 53 4e 98 3d 47 6e 67 be 53 83 d0 bd f9 f7 e4 3c
       0.07436814 -0.22600661 -0.10181298 0.027950274
0000b0 38 39 8f 3e 53 a5 03 3d 49 fb 34 bd a4 d3 ae 3e
       0.27973342 0.032140087 -0.044184957 0.34145844
0000c0 67 d5 41 bc 58 2c 57 3d 11 f4 bf ba eb bf 70 3d
       -0.011830664 0.052532524 -0.0014644881 0.058776777
0000d0 72 5b ac be d5 24 04 bd 0e 65 ee 3c 14 5f c2 bd
       -0.33663517 -0.03226169 0.029100921 -0.09490791
0000e0 2e e1 a1 3d 89 8b 9f 3e 1f 9f 86 be ac 8a fb bd
       0.07904278 0.31161144 -0.26293275 -0.12282309
0000f0 46 b2 0c 3e 38 04 2d 3d 10 e8 bf bd f6 77 f6 3d
       0.13739881 0.04224035 -0.09370434 0.120345995
000100 61 d2 5d be 69 db 35 3e 76 c2 4e be cc 99 cf bd
       -0.21662284 0.1775948 -0.20191368 -0.10136756
000110 55 47 2f bd f6 3e e9 bc b8 ca 98 be 37 5c 0d bf
       -0.042792637 -0.028472405 -0.29842162 -0.55218834
000120 70 d5 b1 3e d9 4e 47 3e dd a8 0a 3e a9 20 17 be
       0.34733152 0.19463672 0.13540979 -0.14758553
000130 1a 98 00 bf 74 0b 3c 3c 46 43 be 3e 70 e4 2d be
       -0.5023209 0.01147734 0.371607 -0.16981673
000140 51 3f 63 bc 9c d2 80 3b 6c 12 05 be fc 55 58 be
       -0.013870076 0.0039313566 -0.12995309 -0.2112655
000150 b0 89 c9 be 84 90 58 3e 9d 86 d1 3e d3 5f a8 be
       -0.3936286 0.21148878 0.40923014 -0.32885608
000160 0b a3 e4 bc 25 d9 18 3e c5 6b fd bd 24 03 ac bd
       -0.027909776 0.14926584 -0.12374071 -0.083990365
000170 9f 0b 7f 3e fb 2f 96 bd 69 e2 07 be db 79 d6 be
       0.24906777 -0.0733337 -0.13269962 -0.41889843
000180 38 d7 d5 bb fd cf 57 3d 09 3d cb bd b2 ca a1 3c
       -0.0065259 0.052688587 -0.09923751 0.019749973
000190 b4 68 49 3e db e0 70 be fe 61 99 be 3b 16 9c be
       0.19668847 -0.23523276 -0.29957575 -0.3048571
0001a0 97 04 b4 be 60 bf 41 be 79 30 78 3e 69 d1 68 3e
       -0.35159752 -0.1892066 0.24237241 0.22736134
0001b0 c6 d0 5b 3e a2 9c fd 3c 1c 95 90 be 6a bf bd 3e
       0.2146636 0.030958477 -0.2823876 0.370601
0001c0 0d c1 e0 bc 34 05 3a 3d ed f0 58 3e f0 e7 89 be
       -0.027435804 0.04541512 0.21185656 -0.26934767
0001d0 36 4d 0c 3d 40 55 25 be b0 5e 98 3e a9 c4 35 3e
       0.03425332 -0.16145802 0.2975974 0.17750801
0001e0 c1 63 2d be 99 bb cd 3d 89 72 87 3d 9a c4 62 3e
       -0.16932584 0.10045547 0.06613643 0.2214531
0001f0 c9 cd b0 bd e0 6e 6c be 26 0f c0 be 40 81 b8 be
       -0.086330004 -0.2308917 -0.37511557 -0.3603611
000200 f0 08 7c 3d ee 16 b0 be 32 c3 9f 3c 8f 43 7a bd
       0.06153196 -0.34392494 0.019502256 -0.061099585
000210 a3 40 26 3e 79 23 58 3b 73 4f 4b be 23 2d 67 3e
       0.16235594 0.0032980128 -0.19854526 0.22575812
000220 40 40 c4 be d3 b1 40 be 80 c8 02 3f 3b 96 02 3e
       -0.3833027 -0.18817835 0.5108719 0.12752621
000230 6b 6a 66 be d8 a4 a3 bd 4d 0e c6 bd 08 ea 93 be
       -0.22501533 -0.07990426 -0.096706964 -0.2888949
000240 2a 39 bd 3d ea b0 65 3c db 4c 63 3d a4 e5 65 be
       0.09239419 0.01401923 0.055493217 -0.22450882
000250 4e 90 ef bd 90 84 54 3e 05 65 88 3e 9d 0a 5b be
       -0.11697446 0.20753694 0.26639572 -0.21390767
000260 f4 72 d8 3c 96 3e 9c 3d 97 cd a3 be 10 43 b8 bd
       0.026422001 0.07629125 -0.3199279 -0.08997166
000270 48 3c b0 3c e4 ae 11 3e 0e 08 b6 bc 66 54 9d 3e
       0.02151312 0.14226872 -0.022220638 0.30728453
000280 dc e0 96 be 63 47 55 3e ab a5 17 3e 94 30 00 3d
       -0.2946843 0.20828013 0.14809291 0.031296328
000290 09 56 9e be 8d 6c f8 bd 65 e7 8e bd 77 47 a4 bd
       -0.30925015 -0.121300794 -0.06977729 -0.08021443
0002a0 b9 af d0 be cc 00 61 3e 6b 27 8c 3d 5b ca c2 3c
       -0.40759066 0.2197296 0.06843456 0.023778131
0002b0 f7 0c 3e 3b 7e 13 64 3e 3c 52 c6 bd 6b 0a 3d 3d
       0.0028999427 0.2227306 -0.09683654 0.046152513
0002c0 b7 85 77 bd 34 d5 30 bd b3 b5 61 be 48 31 7e bd
       -0.060430255 -0.043172076 -0.22041969 -0.062058717
0002d0 52 72 5b 3d f0 f9 b1 bd 60 ff 6a be 89 a3 bd be
       0.05357582 -0.0869025 -0.2294898 -0.3703883
0002e0 79 bb 23 3e 39 b6 5b be 67 d3 4d 3e 70 ab 3a 3e
       0.15989484 -0.21456231 0.20100175 0.1822946
0002f0 1a af d1 bd 78 fe d2 3e b8 e4 17 be 3e 2d 12 be
       -0.10238476 0.4120977 -0.14833343 -0.14275071
000300 a0 23 f3 3d 36 b5 5d be 19 5d e4 be 05 f1 b8 be
       0.11872029 -0.21651158 -0.44602278 -0.36121383
000310 59 61 76 3e 1d 35 34 be cf 7c c3 3d bd e2 8a 3e
       0.24060573 -0.17598386 0.0954529 0.27126113
000320 93 f8 67 be 05 be bf be 17 f1 02 3e a6 fd 8f 3e
       -0.22653417 -0.3744966 0.12787281 0.28123206
000330 02 b6 b8 be d4 1c bf 3c 8f a0 9d 3e 95 d5 22 3e
       -0.3607636 0.023329176 0.3078656 0.15901788
000340 49 85 1b 3e 53 fb 41 bd a4 84 4f 3e 6c a5 56 3e
       0.15187563 -0.047358822 0.20265442 0.20961541
000350 af a4 42 3e fd de c2 bd fb fc cb 3e d8 9b dd 3e
       0.19008134 -0.09515188 0.39841446 0.43282962
000360 70 49 80 be 0f b1 09 3e e6 86 82 3e fa 5e cf 3e
       -0.25056028 0.13446449 0.25493544 0.4050215
000370 c5 ad 81 3e 54 51 45 be 9b 8b cf 3b 5a b0 ae bd
       0.25327888 -0.19269305 0.006333781 -0.0852973
000380 0f 0d df bc df 68 3b 3e 62 b8 a8 3d bc 25 25 bb
       -0.027227907 0.18301724 0.08238293 -0.0025199493
000390 95 13 34 3e 37 8d d1 3d 1b b2 ba bd 3f cf c5 3d
       0.17585595 0.10232013 -0.09116002 0.0965867
0003a0 eb 6e cf bc 2e 42 e9 be a7 18 1c bc 0e 0d 2f be
       -0.025321444 -0.45558304 -0.009527362 -0.17094824
0003b0 98 4d 18 be 20 85 b3 3e b2 e8 6d be 82 2f 85 bd
       -0.1487335 0.35062504 -0.23233297 -0.06503202
0003c0 dd 50 93 3e d5 dd 3a be d9 f7 3a bb fe e6 2d 3e
       0.2877263 -0.18248685 -0.0028529076 0.16982648
0003d0 3c 3b cb bc 88 60 a4 bd 32 b7 74 be d4 3e e0 bd
       -0.024808519 -0.080262244 -0.23898008 -0.109494835
0003e0 05 4d 69 be b2 1b a7 3e eb 09 2d bd e7 14 63 bd
       -0.22783287 0.32638317 -0.042245787 -0.055439856
0003f0 cf 1b 9c bd 1e f4 3b 3d 54 c5 b0 3e 84 69 bc 3e
       -0.076224916 0.045887105 0.3452555 0.36799252

in_proj_bias f4 [72]
000000 0a 2c a6 be ca b3 01 bf ec 07 11 bf 6c 0d 9b 3e
       -0.32455474 -0.5066496 -0.5665271 0.30283678
000010 82 ef 7b be 0e 0c 29 3f 5f de ed 3e 46 8c f2 be
       -0.24603084 0.6603402 0.46458718 -0.47372645
000020 20 4a b5 3e 3e ae b2 be 19 d0 b8 3e ec 8f d1 be
       0.35408115 -0.3489856 0.36096266 -0.40930116
000030 a7 e3 05 bf d0 2f 93 3e fb 7e bd 3e 05 95 84 bd
       -0.52300495 0.28747416 0.3701094 -0.06473736
000040 db 0b ef 3c f8 f4 12 bf f6 02 3b 3f 2f 83 39 3f
       0.029180458 -0.5740504 0.73051393 0.72465795
000050 1d a5 a5 3d 15 2d 46 bf 53 3e 3f bf 6c 3c ca 3e
       0.080881335 -0.7741254 -0.74704474 0.39499223
000060 55 ff 5f 3d 67 19 ba 3d c7 11 33 ba 4f 65 5a 3d
       0.054686863 0.09086876 -0.0006830957 0.05331927
000070 dd 22 c4 bd c2 37 d9 bd f3 59 5a bb 6d 14 af bd
       -0.09576962 -0.10606338 -0.0033317774 -0.08548818
000080 55 df 0d be 7a 8c 7f bd 74 72 41 3e a0 08 de be
       -0.13854726 -0.06238983 0.18891317 -0.43365955
000090 d3 46 6b be d0 dd 37 3e 8c 8e 16 bd 6d b6 21 bd
       -0.22976236 0.17955709 -0.036757037 -0.039480615
0000a0 2f 83 d0 3d f8 db 23 be eb 75 83 3d 4b bf d7 3d
       0.10181271 -0.1600188 0.064189754 0.10534533
0000b0 8a 5b b6 3b 93 be 8f bb 24 fa 57 bb fc 9f ef 3c
       0.0055651115 -0.004386732 -0.0032955492 0.029251091
0000c0 18 88 0f 3b 0b b1 6d 3c 6a 6c d4 3c ca 82 fe 3c
       0.0021901187 0.014507542 0.025930602 0.031068224
0000d0 9e ff fc bc 89 9a 8b 3d b6 a7 28 bd d5 48 01 bd
       -0.030883607 0.068165846 -0.041175567 -0.0315636
0000e0 ca 8a ce bc d7 a1 0d 3d 2b 4b d5 bc 87 4b b1 3c
       -0.025212664 0.03457817 -0.02603682 0.02164246
0000f0 98 62 6c 3d e0 45 88 3d fe 7e 57 3d d8 c2 14 bd
       0.057711214 0.066539526 0.052611344 -0.03631863
000100 dc 15 03 3e 73 b5 f9 bd 8d c0 17 bd 52 a2 03 3e
       0.12801307 -0.12192812 -0.037048865 0.12854889
000110 35 af 8a bd db 98 f9 3c 00 4b bf bd 52 5d 76 3d
       -0.06771699 0.030468395 -0.09340477 0.06014759

weight f4 [24, 24]
000000 5c 0e e9 3c fe 10 2e 3c 47 21 1a 3d 39 93 8f 3c
       0.02844923 0.010624168 0.037629392 0.017526256
000010 59 d9 d0 bc f5 b4 8f 3a 32 f5 c3 3b bd 35 02 bc
       -0.025494264 0.0010963964 0.0059801573 -0.0079473825
000020 9b f9 51 bc 5b 26 29 3c 5e e4 1c 3c 83 57 20 3c
       -0.012815858 0.010324086 0.009575931 0.009786489
000030 43 7f 68 3d 6c e4 09 bd 5d 7f 34 3c 6c d0 37 bc
       0.05676199 -0.033665106 0.011016694 -0.011219125
000040 12 01 98 bc fd dc 5e 3c 9f 16 e8 bc 5a 01 35 3c
       -0.018555198 0.013602492 -0.0283311 0.0110476855
000050 26 92 d7 3c 6b c8 13 bd 1c 8b 0e 3c 45 10 c7 3a
       0.026314806 -0.036079805 0.008700158 0.0015187344
000060 8f 8b 0b 3d b8 f8 a7 3d 90 1f e1 3b c8 d0 df 3b
       0.03406864 0.08201736 0.0068702176 0.0068303086
000070 09 08 15 bd 99 50 06 3d 8d 74 3f 3d 8b 3d 8c 3c
       -0.036384616 0.032791708 0.04674201 0.01711919
000080 68 9d 78 bc d9 c1 50 bb 40 1a 0b 3d 04 90 54 bd
       -0.015174247 -0.0031853823 0.03396058 -0.051895157
000090 12 b5 e7 3c 8c 36 5d bd a0 04 c2 3c 91 dc 26 bd
       0.028284583 -0.054007098 0.023683846 -0.040737692
0000a0 1b b4 27 bd 1c 58 13 ba f6 76 06 bd e7 a6 ae bb
       -0.040943246 -0.00056207343 -0.032828294 -0.005329955
0000b0 df 6f 13 bc 08 52 94 bb 13 ac c7 3c c8 94 f4 3c
       -0.00899884 -0.0045263804 0.024374044 0.0298561
0000c0 23 9b 46 b9 8a 4a 8a bc 4b 4e 46 3c 16 77 55 bb
       -0.00018940544 -0.016881246 0.012103627 -0.0032572201
0000d0 99 10 66 3c d6 04 e9 bc 0a 33 87 3c f3 cd a6 3b
       0.014042043 -0.028444689 0.01650383 0.005090469
0000e0 e5 b7 15 bc c8 70 cc 3c 28 a2 14 bd 09 d2 fd 3c
       -0.009138082 0.024956122 -0.036287457 0.030983942
0000f0 47 1f 01 bd 70 f4 84 bc 23 8c 25 bc 92 11 17 3d
       -0.03152397 -0.016229838 -0.010104212 0.03688199
000100 76 a1 dd bb b6 b7 58 bd 12 3d c4 3c 45 23 0e bc
       -0.0067636324 -0.052909575 0.023954902 -0.008675401
000110 48 a1 0f bd eb 90 ed bc b0 d1 b4 3c 0d 58 14 3c
       -0.03506592 -0.028999766 0.022072643 0.009054196
000120 15 eb f5 3c a1 20 37 3c 5f bd 0a 3c fb 24 09 bd
       0.030019322 0.011177213 0.008468001 -0.033482533
000130 9f 7c f7 3c 95 ce 68 3d 71 2f 12 bd 03 a3 72 3c
       0.030210791 0.056837637 -0.035689775 0.014809373
000140 71 48 4d bd 07 57 71 bc dc 25 92 3c 1e 73 ad bc
       -0.050117914 -0.014730222 0.017840318 -0.021173056
000150 78 cf 87 bc 10 81 49 3c c6 a9 7f b9 9e 61 83 bb
       -0.016578421 0.012298837 -0.0002438194 -0.0040094396
000160 75 2e 51 3c 34 12 e2 bc b6 c4 6f bc 51 78 6c 3c
       0.012767424 -0.02759657 -0.014634302 0.014432983
000170 0e 65 b6 3d aa d4 7c 3d b2 95 46 bc 95 86 7b 3c
       0.089059934 0.06172625 -0.012120651 0.015351911
000180 5e 1d 2f bb d4 df 15 bd 10 2a c5 bb 13 2b a1 bc
       -0.0026720385 -0.036590412 -0.006016977 -0.01967386
000190 58 98 69 3d 30 f2 b4 bc 2c c5 b7 3c 92 1c 35 bc
       0.057030052 -0.02208814 0.022432886 -0.011054175
0001a0 93 84 1a bc 2a 34 96 3a 81 2d 2d bd 0f 4a 78 3b
       -0.009431022 0.0011459638 -0.042279724 0.003788594
0001b0 50 7b ea bd e0 42 cc bc 2d aa 12 3c f7 7f 88 3d
       -0.11449301 -0.024934232 0.008951706 0.06665032
0001c0 88 8c 92 3d 94 43 18 bd 13 a1 1e 3d e0 fc 8d 3c
       0.071557105 -0.037173823 0.03872783 0.017332494
0001d0 55 56 dc bc ac 59 10 3d 21 ad 2e 3d eb 12 8c 3c
       -0.026896635 0.035241768 0.042645577 0.017098865
0001e0 31 08 b6 bc 29 d7 aa bc 28 9f 6c 3c 0b a7 4a bc
       -0.022220703 -0.02085455 0.014442243 -0.012368928
0001f0 6e 25 0a bd 88 66 58 3c b3 00 02 3a 08 40 9f 3b
       -0.033727102 0.013208039 0.00049592106 0.004859928
000200 ef 53 bd 3b 3d a6 00 bd 1d b0 14 3d 84 f6 ad 3c
       0.005777828 -0.031408537 0.036300767 0.021235712
000210 6b 28 2e 3d 67 94 d8 3c f7 d7 db bc 24 f4 29 bc
       0.042519014 0.026437951 -0.026836378 -0.010373149
000220 da 13 08 bb e8 f4 9b bc db ba 5f 3c 41 f3 0b bc
       -0.0020763786 -0.019037679 0.01365539 -0.008541883
000230 49 39 ef bb 66 cf c0 3c bd b3 06 bc 91 7a ad 3c
       -0.00730053 0.023536395 -0.008221564 0.021176608
000240 7c 36 9a 3c e5 5b 4a 3d 7f 50 83 3d 10 d0 56 3d
       0.018824808 0.049404044 0.06411838 0.052444518
000250 e6 1d 0e bd 2b d0 02 3c d4 04 e1 3c 9b c9 3d 3c
       -0.034696482 0.007984201 0.027468123 0.011583711
000260 1c 91 9d 3d 6a b7 0f 3d 03 36 44 bc ff 23 3d 3d
       0.07693693 0.035087027 -0.011975768 0.046176907
000270 59 68 db 3c 8f 7c e2 bd 19 1b c3 3b 53 82 9d bc
       0.026783155 -0.11058914 0.005954158 -0.019227182
000280 5a c9 16 bd 6b a3 9f bc 99 97 ad bc e0 c6 67 bc
       -0.036813118 -0.019487103 -0.021190451 -0.014146537
000290 bf a9 85 bd db a2 3c bd 65 e0 4d bc d5 24 4a 3c
       -0.06526517 -0.04605375 -0.012565707 0.012337883
0002a0 a2 59 81 bd 0d 85 89 bb a2 7e 07 bc e3 47 c7 bb
       -0.06315924 -0.004196769 -0.008269938 -0.0060815676
0002b0 d5 99 44 bd 76 59 42 bc cd 86 20 bd 46 fc 00 bc
       -0.04799827 -0.011862149 -0.039191056 -0.007872647
0002c0 13 80 d6 3c 4d 9c 47 bb 1d 9f 8a 3b 8d 31 28 3c
       0.026184117 -0.0030458153 0.0042303936 0.01026572
0002d0 3d 3a 44 3d ae 3d ff 3d 48 74 00 bd 67 02 05 bc
       0.047907103 0.12462936 -0.031360894 -0.008118249
0002e0 ec fb 15 3c 6b c7 0f 3d f6 72 bf 3c 19 dc 11 3c
       0.009154301 0.03510229 0.023370247 0.008902573
0002f0 4f 25 1f 3d 2c d6 75 3c 3a 2a 34 bd e1 73 08 3a
       0.03885394 0.015004676 -0.043985583 0.00052052556
000300 70 0e dd bc af b7 dd bc 76 72 1c bd a0 32 3f bc
       -0.026984423 -0.027065126 -0.038195096 -0.011669785
000310 ff 09 5b 3d 17 25 2b bd 5a bc 3a 3d dc cd ed 3c
       0.05347633 -0.04178342 0.045589782 0.029028825
000320 b0 65 49 3c 43 73 ab 3c 74 3a ae bc d8 5c 21 bc
       0.012292311 0.020928985 -0.021268107 -0.009848796
000330 a0 19 ad bd 6b f4 eb bc 41 c8 da 3c c9 34 37 3d
       -0.08452153 -0.028803071 0.026706817 0.044728074
000340 d3 04 34 3d 35 62 12 bd bb 44 61 3d c7 08 51 bd
       0.043949913 -0.03573819 0.054997187 -0.05103376
000350 51 2b 73 bd bb ab f1 3b a4 d6 8e bc ef d8 80 bc
       -0.05936748 0.007375208 -0.017436333 -0.015728442
000360 c2 1e 9e bc 53 63 71 3c b3 94 ec 3c 60 29 4d 3c
       -0.019301776 0.014733153 0.028879499 0.012522072
000370 1a a5 85 bc 8f 25 05 3b bd 9d 3b 3b 59 c3 f7 3c
       -0.016314078 0.0020316576 0.0028627955 0.030244516
000380 db ad 13 3c dd 04 30 bb f3 f3 1f 3c 5b bc a3 3d
       0.009013618 -0.0026858367 0.009762752 0.0799491
000390 8e 5c 5c 3d a0 32 44 3d ee 4e ad bc ad 09 c9 3c
       0.053799205 0.047899842 -0.0211558 0.024540747
0003a0 29 9b bb bc 6c cb 3a bc 50 01 34 3c d9 50 72 3b
       -0.022901135 -0.011401039 0.010986641 0.0036974458
0003b0 19 71 44 3c 2a ab f0 bb 69 18 d4 bc 40 7a d1 3b
       0.011989855 -0.007344623 -0.025890546 0.006392747
0003c0 e0 0e 8e 3c 2c 23 ca 3b 38 59 6b bc 66 3c 44 bc
       0.017341077 0.0061687436 -0.014364533 -0.011977291
0003d0 e8 ed 5f 3b 90 5c e8 3c d7 f5 95 bc df a6 10 bc
       0.0034168903 0.02836445 -0.018305702 -0.008828848
0003e0 1f 83 66 3c 3a 7d d0 bc ee 80 d3 b9 0a b6 e3 bc
       0.014069348 -0.025450338 -0.00040341116 -0.027796764
0003f0 aa 9f 86 3c 5c 9d c9 3c 32 a9 be bb e7 7e fa bb
       0.016433556 0.024611168 -0.0058185095 -0.0076445225

bias f4 [24]
000000 6d a5 f9 ba bb 38 15 bc ad 44 18 bb 3c 6b 69 3b
       -0.0019046493 -0.009107764 -0.0023234293 0.0035616895
000010 92 33 ed 3b b7 79 46 3b b8 28 b1 bb f5 db 3d 3c
       0.0072388137 0.003028495 -0.0054064654 0.011588086
000020 d6 03 48 3b f1 e9 fe 3b f6 1a 00 3c 0f ad 99 3b
       0.0030519865 0.007779353 0.007818928 0.0046898196
000030 d9 9c e5 3a 54 58 0b 3a 39 dd 6a 3b 47 1a ab ba
       0.0017518058 0.0005315591 0.0035837425 -0.0013054096
000040 9a c3 04 3c bf 24 07 bc 8d 28 c0 3a 41 f6 25 3c
       0.008103276 -0.008248507 0.0014660523 0.010129512
000050 55 3f 83 3b 5c 91 0b 3c 51 33 75 bc 75 66 04 bc
       0.0040053525 0.008518543 -0.014965848 -0.008081068

weight f4 [128, 24]
000000 23 1c 63 3e 22 59 73 be 56 79 74 3e 8e 5f 02 3e
       0.22178702 -0.2376447 0.23874411 0.12731764
000010 78 fe d5 bd 42 7e e3 3d 63 b6 af 3d 26 39 6f 3e
       -0.10448927 0.11108066 0.085797094 0.23361644
000020 6b e7 6d be ce 93 99 bb bd c2 af 3b 2d bc f7 3d
       -0.2323281 -0.004686809 0.005363791 0.120964386
000030 2c 71 dc bd f3 72 68 3e 4e 9d 3d 3e 53 ad ee 3d
       -0.10763773 0.227001 0.18517038 0.11654153
000040 4e 86 1f 3d 27 33 06 3e 42 04 4e be b0 0d 07 be
       0.038946442 0.1310545 -0.20118812 -0.13188815
000050 81 77 30 3c 76 0f 13 be 0d fb 39 be ae fb 8a be
       0.010770679 -0.14361367 -0.18162175 -0.2714514
000060 89 fe 67 bd a0 af 2e be 19 e8 93 3e 93 dd da 3d
       -0.056639228 -0.17059183 0.28888014 0.10686793
000070 ce 93 b8 3e 05 fe 98 bc e9 ab 1d bd a3 e7 39 bd
       0.36050266 -0.018675813 -0.038494024 -0.04538692
000080 c8 23 74 bc 4b b5 90 bc 7b b8 04 bb 5e 6b 82 bc
       -0.014901109 -0.017664572 -0.002025156 -0.015920337
000090 9c fb 7a bd bc a3 59 3d a4 f9 2b 3d 5b d1 18 bd
       -0.06127511 0.053134665 0.041986123 -0.037309032
0000a0 13 02 4a 3e 19 ba 5c bd 9f 3d dc bc 6b 92 8b be
       0.19727354 -0.053888414 -0.026884852 -0.27260146
0000b0 38 54 16 be 3c 0f e9 bd 9e 6c f6 bb 19 b1 4f 3e
       -0.14680564 -0.11379859 -0.0075202724 0.20282401
0000c0 cd e9 e0 3e 4b 3f 13 be a0 09 2a bd dc b9 8b 3e
       0.43928376 -0.14379613 -0.041513085 0.27290237
0000d0 88 9a 3a 3e 11 ad 7a 3e 2a c9 6f be eb d6 04 3d
       0.18223011 0.24480082 -0.23416582 0.032431524
0000e0 f7 0f 22 be f7 79 b4 3d 88 22 25 3e ee 26 66 3e
       -0.15826403 0.088123254 0.16126454 0.22475788
0000f0 50 35 2d be 0d 40 c7 bd 5d 09 d6 3c 74 26 bf 3d
       -0.16914868 -0.097290136 0.026127512 0.09333506
000100 1c 10 7a 3e a4 56 67 be 19 ba 90 3d b7 24 ec bd
       0.24420208 -0.22591645 0.07066745 -0.1153044
000110 6d d9 3d be fa 0c 43 3d 3c 52 90 be 3f 7a 89 3d
       -0.18539973 0.047619797 -0.2818774 0.0671277
000120 70 37 b1 3e d4 c2 78 be 33 d3 b6 bd b6 4f 94 3d
       0.34612608 -0.24293071 -0.08927002 0.07241766
000130 6a bd f8 3d c4 b4 0d 3e b4 5f 0d 3d 17 0d f4 bc
       0.12145503 0.13838488 0.034515098 -0.029791398
000140 84 b4 82 be a3 57 18 3e 69 d0 a2 3a 37 bd 3a 3e
       -0.25528347 0.14877181 0.001242173 0.18236242
000150 c3 42 01 3d 47 5f 30 3e 0e a5 33 3e 36 70 3b 3e
       0.03155781 0.17223845 0.17543432 0.18304524
000160 17 76 45 3e c3 5d 74 3d 30 7d 1c be f4 5b 25 be
       0.19283329 0.05965973 -0.1528213 -0.16148359
000170 10 1b 95 bd e6 17 df bd 09 bb bf bd c5 08 af bb
       -0.072805524 -0.1089323 -0.09361846 -0.0053416216
000180 74 76 3e 3e 49 2a b7 bd b4 55 8a 3d f8 f3 ab 3c
       0.18599874 -0.08943612 0.06754628 0.020990357
000190 ac 24 9a bd dc 35 8c 3b 0f ad 13 3e 87 8a 3a bd
       -0.07526526 0.0042788815 0.14421485 -0.045542266
0001a0 91 fb 15 bd 96 e8 43 be d0 a2 16 3d 3d ca c7 3c
       -0.036616866 -0.19131693 0.036776364 0.024388427
0001b0 8d aa b7 be 52 5c 22 3e 0e a6 d4 3d 67 0d 2a 3e
       -0.35872307 0.1585553 0.10383235 0.16606675
0001c0 0c 9b 63 be b2 10 84 be 1a a3 0f 3d 13 40 9d bc
       -0.22227114 -0.25793988 0.035067655 -0.019195592
0001d0 94 9d 6c bd ac 4f 45 be 52 9f 76 be 9b a4 3c be
       -0.057767466 -0.19268674 -0.24084213 -0.18422167
0001e0 76 9f 31 3e e3 3a bf be 84 36 9d 3e 04 a9 7a 3d
       0.17345986 -0.37349615 0.30705655 0.061196342
0001f0 00 81 90 bc 3a 03 3b 3e 8e 65 67 be 4a 91 44 3e
       -0.017639637 0.1826295 -0.22597334 0.19196048
000200 b0 9b 9a be 64 3b 5e 3d 55 98 41 bc 1f fa 88 be
       -0.30196905 0.054255858 -0.011816104 -0.26753327
000210 26 e0 f1 bd d5 81 e5 3d b7 30 b5 3c 01 79 84 be
       -0.11810331 0.11206404 0.022117956 -0.2587357
000220 75 ee 7f 3e dc a3 16 3c 32 65 36 be 38 63 02 3e
       0.24993308 0.009194341 -0.1781204 0.12733161
000230 04 19 65 3c 29 62 08 be 68 b3 32 be c8 eb cb 3d
       0.013983015 -0.13318695 -0.1745125 0.09957081
000240 6a 7e f3 3d 7d 19 7f bd 87 50 54 3e 75 34 92 3d
       0.11889346 -0.062280167 0.20733844 0.07138912
000250 ba 94 90 3d 73 0c 26 bd 53 be 13 be 2e d1 15 3d
       0.07059617 -0.040539216 -0.14428072 0.036576442
000260 58 2d 0d be 63 0e 43 bd 28 0c 72 bd 8f 0b 41 3d
       -0.13786829 -0.047621142 -0.059093624 0.047130164
000270 de 4f 7e be d4 32 9d 3e 7d ec a1 3d 28 cc ba be
       -0.24835154 0.3070284 0.07906435 -0.36483884
000280 17 e9 97 3c 07 22 f7 bc 67 fb 24 3e 1a 35 8d be
       0.018543763 -0.030167593 0.16111527 -0.27579576
000290 6e 40 65 bb 19 21 19 be e0 98 41 be 0a 18 2c be
       -0.003498103 -0.14954032 -0.18905973 -0.16806045
0002a0 01 b0 9d 3d a4 1d 8d bd d4 ed e6 3d 72 6c b1 bd
       0.07699586 -0.06890419 0.11275831 -0.086632624
0002b0 f1 dd 94 3d d6 52 24 3e 16 98 c2 bc 44 ff 48 3e
       0.072688945 0.16047224 -0.02375416 0.19628626
0002c0 2d 8a 5a 3d 82 02 87 3d 31 dd 1c 3d 7c 6e 75 3e
       0.05335443 0.06592275 0.038296882 0.23967928
0002d0 4c 4a 8e be 4f a3 59 3e f0 e1 e2 3e 5c 34 fd bd
       -0.2779106 0.21253704 0.44313002 -0.123635024
0002e0 23 b8 3b be cb f4 3d 3e 99 bf d5 bc 55 9f 08 3e
       -0.18331961 0.18550412 -0.026092337 0.1334203
0002f0 6c a2 8d 3e 8f 09 65 be 24 1b 14 3d 44 8e 32 be
       0.2766298 -0.22366928 0.036158696 -0.17437083
000300 cc e7 33 3e 45 d5 96 bd ae 7d a1 3e d3 e0 f7 3d
       0.17568892 -0.07364897 0.31541198 0.12103429
000310 35 6e e7 bb d8 0c f1 bd bf 5a 23 3e fb 23 a1 3c
       -0.0070626982 -0.11770028 0.15952586 0.019670477
000320 85 2b 80 3d e8 82 a7 bc 25 67 8b 3c 20 2d 02 be
       0.06258301 -0.020448163 0.017016957 -0.12712526
000330 31 8b c0 be 12 61 4b bc d3 2c a6 3d 0e 3f d5 bd
       -0.37606195 -0.01241328 0.08114018 -0.10412417
000340 01 ab 0a 3d ef 7b b8 3d 13 b3 74 be 10 6e f1 bd
       0.03385449 0.090080135 -0.23896436 -0.11788571
000350 dc 6b 99 bd 81 a8 6e be c7 bc 1d bc 6f 5a 8a 3b
       -0.07491276 -0.23306467 -0.009627528 0.0042222063
000360 22 a7 f8 3d f3 17 50 be cc 41 07 3d 0f f2 13 be
       0.12141253 -0.20321636 0.033021733 -0.14447807
000370 b4 29 06 be 50 44 02 3d 6e 27 77 3c 96 f2 41 3e
       -0.13101846 0.03180343 0.015085084 0.18940195
000380 84 61 51 3d b5 a1 31 3e 73 7b 50 be 3f 28 95 3c
       0.05111839 0.17346843 -0.20359592 0.018207667
000390 7d 45 28 be 71 2b 71 3e 93 a9 4c 3e 74 e6 21 be
       -0.16432758 0.23551728 0.19986562 -0.15810567
0003a0 4e cf c1 3d d8 75 b3 3b 13 c0 89 3d 78 50 4b 3d
       0.09463368 0.0054766946 0.067260884 0.049637288
0003b0 e5 f8 81 3e 89 79 73 bd 5e 3f c1 3d cf c3 9f bd
       0.25385204 -0.059442077 0.094359145 -0.078010194
0003c0 3c 44 4d 3d 28 78 c2 be 97 eb d9 3c b1 b9 76 be
       0.0501139 -0.37982297 0.026601596 -0.24094273
0003d0 16 40 a0 3d 8b d2 25 3d 5b de 9f be 12 73 1a bd
       0.078247234 0.040483993 -0.3122433 -0.037707396
0003e0 56 7a 33 be 10 8e 5d 3d da 87 62 3e 11 a4 fc 3c
       -0.17527136 0.05409056 0.22122136 0.030839952
0003f0 ac 44 43 be f9 11 d1 3c ce fb b4 3d de 3a 70 be
       -0.19069165 0.025521265 0.088370904 -0.23459956

bias f4 [128]
000000 5f 63 68 bc c3 a1 5c be 7a 31 89 be 14 3d 0f 3d
       -0.014183848 -0.21546082 -0.2679556 0.034970358
000010 bf 2e 73 bb c6 e7 21 be bf 3b 76 be 4e 98 12 bd
       -0.003710672 -0.15811071 -0.24046229 -0.03578978
000020 62 51 43 be 77 1d 35 be 11 d5 5a be 61 c2 98 be
       -0.19074014 -0.17687021 -0.21370341 -0.298358
000030 e9 69 5a be 2d f7 b9 be 05 99 93 bd 49 b4 92 3d
       -0.21329464 -0.36321393 -0.072069205 0.07163293
000040 e4 02 a9 be 45 6c ee bc 95 93 1b 3d 6f 9d ac 3c
       -0.33010018 -0.029104361 0.037982542 0.021071164
000050 75 cb 43 be f7 36 db bd f9 bd c7 bd a4 ee 9b be
       -0.19120581 -0.10703843 -0.09753031 -0.30455506
000060 18 d6 62 be 27 a2 06 3d 23 24 3c bd 15 49 2f be
       -0.22151983 0.032869484 -0.0459329 -0.17117722
000070 bb cb 89 be d6 0b 8a be 9f 53 37 be 22 0b 97 be
       -0.26913247 -0.26962155 -0.17902993 -0.2950068
000080 c5 5c 77 bd 8e b7 a3 be 0e f9 43 3d 10 40 8a be
       -0.060391206 -0.3197598 0.04784494 -0.27002
000090 d5 25 3f bd 9b b3 ec bd 8a ba a5 be 5d da 65 be
       -0.04666694 -0.115576945 -0.3236888 -0.2244658
0000a0 44 ae 95 be 58 04 4f be 2d fc da bd 1f c4 bd be
       -0.29234517 -0.20216501 -0.1069263 -0.3706369
0000b0 b1 10 51 be ef 4c 98 be 62 f7 e0 be 05 bf 3b 3d
       -0.20416524 -0.29746196 -0.43938738 0.045836467
0000c0 bb 58 6b bd 66 38 28 be 9d 98 3e be 69 af 8a be
       -0.057457667 -0.16427764 -0.18612905 -0.27086952
0000d0 3e 4e 3f bd 2b 0a 46 be a9 0a ca bd b5 f9 95 be
       -0.046705477 -0.19339816 -0.098653145 -0.29292074
0000e0 8e 7d 9d be 70 63 a5 be 94 65 38 be 7a ce 44 bd
       -0.30759853 -0.32302427 -0.18007499 -0.048048474
0000f0 23 b0 1e be 4d 35 99 be e9 e7 8c bd 9a b5 d8 bc
       -0.15496878 -0.29923478 -0.06880171 -0.026453782
000100 b3 28 a8 be 30 42 60 bd 46 30 07 bd c1 be 08 3d
       -0.3284355 -0.05475062 -0.03300502 0.033385042
000110 fb cc f9 39 26 30 27 3b d1 cd 9e bd 59 8e 9c be
       0.00047645703 0.0025510876 -0.077541 -0.30577353
000120 ff 01 a7 be 99 ba 4c be 7f 59 9e be 9d ec 8a be
       -0.3261871 -0.19993056 -0.30927655 -0.27133647
000130 d2 4b 51 3c 83 24 20 bd 6e 6e d3 bd 72 97 a3 be
       0.012774425 -0.03909732 -0.10323797 -0.3195148
000140 77 3d 89 be 99 1e 93 be 4e ce 68 be 7d 1b 66 bd
       -0.26804706 -0.28734282 -0.22734949 -0.05617856
000150 e3 f9 ed bb df 8c c7 bd 85 f8 fc bc 52 90 72 be
       -0.007262455 -0.09743666 -0.030880222 -0.23687866
000160 1c 21 c5 be 61 f3 2f be 41 c9 08 be 16 5c 80 be
       -0.38501823 -0.17182685 -0.13358022 -0.25070256
000170 f6 42 8a be f4 2c 68 bd 0a 22 60 be 7c eb c7 be
       -0.27004212 -0.056683496 -0.21887985 -0.39046848
000180 14 d8 07 be 54 21 69 be da 11 fc bd 6c 56 86 be
       -0.13266021 -0.2276662 -0.123080924 -0.2623781
000190 27 c3 4b be b4 a9 14 bd a3 e1 9c bd ec 14 32 bd
       -0.19898663 -0.036294654 -0.07660224 -0.043476984
0001a0 43 97 53 be 2b b8 b1 bc 24 c0 9d be d6 22 f5 bc
       -0.2066317 -0.021694263 -0.30810654 -0.029923838
0001b0 bd c0 2e 3d a2 db 05 be 5d 28 c1 be ec df 4e be
       0.04266428 -0.13072065 -0.37726107 -0.20202607
0001c0 82 95 81 be 6b 32 d0 bd f6 15 91 be 37 49 1e be
       -0.25309378 -0.101658665 -0.28337067 -0.15457617
0001d0 05 08 7c bd 0f 46 d3 bd d6 e3 fa bd b6 71 4c bd
       -0.061531086 -0.10316097 -0.122504875 -0.04991313
0001e0 04 f3 dd be 15 3c 68 be 4e 3b 43 3d 18 92 9e be
       -0.4334947 -0.2267917 0.04766398 -0.30970836
0001f0 b9 99 e1 bc 58 bb 6f be 55 9a 9d bd d4 25 b5 be
       -0.027539121 -0.2341131 -0.07695452 -0.35380423

weight f4 [24, 128]
000000 24 ad aa bc 97 7e a5 bd a2 c1 11 3e 18 c8 22 3d
       -0.020834513 -0.08080786 0.14234021 0.039741606
000010 6d 62 42 b8 ef bc 65 be 02 0c 09 be eb ba aa 3d
       -4.634487e-05 -0.22435354 -0.13383487 0.08336433
000020 15 0c a6 bd 4a 43 f0 3c 86 ab 0c bd 55 07 68 be
       -0.08107773 0.02932896 -0.034343265 -0.22659047
000030 9e dd 07 3e 64 90 ab 3d 73 ef 10 bd c9 73 a5 bd
       0.13268134 0.0837715 -0.035384607 -0.08078725
000040 76 f7 1f 3e 79 40 45 bb 5d cf 09 3c 5f 29 50 3d
       0.15621743 -0.0030098243 0.008411256 0.050820705
000050 77 9a 6f 3c a9 d9 df 3c eb 7e 16 bb 3c 4e cf 3c
       0.01462423 0.027325468 -0.0022963833 0.02530586
000060 1b c6 d2 bd 23 0b e6 bd 2a a0 86 bc bf 71 63 bc
       -0.10291692 -0.11232593 -0.016433794 -0.0138821
000070 3c ed a7 3b 80 bd 1e bd b3 ba 21 3e ac d3 e8 3d
       0.005124716 -0.03875494 0.15793876 0.11368498
000080 4e b9 bf bc 7f 24 8f bd fe c1 60 bc 90 94 64 3c
       -0.02340379 -0.06989383 -0.013718126 0.013951436
000090 a0 17 83 bd b0 0f 84 3d c0 87 0e bd 90 5e 3a 3d
       -0.064009905 0.06448305 -0.03479743 0.045500338
0000a0 fc d3 19 3c 24 09 a2 bd 1c fe db bd 29 7f d8 bd
       0.00938892 -0.079119 -0.10741827 -0.10571129
0000b0 00 0d 36 3b 2f 7b da 3d 69 2d f7 b9 68 be 7d 3c
       0.0027778745 0.10668027 -0.00047145344 0.015487291
0000c0 17 05 dc bd a7 2d 36 be ab 7c 95 3d 21 f6 be bc
       -0.10743158 -0.17790852 0.07299169 -0.023310723
0000d0 70 da 19 3d 84 5d 2b 3e 0e bd e3 bb db fc 64 bb
       0.037561834 0.16734892 -0.0069500273 -0.0034940753
0000e0 99 13 ae 3d a2 96 8c 3d 47 70 4d bd 4c 67 03 3b
       0.08499832 0.068646684 -0.050155904 0.0020050583
0000f0 3c 73 ee 3c 0b 8f 22 3e c2 a3 75 bd 38 cb eb bc
       0.029107682 0.15874879 -0.059970625 -0.028783426
000100 2f a1 5a bd 0c 4a 17 3e 3e 24 ac bb 6a e2 eb bc
       -0.053376373 0.1477434 -0.005253344 -0.028794486
000110 d0 3c a3 bd de 87 11 3e 06 0e 0a 3d 25 01 85 bd
       -0.079705834 0.14211985 0.03370478 -0.06494359
000120 ab 04 c7 3c 36 88 a1 3d 11 4c 1c 3e f8 df 1b bb
       0.024294218 0.07887308 0.15263392 -0.0023784619
000130 43 d4 95 3d d5 fc 76 3d 9e b8 d7 bd 34 6d 3b bc
       0.07315876 0.060299713 -0.1053326 -0.01143961
000140 80 e3 ed bc 65 c1 bb bd e4 78 b6 bd 8b 7e ae 3d
       -0.029039145 -0.091677465 -0.08909777 0.0852023
000150 a9 76 fb 3d 2b 8e 9f bd 76 ca e1 bd a9 16 ca bd
       0.12278492 -0.07790788 -0.110249445 -0.09867603
000160 d1 11 2a be e7 61 45 3c d7 51 35 3d 04 70 82 3c
       -0.16608359 0.0120472675 0.0442675 0.015922554
000170 54 76 46 bd 28 73 0a bd d2 02 cf bd 8a 0e 32 3d
       -0.04845269 -0.033801228 -0.1010796 0.043470897
000180 1b 3f f1 3c 7f b6 20 3e 10 25 e2 3d 50 b6 7e be
       0.029449036 0.15694617 0.11042225 -0.24874234
000190 3c 65 09 3e 8b d2 cd 3c 7c c5 47 bd 76 bf 93 3d
       0.13417524 0.025124809 -0.04877232 0.07214253
0001a0 2d 82 a6 bc 60 6c d9 bc 74 f2 63 bc 06 cb 53 bd
       -0.020325745 -0.026540935 -0.013912786 -0.05170729
0001b0 11 4b 07 3d f3 2d ab bd 3c 55 03 3e 9d b4 15 3e
       0.033030573 -0.083583735 0.12825483 0.1461968
0001c0 7d 58 9d 3b 4c 4b dd bc c8 a9 32 3d c8 3c 36 be
       0.0048018084 -0.027013443 0.043618947 -0.17796624
0001d0 24 e1 35 bd 67 53 7b 3c f3 9e a4 bc 52 2d cb bd
       -0.044404164 0.015339709 -0.020095324 -0.099207535
0001e0 16 0e 43 be d0 bb d6 3d b4 91 bf bb 2b 85 64 be
       -0.19048342 0.10485041 -0.0058462266 -0.22316425
0001f0 94 90 7e bd 8a 17 e8 3c ad bd a3 3d 22 7c 33 be
       -0.0621496 0.028331537 0.07995162 -0.17527822
000200 12 3b e6 3d 23 ae d7 bd 5f 85 b2 3d 7a a6 b1 3d
       0.112417355 -0.10531261 0.08716845 0.08674331
000210 3e f0 bc 3d 7f 57 a4 bd fe 71 d4 3c 67 b4 dc 3d
       0.0922551 -0.08024501 0.025933262 0.107765965
000220 45 b3 86 bd f0 eb c7 3d 19 72 c7 3d 7a 9c 09 be
       -0.06577162 0.097617984 0.09738559 -0.13438597
000230 1d bf 2f 3d 87 80 d4 3d a6 cb e7 bb ee 16 b4 bd
       0.04290687 0.10376077 -0.0070738373 -0.08793436
000240 5c c1 aa 3d a1 8d 94 3b bb a6 98 3d 19 03 88 3e
       0.083376616 0.004533485 0.07453676 0.26564863
000250 c7 a6 14 3e ac 57 07 3e d6 f5 f5 3a 6c 46 b3 3d
       0.14516746 0.13217038 0.0018765281 0.08753666
000260 f5 2d a6 3d c7 b8 2b bd 40 1a 39 3d 0e c9 2d 3d
       0.08114234 -0.041924264 0.04519105 0.04242807
000270 5c 7c e9 3c 1e 2c 89 3d a1 8c 0d 3e 80 27 94 3e
       0.028501682 0.06697868 0.13823177 0.28936386
000280 16 2a cd bc e6 46 b4 bd b9 8d 19 3d d0 f6 e5 bd
       -0.025044482 -0.08802585 0.037488673 -0.112287164
000290 46 ac 1b be b6 b3 6f 3d d7 ba 5c 3d f4 a5 a8 3c
       -0.15202436 0.058520995 0.05388912 0.020586945
0002a0 bb 6f e1 3d 4c 2c d4 bd 73 a9 d6 bd 02 7a 86 bd
       0.11007639 -0.103600115 -0.104815386 -0.0656624
0002b0 9f f2 1a be ef 5c a9 3d ec 46 1f 3e ec f2 1c bb
       -0.15131615 0.08269679 0.15554398 -0.0023948504
0002c0 48 dc 9b 3d 83 c2 e8 bd 31 e9 c0 3d 97 41 bc bb
       0.07610375 -0.11365225 0.09419478 -0.0057451236
0002d0 51 0d 0c bc 19 82 8b 3d b8 80 b9 3d 31 14 32 3d
       -0.008548097 0.068119235 0.09057754 0.043476287
0002e0 fe 3c 83 3e bf fe de 3b 41 73 f0 bd a5 b5 4e 3d
       0.2563247 0.0068052704 -0.11740733 0.0504662
0002f0 49 e6 84 3e 3d 71 0a bd 18 f4 24 3d fd 43 8d 3c
       0.25956944 -0.0337994 0.04027185 0.017244333
000300 5b 08 2b bd e9 72 0e 3e c2 16 a5 3d ad a0 03 3d
       -0.041756015 0.13911022 0.08060981 0.032135654
000310 cc 5f e4 bd 91 d1 d7 3d 85 e6 a6 3d 5f 31 05 3e
       -0.11151084 0.105380185 0.08149437 0.13007115
000320 9f db 9c bc 1f f0 e7 3d fd 6b 0f 3e 59 aa b5 bc
       -0.019147692 0.11325096 0.14006038 -0.022175955
000330 e4 b6 d6 3b e0 22 1e bd 76 4b 6d 3d 8b 52 15 3e
       0.006552564 -0.03860748 0.057933293 0.14582269
000340 10 38 6a 3d 33 d7 a6 bd 7e 08 96 3d 20 fa b1 3d
       0.05718237 -0.08146515 0.073258385 0.08690286
000350 b4 e8 58 3d 16 3c a0 3d bd 00 f4 bc 2d a4 8b bc
       0.052956298 0.078239605 -0.029785508 -0.017046059
000360 9e d6 9d bc 0c 95 6c ba 3d 3e b1 3c 07 c4 5a 3d
       -0.019267377 -0.0009024895 0.021636123 0.053409602
000370 75 fb 34 3d 10 73 71 3b 48 4b e7 3d 9f ce 93 bd
       0.04418512 0.0036842264 0.11293656 -0.07217144
000380 c1 4d f6 bc 0b 0f 8b 3e d9 48 21 3d 56 bc 24 be
       -0.030066373 0.27159914 0.039376114 -0.1608747
000390 00 1c 2a 3e dd 77 c2 3b fa 65 57 bd 20 bc 12 3e
       0.16612244 0.005934699 -0.052587487 0.14329576
0003a0 01 81 96 3d ee a3 4c 3d d7 7b ef 3d e4 63 15 b9
       0.07348824 0.049961023 0.116935425 -0.0001424696
0003b0 94 aa ae 3d 44 db 00 3a 17 1d 16 3e c6 35 a6 3e
       0.08528629 0.00049154856 0.14659534 0.324629
0003c0 a8 a8 a0 3d c4 5b 16 3d b6 52 6d bd 02 9c cf bd
       0.078446686 0.03670861 -0.057940207 -0.10137178
0003d0 43 7b 04 3d 52 b2 dc 3d a4 f4 1f bd 2b 18 a9 bc
       0.032344114 0.107761994 -0.039051667 -0.020641407
0003e0 e4 6a 18 be 9b b6 38 3e 1a b2 84 3d 41 d2 22 be
       -0.14884526 0.18038408 0.06479283 -0.15900518
0003f0 c9 2e 7b 3c 44 09 6a 3d 0f 11 b9 3c da 7e 97 3d
       0.015330979 0.057137743 0.022591142 0.07397242

bias f4 [24]
000000 d7 73 eb 3b 91 38 ae bb 08 d1 5e 3b 20 ca 98 3a
       0.00718544 -0.005316802 0.0033999104 0.0011656918
000010 31 4d 8d 3c 41 68 e9 bb b5 94 f4 bb 49 7c 01 bc
       0.017248722 -0.0071230237 -0.0074640163 -0.007903167
000020 2b 59 a6 bb 27 e4 07 bc 46 de 57 b9 0d 24 40 ba
       -0.0050765476 -0.008294142 -0.00020586801 -0.0007329591
000030 d0 ba ac bb e3 91 37 3c 92 2e 51 ba e7 b1 a4 bb
       -0.005271293 0.011204216 -0.0007979657 -0.0050260904
000040 fe 5e 9e bb a6 ba be bb 61 45 03 3c 68 4d 28 bb
       -0.0048331013 -0.00582059 0.008012147 -0.0025680903
000050 2e aa 1f bb 1b 1c 47 b9 b7 c9 ad bb 1b d2 ff 3a
       -0.002436291 -0.00018988589 -0.0053035873 0.0019517572

weight f4 [24]
000000 18 e6 8f 3f cb fd 66 3f 5a ad 78 3f 2e 5b 81 3f
       1.1242094 0.9023101 0.97139513 1.0105951
000010 c6 f0 83 3f c1 07 7c 3f d0 b5 72 3f 7d 4b 8c 3f
       1.0307853 0.9844933 0.94808674 1.0960537
000020 59 53 71 3f 32 55 8a 3f 9b 78 87 3f d7 62 64 3f
       0.94267803 1.080725 1.0583681 0.8921332
000030 f0 ce 88 3f 37 8a 53 3f dd 4b 84 3f 73 98 82 3f
       1.0688152 0.82632774 1.0335652 1.0202774
000040 0b e7 89 3f 43 2a 5f 3f 77 96 80 3f 7c e9 87 3f
       1.0773634 0.8717386 1.0045918 1.0618129
000050 48 a6 74 3f 4d eb 85 3f 85 ac 7c 3f fd 61 92 3f
       0.95566225 1.0462433 0.98700744 1.1436154
