histories/03.12-01.06.39_69.00%_EEGNet_BCIC-IV-2a_bs=32_lr=0.008_ld=0.9999/best_valid_acc.pt (torch, 19142 bytes, 18 tensors)

weight f4 [8, 1, 1, 32]
1.436406 0.6463307 0.4091372 0.28559473 0.69693357 0.613915 -0.069867276 0.06350202
0.3012556 0.35278225 0.44592035 0.10133907 0.16814867 0.16140692 0.31846538 0.21531792
0.0005050616 0.22711511 0.14678569 0.349435 0.1434553 0.05716991 0.17719935 0.47723177
0.47960493 0.2606758 0.5548727 0.4899212 0.5610297 0.14455426 0.5715883 1.7163463
0.8788193 -0.7312308 -1.4743893 -0.639657 0.083787866 -0.0420691 -0.16039269 0.294175
0.84912694 0.985758 0.22024171 -0.06738832 0.14317377 0.25821033 -0.53746766 -0.8377176
-0.050282244 0.27866495 -0.13048182 -0.38835242 -0.047556102 0.5536318 0.6944578 -0.17571697
-0.7623351 -0.28782102 0.4416526 0.5785096 -0.44072738 -1.4402169 -0.4136117 0.690765
0.5275312 -0.15397657 -0.64419025 -0.70951027 -0.88246465 -1.005235 -0.78761184 -0.33918235
0.05443275 0.2519481 0.1606978 0.16208678 -0.13601926 -0.3354298 -0.6199857 -0.77533144
-1.0247412 -0.85176814 -0.4128667 -0.01939448 0.1957536 0.25872695 -0.053689703 -0.14582974
-0.45106044 -0.56626177 -1.0893613 -0.968162 -0.9285582 -0.5622311 -0.22576222 -0.34791857
1.4874167 0.45780393 0.13112195 0.5489744 0.6341707 0.60595286 0.56522363 0.5243852
0.7186684 0.5326728 0.42901528 0.5544648 0.34463912 0.18130744 0.5110864 0.6454187
0.35134873 0.22200844 0.21171711 0.33525947 0.31853715 0.34034592 0.38077945 0.39338714
0.38581976 0.31420135 0.4916153 0.39044136 0.12057996 0.036200974 0.3736497 0.7400212
-1.2422446 -0.17724085 0.13375463 1.0649427 1.1428039 0.63898605 -0.43168026 -1.2600906
-0.9852889 -0.18318765 0.45586842 0.760069 0.40186337 -0.14507297 -0.122330576 -0.16392475
0.38809568 0.36189988 0.2714374 -0.33822003 -0.84485894 -0.51636124 0.0075044963 0.6325546
0.97191244 0.37710166 -0.16488396 -0.632467 -0.51892614 -0.32083926 0.02580698 0.843549
-1.2924602 -0.7584535 -0.46224788 -0.5722984 -0.42148417 -0.43365046 -0.5382498 -0.6887703
-0.7233323 -0.3616857 -0.38032854 -0.3937854 -0.42952698 -0.20927687 -0.44720522 -0.2127783
-0.34752268 -0.45657772 -0.510736 -0.42788783 -0.050237793 -0.09194017 -0.18549928 -0.39048758
-0.5775074 -0.34938493 -0.3824842 -0.1486066 -0.08161843 -0.07122113 -0.40159094 -0.8997734
0.77495444 0.84067047 1.0300943 0.8170318 0.81628704 0.36524972 -0.06886872 -0.2907038
-0.6888236 -0.7019717 -0.40920714 -0.09387306 0.39188942 0.71931154 1.0137066 0.85215217
0.8574397 0.38264698 0.24895175 -0.046153154 -0.32083702 -0.49234167 -0.36866173 -0.16720936
0.11573248 0.3671003 0.91160923 0.6866732 0.55537385 0.44042388 0.39709944 -0.26305333
-0.5006677 0.7171693 0.90549356 0.22735845 -0.25694525 -0.96315306 -0.84385693 -0.20431112
0.3345333 0.4148331 0.16895409 -0.16627936 0.015273777 0.419926 0.74747086 0.5066396
-0.36800846 -0.6029746 -0.9724273 -0.6884369 -0.23521928 0.29125604 0.6631572 0.8909475
0.62000054 0.5058583 -0.43749687 -1.0752926 -1.0311549 -0.28118572 0.46600035 0.7797105
00000000: 27dc b73f ee75 253f 6e7a d13e 7939 923e
00000010: 3d6a 323f 8929 1d3f 9316 8fbd 590d 823d
00000020: 2d3e 9a3e e09f b43e ac4f e43e dc8a cf3d
00000030: 2a2f 2c3e db47 253e e50d a33e 4d7c 5c3e
00000040: 1c66 043a dd90 683e fd4e 163e 25e9 b23e
00000050: f2e5 123e ff2a 6a3d bf73 353e b957 f43e
00000060: c78e f53e 4c77 853e 230c 0e3f f4d6 fa3e
00000070: a49f 0f3f 0806 143e 9c53 123f 3cb1 db3f
00000080: 4dfa 603f f131 3bbf cab8 bcbf 90c0 23bf
00000090: f998 ab3d a650 2cbd fb3d 24be 1b9e 963e
000000a0: 6260 593f a35a 7c3f 0b87 613e e302 8abd
000000b0: 259c 123e 2534 843e 7b97 09bf a974 56bf
000000c0: c1f4 4dbd 2cad 8e3e 079d 05be 21d6 c6be
000000d0: 30ca 42bd d0ba 0d3f fdc7 313f 26ef 33be
000000e0: 6528 43bf 475d 93be 4a20 e23e 3519 143f
000000f0: 05a7 e1be 0759 b8bf eac4 d3be fad5 303f
00000100: 490c 073f 09ac 1dbe a7e9 24bf 77a2 35bf
00000110: 34e9 61bf 8aab 80bf eea0 49bf 4fa9 adbe
00000120: e0f4 5e3d 57ff 803e f78d 243e 14fa 253e
00000130: a248 0bbe 74bd abbe 62b7 1ebf 1f7c 46bf
00000140: b82a 83bf 7a0d 5abf 4463 d3be 2ce1 9ebc
00000150: a273 483e dc77 843e bce9 5bbd 6454 15be
00000160: 65f1 e6be 88f6 10bf 3170 8bbf 77d9 77bf
00000170: fdb5 6dbf 61ee 0fbf 362e 67be 6222 b2be
00000180: ac63 be3f 4765 ea3e d544 063e 9689 0c3f
00000190: 0359 223f ba1f 1b3f 7fb2 103f 1c3e 063f
000001a0: a7fa 373f 3f5d 083f e4a7 db3e 68f1 0d3f
000001b0: 8a74 b03e a8a8 393e 8fd6 023f 293a 253f
000001c0: fbe3 b33e 2e56 633e 5fcc 583e 21a7 ab3e
000001d0: 4d17 a33e d241 ae3e 86f5 c23e 0a6a c93e
000001e0: 2b8a c53e 00df a03e 00b5 fb3e eee7 c73e
000001f0: a0f2 f63d 7947 143d 034f bf3e 0872 3d3f
00000200: df01 9fbf a07e 35be f9f6 083e 0b50 883f
00000210: 6647 923f 9794 233f 3205 ddbe a64a a1bf
00000220: e53b 7cbf 8b95 3bbe 9667 e93e e293 423f
00000230: 09c1 cd3e 028e 14be 7488 fabd e4db 27be
00000240: 7ab4 c63e f14a b93e d8f9 8a3e 2d2b adbe
00000250: ad48 58bf 4030 04bf 47e8 f53b 19ef 213f
00000260: 41cf 783f 7813 c13e 57d7 28be 5be9 21bf
00000270: 58d8 04bf 0b45 a4be 2969 d33c d4f2 573f
00000280: 566f a5bf 022a 42bf c1ab ecbe 2682 12bf
00000290: c6cc d7be 6f07 debe bdca 09bf 4053 30bf
000002a0: 4e2c 39bf de2e b9be 6cba c2be 3d9e c9be
000002b0: f6ea dbbe ad4c 56be 15f8 e4be 8ee2 59be
000002c0: 7eee b1be 8ec4 e9be 98bf 02bf 1d14 dbbe
000002d0: 25c6 4dbd 214b bcbd 86f3 3dbe fded c7be
000002e0: 86d7 13bf 95e2 b2be f8d4 c3be 542c 18be
000002f0: 9027 a7bd 62dc 91bd 549d cdbe 8d57 66bf
00000300: 6a63 463f 2e36 573f 21da 833f ff28 513f
00000310: 30f8 503f 0302 bb3e 0b0b 8dbd 21d7 94be
00000320: be56 30bf 6bb4 33bf 9983 d1be 8540 c0bd
00000330: bba5 c83e cd24 383f 23c1 813f a526 5a3f
00000340: 2b81 5b3f 4eea c33e 35ed 7e3e 170b 3dbd
00000350: c044 a4be 3514 fcbe 3bc1 bcbe ee38 2bbe
00000360: 2705 ed3d 92f4 bb3e 395f 693f d1c9 2f3f
00000370: fb2c 0e3f 3d7f e13e 9e50 cb3e edae 86be
00000380: c22b 00bf 6898 373f 6dce 673f a7d0 683e
00000390: 548e 83be 3391 76bf 0207 58bf ef36 51be
000003a0: f347 ab3e 0165 d43e 4d02 2d3e 2345 2abe
000003b0: dd3e 7a3c 8a00 d73e 405a 3f3f 22b3 013f
000003c0: 9b6b bcbe 8b5c 1abf fff0 78bf 673d 30bf
000003d0: 53dd 70be 831f 953e acc4 293f 2315 643f
000003e0: 5bb8 1e3f ee7f 013f 97ff dfbe 30a3 89bf
000003f0: e2fc 83bf 93f7 8fbe 9997 ee3e 1b9b 473f

weight f4 [8]
1.2242155 2.2424397 1.968309 0.84361196 3.5644004 1.4548109 2.4407594 4.047585
00000000: 18b3 9c3f 2284 0f40 8df1 fb3f f4f6 573f
00000010: 231f 6440 3e37 ba3f 6735 1c40 d185 8140

bias f4 [8]
0.33150676 0.29822183 -0.02316506 0.18894228 0.07324684 0.35978994 -0.17857347 -0.14065951
00000000: 41bb a93e 88b0 983e a7c4 bdbc 167a 413e
00000010: 7002 963d 6336 b83e f7db 36be 0c09 10be

running_mean f4 [8]
8.757882e-07 -1.6885924e-07 -8.2536906e-07 5.244068e-07 7.68896e-08 -5.0139863e-07 3.4212164e-07 1.3945426e-09
00000000: b517 6b35 ad4f 35b4 ee8e 5db5 f6c4 0c35
00000010: 811e a533 da97 06b5 d7ac b734 1baa bf30

running_var f4 [8]
3.866415e-09 1.4397988e-09 5.54746e-09 5.1794284e-09 1.1150202e-09 4.7815565e-09 4.6259987e-09 1.5886199e-09
00000000: 59d9 8431 6be2 c530 f99b be31 bcf6 b131
00000010: 493f 9930 044b a431 b7f2 9e31 9856 da30

weight f4 [16, 1, 22, 1]
-0.106342345 -0.9408296 -0.309307 -1.2605253 0.16234483 0.35381183 0.051933154 0.009444612
-0.3630278 0.28851885 0.6610838 -0.42154935 1.1988307 0.22414626 0.4760034 0.22849551
0.8868418 0.19508927 0.2629668 -0.6130944 -0.39735714 -1.2083564 -0.0014114258 -0.45806628
-0.29692128 -0.16142122 0.63609356 1.0892129 0.033725206 -1.0733993 -0.3295056 0.41135255
0.38201436 -0.546677 -0.09620789 0.08236907 0.554509 0.5805896 -0.3598391 -0.5852148
1.1137238 0.19669628 -0.5715271 -0.74395376 0.59871906 -0.120234095 -0.10391118 -1.6056207
-0.47983715 -0.59186786 1.1137692 0.19727446 -0.81379133 0.31167263 0.34851515 0.041785307
-0.13035569 0.6407022 -0.03683392 0.3145917 0.79983467 0.04061004 -0.19577971 0.20925494
0.25406325 -1.3010114 -0.17434578 0.57753634 0.54202163 -0.05053902 -0.39651796 -0.38532245
-0.7016151 0.7739232 0.8726882 0.42010486 0.023781974 0.046122845 0.42107627 -0.52719706
-1.0285347 -0.7242995 0.5151904 0.560679 -0.022334153 -0.6991945 0.4718563 -0.9466385
-0.095847584 0.7849763 0.56655514 -0.2849095 -0.7364801 -0.67522484 1.8966308 0.37051395
-0.49762464 0.029781636 -0.5840601 -0.5140594 -0.42297655 -0.037835117 -0.24408789 -0.69900423
-0.006079388 0.22262818 -0.20040844 0.05670327 0.7570702 0.42800733 -0.6655 0.5127995
-0.070999265 1.0007908 -0.14510596 -0.21452488 -1.4456733 -0.16025226 0.82684445 -0.28287885
-0.17397204 0.9028023 -1.1190177 -0.15835969 0.71858215 0.13349107 -0.22692674 0.7629768
0.23023175 0.5268459 -0.36398277 -0.018636374 0.26595175 0.091119036 -0.6333158 -0.058409523
-0.31884888 -0.10674278 -0.29316908 1.1734775 0.46841455 -0.9733063 0.13048004 1.1528783
0.15401775 0.25968742 -0.62036014 -0.6063089 0.12978932 0.4097378 -0.82044333 -0.31524277
0.09463211 0.9791753 0.9396701 -0.06904662 -0.22665074 0.21845084 -0.33306065 -0.66913897
0.45304564 -1.2882591 -0.113982104 1.1591845 -0.3223444 -0.7915432 0.3394761 -0.525924
-0.16011785 1.0384336 0.23608637 0.14208354 0.23449048 -0.20874174 0.55393213 -0.6230703
0.17666447 0.8862647 -0.06452609 0.21529375 -0.22003417 0.018257366 1.1191244 -1.7840914
-0.007717755 1.0410159 -0.5244014 0.2682354 0.0718146 -1.5197364 -0.7269847 0.36394382
-0.047174327 -0.13855486 0.52176356 0.5152023 -0.38476324 0.19236767 0.1579633 0.27538684
-0.02237275 -0.99831724 -0.1564659 -0.1079271 0.040689755 0.055212844 -0.34041327 -0.33875737
0.49134555 0.10385163 -0.5515484 -0.8152495 0.058804024 2.0267487 1.0358616 -0.3252993
0.0043451814 0.4783247 -0.1833087 -0.79665995 0.0577839 0.5506844 0.20051645 0.70143175
-0.045986917 0.051411223 -1.0666443 -0.80054474 0.10315186 -0.41984138 -0.38173863 0.31860736
-0.60273045 -0.63201946 0.020436326 -0.14273883 -0.8249545 0.09612196 1.0163885 1.1370041
-0.16146418 0.7588976 1.0196924 -0.73264545 -0.8124208 0.3474728 0.7540747 0.85455424
-1.0189964 -0.826993 -0.1811128 -0.30616218 -0.2575954 -0.55822694 0.6260862 -0.04495307
00000000: 04ca d9bd 35da 70bf 7d5d 9ebe e558 a1bf
00000010: b93d 263e d326 b53e dcb7 543d 93bd 1a3c
00000020: c8de b9be beb8 933e ca3c 293f 51d5 d7be
00000030: 4973 993f 9986 653e b8b6 f33e bafa 693e
00000040: 1008 633f 7bc5 473e 96a3 863e c1f3 1cbf
00000050: 6572 cbbe 6cab 9abf 97ff b8ba aa87 eabe
00000060: 1106 98be 9b4b 25be 07d7 223f 546b 8b3f
00000070: 7123 0a3d 2665 89bf f5b4 a8be cd9c d23e
00000080: 6397 c33e 06f3 0bbf a408 c5bd 1db1 a83d
00000090: 4df4 0d3f 85a1 143f d53c b8be a3d0 15bf
000000a0: 808e 8e3f c06a 493e 9a4f 12bf c173 3ebf
000000b0: a745 193f 4b3d f6bd 62cf d4bd fb84 cdbf
000000c0: 37ad f5be a784 17bf fd8f 8e3f 5102 4a3e
000000d0: a154 50bf 8e93 9f3e 9470 b23e 1227 2b3d
000000e0: f67b 05be 0f05 243f 2adf 16bd 2a12 a13e
000000f0: f7c1 4c3f b756 263d 7a7a 48be ed46 563e
00000100: 9414 823e 8b87 a6bf b387 32be 6cd9 133f
00000110: eec1 0a3f 0102 4fbd 6704 cbbe fc48 c5be
00000120: 0c9d 33bf d51f 463f 7e68 5f3f fc17 d73e
00000130: 6ad2 c23c 4feb 3c3d 4f97 d73e 63f6 06bf
00000140: 06a7 83bf b16b 39bf 85e3 033f a988 0f3f
00000150: 1df6 b6bc 69fe 32bf 2697 f13e e756 72bf
00000160: bd4b c4bd 35f4 483f c209 113f a8df 91be
00000170: f689 3cbf 89db 2cbf ccc4 f23f 01b4 bd3e
00000180: a8c8 febe 9ef8 f33c f684 15bf 6699 03bf
00000190: 6290 d8be fff8 1abd 2df2 79be f1f1 32bf
000001a0: 9a35 c7bb a4f8 633e df37 4dbe b041 683d
000001b0: 5acf 413f c723 db3e 355e 2abf d446 033f
000001c0: 1068 91bd ea19 803f a896 14be 69ac 5bbe
000001d0: d30b b9bf 2b19 24be 14ac 533f 7fd5 90be
000001e0: ba25 32be 0d1e 673f f93b 8fbf 0b29 22be
000001f0: 00f5 373f e2b1 083e 7c5f 68be 7352 433f
00000200: dfc1 6b3e 5fdf 063f f35b babe 4fab 98bc
00000210: d42a 883e 9e9c ba3d fc20 22bf d33e 6fbd
00000220: 2940 a3be f59b dabd 421a 96be 8334 963f
00000230: 08d4 ef3e 9a2a 79bf 8f9c 053e 8491 933f
00000240: d4b6 1d3e c0f5 843e eccf 1ebf 0f37 1bbf
00000250: 7ee7 043e 27c9 d13e 9308 52bf 8067 a1be
00000260: 7bce c13d 3cab 7a3f 388e 703f 5068 8dbd
00000270: 2217 68be 94b1 5f3e ed86 aabe b14c 2bbf
00000280: 99f5 e73e ade5 a4bf 736f e9bd 2860 943f
00000290: 530a a5be 93a2 4abf d0cf ad3e f5a2 06bf
000002a0: eff5 23be 64eb 843f a0c0 713e 597e 113e
000002b0: 461e 703e 65c0 55be 7fce 0d3f 8981 1fbf
000002c0: 88e7 343e 3ee2 623f 4126 84bd f775 5c3e
000002d0: a350 61be 7990 953c 783f 8f3f 1b5d e4bf
000002e0: 39e5 fcbb 0240 853f 2c3f 06bf 2656 893e
000002f0: 8813 933d b986 c2bf ab1b 3abf d856 ba3e
00000300: de39 41bd 53e1 0dbe 4c92 053f 4ce4 033f
00000310: b0ff c4be 08fc 443e 22c1 213e 81ff 8c3e
00000320: 0f47 b7bc b891 7fbf 9938 20be e208 ddbd
00000330: 4daa 263d dd26 623d a64a aebe 9b71 adbe
00000340: a591 fb3e 2ab0 d43d 4732 0dbf 31b4 50bf
00000350: 7ddc 703d 40b6 0140 1d97 843f a18d a6be
00000360: 0662 8e3b fae6 f43e 47b5 3bbe e8f1 4bbf
00000370: d0ae 6c3d a7f9 0c3f 2f54 4d3e 0891 333f
00000380: c75c 3cbd 9394 523d cd87 88bf 80f0 4cbf
00000390: 4841 d33d 73f5 d6be 3f73 c3be 8120 a33e
000003a0: 8b4c 1abf 07cc 21bf 156a a73c 212a 12be
000003b0: 3830 53bf 97db c43d 0519 823f 5a89 913f
000003c0: de56 25be 1d47 423f 4885 823f a78e 3bbf
000003d0: cffa 4fbf f4e7 b13e 0a0b 413f 11c4 5a3f
000003e0: 796e 82bf d0b5 53bf a275 39be 4ac1 9cbe
000003f0: 8be3 83be f6e7 0ebf 2f47 203f b620 38bd

weight f4 [16]
1.0480955 1.1277869 2.4890149 2.5615592 2.3858714 1.0850862 1.3154753 1.1414928
4.4591637 2.9567518 1.4666594 1.1369884 2.3963106 2.5083284 2.941229 4.7309904
00000000: fe27 863f 525b 903f 054c 1f40 96f0 2340
00000010: 1eb2 1840 1be4 8a3f 7f61 a83f 701c 923f
00000020: 78b1 8e40 6c3b 3d40 7fbb bb3f d688 913f
00000030: 275d 1940 7488 2040 193d 3c40 4664 9740

bias f4 [16]
0.05979025 -0.19064695 -1.0721201 -0.9636585 -0.9090832 -0.029556954 -0.34045497 -0.43484285
-1.9709625 -1.7842625 -0.31929672 -0.28402787 -0.6997048 -0.54928243 -1.9663674 -1.6398945
00000000: 9fe6 743d f438 43be 3b3b 89bf 53b2 76bf
00000010: adb9 68bf 6d21 f2bc 1d50 aebe b9a3 debe
00000020: 8048 fcbf b762 e4bf dc7a a3be 1a6c 91be
00000030: db1f 33bf c69d 0cbf edb1 fbbf 10e8 d1bf

running_mean f4 [16]
-0.20781794 -0.046945214 -0.15312001 -0.13368763 -0.0010941058 -0.011625269 0.1059313 -0.001999288
-0.0019543332 0.0066589736 -0.017634777 -0.032332126 -0.0061137206 0.048753858 -0.016063076 0.006472138
00000000: 3ace 54be a049 40bd 7ecb 1cbe 69e5 08be
00000010: 1968 8fba ea77 3ebc 82f2 d83d 7d06 03bb
00000020: 4514 00bb 8533 da3b cf76 90bc b16e 04bd
00000030: 9b55 c8bb 20b2 473d b696 83bc 3b14 d43b

running_var f4 [16]
0.0011652086 0.00032460399 0.00122722 0.00182218 0.006173452 0.0051230025 0.00023659455 0.00018439554
0.002111628 0.0014472668 0.0013969382 0.0016481467 0.008837921 0.0031056865 0.0030055884 0.004309259
00000000: eab9 983a 9c2f aa39 acda a03a 37d6 ee3a
00000010: ab4a ca3b dcde a73b 5e16 7839 4d5a 4139
00000020: 3d63 0a3b 37b2 bd3a 7819 b73a a006 d83a
00000030: edcc 103c c688 4b3b 68f9 443b af34 8d3b

weight f4 [16, 1, 1, 16]
-1.2180613 -0.5346989 -0.33686343 -0.06756304 0.15061171 -0.55968827 -0.1937039 0.026619652
0.1799989 0.28838208 0.2983632 0.03323832 -0.300917 -0.62408227 -1.2493768 -1.9700439
0.22956246 0.33209932 -0.003259728 -0.06311723 -0.26581037 -0.23050733 -0.5189226 -0.38220388
-0.67889607 -0.8225032 -0.5637689 -0.66106445 -0.24040836 -0.70579314 -0.6883483 -1.011385
-1.3593267 -0.47891 -0.19229417 -0.47294685 0.4191775 -0.28043702 -0.33314675 -0.0024337878
-0.721644 -0.47560135 0.21058626 -0.43776894 0.1235562 0.11812283 -0.38620365 -0.31262532
-1.1700273 -0.71454334 -0.70317334 -0.11588706 -0.048521146 -0.51090837 0.19043663 -0.40314412
0.045738414 -0.27115452 -0.9037201 -0.095680036 -0.13825433 -0.3915812 0.4084581 -0.21021467
1.1248044 0.20777822 0.4329974 0.5929095 -0.12941134 0.1278149 0.23694415 -0.29916045
0.16216825 -0.16698131 -0.07500573 0.07831586 0.2709928 0.5527637 0.9060046 1.5730053
0.24649863 -0.0867543 0.7466248 0.113895416 -0.013399569 0.3343285 -0.4557387 -0.2050707
0.27052328 -0.54963976 -0.25323093 0.34533283 0.04676551 0.769372 0.9380536 1.7064335
0.057994153 -0.14577335 0.060231443 0.06791603 -0.21469617 -0.44106978 -0.43260476 -0.4593229
-0.46943527 -0.45727754 -0.18150951 -0.15676223 -0.29251632 -0.6715103 -0.8924353 -0.90491545
1.6545357 1.3159555 0.696329 0.2886787 0.23320131 0.4226561 0.5290642 0.5987122
0.3560853 0.18563266 0.3833001 -0.0427553 -0.23415294 -0.09926075 -0.2768227 -0.25177193
1.5038866 0.63521063 0.90402025 0.8239301 -0.53999984 0.4216611 -0.22847277 0.032503515
0.56052005 0.06554586 0.5479616 0.21450162 -0.4256342 1.1586876 0.25379738 0.3392578
-1.1088557 -1.1089773 -0.66245306 -0.4759074 -0.4012905 -0.25189742 -0.38952476 -0.5125267
-0.1564339 -0.057561748 -0.051933262 -0.05778423 -0.534291 -0.16250072 -0.19670625 -0.7604324
1.4548645 0.9655864 0.76944077 0.10644148 -0.15837891 -0.37440434 -0.7485214 -0.7521403
-0.72287816 -0.23390616 -0.034846667 0.068147846 0.22731802 0.25036392 0.4893191 0.42095116
-1.0393558 -0.9179956 -0.53143805 -0.24983363 -0.6645488 -0.5140879 -0.30776802 -0.24665734
0.06647265 -0.033774786 0.043572225 -0.17276035 0.028588073 -0.31942832 -0.20363683 -0.77980995
-1.334375 -0.6096815 -0.49202538 -0.38638508 -0.24728312 0.08902714 -0.022662533 -0.39189076
-0.47958547 0.16666055 -0.30553427 -0.31967428 0.20772357 -0.39686 -0.654104 -0.24777785
-1.0792645 -0.88608396 -0.287505 -0.30483314 -0.66095877 -0.4470538 -0.352857 -0.70978224
-0.23462754 -0.19969538 -0.533287 -0.13902587 -0.24743822 -0.19991899 0.0059822346 -0.17829208
2.035832 -0.37141344 0.13475685 0.88107634 -1.4817699 0.50754714 0.785719 -0.49603572
0.7028655 0.062237717 -0.6074161 1.0872949 -1.2759821 0.46008646 1.1222699 -0.6725269
-1.3809048 -0.9040944 -0.1647324 -0.86563796 -0.09208657 -0.5378169 -0.66146904 -0.08963022
-0.6808634 -0.01778316 -0.16125843 -0.6732838 0.38707763 -0.71297294 -0.5681481 -0.34939885
00000000: 6fe9 9bbf 07e2 08bf 5d79 acbe 7e5e 8abd
00000010: f539 1a3e bb47 0fbf 515a 46be 7511 da3c
00000020: a251 383e d1a6 933e 10c3 983e e824 083d
00000030: cb11 9abe dbc3 1fbf 94eb 9fbf 662a fcbf
00000040: 6c12 6b3e ec08 aa3e 29a1 55bb 9b43 81bd
00000050: 4c18 88be 1d0a 6cbe 1dd8 04bf 3ab0 c3be
00000060: 22cc 2dbf 928f 52bf 2953 10bf 853b 29bf
00000070: 9c2d 76be dcae 34bf 9837 30bf 1075 81bf
00000080: 6bfe adbf b133 f5be c3e8 44be 1726 f2be
00000090: 6f9e d63e 7195 8fbe 3692 aabe 2f80 1fbb
000000a0: a9bd 38bf 0582 f3be eda3 573e 4023 e0be
000000b0: 080b fd3d 62ea f13d 7cbc c5be 6d10 a0be
000000c0: 74c3 95bf 50ec 36bf 2b03 34bf 3256 edbd
000000d0: 1cbe 46bd e4ca 02bf d201 433e e868 cebe
000000e0: 3458 3b3d c4d4 8abe 335a 67bf e5f3 c3bd
000000f0: 8b92 0dbe 557d c8be 6c21 d13e 8442 57be
00000100: 97f9 8f3f d0c3 543e d6b1 dd3e ebc8 173f
00000110: 6884 04be e9e1 023e 7da1 723e 8f2b 99be
00000120: 6f0f 263e 26fd 2abe 9b9c 99bd 1164 a03d
00000130: 91bf 8a3e ec81 0d3f ebef 673f 3d58 c93f
00000140: 236a 7c3e 3dac b1bd ce22 3f3f 0042 e93d
00000150: de89 5bbc 1b2d ab3e 9556 e9be 0efe 51be
00000160: 0782 8a3e 31b5 0cbf 7ca7 81be 77cf b03e
00000170: 318d 3f3d 90f5 443f 4824 703f 6a6c da3f
00000180: 478b 6d3d 9c45 15be 3fb5 763d 8f17 8b3d
00000190: 50d9 5bbe e6d3 e1be 5f7e ddbe 5f2c ebbe
000001a0: d259 f0be 4820 eabe a1dd 39be 4786 20be
000001b0: b3c4 95be 19e8 2bbf a476 64bf 8aa8 67bf
000001c0: d3c7 d33f 3b71 a83f 9e42 323f b2cd 933e
000001d0: 53cc 6e3e 6166 d83e c070 073f 3445 193f
000001e0: d050 b63e 7d16 3e3e e93f c43e 2e20 2fbd
000001f0: cac5 6fbe 3849 cbbd b4bb 8dbe 40e8 80be
00000200: 5b7f c03f 2a9d 223f df6d 673f 15ed 523f
00000210: 6e3d 0abf f7e3 d73e c4f4 69be 6822 053d
00000220: 3e7e 0f3f e83c 863d 3647 0c3f 50a6 5b3e
00000230: baec d9be e04f 943f bbf1 813e 33b3 ad3e
00000240: fcee 8dbf f8f2 8dbf 8696 29bf 22aa f3be
00000250: f375 cdbe b3f8 80be ca6f c7be f334 03bf
00000260: 3530 20be dec5 6bbd f9b7 54bd 28af 6cbd
00000270: 4cc7 08bf 9766 26be 5d6d 49be b3ab 42bf
00000280: 0039 ba3f ac30 773f 12fa 443f fefd d93d
00000290: 152e 22be edb1 bfbe 199f 3fbf 448c 40bf
000002a0: 8b0e 39bf 1985 6fbe 61bb 0ebd 1991 8b3d
000002b0: 0ec6 683e b32f 803e 0888 fa3e e986 d73e
000002c0: 9c09 85bf c201 6bbf 530c 08bf 63d4 7fbe
000002d0: df1f 2abf 449b 03bf c593 9dbe be93 7cbe
000002e0: d022 883d 6e57 0abd ca78 323d 17e8 30be
000002f0: 8931 ea3c 1c8c a3be 2c86 50be a0a1 47bf
00000300: cdcc aabf 1614 1cbf c0ea fbbe 44d4 c5be
00000310: c937 7dbe dc53 b63d c7a6 b9bc e8a5 c8be
00000320: 3a8c f5be 10a9 2a3e fd6e 9cbe 59ac a3be
00000330: 7db5 543e 3c31 cbbe 5c73 27bf 7ab9 7dbe
00000340: 5725 8abf 66d6 62bf db33 93be 1713 9cbe
00000350: 9834 29bf 3ce4 e4be aca9 b4be 4ab4 35bf
00000360: 3442 70be f27c 4cbe 7f85 08bf cc5c 0ebe
00000370: 7260 7dbe 90b7 4cbe 9f06 c43b 3392 36be
00000380: 124b 0240 e729 bebe b3fd 093e 388e 613f
00000390: a3aa bdbf 9cee 013f e124 493f 65f8 fdbe
000003a0: feee 333f faec 7e3d 9f7f 1bbf 7b2c 8b3f
000003b0: 6253 a3bf 7490 eb3e 8aa6 8f3f b92a 2cbf
000003c0: 7dc1 b0bf bb72 67bf 9caf 28be 739a 5dbf
000003d0: e297 bcbd 5eae 09bf 0956 29bf 0c90 b7bd
000003e0: 104d 2ebf fdad 91bc ee20 25be 545c 2cbf
000003f0: 0a2f c63e 6585 36bf 2772 11bf 68e4 b2be

weight f4 [16, 16, 1, 1]
0.47988826 -0.113431595 0.5758515 -0.26877838 -0.8435071 0.6664486 -0.14385219 -1.3853328
0.6999443 0.22803544 0.35086817 0.12229643 0.6487273 -0.22499442 1.1140727 -0.056584954
0.68689567 1.1388801 0.87095743 1.1420531 -0.92866665 0.26486993 -0.28823262 -0.24758157
0.124942444 0.26180485 0.051292174 -0.06581083 0.9103534 0.0567128 -0.40830177 -0.34890187
-0.27640918 -0.18300593 0.24663562 0.08309587 -0.92318505 0.4559483 1.0015937 0.39264953
-0.16420951 -0.39408934 0.5024259 0.09092968 0.046810083 0.80222803 0.12137257 -1.1920636
0.1472938 0.056791794 -0.63502973 -0.5782238 0.47574693 -0.08994899 -0.41577607 -1.07688
-0.12034884 0.1513804 -0.92952883 0.8317476 0.4649354 -0.7843711 0.30801877 1.0611945
1.7855433 0.17547031 -0.14547682 0.47042477 0.20514098 -1.191248 -0.0011188325 0.8731303
-0.44691005 0.49717316 -0.5043732 -0.66455275 -0.41103962 0.9438496 -0.015323692 -0.5259768
-0.51540077 -0.4474857 -0.25461367 -0.47142994 0.6822577 -0.12226255 -0.014573315 0.5169761
0.11991191 -0.29228705 0.9166072 0.6527076 0.25721774 -0.002274644 0.5949304 1.3807069
1.9393599 -0.91829723 -0.30858055 0.14683393 -0.095400855 -1.3389982 0.3446855 0.58357346
-0.015634835 0.8956806 -0.025692442 -0.3569216 -0.4523653 0.1758989 0.1049399 0.03408651
-0.39115816 -0.20592052 0.7927509 0.18547545 -0.43671742 0.8731721 0.44177133 -0.32413384
0.6374557 -0.86518055 0.6629526 0.23430063 0.6691503 0.23287773 1.8233825 -0.0038036425
-0.26562312 -0.49326265 0.87389934 0.773271 -0.1917621 0.35911605 -0.26991904 -0.0050591053
1.2091027 0.47041547 0.55413675 0.40303713 0.54662454 0.53134954 1.6380683 0.10999404
-0.42940095 -0.49776444 0.114562176 -0.036144212 0.19618233 0.3533418 0.35480636 0.9722213
0.74873364 -0.4722992 0.38811848 0.5800957 0.50428355 0.3035774 1.4234478 0.7182401
0.17417648 0.5816056 0.2479728 0.9142648 0.37716338 0.383112 -0.9945554 -0.5982195
0.6985761 0.93460995 -0.5977027 -0.07178461 0.771011 0.34477088 -0.8640912 -0.05584651
-0.36184946 -0.45431706 0.37303156 0.21987128 -0.55725366 0.5039585 0.7922357 0.2413468
-1.1768123 -0.7161964 0.742111 -0.6729438 -0.8722843 -0.092745595 -0.49294847 -0.22266789
0.22984855 0.9893175 0.86497056 0.799127 -0.9993174 0.119367614 0.34217426 0.11546777
-0.9012755 -0.6565859 0.283576 -0.53576803 0.2840677 -0.2805487 -0.87809557 -0.50099283
-0.031514607 -0.6312198 0.4023059 0.5165477 -0.07028347 0.6397185 0.5162071 0.9084798
0.4608142 0.9585482 1.3809593 0.67974716 -0.10526957 1.260048 -0.41422477 -0.40256828
0.8530877 0.92544764 1.0148227 0.80337626 -0.61330765 0.09905196 -0.4151317 -0.48131058
-0.22628304 -0.3587862 0.49263594 -1.1992911 0.3374128 -0.48652947 -1.0143553 -0.55737305
-0.25162673 0.27857286 0.56029993 0.54135853 -0.78588396 0.8228086 0.8105862 0.18587922
-0.06041927 -0.64429075 0.34780645 0.025309319 0.32788232 0.8142439 -0.6208015 -1.2822337
00000000: eab3 f53e d34e e8bd 016b 133f 529d 89be
00000010: 15f0 57bf 609c 2a3f fd4d 13be 9652 b1bf
00000020: 8d2f 333f 1f82 693e fea4 b33e 8d76 fa3d
00000030: fe12 263f f064 66be ef99 8e3f a0c5 67bd
00000040: 65d8 2f3f d3c6 913f 11f7 5e3f cc2e 923f
00000050: 19bd 6dbf 089d 873e 3a93 93be 0686 7dbe
00000060: d3e1 ff3d 490b 863e be17 523d d4c7 86bd
00000070: ec0c 693f ae4b 683d ee0c d1be 44a3 b2be
00000080: 8185 8dbe e865 3bbe 0c8e 7c3e 2b2e aa3d
00000090: db55 6cbf 0e72 e93e 3934 803f 5c09 c93e
000000a0: 8a26 28be 14c6 c9be fc9e 003f 5739 ba3d
000000b0: eebb 3f3d d15e 4d3f 2f92 f83d 8a95 98bf
000000c0: 30d4 163e 839e 683d 4f91 22bf 7a06 14bf
000000d0: 1a95 f33e 2d37 b8bd 9ae0 d4be 34d7 89bf
000000e0: 7479 f6bd 7703 1b3e 9af5 6dbf 69ed 543f
000000f0: 030c ee3e 8bcc 48bf a3b4 9d3e 39d5 873f
00000100: af8c e43f 7dae 333e e0f7 14be 84db f03e
00000110: 7a10 523e d17a 98bf caa5 92ba 7885 5f3f
00000120: 65d1 e4be 7b8d fe3e 9a1e 01bf 2120 2abf
00000130: c973 d2be 21a0 713f 3910 7bbc 6aa6 06bf
00000140: 4ef1 03bf d81c e5be b95c 82be 445f f1be
00000150: 71a8 2e3f ca64 fabd eac4 6ebc 8c58 043f
00000160: 6094 f53d a6a6 95be c5a6 6a3f d817 273f
00000170: 0bb2 833e 3212 15bb 5c4d 183f 01bb b03f
00000180: f23c f83f 8715 6bbf 45fe 9dbe a25b 163e
00000190: 8661 c3bd 4b64 abbf 9e7a b03e 1265 153f
000001a0: a014 80bc 534b 653f f578 d2bc 6ebe b6be
000001b0: 6d9c e7be d71e 343e bbea d63d 4c9e 0b3d
000001c0: e245 c8be d4dc 52be b9f1 4a3f 47ed 3d3e
000001d0: 6d99 dfbe 3588 5f3f da2f e23e dff4 a5be
000001e0: 4c30 233f 797c 5dbf 43b7 293f 81ec 6f3e
000001f0: 6f4d 2b3f 8077 6e3e 9964 e93f 8846 79bb
00000200: c1ff 87be ec8c fcbe deb7 5f3f 17f5 453f
00000210: 495d 44be 0fde b73e d432 8abe dac6 a5bb
00000220: e1c3 9a3f 4cda f03e e8db 0d3f e25a ce3e
00000230: 96ef 0b3f 8606 083f 39ac d13f 8e44 e13d
00000240: 71da dbbe fbda febe 939f ea3d f40b 14bd
00000250: 05e4 483e 37e9 b43e 2ea9 b53e 7fe3 783f
00000260: 02ad 3f3f 33d1 f1be 77b7 c63e 2781 143f
00000270: ba18 013f 7f6e 9b3e 8a33 b63f 95de 373f
00000280: 525b 323e 1be4 143f 95ec 7d3e 420d 6a3f
00000290: 8f1b c13e 4227 c43e 2f9b 7ebf ea24 19bf
000002a0: e2d5 323f 9942 6f3f 0b03 19bf cf03 93bd
000002b0: fa60 453f cf85 b03e 1535 5dbf 4fbf 64bd
000002c0: 5544 b9be 3f9c e8be fefd be3e f025 613e
000002d0: 2da8 0ebf 6d03 013f f5cf 4a3f 9e23 773e
000002e0: c9a1 96bf a658 37bf fdfa 3d3f 0b46 2cbf
000002f0: 064e 5fbf 67f1 bdbd be63 fcbe 0d03 64be
00000300: 6b5d 6b3e e943 7d3f b66e 5d3f 9693 4c3f
00000310: 44d3 7fbf 0277 f43d 7731 af3e 5e7a ec3d
00000320: feb9 66bf 0316 28bf e030 913e 1828 09bf
00000330: 5271 913e 14a4 8fbe dfca 60bf 1141 00bf
00000340: 7615 01bd 9f97 21bf 0afb cd3e 783c 043f
00000350: c8f0 8fbd 97c4 233f 2626 043f 2292 683f
00000360: d7ef eb3e 6a63 753f 46c3 b03f e903 2e3f
00000370: 9397 d7bd 4149 a13f 4515 d4be 6e1d cebe
00000380: f563 5a3f 23ea 6c3f b6e5 813f 11aa 4d3f
00000390: bb01 1dbf c1db ca3d 248c d4be 576e f6be
000003a0: beb6 67be d3b2 b7be c73a fc3e 5f82 99bf
000003b0: 5fc1 ac3e 641a f9be 65d6 81bf 00b0 0ebf
000003c0: 38d5 80be 1aa1 8e3e d16f 0f3f 7996 0a3f
000003d0: b12f 49bf 96a3 523f 9482 4f3f 1f57 3e3e
000003e0: 327a 77bd 3df0 24bf b013 b23e 7d55 cf3c
000003f0: 31e0 a73e 4a72 503f d9ec 1ebf 3c20 a4bf

weight f4 [16]
0.86732656 1.0540595 0.73593915 0.9169624 1.0532279 1.1305285 1.0006185 1.2692338
1.7170988 1.1278598 1.2571868 0.93888134 1.1313328 1.1372397 0.7176513 0.8798785
00000000: 1d09 5e3f 6ceb 863f 8266 3c3f 0cbe 6a3f
00000010: 2cd0 863f 28b5 903f 4414 803f 4176 a23f
00000020: e5c9 db3f b65d 903f 7feb a03f 875a 703f
00000030: 83cf 903f 1291 913f ffb7 373f b83f 613f

bias f4 [16]
-0.14177763 -0.31638476 0.12375494 -0.18926185 -0.38851574 -0.33661044 -0.28372407 -0.24346802
-0.104640886 -0.1617975 -0.5348394 -0.12961249 -0.2962008 -0.50775295 -0.057141226 0.08213958
00000000: 282e 11be 2ffd a1be 3b73 fd3d dccd 41be
00000010: 89eb c6be 3458 acbe 4844 91be ae4f 79be
00000020: f64d d6bd 3eae 25be 3ceb 08bf 23b9 04be
00000030: a2a7 97be 19fc 01bf eb0c 6abd cc38 a83d

running_mean f4 [16]
0.8039099 0.03141307 1.4057612 -1.6991642 -2.5621731 -3.8284657 -1.7926255 -1.0962652
0.11484348 -2.9074037 1.8524954 -0.17069882 -0.37743723 1.2969989 1.0759431 2.0424418
00000000: 0acd 4d3f feaa 003d fcef b33f 367e d9bf
00000010: a5fa 23c0 9505 75c0 c174 e5bf 6b52 8cbf
00000020: 0f33 eb3d e712 3ac0 921e ed3f accb 2ebe
00000030: 743f c1be 0f04 a63f 81b8 893f 5eb7 0240

running_var f4 [16]
205.85599 169.4516 193.12515 215.22829 177.51208 237.68823 133.56953 278.86746
297.24692 231.29692 148.4857 166.99669 207.39944 173.439 200.65077 206.93123
00000000: 22db 4d43 9c73 2943 0a20 4143 713a 5743
00000010: 1883 3143 30b0 6d43 cd91 0543 096f 8b43
00000020: 9b9f 9443 034c 6743 577c 1443 27ff 2643
00000030: 4266 4f43 6270 2d43 99a6 4843 65ee 4e43

weight f4 [4, 128]
-0.21097147 0.29503927 -0.12277639 -0.19517115 -0.17168285 -0.53089505 -0.5088269 -0.33953625
-0.4021157 -0.9105361 -0.4519339 -0.21964917 -0.03904336 0.03485653 0.026399832 -0.30514684
-0.47253934 -0.48793265 -0.8599795 -1.247387 -0.9510955 -1.003924 -0.5974185 -0.52840984
0.113199376 0.34416327 0.8667149 0.63719106 0.529041 0.44280788 0.27831912 0.25814444
0.07741588 -0.3195483 -0.37559813 -0.19972259 -0.36207744 -0.16091195 -0.206107 0.014413657
0.25391454 0.8147891 0.15863898 0.39308813 0.77114797 0.69794315 0.81979764 0.506098
0.37941146 0.5043713 0.17389996 -0.22512197 -0.36948073 -0.25459778 -0.27753016 -0.20657805
0.16497564 0.2806263 -0.27810234 -0.2201676 -0.025758568 -0.16863483 -0.17929778 -0.34535244
0.19796844 0.41518214 -0.1045181 -0.110631466 0.2168397 -0.019512948 0.104034856 -0.088387296
0.8697649 0.6476261 -0.22834757 -0.057423685 0.18502662 0.2904771 0.4591087 0.29837835
-0.24921206 -0.96415156 -0.23379686 0.45854193 0.2526615 0.22767378 -0.07246242 -0.053205684
-0.18192086 0.4911151 -0.08148752 -0.43895862 -0.48032764 -0.73866856 0.037355855 -0.025394317
-0.5172552 -0.875269 -0.719679 -0.51100093 -0.18637905 -0.17601535 0.10820611 -0.100101136
-0.31944856 0.028938614 -0.39267108 -0.5374762 -0.18967517 -0.35062724 0.02303509 -0.055081908
-0.63593805 -0.78357124 -0.88126105 -0.25723124 -0.19309862 -0.488585 -0.10151517 -0.17825426
-0.6633382 -1.1559715 -1.1132227 -1.0588441 -0.8423301 -0.7157803 -0.56480896 -0.3649919
-0.70219105 -0.76204985 -0.7743826 -0.10585156 0.2842024 -0.18892784 -0.06585809 -0.095149115
-0.042836208 0.050058566 0.0318311 0.30610168 0.17054853 -0.08220348 -0.023698378 -0.11633933
0.300559 0.373671 0.21682635 0.16510275 0.14089012 0.2588695 0.105391756 0.0028455365
0.21898557 -0.41616768 -0.5299438 -0.23451735 -0.16969925 -0.19063471 -0.09724585 -0.11287363
0.2869229 0.47838426 0.6882058 0.35432652 0.08151335 -0.10839497 0.070486486 -0.18217748
-0.50167143 -0.27062893 -0.43950096 -0.85180604 -0.70941716 -0.17293736 -0.26248845 -0.0302406
0.029206304 0.24914274 0.30043703 0.2273018 -0.099881046 -0.12586667 -0.05482871 -0.049316037
-1.0346019 -0.6491099 -0.903959 -0.39672416 -0.21453877 -0.21111502 -0.28813687 -0.29538476
-1.4926085 -1.1615428 -1.1422485 -0.8465148 -0.49405563 -0.33106583 -0.387941 -0.32992586
-1.0619174 -0.49328944 -0.3456312 -0.8613316 -0.70953554 -0.25393265 -0.34969646 -0.23446976
-0.46027625 -0.7733878 -0.45193106 -0.15369666 -0.088367246 -0.29755533 -0.08207263 -0.23697086
0.24440745 0.34359562 0.24700457 0.2634507 0.2743231 0.64766407 0.5010601 0.5659873
0.34237245 0.5784835 0.53241646 0.6639711 0.34576783 0.29526168 0.23036878 0.35092586
-0.31793526 0.07096759 -0.02238707 -0.13086694 -0.45049363 0.0060673845 -0.10440931 0.004999097
0.10669529 0.22362794 0.3528241 0.94206434 0.5478608 0.15072641 0.2563966 0.33522004
0.26606932 0.46805394 0.16361715 0.18391588 0.06930236 0.15918788 0.120482035 0.043318283
00000000: e808 58be 630f 973e 3072 fbbd f2da 47be
00000010: a1cd 2fbe bde8 07bf 7b42 02bf b2d7 adbe
00000020: 1ce2 cdbe e518 69bf e163 e7be b6eb 60be
00000030: eeeb 1fbd b9c5 0e3d 7644 d83c 353c 9cbe
00000040: adf0 f1be 4fd2 f9be 9e27 5cbf 61aa 9fbf
00000050: ff7a 73bf 9580 80bf 6bf0 18bf de45 07bf
00000060: 13d5 e73d 2b36 b03e 07e1 5d3f f41e 233f
00000070: 3b6f 073f b7b7 e23e d87f 8e3e 822b 843e
00000080: 388c 9e3d d69b a3be 664e c0be 1484 4cbe
00000090: 3762 b9be 1ac6 24be b70d 53be 4227 6c3c
000000a0: 1601 823e 0596 503f 4272 223e d942 c93e
000000b0: f469 453f 67ac 323f 42de 513f a38f 013f
000000c0: 3842 c23e 7a1e 013f d512 323e 6086 66be
000000d0: 942c bdbe a45a 82be 6f18 8ebe 3289 53be
000000e0: 60ef 283e 40ae 8f3e 6e63 8ebe 9e73 61be
000000f0: a203 d3bc 9cae 2cbe d699 37be 09d2 b0be
00000100: 3db8 4a3e c192 d43e 960d d6bd c092 e2bd
00000110: 3a0b 5e3e 9ed9 9fbc 3a10 d53d 6604 b5bd
00000120: eaa8 5e3f d3ca 253f f2d3 69be 1935 6bbd
00000130: 9e77 3d3e 6ab9 943e 4c10 eb3e 0cc5 983e
00000140: 7231 7fbe a3d2 76bf 7268 6fbe 02c6 ea3e
00000150: d95c 813e 5123 693e 2d67 94bd 34ee 59bd
00000160: 7649 3abe 7073 fb3e eee2 a6bd 2fbf e0be
00000170: 81ed f5be 6219 3dbf 7402 193d be07 d0bc
00000180: d66a 04bf a111 60bf e23c 38bf f5d0 02bf
00000190: 26da 3ebe 5e3d 34be 2a9b dd3d d301 cdbd
000001a0: c38e a3be ac10 ed3c 2f0c c9be 0a98 09bf
000001b0: 353a 42be 6a85 b3be 16b4 bc3c 919d 61bd
000001c0: d6cc 22bf 2098 48bf 539a 61bf d0b3 83be
000001d0: a5bb 45be d027 fabe 2fe7 cfbd 4988 36be
000001e0: 88d0 29bf e0f6 93bf 157e 8ebf 3488 87bf
000001f0: f2a2 57bf 613d 37bf 5297 10bf 38e0 babe
00000200: cbc2 33bf b315 43bf f03d 46bf b4c8 d8bd
00000210: fa82 913e 4d76 41be 9be0 86bd 8add c2bd
00000220: 0575 2fbd 360a 4d3d 5461 023d 5cb9 9c3e
00000230: 46a4 2e3e 4c5a a8bd 1a23 c2bc 5143 eebd
00000240: dfe2 993e ce51 bf3e ba07 5e3e b210 293e
00000250: 8045 103e 8b8a 843e a2d7 d73d 2e7c 3a3b
00000260: c13d 603e ee13 d5be 66aa 07bf 5125 70be
00000270: a4c5 2dbe bf35 43be d528 c7bd 4a2a e7bd
00000280: 8fe7 923e c8ee f43e 412e 303f 496a b53e
00000290: 79f0 a63d 2ffe ddbd 385b 903d bc8c 3abe
000002a0: 8a6d 00bf e08f 8abe 4506 e1be f60f 5abf
000002b0: 5d9c 35bf 7e16 31be e364 86be 23bb f7bc
000002c0: 0f42 ef3c 461f 7f3e e2d2 993e cec1 683e
000002d0: 6f8e ccbd 31e3 00be 1294 60bd 9dff 49bd
000002e0: d66d 84bf 112c 26bf db69 67bf 6e1f cbbe
000002f0: 0db0 5bbe 892e 58be ad86 93be ac3c 97be
00000300: cc0d bfbf 6fad 94bf 3335 92bf 32b5 58bf
00000310: dcf4 fcbe 7681 a9be 34a0 c6be 0bec a8be
00000320: e9ec 87bf 6f90 fcbe 93f6 b0be 3a80 5cbf
00000330: 1fa4 35bf 7603 82be 6a0b b3be d718 70be
00000340: 54a9 ebbe befc 45bf 8263 e7be a862 1dbe
00000350: e3f9 b4bd 2c59 98be b215 a8bd 7da8 72be
00000360: f245 7a3e c4eb af3e c4ee 7c3e 03e3 863e
00000370: 1474 8c3e 50cd 253f 7a45 003f 8be4 103f
00000380: 714b af3e 7f17 143f 724c 083f 03fa 293f
00000390: 7b08 b13e 8a2c 973e cbe5 6b3e 8eac b33e
000003a0: 69c8 a2be 7557 913d 1765 b7bc fc01 06be
000003b0: 1aa7 e6be e9d0 c63b 8cd4 d5bd 77cf a33b
000003c0: 0f83 da3d b9fe 643e 5ca5 b43e 212b 713f
000003d0: 9b40 0c3f 0658 1a3e 6a46 833e f6a1 ab3e
000003e0: 3d3a 883e c4a4 ef3e 418b 273e 7254 3c3e
000003f0: 65ee 8d3d 2602 233e 49bf f63d 836e 313d

bias f4 [4]
0.7197128 0.15272051 -1.3526891 0.5166369
00000000: 193f 383f c462 1c3e eb24 adbf 5142 043f
